saved_models/MB1_GRU_HS=8_N=2_ZP1/checkpoint1999.pth (torch, 11658 bytes, 18 tensors)

trial_output.weight f4 [2, 16]
0.04719462 0.0751547 -0.10840255 -0.8382184 0.3167671 0.42095125 -0.22290716 0.48491535
0.36637217 0.8146472 -0.90430516 0.19381289 -0.7133581 -1.1875017 1.0941803 0.7632308
-0.074218504 -0.08355006 -0.06787002 -0.030802082 -0.05664842 -0.13625316 0.115409516 -0.26389173
-0.4304785 0.31359053 0.0256194 -0.07160472 -0.33121723 -0.09374248 -0.11493737 0.056703392
00000000: 254f 413d b5ea 993d 2802 debd 7b95 56bf
00000010: 4c2f a23e ec86 d73e c641 64be d346 f83e
00000020: 2295 bb3e b88c 503f 8b80 67bf e376 463e
00000030: a39e 36bf 0e00 98bf 1a0e 8c3f 1863 433f
00000040: dfff 97bd 4b1c abbd 70ff 8abd a654 fcbc
00000050: 2c08 68bd f385 0bbe d35b ec3d d11c 87be
00000060: ae67 dcbe f08e a03e c7df d13c 7fa5 92bd
00000070: 4e95 a9be 0ffc bfbd 4964 ebbd d141 683d

trial_output.bias f4 [2]
-0.63539505 -0.86324424
00000000: 40a9 22bf 93fd 5cbf

rnn.weight_ih_l0 f4 [24, 4]
0.098803796 -0.15677302 0.18930383 0.079696625 0.3486231 -0.7373578 0.21081632 0.19901195
0.3132351 -0.24321298 -0.16001613 -0.04095289 0.75899106 -0.16030514 0.26231822 0.14645186
0.058077734 -0.14214705 0.36473083 -0.22190753 0.7814803 -0.43651366 -0.0982395 -0.12519261
0.44339967 -0.34784627 -0.08520876 -0.03305529 -0.025553742 -0.24906297 0.1011358 0.026741214
0.07867441 -0.020348778 0.54250544 -0.37383315 0.1643337 0.1366839 0.18121964 0.320738
0.43966666 0.06545581 0.22665086 0.48124823 0.034928944 -0.5014806 1.078231 -0.7308308
0.04681177 0.26970232 0.24380976 -0.49410257 -0.5017674 -0.44514272 -0.070026234 -0.5716409
-0.43618533 0.2823768 0.8273462 -0.6851474 1.6845543 -0.9462018 -0.2377379 -0.040744327
-0.319979 0.16101047 0.0014319861 0.023671046 -0.10998324 0.21952912 -0.2739719 0.02752098
0.018090045 -0.28157333 -0.16700213 -0.11394136 0.6986225 -0.6507017 0.42805168 -0.15674013
0.38515356 -0.019655487 0.11600089 0.42230222 -0.34904477 0.5046274 0.21091901 0.042466927
-0.10670876 0.017224621 0.037795078 -0.016459554 0.05464714 0.33484548 0.036450885 0.12203449
00000000: a559 ca3d 1b89 20be ddd8 413e fc37 a33d
00000010: ba7e b23e 7bc3 3cbf 3ce0 573e cac9 4b3e
00000020: 5a60 a03e d30c 79be 45db 23be 38be 27bd
00000030: 3d4d 423f 0827 24be 934e 863e 7af7 153e
00000040: ebe2 6d3d ff8e 11be 00be ba3e ba3b 63be
00000050: 180f 483f b87e dfbe ca31 c9bd 7e32 00be
00000060: 4805 e33e e818 b2be ee81 aebd fc64 07bd
00000070: 1556 d1bc 5d0a 7fbe 4920 cf3d 6410 db3c
00000080: 0d20 a13d 7bb2 a6bc a3e1 0a3f 0f67 bfbe
00000090: 1847 283e ddf6 0b3e a491 393e c537 a43e
000000a0: fd1b e13e b20d 863d 2a17 683e 2b66 f63e
000000b0: a711 0f3d 0861 00bf 7903 8a3f ba17 3bbf
000000c0: b3bd 3f3d 6c16 8a3e 44a9 793e 03fb fcbe
000000d0: d473 00bf bfe9 e3be ea69 8fbd 0f57 12bf
000000e0: af53 dfbe b193 903e f6cc 533f d265 2fbf
000000f0: 7a9f d73f 483a 72bf 9071 73be 86e3 26bd
00000100: 4ad4 a3be eedf 243e 7bb1 bb3a c8e9 c13c
00000110: e53e e1bd 3ecc 603e 0b46 8cbe ae73 e13c
00000120: 9331 943c 612a 90be 9b02 2bbe 165a e9bd
00000130: edd8 323f 6394 26bf 9729 db3e 7c80 20be
00000140: d932 c53e 8b04 a1bc e091 ed3d ff37 d83e
00000150: ffb5 b2be 432f 013f 27fb 573e cdf1 2d3d
00000160: 1f8a dabd a61a 8d3c 03cf 1a3d 30d6 86bc
00000170: aed5 5f3d de70 ab3e 864d 153d 38ed f93d

rnn.weight_hh_l0 f4 [24, 8]
0.1290842 0.3439801 0.012881006 0.73296565 0.3493149 -0.50390625 0.04580135 0.21443956
0.28786665 0.28450957 -0.24960841 0.43100291 0.4902919 0.10281548 0.29381582 0.11726045
-0.18949142 0.5089844 -0.0494275 -0.051520098 0.375574 -0.3145725 -0.0734656 0.39543983
-0.64860946 -0.006616268 0.49047294 0.53269255 -0.039667398 -0.13626881 -0.3721114 0.2752173
-0.8699448 -1.0394512 0.7889088 -0.30238584 0.0038878408 0.2400711 -1.0666102 -0.40924305
-0.33941433 0.2623269 0.30176842 1.023535 0.099264786 -0.02297337 0.043502796 0.34371957
-0.10026128 0.04585264 0.029470198 0.51802653 0.19500877 -0.04881013 0.54586613 0.38712743
-0.080485195 0.3638038 -0.13009723 0.8103788 0.4436007 0.48094377 -0.09585786 0.037968792
0.15023123 0.51968867 -0.5263749 0.37894928 -0.058519434 -0.30946404 0.25396603 -0.007439472
0.033210885 -0.07803817 -0.10174061 0.3936291 0.40161264 -0.4553467 0.28150007 0.13672803
0.21357006 0.022139274 -0.25211418 0.49101186 0.42630595 -0.03486543 0.40649408 0.46212056
0.5282356 0.1902012 -0.68483907 0.5832413 0.51629996 -0.049862087 0.22912888 0.67266726
0.060865104 0.28205225 0.1066641 0.6367633 -0.8555037 -0.10158163 -0.047632094 0.5012829
0.31914154 0.23745343 0.08935123 -0.10240131 0.54707944 0.19306605 0.10840695 0.50252885
0.21458222 0.36264458 -0.17107406 -0.023830345 0.07187725 0.22118707 0.32709202 0.45950034
-0.037597068 0.26082543 -0.69331956 0.22049358 0.07069685 -0.036309313 -0.2273674 -0.50533986
0.46346313 -0.05538434 -0.52926517 -0.72949696 0.11248793 -0.23468158 0.104723096 0.102462135
0.40165958 0.17896813 -0.47283363 -0.5277978 -0.11201643 -0.367752 0.34378386 0.24565673
-0.46523157 -0.5187706 0.49159318 0.76787674 -0.1244411 -0.08942174 -0.36868408 -0.3027932
-0.5024874 0.08302123 -0.126994 0.9309453 0.3738475 -0.67349446 0.46731094 -0.0698476
0.18756823 0.044405516 0.084856786 1.6821744 0.31019542 -0.29663906 0.20537055 -0.021131568
-0.26072007 -0.38851786 0.6154492 -0.16497725 -0.040685844 0.5817344 -0.09240513 0.186398
0.5949939 0.27351773 -0.29647243 -0.11425645 -0.12536052 -0.6799755 0.5778271 0.14871678
0.13207434 0.3088031 -0.60674804 -0.23274258 -0.048998367 -0.11985494 -0.18814632 0.47428668
00000000: a62e 043e 291e b03e db0a 533c a3a3 3b3f
00000010: 67d9 b23e 0000 01bf 329a 3b3d 0b96 5b3e
00000020: 4263 933e 3dab 913e 5999 7fbe 6aac dc3e
00000030: 8a07 fb3e ec90 d23d 076f 963e 3f26 f03d
00000040: 0a0a 42be cd4c 023f 7e74 4abd bd06 53bd
00000050: 3c4b c03e a60f a1be 2275 96bd 1777 ca3e
00000060: 450b 26bf 47cd d8bb 451f fb3e 8a5e 083f
00000070: 487a 22bd 0d8a 0bbe 6385 bebe 48e9 8c3e
00000080: b4b4 5ebf bd0c 85bf edf5 493f 51d2 9abe
00000090: 25cb 7e3b 33d5 753e af86 88bf 4e88 d1be
000000a0: b7c7 adbe b64f 863e 6481 9a3e 3203 833f
000000b0: 564b cb3d a632 bcbc fd2f 323d 03fc af3e
000000c0: c955 cdbd facf 3b3d 7c6b f13c 639d 043f
000000d0: 61b0 473e 22ed 47bd e2bd 0b3f 9135 c63e
000000e0: 6cd5 a4bd 7e44 ba3e 3538 05be fc74 4f3f
000000f0: a21f e33e 433e f63e 2051 c4bd 2a85 1b3d
00000100: 37d6 193e 510a 053f 81c0 06bf a405 c23e
00000110: 13b2 6fbd 1272 9ebe d607 823e d0c6 f3bb
00000120: 2308 083d 7ad2 9fbd 625d d0bd c189 c93e
00000130: 2ca0 cd3e 3423 e9be c720 903e 6f02 0c3e
00000140: 1cb2 5a3e 6c5d b53c 1c15 81be e865 fb3e
00000150: c644 da3e 0ecf 0ebd fe1f d03e 119b ec3e
00000160: 733a 073f 1ac4 423e 9d51 2fbf 4d4f 153f
00000170: 3c2c 043f 303c 4cbd c3a0 6a3e ec33 2c3f
00000180: b04d 793d 2769 903e b572 da3d eb02 233f
00000190: 4a02 5bbf 080a d0bd df19 43bd 1354 003f
000001a0: 8566 a33e fe26 733e c7fd b63d c7b7 d1bd
000001b0: 660d 0c3f 1bb3 453e 7704 de3d bba5 003f
000001c0: 71bb 5b3e 8dac b93e 0a2e 2fbe db37 c3bc
000001d0: 6134 933d dd7e 623e 9b78 a73e a143 eb3e
000001e0: 62ff 19bd e98a 853e 647d 31bf 12c9 613e
000001f0: 83c9 903d 13b9 14bd 00d3 68be f45d 01bf
00000200: 0a4b ed3e b1da 62bd ec7d 07bf 50c0 3abf
00000210: 1260 e63d 5e50 70be 1079 d63d abd7 d13d
00000220: 53a6 cd3e 6c43 373e 4017 f2be c21d 07bf
00000230: df68 e5bd fd49 bcbe 7004 b03e 708d 7b3e
00000240: d532 eebe 26ce 04bf 1ab2 fb3e 9293 443f
00000250: fada febd bf22 b7bd 29c4 bcbe b607 9bbe
00000260: 04a3 00bf 0907 aa3d b70a 02be 6e52 6e3f
00000270: f168 bf3e 226a 2cbf 6143 ef3e 420c 8fbd
00000280: e311 403e 8fe2 353d 65c9 ad3d 7e51 d73f
00000290: efd1 9e3e 13e1 97be a84c 523e 1c1c adbc
000002a0: 1a7d 85be d0eb c6be 148e 1d3f ccef 28be
000002b0: 33a6 26bd 8cec 143f e73e bdbd 1edf 3e3e
000002c0: 8551 183f 840a 8c3e 3ccb 97be 49ff e9bd
000002d0: 825e 00be e012 2ebf 7aec 133f 3649 183e
000002e0: 7f3e 073e 711b 9e3e d753 1bbf 1254 6ebe
000002f0: 83b2 48bd 8276 f5bd 6ea9 40be b4d5 f23e

rnn.bias_ih_l0 f4 [24]
-0.025413914 0.21269459 0.6005996 0.07422859 0.36356887 0.5460873 0.09817514 0.18732798
0.1845357 0.46687606 0.19343285 0.5666353 0.4681627 0.4303957 -0.026058722 0.47571877
0.047584374 -0.14570741 0.25162628 0.16653015 0.3667272 0.2737834 -0.46138412 0.33979782
00000000: d730 d0bc 9ccc 593e e5c0 193f 2905 983d
00000010: b325 ba3e 61cc 0b3f 0c10 c93d e8d2 3f3e
00000020: edf6 3c3e 610a ef3e 4313 463e 030f 113f
00000030: 05b3 ef3e d35c dc3e 1a79 d5bc 6991 f33e
00000040: d5e7 423d 5334 15be 29d5 803e e186 2a3e
00000050: abc3 bb3e 562d 8c3e 8a3a ecbe fbf9 ad3e

rnn.bias_hh_l0 f4 [24]
0.56138456 0.5616726 0.31908056 -0.14407493 0.20394237 0.072085924 0.32775316 0.29777452
0.44978887 0.355925 0.052163742 0.28308687 0.3087732 0.42457926 -0.1285884 0.5791873
-0.08643524 0.2910801 0.06735922 0.24707198 -0.098369755 0.19954208 0.23428759 0.27155593
00000000: e6b6 0f3f c7c9 0f3f 875e a33e 6188 13be
00000010: 45d6 503e c9a1 933d 43cf a73e e775 983e
00000020: ba4a e63e cd3b b63e a6a9 553d c3f0 903e
00000030: 8517 9e3e 7462 d93e adac 03be 9e45 143f
00000040: f604 b1bd 7308 953e a1f3 893d 7000 7d3e
00000050: 1576 c9bd c254 4c3e 16e9 6f3e 6109 8b3e

exp_avg f4 [2, 16]
0.001623468 0.0013953447 -0.0013429554 -0.0005939876 -2.7792366e-05 -0.0010874053 0.0016172844 0.0012295273
-0.00019487937 8.742156e-06 0.00015603377 0.00076588005 0.0020267947 -7.158824e-05 -0.0003563454 0.0002565964
-6.7652163e-06 -2.1891228e-05 -1.1268311e-06 8.296777e-06 7.4110526e-06 -1.4040425e-05 4.650654e-06 -1.909394e-05
-1.0499602e-05 -2.8301116e-05 2.7038768e-05 1.2907171e-06 -1.8532271e-05 4.7223225e-06 6.6026437e-06 6.7819146e-06
00000000: 8cca d43a 00e4 b63a 1b06 b0ba d5b5 1bba
00000010: a723 e9b7 4487 8eba 0ffb d33a 1728 a13a
00000020: 8858 4cb9 46ab 1237 ff9c 2339 57c5 483a
00000030: f9d3 043b a521 96b8 dfd3 bab9 c987 8639
00000040: c400 e3b6 0ea3 b7b7 9f3d 97b5 6332 0b37
00000050: 75ac f836 2b8f 6bb7 d00c 9c36 ed2b a0b7
00000060: 7227 30b7 2f68 edb7 50d1 e237 b43c ad35
00000070: c075 9bb7 7174 9e36 478c dd36 3490 e336

exp_avg_sq f4 [2, 16]
3.3836037e-05 4.6347403e-05 5.9123482e-05 2.6431495e-05 2.2508424e-05 3.2914126e-05 1.9116349e-05 6.589667e-05
2.92175e-05 2.8563512e-05 3.7482783e-05 4.482977e-05 5.82117e-05 1.3896039e-05 2.3072882e-05 5.4489523e-05
2.6975624e-08 3.127357e-08 4.30427e-08 1.27360575e-08 1.7363787e-08 1.4133932e-08 1.0196324e-08 4.789395e-08
2.2984585e-08 2.6029031e-08 3.2627568e-08 1.7803071e-08 2.9351504e-08 2.14777e-08 2.8552078e-08 2.9616062e-08
00000000: 2beb 0d38 2565 4238 5bfb 7738 34b9 dd37
00000010: 79d0 bc37 460d 0a38 0c5c a037 0132 8a38
00000020: 1a18 f537 ad9b ef37 d536 1d38 9907 3c38
00000030: 5628 7438 0823 6937 a38c c137 ae8b 6438
00000040: 06b8 e732 a751 0633 f3dd 3833 c6cd 5a32
00000050: 5f27 9532 b1d1 7232 e82b 2f32 f4b3 4d33
00000060: a36f c532 7296 df32 6422 0c33 5eed 9832
00000070: a420 fc32 f67d b832 af42 f532 6966 fe32

exp_avg f4 [2]
0.0015734098 6.4820466e-05
00000000: df3a ce3a 39f0 8738

exp_avg_sq f4 [2]
9.976619e-05 9.317869e-08
00000000: 9139 d138 8719 c833

exp_avg f4 [24, 4]
0.0019206603 0.0018391309 0.00079153175 0.00296826 0.00067655253 0.0008199887 0.0005995397 0.000897002
0.0008891466 0.00073509663 0.00056788704 0.001056356 -0.00042794412 0.00014274444 0.00019609818 -0.00048129802
7.510539e-05 -3.3130913e-05 -3.6936788e-05 7.891127e-05 0.0012244263 0.0012563892 0.00043354364 0.0020472717
0.002692196 0.0021843263 0.0004929257 0.004383597 0.00015848654 0.0005515917 0.00033339593 0.00037668232
0.0051329164 -0.00077634805 0.000177438 0.0041791312 0.00077092 0.00013597531 0.0008956503 1.1244931e-05
0.0005313456 -0.0005827674 -0.00028652322 0.00023510151 0.008822804 -0.0023784484 0.0010574714 0.005386887
-0.0011803054 -0.000117673895 -5.6659435e-05 -0.0012413198 -0.0040793256 0.0031575349 0.00050657813 -0.0014283684
3.9092116e-05 0.00021923275 -0.00014737152 0.00040569648 -9.556673e-05 0.00013234465 -6.7113288e-06 4.348929e-05
0.02369926 0.009860294 0.006281217 0.027278334 0.006939881 0.00366316 0.0048091076 0.005793934
-0.008026717 -0.0036557356 -0.0043245344 -0.0073579177 -0.005527323 -0.012583285 -0.0032102298 -0.014900373
0.0021865082 0.0018707396 0.0014792739 0.002577973 -0.015606083 -0.011983388 -0.0064588827 -0.021130586
0.016224587 0.008648629 0.0035085585 0.021364663 0.0009933445 0.0008705387 0.0012604649 0.00060341845
00000000: aabe fb3a fe0e f13a cc7e 4f3a 2487 423b
00000010: ac5a 313a 83f4 563a 6e2a 1d3a c924 6b3a
00000020: 9e15 693a 80b3 403a 41de 143a 6d75 8a3a
00000030: b05d e0b9 abad 1539 b49f 4d39 ba56 fcb9
00000040: e681 9d38 0cf6 0ab8 93ec 1ab8 2a7d a538
00000050: ee7c a03a 6dad a43a 3e4d e339 852b 063b
00000060: 8e6f 303b ea26 0f3b af37 013a 47a4 8f3b
00000070: 682f 2639 b198 103a a5cb ae39 727d c539
00000080: 0632 a83b d683 4bba a70e 3a39 18f1 883b
00000090: 9117 4a3a 9894 0e39 13ca 6a3a 9ca8 3c37
000000a0: 004a 0b3a dcc4 18ba 7f38 96b9 9585 7639
000000b0: 868d 103c bedf 1bbb da9a 8a3a 7c84 b03b
000000c0: 7ab4 9aba b1c7 f6b8 9ba5 6db8 c8b3 a2ba
000000d0: ddab 85bb a5ee 4e3b e2cb 043a 1738 bbba
000000e0: d7f6 2338 d8e1 6539 be87 1ab9 a9b3 d439
000000f0: ff6a c8b8 ffc5 0a39 e031 e1b6 4568 3638
00000100: f324 c23c 128d 213c abd2 cd3b d076 df3c
00000110: f167 e33b a011 703b b895 9d3b 0bdb bd3b
00000120: 7e82 03bc 1195 6fbb d3b4 8dbb b01a f1bb
00000130: 8c1e b5bb 1f2a 4ebc b862 52bb b220 74bc
00000140: 854b 0f3b 9b33 f53a 32e4 c13a 36f3 283b
00000150: a8b0 7fbc f955 44bc 09a5 d3bb 0d1a adbc
00000160: 6de9 843c fbb2 0d3c d8ef 653b f204 af3c
00000170: 1c33 823a dd34 643a 2f36 a53a ba2e 1e3a

exp_avg_sq f4 [24, 4]
0.0001874722 0.00020519948 5.2889372e-05 0.00043606476 1.9137902e-05 8.4324725e-05 6.1964965e-05 3.2917662e-05
3.841069e-05 5.191169e-05 4.181799e-05 4.874721e-05 1.7310384e-05 1.7760618e-05 9.726683e-07 5.8402384e-06
4.3483013e-07 1.273423e-06 2.500179e-07 7.2014245e-08 7.1811904e-05 7.470553e-05 3.356952e-05 0.0001309862
0.0003281117 0.00024663666 5.3037766e-05 0.00071495346 2.695983e-06 2.2225702e-05 1.2496281e-05 7.9525025e-06
0.0013536138 4.1292235e-05 9.946116e-06 0.0007950481 3.681589e-05 4.6566006e-06 4.8873062e-05 2.0445284e-06
2.9481787e-05 2.6367565e-05 7.934362e-06 9.747391e-06 0.0039381897 0.00042610333 9.467222e-05 0.0012188796
7.0302835e-05 2.5825268e-06 9.448715e-07 8.29599e-05 0.0007214032 0.0006480253 0.00014671733 0.00018243169
1.8932836e-07 2.1145308e-06 2.9832768e-07 1.8362201e-06 4.6712234e-08 1.9803342e-06 6.012411e-07 5.814791e-07
0.029619036 0.0052767275 0.0026311944 0.037826747 0.002546152 0.0012642398 0.0016400985 0.0021051243
0.0037789 0.00065324944 0.0009981402 0.0031181097 0.0014018931 0.008708885 0.00065240235 0.011170211
0.00023075989 0.00029539826 0.00015636762 0.0003969071 0.011346844 0.0064630047 0.003304362 0.017082972
0.0111926 0.0034112313 0.00095124193 0.017996607 6.573392e-05 0.00022462624 0.00014754776 0.00011872854
00000000: 2f94 4439 d12a 5739 88d5 5d38 9f9f e439
00000010: 558a a037 7ed7 b038 30f3 8138 1211 0a38
00000020: 2a1b 2138 c1bb 5938 ba65 2f38 eb75 4c38
00000030: c435 9137 a3fc 9437 a18c 8235 44f7 c336
00000040: 9972 e934 7bea aa35 333a 8634 40a6 9a33
00000050: b999 9638 3aab 9c38 ffcc 0c38 5759 0939
00000060: 6806 ac39 034f 8139 de74 5e38 b76b 3b3a
00000070: a3ec 3436 5571 ba37 1ea7 5137 bd6b 0537
00000080: be6b b13a 3331 2d38 3ede 2637 c66a 503a
00000090: c36a 1a38 e53f 9c36 0dfd 4c38 bb34 0936
000000a0: a84f f737 ea2f dd37 d31d 0537 ba88 2337
000000b0: ee0b 813b 9f66 df39 c38a c638 d0c2 9f3a
000000c0: 8c6f 9338 794f 2d36 13a3 7d35 c2fa ad38
000000d0: 8d1c 3d3a 3ee0 293a 22d8 1939 224b 3f39
000000e0: 2f4a 4b34 5de7 0d36 d829 a034 0b74 f635
000000f0: a5a0 4833 e2e5 0436 f964 2135 f116 1c35
00000100: 9fa3 f23c 66e8 ac3b 1e70 2c3b 38f0 1a3d
00000110: 58dd 263b d9b4 a53a 93f8 d63a 20f6 093b
00000120: 6ca7 773b d43e 2b3a 07d4 823a 3359 4c3b
00000130: babf b73a b6af 0e3c fb05 2b3a 4303 373c
00000140: 23f8 7139 afdf 9a39 9df6 2339 f817 d039
00000150: 1de8 393c 9dc7 d33b ff8d 583b 97f1 8b3c
00000160: 2b61 373c f78e 5f3b c45c 793a 9f6d 933c
00000170: a1da 8938 a689 6b39 0db7 1a39 e6fd f838

exp_avg f4 [24, 8]
0.004481256 0.0056329267 -0.0062507093 -0.0013039437 0.0034817471 0.0013908116 0.0024756917 0.006825068
0.0019087458 0.0026540377 -0.0028734992 -0.00018746294 0.001698823 0.00023145403 0.0012642574 0.0032985974
0.0031588648 0.0044958917 -0.0048372573 1.6489498e-06 0.0029448222 -0.0001714084 0.0024298157 0.0055018626
9.266923e-06 -0.00071900035 0.000642411 -0.0011544788 -0.0010781102 0.0016370274 -0.00091038184 -0.0010843101
4.6941906e-05 0.00014193816 -0.00012283136 0.00025826148 0.00017689256 -0.00023748072 0.00020056729 0.00014494594
0.0022393658 0.0031523858 -0.0032945487 0.00012369284 0.0021892542 -3.8908318e-05 0.0017470889 0.0037378399
0.0045216447 0.006448637 -0.006823374 -0.00042682787 0.004176646 0.00047786516 0.0030044822 0.0076668784
0.0011173906 0.001650612 -0.0017143609 4.1550935e-05 0.0010942187 -0.00030258257 0.00097056705 0.0019128248
0.001749352 0.0032328728 -0.003229288 0.0011854207 0.002453988 -0.0010183236 0.0021776692 0.0039835554
0.00012059906 0.0010980712 -0.0006670055 0.00057035364 0.00065216934 -0.0003866707 0.00052475085 0.0008676825
0.0017440194 0.0035808578 -0.0034641847 0.0021150385 0.0029184422 -0.002037303 0.0025438205 0.0040613185
0.006618227 0.0094303815 -0.010194623 0.00066251523 0.0065607033 -0.0012871054 0.006063425 0.011000961
-2.737448e-06 -0.00011592024 8.602234e-05 -8.118546e-05 6.132584e-05 4.712228e-05 -0.00016264073 -0.0001970271
-0.0019802637 -0.00243167 0.0029378333 0.0015240844 -0.00097724 -0.0005496325 -0.0005651631 -0.0029835473
-0.00040246168 -0.00018508213 0.00056255056 0.00039598945 -4.0608353e-05 -0.00023101582 -0.0004549458 -0.0003963328
0.00022029276 0.00021562593 -0.0002293439 0.00012441384 0.00030859807 -1.9036288e-05 0.00023086759 2.713656e-05
0.023415947 0.036840573 -0.0378048 0.006260027 0.027246233 -0.005605371 0.021910422 0.04499268
0.009816438 0.015275545 -0.01598115 0.0020875677 0.011487268 -0.0010673628 0.008145484 0.01889865
-0.014754396 -0.02507916 0.025434468 -0.007252901 -0.020154215 0.006323888 -0.015622542 -0.031049525
-0.0073889922 -0.0103346165 0.010700481 0.0023392867 -0.004063343 -0.00022450888 -0.005321631 -0.011465098
0.00048073378 0.000382009 -0.00059549254 -9.208464e-05 0.0005860768 0.00044803068 0.00020095994 0.0010090685
-0.013148582 -0.021174474 0.02178596 -0.00405223 -0.016406085 0.0012213273 -0.010743399 -0.026285715
0.012950003 0.021460831 -0.021778075 0.0036003685 0.016844163 -0.0008625115 0.010307282 0.02719657
0.0027826543 0.004211574 -0.0042558913 0.000887331 0.003603789 -0.0010247222 0.0029875885 0.0048964894
00000000: 80d7 923b 6a94 b83b c0d2 ccbb 17e9 aaba
00000010: 062e 643b e54b b63a 373f 223b d2a4 df3b
00000020: e22e fa3a 5def 2d3b 5151 3cbb b391 44b9
00000030: 0aab de3a 78b2 7239 70b5 a53a 482d 583b
00000040: f504 4f3b 4652 933b db81 9ebb 7c51 dd35
00000050: ebfd 403b 18bc 33b9 8b3d 1f3b f848 b43b
00000060: 2279 1b37 4c7b 3cba 7967 283a e151 97ba
00000070: 604f 8dba 8691 d63a b1a6 6eba 691f 8eba
00000080: 7de3 4438 3cd5 1439 4bcc 00b9 4567 8739
00000090: 3c7c 3939 3f04 79b9 5f4f 5239 a1fc 1739
000000a0: 53c2 123b 4298 4e3b 5be9 57bb 8bb3 0139
000000b0: 9779 0f3b 7d31 23b8 93fe e43a 8cf6 743b
000000c0: 4e2a 943b 174f d33b 9c96 dfbb dec7 dfb9
000000d0: 3fdc 883b fa89 fa39 d9e6 443b 703a fb3b
000000e0: 6875 923a 5959 d83a 68b4 e0ba fa46 2e38
000000f0: e36b 8f3a f2a3 9eb9 a76d 7e3a c0b7 fa3a
00000100: 834a e53a 9bde 533b 76a2 53bb 1e60 9b3a
00000110: 16d3 203b 4579 85ba 3ab7 0e3b 7c88 823b
00000120: 21ea fc38 28ed 8f3a fbd9 2eba c983 153a
00000130: 58f6 2a3a 10ba cab9 6f8f 093a 3075 633a
00000140: 9597 e43a d3ac 6a3b 6007 63bb 759c 0a3b
00000150: 5643 3f3b 4684 05bb 3ab6 263b cf14 853b
00000160: b6dd d83b e381 1a3c 5907 27bc a5ac 2d3a
00000170: 2bfb d63b 17b4 a8ba b2af c63b 603d 343c
00000180: 00b5 37b6 341a f3b8 e466 b438 1d42 aab8
00000190: 0f9c 8038 2aa5 4538 8a8a 2ab9 0f99 4eb9
000001a0: 50c7 01bb a75c 1fbb aa88 403b c9c3 c73a
000001b0: bc16 80ba 3615 10ba 7427 14ba 9e87 43bb
000001c0: 7e01 d3b9 9b12 42b9 2178 133a ce9c cf39
000001d0: e352 2ab8 d63c 72b9 cb85 eeb9 e3ca cfb9
000001e0: 63fe 6639 a519 6239 097c 70b9 1675 0239
000001f0: 55cb a139 1eb0 9fb7 0c15 7239 52a3 e337
00000200: cdd2 bf3c 24e6 163d 35d9 1abd ea20 cd3b
00000210: 7e33 df3c 43ad b7bb 7c7d b33c 3f4a 383d
00000220: 20d5 203c 4846 7a3c e7ea 82bc 93cf 083b
00000230: 1835 3c3c c1e6 8bba a374 053c 57d1 9a3c
00000240: 6cbc 71bc d072 cdbc f25b d03c bea9 edbb
00000250: 741a a5bc 9e38 cf3b b1f5 7fbc 935b febc
00000260: 5c1f f2bb 8652 29bc 1251 2f3c b84e 193b
00000270: cb25 85bb 256a 6bb9 1461 aebb 1bd8 3bbc
00000280: ff0a fc39 6148 c839 d41a 1cba 911d c1b8
00000290: f3a2 193a a9e5 ea39 c6b8 5239 b842 843a
000002a0: 266d 57bc 1776 adbc 7878 b23c 92c8 84bb
000002b0: 0e66 86bc f214 a03a 1505 30bc 2455 d7bc
000002c0: 402c 543c a0ce af3c ef67 b2bc 29f4 6b3b
000002d0: c5fc 893c 2b1a 62ba e0df 283c 57cb de3c
000002e0: 315d 363b 3e01 8a3b 0175 8bbb c79b 683a
000002f0: 8c2d 6c3b f94f 86ba 6bcb 433b bb72 a03b

exp_avg_sq f4 [24, 8]
0.0011404561 0.0018408131 0.0023247092 0.000113762 0.00062536594 0.00013279307 0.000335856 0.00268115
0.00025694605 0.00046998874 0.00056518713 8.298575e-06 0.00018292754 1.3603308e-05 0.00010887364 0.0006867977
0.00056413305 0.0011100491 0.0013153963 3.1454492e-06 0.0005014609 1.0643084e-05 0.00031534303 0.0016286989
7.3422393e-06 2.3259987e-05 1.890297e-05 7.563669e-05 3.911451e-05 0.00010900713 4.9122624e-05 3.5646844e-05
1.6018162e-06 5.6793976e-07 1.3581478e-06 6.219681e-06 5.81585e-07 7.814124e-06 1.2514447e-06 9.143346e-07
0.00024352803 0.0005012498 0.000573762 1.3446316e-06 0.00022156163 4.1687213e-06 0.0001491764 0.00073573884
0.0011060424 0.0021945229 0.0025442303 1.2668269e-05 0.0009322024 2.9022287e-05 0.00055294426 0.0032500166
7.2500945e-05 0.00015275663 0.00017546478 3.4723885e-07 7.195187e-05 1.4165499e-06 4.424211e-05 0.00022526163
0.00014643047 0.00048587524 0.00045492026 7.314741e-05 0.00029929358 4.397397e-05 0.00021748104 0.00076773134
1.6818774e-06 2.800538e-05 1.5902095e-05 3.0297864e-05 4.18143e-05 8.017874e-06 1.0994226e-05 6.298367e-05
7.880496e-05 0.000507374 0.0004196162 0.00022925764 0.0005408969 0.00016109648 0.00025978684 0.0008817665
0.0021051818 0.00440493 0.0050995476 1.8885981e-05 0.002226559 6.976932e-05 0.0013932824 0.0065476685
1.5079042e-06 1.9218423e-06 2.2366744e-06 6.3751804e-07 3.023703e-07 4.4172228e-07 9.415024e-07 2.0373964e-06
0.00017227653 0.00019525856 0.00030114144 4.252333e-05 4.2819564e-05 2.7881297e-05 3.6688e-05 0.0002566276
7.1662394e-06 4.6214304e-06 9.93998e-06 5.551126e-06 7.711053e-07 4.1674394e-07 1.405823e-06 3.8666717e-06
1.3704721e-06 4.1376275e-06 3.9030183e-06 1.6766214e-06 5.130734e-06 7.761324e-07 1.5793241e-06 8.857677e-06
0.028777424 0.06958573 0.07547132 0.0012989597 0.037131004 0.0017109588 0.024361612 0.10404753
0.0055276067 0.013299527 0.014507883 0.00017981206 0.007194255 0.00015760555 0.004073089 0.020427521
0.011153649 0.0325315 0.033505745 0.0023256864 0.021207424 0.0023202559 0.013292479 0.04967553
0.0022877925 0.003971876 0.004878832 0.00013176577 0.0013383484 0.00020149662 0.0009651916 0.005464519
3.8617767e-05 7.019964e-05 8.4786894e-05 1.9629745e-06 3.412915e-05 8.303425e-06 1.9109655e-05 0.000110713416
0.0083038965 0.021503579 0.02258807 0.00055242935 0.012196193 0.00027676643 0.0066172434 0.033749305
0.009688606 0.024033977 0.025676958 0.00036330882 0.013067276 0.00018952068 0.0069982084 0.03744907
0.00044199676 0.0012508286 0.0013012377 6.2926876e-05 0.00081500993 4.8125858e-05 0.00043238414 0.0019809958
00000000: 5b7b 953a 7047 f13a 265a 183b 8293 ee38
00000010: 99ef 233a 5e3e 0b39 d415 b039 3cb6 2f3b
00000020: b7b6 8639 d268 f639 1129 143a 1c3a 0b37
00000030: 3dd0 3f39 c339 6437 1753 e438 370a 343a
00000040: 54e2 133a 117f 913a 6069 ac3a 6816 5336
00000050: 7974 033a b38f 3237 a054 a539 117a d53a
00000060: 5b5d f636 711e c337 d291 9e37 249f 9e38
00000070: e30e 2438 c29a e438 0409 4e38 8283 1538
00000080: fcfd d635 8674 1835 9a49 b635 a7b2 d036
00000090: 381e 1c35 6819 0337 50f7 a735 9870 7535
000000a0: 8f5b 7f39 4e66 033a 8468 163a 3179 b435
000000b0: ff52 6839 0be1 8b36 3c6c 1c39 99de 403a
000000c0: a0f8 903a fcd1 0f3b 1abd 263b cd89 5437
000000d0: 0b5f 743a e374 f337 76f3 103a 3bfe 543b
000000e0: a60b 9838 4c2d 2039 f8fc 3739 256c ba34
000000f0: dee4 9638 4920 be35 9b90 3938 3534 6c39
00000100: 218b 1939 12bd fe39 5d82 ee39 b766 9938
00000110: 81ea 9c39 b170 3838 9f0b 6439 9441 493a
00000120: debc e135 18ed ea37 7d65 8537 2b28 fe37
00000130: c361 2f38 8284 0637 d773 3837 1a16 8438
00000140: 1744 a538 4b01 053a efff db39 e164 7039
00000150: faca 0d3a 02ec 2839 0034 8839 5926 673a
00000160: 17f7 093b 3b57 903b 1b1a a73b 566d 9e37
00000170: 76eb 113b 1e51 9238 cd9e b63a d38d d63b
00000180: 3263 ca35 00f9 0036 c619 1636 e821 2b35
00000190: 7555 a234 d925 ed34 8dbb 7c35 34ba 0836
000001a0: 21a5 3439 52be 4c39 85e2 9d39 145b 3238
000001b0: 2899 3338 a1e2 e937 71e1 1938 f98b 8639
000001c0: 8775 f036 c911 9b36 e4c3 2637 cf43 ba36
000001d0: f4fd 4e35 dabc df34 b6af bc35 75be 8136
000001e0: 10f1 b735 f3d5 8a36 acf6 8236 4608 e135
000001f0: ab28 ac36 6a57 5035 2af9 d335 6f9b 1437
00000200: a2be eb3c f782 8e3d b590 9a3d db41 aa3a
00000210: ae16 183d 4042 e03a 0192 c73c df16 d53d
00000220: ed20 b53b 42e6 593c 79b2 6d3c ef8b 3c39
00000230: c9bd eb3b eb42 2539 8c77 853b 9e57 a73c
00000240: cbbd 363c c03f 053d 523d 093d 8b6a 183b
00000250: 31bb ad3c 6f0f 183b b3c8 593c 9278 4b3d
00000260: caee 153b 8326 823b 9cde 9f3b 9b2a 0a39
00000270: 856b af3a d648 5339 e904 7d3a b50f b33b
00000280: 83f9 2138 2538 9338 9ecf b138 a5bb 0336
00000290: e525 0f38 f04e 0b37 ac4d a037 d02e e838
000002a0: 110d 083c 4628 b03c 9e0a b93c e8d0 103a
000002b0: 8bd2 473c f61a 9139 76d5 d83b b63c 0a3d
000002c0: f5bc 1e3c e7e2 c43c 7c58 d23c 7c7a be39
000002d0: 2118 563c 12ba 4639 3a51 e53b 3264 193d
000002e0: cdbb e739 d8f2 a33a 4b8e aa3a 9cf7 8338
000002f0: 64a6 553a bfda 4938 9eb1 e239 98d3 013b

exp_avg f4 [24]
0.007435748 0.0035109916 0.005897033 -0.000851433 0.00014633793 0.00418518 0.008300556 0.0019989826
0.004577688 0.0011705633 0.0048224297 0.013605789 -0.00026952836 -0.0031159255 -0.00024982978 0.0005477411
0.06335909 0.024587234 -0.040906474 -0.03494046 0.011245772 -0.043873567 0.04149883 0.008192011
00000000: 93a7 f33b aa18 663b e63b c13b b432 5fba
00000010: 4a72 1939 d623 893b 0eff 073c 5d01 033b
00000020: 6e00 963b 966d 993a 7905 9e3b d1ea 5e3c
00000030: 7c4f 8db9 8e34 4cbb 96fb 82b9 4896 0f3a
00000040: 69c2 813d 2b6b c93c 8c8d 27bd ba1d 0fbd
00000050: 3040 383c c5b4 33bd adfa 293d c937 063c

exp_avg_sq f4 [24]
0.0032315953 0.00083631574 0.001996574 5.446554e-05 9.950566e-07 0.0009146441 0.00401319 0.0002809784
0.0010236263 9.683473e-05 0.0012227069 0.008202105 2.8095862e-06 0.00027805765 3.6792521e-06 1.2347646e-05
0.21626613 0.035571776 0.08666509 0.06618576 0.0075625684 0.094153844 0.08732704 0.0047314013
00000000: 2cc9 533b 333c 5b3a f4d8 023b ee71 6438
00000010: e28d 8535 bac4 6f3a 1481 833b 4850 9339
00000020: 332b 863a c013 cb38 3c43 a03a 1f62 063c
00000030: 538c 3c36 44c8 9139 12e9 7636 bc28 4f37
00000040: de74 5d3e b6b3 113d 777d b13d 668c 873d
00000050: 6ccf f73b bbd3 c03d 85d8 b23d df09 9b3b

exp_avg f4 [24]
0.007435748 0.0035109916 0.005897033 -0.000851433 0.00014633793 0.00418518 0.008300556 0.0019989826
0.004577688 0.0011705633 0.0048224297 0.013605789 -0.00026952836 -0.0031159255 -0.00024982978 0.0005477411
0.049990345 0.021224657 -0.03508258 -0.010677473 0.0015471639 -0.030122211 0.030820576 0.005995719
00000000: 93a7 f33b aa18 663b e63b c13b b432 5fba
00000010: 4a72 1939 d623 893b 0eff 073c 5d01 033b
00000020: 6e00 963b 966d 993a 7905 9e3b d1ea 5e3c
00000030: 7c4f 8db9 8e34 4cbb 96fb 82b9 4896 0f3a
00000040: adc2 4c3d 55df ad3c c0b2 0fbd 91f0 2ebc
00000050: 35ca ca3a dbc2 f6bc 6f7b fc3c bd77 c43b

exp_avg_sq f4 [24]
0.0032315953 0.00083631574 0.001996574 5.446554e-05 9.950566e-07 0.0009146441 0.00401319 0.0002809784
0.0010236263 9.683473e-05 0.0012227069 0.008202105 2.8095862e-06 0.00027805765 3.6792521e-06 1.2347646e-05
0.13181135 0.025912125 0.06399983 0.006439681 0.00015502941 0.04340835 0.047770865 0.0025871745
00000000: 2cc9 533b 333c 5b3a f4d8 023b ee71 6438
00000010: e28d 8535 bac4 6f3a 1481 833b 4850 9339
00000020: 332b 863a c013 cb38 3c43 a03a 1f62 063c
00000030: 538c 3c36 44c8 9139 12e9 7636 bc28 4f37
00000040: 8ef9 063e aa45 d43c 5812 833d f603 d33b
00000050: 648f 2239 f4cc 313d 62ab 433d 968d 293b
