saved_models/RTRNN_db/checkpoint999.pth (torch, 20784 bytes, 18 tensors)

trial_output.weight f4 [2, 32]
000000 b6 da d3 bd c0 d9 72 bd 28 61 96 bd c3 25 49 ba
       -0.1034445 -0.059289694 -0.0734275 -0.00076731684
000010 06 1a 7f 3d 77 1f 53 3d f7 fd cc 3e 5a d7 e2 3d
       0.062280677 0.05154368 0.4003751 0.11076231
000020 e5 d4 bf 3d ef 29 38 3e e2 b6 86 be e4 33 48 3e
       0.09366778 0.17984746 -0.26311404 0.19551045
000030 bf 9f cd bd 33 9d 5b be 66 34 16 3e 88 d5 3f 3e
       -0.10040235 -0.21446685 0.14668426 0.187338
000040 84 7a e0 3e 1a 8e 5b 3e 25 7a 9d 3e 0b 78 cd be
       0.43843472 0.21440926 0.3075725 -0.40130648
000050 4d 35 ca 3e 67 b7 aa 3e fe 02 b4 bb af bf 2f bd
       0.3949379 0.3334305 -0.0054935208 -0.042907413
000060 73 1a be 3d a3 18 04 bf 5c e1 22 be 88 bd b5 be
       0.092823885 -0.5160009 -0.1590628 -0.35496163
000070 79 7f 68 3e 21 37 05 bf c1 70 91 bf 7f f2 a0 3e
       0.22704877 -0.52037245 -1.1362535 0.3143501
000080 f1 87 22 3e 79 03 42 3e da 4d 12 3c 19 96 b2 3e
       0.1587217 0.18946637 0.008929694 0.3488014
000090 5a a5 01 be cc fb fa 3b 0a 38 5d 3e 87 39 a7 be
       -0.12660733 0.007659411 0.21603408 -0.32661077
0000a0 73 78 00 3e 39 d1 5c be da 0a 21 3e ca 31 84 be
       0.12545948 -0.21564187 0.15726796 -0.25819236
0000b0 16 c0 49 3e 5c 9b 87 3e a6 8b 54 be de 55 03 be
       0.19702181 0.26485717 -0.20756397 -0.12825724
0000c0 54 0f b9 3e 42 94 8f 3e af 17 48 bd fe 49 0e 3f
       0.36144507 0.280428 -0.04885071 0.55581653
0000d0 ef 75 83 bd d1 51 da 3d dd d8 f5 3e d5 c9 f1 be
       -0.064189784 0.106601365 0.48017016 -0.47224298
0000e0 4e b1 c7 3e c0 34 d4 3c 78 97 6c 3d 0d d1 99 be
       0.3900246 0.02590406 0.05776164 -0.30042306
0000f0 ea 49 f2 3b 1c 35 0a bc 3f 3c c7 be fe 02 32 be
       0.007394065 -0.008435514 -0.38913152 -0.17383954

trial_output.bias f4 [2]
000000 d0 32 c0 be da 8b aa be
       -0.37538767 -0.33309823

rnn.weight_ih_l0 f4 [48, 4]
000000 ad c1 c2 3e d3 8b a4 be 73 5d 8a 3e 79 cc 75 bd
       0.38038388 -0.32137927 0.2702442 -0.060009453
000010 42 b4 b2 3e 85 cd f3 bd ad 6b 9b bd 4a a5 9e 3e
       0.3490315 -0.11904434 -0.07588897 0.3098548
000020 d3 f4 01 3e f3 1a c3 bd 2e 74 94 3e d2 6a 33 bc
       0.1269105 -0.095266245 0.28994888 -0.010950761
000030 b2 05 71 3e 7c ee e5 bd 03 b6 22 bd bb 87 5f 3d
       0.23537329 -0.11227128 -0.03972436 0.054572802
000040 92 d7 b2 3e 91 79 13 bf 91 e2 62 3e a7 eb f6 3c
       0.34930092 -0.5760737 0.2215674 0.030141665
000050 26 48 a7 3e fb 8f 9d bd c3 66 78 bd 60 74 bf 3d
       0.32672232 -0.07693478 -0.060644876 0.09348369
000060 d9 b5 d4 ba 6c 07 35 be 0d 4d 1e 3e e7 cb da bd
       -0.0016228511 -0.17678612 0.1545908 -0.106834225
000070 13 ef a1 3e 05 62 e5 3d 24 1d e9 bd 46 40 0a 3e
       0.31627712 0.11200336 -0.11382511 0.13501081
000080 4b 87 2b 3e 55 72 c5 3d 7f e0 b7 3d 60 66 72 3e
       0.16750829 0.09640948 0.08978366 0.23671865
000090 38 9e cf 3e 34 f6 b9 bd 1b ab b4 3d 76 42 70 3d
       0.405504 -0.09080163 0.08821698 0.058657132
0000a0 1a d8 be 3e 25 2b 2a be 8d 04 87 3e 77 d4 b7 3d
       0.37274247 -0.16618021 0.2637066 0.08976071
0000b0 c4 ee a2 3e 59 72 a6 be 3e 14 74 3e 3b ee 96 3e
       0.3182279 -0.32509115 0.23835847 0.2947863
0000c0 28 f2 dc 3d bb 29 f4 3d f5 bc b1 3b 6d 21 0a 3d
       0.10788375 0.11922022 0.0054241368 0.033723284
0000d0 71 26 f8 3d 21 09 3d be b4 ba 41 bd f9 33 af bd
       0.12116707 -0.18460514 -0.047297195 -0.08554835
0000e0 5b c1 1d 3d a4 a5 8d bc b6 c7 de 3e c5 03 14 be
       0.038514476 -0.017290898 0.43511742 -0.14454563
0000f0 9c 45 5d 3e f0 94 9e be 0a 69 04 be 52 0b e2 3d
       0.21608585 -0.30973005 -0.12930694 0.110373154
000100 ef 3e 58 be a7 8a e8 3e 35 90 84 3d 8a ec 11 be
       -0.21117757 0.45418283 0.06472818 -0.14250389
000110 15 f2 d6 3e 13 6c 84 bd 3f 35 52 3d af ea 7d bd
       0.4198157 -0.06465926 0.05132031 -0.06199139
000120 6a f5 79 3e 29 27 a7 3d d4 5e 0a bf 27 8f 47 bd
       0.24410024 0.08161766 -0.54050946 -0.048720505
000130 da 64 5e bc c1 b4 94 be 7c f5 59 3e c9 46 b8 be
       -0.01357385 -0.29044154 0.21285051 -0.35991505
000140 c0 a6 de bd fe 25 8b be 58 21 56 3e 75 00 a1 3d
       -0.10871649 -0.27177423 0.20911157 0.07861415
000150 ed 51 df 3d 22 60 e4 be ac d8 0c 3e 94 32 6d 3e
       0.10904298 -0.44604594 0.13754529 0.23163825
000160 b3 4f 6e 3e ae d9 84 3d 4b 51 64 3e 15 6d 0b bd
       0.2327259 0.064868316 0.22296636 -0.034039576
000170 ce b2 93 3d 2d 0b 6f 3e 23 22 7d 3e 25 ea 22 3e
       0.07211839 0.23344107 0.24720053 0.15909632
000180 86 70 05 be 4c af 06 3d f0 27 74 3d 67 c9 c2 bd
       -0.13031206 0.03288202 0.0596084 -0.09511071
000190 df a1 52 3e a7 c6 57 3e 15 af ef 3e 70 65 88 be
       0.20569561 0.21071874 0.46813264 -0.2663989
0001a0 df 0e bd 3e 55 d7 6a be 3e 86 d1 3c 50 4a 32 be
       0.36925408 -0.22933705 0.025576707 -0.1741116
0001b0 fc 42 8b 3e c1 7b ef be 95 10 84 3e 55 b7 7f 3e
       0.27199543 -0.46774104 0.257939 0.2497228
0001c0 f5 e0 c1 3e 78 27 b1 be f9 8f a0 3e 87 a0 e4 bd
       0.3786694 -0.34600425 0.31359842 -0.11163431
0001d0 26 88 b8 bb d9 07 2b be e4 99 91 bc bf ee 55 be
       -0.0056314645 -0.16702212 -0.017773576 -0.20891856
0001e0 33 9f 8b 3f a5 bd b1 be df e4 6f 3e 4f eb 30 be
       1.0907959 -0.34715 0.23427151 -0.17277263
0001f0 b1 f4 00 bc be a2 e7 bd 88 6d 13 3e c9 bd 1a be
       -0.007870839 -0.113103375 0.14397252 -0.1511146
000200 be 0d 55 be 0e b8 e1 bd 13 31 97 3d 91 7c 84 bd
       -0.20806023 -0.11021434 0.07382407 -0.06469072
000210 54 d3 8b 3a ce 87 7f 3d 2b fd 64 bd 8b ae e0 3d
       0.0010667839 0.062385373 -0.055905502 0.109707914
000220 70 37 77 bd 01 e5 12 3e de 9c b3 bd ed ea 33 be
       -0.060355604 0.1434517 -0.087701544 -0.17570086
000230 7b d5 a7 be 6d 0f e3 3d e5 1e e3 bd 2e 38 13 3e
       -0.3278006 0.110869266 -0.11089877 0.143769
000240 ec 59 31 bb 02 12 a1 be bf f4 3f 3d 43 b0 cc bc
       -0.0027061654 -0.3145905 0.046864267 -0.024986392
000250 78 da 12 be ae 6e 85 be 38 d1 2b be 8e 97 52 be
       -0.14341152 -0.26061004 -0.1677903 -0.20565626
000260 58 9c 2c 3e 1c e3 fb 3e b6 b2 de 3d 31 4b 2c be
       0.16856515 0.49196708 0.1087393 -0.16825558
000270 3f 17 f1 bd 99 96 76 3e 83 34 8c 3e bf 49 24 be
       -0.11772012 0.24080886 0.27383813 -0.16043757
000280 96 73 66 3e e5 4a 93 be 66 8c 04 3e d2 3b 48 3e
       0.2250503 -0.28768077 0.12944183 0.1955407
000290 32 b8 17 be 76 d4 a5 3e f4 cd 93 3e 1f 6e 0d be
       -0.14816359 0.32388657 0.28868067 -0.13811539
0002a0 8c 92 27 3d fc 0a 82 bd 49 70 9e bd e4 13 04 be
       0.040911242 -0.06349751 -0.077362604 -0.12898213
0002b0 41 a4 f6 3d 6e ba b9 3e 9e 4c 0d bc 7f 9a b8 3d
       0.12043048 0.36275047 -0.008624224 0.09013843
0002c0 aa 70 35 bd f9 9b 33 be da e2 87 bd ee 65 02 bc
       -0.044296898 -0.17539968 -0.066350654 -0.007958872
0002d0 0c fb 5c 3e 58 27 a8 be 3d 5d 34 be 49 d4 a5 bd
       0.21580142 -0.32842517 -0.17613693 -0.08097131
0002e0 55 d2 92 bd 37 6f f4 3d 8b 48 b0 be fa 86 0c 3e
       -0.07169024 0.11935275 -0.34430346 0.13723364
0002f0 87 d5 65 3b 18 d3 e6 3d 73 52 d8 bd a2 67 2e 3e
       0.00350699 0.11270732 -0.10562601 0.1703172

rnn.weight_hh_l0 f4 [48, 16]
000000 b5 6f 66 3e 02 54 d6 bd b2 36 68 3e 2e bd 7f be
       0.2250355 -0.10465242 0.22677115 -0.2497451
000010 6d 2b db bd 0f 58 08 3e c3 8a 4d be a1 09 1a be
       -0.10701642 0.13314842 -0.20072465 -0.15042736
000020 49 f1 e9 3d a0 5e 64 be 76 11 a2 be e7 0d 34 bd
       0.114229746 -0.22301722 -0.31653947 -0.04395857
000030 a1 c0 a8 bb 41 db 13 3e 2c 78 c3 be dc b3 cb bd
       -0.0051499163 0.14439107 -0.3817762 -0.09946415
000040 38 0e 02 3e b6 6c 9e bc d0 bb 3d bd d3 58 22 be
       0.12700737 -0.019338947 -0.04632169 -0.15854196
000050 af f7 9f 3e 01 74 1a 3e 7b dd a3 be c7 38 82 3c
       0.31243655 0.15083314 -0.32004914 0.015896214
000060 6e 83 b8 bd cd 48 06 be c4 2e 54 3c 59 38 d2 3d
       -0.09009443 -0.13113709 0.012950603 0.10264654
000070 6e dd ec 3d 46 7c 86 3d 6b 39 e2 3d 79 58 79 3e
       0.11565672 0.06566672 0.11046108 0.24350156
000080 ac 24 37 3e c9 e0 a4 3e 52 bd 40 3c be 76 c4 bd
       0.17885083 0.32202747 0.0117638875 -0.09592961
000090 0c f4 64 3e ff 3f c8 bd 67 90 3e be a7 c3 8c 3d
       0.22358721 -0.09777831 -0.18609773 0.06873255
0000a0 d4 4e 01 3e ac da e0 be e7 d4 bb 3b 31 56 9b be
       0.12627727 -0.43916833 0.005732167 -0.30339196
0000b0 7e 5b ed 3a d3 19 80 be 3c c6 cf 3e 00 8b 91 3d
       0.0018108932 -0.25019702 0.40580928 0.0710659
0000c0 39 44 1e be 5a 97 83 3e 36 81 89 3e 0e f7 86 be
       -0.15455712 0.2570141 0.26856393 -0.26360363
0000d0 76 40 36 3d 68 f2 6c 3e ba d9 ae be c5 fc 26 3e
       0.04449507 0.23139346 -0.34150487 0.16307361
0000e0 62 0f 01 3e 1e 8f 77 be 12 a5 ce 3d db 2a 8f bd
       0.12603524 -0.24175689 0.100900784 -0.06990596
0000f0 1e a8 3e be 2c 4c d0 3d 7e 40 35 3e 18 28 73 bd
       -0.18618819 0.10170779 0.17700383 -0.05936441
000100 2e 1e fb bd d6 02 63 3d 8c a1 ea bc 55 a7 67 be
       -0.12261616 0.055422626 -0.028641485 -0.22622426
000110 bf 0a 4a 3e 1d 57 e3 bc 47 8c 95 be 42 94 a3 bd
       0.19730662 -0.0277515 -0.29208586 -0.07987262
000120 7f f3 04 bd 65 bb fc be 80 0c ae 3e 7c bc 65 3d
       -0.03245878 -0.4936172 0.33993912 0.056087956
000130 b3 3f 9c 3c 08 30 83 3d 4e 2a ea 3e b3 2a 20 3e
       0.019073343 0.064056456 0.457354 0.15641288
000140 b7 ab 1f 3e 7d a7 12 3e 68 fb 0e 3e e0 3a a5 3d
       0.15592848 0.14321704 0.13963091 0.0806787
000150 a2 15 c3 3d aa fc 2c 3e c8 bf fb 3d f1 2a b8 bc
       0.095256105 0.16893259 0.12292439 -0.022481414
000160 02 6d 3a 3e 60 f3 01 bd 3f ce e8 3c 4a e0 94 be
       0.18205646 -0.03172624 0.028418658 -0.2907737
000170 1d 87 97 b9 6b 49 25 3e ad a2 d6 3e 4b d9 bc 3c
       -0.00028901632 0.16141288 0.41920987 0.023052832
000180 31 66 0e be cb 84 36 3d c7 06 5d 3d 97 ff 88 be
       -0.1390617 0.044560235 0.05396154 -0.267575
000190 ee b9 b1 3e 25 5c ad 3e e6 ed c2 bd 0b 56 52 be
       0.34712166 0.33859363 -0.09518032 -0.20540635
0001a0 67 3e 6f be f4 73 4d be 45 32 a3 be 00 38 d4 3d
       -0.23363648 -0.20063764 -0.3187429 0.10362244
0001b0 fd 90 3e 3e d6 33 80 bd 7c 8e 69 3e d1 ff b0 3e
       0.18609996 -0.06259887 0.2280826 0.34570172
0001c0 19 9b 1c 3e 3f ed c4 3d 82 18 ea 3d 08 d8 0c 3e
       0.1529354 0.096155636 0.11430456 0.13754284
0001d0 2e f6 85 bd 19 b3 ab bd 01 39 26 be 00 25 bd 3d
       -0.06541096 -0.083837695 -0.16232683 0.09235573
0001e0 a4 df 62 be 42 4c 6a be 72 ef f7 bd 3e 2d 6a be
       -0.22155625 -0.22880653 -0.121062174 -0.22868821
0001f0 19 dc 28 3e bc 80 19 3e 24 f6 90 be 37 51 28 be
       0.1649021 0.14990515 -0.2831279 -0.16437231
000200 e6 16 c5 3d 4c c7 9d 3d 01 25 35 3e c5 90 f5 3d
       0.09623508 0.077040285 0.17689897 0.11990503
000210 9c 07 7d 3e b3 91 3b 3e 29 2b 6e bc f1 cd 8e bd
       0.24709934 0.18317299 -0.014536657 -0.06972874
000220 72 a5 81 be e5 dd 83 3d 7d 24 86 bd 09 f5 f8 bd
       -0.25321537 0.064388074 -0.06549928 -0.12156112
000230 31 c8 af 3e 6d e9 9c be 30 e3 7a be 33 f9 97 3e
       0.3433242 -0.3064684 -0.24500728 0.2968231
000240 eb 79 07 3d ea 1a 8d 3d 9f a5 2c 3e a9 12 4e be
       0.033075254 0.06889899 0.16860054 -0.20124306
000250 5d 1f fe 3d 2e 4c a0 3c 07 f7 77 bb 17 36 33 be
       0.12408326 0.019567575 -0.0037836449 -0.17501102
000260 c5 9e fc 3d 1d 55 05 bf b6 89 80 3e 33 e0 23 be
       0.123349704 -0.52083 0.25105065 -0.16003494
000270 fc ce 54 3e b7 96 4b 3d 33 46 e9 3e 34 8f 3e 3e
       0.20782083 0.04970428 0.4556137 0.18609315
000280 0c 69 2a bd 7d 08 cc 3d 96 b1 c2 bc 2f 9c a1 bd
       -0.041604087 0.099625565 -0.02376632 -0.07891118
000290 88 8b 6c 3d ed 90 88 3e f3 0c 87 be 4d fb 75 3e
       0.057750255 0.2667307 -0.26377067 0.24021645
0002a0 1f 59 10 3e 60 77 38 3d 5a 54 ad 3c 1b f8 6b be
       0.14096497 0.04503572 0.021158386 -0.23043863
0002b0 b3 9f 62 3e 8c d6 5d 3e 7e 99 b0 3e c5 74 32 3e
       0.22131233 0.21663874 0.34492105 0.17427357
0002c0 da 31 88 3e e8 26 8e 3e 1d 0c 61 bd 82 06 f8 be
       0.26600534 0.27764058 -0.054943193 -0.48442465
0002d0 8b 45 a8 3d 3f cb 14 bd 94 c1 19 be 2f 59 78 be
       0.08216389 -0.036326643 -0.1501525 -0.24252771
0002e0 10 11 71 be 06 00 e4 bd 2f 3a be 3d f9 2a 3a 3e
       -0.23541665 -0.11132817 0.092884414 0.18180455
0002f0 1c 46 1a 3e 02 35 85 3c b4 dd a9 3e fd 85 cb 3c
       0.15065807 0.016260628 0.3317696 0.024844164
000300 87 cd bb bd f9 b4 a9 bd d0 fa e7 3d 02 69 d7 bd
       -0.091700606 -0.08286471 0.113271356 -0.105180755
000310 4e ad a0 3e 44 8b f4 bd 56 b4 60 be 14 82 a7 3d
       0.3138222 -0.11940625 -0.21943793 0.08179107
000320 ac 49 4e be cc e9 4a be ed fe 30 be 2b b4 14 3d
       -0.20145291 -0.19815749 -0.17284746 0.036304634
000330 2b 37 e4 bd d1 c3 21 3e 68 86 b4 3e af 32 4b 3e
       -0.11143335 0.15797354 0.35258794 0.19843553
000340 98 34 ed bd 12 87 c6 bd a5 c0 e8 3c 4d 43 83 be
       -0.11582297 -0.09693731 0.028412173 -0.25637284
000350 b5 ee 26 be e2 f8 34 be ca 5a 93 3d a6 e2 43 3e
       -0.16301997 -0.17673066 0.07195051 0.19129428
000360 72 9d 09 be 25 42 98 be e6 a8 94 bd df fd 2f 3d
       -0.13438967 -0.29737964 -0.07258777 0.04296672
000370 1f 77 ab 3d 9c 1f f0 3d 6e 82 61 be 21 1e 59 3d
       0.0837233 0.11724779 -0.22022411 0.05300725
000380 5a 52 2d be ce 59 4b be f3 96 f4 3c 23 0d 25 bf
       -0.16925946 -0.19858477 0.029857134 -0.6447317
000390 c6 b8 c4 3d 2e 8e 6a be 50 45 93 ba 68 6b b9 be
       0.09605555 -0.229058 -0.0011235867 -0.36214757
0003a0 1a aa f5 3e d0 f1 28 bf 1d e7 cb 3e 7c b3 1e 3d
       0.4798134 -0.65993977 0.39824763 0.03874539
0003b0 08 88 be be bf 5c c7 3d aa 85 5d bf 36 f6 f0 bd
       -0.3721316 0.09734487 -0.8653208 -0.11765711
0003c0 78 2f 83 3e 7e 8e 85 bd 65 ed 12 3e 87 95 ce bd
       0.25622153 -0.06521319 0.14348371 -0.10087114
0003d0 9c 06 de 3b 36 33 30 bd f9 16 84 be 96 3a 5e bc
       0.0067756902 -0.04301759 -0.25798777 -0.013563773
0003e0 4a c9 79 be 95 ac 66 be f5 f6 99 bc b3 04 27 be
       -0.24393192 -0.22526772 -0.018794516 -0.16310386
0003f0 a8 4c 9a bc f4 6d 81 bb 07 53 e7 3e 1b f6 80 bd
       -0.01883538 -0.003949875 0.45180532 -0.06296941

rnn.bias_ih_l0 f4 [48]
000000 1f df ae 3d 8a 14 54 3d 81 bd a8 3e 17 7d ba 3e
       0.08538651 0.0517774 0.3295708 0.3642356
000010 04 49 03 3e 78 df 51 3d d9 a6 1b be ad 2b 32 3e
       0.12820822 0.051238507 -0.15200366 0.17399473
000020 c1 27 cc bd 1a e1 e6 bd 02 27 b2 3d d8 fd eb 3d
       -0.0996852 -0.112734035 0.086988464 0.11523026
000030 54 1f a5 3e 4c c9 5d 3e 87 a6 9f 3e ba 34 45 3d
       0.32250464 0.2165882 0.31181738 0.048145987
000040 16 88 5b 3e 8b 0a e7 3c 96 77 8f 3e 61 2c 99 3e
       0.21438631 0.02820327 0.28020924 0.2991667
000050 e8 b8 1b 3e eb fd 17 3e ab 05 a2 be ef 05 30 3e
       0.15207255 0.14842956 -0.3164495 0.17189763
000060 0c 8b 44 3e fc 63 c2 3e 72 35 92 3d 20 42 9c bd
       0.19193667 0.37966907 0.071391 -0.076298
000070 61 69 84 bd 75 4c 4f 3d 17 c4 24 3f b3 27 6b 3e
       -0.06465412 0.050610024 0.6436171 0.22964363
000080 57 06 b3 bc 73 5d 83 bd d3 01 fc ba 7d ed ef bd
       -0.021853609 -0.064143084 -0.0019226618 -0.11715219
000090 3f a7 13 3e 13 5d 2e 3e 0a 89 29 be 6f 23 d8 3d
       0.14419268 0.17027692 -0.16556183 0.105536334
0000a0 5e de d4 bd 57 b0 61 3e 11 80 05 3e 71 ff e0 bd
       -0.10393976 0.22039925 0.13037135 -0.109862216
0000b0 84 88 13 be 07 e0 6b be fc a7 5a 3e 58 9b 81 bd
       -0.14407545 -0.23034678 0.21353143 -0.063284576

rnn.bias_hh_l0 f4 [48]
000000 50 f0 0b 3e 1b 8d a7 3e 55 1a 04 bd a7 bc 98 bd
       0.1366589 0.32724842 -0.032251675 -0.074578576
000010 ca 85 e5 3d 15 c4 a6 3e a8 b7 c4 3d 28 c0 52 bd
       0.11207159 0.32571474 0.09605342 -0.051452786
000020 a2 0a 56 3e 32 9b 80 3e e8 af a2 3e 15 b2 30 3e
       0.20902494 0.25118405 0.3177483 0.17255433
000030 be b6 ea 3d 2d 95 da 3d 6a a4 ab bd e1 4d ec 3d
       0.114606366 0.10672984 -0.08380969 0.11538292
000040 1a b5 58 3e 0b bf 05 bd 85 25 04 3e d1 99 93 3c
       0.21162835 -0.032652896 0.12904938 0.018017681
000050 5f 83 64 be f5 5e 9b 3e 6c bf 87 be 1a 28 3a bd
       -0.22315739 0.30345884 -0.2651323 -0.0454484
000060 47 64 6e 3e 8f 18 05 3f 1d e7 40 3e ba 8a a4 3e
       0.2328044 0.519906 0.18838163 0.3213709
000070 02 6d d3 bc 5d ca ac 3e 03 75 0a 3f b5 0b 24 be
       -0.025808815 0.3374814 0.54084796 -0.16020091
000080 41 57 60 bd 31 48 a9 be 9e 58 ed bd 77 49 0b bd
       -0.05477071 -0.3306289 -0.11589168 -0.03400561
000090 95 c2 57 be 3e 3c 22 3d e4 d6 3f be 8d fe 53 be
       -0.21070321 0.039608233 -0.18734318 -0.20702572
0000a0 a9 40 b9 3c 2e 38 8b be ec 6a b0 bc 6d a2 59 3e
       0.02261384 -0.271913 -0.02153536 0.21253367
0000b0 77 e2 4f 3e a0 bf 78 3e 20 d4 55 3d f4 a3 41 3e
       0.20301233 0.24291849 0.05220425 0.189102

exp_avg f4 [2, 32]
000000 68 0a 0c ba 7f 08 32 ba 40 af 54 ba 48 5f bf b9
       -0.0005342127 -0.0006791427 -0.00081132725 -0.0003650135
000010 4f 03 62 b9 ee 16 88 ba b5 20 a2 39 2b 6e 65 ba
       -0.00021554272 -0.001038281 0.00030923416 -0.0008752073
000020 33 f4 c3 3a 75 c6 7e 38 16 61 99 3a f0 1f 97 37
       0.0014950096 6.0743147e-05 0.0011701907 1.8015475e-05
000030 25 d1 48 b9 ce 1f 74 3a 33 2f d9 b8 8f 4f 5e ba
       -0.00019151399 0.00093126006 -0.00010356158 -0.0008480483
000040 06 87 0a ba d8 bc 16 3a 51 55 f0 b8 47 a5 17 3a
       -0.0005284402 0.0005750186 -0.00011459983 0.0005784821
000050 87 57 7b b9 23 a3 50 39 64 31 15 b9 c3 2e 8a b9
       -0.00023969832 0.00019897199 -0.00014228147 -0.0002635625
000060 bd 11 6d b9 87 5e 51 39 12 fc 76 38 4b 98 b4 b9
       -0.0002260869 0.00019967007 5.888573e-05 -0.00034445742
000070 72 15 07 3a 66 39 6e 3a 4e a6 cf 3a 31 e0 1c ba
       0.0005153037 0.00090875325 0.0015842409 -0.0005984335
000080 80 80 d0 37 e9 68 d8 b6 22 86 af b6 fa 8d b8 b6
       2.485537e-05 -6.449515e-06 -5.2310215e-06 -5.5001556e-06
000090 6a db bf 35 06 6c 83 37 cd 2c 5f b7 f8 39 91 b7
       1.4294467e-06 1.566672e-05 -1.3302267e-05 -1.731234e-05
0000a0 83 22 53 b6 3f 10 3b b8 9f db 75 b7 24 1c d9 b6
       -3.1461539e-06 -4.4599405e-05 -1.46542725e-05 -6.47038e-06
0000b0 99 cf 0c 36 29 8d c1 b5 66 c3 4c b8 a6 d5 eb 37
       2.0982463e-06 -1.4420704e-06 -4.881937e-05 2.811367e-05
0000c0 eb 96 96 35 14 00 62 b7 23 bf a6 37 62 be 16 37
       1.1219794e-06 -1.3470668e-05 1.9877747e-05 8.985024e-06
0000d0 f6 85 e3 b7 7f 15 f5 b6 4c e5 5c b8 d6 8c c2 b6
       -2.712289e-05 -7.3040715e-06 -5.2665637e-05 -5.798046e-06
0000e0 59 ca ed b6 93 40 64 38 59 05 bc b7 28 2a df 37
       -7.086707e-06 5.4419575e-05 -2.2413837e-05 2.6603302e-05
0000f0 24 8d 24 b7 60 0c e1 b7 1e 5a 90 b8 c5 04 41 38
       -9.808024e-06 -2.6827853e-05 -6.883241e-05 4.6019228e-05

exp_avg_sq f4 [2, 32]
000000 c7 46 38 37 0a b4 09 38 b3 e5 0d 38 bc 67 c0 36
       1.0983734e-05 3.283102e-05 3.3830944e-05 5.734122e-06
000010 32 5a 63 37 a2 b0 15 38 af 8a 47 37 00 2a c0 37
       1.3551255e-05 3.568887e-05 1.1893614e-05 2.2907741e-05
000020 79 04 11 38 19 9f 6f 37 70 ca 39 38 02 ae bf 37
       3.457486e-05 1.4282553e-05 4.429597e-05 2.2850003e-05
000030 18 05 1c 38 16 a5 27 38 8e de 3e 37 db f3 11 38
       3.7198042e-05 3.996965e-05 1.13767e-05 3.4797802e-05
000040 37 87 d3 37 04 fc 12 38 ad ea 1e 38 9e 89 a6 37
       2.5216124e-05 3.504382e-05 3.7888694e-05 1.9852825e-05
000050 84 55 0d 38 9a ef 3a 38 a1 5f 9f 37 78 10 8e 37
       3.3696662e-05 4.4569002e-05 1.8998808e-05 1.6935388e-05
000060 c6 b1 cc 37 cf c4 a4 37 c1 2f 1f 38 20 fc 2c 38
       2.4401477e-05 1.964197e-05 3.795303e-05 4.1242805e-05
000070 bf 93 26 38 0f b4 d9 37 78 df 51 37 2b ba e4 37
       3.9715083e-05 2.5952262e-05 1.2509401e-05 2.726641e-05
000080 f5 b0 b2 32 44 7e a2 33 ea f0 33 33 ab 5d 99 32
       2.0802398e-08 7.5666804e-08 4.1895795e-08 1.785414e-08
000090 01 58 b0 33 1b d1 7f 33 7c b0 48 33 04 4f f9 32
       8.2116465e-08 5.9561994e-08 4.672664e-08 2.9023347e-08
0000a0 76 6e 30 33 5d 21 93 32 a0 ce a0 33 f2 71 2c 33
       4.1078657e-08 1.7128224e-08 7.4881655e-08 4.0150503e-08
0000b0 a2 6a 6e 33 02 4c fc 33 fb c3 2f 33 cd af b2 33
       5.5510675e-08 1.174849e-07 4.0923606e-08 8.320749e-08
0000c0 6c 16 e5 32 d1 24 48 33 c8 45 0b 33 d9 bc 2a 33
       2.6669305e-08 4.6599613e-08 3.2426925e-08 3.9752965e-08
0000d0 8a b5 e6 33 51 3a 4d 33 29 e9 6e 33 db 02 ad 32
       1.07432314e-07 4.778332e-08 5.562575e-08 2.014115e-08
0000e0 89 b2 e3 32 fc cf c6 32 ad 28 41 33 75 1e 28 33
       2.6507466e-08 2.3144814e-08 4.497331e-08 3.914325e-08
0000f0 c8 6f 24 33 40 7b 74 33 d9 4a 6b 33 a9 ec 82 33
       3.828589e-08 5.6922772e-08 5.4783275e-08 6.096645e-08

exp_avg f4 [2]
000000 87 30 ae ba 21 b2 47 39
       -0.0013289609 0.00019044477

exp_avg_sq f4 [2]
000000 c1 d8 ac 38 70 32 7b 35
       8.241973e-05 9.357818e-07

exp_avg f4 [48, 4]
000000 2b 09 2a bb 75 6e 07 bb b3 7b 95 ba cc b9 66 bb
       -0.0025945406 -0.0020665203 -0.0011404663 -0.0035205958
000010 9c 72 ab ba 0a e7 c8 ba 70 0e cc ba 32 4b a8 ba
       -0.0013080421 -0.0015327644 -0.0015568268 -0.0012839793
000020 ee 3c c8 ba fe 25 32 ba ed dc 47 ba 7a 61 bd ba
       -0.0015276948 -0.00067958224 -0.0007624168 -0.0014448606
000030 38 ac c3 39 47 40 b8 b6 ca 1a 15 39 a6 7b 6c 39
       0.0003732161 -5.49111e-06 0.00014219727 0.00022552776
000040 7f 54 48 ba 22 8b 29 ba 60 cc 46 ba 41 13 2b ba
       -0.00076419854 -0.0006467571 -0.0007583555 -0.00065260014
000050 28 fb f1 ba 67 e3 e5 ba a7 1c e9 ba e5 c1 ee ba
       -0.0018461691 -0.0017539085 -0.0017785028 -0.0018215744
000060 a9 56 77 ba d1 63 3b ba 2b 5d 35 ba 53 5d 7d ba
       -0.00094352156 -0.00071483577 -0.0006918485 -0.00096650905
000070 b8 02 19 bb bc 28 6a ba d8 fb 52 ba f1 cd 1e bb
       -0.0023347568 -0.00089324615 -0.0008048392 -0.0024231637
000080 aa 61 e2 ba 24 e4 22 ba e9 72 2f ba 4e 1a dc ba
       -0.0017271538 -0.0006213805 -0.0006692843 -0.0016792507
000090 ed e8 a2 3a ee 86 f3 39 1f ab 06 3a 19 75 9c 3a
       0.0012429036 0.00046449102 0.00051371934 0.0011936753
0000a0 70 77 f2 ba c2 14 a5 ba f1 0c 8d ba a3 3f 05 bb
       -0.001849873 -0.0012594687 -0.0010761303 -0.002033212
0000b0 47 6b a0 ba 4f d2 04 bb 4b 2e e2 ba 97 e1 c7 ba
       -0.0012239002 -0.0020266955 -0.0017256228 -0.0015249726
0000c0 79 4b 64 bb cb 33 22 bb 2c a6 15 bb 15 d9 70 bb
       -0.0034835024 -0.002475011 -0.0022834642 -0.0036750485
0000d0 97 d9 20 bb 91 df 4b ba 2c 81 63 ba 2e f1 1a bb
       -0.0024543756 -0.00077771494 -0.0008678611 -0.002364229
0000e0 c0 cc 23 3b 54 85 1e 3b 58 9c 12 3b bc b5 2f 3b
       0.0024993867 0.0024188356 0.002237102 0.0026811203
0000f0 8e c8 24 bb 20 6d e0 ba 7b a2 fc ba e3 ad 16 bb
       -0.0025143954 -0.0017122366 -0.0019274497 -0.0022991828
000100 f5 4b a3 3a 0e 3b 35 39 d0 9d bc 3a a8 9e aa b7
       0.001245855 0.00017283505 0.0014390294 -2.033946e-05
000110 56 aa 96 ba 78 1d 44 ba 3e d2 be ba 42 9b e7 b9
       -0.0011494856 -0.0007481198 -0.0014558507 -0.0004417543
000120 fb 10 e3 ba 22 8c 51 39 8e a3 3a 39 e7 33 e0 ba
       -0.0017323786 0.00019983997 0.00017799271 -0.0017105312
000130 f9 9e 09 bb 22 03 48 39 bd 83 5b ba ae 7b 8c ba
       -0.0020999296 0.00019074653 -0.00083738175 -0.0010718012
000140 fa 21 37 39 52 0b 82 b8 86 f9 a9 b8 13 19 4b 39
       0.00017464897 -6.2009916e-05 -8.105025e-05 0.0001936893
000150 c8 3e 36 b9 8e 1e af b9 8a f0 dc b9 ad 35 b5 b8
       -0.0001738026 -0.00033401366 -0.00042140885 -8.6407505e-05
000160 f7 08 0f 3a a6 f8 e2 b9 e5 b1 02 ba 89 3e 20 3a
       0.0005456353 -0.00043291337 -0.0004985615 0.0006112834
000170 ad d5 d1 ba af 52 4b 3a b1 c2 ab 3a 86 f7 0b bb
       -0.0016009115 0.0007756156 0.0013104287 -0.0021357252
000180 be ed 5a bb 2b a7 8b 3a af 02 82 39 7a 5a 25 bb
       -0.0033405866 0.0010654678 0.00024797532 -0.002523093
000190 dd 8e bb bb ba b0 96 3a ee 92 2d 3a 0c 95 ab bb
       -0.0057238177 0.001149676 0.00066213205 -0.0052362736
0001a0 90 49 ab ba 8d 8a 79 b8 ed 83 c7 b9 e9 34 81 ba
       -0.0013068188 -5.949526e-05 -0.0003805453 -0.0009857687
0001b0 0a ab 89 b9 82 2f b8 b9 19 a0 df b9 da 74 44 b9
       -0.0002625811 -0.0003513061 -0.00042653157 -0.00018735547
0001c0 ec 02 f1 ba dc 9c 0e ba 71 d9 b0 ba e5 77 87 ba
       -0.0018387712 -0.0005440244 -0.0013492537 -0.0010335414
0001d0 4e 32 f5 ba 2c 4a 1b 3a 9f f1 a9 39 9b 09 d2 ba
       -0.0018707009 0.0005923833 0.00032414214 -0.0016024591
0001e0 26 42 cf ba 30 28 08 bb e2 26 5e bb f9 12 8d b9
       -0.001581256 -0.0020775907 -0.0033897688 -0.0002690775
0001f0 2d 45 29 b9 ef e0 dc b9 85 31 79 ba 84 df c0 39
       -0.00016142866 -0.00042129259 -0.0009505975 0.00036787626
000200 5a 46 43 bc 6d 6c 0f bc 75 ac 85 bb 48 ee 87 bc
       -0.011918629 -0.008753878 -0.0040793964 -0.016593114
000210 a4 72 93 bc bf 3a 06 bc 6a 96 22 bc cd 44 85 bc
       -0.017999 -0.008192717 -0.009923557 -0.016268158
000220 d5 d0 24 bc 95 0f 67 bb 78 da 8c bb 7f 27 18 bc
       -0.010059555 -0.003525709 -0.0042985044 -0.00928676
000230 5f 88 c1 bb 52 51 cf bb 13 2c 43 bb d5 a1 17 bc
       -0.0059061493 -0.006326833 -0.002978091 -0.009254892
000240 8b 76 39 bb a4 71 bf ba 1b 32 c2 ba 4d 16 38 bb
       -0.0028299417 -0.0014606011 -0.0014815958 -0.0028089464
000250 59 77 eb bb 3e 86 95 bb bd 4e 94 bb dc ae ec bb
       -0.007185858 -0.004563122 -0.004525988 -0.0072229933
000260 c9 6d b0 3b 5a 2b 24 3b ce 99 4b 3b 90 b6 9c 3b
       0.005384181 0.0025050254 0.0031067017 0.0047825053
000270 82 d0 a4 bc 70 38 c9 bb 6c f0 ab bb 83 22 ac bc
       -0.020118956 -0.006140761 -0.0052471664 -0.02101255
000280 38 e0 bd 3c a5 4e c3 3b f3 91 ea 3b 63 0f b4 3c
       0.023178205 0.005960303 0.007158512 0.021979993
000290 78 bc 30 bc 8a b1 52 bc 21 11 bd bb ba 72 92 bc
       -0.010787122 -0.012859711 -0.005769864 -0.017876972
0002a0 0a e0 79 3c 2b 6f d9 3b 9f 98 d7 3b 54 cb 7a 3c
       0.015251169 0.0066355667 0.006579473 0.015307266
0002b0 25 5d 09 3c f7 66 c5 3b 9e 80 be 3b 51 d0 0c 3c
       0.008384024 0.0060242373 0.005813672 0.008594588
0002c0 19 32 9a bc b4 24 02 bc 03 9a 13 bc 70 77 91 bc
       -0.018822717 -0.007943321 -0.009008887 -0.017757148
0002d0 de 03 54 3c 9b d4 a5 3b 8e 1a 8c 3b e2 e0 60 3c
       0.012940375 0.005060745 0.0042756265 0.013725491
0002e0 b6 c0 05 bc c8 a3 50 bc 01 f0 06 bc 82 74 4f bc
       -0.008163622 -0.012734361 -0.008235932 -0.012662055
0002f0 4a aa 4c bc 1b 94 c8 bb 91 32 d7 bb 10 5b 45 bc
       -0.012491772 -0.006121171 -0.0065673073 -0.012045637

exp_avg_sq f4 [48, 4]
000000 94 09 0c 39 d9 2f a7 38 7e 99 b5 37 99 7c 82 39
       0.00013355009 7.972093e-05 2.1648357e-05 0.00024888365
000010 a5 9a 24 38 6a 73 7c 38 f5 7b 66 38 23 33 39 38
       3.924467e-05 6.018897e-05 5.4951717e-05 4.4155062e-05
000020 ee b3 68 38 7a 28 49 37 31 de 2d 37 c3 4d 7b 38
       5.5480683e-05 1.1989958e-05 1.03633365e-05 5.9915485e-05
000030 49 ae cb 36 cd 99 05 36 51 5f 36 35 19 7e ff 36
       6.070161e-06 1.9908068e-06 6.7938987e-07 7.614272e-06
000040 07 ae 66 37 0d 86 bd 36 9d 15 e8 36 97 52 3c 37
       1.3749587e-05 5.6482445e-06 6.916655e-06 1.1224903e-05
000050 d0 ef 9c 38 4f 23 82 38 40 0b 68 38 3c eb ad 38
       7.483328e-05 6.20546e-05 5.5323588e-05 8.293099e-05
000060 37 d4 c3 37 95 61 0f 37 e6 24 12 37 8b d4 c0 37
       2.3344632e-05 8.546184e-06 8.710869e-06 2.2987157e-05
000070 55 66 fc 38 37 cb b1 37 9a e0 5a 37 9d a8 17 39
       0.00012035357 2.1194674e-05 1.3046107e-05 0.00014463296
000080 c9 88 97 38 a7 81 3b 37 bf 1c 46 37 31 00 97 38
       7.225719e-05 1.1176256e-05 1.1808413e-05 7.200277e-05
000090 5f be 0f 38 b6 91 d9 37 0f 24 d3 36 05 75 8f 38
       3.4271154e-05 2.5936268e-05 6.292488e-06 6.840568e-05
0000a0 e1 f5 8d 38 cc 94 3f 38 11 c8 d8 37 d2 3d cf 38
       6.7692024e-05 4.5676526e-05 2.584237e-05 9.882044e-05
0000b0 b1 c1 12 38 c6 d8 97 38 bc 4c 48 38 53 33 6e 38
       3.49895e-05 7.240618e-05 4.775518e-05 5.679142e-05
0000c0 de 6f 82 39 5f 4c 16 39 19 77 dd 38 57 4f a1 39
       0.0002487888 0.00014333565 0.00010560285 0.00030767426
0000d0 26 8f ee 38 93 58 c3 37 56 76 61 37 fd c2 13 39
       0.00011375388 2.3287057e-05 1.3438597e-05 0.00014091651
0000e0 4c 27 bb 38 36 42 f3 38 71 b6 a4 38 c6 4d 09 39
       8.9241745e-05 0.00011599476 7.854112e-05 0.00013094311
0000f0 cd 49 08 39 93 12 8f 38 9e e6 9c 38 f9 6c 00 39
       0.00012997464 6.822231e-05 7.4816155e-05 0.00012247627
000100 0b fd 26 37 bf 89 fa 35 0b 87 ab 37 db 44 f1 36
       9.953287e-06 1.8666541e-06 2.0447673e-05 7.1903755e-06
000110 01 c7 0e 38 6c ef fa 36 62 c6 2d 38 d6 b5 b6 36
       3.4040775e-05 7.478453e-06 4.1431173e-05 5.445191e-06
000120 04 04 8a 38 d0 ba f9 34 70 79 84 34 13 9c 6b 38
       6.581101e-05 4.6515788e-07 2.4675273e-07 5.617372e-05
000130 aa a3 b4 38 91 e6 6c 35 eb 3b 85 37 8e de dd 37
       8.613554e-05 8.825237e-07 1.5882737e-05 2.6448888e-05
000140 54 7b 81 35 1c a2 e2 34 07 7e dd 33 e9 d3 d1 34
       9.647142e-07 4.221373e-07 1.0314039e-07 3.9083469e-07
000150 fa f1 ac 35 a8 7c 00 36 10 22 fa 35 57 6c 90 35
       1.2885423e-06 1.9146046e-06 1.8636365e-06 1.0760367e-06
000160 54 d1 84 36 98 31 19 36 07 f5 53 36 0a b0 a9 36
       3.9582756e-06 2.2827644e-06 3.1584075e-06 5.057086e-06
000170 33 74 69 38 23 9f 1c 37 ea a3 ed 37 32 d4 c7 38
       5.5659748e-05 9.3353765e-06 2.832893e-05 9.528584e-05
000180 67 24 8a 39 b9 48 94 37 47 76 df 35 dc 54 0c 39
       0.00026348533 1.7676839e-05 1.6649218e-06 0.00013383053
000190 10 2e e8 39 b0 49 a1 37 9c 4a 6e 37 ed f3 df 39
       0.00044284808 1.9227009e-05 1.4203277e-05 0.00042715613
0001a0 c1 5e 12 38 21 3a 1d 35 6f 66 71 36 11 0c b4 37
       3.489736e-05 5.8571646e-07 3.5971423e-06 2.1463291e-05
0001b0 14 2a a7 36 c7 46 c1 36 d2 35 42 36 14 ea ee 36
       4.9818864e-06 5.760088e-06 2.893958e-06 7.120203e-06
0001c0 5c 9c 5a 38 85 83 0d 37 75 0a 9e 37 45 51 07 38
       5.212087e-05 8.434877e-06 1.8839937e-05 3.2262196e-05
0001d0 0b d8 97 38 7e 7d 9c 36 2b c3 c9 34 53 59 3e 38
       7.240482e-05 4.6637715e-06 3.758117e-07 4.538272e-05
0001e0 7e 77 62 37 95 60 61 38 6b ac 1f 39 6e 6f cd 36
       1.3498471e-05 5.373413e-05 0.00015227652 6.122448e-06
0001f0 78 33 40 36 cc 8a 35 36 0e 6c af 37 4f b9 37 36
       2.8640188e-06 2.7051892e-06 2.0911943e-05 2.7376989e-06
000200 ab d7 69 3b 34 67 b3 3a a6 77 fe 39 8e b7 b3 3b
       0.0035681527 0.0013687373 0.000485358 0.005484528
000210 e3 f8 e8 3b e4 9b e6 3a a5 18 15 3b d7 e1 c9 3b
       0.0071097477 0.0017594066 0.0022750285 0.0061609554
000220 20 18 1e 3b 13 0c 80 39 fb 01 c5 39 8b ed 06 3b
       0.0024123266 0.00024423058 0.00037576244 0.0020588364
000230 fd ef 41 3a 4d 83 94 3a c5 ad 8a 39 b6 05 04 3b
       0.0007398127 0.0011330635 0.0002645088 0.0020145006
000240 ad ea 8e 39 2b ea 84 38 ca d0 b9 38 e2 8d 5b 39
       0.00027259198 6.337868e-05 8.8603774e-05 0.00020938323
000250 c1 f9 9f 3a 6d ae eb 39 35 06 fd 39 00 a7 97 3a
       0.001220517 0.0004495265 0.00048260545 0.0011570156
000260 fd b9 3c 3a 44 d9 79 39 c4 b8 8f 39 94 1c 2c 3a
       0.0007199345 0.00023827428 0.00027412747 0.0006565538
000270 d3 39 0c 3c df f6 5f 3a 09 64 25 3a dc 1f 19 3c
       0.008558708 0.00085435616 0.0006309157 0.009345975
000280 f6 70 42 3c bc 50 7c 3a 81 c4 a7 3a 59 5e 33 3c
       0.011867752 0.00096250675 0.0012799652 0.010947787
000290 17 38 e1 3a 76 49 74 3b 47 56 0e 3a 6c b3 ce 3b
       0.0017182854 0.0037275231 0.00054297264 0.00630801
0002a0 d0 b4 ac 3b 67 a9 6c 3a 8a ab 72 3a 30 c8 a9 3b
       0.005270578 0.00090279285 0.00092571287 0.005181335
0002b0 c7 a9 ed 3a 53 3a 51 3a 44 85 43 3a 48 44 f6 3a
       0.0018132263 0.0007981408 0.0007458518 0.001878866
0002c0 4a 6d e7 3b 9e 6a dc 3a 18 ea cf 3a c4 7f ed 3b
       0.007062589 0.0016816442 0.0015862612 0.007247897
0002d0 88 07 67 3b a3 56 ea 39 69 d3 b1 39 0b a8 7c 3b
       0.0035252292 0.00044696507 0.00033917584 0.003855231
0002e0 9e 8e 9f 3a b1 35 50 3b 4a 15 b8 3a 5f 97 40 3b
       0.001217324 0.0031770284 0.001404443 0.00293871
0002f0 39 97 60 3b d8 ac 3b 3a 10 e5 7f 3a a7 23 3e 3b
       0.0034269823 0.00071592396 0.0009761611 0.002901295

exp_avg f4 [48, 16]
000000 e8 0b f9 ba f5 e6 3f bb 7e ff 5e bb b7 64 5f 3a
       -0.0019000741 -0.0029281948 -0.0034026797 0.00085217826
000010 ae 7b 2d bb 20 87 61 bb 2c f8 1f 3b a2 70 25 bb
       -0.0026471424 -0.0034412816 0.0024409397 -0.0025244136
000020 89 3a 30 3b b5 32 4b b9 b9 d6 69 3b 09 d2 33 3b
       0.0026890358 -0.00019378478 0.0035680963 0.0027438423
000030 66 b4 48 bb b1 99 5a 3b 1c 8f 98 39 18 82 5b bb
       -0.0030625104 0.0033355767 0.00029098324 -0.003349429
000040 25 3e be ba 5c 3a 04 bb fc af 1a bb f5 18 20 3a
       -0.001451437 -0.0020176386 -0.002360343 0.00061072345
000050 03 fc fe ba 67 14 1f bb 9b 29 e2 3a 3b 1a df ba
       -0.0019453767 -0.0024273635 0.0017254831 -0.0017021367
000060 41 a1 f2 3a 59 d1 ef b7 fe 41 1c 3b a5 05 03 3b
       0.0018511192 -2.8588505e-05 0.0023843045 0.0019992378
000070 b4 eb 0a bb dc 4b 08 3b 14 04 47 39 b7 a3 0e bb
       -0.002119762 0.002079717 0.00018979638 -0.0021765062
000080 f7 f5 a6 ba 84 84 c6 ba 19 76 ef ba 26 7a 4b 3a
       -0.0012738098 -0.0015145694 -0.0018269449 0.0007762037
000090 be c6 e2 ba bc 58 fa ba 4e 79 c2 3a 22 11 a2 ba
       -0.0017301661 -0.0019099931 0.0014837177 -0.0012364725
0000a0 08 85 a3 3a ab 0a ac 39 99 df e8 3a 46 2f d6 3a
       0.001247556 0.00032814345 0.0017766833 0.0016340993
0000b0 87 13 d0 ba 96 33 d0 3a 61 0e b5 39 d1 bb e0 ba
       -0.001587496 0.0015884514 0.00034533723 -0.0017145817
0000c0 65 0b 39 39 cf 4b 59 39 49 d7 7b 39 37 e9 31 b9
       0.0001764722 0.00020722974 0.00024017425 -0.00016966915
0000d0 d1 cd 9e 39 97 3a 8b 39 00 8a 62 b9 ae 62 1d 39
       0.00030289454 0.000265558 -0.00021604449 0.00015009448
0000e0 fd 3d 1f b9 cb 09 81 b8 6d 54 9e b9 f9 2b 74 b9
       -0.00015186514 -6.1530234e-05 -0.0003019901 -0.00023286034
0000f0 04 4a 78 39 bf c4 80 b9 d4 a2 6b b9 be bf 82 39
       0.00023678696 -0.0002456065 -0.00022472005 0.0002493839
000100 44 78 68 ba 46 d6 6b ba 79 d6 95 ba 79 53 03 3a
       -0.00088680186 -0.0008996468 -0.0011431716 0.0005009692
000110 0c 43 8a ba 28 b8 99 ba 4d be 61 3a 90 2f 61 ba
       -0.0010548546 -0.0011727856 0.0008611426 -0.0008590156
000120 01 a8 4c 3a c3 2d 39 39 2f 98 8b 3a 4c 2c 84 3a
       0.0007807017 0.00017660022 0.0010650213 0.0010084002
000130 fa 18 79 ba 56 86 88 3a 08 93 39 39 a3 45 8d ba
       -0.0009502318 0.0010416012 0.00017697748 -0.00107782
000140 81 2d fc ba df 4f 10 bb 97 75 31 bb 9a eb a9 3a
       -0.0019239635 -0.0022020263 -0.0027078146 0.0012963891
000150 b8 a3 29 bb e5 ed 39 bb c8 a3 12 3b 68 f1 fa ba
       -0.0025884937 -0.0028370556 0.0022375453 -0.0019145431
000160 02 e0 e9 3a 50 68 0e 3a 83 96 2c 3b a2 af 1c 3b
       0.0017843249 0.0005432414 0.002633483 0.0023908396
000170 10 17 16 bb 49 a6 21 3b a3 24 26 3a 1b 8a 2a bb
       -0.002290193 0.0024665764 0.0006337857 -0.0026022259
000180 48 1c 6e ba c7 51 8b ba f6 5c a4 ba 4a 78 2a 3a
       -0.0009083194 -0.001062923 -0.0012539912 0.000650291
000190 59 d5 a0 ba 38 53 ab ba 37 3c 87 3a 78 c2 64 ba
       -0.0012270614 -0.0013071066 0.0010317628 -0.0008726488
0001a0 cb 9a 55 3a 7a 06 97 39 4b c4 9f 3a 4b e3 91 3a
       0.0008148371 0.0002880579 0.0012189237 0.0011130361
0001b0 fe 98 8a ba 61 27 9d 3a 3c 8a 7f 39 eb 39 a5 ba
       -0.001057416 0.0011989885 0.00024370191 -0.0012605762
0001c0 13 34 bb ba 94 9f 05 bb 8b d6 1b bb 91 ff 63 3a
       -0.0014282487 -0.0020389305 -0.0023779 0.0008697445
0001d0 e4 49 0b bb 3f c5 21 bb 33 ad f8 3a aa 2a d5 ba
       -0.002125376 -0.0024684218 0.0018972516 -0.0016263325
0001e0 30 b8 df 3a 21 38 10 39 2b 10 22 3b ea 32 06 3b
       0.0017068442 0.0001375382 0.0024728875 0.0020477124
0001f0 af f7 0b bb c7 0c 12 3b 12 96 f6 39 b1 92 18 bb
       -0.0021357348 0.0022285448 0.00047032587 -0.0023280794
000200 29 f4 8b ba 7e 0b c8 ba ae 43 e8 ba d7 d0 21 3a
       -0.0010677624 -0.0015262214 -0.0017720365 0.0006172782
000210 e3 2e ca ba 89 c9 f0 ba 6f 8e ba 3a 56 27 9e ba
       -0.001542535 -0.0018370609 0.0014233122 -0.0012066166
000220 73 f2 aa 3a 79 db be 38 1b ad ee 3a c4 71 c6 3a
       0.0013042226 9.100786e-05 0.0018209548 0.0015140106
000230 83 6f cf ba 13 8f d4 3a ff 06 a5 39 ec 83 e2 ba
       -0.001582608 0.0016216956 0.00031476465 -0.0017281747
000240 bf 20 4a 3a 54 6d 88 3a 33 d6 9d 3a 77 6b 12 ba
       0.0007710568 0.0010408559 0.0012041986 -0.00055854715
000250 23 2d a1 3a 1b 93 ab 3a e9 30 8c ba dd f2 4e 3a
       0.0012296777 0.0013090105 -0.0010695729 0.0007894466
000260 6a 68 5a ba b4 7b 18 b9 1f a5 b2 ba 41 a0 8f ba
       -0.0008331599 -0.00014541933 -0.0013629532 -0.0010957794
000270 16 16 96 3a 6e bf 94 ba 4e 21 12 ba 05 93 9a 3a
       0.0011450674 -0.0011348554 -0.0005574421 0.0011793083
000280 c3 4c c0 ba fd 3f 03 bb 56 cb 19 bb e3 3e 60 3a
       -0.0014671314 -0.0020027154 -0.0023467145 0.0008554293
000290 7f db 06 bb 71 cb 1f bb 88 f6 f8 3a 0c b2 d5 ba
       -0.0020577607 -0.0024382735 0.001899437 -0.0016303672
0002a0 b8 e4 db 3a df 72 3e 39 2d d9 1b 3b 7d 72 05 3b
       0.0016776538 0.00018162605 0.002378057 0.002036243
0002b0 37 67 08 bb 91 15 0c 3b ea af bc 39 86 15 14 bb
       -0.0020813474 0.002137516 0.0003598922 -0.0022595837
0002c0 db 8a e6 ba 8a df 13 bb 7e 5b 30 bb 6c b2 60 3a
       -0.001758899 -0.002256366 -0.0026910002 0.0008571509
0002d0 00 d5 15 bb 54 dd 34 bb 29 0e 02 3b e9 66 01 bb
       -0.0022862554 -0.0027597742 0.0019844866 -0.0019745177
0002e0 1b b6 04 3b c9 16 07 39 03 b4 2d 3b af 46 16 3b
       0.0020250145 0.00012883091 0.0026505 0.0022930314
0002f0 40 a8 1a bb 1c 62 1d 3b 58 08 58 39 53 ce 23 bb
       -0.002359882 0.0024014777 0.00020602474 -0.0024994805
000300 fe db 35 bb 11 46 81 bb 94 59 95 bb 87 35 bc 3a
       -0.0027749534 -0.00394512 -0.0045577977 0.0014359214
000310 97 aa 7e bb ec b9 99 bb 6a 9e 64 3b 59 5d 55 bb
       -0.0038859004 -0.004691353 0.0034884461 -0.003255686
000320 8b 44 60 3b b0 a5 a3 38 05 0c 99 3b a4 0c 7e 3b
       0.0034220542 7.8033074e-05 0.0046706223 0.0038764859
000330 e6 55 87 bb fc b0 8a 3b 47 08 eb 39 53 f5 8f bb
       -0.004130113 0.004232524 0.0004482886 -0.0043932586
000340 00 af b1 ba 5a 1f 06 bb 7f 29 1b bb c1 00 3d 3a
       -0.0013556182 -0.0020465464 -0.0023675857 0.000720989
000350 c5 aa 03 bb 63 d4 1e bb 2f 90 f2 3a e4 8e d6 ba
       -0.00200908 -0.002423548 0.0018506105 -0.0016369489
000360 77 9b e8 3a c4 bf a7 b7 b1 07 23 3b ee 43 03 3b
       0.0017746527 -1.999725e-05 0.002487641 0.0020029503
000370 f4 bc 0e bb 86 0c 11 3b 6a 50 9a 39 d2 3c 16 bb
       -0.0021780105 0.0022132709 0.00029433082 -0.0022924435
000380 f5 c7 ee 3a 59 81 5d 3b ac 9f 73 3b e8 c5 c5 b9
       0.0018217551 0.003379902 0.003717403 -0.0003772222
000390 e7 83 30 3b 23 ce 74 3b f9 4d 17 bb b8 32 3a 3b
       0.0026934089 0.0037354312 -0.0023087247 0.0028411578
0003a0 74 35 53 bb 4c f2 75 3a 85 40 89 bb 73 2b 3f bb
       -0.0032227905 0.00093821133 -0.0041885995 -0.0029170185
0003b0 b1 d0 6d 3b 06 09 7a bb e1 2e 9f b8 af 97 70 3b
       0.003628772 -0.003815235 -7.590443e-05 0.0036711504
0003c0 02 38 0c bb cf 57 30 bb fd f5 52 bb 10 f9 ab 3a
       -0.0021395688 -0.0026907807 -0.0032190077 0.0013120491
0003d0 6d bc 40 bb 64 a6 5c bb 5c 9d 2b 3b 13 63 14 bb
       -0.0029409186 -0.0033668512 0.0026186323 -0.002264206
0003e0 f6 23 13 3b 2b 38 f3 39 57 75 50 3b f1 df 37 3b
       0.0022451854 0.0004639042 0.0031808221 0.0028057063
0003f0 aa 8f 37 bb 5b 69 40 3b c6 d7 06 3a b1 83 4a bb
       -0.0028009214 0.0029359672 0.0005143847 -0.0030901248

exp_avg_sq f4 [48, 16]
000000 ec 37 a6 38 ae 5b 2a 39 38 15 61 39 b3 c6 a1 37
       7.925913e-05 0.00016246617 0.00021465577 1.9285222e-05
000010 ea 33 09 39 f1 46 6f 39 58 40 e6 38 0f 5a f2 38
       0.00013084678 0.00022819244 0.000109792396 0.00011556234
000020 86 ff 05 39 6a 1f 99 36 91 8b 73 39 b0 d3 20 39
       0.00012779058 4.5634124e-06 0.00023226278 0.00015337649
000030 85 1e 3f 39 0f 3a 56 39 5c d9 8a 35 3d f5 5c 39
       0.00018226549 0.00020430259 1.0345061e-06 0.00021072193
000040 9f 04 3d 38 b0 5e b3 38 de be f1 38 2e 97 0d 37
       4.5065415e-05 8.553022e-05 0.00011527327 8.439454e-06
000050 12 3f 8e 38 83 c2 f6 38 d9 5b 56 38 07 ee 88 38
       6.7828354e-05 0.00011766425 5.1107116e-05 6.5293214e-05
000060 d3 db 95 38 40 09 30 36 31 cf 01 39 c2 39 ad 38
       7.145819e-05 2.6231428e-06 0.00012379583 8.260041e-05
000070 c5 6d ce 38 08 a0 dc 38 0d 67 98 35 c2 0a da 38
       9.8432916e-05 0.000105202256 1.1354874e-06 0.00010397054
000080 a1 f1 ed 37 ac c3 3f 38 9e 87 83 38 98 c6 2b 37
       2.8365119e-05 4.5720182e-05 6.2718274e-05 1.0238633e-05
000090 fb 46 4c 38 7e ef 8e 38 77 96 18 38 1f 81 02 38
       4.8703496e-05 6.8156965e-05 3.6379755e-05 3.111467e-05
0000a0 fe 52 02 38 1a 97 02 36 89 3e 8a 38 1b af 4c 38
       3.1071708e-05 1.9459462e-06 6.592001e-05 4.880047e-05
0000b0 6f d8 59 38 40 f7 6d 38 08 9a aa 35 0f c4 7c 38
       5.19384e-05 5.6735473e-05 1.2710816e-06 6.0264076e-05
0000c0 3d 57 82 36 81 03 85 36 2d 17 c3 36 9d 13 23 36
       3.884458e-06 3.964117e-06 5.814151e-06 2.430031e-06
0000d0 db 32 ef 36 b4 7b e7 36 77 37 9e 36 86 55 2d 36
       7.1286754e-06 6.8987374e-06 4.715224e-06 2.582879e-06
0000e0 b1 e7 13 36 2f 29 a7 35 1f 35 bb 36 e5 73 b2 36
       2.203957e-06 1.2454456e-06 5.5792184e-06 5.3183053e-06
0000f0 af 05 9c 36 3d 03 a7 36 59 f9 e4 34 d0 b0 c0 36
       4.649824e-06 4.977365e-06 4.2649734e-07 5.7426296e-06
000100 35 91 1d 37 57 db 52 37 93 e7 98 37 58 5b 94 36
       9.391738e-06 1.2568044e-05 1.8227647e-05 4.4213775e-06
000110 e1 ce 7f 37 eb 49 a6 37 1e 19 35 37 42 af 17 37
       1.5247352e-05 1.9823163e-05 1.0794289e-05 9.041107e-06
000120 15 d6 09 37 3d 93 90 35 c9 d7 9a 37 c7 a7 71 37
       8.215681e-06 1.0771688e-06 1.8458713e-05 1.4403783e-05
000130 08 d0 70 37 bc 49 89 37 a6 23 87 35 1a 32 91 37
       1.4353551e-05 1.6366008e-05 1.0068659e-06 1.7308677e-05
000140 3a 3d 82 38 68 e5 ba 38 8f d5 07 39 70 38 ec 37
       6.2102874e-05 8.9119014e-05 0.0001295416 2.8159673e-05
000150 a3 5f d9 38 e7 03 14 39 e9 a7 a3 38 20 a1 8e 38
       0.0001036518 0.00014115834 7.8037214e-05 6.8010995e-05
000160 68 eb 7a 38 57 24 c2 36 c5 38 0a 39 b9 ac cf 38
       5.9823884e-05 5.785881e-06 0.00013181854 9.902701e-05
000170 ea 6d d2 38 7b 54 fe 38 e0 2d 80 36 1a 90 04 39
       0.000100340534 0.000121273995 3.820038e-06 0.00012642183
000180 67 f3 66 37 93 37 93 37 ed 43 db 37 bd 40 02 37
       1.376574e-05 1.7549644e-05 2.6138465e-05 7.763677e-06
000190 4f 13 c5 37 d9 6d f6 37 dc 8f 95 37 cd 9b 5a 37
       2.3493221e-05 2.9376637e-05 1.7829174e-05 1.3030088e-05
0001a0 87 76 35 37 7e e8 0e 36 97 4e da 37 80 04 ae 37
       1.08160375e-05 2.1294977e-06 2.6024221e-05 2.0744512e-05
0001b0 03 d9 a5 37 aa cd cc 37 be f4 a1 35 48 6e de 37
       1.9770587e-05 2.4414465e-05 1.2066664e-06 2.6515816e-05
0001c0 c7 f3 62 38 39 4e c0 38 5d a7 01 39 f3 0f a4 37
       5.4109634e-05 9.1698435e-05 0.00012364746 1.955775e-05
0001d0 70 12 c9 38 13 bc 0e 39 b6 e6 9b 38 1b 97 7d 38
       9.587861e-05 0.00013612238 7.433949e-05 6.046063e-05
0001e0 4d d4 82 38 d9 4d 78 36 21 a5 09 39 92 de c9 38
       6.238427e-05 3.7000193e-06 0.00013126853 9.625884e-05
0001f0 08 59 da 38 e0 d3 eb 38 b6 1c c9 35 ed 39 ff 38
       0.000104116334 0.00011245138 1.4984023e-06 0.00012170137
000200 26 21 05 38 24 6a 63 38 dc 4c 99 38 d2 8c 35 37
       3.1740543e-05 5.421987e-05 7.309925e-05 1.0821228e-05
000210 de f7 69 38 24 65 a7 38 e0 a1 31 38 b7 81 18 38
       5.5782373e-05 7.9820195e-05 4.2350846e-05 3.636043e-05
000220 94 5f 1f 38 c7 5c 1a 36 46 9f a3 38 e6 a4 6d 38
       3.7997568e-05 2.3001792e-06 7.802113e-05 5.6658777e-05
000230 98 75 82 38 20 ab 8a 38 44 23 46 35 c3 3b 94 38
       6.2207866e-05 6.612227e-05 7.3812066e-07 7.0683214e-05
000240 1e 13 e3 37 7e 50 45 38 1e df 82 38 0f 40 fd 36
       2.706941e-05 4.7043424e-05 6.240442e-05 7.547445e-06
000250 a4 27 40 38 c8 78 8d 38 ae d2 14 38 21 51 06 38
       4.5813285e-05 6.745901e-05 3.548216e-05 3.2023647e-05
000260 5f 20 10 38 de 17 a4 35 2a e7 8a 38 60 d4 47 38
       3.4362423e-05 1.2225898e-06 6.6234104e-05 4.7643087e-05
000270 79 53 5f 38 b0 17 6d 38 e1 5b 79 35 d1 74 7d 38
       5.3245083e-05 5.6527264e-05 9.289343e-07 6.0428694e-05
000280 c2 4a 57 38 87 1b b3 38 5e f1 f5 38 81 bc 8e 37
       5.1329618e-05 8.5405125e-05 0.000117274685 1.7015498e-05
000290 73 fa b1 38 f8 ab 03 39 96 b7 87 38 eb af 80 38
       8.4866675e-05 0.00012557197 6.471497e-05 6.136283e-05
0002a0 6f 6e 80 38 36 2b 41 36 f3 c0 01 39 eb 66 b9 38
       6.1240855e-05 2.8784393e-06 0.00012374278 8.8406574e-05
0002b0 27 ec ca 38 50 b4 e2 38 66 cb e3 35 00 6f eb 38
       9.6760974e-05 0.000108101056 1.6972015e-06 0.000112263486
0002c0 44 2c 41 38 f1 19 ae 38 f6 61 f0 38 f7 ab 3d 37
       4.605601e-05 8.3017985e-05 0.000114623384 1.1305317e-05
0002d0 0e 60 92 38 56 48 f7 38 e8 76 61 38 05 16 88 38
       6.979714e-05 0.000117913514 5.375492e-05 6.489087e-05
0002e0 6a 4f 8d 38 31 9f 13 36 76 cd fd 38 e9 a1 ab 38
       6.738196e-05 2.1997369e-06 0.0001210225 8.1840735e-05
0002f0 0d ac c5 38 2b 9b de 38 b5 3d cc 35 4d 18 dd 38
       9.425739e-05 0.00010614687 1.5217144e-06 0.000105426276
000300 31 85 33 39 81 8f 9b 39 7a 9e d5 39 ef 21 5c 38
       0.00017120388 0.00029670823 0.000407446 5.248369e-05
000310 06 e9 94 39 40 78 e2 39 3e b2 62 39 ed 3c 62 39
       0.00028402376 0.00043195672 0.0002161944 0.00021575736
000320 23 00 67 39 14 75 14 37 91 3c e3 39 4d 42 9f 39
       0.00022029928 8.848747e-06 0.0004334194 0.0003037624
000330 de 54 b1 39 d5 83 c4 39 86 a3 c6 36 61 2d ca 39
       0.00033823302 0.00037482256 5.9198965e-06 0.00038562252
000340 c3 2b 63 38 d3 9c d4 38 f2 ae 0b 39 5b c7 6b 37
       5.4161774e-05 0.000101381585 0.00013321245 1.4053508e-05
000350 cb c2 c4 38 0e 37 16 39 65 1a 97 38 16 32 8b 38
       9.382291e-05 0.00014325624 7.2051575e-05 6.637366e-05
000360 85 fd 99 38 68 9c 11 36 ad d7 16 39 f6 f8 d4 38
       7.34283e-05 2.1697724e-06 0.0001438546 0.0001015532
000370 63 01 f2 38 a3 b7 fc 38 6a 82 b6 35 77 d6 05 39
       0.000115397175 0.000120505014 1.3598012e-06 0.00012763763
000380 66 d1 a7 38 4e 3f 33 39 46 d8 70 39 52 1d 77 37
       8.002184e-05 0.00017094353 0.00022968752 1.4729174e-05
000390 80 8a 0b 39 47 ff 73 39 59 1b db 38 93 ef 08 39
       0.00013307668 0.00023269384 0.00010447828 0.00013059219
0003a0 03 6c 16 39 5b d0 9b 36 2d a5 84 39 56 7b 29 39
       0.00014345352 4.6436157e-06 0.00025300068 0.00016163042
0003b0 12 28 4d 39 b3 6f 5e 39 ae a0 3c 36 77 e6 5a 39
       0.00019565251 0.00021213181 2.810771e-06 0.00020875955
0003c0 46 72 b7 38 ec 3f 0f 39 97 b6 49 39 70 72 0d 38
       8.747405e-05 0.00013661355 0.00019236874 3.3723598e-05
0003d0 92 b5 1a 39 73 e8 5a 39 4b 3e e9 38 1f ff d2 38
       0.00014754225 0.00020876694 0.00011121909 0.000100611
0003e0 08 7c c7 38 54 2f d6 36 86 91 51 39 b6 b4 19 39
       9.512162e-05 6.3832067e-06 0.00019986005 0.00014658537
0003f0 3c 54 22 39 a8 e1 3b 39 2c 10 7e 36 0e b1 43 39
       0.00015480904 0.00017917773 3.7858363e-06 0.00018662607

exp_avg f4 [48]
000000 d6 5a 98 bb 8d d0 39 bb 57 55 10 bb 28 45 c4 39
       -0.0046495004 -0.0028353066 -0.0022023523 0.0003743556
000010 46 b5 b8 ba 7c 7a 6b bb 50 49 d4 ba 42 13 53 bb
       -0.001409211 -0.003593116 -0.0016196165 -0.0032207523
000020 57 ad 19 bb 9b aa e4 3a c8 3c 4a bb 7f a9 54 bb
       -0.0023449266 0.0017445864 -0.0030858982 -0.003244966
000030 22 e9 c2 bb ca e1 53 bb 48 96 a1 3b 7b d1 89 bb
       -0.0059482018 -0.0032330626 0.004931245 -0.00420588
000040 cc 97 ba 3a a3 80 f5 ba c2 76 c7 ba e0 f0 fb ba
       0.0014235913 -0.0018730353 -0.0015217888 -0.0019221567
000050 80 52 c1 38 53 8d 0f ba ea a4 37 39 f9 ec 59 ba
       9.218324e-05 -0.0005476076 0.00017513675 -0.0008313205
000060 3d fc 12 bb 19 fd 92 bb e5 8a ae ba 6a 40 0f ba
       -0.0022428178 -0.004485738 -0.001331654 -0.00054646155
000070 50 58 1c bb c9 d0 a5 ba d1 d4 6c bb 4d 54 11 ba
       -0.002385635 -0.0012650724 -0.003613759 -0.0005543873
000080 80 2a a9 bc be b5 d5 bc c8 e9 5d bc 09 43 48 bc
       -0.020650148 -0.026087638 -0.013544507 -0.012223014
000090 16 cf 88 bb 8d 73 3e bc ea d1 04 3c e1 ec d5 bc
       -0.004175077 -0.011624229 0.008106688 -0.02611393
0000a0 37 5d ee 3c 7e e2 c1 bc 66 25 b1 3c 13 99 6a 3c
       0.029097183 -0.02366757 0.021624278 0.014318722
0000b0 41 76 da bc 95 a7 91 3c 6c 6e aa bc c4 ca 96 bc
       -0.026667716 0.017780105 -0.020804606 -0.018407233

exp_avg_sq f4 [48]
000000 72 b1 d8 39 54 9b 4b 39 d4 60 f6 38 42 d8 4b 37
       0.00041330938 0.00019417453 0.0001174823 1.2150094e-05
000010 7f 58 11 38 29 d7 8c 39 b9 b5 76 38 ce 43 7d 39
       3.4653112e-05 0.00026863188 5.8820213e-05 0.0002415322
000020 f3 54 12 39 bf 6b f0 38 3e e5 68 39 eb 31 56 39
       0.00013955291 0.00011464161 0.00022210644 0.00020427226
000030 30 95 47 3a 9d 6c 79 39 c6 f7 d2 39 8c 6c c8 39
       0.0007613478 0.00023786952 0.00040238927 0.00038227846
000040 a7 53 88 37 40 9b 90 38 cd d3 76 38 89 26 a6 38
       1.6251417e-05 6.895373e-05 5.8848225e-05 7.9226746e-05
000050 19 78 71 34 f6 79 b1 36 bf 32 dc 34 b5 c9 ad 37
       2.2488565e-07 5.289209e-06 4.1015116e-07 2.0717134e-05
000060 6f ec 1e 39 2c df 99 39 2c d5 2d 38 c7 f4 8b 37
       0.00015156133 0.0002934871 4.1444946e-05 1.6684075e-05
000070 c4 08 ca 38 e6 53 30 38 be 41 ef 38 69 cc 20 37
       9.633743e-05 4.2039806e-05 0.000114086535 9.584336e-06
000080 ab 8a 15 3c af 35 80 3c 48 33 86 3b 38 d3 70 3b
       0.009127299 0.015650598 0.0040954687 0.003674699
000090 bd ca 11 3a 07 7a 49 3b 13 d0 e3 3a a0 e7 6f 3c
       0.00055615214 0.00307429 0.0017380737 0.014642626
0000a0 27 a7 9e 3c d4 1d 2b 3c 56 dc 28 3c be 8c a0 3b
       0.019366814 0.010444123 0.010306438 0.0048995903
0000b0 c1 9d 7b 3c de 1e d1 3b f8 07 07 3c fc 27 e9 3b
       0.015357436 0.0063818535 0.008241646 0.007115362
