saved_models/LS0_GRU_HS=16_N=1_ZP0/checkpoint1499.pth (torch, 20426 bytes, 18 tensors)

trial_output.weight f4 [2, 16]
-0.6437608 -0.62324554 -0.8943324 0.74666184 -0.8768331 1.5909082 0.6709689 1.2255862
1.1463244 0.47846472 0.73576605 1.216499 -1.1644406 -0.3374324 0.17657216 -0.42548344
-0.0335688 0.103937514 0.16153736 -0.028120913 -0.05900021 0.11368662 -0.30293077 -0.29291338
-0.18770069 0.076669306 0.016144548 0.34717056 -0.32822165 -0.1595924 0.498536 -0.12072733
00000000: 82cd 24bf 058d 1fbf f8f2 64bf 3b25 3f3f
00000010: 2278 60bf e1a2 cb3f 9ec4 2b3f 02e0 9c3f
00000020: c2ba 923f 54f9 f43e 2a5b 3c3f 3db6 9b3f
00000030: 640c 95bf f1c3 acbe 55cf 343e f7d8 d9be
00000040: 707f 09bd 31dd d43d 0d6a 253e d45d e6bc
00000050: 34aa 71bd 88d4 e83d be19 9bbe bef8 95be
00000060: 9c34 40be cc04 9d3d 9241 843c 57c0 b13e
00000070: ab0c a8be 316c 23be 1c40 ff3e e43f f7bd

trial_output.bias f4 [2]
-0.15077277 -0.4183327
00000000: 2d64 1abe b42f d6be

rnn.weight_ih_l0 f4 [48, 4]
0.4754474 -0.70696217 0.92822367 -0.8868996 0.5363729 -0.46118668 0.9305056 -0.2878334
0.71988827 -0.11147452 1.3155123 -0.581181 -0.038298976 0.15320534 -0.24398132 0.31908345
1.333144 -0.6348615 -0.2813723 0.3244905 -0.8224473 0.93471473 1.2867026 -1.104044
0.78560406 -0.75078917 1.1592592 -0.41766387 0.7309571 0.5083904 0.20775628 0.7230391
0.748166 -0.0851727 -0.24716659 0.5716239 0.5923285 -0.21685489 0.3432907 0.07648349
0.4712908 -0.004490934 0.54502565 0.11974809 0.61620283 -0.2209739 1.7942688 -0.78663164
-0.022355434 0.15111975 0.6869272 -0.10955099 0.46298242 -0.15019721 0.075054236 0.48828706
0.07696802 0.0789914 0.13831842 0.20540091 0.11169049 0.4136509 0.4701649 0.15529673
1.2100146 -0.95211494 0.99405545 -0.6156272 1.4347559 -1.080228 0.8190669 -0.79828864
1.2076432 -0.9504992 1.2595713 -1.5193666 1.0520276 -1.6422714 0.7717684 -0.5715211
0.3771644 -0.6379437 -0.96024376 0.5585235 -1.4493817 1.4060615 1.2913609 -1.7444164
1.5150504 -1.2223413 0.9743204 -1.0536823 -1.6927792 1.2695642 1.2594794 -0.848248
0.6585485 -1.0517297 -0.9349564 0.23761715 -1.2980715 1.3930818 0.79916734 -0.7546266
-1.6712903 1.0043012 0.6819789 -0.9699815 1.7700517 -1.5329524 1.3358023 -1.267852
-1.1898687 1.4056817 1.3126558 -1.1474192 0.21148911 -0.92657363 0.536367 -0.7356169
-0.083266385 -0.01686059 0.74849594 -0.33340836 1.0921439 -0.8061327 0.6214565 -0.3565817
0.2673829 -0.36717826 0.6181198 -0.48394135 0.5287547 -0.3875931 0.9649573 -0.81093746
0.07732368 -0.36203834 0.9242944 -1.1080681 0.09194813 0.22399431 -0.8263293 0.47894338
-0.74046177 0.71185637 0.65363544 -0.8118151 -0.3379888 0.40730822 1.2650703 -0.86149114
-0.6161056 0.3763598 -0.8526087 0.76902074 -0.03899889 0.3890711 0.81237996 -0.91373104
1.0681578 -0.61034405 -0.39202932 0.6711548 -0.12896901 0.36473596 0.8445561 -0.47371346
-0.46357 -0.03396081 0.6687849 -0.6229124 -0.4623642 0.37270296 -1.1216701 0.86275625
0.08093362 -0.26583976 -1.2635536 1.172043 0.22827117 -0.21524303 0.9192475 -0.2579405
0.004089618 -0.1836912 -0.23786786 -0.3880037 0.5487781 -0.40374997 0.69998807 -0.5015939
00000000: d76d f33e 79fb 34bf 11a0 6d3f da0b 63bf
00000010: bc4f 093f a920 ecbe 9d35 6e3f e65e 93be
00000020: 994a 383f c14c e4bd b562 a83f 47c8 14bf
00000030: 63df 1cbd dce1 1c3e 3dd6 79be e85e a33e
00000040: 76a4 aa3f 4986 22bf 0810 90be 9e23 a63e
00000050: e88b 52bf 7749 6f3f acb2 a43f 5051 8dbf
00000060: 591d 493f b833 40bf 9b62 943f 0ad8 d5be
00000070: 0120 3b3f e025 023f 10be 543e 1719 393f
00000080: cf87 3f3f 066f aebd 3d19 7dbe f255 123f
00000090: d7a2 173f 350f 5ebe ccc3 af3e 60a3 9c3d
000000a0: 074d f13e af28 93bb cd86 0b3f 7d3e f53d
000000b0: 78bf 1d3f fb46 62be 9aaa e53f b160 49bf
000000c0: be22 b7bc 23bf 1a3e 76da 2f3f 455c e0bd
000000d0: 080c ed3e 4ccd 19be 09b6 993d c300 fa3e
000000e0: 69a1 9d3d 3ec6 a13d 58a3 0d3e 9e54 523e
000000f0: fcbd e43d 0dca d33e 74b9 f03e 1b06 1f3e
00000100: c2e1 9a3f cebd 73bf 6b7a 7e3f bf99 1dbf
00000110: 15a6 b73f e944 8abf 5eae 513f a55c 4cbf
00000120: 0d94 9a3f ea53 73bf a239 a13f 9b7a c2bf
00000130: d7a8 863f f335 d2bf 9d92 453f 354f 12bf
00000140: b11b c13e 4750 23bf 89d2 75bf 65fb 0e3f
00000150: 5785 b9bf d3f9 b33f 504b a53f 0949 dfbf
00000160: 2ced c13f ae75 9cbf 106d 793f 10df 86bf
00000170: fdac d8bf 1481 a23f 9f36 a13f c826 59bf
00000180: a296 283f 149f 86bf 4d59 6fbf e951 733e
00000190: 3527 a6bf 8150 b23f 3b96 4c3f 352f 41bf
000001a0: d7ec d5bf f18c 803f 2b96 2e3f b550 78bf
000001b0: 0e91 e23f c937 c4bf 92fb aa3f f948 a2bf
000001c0: 9e4d 98bf 61ed b33f 1b05 a83f a2de 92bf
000001d0: 9a90 583e ee33 6dbf 594f 093f 6451 3cbf
000001e0: 9187 aabd 381f 8abc 6e9d 3f3f 80b4 aabe
000001f0: 5fcb 8b3f b65e 4ebf c617 1f3f e091 b6be
00000200: 69e6 883e cafe bbbe 193d 1e3f 29c7 f7be
00000210: 785c 073f 9a72 c6be 7107 773f 9999 4fbf
00000220: e15b 9e3d 175d b9be 8f9e 6c3f 2dd5 8dbf
00000230: 4d4f bc3d c45e 653e 518a 53bf 1138 f53e
00000240: e78e 3dbf 383c 363f a754 273f 1dd3 4fbf
00000250: de0c adbe b48a d03e d3ed a13f af8a 5cbf
00000260: 19b9 1dbf 3bb2 c03e 9044 5abf 8bde 443f
00000270: 4dbd 1fbd 5434 c73e 22f8 4f3f 47ea 69bf
00000280: 65b9 883f 823f 1cbf 11b8 c8be cdd0 2b3f
00000290: 7410 04be acbe ba3e d434 583f 928a f2be
000002a0: 0c59 edbe 7e1a 0bbd 7d35 2b3f 3077 1fbf
000002b0: 00bb ecbe ecd2 be3e e392 8fbf 98dd 5c3f
000002c0: 87c0 a53d 261c 88be 20bc a1bf 8105 963f
000002d0: ebbf 693e ab68 5cbe ce53 6b3f c710 84be
000002e0: 3402 863b 8c19 3cbe a293 73be 6ca8 c6be
000002f0: b97c 0c3f 51b8 cebe 6b32 333f 7568 00bf

rnn.weight_hh_l0 f4 [48, 16]
0.38592944 0.17768197 0.31821722 -0.2620584 0.06768643 0.43765214 -0.4073792 -0.216805
0.33804202 0.10284677 -0.3483482 -0.35155272 -0.061319567 0.09417379 -0.13496026 0.0650733
-0.15112014 0.08093367 -0.6046203 0.02126289 -0.013101194 0.20961943 0.13791268 0.11534633
-0.05539038 0.20788255 -0.40155867 -0.35229424 0.31664348 -0.100031845 -0.28481752 0.17834261
-0.4565446 -0.25669134 -0.25034785 0.33210918 -0.14705993 0.05264834 -0.057366323 -0.16319206
0.069529176 -1.0780066 -0.3001664 -0.17290796 0.52168703 -0.39518446 -0.40842748 -0.7217006
0.2053049 0.4909748 0.17039156 -0.40992713 -0.91265404 0.71378845 -0.25275233 0.3104923
0.7239115 -0.061618827 0.4312607 -0.28332007 0.8437472 0.3242328 -0.6631863 0.12302798
-0.31626582 -0.27849886 -0.48719963 0.51541865 -0.45203412 0.73393893 0.2674377 0.15775254
0.7712898 0.23985882 0.4392644 0.75818384 -0.13936315 -0.11573818 -0.1412799 -0.4770489
0.22478792 0.016327124 -0.0026231443 0.08251188 -0.06649049 0.094463035 0.256627 -0.04935365
0.08052662 0.21006182 -0.20472398 0.44014215 -0.20120664 0.14957042 -0.23351541 -0.12683634
0.079319164 0.41192397 0.0880776 -0.10333246 0.37249056 -0.09166125 -0.4902171 0.26049644
-0.25003675 -0.39068708 -0.097334415 -0.44229367 0.28516576 0.020018121 -0.012403017 0.14933455
0.25965804 0.1094348 0.04358792 -0.060919136 -1.2149745 0.46868864 0.12909214 -0.014175576
0.83771825 0.3857889 0.06461789 -0.15894027 -0.14350937 0.46841383 -0.34365168 0.010154473
0.13015257 -0.21824135 -0.42136127 -0.056851115 -0.23580208 0.21332502 0.7715045 0.36210528
0.5987093 0.18956804 0.3173674 0.298606 0.08732427 -0.022044102 -0.3950475 -0.5070021
-0.06329084 -0.21555209 0.06310777 0.17956412 -1.0249108 0.2099334 -0.0853372 -0.21797857
0.76717854 -0.45007125 -0.14025234 0.18069974 0.40977415 0.39786506 -0.31873596 -0.28161347
0.31355268 -0.15580234 -0.259562 -0.1378194 -0.9937685 0.51719606 0.44857952 0.30171606
0.6587457 0.009795184 0.020423941 0.0067187482 0.30453214 0.21545954 -0.64039934 -0.33669657
-0.26948252 -0.1633284 0.118545674 0.2966812 0.1577471 0.19150168 0.17640479 0.10509038
0.56070775 -0.4536268 -0.28736323 0.010731994 0.5592993 0.021287864 -0.39640614 -0.30355376
-0.012655309 -0.0814955 -0.031756856 -0.10363446 -0.6640427 -0.17022848 0.08173738 -0.06456502
0.39606026 -0.3113744 -0.30394036 -0.09703026 0.4901706 0.2442068 -0.03841981 0.18071553
0.089833885 0.27630398 0.10092214 -0.2668014 -0.7871701 0.23217924 -0.6211189 0.15785795
0.41748583 0.2859266 0.27062988 -0.12397268 0.6116042 0.1875768 -0.29401273 0.22693598
-0.033085633 0.19039753 -0.2412716 0.018273445 -0.50797665 0.5826105 -0.23650666 0.43519905
0.5781823 -0.30058494 0.07992485 0.20072937 0.41736874 0.4510427 -0.6042712 -0.031495985
-0.44170985 -0.43955544 -0.64464873 0.48479342 0.21490645 1.1525962 0.39470747 0.45540777
-0.013885219 0.723693 0.7029217 -0.012001565 0.088716894 -0.040329363 -0.57283247 0.1002118
00000000: 8b98 c53e 43f2 353e 5eed a23e 852c 86be
00000010: 2f9f 8a3d f113 e03e 0294 d0be 2102 5ebe
00000020: d813 ad3e 54a1 d23d b25a b2be b8fe b3be
00000030: 3a2a 7bbd 30de c03d 0633 0abe 2645 853d
00000040: 3dbf 1abe 8dc0 a53d 65c8 1abf 832f ae3c
00000050: 64a6 56bc 7aa6 563e fb38 0d3e b23a ec3d
00000060: 06e1 62bd 2adf 543e 1999 cdbe e95f b4be
00000070: 181f a23e 7fdd ccbd 9ad3 91be 729f 363e
00000080: 37c0 e9be 0c6d 83be 982d 80be 370a aa3e
00000090: e196 16be c9a5 573d f3f8 6abd d21b 27be
000000a0: 5065 8e3d 1ffc 89bf 69af 99be c90e 31be
000000b0: 488d 053f 9e55 cabe 681d d1be 5fc1 38bf
000000c0: 733b 523e 0d61 fb3e 207b 2e3e f8e1 d1be
000000d0: b2a3 69bf d7ba 363f c168 81be d9f8 9e3e
000000e0: 4452 393f 0664 7cbd 34ce dc3e 540f 91be
000000f0: d1ff 573f d701 a63e 94c6 29bf 18f6 fb3d
00000100: 98ed a1be 6797 8ebe 3b72 f9be 7af2 033f
00000110: 0471 e7be 6ce3 3b3f 98ed 883e e289 213e
00000120: 4073 453f 8d9d 753e 43e7 e03e 5618 423f
00000130: 37b5 0ebe 2408 edbd aeab 10be c13f f4be
00000140: ce2e 663e 76c0 853c 0fe9 2bbb fdfb a83d
00000150: 2b2c 88bd d675 c13d 9d64 833e 0e27 4abd
00000160: 24eb a43d 721a 573e 2aa3 51be 505a e13e
00000170: 1d09 4ebe fd28 193e aa1e 6fbe 63e1 01be
00000180: 1672 a23d b3e7 d23e 0762 b43d f89f d3bd
00000190: 15b7 be3e e5b8 bbbd bcfd fabe ca5f 853e
000001a0: d104 80be 2308 c8be 4457 c7bd 5174 e2be
000001b0: 3f01 923e 0bfd a33c 0636 4bbc 28eb 183e
000001c0: e6f1 843e 5a1f e03d 3f89 323d 5886 79bd
000001d0: 4984 9bbf f5f7 ef3e bb30 043e ad40 68bc
000001e0: b474 563f 1f86 c53e 6256 843d 3dc1 22be
000001f0: 1ff4 12be f0d3 ef3e 1df3 afbe f25e 263c
00000200: b746 053e a97a 5fbe aabc d7be b7dc 68bd
00000210: 1a76 71be e071 5a3e 5281 453f dd65 b93e
00000220: 0345 193f 201e 423e fb7d a23e e3e2 983e
00000230: 11d7 b23d d595 b4bc aa43 cabe e4ca 01bf
00000240: a19e 81bd b0b9 5cbe a63e 813d a8df 373e
00000250: 4730 83bf c8f8 563e 45c5 aebd c635 5fbe
00000260: d065 443f bd6f e6be 4f9e 0fbe 5a09 393e
00000270: ebcd d13e f8b4 cb3e 5c31 a3be a42f 90be
00000280: fa89 a03e a68a 1fbe 4fe5 84be 8720 0dbe
00000290: 9d67 7ebf f666 043f 37ac e53e 877a 9a3e
000002a0: 8fa3 283f fb7b 203c 1c50 a73c f228 dc3b
000002b0: a3eb 9b3e 6da1 5c3e 36f1 23bf 7e63 acbe
000002c0: 9df9 89be 8f3f 27be 13c8 f23d 99e6 973e
000002d0: 7588 213e 0419 443e 75a3 343e a039 d73d
000002e0: 8b8a 0f3f c641 e8be 4621 93be 3fd5 2f3c
000002f0: 3d2e 0f3f e363 ae3c bff5 cabe 666b 9bbe
00000300: 3758 4fbc 1de7 a6bd 7a13 02bd 4e3e d4bd
00000310: b4fe 29bf 6050 2ebe ed65 a73d aa3a 84bd
00000320: 69c8 ca3e 776c 9fbe 129e 9bbe cdb7 c6bd
00000330: a4f7 fa3e 5911 7a3e 175e 1dbd 7e0d 393e
00000340: d4fa b73d b777 8d3e 44b0 ce3d 319a 88be
00000350: fb83 49bf 65c0 6d3e a601 1fbf 84a5 213e
00000360: b4c0 d53e f964 923e 0090 8a3e 63e5 fdbd
00000370: 1892 1c3f 2214 403e d688 96be e861 683e
00000380: cd84 07bd 92f7 423e e70f 77be 31b2 953c
00000390: c20a 02bf f625 153f cd2e 72be 69d2 de3e
000003a0: c103 143f 45e6 99be a4af a33d 008c 4d3e
000003b0: 5bb1 d53e 12ef e63e 84b1 1abf ef01 01bd
000003c0: cb27 e2be 690d e1be b307 25bf d836 f83e
000003d0: 7010 5c3e 4688 933f 1917 ca3e 352b e93e
000003e0: d47e 63bc f243 393f adf2 333f 36a2 44bc
000003f0: 34b1 b53d 6730 25bd 26a5 12bf d83b cd3d

rnn.bias_ih_l0 f4 [48]
-0.058249127 0.21661481 0.15045038 -0.031907808 -0.14912236 0.12574106 0.06475073 -0.13312238
-0.15438776 -0.17148706 -0.12970424 -0.41598624 0.26463795 0.15412772 -0.057922952 -0.16374603
-0.26493433 -0.2673148 -0.13279241 -0.09872089 -0.5547969 -0.55113935 -0.24637392 -0.466005
-0.43536982 -0.16993564 -0.106399894 -0.1877132 -0.3754138 -0.15570956 0.14011364 -0.42687747
-0.29126686 0.2572878 0.2687427 0.06553282 -0.27469078 -0.6738551 0.05242138 0.36307812
0.32732517 0.080226064 0.39842197 0.20353144 0.026809078 0.2825125 -0.49764815 0.6614288
00000000: a396 6ebd 46d0 5d3e aa0f 1a3e c3b1 02bd
00000010: 88b3 18be 44c2 003e 089c 843d 3c51 08be
00000020: d317 1ebe 4e9a 2fbe 30d1 04be 26fc d4be
00000030: a07e 873e a8d3 1d3e 9e40 6dbd 0aad 27be
00000040: 79a5 87be 7cdd 88be bcfa 07be 2e2e cabd
00000050: 2b07 0ebf 7817 0dbf 7249 7cbe 3598 eebe
00000060: cbe8 debe 9c03 2ebe 30e8 d9bd e437 40be
00000070: 3d36 c0be 5472 1fbe f379 0f3e af8f dabe
00000080: ee20 95be 3abb 833e a598 893e 1236 863d
00000090: 45a4 8cbe c581 2cbf cdb7 563d 60e5 b93e
000000a0: 2a97 a73e 904d a43d f7fd cb3e 8c6a 503e
000000b0: b69e db3c 7aa5 903e bdcb febe 6653 293f

rnn.bias_hh_l0 f4 [48]
0.19502477 -0.048087645 -0.062375143 -0.11370761 0.052020192 0.083995394 0.29501277 -0.24136098
0.02005078 -0.3403874 -0.06308664 -0.045690347 -0.03781094 0.07918782 0.24675886 0.049576126
0.052054156 -0.40772694 -0.31350783 -0.17786403 -0.22951372 -0.71030635 -0.6180211 -0.29951903
-0.71399987 0.058045343 -0.19341435 -0.11382087 -0.62119734 -0.41077846 -0.22751822 -0.5074956
0.42955044 0.26054 0.36915854 0.007634168 -0.4189722 0.6791438 -0.53460056 0.2665979
0.1589483 0.2695249 -0.007774071 -0.6093237 -0.38166085 0.6217113 -0.4466987 0.46496657
00000000: 93b4 473e 8df7 44bd 147d 7fbd 89df e8bd
00000010: 2013 553d c705 ac3d ea0b 973e 5527 77be
00000020: 8941 a43c 4247 aebe 9133 81bd cd25 3bbd
00000030: a5df 1abd 392d a23d 5bae 7c3e 5610 4b3d
00000040: bd36 553d 96c1 d0be 1984 a0be fd21 36be
00000050: a505 6bbe a3d6 35bf a136 1ebf 8f5a 99be
00000060: b2c8 36bf f4c0 6d3d 690e 46be eb1a e9bd
00000070: ca06 1fbf 8e51 d2be 89fa 68be 3beb 01bf
00000080: 09ee db3e 8065 853e 5902 bd3e 0b28 fa3b
00000090: 8683 d6be 5edc 2d3f 95db 08bf 857f 883e
000000a0: 58c3 223e 2bff 893e a2bd febb a3fc 1bbf
000000b0: 0d69 c3be 7928 1f3f b1b5 e4be 1910 ee3e

exp_avg f4 [2, 16]
-5.6627287e-05 -4.2293716e-05 5.2406078e-05 -0.00010899941 0.0002703838 -0.00026420018 4.5888377e-05 -0.00014600993
-0.00045880047 0.0001816085 -0.000284157 -0.0003333778 0.00011815893 0.00018017332 -3.8643044e-05 8.7671426e-05
-7.376395e-06 -5.6594575e-07 1.4093152e-05 -6.0343996e-06 6.582652e-06 1.436523e-05 -1.8543142e-05 2.5978777e-06
-1.6152242e-05 5.783808e-06 -4.7381993e-05 1.6928187e-05 -1.080056e-06 -5.9372437e-06 -4.173715e-06 -1.4316332e-06
00000000: 1683 6db8 8864 31b8 99ce 5b38 9d96 e4b8
00000010: 4dc2 8d39 5984 8ab9 4578 4038 3e1a 19b9
00000020: 288b f0b9 296e 3e39 e8fa 94b9 36c9 aeb9
00000030: 18cc f738 e8ec 3c39 a714 22b8 3ddc b738
00000040: c082 f7b6 7feb 17b5 a071 6c37 197b cab6
00000050: 8de0 dc36 3102 7137 188d 9bb7 3357 2e36
00000060: ad7e 87b7 8812 c236 07bc 46b8 0101 8e37
00000070: 71f6 90b5 8938 c7b6 f00b 8cb6 8b26 c0b5

exp_avg_sq f4 [2, 16]
5.956978e-06 7.493994e-06 5.5399114e-06 7.668574e-06 6.6668163e-06 5.83412e-06 6.750487e-06 4.337417e-06
5.9650993e-06 7.072962e-06 7.445726e-06 6.119551e-06 7.5622183e-06 8.294864e-06 1.101559e-05 9.642059e-06
2.1651775e-08 1.9758106e-08 2.8356016e-08 1.5499376e-08 3.5719914e-08 4.1205492e-08 2.2873875e-08 5.4149954e-08
4.9086335e-08 1.8707905e-08 1.7152264e-08 4.1935284e-08 1.3113975e-08 2.920899e-08 1.3676426e-07 3.053806e-08
00000000: 0de2 c736 eb74 fb36 7ae3 b936 46a8 0037
00000010: 84b3 df36 b6c2 c336 3e82 e236 218a 9136
00000020: d027 c836 4854 ed36 4dd6 f936 8b56 cd36
00000030: f6be fd36 2b2a 0b37 99cf 3837 54c4 2137
00000040: c2fc b932 89b8 a932 8a93 f332 7d23 8532
00000050: 766a 1933 ebf9 3033 2f7c c432 8192 6833
00000060: ffd2 5233 1eb3 a032 3a56 9332 551c 3433
00000070: df4b 6132 40e7 fa32 79d9 1234 f428 0333

exp_avg f4 [2]
0.00021040537 7.775289e-05
00000000: 43a0 5c39 440f a338

exp_avg_sq f4 [2]
1.2320218e-05 3.9829789e-07
00000000: efb2 4e37 a5d5 d534

exp_avg f4 [48, 4]
-5.5609203e-06 -2.3282879e-05 -5.6470924e-07 -2.827912e-05 -1.8488052e-05 -5.941478e-06 2.391109e-06 -2.682065e-05
9.207819e-05 -3.523171e-05 -2.5442352e-05 8.228883e-05 -1.344755e-05 -5.257186e-06 -1.2660344e-06 -1.7438711e-05
-2.4668452e-05 4.262401e-05 3.506108e-05 -1.7105545e-05 -3.4627383e-06 -0.00013450214 -7.5311614e-06 -0.0001304337
-2.9793573e-05 7.794642e-06 9.016652e-06 -3.1015534e-05 -1.7116994e-05 -2.3699784e-05 -2.1810562e-05 -1.900621e-05
-2.5596017e-05 -0.00010065649 -8.092768e-05 -4.5324796e-05 -5.4409775e-05 5.2664805e-06 1.7640162e-06 -5.090732e-05
-2.7301483e-05 -7.7291725e-06 -3.165243e-05 -3.3782194e-06 -2.7345946e-05 1.4179549e-05 -2.8610792e-05 1.5444379e-05
-4.270827e-06 6.265585e-06 -3.1042352e-06 5.099e-06 -1.9152667e-05 1.6476095e-05 2.3179906e-05 -2.5856472e-05
-1.9227143e-06 -2.6231967e-06 -3.3905133e-06 -1.1553981e-06 4.405517e-05 -2.2704537e-05 -1.6325726e-05 3.7676353e-05
-3.7047488e-05 1.5318645e-05 -2.7862076e-05 6.1332357e-06 1.8251261e-05 -2.1586495e-05 -3.7255886e-06 3.9035132e-07
4.7215148e-05 -2.4281346e-05 -6.122354e-05 8.415734e-05 4.001615e-05 5.5185406e-05 8.710464e-05 8.096916e-06
-3.8232563e-05 1.4514465e-05 3.8343223e-05 -6.206133e-05 3.504863e-05 4.302183e-06 6.544969e-05 -2.6098873e-05
-4.4240984e-05 -5.156436e-05 -0.0001129624 1.7157088e-05 6.2132516e-05 7.324058e-06 6.5661014e-05 3.7955517e-06
-7.264017e-05 2.6626705e-05 -6.6256525e-06 -3.9387833e-05 -1.2651357e-05 -3.75532e-05 -8.839954e-05 3.8194958e-05
6.0958402e-05 -3.3890854e-05 -1.6625842e-06 2.8730145e-05 -5.9033162e-05 -4.731245e-06 -4.3705404e-05 -2.0059004e-05
5.957044e-05 -0.00010058572 3.1180036e-05 -7.2195355e-05 2.7759519e-05 9.6319795e-08 2.533209e-05 2.5237407e-06
-8.953451e-06 -6.3991633e-06 -4.0334646e-05 2.4982035e-05 1.6433085e-05 2.5159274e-05 6.50056e-06 3.5091787e-05
-2.697745e-05 4.7197464e-05 -1.9767273e-05 3.9987266e-05 -8.607566e-05 0.00011355042 1.5727383e-05 1.1747358e-05
0.00023883121 3.06171e-05 -5.283483e-05 0.00032228322 7.4335854e-05 6.398363e-05 8.843351e-05 4.9885995e-05
5.3993448e-05 -0.00019405012 -0.00022797765 8.792105e-05 5.8260644e-05 -0.0002620844 3.096806e-05 -0.00023479198
2.9470542e-05 -0.00017110193 -3.5164387e-05 -0.00010646713 6.979767e-05 -0.00027575894 1.8549828e-05 -0.00022451117
-0.00015976821 7.9921134e-05 2.2035603e-05 -0.00010188262 -0.00015591094 4.8583835e-05 4.2276366e-05 -0.0001496034
0.00018648492 4.4573888e-05 7.5792435e-05 0.00015526636 -1.01748055e-05 -9.834561e-05 1.90846e-05 -0.000127605
2.33383e-05 1.9097677e-05 8.036647e-05 -3.7930495e-05 1.46578095e-05 -9.807896e-05 -0.00017814946 9.472834e-05
1.5052648e-05 3.5591274e-05 4.4235334e-05 6.4085752e-06 6.7332905e-05 0.000100858386 6.0533468e-05 0.00010765769
00000000: f197 bab6 9a4f c3b7 8696 17b5 f338 edb7
00000010: ca16 9bb7 e85c c7b6 f176 2036 e8fc e0b7
00000020: 1a1a c138 c3c5 13b8 096d d5b7 7b92 ac38
00000030: ca9c 61b7 e266 b0b6 9cec a9b5 5949 92b7
00000040: 19ef ceb7 2fc7 3238 8c0e 1338 e17d 8fb7
00000050: 6461 68b6 2509 0db9 2fb4 fcb6 08c5 08b9
00000060: 36ed f9b7 bcc5 0237 3a46 1737 ad16 02b8
00000070: 7796 8fb7 e6ce c6b7 d3f5 b6b7 866f 9fb7
00000080: 07b7 d6b7 8b17 d3b8 b8b7 a9b8 211b 3eb8
00000090: 0d36 64b8 b9b6 b036 23c3 ec35 5285 55b8
000000a0: 7d05 e5b7 8bac 01b7 8ac2 04b8 5eb5 62b6
000000b0: f964 e5b7 b3e4 6d37 3501 f0b7 8d8e 8137
000000c0: 204e 8fb6 f73c d236 5b52 50b6 1418 ab36
000000d0: 0aaa a0b7 2536 8a37 7872 c237 5ae6 d8b7
000000e0: fb07 01b6 2d0a 30b6 9388 63b6 2d13 9bb5
000000f0: e1c7 3838 9f75 beb7 3bf3 88b7 ad06 1e38
00000100: 7063 1bb8 8a80 8037 5ab9 e9b7 18cc cd36
00000110: 491a 9937 a514 b5b7 2005 7ab6 7a91 d134
00000120: e108 4638 cbaf cbb7 2365 80b8 a17d b038
00000130: 04d7 2738 e176 6738 f3ab b638 fdd7 0737
00000140: e75b 20b8 2783 7337 b9d2 2038 ec26 82b8
00000150: 2e01 1338 785b 9036 0942 8938 e7ee dab7
00000160: 658f 39b8 cf46 58b8 3ae6 ecb8 91ec 8f37
00000170: 244d 8238 2ec1 f536 7db3 8938 15b7 7e36
00000180: 6556 98b8 6a5c df37 ec51 deb6 5d34 25b8
00000190: 2a41 54b7 7182 1db8 2463 b9b8 8633 2038
000001a0: 96ad 7f38 0726 0eb8 f525 dfb5 8401 f137
000001b0: 609a 77b8 16c1 9eb6 5250 37b8 6244 a8b7
000001c0: 46db 7938 8cf1 d2b8 4fc7 0238 9667 97b8
000001d0: 1ddd e837 5ed8 ce33 4080 d437 895d 2936
000001e0: c736 16b7 65b8 d6b6 ff2c 29b8 8390 d137
000001f0: c8d9 8937 210d d337 631f da36 852f 1338
00000200: a24d e2b7 e4f5 4538 e5d1 a5b7 00b8 2738
00000210: 8583 b4b8 eb21 ee38 4cee 8337 8516 4537
00000220: c46e 7a39 dc6a 0038 f79a 5db8 1ff8 a839
00000230: c2e4 9b38 f32e 8638 6175 b938 ae3c 5138
00000240: 0677 6238 ef79 4bb9 490d 6fb9 4162 b838
00000250: e45c 7438 5f68 89b9 b4e3 0138 7e32 76b9
00000260: 8237 f737 d369 33b9 797d 13b8 1b47 dfb8
00000270: 5760 9238 bd93 90b9 749b 9b37 c26a 6bb9
00000280: 7487 27b9 559b a738 19d9 b837 d1a9 d5b8
00000290: 067c 23b9 7fc6 4b38 e751 3138 dbde 1cb9
000002a0: 2a8b 4339 d9f4 3a38 c1f2 9e38 ffce 2239
000002b0: 75b4 2ab7 e63e ceb8 de17 a037 b5cd 05b9
000002c0: 9ec6 c337 f333 a037 6c8a a838 8f17 1fb8
000002d0: d0ea 7537 beaf cdb8 a2cd 3ab9 e4a8 c638
000002e0: a28a 7c37 d747 1538 5489 3938 3e09 d736
000002f0: 1435 8d38 ef83 d338 51e5 7d38 48c6 e138

exp_avg_sq f4 [48, 4]
2.4273474e-08 1.4041095e-07 1.997043e-08 1.222862e-07 7.275742e-08 1.6834422e-07 9.601015e-09 2.3827167e-07
3.9164888e-07 1.5218308e-07 1.2440427e-08 5.1286065e-07 5.67819e-09 2.3901125e-08 2.0451994e-08 4.1357073e-09
4.0723197e-08 5.144242e-07 4.976138e-07 1.8995758e-08 1.7152226e-07 4.7990397e-06 4.7141604e-08 5.160981e-06
7.305104e-08 1.3247386e-06 1.18464e-07 9.246872e-07 4.45866e-08 9.572184e-09 4.088262e-08 1.029224e-08
1.5353026e-08 3.2101562e-07 2.3846314e-07 2.7546273e-08 8.163184e-08 2.9990503e-08 3.9689914e-09 1.1600359e-07
5.7613263e-08 3.9368604e-08 4.185477e-08 6.6923405e-08 1.830499e-07 8.945826e-08 1.3798958e-08 2.6556154e-07
2.988784e-08 2.5513167e-08 2.6515625e-09 5.011513e-08 2.2351025e-09 2.700222e-08 1.3022301e-08 8.861211e-09
2.6505624e-09 1.8618359e-09 4.482444e-10 7.807126e-10 2.879639e-08 5.349385e-08 1.6024991e-08 6.9870744e-08
3.4512173e-08 1.495141e-07 1.8757218e-07 2.4252808e-08 4.905032e-08 1.9672568e-07 3.328938e-07 3.7682415e-08
1.5295662e-07 5.3503373e-07 6.2412045e-07 1.3177684e-07 3.2870773e-08 4.038042e-08 6.5925136e-08 9.182313e-09
1.5425055e-08 2.3389557e-08 3.898514e-08 3.7320046e-08 1.8018651e-06 4.4362733e-07 2.331451e-06 1.1931674e-07
1.7441812e-07 1.0629975e-06 1.6255564e-06 8.0227515e-08 1.3292858e-07 1.1330048e-07 2.1413724e-07 1.4797723e-07
3.0377e-08 4.4882764e-08 6.93254e-08 4.635695e-08 2.9886877e-07 1.401521e-07 3.6610658e-07 1.6248548e-07
5.568667e-08 8.63743e-08 7.2541496e-08 5.708648e-08 1.03476225e-07 1.3543818e-06 1.5405353e-06 6.232215e-08
1.0862682e-06 2.629867e-07 1.5435329e-06 2.8829854e-07 6.8149144e-09 5.0421294e-09 1.1990512e-08 6.5387047e-09
1.0501824e-08 3.025976e-08 1.5893692e-08 2.2316351e-08 8.9004615e-08 6.472313e-08 1.16592005e-07 8.176663e-08
7.527028e-07 2.3970238e-06 6.4234877e-07 9.318838e-07 9.57272e-07 8.060509e-06 1.3420464e-06 4.555748e-06
1.9880777e-06 5.675571e-06 1.2437779e-06 3.86866e-06 5.09482e-07 2.2388986e-06 1.0109093e-06 4.9301786e-07
1.7759721e-06 5.0643853e-06 5.104196e-06 4.870188e-07 1.1595679e-06 2.7646482e-05 3.5112214e-07 2.9114224e-05
3.4358363e-06 1.079275e-05 6.4981833e-07 9.889908e-06 7.714497e-06 8.445248e-06 5.160669e-06 9.732501e-06
1.1464806e-06 1.7879245e-05 1.029656e-05 2.4728308e-06 5.9333174e-06 4.501746e-06 7.3429413e-07 7.704039e-06
7.494965e-06 3.2498106e-06 2.8959812e-06 5.1177126e-06 1.064047e-06 5.159388e-06 1.3248494e-06 2.6902205e-06
4.7946805e-06 3.2117355e-06 7.778479e-07 4.744806e-06 3.1701603e-07 7.368436e-06 7.942122e-07 4.7132276e-06
3.9030937e-07 2.3562815e-07 2.5548633e-08 3.7695564e-08 1.3219127e-06 1.7436909e-05 2.8719367e-06 8.776204e-06
00000000: ef81 d032 dec3 1634 718b ab32 c64d 0334
00000010: d13e 9c33 1bc2 3434 b6f1 2432 9ed7 7f34
00000020: d043 d234 c467 2334 94b9 5532 84ab 0935
00000030: e319 c331 214f cd32 69ae af32 111a 8e31
00000040: a1e7 2e33 f616 0a35 c393 0535 1d2c a332
00000050: ae2b 3834 7007 a136 be78 4a33 7d2c ad36
00000060: 3ce0 9c33 accd b135 4666 fe33 0538 7835
00000070: 7c7f 3f33 e972 2432 eb96 2f33 c0d1 3032
00000080: a9e1 8332 0d58 ac34 2006 8034 e59e ec32
00000090: 944d af33 e8ce 0033 9e5f 8831 a61d f933
000000a0: 7472 7733 3d16 2933 cec3 3333 88b7 8f33
000000b0: 608c 4434 331c c033 7610 6d32 8092 8e34
000000c0: 075e 0033 0c28 db32 c836 3631 2b3e 5733
000000d0: 5798 1931 82f2 e732 afb8 5f32 053c 1832
000000e0: 3025 3631 87e3 ff30 cb6c f62f c499 5630
000000f0: ee5b f732 1cc1 6533 54a7 8932 d90b 9633
00000100: 893a 1433 1f8a 2034 7367 4934 7d54 d032
00000110: 66ab 5233 8b3b 5334 93b8 b234 41d8 2133
00000120: 653c 2434 3d9f 0f35 3b89 2735 8b7e 0d34
00000130: cc2d 0d33 be6e 2d33 ba92 8d33 3dc0 1d32
00000140: 0e80 8432 2eea c832 9d70 2733 d349 2033
00000150: 9dd7 f135 ad2b ee34 0676 1c36 891d 0034
00000160: b047 3b34 51ac 8e35 b12d da35 8b49 ac33
00000170: 21bb 0e34 994f f333 99ed 6534 ace3 1e34
00000180: dd77 0233 1fc5 4033 0be0 9433 011a 4733
00000190: 3674 a034 b77c 1634 4e8d c434 ab77 2e34
000001a0: 242c 6f33 c67c b933 1cc8 9b33 402f 7533
000001b0: a836 de33 34c8 b535 64c4 ce35 f7d5 8533
000001c0: e4cb 9135 9e30 8d34 632b cf35 73c7 9a34
000001d0: 9f28 ea31 0a3f ad31 d4fe 4d32 0eab e031
000001e0: 836b 3432 f5f6 0133 9986 8832 2db2 bf32
000001f0: ce22 bf33 ebfd 8a33 2261 fa33 ae97 af33
00000200: 580d 4a35 8edc 2036 df6d 2c35 9126 7a35
00000210: 9e7b 8035 9f3b 0737 5d20 b435 94dd 9836
00000220: ea6a 0536 c970 be36 e2ef a635 89cf 8136
00000230: 56c3 0835 fc3f 1636 94ae 8735 ee57 0435
00000240: f05d ee35 bdee a936 b644 ab36 adbb 0235
00000250: 73a2 9b35 5eea e737 dc81 bc34 523a f437
00000260: 3893 6636 8212 3537 2d6f 2e35 d5ec 2537
00000270: 836d 0137 10b0 0d37 cf29 ad36 c648 2337
00000280: c6e0 9935 63fb 9537 63bf 2c37 e9f2 2536
00000290: cf16 c736 b40d 9736 4f1c 4535 9840 0137
000002a0: 427d fb36 5217 5a36 9458 4236 d1b8 ab36
000002b0: 60d0 8e35 ce1e ad36 7bd1 b135 a389 3436
000002c0: fee1 a036 3289 5736 4dcd 5035 9335 9f36
000002d0: 5a32 aa34 623e f736 d931 5535 5126 9e36
000002e0: b68b d134 f900 7d34 0a76 db32 b6e6 2133
000002f0: 936c b135 7a45 9237 7fbb 4036 823d 1337

exp_avg f4 [48, 16]
-6.067475e-05 -4.4628312e-05 -7.314823e-05 1.1167816e-05 8.142723e-05 -1.0748137e-05 4.8702757e-05 -2.0897379e-07
-8.318391e-05 -2.7958764e-05 2.3618099e-05 2.6560012e-05 3.9693e-05 -5.0377905e-05 2.2532415e-05 -5.1085386e-05
-3.8501632e-05 -1.4758782e-05 4.639968e-05 1.1104766e-05 -1.5117134e-05 -1.0445527e-06 5.2533836e-05 -4.489757e-06
-2.1974975e-05 -5.361889e-05 4.7225356e-05 6.708226e-06 1.7005174e-05 -9.780586e-05 5.462907e-06 -7.243709e-05
1.7841809e-05 8.817889e-05 -6.962907e-05 -0.00014628655 2.4897876e-05 -7.44115e-05 1.5132851e-05 -4.789863e-05
-6.421623e-05 8.7133354e-05 6.31669e-05 -3.153242e-05 8.524937e-06 2.9622382e-05 -5.3648186e-05 8.691212e-05
-2.430125e-05 -2.740689e-05 2.883572e-06 1.757641e-05 2.2051134e-05 7.642718e-06 -1.4392028e-06 -1.2854818e-05
-1.6578018e-05 7.449428e-06 -1.575775e-05 -1.5968255e-05 -2.8482846e-05 -1.0438496e-05 1.7851798e-05 -1.4805485e-05
4.261362e-05 -5.489925e-05 -5.3840333e-05 -0.00015401107 3.216793e-05 -7.973715e-05 -7.151321e-05 -2.7336217e-05
-7.383693e-05 1.2653319e-05 -4.874337e-05 1.1157808e-05 -3.3003973e-05 5.0972245e-05 7.633285e-05 9.397137e-05
-0.0001858093 -4.7054993e-05 0.00014206521 0.0001700033 0.00015079763 -0.000224373 -0.000107013875 5.3530108e-05
6.0401762e-06 4.789496e-05 -3.0086103e-05 -0.00013131049 5.3278636e-05 -0.00019362883 0.00024771722 5.8043675e-05
2.4213794e-05 -7.5000344e-06 -2.1843076e-05 -1.1348731e-05 -8.627365e-05 -2.3859644e-05 0.00011441966 -6.479786e-05
2.0788528e-05 9.439858e-05 8.577899e-07 2.4257668e-05 3.0976826e-05 1.7912304e-05 -6.9677226e-06 -3.6781774e-05
2.4173956e-05 2.1742448e-05 5.253695e-05 3.3933353e-05 4.6697893e-05 2.8136083e-05 2.9792189e-05 -3.7738293e-05
-2.3350378e-05 -3.198939e-05 -4.2504824e-05 -5.575115e-05 -3.284707e-05 -1.744449e-05 2.8951292e-05 3.4200853e-05
-1.2667531e-05 -7.054997e-05 -7.6397126e-05 3.4223034e-05 0.00011161177 -3.8483675e-05 -9.2820745e-05 -3.0942156e-05
-9.202679e-05 -5.81742e-06 -5.5148466e-05 4.8942467e-05 1.5325872e-05 -0.00013498658 0.0001265912 -9.701079e-05
1.8018141e-05 -2.4121906e-05 -1.8586714e-05 -3.9113743e-07 0.000132275 -6.715781e-05 -6.2023364e-06 -2.237875e-05
-2.62871e-05 4.3327305e-05 -9.453215e-05 -3.4727378e-05 -6.2248764e-06 -3.5295743e-05 0.00012051118 -5.014405e-05
-2.122331e-06 -2.3714485e-05 9.574986e-06 1.9015994e-05 6.32379e-05 -3.0940562e-05 3.7286222e-06 -2.0344885e-05
-5.852237e-05 -3.9884908e-05 -3.7074024e-05 -3.9216877e-05 -1.4877289e-05 -2.8960223e-05 3.4319408e-05 3.7089994e-05
-1.4373236e-05 -1.6207291e-06 -0.00010116193 -0.000118425785 8.8556706e-05 2.551121e-05 -1.4653804e-05 -2.5764606e-05
-9.281476e-05 8.252281e-05 -1.951603e-05 1.222869e-05 2.1153179e-05 1.0591239e-05 -6.8521455e-05 5.478512e-05
-1.8537432e-05 -2.045473e-05 4.8232055e-06 4.7981357e-05 -4.7461945e-05 -6.532843e-06 8.158336e-06 2.0272444e-05
3.0367442e-05 5.437383e-05 4.4402663e-05 -6.3199727e-06 -1.678141e-05 -2.0844393e-05 8.8996385e-05 -3.7667578e-05
-6.7134197e-06 -1.5252438e-05 -2.2376269e-05 -1.6012491e-06 2.6310803e-05 -2.6951957e-07 2.457953e-05 1.0648973e-06
-2.147047e-06 -5.413094e-05 -1.4388513e-05 1.270428e-05 1.1169934e-05 -2.6554233e-05 3.115528e-07 -2.3121473e-05
1.1818193e-05 4.989118e-06 1.0096911e-05 1.7968478e-06 -1.4905089e-05 -8.248852e-06 -8.01221e-06 9.757303e-06
-6.3134435e-06 1.3625543e-05 -3.5315531e-06 -2.1534226e-05 -1.48334375e-05 1.1573852e-05 2.0820988e-05 3.635576e-06
-1.02139575e-05 -2.1051257e-05 2.6313019e-05 -5.118527e-05 -1.4739393e-05 -6.992229e-05 -1.3849588e-06 -6.594215e-05
3.834814e-05 -7.203477e-05 -0.00014090777 -7.70684e-05 3.320135e-05 -5.405997e-05 -1.38880505e-05 -8.782165e-05
00000000: 047d 7eb8 492f 3bb8 2867 99b8 685d 3b37
00000010: e9c3 aa38 e652 34b7 3046 4c38 4762 60b4
00000020: 0673 aeb8 fd88 eab7 7b1f c637 31cd de37
00000030: 097c 2638 dd4c 53b8 fe03 bd37 8444 56b8
00000040: d07c 21b8 7c9c 77b7 479d 4238 9b4e 3a37
00000050: 999f 7db7 8f32 8cb5 c757 5c38 b8a6 96b6
00000060: e656 b8b7 d8e4 60b8 d713 4638 3917 e136
00000070: 55a6 8e37 1f1d cdb8 044e b736 5ee9 97b8
00000080: feaa 9537 aeec b838 d305 92b8 7f64 19b9
00000090: c8db d037 5f0d 9cb8 1ae3 7d37 c3e6 48b8
000000a0: d3ab 86b8 5dbb b638 7978 8438 ae41 04b8
000000b0: 5306 0f37 957d f837 4d04 61b8 9744 b638
000000c0: 89da cbb7 d9e7 e5b7 6483 4136 0e71 9337
000000d0: 73fa b837 3939 0037 a22a c1b5 06ab 57b7
000000e0: 0611 8bb7 19f6 f936 832f 84b7 91f3 85b7
000000f0: 72ee eeb7 0021 2fb7 72c0 9537 1365 78b7
00000100: 07bc 3238 9f43 66b8 9ed2 61b8 087e 21b9
00000110: 0dec 0638 8e38 a7b8 5df9 95b8 1450 e5b7
00000120: e6d8 9ab8 9749 5437 cc71 4cb8 6c32 3b37
00000130: bf6d 0ab8 08cb 5538 e314 a038 7f12 c538
00000140: ced5 42b9 ea5c 45b8 57f7 1439 ea42 3239
00000150: 6e1f 1e39 ab45 6bb9 a36c e0b8 8485 6038
00000160: b8ac ca36 d2e2 4838 6a61 fcb7 64b0 09b9
00000170: 8077 5f38 d808 4bb9 0be0 8139 ec73 7338
00000180: ba1e cb37 cea8 fbb6 a63b b7b7 6e66 3eb7
00000190: d0ed b4b8 3226 c8b7 96f4 ef38 16e4 87b8
000001a0: 0663 ae37 daf7 c538 e042 6635 f27c cb37
000001b0: 1ded 0138 6142 9637 48cc e9b6 2146 1ab8
000001c0: 2dc9 ca37 8d63 b637 1f5b 5c38 a953 0e38
000001d0: 7bdd 4338 c705 ec37 3dea f937 2f49 1eb8
000001e0: 8ee0 c3b7 592c 06b8 3547 32b8 57d6 69b8
000001f0: 46c5 09b8 c255 92b7 6ddc f237 e372 0f38
00000200: a286 54b7 3af4 93b8 6537 a0b8 b48a 0f38
00000210: 1d11 ea38 8869 21b8 c2a8 c2b8 e3c7 01b8
00000220: 82fe c0b8 4233 c3b6 374f 67b8 9347 4d38
00000230: 0f90 8037 2f8b 0db9 91bd 0439 4572 cbb8
00000240: aa25 9737 6659 cab7 aaea 9bb7 85fd d1b4
00000250: 4db3 0a39 13d7 8cb8 aa1d d0b6 00ba bbb7
00000260: 1e83 dcb7 57ba 3538 903f c6b8 3da8 11b8
00000270: 48df d0b6 840a 14b8 f2ba fc38 c451 52b8
00000280: 5e6d 0eb6 78ee c6b7 40a4 2037 8984 9f37
00000290: 979e 8438 2dc6 01b8 3e39 7a36 4faa aab7
000002a0: eb75 75b8 184a 27b8 ee7f 1bb8 cd7c 24b8
000002b0: 7899 79b7 9bef f2b7 2ff2 0f38 1491 1b38
000002c0: 9424 71b7 d487 d9b5 e626 d4b8 5c5b f8b8
000002d0: 85b7 b938 e800 d637 9cd9 75b7 1221 d8b7
000002e0: 8ba5 c2b8 1910 ad38 5bb6 a3b7 d329 4d37
000002f0: 1b72 b137 06b1 3137 2db3 8fb8 13c9 6538
00000300: d580 9bb7 3396 abb7 05d7 a136 973f 4938
00000310: e011 47b8 b234 dbb6 c9df 0837 be0e aa37
00000320: 96bd fe37 750f 6438 ff3c 3a38 2710 d4b6
00000330: cec5 8cb7 feda aeb7 92a3 ba38 41fd 1db8
00000340: d643 e1b6 b9e4 7fb7 acb4 bbb7 80ea d6b5
00000350: 05b6 dc37 7db2 90b4 2430 ce37 98ed 8e35
00000360: fd15 10b6 a70a 63b8 3166 71b7 7824 5537
00000370: 8066 3b37 c8c0 deb7 7e43 a734 fcf4 c1b7
00000380: c146 4637 3368 a736 e765 2937 382b f135
00000390: df10 7ab7 8d64 0ab7 2e6c 06b7 4cb3 2337
000003a0: 11d8 d3b6 4399 6437 9fff 6cb6 66a4 b4b7
000003b0: 21dd 78b7 512d 4237 bba8 ae37 b8fa 7336
000003c0: 9d5c 2bb7 3b97 b0b7 c7ba dc37 c4af 56b8
000003d0: 3649 77b7 3ea3 92b8 d2e2 b9b5 6c4a 8ab8
000003e0: 00d8 2038 5f11 97b8 a4c0 13b9 c89f a1b8
000003f0: ae41 0b38 73be 62b8 b900 69b7 e42c b8b8

exp_avg_sq f4 [48, 16]
7.2899006e-08 6.0153056e-08 4.396463e-08 7.783044e-08 1.0985893e-07 6.083891e-08 4.4986393e-08 4.569938e-08
1.14209904e-07 6.32098e-08 8.164192e-08 4.8260468e-08 3.5148478e-08 1.1199938e-07 1.479247e-07 1.04785954e-07
1.1771906e-07 9.24701e-08 7.665152e-08 1.3293044e-07 1.620305e-07 8.720585e-08 6.4599504e-08 6.935865e-08
1.674391e-07 9.644956e-08 1.2265723e-07 8.773133e-08 4.826886e-08 1.8850342e-07 2.3858325e-07 2.0302213e-07
3.3059277e-07 2.4016038e-07 1.401374e-07 4.1636426e-07 2.637816e-07 1.868906e-07 1.9104719e-07 1.5340835e-07
3.3734395e-07 1.3381005e-07 2.4109798e-07 1.8571943e-07 1.6652052e-07 4.335975e-07 4.7659108e-07 3.3571538e-07
1.5197752e-08 1.3279826e-08 1.4012637e-08 2.0558412e-08 1.8361032e-08 5.9728493e-09 1.3155325e-08 5.3517235e-09
1.7912328e-08 7.741455e-09 1.6543755e-08 2.0435355e-08 1.4177612e-08 7.670775e-09 2.7160967e-08 1.4310371e-08
1.7608058e-07 1.5947907e-07 1.375502e-07 2.2154933e-07 3.469383e-07 2.5107448e-07 1.2491996e-07 1.657243e-07
2.468706e-07 1.9689935e-07 3.1356345e-07 1.2506169e-07 1.245825e-07 3.9614122e-07 5.57395e-07 3.8291012e-07
1.7584556e-06 1.0792203e-06 1.4055194e-06 3.2826028e-06 3.544833e-06 8.2650087e-07 8.4962016e-07 6.902124e-07
2.9950718e-06 1.0635171e-06 2.9654773e-06 2.859114e-06 1.6710989e-06 1.5180964e-06 4.8238203e-06 2.2052145e-06
4.949107e-07 2.7195296e-07 2.7636327e-07 9.109463e-07 1.0716453e-06 2.887883e-07 1.8827787e-07 2.4090878e-07
9.0517005e-07 3.5508748e-07 9.04454e-07 7.1483186e-07 4.6048393e-07 4.772397e-07 1.4706147e-06 7.2723395e-07
3.1913633e-08 3.5930828e-08 2.9832925e-08 3.8067757e-08 3.2948105e-08 3.6859934e-08 3.253497e-08 2.5364187e-08
2.7990763e-08 2.9679592e-08 2.9214448e-08 2.9535123e-08 3.6364824e-08 5.137823e-08 6.318978e-08 5.020616e-08
1.0501348e-07 6.503405e-08 6.98658e-08 1.5403438e-07 2.2627704e-07 9.20763e-08 5.7293736e-08 6.7217385e-08
2.0747275e-07 8.74925e-08 1.6261163e-07 1.2787858e-07 6.8621645e-08 1.877693e-07 3.40572e-07 1.7783688e-07
6.498765e-08 5.794978e-08 5.1372936e-08 7.1659514e-08 7.985934e-08 5.4458788e-08 5.2505104e-08 4.124056e-08
5.7626007e-08 3.3177784e-08 5.3782635e-08 5.5819985e-08 4.578481e-08 8.662129e-08 1.0599338e-07 8.332608e-08
3.4024655e-08 3.887659e-08 2.994872e-08 4.3276938e-08 7.1138395e-08 5.3354857e-08 3.138201e-08 3.3087513e-08
5.4716747e-08 2.8602589e-08 4.022598e-08 3.6500758e-08 4.6855074e-08 6.8212e-08 1.0274343e-07 6.142233e-08
1.8625508e-07 1.4346989e-07 9.8585495e-08 1.9915852e-07 1.967974e-07 1.3440766e-07 1.1347519e-07 1.4131568e-07
2.1744314e-07 1.1474676e-07 1.5695352e-07 8.317693e-08 1.2048484e-07 2.599508e-07 2.6417882e-07 2.1482954e-07
4.2865118e-08 3.9935383e-08 4.104669e-08 4.475844e-08 3.3497564e-08 3.2997967e-08 3.7850214e-08 2.9698292e-08
3.3904193e-08 2.8553933e-08 3.46457e-08 3.932283e-08 2.6036455e-08 5.0717485e-08 6.131026e-08 4.9083464e-08
1.9332788e-08 2.4021098e-08 2.3760697e-08 2.6036666e-08 2.3860816e-08 4.194514e-09 2.227657e-08 2.6191382e-09
2.2304112e-08 8.56136e-09 1.7803213e-08 2.5432008e-08 1.9697136e-08 1.4157001e-08 2.8276668e-08 2.6029811e-08
1.7506384e-09 2.1189843e-09 1.3502579e-09 1.6685148e-09 1.8926225e-09 1.2341898e-09 1.69395e-09 1.2980205e-09
2.412721e-09 2.2409274e-09 1.8581661e-09 1.8755895e-09 1.3069466e-09 1.7004105e-09 2.1603253e-09 2.203537e-09
4.478712e-08 4.133495e-08 3.686669e-08 6.274086e-08 6.2180675e-08 3.3204845e-08 2.8287694e-08 2.5041071e-08
7.103883e-08 2.9367708e-08 3.743784e-08 4.7358316e-08 4.8044047e-08 5.315101e-08 9.367826e-08 6.6881725e-08
00000000: a78c 9c33 7e2d 8133 9fd3 3c33 bd23 a733
00000010: 96eb eb33 8ba6 8233 1037 4133 0047 4433
00000020: 8f43 f533 f4bd 8733 1f53 af33 f246 4f33
00000030: 29f6 1633 4f84 f033 3bd5 1e34 b006 e133
00000040: bdcc fc33 fa93 c633 9e9b a433 a4bb 0e34
00000050: 9bfa 2d34 ec45 bb33 f4b9 8a33 52f2 9433
00000060: 4fc9 3334 b51f cf33 c3b3 0334 cf66 bc33
00000070: 2c50 4f33 6d67 4a34 a216 8034 4cfe 5934
00000080: 537c b134 64ef 8034 ad78 1634 ab88 df34
00000090: de9d 8d34 19ac 4834 a722 4d34 91b8 2434
000000a0: 331c b534 6dad 0f34 4170 8134 2b6a 4734
000000b0: d0cc 3234 30c9 e834 2ede ff34 5f3c b434
000000c0: 368c 8232 4b25 6432 3bbc 7032 6d98 b032
000000d0: 56b8 9d32 bd39 cd31 bb01 6232 42e2 b731
000000e0: a0dd 9932 47ff 0432 1a1c 8e32 d289 af32
000000f0: cc91 7332 6dc8 0332 994f e932 add9 7532
00000100: a910 3d34 463d 2b34 83b1 1334 04e3 6d34
00000110: d642 ba34 6acb 8634 bd21 0634 f3f1 3134
00000120: a389 8434 486b 5334 d557 a834 b248 0634
00000130: fac4 0534 3cad d434 e59f 1535 c492 cd34
00000140: 1304 ec35 bad9 9035 47a5 bc35 b04a 5c36
00000150: c4e3 6d36 b5dc 5d35 7411 6435 0947 3935
00000160: f1fe 4836 2bbe 8e35 8302 4736 34df 3f36
00000170: 854a e035 65c1 cb35 4ddc a136 4cfd 1336
00000180: 01da 0435 ee00 9234 145f 9434 c187 7435
00000190: 74d5 8f35 c30a 9b34 6d29 4a34 4056 8134
000001a0: d0fa 7235 daa2 be34 9bc9 7235 dfe2 3f35
000001b0: 6e38 f734 aa1b 0035 f061 c535 2337 4335
000001c0: 6911 0933 5d52 1a33 a621 0033 f17f 2333
000001d0: d382 0d33 ed4f 1e33 94bc 0b33 70e0 d932
000001e0: 5770 f032 1df2 fe32 40f3 fa32 6cb4 fd32
000001f0: 8c2f 1c33 f6aa 5c33 f3b2 8733 42a2 5733
00000200: c583 e133 d9a8 8b33 2109 9633 a664 2534
00000210: 8ff6 7234 7bbb c533 2113 7633 2659 9033
00000220: adc5 5e34 83e3 bb33 589a 2e34 ff4e 0934
00000230: 265d 9333 a29d 4934 dcd7 b634 6ef3 3e34
00000240: 578f 8b33 75e4 7833 24a5 5c33 3ce3 9933
00000250: 237f ab33 12e6 6933 f981 6133 7a20 3133
00000260: 7780 7733 5c7f 0e33 a2fe 6633 b9be 6f33
00000270: eea4 4433 8f04 ba33 7a9e e333 fff0 b233
00000280: 8122 1233 43f9 2633 f7a0 0033 7fdf 3933
00000290: bfc4 9833 4928 6533 e3c8 0633 1b1c 0e33
000002a0: b301 6b33 c2b1 f532 efc4 2c33 02c5 1c33
000002b0: b33d 4933 f27b 9233 cca3 dc33 48e7 8333
000002c0: 68fd 4734 b40c 1a34 f3b5 d333 47d8 5534
000002d0: 424f 5334 b251 1034 a5af f333 8fbc 1734
000002e0: 517a 6934 b36a f633 0e87 2834 009f b233
000002f0: 9f5e 0134 5e8f 8b34 76d4 8d34 e5ab 6634
00000300: b21a 3833 6b85 2b33 504b 3033 6d3c 4033
00000310: f6de 0f33 a6b9 0d33 c090 2233 3c1b ff32
00000320: 0e9e 1133 c346 f532 5acd 1433 e9e3 2833
00000330: c5a6 df32 77d4 5933 aca9 8333 d7cf 5233
00000340: 4011 a632 f456 ce32 531a cc32 3ca7 df32
00000350: 7df6 cc32 561f 9031 b25a bf32 5efc 3331
00000360: 4397 bf32 4215 1332 aeed 9832 9475 da32
00000370: 7632 a932 2637 7332 0de5 f232 2998 df32
00000380: 1d9b f030 919d 1131 fa93 b930 a551 e530
00000390: 5e0f 0231 31a0 a930 91d0 e830 0966 b230
000003a0: 09cd 2531 d0fe 1931 6862 ff30 b8e3 0031
000003b0: 18a0 b330 e0b3 e930 d874 1431 086d 1731
000003c0: f65b 4033 4288 3133 5b57 1e33 27bc 8633
000003d0: 3088 8533 1d9d 0e33 4cfd f232 e619 d732
000003e0: 038e 9833 4644 fc32 57cb 2033 0567 4b33
000003f0: fd58 4e33 2748 6433 2b2c c933 9ea0 8f33

exp_avg f4 [48]
-2.4572772e-05 -2.009696e-05 3.0368554e-05 1.0173636e-05 4.6087458e-05 -0.00010139386 -9.577461e-05 9.5938785e-06
-9.420833e-05 -3.4393495e-05 2.7429945e-05 1.4113419e-05 -5.4371463e-05 1.5695161e-05 -1.06441885e-05 8.9095585e-05
4.424341e-05 6.7815665e-05 0.00010750443 0.00013243125 2.7522658e-05 3.1470943e-05 -2.7104878e-05 5.5221855e-05
-1.0656225e-05 6.199989e-05 -2.534107e-05 2.235476e-05 0.00013825028 6.522886e-05 -3.4253978e-06 0.00012049422
-5.0265528e-05 -0.00010431461 9.9945886e-05 0.00031860688 6.341259e-05 5.3507953e-05 -3.456215e-05 -0.00036609135
-0.00011914212 -7.395171e-05 4.152346e-05 -0.00010546578 7.660898e-05 -0.00023526544 5.977456e-06 -2.6456752e-05
00000000: a021 ceb7 e595 a8b7 f9bf fe37 6faf 2a37
00000010: 084e 4138 6aa3 d4b8 9ada c8b8 65f5 2037
00000020: b691 c5b8 bc41 10b8 5c19 e637 acc8 6c37
00000030: ea0c 64b8 1aa9 8337 7194 32b7 d4d8 ba38
00000040: 0092 3938 4238 8e38 0074 e138 3edd 0a39
00000050: 75e0 e637 abff 0338 485f e3b7 049e 6738
00000060: 23c8 32b7 f005 8238 8993 d4b7 7b86 bb37
00000070: 47f7 1039 7acb 8838 e3df 65b6 d7b1 fc38
00000080: 33d4 52b8 7bc3 dab8 0a9a d138 b10a a739
00000090: 60fc 8438 ba6d 6038 d3f6 10b8 f3ef bfb9
000000a0: f0db f9b8 8616 9bb8 7a29 2e38 822d ddb8
000000b0: 22a9 a038 96b1 76b9 f591 c836 71ef ddb7

exp_avg_sq f4 [48]
1.6054578e-07 2.5735636e-07 5.2175415e-07 3.2012117e-08 6.078614e-07 5.3198746e-06 1.5684147e-06 7.1996126e-08
3.59127e-07 1.24497e-07 1.2543573e-07 2.8354228e-07 7.417033e-08 2.9768266e-08 2.806942e-09 1.097529e-07
2.1304383e-07 2.8084483e-07 7.577694e-07 1.1041594e-07 8.7884814e-08 2.6789312e-06 1.5582157e-06 3.0267037e-07
1.2353037e-07 5.575707e-07 1.955956e-07 1.6884819e-06 1.1997228e-06 2.6661057e-08 1.1749151e-07 2.5901414e-07
2.2607026e-06 9.183691e-06 7.4584664e-06 2.0557661e-06 7.5755397e-06 3.0639127e-05 1.4158652e-05 1.7161126e-05
2.0332438e-05 1.1932318e-05 1.1633228e-05 6.2575964e-06 7.833601e-06 8.455513e-06 1.797981e-07 1.9421841e-05
00000000: 7d62 2c34 ca2a 8a34 ac0e 0c35 b27d 0933
00000010: eb2b 2335 6081 b236 5282 d235 4a9c 9a33
00000020: 0ace c034 7aad 0534 83af 0634 c139 9834
00000030: 9247 9f33 1cb5 ff32 3fe4 4031 4bb1 eb33
00000040: 0bc1 6434 05c7 9634 8469 4b35 ce1d ed33
00000050: 30bb bc33 b0c7 3336 e223 d135 b37e a234
00000060: c5a3 0434 f7ab 1535 e904 5234 cc9f e235
00000070: 2906 a135 4904 e532 a44f fc33 a20e 8b34
00000080: 93b6 1736 a713 1a37 bd43 fa36 cbf5 0936
00000090: 6431 fe36 8382 0038 f38a 6d37 3df5 8f37
000000a0: 948f aa37 ea30 4837 552c 4337 58f8 d136
000000b0: 0f6d 0337 27dc 0d37 870e 4134 16ec a237

exp_avg f4 [48]
-2.4572772e-05 -2.009696e-05 3.0368554e-05 1.0173636e-05 4.6087458e-05 -0.00010139386 -9.577461e-05 9.5938785e-06
-9.420833e-05 -3.4393495e-05 2.7429945e-05 1.4113419e-05 -5.4371463e-05 1.5695161e-05 -1.06441885e-05 8.9095585e-05
4.424341e-05 6.7815665e-05 0.00010750443 0.00013243125 2.7522658e-05 3.1470943e-05 -2.7104878e-05 5.5221855e-05
-1.0656225e-05 6.199989e-05 -2.534107e-05 2.235476e-05 0.00013825028 6.522886e-05 -3.4253978e-06 0.00012049422
-4.4288263e-05 -8.192286e-05 -0.00015814429 0.00015051725 9.055291e-05 -6.550114e-05 -2.6725468e-06 -0.00016869705
-0.00021512221 -0.00013342657 3.2305613e-06 5.3636035e-05 8.4100044e-05 -0.00011478697 -3.5482866e-05 -0.0002904934
00000000: a021 ceb7 e595 a8b7 f9bf fe37 6faf 2a37
00000010: 084e 4138 6aa3 d4b8 9ada c8b8 65f5 2037
00000020: b691 c5b8 bc41 10b8 5c19 e637 acc8 6c37
00000030: ea0c 64b8 1aa9 8337 7194 32b7 d4d8 ba38
00000040: 0092 3938 4238 8e38 0074 e138 3edd 0a39
00000050: 75e0 e637 abff 0338 485f e3b7 049e 6738
00000060: 23c8 32b7 f005 8238 8993 d4b7 7b86 bb37
00000070: 47f7 1039 7acb 8838 e3df 65b6 d7b1 fc38
00000080: 29c2 39b8 00ce abb8 89d3 25b9 2bd4 1d39
00000090: 39e7 bd38 a85d 89b8 015a 33b6 45e4 30b9
000000a0: 6e92 61b9 6ce8 0bb9 9fcc 5836 41f7 6038
000000b0: de5e b038 c9b9 f0b8 70d3 14b8 5d4d 98b9

exp_avg_sq f4 [48]
1.6054578e-07 2.5735636e-07 5.2175415e-07 3.2012117e-08 6.078614e-07 5.3198746e-06 1.5684147e-06 7.1996126e-08
3.59127e-07 1.24497e-07 1.2543573e-07 2.8354228e-07 7.417033e-08 2.9768266e-08 2.806942e-09 1.097529e-07
2.1304383e-07 2.8084483e-07 7.577694e-07 1.1041594e-07 8.7884814e-08 2.6789312e-06 1.5582157e-06 3.0267037e-07
1.2353037e-07 5.575707e-07 1.955956e-07 1.6884819e-06 1.1997228e-06 2.6661057e-08 1.1749151e-07 2.5901414e-07
3.2485752e-07 2.903712e-06 3.5953403e-06 1.5461868e-06 2.74591e-06 1.1655118e-05 2.7985918e-06 1.405827e-05
9.946973e-06 7.1330965e-06 8.092444e-06 2.3494847e-06 4.245938e-06 5.0459153e-06 5.583501e-08 1.6085325e-05
00000000: 7d62 2c34 ca2a 8a34 ac0e 0c35 b27d 0933
00000010: eb2b 2335 6081 b236 5282 d235 4a9c 9a33
00000020: 0ace c034 7aad 0534 83af 0634 c139 9834
00000030: 9247 9f33 1cb5 ff32 3fe4 4031 4bb1 eb33
00000040: 0bc1 6434 05c7 9634 8469 4b35 ce1d ed33
00000050: 30bb bc33 b0c7 3336 e223 d135 b37e a234
00000060: c5a3 0434 f7ab 1535 e904 5234 cc9f e235
00000070: 2906 a135 4904 e532 a44f fc33 a20e 8b34
00000080: 1468 ae34 64dd 4236 7a47 7136 9386 cf35
00000090: 6046 3836 5a8a 4337 71cf 3b36 cfdb 6b37
000000a0: ece1 2637 d558 ef36 c8c4 0737 d7ab 1d36
000000b0: 5478 8e36 1550 a936 3ecf 6f33 f9ee 8637
