saved_models/ISNNet_GRU_HS=16_N=2_ZP1_rtw0.01/split_3/checkpoint499.pth (torch, 22000 bytes, 18 tensors)

trial_output.weight f4 [2, 32]
000000 72 26 9f be a5 d9 06 be dd 33 6f bb df 3d 39 be
       -0.3108402 -0.13168962 -0.0036499419 -0.18090008
000010 e6 72 12 3e 3e ee 4b 3e 85 21 44 3e 56 cd 18 3d
       0.14301643 0.19915101 0.19153412 0.0373052
000020 13 bf a1 bc fc fc 90 3e 8b 4c 89 3d 1c c7 0f be
       -0.019744432 0.28318012 0.067040525 -0.14040798
000030 1e bb 77 3e bb 58 e7 3d 6b c2 e5 be 80 e4 25 3f
       0.24192473 0.11296221 -0.44874892 0.6480179
000040 c0 6a 95 3f c5 bc 83 3f fe e7 10 40 7c 88 36 be
       1.1673203 1.0291983 2.2641597 -0.17825502
000050 44 55 47 40 8e 44 f7 bf 74 3f a5 be 0f 23 71 bf
       3.1145792 -1.9317796 -0.32274973 -0.9419412
000060 1a 35 b1 3f 65 d5 d3 40 cc 64 eb bf 65 6d 72 3f
       1.384433 6.619799 -1.8390136 0.9469817
000070 fe aa 38 bf 85 65 6a be 4b 02 e4 3d c9 2a 47 bf
       -0.72135913 -0.22890289 0.1113325 -0.7779966
000080 fb 9c ae 3d f2 4c ce 3d 3a 28 5a bc ed 18 9b 3d
       0.085260354 0.1007327 -0.013315255 0.075731136
000090 c1 cf 72 3c 8e f1 48 ba 8d b5 2b 3d f9 61 63 bc
       0.01482004 -0.0007665389 0.041921187 -0.013878339
0000a0 f1 fe 26 bd 73 ea 89 bd 4f e5 79 bd ac ef 30 3e
       -0.040770475 -0.06734171 -0.0610097 0.17278928
0000b0 72 82 68 bd b6 17 d3 3c 7e 98 14 bc 87 6e 41 3d
       -0.056765027 0.025768142 -0.00906956 0.047224548
0000c0 36 09 f4 3e 7b c6 89 3e d4 81 4e bc b9 5e 38 bd
       0.47663277 0.2690924 -0.012604196 -0.04501221
0000d0 45 29 d0 3e 2f aa 0c 3f 46 3b f0 bd e6 23 db 3c
       0.40656486 0.5494718 -0.117300555 0.026750516
0000e0 27 cc a8 bd e7 13 2e 3c b6 3d 2d 3e 54 10 2e 3e
       -0.08242064 0.010624862 0.16918072 0.16998416
0000f0 a0 08 20 3e e1 ee 1a 3f 05 1c a3 3e 4a 2f 89 3e
       0.1562829 0.6052075 0.31857315 0.2679389

trial_output.bias f4 [2]
000000 4b 13 1d bf a2 2d 48 bf
       -0.61357564 -0.7819463

rnn.weight_ih_l0 f4 [48, 6]
000000 c9 d1 37 3f 85 14 87 bf 03 f8 7e 3e a4 d6 01 bf
       0.7180448 -1.0553137 0.24899296 -0.5071814
000010 8d b0 63 bc dd 8d 06 3c dd 2a a0 3e 0e ff ab 3d
       -0.013897073 0.008212534 0.31282702 0.08398257
000020 47 b6 86 3e bd 09 22 3f a0 df 4b 3e f1 5e c2 3d
       0.26310942 0.6329611 0.19909525 0.09490765
000030 d3 41 65 bf ab 1f 36 be 2f 15 fe be 5c 37 c3 be
       -0.89553565 -0.17785518 -0.49625537 -0.38128173
000040 be ab 0e bf b1 20 67 be 52 b4 97 3e 5a 2e a9 3e
       -0.5573081 -0.22571065 0.2962976 0.33043176
000050 8a 1e 5c 3e e0 41 88 3e 72 40 15 3f ae b7 1f be
       0.21496025 0.2661276 0.5830146 -0.15597412
000060 ae 0f 9a be 07 4e ce bd 56 1c 33 3e 0f 32 09 be
       -0.30090088 -0.10073476 0.17491278 -0.13398002
000070 96 d0 bf bd 5b b3 27 be b8 55 12 3f b7 d2 48 bd
       -0.093659565 -0.16377012 0.57162046 -0.04902908
000080 a8 98 ab 3e 94 45 0e 3e d3 8a 4e be c7 cb a1 bc
       0.33514905 0.1389373 -0.20170145 -0.019750489
000090 1c b9 87 3f c8 51 39 bf 59 c1 60 3f bb 8b 06 bf
       1.0603366 -0.72390413 0.87795025 -0.5255696
0000a0 fe 4b 63 3f aa 49 15 bf 05 99 05 be 4b 56 8b 3e
       0.8878783 -0.5831553 -0.13046654 0.27214274
0000b0 5e fd de bc 9f c5 ff bd df cb aa 3c 3c 84 4d 3e
       -0.027220424 -0.12488865 0.020849166 0.20069975
0000c0 e4 ba ee 3e 35 d2 1d bf 75 4b ad 3e ac c1 6b be
       0.4662696 -0.61648875 0.33846632 -0.23023099
0000d0 66 01 af be e4 02 8c 3e 99 ee b2 be 93 99 02 40
       -0.34180754 0.27345955 -0.3494766 2.0406234
0000e0 7e 4d 87 be 4d 4f b5 3f 89 ea d3 3e 5e 97 94 be
       -0.2642631 1.4164826 0.41389874 -0.29021734
0000f0 dd 79 bf 3e 53 5d 8d be 55 22 ed 3d 85 01 ba be
       0.37397662 -0.27610263 0.11578814 -0.36329284
000100 47 69 56 be 5b c1 9f 3e c1 a6 0e 3e eb f9 a9 be
       -0.20938598 0.31202206 0.13930799 -0.33198485
000110 f8 5e 2e bb b9 d2 ab be 71 e3 5c be 6f a8 3d 3e
       -0.0026606899 -0.33559206 -0.21571137 0.18521284
000120 5f 8d 0c 3f 31 9d 80 be dc e3 7e 3d 29 9c a2 3e
       0.54903215 -0.25119928 0.062229022 0.31759766
000130 1b 5c b2 3f 24 72 dd bc 03 73 c4 bd 59 4f 85 be
       1.3934358 -0.027031966 -0.09592249 -0.260371
000140 11 6b 01 be a9 e7 17 bf 67 0d f5 3c b9 1d 25 be
       -0.12638499 -0.5933786 0.029913617 -0.1612462
000150 33 d7 1c 3f f2 96 91 bf cc b7 2c be fa f6 2d bf
       0.6126587 -1.137419 -0.16866988 -0.6795498
000160 11 e6 23 bf 08 57 c3 3d fd bd d3 3e 1b 30 90 bd
       -0.6402293 0.09538084 0.41355887 -0.070404254
000170 d4 3a 3a be f0 ae fe 3d ba f7 49 be 77 a2 b4 bc
       -0.18186504 0.124357104 -0.19723406 -0.022050126
000180 a8 97 b3 be 9f 72 ef 3d 89 ae 28 bf c9 35 a1 be
       -0.35076642 0.11691784 -0.6589132 -0.31486347
000190 23 55 cb bd 64 e2 d1 bd 0e f7 e2 be 7a fc 7f 3e
       -0.09928348 -0.10248259 -0.44329113 0.24998656
0001a0 18 a5 e8 be 64 b0 d2 3e 80 47 a8 bd 6c 36 ea 3b
       -0.45438457 0.411502 -0.082167625 0.007147601
0001b0 38 24 ba be 54 e1 d8 be de 61 c8 be 2e 6a aa be
       -0.36355758 -0.42359412 -0.39137167 -0.33284134
0001c0 50 a5 ef be d2 80 0e bf da 8b 94 bc a3 16 92 be
       -0.4680581 -0.55665314 -0.018133093 -0.28532895
0001d0 92 41 6d 3e a4 a1 00 bf 58 4f 49 bf c3 2e 3c be
       0.23169544 -0.50246644 -0.78636694 -0.18377213
0001e0 4e 5e 00 3f a4 22 73 be b2 c2 13 bf ac cc f4 3c
       0.501439 -0.23743683 -0.57718956 0.029882751
0001f0 a9 f3 b7 bd 80 28 b8 be fe b1 aa be 8d 78 bb 3e
       -0.08982021 -0.359684 -0.33338922 0.3661541
000200 c0 a8 09 3e 5a ac 84 be 57 4c 73 be dd 75 15 be
       0.1344328 -0.25912744 -0.2375959 -0.14595743
000210 2e 4c 00 bf 94 76 88 3f 62 e3 5c be 09 63 5a 3d
       -0.5011624 1.0661187 -0.21571115 0.053317104
000220 99 de 28 bf 5e 5e bb 3e 91 9e 03 3e 5b d2 3d be
       -0.6596466 0.36595434 0.12853457 -0.18537275
000230 31 b5 c3 3c 13 77 90 3d 18 e3 c8 bd 45 a4 59 be
       0.02389011 0.070539616 -0.0980894 -0.2125407
000240 52 06 c5 bd 66 ee 8a be 2c ed bb be e0 bb 72 be
       -0.09620346 -0.2713501 -0.36704385 -0.23704481
000250 e8 42 f3 be c4 d3 0c bf 33 db 0d be a1 f2 88 be
       -0.47511983 -0.5501063 -0.13853149 -0.2674761
000260 33 1c 86 be 6d b2 63 be 90 cc 71 be 18 39 85 be
       -0.2619339 -0.22236033 -0.2361319 -0.26020122
000270 2d 9d ff be d7 cb 33 3f 3d 81 14 be 17 7f 5f 3e
       -0.49924603 0.7023291 -0.14502425 0.21825825
000280 ba 8a 0e 3e e1 7a e1 3b c3 72 1e be 79 23 39 be
       0.13920107 0.0068811034 -0.15473466 -0.18079938
000290 b5 7c 45 be 0a d2 a7 3d 2d 30 a6 bd d5 7f 97 be
       -0.19285853 0.08194359 -0.081146576 -0.29589716
0002a0 d5 69 31 3e 71 47 b3 3d 02 f5 a3 3e 93 41 ca be
       0.17325528 0.08753861 0.32022864 -0.39503154
0002b0 a8 3d fd 3c 7d 5b 46 3b cf de 42 bf b3 cd ca be
       0.030913189 0.0030266934 -0.7612123 -0.3961006
0002c0 26 08 ec be 23 6a e0 be cd af 9b be 76 4d 03 be
       -0.46099967 -0.43830976 -0.30407563 -0.12822518
0002d0 b1 ac ab 3e 02 73 59 be ac 32 02 bd 90 ae 39 3b
       0.3353019 -0.21235278 -0.031786606 0.0028332807
0002e0 ec 04 bd 3d 24 5e aa bd 7e 6c a9 bd 34 cd 60 be
       0.092294544 -0.08318737 -0.08272646 -0.21953279
0002f0 bd d2 95 be 9e f8 41 be 7c fd f2 bd b7 1d 26 be
       -0.29262343 -0.18942496 -0.118647546 -0.16222273
000300 49 52 ba bd 6f 0e ea 3d 08 d4 1b be 39 1c 99 be
       -0.09097726 0.11428534 -0.15217602 -0.29904345
000310 93 10 e3 bc 79 8f 12 3d 07 49 02 bf 21 c5 97 bc
       -0.027717864 0.035781357 -0.5089268 -0.018526616
000320 89 d7 83 bd df 30 79 be ea ac 51 bd e8 c2 88 be
       -0.064375944 -0.24335049 -0.051190294 -0.26711202
000330 72 cc b5 be ab 5b e7 3c 15 3c 0a bc 20 6f 82 bd
       -0.35507542 0.028241953 -0.008437176 -0.06368852
000340 6f 2d 17 be d9 c9 1d be 2f 05 92 be 2b bf dd 3e
       -0.14763425 -0.1540903 -0.2851958 0.43309912
000350 e2 e1 14 be 38 4d 32 3e de a4 6f 3c 68 27 47 be
       -0.14539292 0.17412269 0.01462671 -0.19448626
000360 da 5c d8 bc 5e e1 05 be 52 66 8a bb 14 7e d2 bb
       -0.026411463 -0.13074252 -0.0042236233 -0.006423721
000370 47 46 49 3d e6 d1 8a 3d 26 48 17 bf b1 51 85 3d
       0.049139287 0.06778316 -0.59094465 0.06509722
000380 db fb 55 be c0 21 0c 3e 51 30 13 be 5e a3 59 be
       -0.20896856 0.1368475 -0.143739 -0.21253726
000390 cd e1 62 bc db 14 74 3f 44 ee d0 3b af 9a 18 be
       -0.01384778 0.9534432 0.0063760597 -0.14902757
0003a0 c4 0b 1c 3d f5 44 ea 3e 06 7c cc 3d 1b e1 f7 3e
       0.038097158 0.45755735 0.09984593 0.4841393
0003b0 c5 ba 8d 3e ce 5a 7e 3e 20 bd 04 3e e5 56 6b 3e
       0.27681556 0.24839327 0.1296277 0.22982366
0003c0 b7 b2 be be 5f 14 d4 3e 11 e9 1b be 05 19 18 be
       -0.37245724 0.41421792 -0.15225627 -0.14853294
0003d0 e7 5f a8 3c b0 56 0f 3d a0 4c 93 bd 2a be b1 be
       0.020553542 0.03499478 -0.071923494 -0.34715396
0003e0 05 90 99 3e d6 9a b4 3e 88 c5 42 3d a6 1a eb 3c
       0.2999269 0.3527438 0.04755166 0.02869923
0003f0 85 40 d7 3e b0 3d 7f be 39 12 09 3e 96 89 ea 3d
       0.42041412 -0.24925876 0.13385858 0.11452024

rnn.weight_hh_l0 f4 [48, 16]
000000 63 7f f2 bd 39 cc 30 bf 2f 35 c8 3d 34 16 90 3e
       -0.11840703 -0.6906162 0.09775769 0.2814194
000010 09 ef c0 3e 4c 25 90 be 4a a9 80 3e b6 c4 d3 3e
       0.3768237 -0.28153455 0.25129157 0.41361016
000020 16 bf ae bd 37 03 36 bf 24 19 92 3e 54 7f 99 be
       -0.085325405 -0.71098655 0.28534806 -0.29979956
000030 5a ac 12 3f 05 70 f0 be 74 73 08 3e a6 25 23 be
       0.5729424 -0.46960464 0.13325292 -0.1593233
000040 02 56 33 be aa ed 11 be cf d3 e9 3e d8 b1 a2 3e
       -0.17513278 -0.14250818 0.4566941 0.3177631
000050 2b e8 a8 be 2e 8a e5 3d 9d e4 b1 3e 55 f3 f3 be
       -0.3298963 0.11207996 0.3474473 -0.47646585
000060 33 3a 20 bd fc ba a3 be 66 6b c6 3e bb 55 4a be
       -0.039118003 -0.31978595 0.38753814 -0.19759266
000070 09 f4 24 3e 7c 5c 97 be 70 cb 81 be 7f fe 12 3d
       0.16108717 -0.29562747 -0.25350523 0.035887238
000080 48 20 06 3f e3 ed 3a bf 29 a8 00 bf e4 58 2f be
       0.5239301 -0.73019236 -0.5025659 -0.17123753
000090 7f 3f 5f 3f 4a cb 3a be ad 7d b0 be 24 8f ac 3e
       0.8720626 -0.18241611 -0.34470883 0.33702958
0000a0 be f7 be 3e 5b 76 76 bf e7 7f 91 3e 98 de cf bc
       0.37298387 -0.96274346 0.28417894 -0.025374696
0000b0 1a f6 d8 3e 4a b8 cc bf cb 95 0f 3f 40 1c 7e 3f
       0.4237526 -1.599374 0.5608794 0.99261856
0000c0 d9 9c 0e 3b 66 c8 0a bf 63 bd 51 bf 44 63 d4 3d
       0.002176097 -0.54212034 -0.81929606 0.10370496
0000d0 58 56 13 3e 3f 12 f7 bc e5 4a 4a 3e 83 cc 22 3f
       0.14388406 -0.030160068 0.19755132 0.6359331
0000e0 74 dc 5a be 8b c6 a1 be 70 7b 18 3f 9a 99 d2 bd
       -0.21373159 -0.3159679 0.5956335 -0.102832034
0000f0 1d 38 3c 3e a2 30 5f be df ed 81 3c 60 98 9c bd
       0.1838078 -0.21795896 0.015860496 -0.07646251
000100 18 53 4d 3d 37 37 d9 bf 27 b0 22 3e 12 12 00 3f
       0.050128073 -1.6969975 0.1588751 0.50027573
000110 38 7c a8 3e 2a e2 e7 be 2c 59 9d 3e 3f 31 9b bf
       0.3290727 -0.45289737 0.30732095 -1.2124404
000120 c2 21 dc be bf 92 e0 3e 4b 99 8e 3f 28 b5 35 be
       -0.42994505 0.43861958 1.1140531 -0.17744887
000130 3c 84 52 3f 8e 8a 3b bf 12 32 79 3e b6 2f ad 3f
       0.82233024 -0.7325829 0.24335507 1.3530185
000140 36 44 4c 3e c2 23 13 3e 43 53 17 bf f0 74 0b be
       0.19947895 0.1436911 -0.5911142 -0.13618827
000150 5d 05 f9 3d d8 cc 41 3e 10 9d a4 39 ea 21 32 3d
       0.12159226 0.18925798 0.00031397538 0.043489374
000160 f1 d1 8d 3d 6c 63 40 3f 68 62 87 bd 39 81 b6 3e
       0.06924809 0.75151706 -0.066105664 0.35645464
000170 29 22 88 be 98 22 85 3d 0c 77 82 3e 36 47 e3 be
       -0.26588562 0.06500739 0.2548145 -0.44390267
000180 40 3f 8b 3e 54 ab 6f bf fe 6a 51 3f c8 d3 b6 3e
       0.27196693 -0.936208 0.8180388 0.3570845
000190 ee c6 3f 3f 97 79 65 be f2 be 0a 3f 5f f0 e3 3c
       0.7491292 -0.22409664 0.5419761 0.027824579
0001a0 65 86 6c be d1 84 8c bf a0 42 ab 3e d7 74 73 3e
       -0.23098142 -1.0978032 0.33449268 0.2377504
0001b0 e7 a1 99 3e 55 17 f2 be dd d1 c5 3e f2 d8 55 3e
       0.30006334 -0.47283426 0.38636675 0.2088354
0001c0 9d 6a a5 3e a0 8b 58 be 69 f8 70 be 1b 3c 13 be
       0.32307902 -0.21147013 -0.23532261 -0.14378397
0001d0 74 7e 06 bc 65 e3 85 3b d5 e5 82 3e f2 8a bf bf
       -0.00820886 0.0040859454 0.25565973 -1.4964278
0001e0 c2 cd c9 3e 5f 0e 6f be 88 1d 26 be 21 a4 d1 3c
       0.39414793 -0.23345326 -0.16222203 0.025590958
0001f0 4d 1b 38 3e 38 a4 2c be 99 42 51 3f 71 de b6 3e
       0.17979164 -0.1685952 0.81742245 0.35716584
000200 cc 00 06 3f 84 e5 a9 bd 62 64 96 3e 2a 76 ea 3e
       0.52344966 -0.0829573 0.2937346 0.45793277
000210 bf c1 c2 3e f6 a0 e9 be e4 3e cb 3e 69 c3 4f 3e
       0.38038442 -0.45630616 0.3969642 0.20289387
000220 b5 27 0a 3f a1 1b 8c bf 32 8a af be 63 c0 93 be
       0.5396684 -1.0945932 -0.34285122 -0.28857717
000230 b3 74 37 be 68 be 8b bf ba a9 4d 3f e1 88 87 be
       -0.17915611 -1.0917482 0.8033711 -0.26471618
000240 62 c8 b3 be d4 3a 10 bf 89 6c 76 bf a6 1d 8b bd
       -0.35113817 -0.56339765 -0.9625936 -0.06792764
000250 92 ed 09 bf 1c 0e 84 bd 58 79 89 3e 5d 90 34 bf
       -0.5387813 -0.06448004 0.2685039 -0.7053278
000260 b4 3f d9 be ae f3 e5 be 19 ed 89 3d 3a 4d 25 bf
       -0.42431414 -0.44912475 0.06734676 -0.64570963
000270 8e 45 02 3f 65 05 05 bf c6 df bb bc c7 f9 c3 3f
       0.5088738 -0.51961356 -0.022933852 1.5310601
000280 a0 99 5d be b3 17 0a bf 71 fc 4d 3f a7 0b 47 3e
       -0.21640635 -0.5394241 0.8046332 0.19438039
000290 d3 38 d2 be ae 63 ac bd f6 b3 01 be 47 45 80 bd
       -0.41058978 -0.0841745 -0.12666306 -0.062632136
0002a0 a5 7b 89 3e 6a d2 c5 3d d9 f6 91 bd 53 55 66 be
       0.26852146 0.09659274 -0.071271606 -0.22493486
0002b0 63 30 73 3e e6 b0 67 3e 42 45 07 bf 69 e1 de 3d
       0.23748927 0.22626075 -0.52840054 0.10882837
0002c0 86 ab b3 3e 5f 4d 0b bf a7 bd b5 bc 27 66 0f 3e
       0.350918 -0.54414934 -0.02218516 0.14003812
0002d0 f7 2b 0c 3f 93 b4 68 bf 9d 10 1d 3e ab 72 5c 3e
       0.54754585 -0.90900534 0.15338369 0.21528117
0002e0 b0 37 f6 3e 39 eb 9a 3d ba 3c eb 3e eb 51 81 be
       0.4808936 0.075643964 0.45944768 -0.2525781
0002f0 d2 7d 7b 3d 9b 48 2d bf b4 8b bb 3e 81 31 5f 3f
       0.06139929 -0.6768891 0.36630023 0.8718491
000300 64 28 4b 3e 43 0a 2e be 49 de 1a 3e bf 8c 85 3e
       0.19839627 -0.16996102 0.15123858 0.26083943
000310 aa e0 52 3d 6e bd f6 bd 3c fa 48 3e 1f b7 68 bd
       0.051483788 -0.120478496 0.19626707 -0.056815263
000320 1e 5c 0e bf 35 ad ad 3d 9b 21 f5 bc 1e 21 cd be
       -0.5560931 0.08480302 -0.02992325 -0.4006433
000330 8d 5d f8 3d 53 3e b0 3c 95 6a 3a be c0 da f5 3e
       0.121272184 0.021514094 -0.1820472 0.48018456
000340 82 5b 85 3e 8a ac 30 bf 7f 77 38 bf c4 17 f5 3d
       0.26046377 -0.69013274 -0.72057337 0.119674236
000350 5e 78 10 3f 6f a4 d5 be c1 24 19 3e d1 25 3d bd
       0.56433666 -0.41727015 0.14955427 -0.046178643
000360 8e 94 c4 bc d2 e0 c8 be e6 a4 ff 3e 5d 90 32 be
       -0.023996618 -0.39234024 0.49930495 -0.17437883
000370 3f bf dc 3e 5b a6 40 bf 67 d1 73 3d 6e a8 d2 3e
       0.4311466 -0.7525384 0.059525874 0.41144127
000380 6f 30 83 bc 0e 74 20 bf d5 fd ef bd 52 f4 99 bd
       -0.016014306 -0.62677085 -0.117183365 -0.075173035
000390 62 65 9b be 7b 2b 2a bf a7 08 e9 3e 41 c2 0a bf
       -0.30350786 -0.66472596 0.45514414 -0.5420266
0003a0 88 9f 0b bf 57 5f a7 be 78 89 90 3e 24 c5 d1 bb
       -0.545403 -0.32689926 0.2822988 -0.006401675
0003b0 45 08 59 3e be f1 34 bf 5e 73 78 3e a6 5f c8 3f
       0.21194561 -0.7068137 0.24262759 1.565419
0003c0 01 d6 88 be 11 cc e5 be 84 84 5c bf 3b fd 05 be
       -0.26725772 -0.44882253 -0.861397 -0.13084881
0003d0 88 a0 35 3e a5 fd 9c be 46 c1 bc 3b bd 33 af 3e
       0.17737019 -0.30662265 0.0057603447 0.3421916
0003e0 b7 5c 2e 3e 4e ef 7f 3e 21 fe 9c 3d fc 99 5e 3e
       0.17027555 0.24993631 0.07665659 0.21738428
0003f0 ba f0 9b 3e 75 7d 07 bf 97 57 36 3c b5 b7 e4 3d
       0.30457097 -0.5292581 0.0111292815 0.11167852

rnn.bias_ih_l0 f4 [48]
000000 95 9c 8a bd d0 7d c6 3e 62 3a 57 be 3f d8 4d 3e
       -0.06768147 0.38767862 -0.21018365 0.20102023
000010 ed 96 fb 3c c3 ea 31 3e 00 12 42 be 77 45 94 bd
       0.030711615 0.1737471 -0.18952179 -0.07239812
000020 8c 06 59 3e a3 12 c7 3e 40 5e 07 3c 2a 9f ad bd
       0.21193904 0.38881406 0.008262217 -0.08477624
000030 7e f3 e7 3c 8a bb b0 be 80 3e 3b 3e f0 fa a4 3c
       0.028314348 -0.3451808 0.1828556 0.020139188
000040 d0 85 7e bd 9c 16 aa 3e 89 6f 46 bc 2a 18 e0 3d
       -0.062139332 0.33220375 -0.012111553 0.10942109
000050 1a d5 52 3d 9a 00 17 3d ec 8b a9 bd d4 1f 02 3f
       0.05147276 0.036865808 -0.08278641 0.50829816
000060 95 94 b2 3d 8f 2f 02 bf 8d 62 a6 3e fe 65 8e 3e
       0.08719746 -0.5085382 0.32497063 0.2781219
000070 36 54 5a 3e 4a fb 2e 3e 02 43 93 3e 39 77 2b 3e
       0.21321186 0.17088047 0.2876206 0.16744699
000080 e7 9d bd be f6 b9 e1 3b 62 e6 2d be b1 f7 4c be
       -0.37034532 0.0068886233 -0.16982415 -0.20016362
000090 20 5b c9 bd 94 e6 1a be e9 38 3c 3d aa da c6 3e
       -0.09831834 -0.15127021 0.04595271 0.38838702
0000a0 8b 7f a8 bd d3 9e 6c 3e 25 3a 19 bc 7f a4 a6 bd
       -0.08227452 0.23107462 -0.009352242 -0.08136844
0000b0 73 82 d9 be af 7e 35 3f 93 9e cc 3d a4 83 76 be
       -0.42482337 0.7089643 0.09991183 -0.24073654

rnn.bias_hh_l0 f4 [48]
000000 a0 40 89 3e 5f 3f fd 3e cb f0 c9 bd 45 ff 9c 3e
       0.26807117 0.4946241 -0.09860381 0.30663505
000010 2b 5b 13 3d af 60 3d be c4 b7 49 be b7 fd 2a be
       0.035975616 -0.18493913 -0.19699007 -0.16698347
000020 7b 90 f8 3d 41 f3 ca bd d4 ed 46 3e 10 66 88 3d
       0.121369325 -0.09909678 0.19426662 0.06660092
000030 3e 42 f3 bb 35 3f c0 be 78 a6 a6 3e 6b 9e 35 be
       -0.007423668 -0.37548223 0.3254888 -0.17736213
000040 02 c5 00 3e 2b 9a 1f 3e d0 b7 84 bc ef bb 97 3d
       0.12575153 0.15586154 -0.01620093 0.07408892
000050 bf 6e 5e bd 94 8f df bc 8a 23 59 3e 6f 79 18 3f
       -0.054304834 -0.027290143 0.21204963 0.5956029
000060 e0 c9 01 bd 0a 69 87 be c5 25 52 3e ac 32 75 3e
       -0.031686664 -0.26447326 0.2052222 0.23945111
000070 35 7d 3b 3d a5 9b 93 3e 51 2c be 3e e1 e7 24 3e
       0.045773704 0.28829685 0.37143186 0.1610408
000080 d9 a4 72 be 16 f2 0e be 77 55 65 be cb 10 4d bd
       -0.23695697 -0.13959536 -0.22395884 -0.050064843
000090 6a fd 89 bb 2f 74 84 bb cb 2e c5 be cb 06 74 be
       -0.0042111175 -0.0040421705 -0.38512263 -0.23830716
0000a0 38 aa 1a be 9c 02 76 3e 76 90 80 be 5a 43 e5 3b
       -0.15103996 0.24024433 -0.25110215 0.0069965543
0000b0 f2 00 87 3a 7e db a5 3e 67 d8 c9 bc 54 d4 5e be
       0.0010299964 0.32394022 -0.024639321 -0.21760684

exp_avg f4 [2, 32]
000000 99 29 9e ba 5f a1 37 3b 57 42 95 37 37 55 2d bb
       -0.001206684 0.0028019769 1.7793076e-05 -0.0026448497
000010 b2 5b 19 bb d6 3e e5 3a ec 7a 30 bb 91 34 e7 ba
       -0.0023400602 0.001749004 -0.0026928736 -0.0017639567
000020 02 60 98 3a d0 43 22 39 94 e5 e2 ba 98 1d 39 3b
       0.0011625292 0.00015474786 -0.0017310851 0.00282464
000030 bc 58 47 bb e2 25 13 3b c2 ea 82 ba 42 40 c5 ba
       -0.003041788 0.0022453 -0.0009988176 -0.0015049058
000040 a5 1e 02 ba 43 42 86 3a 77 9f 1e 39 75 6e 0f bb
       -0.0004963673 0.0010243136 0.0001512746 -0.0021885906
000050 34 c1 ee b9 b0 ad 83 3a f6 be 1b bb da 52 33 3a
       -0.00045538845 0.001004627 -0.0023764945 0.0006840654
000060 a4 05 dc b9 bc d3 d9 ba 2f c2 e2 39 f4 60 18 3b
       -0.00041965873 -0.0016618888 0.00043250757 0.0023251148
000070 d7 2a b9 ba 4e 34 b3 39 f9 c2 00 bb a2 84 59 b8
       -0.0014127147 0.0003418051 -0.0019647463 -5.1860356e-05
000080 60 00 5e 38 8c c7 17 38 b7 0a d3 37 61 d9 f3 b7
       5.2929274e-05 3.6187048e-05 2.515815e-05 -2.9069082e-05
000090 05 98 c6 b7 7e d1 a7 37 14 b3 0b b8 2f 76 1a b8
       -2.3674229e-05 2.0005504e-05 -3.3306962e-05 -3.682653e-05
0000a0 91 24 f2 37 21 c9 dd b7 70 9e 1c b8 6b c7 1b 38
       2.8865676e-05 -2.6438911e-05 -3.7340855e-05 3.7140602e-05
0000b0 53 64 05 b8 6d c0 43 b7 2e 00 2b 38 7f 80 23 37
       -3.1803105e-05 -1.1667708e-05 4.0769744e-05 9.745475e-06
0000c0 71 0a 4f b8 4a 0c 6f 38 a2 8a 98 b7 cd 03 6f b8
       -4.936237e-05 5.6993485e-05 -1.8184368e-05 -5.698558e-05
0000d0 95 c3 15 b7 7f 20 82 b6 b5 46 77 b8 d8 79 a1 b6
       -8.92663e-06 -3.878085e-06 -5.895524e-05 -4.8123584e-06
0000e0 e0 6d 06 37 e3 3d 3c 38 bd 86 ec b7 65 18 34 38
       8.012605e-06 4.488033e-05 -2.8196135e-05 4.2938063e-05
0000f0 a5 c7 7e b8 24 e8 84 38 a6 e8 6f b8 a1 f5 42 b8
       -6.0744253e-05 6.33749e-05 -5.719871e-05 -4.6481964e-05

exp_avg_sq f4 [2, 32]
000000 93 2c 6c 37 b6 28 5f 38 66 be 8b 36 87 a7 85 38
       1.4077074e-05 5.3205258e-05 4.164688e-06 6.3731386e-05
000010 e3 dc 05 38 8c 8a ac 37 ca d2 53 38 04 cc d5 37
       3.1915388e-05 2.0568514e-05 5.0502633e-05 2.548658e-05
000020 d0 cd 04 37 ac a1 05 37 22 88 0f 38 dc 62 74 38
       7.915733e-06 7.96506e-06 3.422064e-05 5.8266203e-05
000030 eb 29 7a 38 ad cb 11 38 c6 e6 8f 37 3e 8a 31 37
       5.9643684e-05 3.4760382e-05 1.715439e-05 1.0582209e-05
000040 84 44 1f 38 ee 14 1f 38 89 fc 86 36 d5 c7 80 38
       3.7972364e-05 3.7928046e-05 4.02291e-06 6.140737e-05
000050 4c c9 82 37 22 25 a6 37 bb 54 68 38 ee 14 15 37
       1.5590944e-05 1.9806033e-05 5.539202e-05 8.885965e-06
000060 78 d1 28 37 62 ba f3 36 71 70 c9 36 11 52 84 38
       1.0062351e-05 7.263662e-06 6.0033567e-06 6.3095365e-05
000070 06 dd 82 38 2a eb 62 38 a8 c7 73 38 d1 12 bb 37
       6.240052e-05 5.4101612e-05 5.812166e-05 2.23009e-05
000080 34 01 28 33 be ee 21 34 48 41 13 32 61 13 35 34
       3.9116642e-08 1.5081147e-07 8.571369e-09 1.6863989e-07
000090 f5 be c7 33 34 e2 76 33 a8 b1 17 34 c0 30 8f 33
       9.3013945e-08 5.748207e-08 1.4127602e-07 6.667824e-08
0000a0 33 e3 a0 32 8e 4d ba 32 71 84 c2 33 33 91 2d 34
       1.872977e-08 2.1688518e-08 9.05792e-08 1.6164704e-07
0000b0 7b 44 35 34 ed b7 00 34 d8 9a 81 33 28 03 01 33
       1.6881852e-07 1.1987841e-07 6.0351965e-08 3.0038024e-08
0000c0 6b 49 d3 33 ac c7 b8 33 a7 2c a1 31 4d db 27 34
       9.838808e-08 8.604488e-08 4.690793e-09 1.5632868e-07
0000d0 c2 a7 20 33 dc 4f 59 33 7f 9c 21 34 a0 d0 00 33
       3.7405478e-08 5.059688e-08 1.5051226e-07 2.9992066e-08
0000e0 c7 85 8f 32 1e 61 4b 32 2a 65 5e 32 71 50 37 34
       1.6708226e-08 1.1838237e-08 1.2945103e-08 1.7072468e-07
0000f0 33 f2 30 34 bc b0 0d 34 d4 16 2d 34 ad ef 65 33
       1.6479389e-07 1.3195944e-07 1.6120185e-07 5.35362e-08

exp_avg f4 [2]
000000 e6 af 43 bb ac 90 23 b8
       -0.0029859482 -3.8996965e-05

exp_avg_sq f4 [2]
000000 9a f6 9d 38 6a c7 5d 34
       7.5322765e-05 2.0654775e-07

exp_avg f4 [48, 6]
000000 de 37 d7 39 26 26 a4 b8 0d be dc 39 89 3e ba b8
       0.0004104962 -7.827235e-05 0.0004210327 -8.880819e-05
000010 b3 2d 22 3a 00 2d 96 b9 df b1 3f 36 55 a3 89 38
       0.0006186619 -0.00028643757 2.8564752e-06 6.563092e-05
000020 05 c7 29 38 93 f5 ea 37 71 0d 1c b7 93 22 a3 38
       4.047809e-05 2.8009328e-05 -9.301454e-06 7.7788856e-05
000030 b2 f9 9a 3a 6b 67 34 ba 5f 09 2f 3a 9c f5 35 b9
       0.0011823683 -0.00068818656 0.00066771166 -0.00017353002
000040 77 31 21 3a 04 2c fd b8 ef 32 d5 3a f6 c6 65 38
       0.00061490334 -0.00012072179 0.001626579 5.478315e-05
000050 b6 9e ba 3a bb 09 87 39 53 43 26 3a 7b 3f 89 3a
       0.0014237973 0.00025756456 0.00063424296 0.0010471189
000060 e6 61 e8 b6 ff 37 db 38 e7 9d 5e b8 6d 00 1e 39
       -6.9255357e-06 0.00010453164 -5.3075983e-05 0.00015068213
000070 41 c5 f3 36 92 75 bd 38 04 22 44 39 a2 93 98 3b
       7.2649277e-06 9.0341215e-05 0.00018704688 0.004656271
000080 41 a9 c9 39 1f 1a 92 3b d5 20 a9 3a fa d8 68 3b
       0.00038463812 0.0044586803 0.0012903461 0.0035529719
000090 09 9c c2 39 46 4e b6 37 23 9a 4e 39 b9 67 4d 39
       0.0003711882 2.173254e-05 0.00019703111 0.00019588963
0000a0 83 f0 60 39 59 11 3b 39 ae e9 09 ba de 25 dc bb
       0.00021451902 0.00017840172 -0.0005260956 -0.0067183813
0000b0 0d bb 8f ba 4e 74 c9 bb b5 35 8b ba a0 95 ca bb
       -0.001096578 -0.006147898 -0.0010620864 -0.0061823875
0000c0 b1 6a 86 39 3c cf 07 39 37 0a a2 39 5f 20 a1 38
       0.00025637963 0.00012951804 0.00030906659 7.683108e-05
0000d0 28 98 77 39 77 0c 1d 39 ca 5e a2 39 49 0f 82 b8
       0.00023612438 0.0001497733 0.0003096967 -6.20173e-05
0000e0 74 ec a5 39 dc 45 90 b8 6a 2b 35 b8 67 80 98 39
       0.00031647424 -6.8794674e-05 -4.3194195e-05 0.00029087366
0000f0 28 c5 61 bb 97 64 8a 3a bd dd 1d bb 83 71 a5 37
       -0.003444979 0.0010558543 -0.0024088465 1.972239e-05
000100 40 45 3b ba 13 83 db ba 3e fa 82 39 3e 3d cc b9
       -0.0007143803 -0.0016747437 0.00024981977 -0.0003895554
000110 08 f0 d9 b8 f4 37 16 b8 73 d9 2a b9 45 9b c2 37
       -0.00010392076 -3.5814897e-05 -0.0001629347 2.3198905e-05
000120 3c 5d 2b 38 24 6e b2 b9 f9 e4 f9 36 12 ea a0 b9
       4.085641e-05 -0.00034032867 7.447434e-06 -0.00030691974
000130 c3 20 bc 36 00 f3 9f b9 ca 30 09 3c 10 1a 88 ba
       5.6066506e-06 -0.00030507892 0.008373449 -0.0010383744
000140 50 61 bb 3b 0c e7 d3 3a 33 dd 5c 3b 76 ec 81 3b
       0.0057183877 0.001616688 0.003370118 0.003964956
000150 da 1d 8c b9 9f f6 7e b9 4c 5e 61 b8 5d 6d ef b9
       -0.00026725122 -0.00024315201 -5.3732e-05 -0.00045667114
000160 ba 87 ff b5 cf 4c 05 ba 38 d3 00 3a 63 c3 9a bb
       -1.9038482e-06 -0.0005084993 0.00049142865 -0.004722999
000170 89 b9 9d b9 65 cd 80 bb 86 ce 3e 37 62 08 8b bb
       -0.00030083608 -0.003930735 1.13729675e-05 -0.0042429427
000180 ec d4 63 3a 10 0e 56 3b 88 1d d8 3a 8c f4 22 3b
       0.00086910906 0.003266219 0.0016488293 0.0024865
000190 de 01 19 3b d2 02 ec 3a 08 07 d1 ba 8e 81 2d b9
       0.002334706 0.0018006212 -0.001594753 -0.00016546829
0001a0 93 f3 c5 ba 9d 0e 83 b9 29 4b 03 ba a6 11 a5 ba
       -0.0015102498 -0.00024997155 -0.0005008453 -0.0012593761
0001b0 74 60 22 3b 51 88 86 bb 0f 32 24 3a b1 bc 13 bb
       0.0024776729 -0.0041056057 0.0006263563 -0.0022542889
0001c0 b3 9b fc ba 63 ed 9c 39 04 a3 33 3b 54 30 24 b9
       -0.0019272476 0.00029931506 0.0027410397 -0.00015658262
0001d0 dd ca 35 3b d2 ad 46 b9 92 cd b7 39 4e 66 12 3b
       0.0027739324 -0.00018947505 0.00035057642 0.002233881
0001e0 db 0e 77 3a d8 4d c4 3a 8b 4c 84 3a bd 88 bb 3a
       0.0009424516 0.0014976813 0.0010093612 0.0014307719
0001f0 91 58 ab 3a bc 7c 94 3a 1b 06 df ba dd 1f 73 3a
       0.001307266 0.0011328678 -0.0017015369 0.00092744624
000200 de 63 be ba 81 db 31 3a 05 13 ff 39 e6 3a a5 ba
       -0.0014525612 0.0006784723 0.0004865156 -0.0012606054
000210 98 ca 30 ba 80 9e b1 37 ad 88 44 ba 48 58 ca 38
       -0.0006744056 2.1173852e-05 -0.0007497173 9.648554e-05
000220 76 6c f0 38 33 4b 49 ba 62 35 d6 3b d3 87 c2 bb
       0.00011464294 -0.0007678747 0.0065371254 -0.0059366017
000230 2d 79 6e 3b 13 1e 47 bb 26 59 05 b9 71 c2 3e 3a
       0.0036388144 -0.0030382916 -0.00012717079 0.0007276899
000240 66 82 83 ba ea cd 00 3b a5 b3 83 ba 90 e6 00 3b
       -0.0010033369 0.0019653984 -0.0010048045 0.0019668676
000250 69 82 8e ba f3 4d 06 3b 01 ed 2e ba e8 5a 74 ba
       -0.0010872605 0.0020493239 -0.00066728896 -0.00093214074
000260 90 ec 73 b9 65 26 b3 ba 68 8f f4 b9 1b 80 94 ba
       -0.00023262412 -0.0013668059 -0.00046646153 -0.0011329682
000270 18 dd a4 bb 54 75 d3 3b 3b 23 4c bb db a9 94 3b
       -0.0050312392 0.0064531956 -0.0031148929 0.00453685
000280 12 26 a4 ba 7f 43 2f 3b 9b e3 b2 b8 b9 2e 80 3a
       -0.0012523553 0.0026743112 -8.530096e-05 0.000977955
000290 65 57 0a b8 75 a6 72 3a d9 86 34 3a ac e8 55 39
       -3.2983156e-05 0.00092563714 0.0006886549 0.0002039994
0002a0 08 c0 f5 b8 1f e8 a0 39 c5 a8 91 b8 4f e2 87 39
       -0.00011718279 0.00030690522 -6.9455746e-05 0.0002591782
0002b0 b9 5f 38 39 1a 08 69 37 5a 78 0d 3c 72 3e df 3a
       0.00017583267 1.38897685e-05 0.008634651 0.001703216
0002c0 14 a0 ec 3b 7e 40 4c 3b f8 74 bd 3b 5a 4b 95 3b
       0.0072212312 0.003116637 0.005781766 0.0045561017
0002d0 5d 8c 94 ba a6 cc 95 3b af 6b 4e 38 6d 19 5e 3b
       -0.0011333335 0.004571515 4.9214515e-05 0.0033889667
0002e0 9d a4 f2 3a 9d 01 d0 3a 0f c6 10 3b 75 28 22 ba
       0.0018512193 0.0015869621 0.0022090708 -0.0006185838
0002f0 ab 15 4a 3b 90 b3 c3 ba 8f 58 61 3b 3d 39 f2 ba
       0.003083567 -0.0014930833 0.003438506 -0.0018480193
000300 b6 8d fa 3b 4a 19 9c bb d2 bf 92 3b 88 2d d1 ba
       0.007646288 -0.004763757 0.004478433 -0.0015959004
000310 09 45 0a ba 1c 7a 5f 3b a8 52 c0 bb 3f 42 24 bb
       -0.0005274569 0.0034099882 -0.0058692284 -0.00250639
000320 c1 a5 cb bb 0f 9c 0d bb a7 ef 9a bb 48 08 6f bb
       -0.0062148278 -0.002160791 -0.004728276 -0.0036473442
000330 73 37 09 3c de 87 5d 3b 1b e4 13 3c 51 d5 32 3b
       0.0083750365 0.0033802907 0.009026553 0.002728779
000340 01 aa 26 3c 2f 7b cf 3a 76 26 fa 3b 7d ae 01 3a
       0.010172368 0.0015829558 0.0076339794 0.000494696
000350 a0 1c bd 3b 48 7f 1a 3b 81 da 87 3b c1 81 82 3b
       0.0057712346 0.00235744 0.0041459207 0.003982753
000360 f6 6c 1c 3b 83 7a 4b b8 7c 62 15 3b 3a 1c 77 38
       0.0023868657 -4.851307e-05 0.0022794297 5.8915677e-05
000370 7a 85 a0 ba c0 81 69 3b 93 5e 16 bb 73 89 27 bc
       -0.001224681 0.0035630316 -0.0022944554 -0.010225642
000380 7f 1b f4 ba a5 9d 2e bc 07 1b af bb 26 27 eb bb
       -0.0018623917 -0.010657703 -0.005343798 -0.0071762977
000390 1e c5 3d 3b 61 a9 32 b9 3b ee a0 3a d0 46 c4 3a
       0.0028956602 -0.00017038501 0.001227803 0.0014974717
0003a0 f9 f2 be 3a 16 42 a6 3a b5 81 b8 bb ab 10 43 3d
       0.0014568261 0.001268449 -0.0056306967 0.047623318
0003b0 e4 be 7e 3b 88 14 1c 3d 93 0b 66 3c 2a fb e4 3c
       0.0038871104 0.038105518 0.014040845 0.027951796
0003c0 7f fd 03 b9 16 c0 db bc a2 fc e2 bb e9 08 a4 bc
       -0.00012587568 -0.026824992 -0.006927089 -0.02002378
0003d0 b0 80 0e bc b9 87 95 bc 14 7d 38 bc c7 e6 0c 3c
       -0.008697674 -0.018253194 -0.01126029 0.0085999435
0003e0 e0 06 f4 bb 48 da 9c 3b a1 93 11 3b 71 f6 9f bb
       -0.0074471086 0.0047867633 0.0022213238 -0.004881673
0003f0 fc 90 8f 3c 14 0b 99 3c 0a bf 99 3c 06 dd 8e 3c
       0.017525189 0.01868204 0.018767852 0.017439377

exp_avg_sq f4 [48, 6]
000000 9e 57 2d 38 79 9c 8f 39 3c 72 25 38 7f 97 8f 39
       4.1328014e-05 0.00027391667 3.9445455e-05 0.0002738796
000010 5f ed 0e 39 dc 0e 0c 39 dc 77 3e 35 dc 26 2a 35
       0.00013630603 0.00013356976 7.0954934e-07 6.3386483e-07
000020 87 41 cf 35 49 d8 14 34 50 b3 55 35 58 15 14 35
       1.5441773e-06 1.3862258e-07 7.960962e-07 5.5165356e-07
000030 80 e3 7e 37 6d e8 a5 37 bc eb 83 37 2c 85 8e 37
       1.5192549e-05 1.9777764e-05 1.572619e-05 1.6989732e-05
000040 8d 07 83 37 99 f8 9d 37 11 9a 22 39 58 e7 de 37
       1.5619933e-05 1.883162e-05 0.00015506918 2.657219e-05
000050 b5 35 ff 38 f8 c4 30 38 92 fe 13 38 a3 80 0d 39
       0.00012169351 4.214511e-05 3.528462e-05 0.00013494729
000060 b3 55 d7 34 3a 14 b9 35 bd d3 9e 34 9e d8 60 35
       4.0109225e-07 1.3789461e-06 2.9583853e-07 8.376172e-07
000070 29 ed c6 34 67 8b 1e 35 83 7b 68 38 e8 68 29 3a
       3.705293e-07 5.9062444e-07 5.542814e-05 0.00064624706
000080 d0 05 54 38 f5 76 2b 3a d1 3e 83 39 5e b4 99 39
       5.0550152e-05 0.00065408583 0.0002503307 0.00029316818
000090 09 35 e5 35 c2 ab 3b 34 73 cb bb 35 8b 08 cf 34
       1.7077265e-06 1.7478217e-07 1.3991797e-06 3.856297e-07
0000a0 9d 0f 00 36 c4 35 7e 34 24 b6 3f 3b 39 6c 5a 3b
       1.9082574e-06 2.3675153e-07 0.0029252851 0.0033328666
0000b0 57 88 47 3b 11 1c 4d 3b 39 2d 2b 3b 73 af 71 3b
       0.0030446255 0.0031297246 0.0026119484 0.0036878258
0000c0 38 71 08 36 b2 99 f1 35 bb 6b fd 35 cd 15 d1 35
       2.0331481e-06 1.800063e-06 1.8881323e-06 1.5578058e-06
0000d0 64 d5 a0 35 7c 47 1c 36 08 ba 5c 36 95 7b c0 33
       1.1983034e-06 2.328742e-06 3.289084e-06 8.963176e-08
0000e0 b3 f9 4d 36 32 ef 5f 33 21 0c 35 35 ba cb ee 35
       3.0692725e-06 5.213878e-08 6.7445404e-07 1.7791674e-06
0000f0 33 b4 6e 39 6e 6c b2 37 02 3a 28 39 65 a8 29 37
       0.00022764578 2.1269745e-05 0.00016043338 1.0112392e-05
000100 0e e1 4b 38 a0 ee 69 38 c5 a7 91 36 2c e7 02 36
       4.860857e-05 5.5773766e-05 4.3408677e-06 1.950607e-06
000110 82 46 98 36 e1 04 b3 35 6e 4a f4 36 dd ca a1 34
       4.538161e-06 1.3337959e-06 7.2804314e-06 3.013619e-07
000120 3b 0d 84 33 5a 3b 4c 37 29 1a 57 33 2b 9c 48 37
       6.1491356e-08 1.2173166e-05 5.008238e-08 1.195729e-05
000130 68 9a 15 34 84 ea 3a 37 45 e3 79 3a 28 e1 6c 3a
       1.3932879e-07 1.1141066e-05 0.0009532462 0.00090362364
000140 e1 ee 5e 3a 03 18 7a 3a 39 22 68 3a 9b e2 74 3a
       0.00085042237 0.0009540321 0.0008855197 0.0009341628
000150 dc f7 92 36 ea f6 5f 36 ad 3c 57 36 0b 40 5a 36
       4.3799937e-06 3.3373312e-06 3.2072815e-06 3.252181e-06
000160 e9 3b 44 36 50 a3 8c 36 0f c8 0d 39 92 43 77 3b
       2.9241148e-06 4.191337e-06 0.00013521335 0.0037729484
000170 62 b8 14 3a 22 03 1e 3b 4d f1 a3 3a 2d 35 be 3a
       0.0005673227 0.0024110754 0.0012507826 0.0014511697
000180 1e 29 13 3a d2 f9 47 3a 6e 57 13 3a 71 ae 43 3a
       0.0005613732 0.00076284737 0.0005620633 0.00074646535
000190 bc b3 16 3a 08 e8 42 3a 4d cb f7 38 d6 02 12 37
       0.00057488284 0.0007435088 0.000118157455 8.702938e-06
0001a0 77 80 5f 38 0b db 7a 36 a7 6c d2 36 e8 67 8a 38
       5.3286985e-05 3.7380403e-06 6.2711365e-06 6.599707e-05
0001b0 d6 34 1f 3a ba 0b 0a 39 19 d5 ee 39 94 32 27 39
       0.0006073242 0.00013165074 0.00045553668 0.00015945203
0001c0 62 8f 3d 39 5d 85 d8 39 fd 7e f4 39 6e 2d 2e 39
       0.00018077859 0.00041298094 0.0004663392 0.00016610857
0001d0 6d ae d0 39 b4 a5 d4 38 a4 aa db 38 49 3f 39 39
       0.0003980281 0.000101398124 0.00010474518 0.0001766655
0001e0 cd 37 fd 38 9c 31 9b 39 59 56 38 39 62 98 4f 39
       0.00012074374 0.00029600866 0.00017579774 0.00019797825
0001f0 86 46 38 39 c5 d8 48 39 a0 aa 8d 3b 7c f1 c3 39
       0.0001757388 0.00019154239 0.0043233186 0.00037373218
000200 22 fd 57 3b 77 9d 11 39 f3 5b a0 39 24 04 76 3a
       0.0032957275 0.00013886938 0.00030586086 0.0009384772
000210 cf 29 87 37 36 6d 48 37 8b 75 54 37 80 04 b4 36
       1.6112723e-05 1.1946357e-05 1.2663552e-05 5.364942e-06
000220 7c cc 6d 37 7d c2 08 37 a7 cd 85 3b 44 ba e1 3a
       1.4173911e-05 8.1515145e-06 0.0040833536 0.0017221649
000230 60 af fd 3a dd e4 09 3a 25 4e 2b 3a 77 d8 c0 39
       0.0019354634 0.00052602385 0.0006534777 0.00036782373
000240 1e da ac 39 57 4e de 3a 4d 2a c3 38 b3 bb 6b 3a
       0.00032968906 0.0016960603 9.306204e-05 0.0008992508
000250 0c 79 4d 39 4b 25 87 39 66 dc 2e 39 38 f3 11 39
       0.00019595417 0.00025776992 0.00016676038 0.00013918884
000260 25 e4 25 39 0e 0d 13 39 94 57 fd 38 3d 73 3f 39
       0.00015820617 0.00014023876 0.00012080293 0.00018258109
000270 6d 45 d9 3a 4f 74 5b 3b 4a b8 e6 39 4c 4c b4 3a
       0.0016576477 0.0033486073 0.00044006325 0.0013755648
000280 1d 72 ae 38 fa d6 a2 39 9e 1f dd 37 44 e0 59 37
       8.318222e-05 0.00031059218 2.6359976e-05 1.2986424e-05
000290 a0 2f e0 37 9a 10 54 37 f3 55 c1 37 d5 34 72 37
       2.6725058e-05 1.264005e-05 2.3047416e-05 1.4436625e-05
0002a0 70 2c 84 36 85 f8 1e 37 95 9d 6f 36 d7 68 22 37
       3.9390798e-06 9.475397e-06 3.57055e-06 9.680362e-06
0002b0 f6 7d b4 36 86 11 46 37 f2 81 0a 3b 48 b2 87 3a
       5.379082e-06 1.18058e-05 0.0021134582 0.0010352815
0002c0 01 45 f8 3a 2c 8c 99 3a e5 82 cd 3a d7 15 c3 3a
       0.0018941463 0.0011714748 0.0015679268 0.0014883828
0002d0 37 aa 6e 39 06 5b 10 3b 11 45 cb 39 91 11 e5 3a
       0.00022760859 0.002202691 0.00038770636 0.0017476549
0002e0 19 06 23 3a 70 37 b3 3a fe 43 3f 3c 80 88 8f 3b
       0.0006218865 0.0013673138 0.011673925 0.0043802857
0002f0 02 2e de 3b 93 dd da 3a 64 17 d5 39 6b 93 78 3a
       0.006780387 0.0016698114 0.00040643953 0.0009482416
000300 c8 31 c7 3a 8f e0 7d 3a dd 09 a9 3a 2d 13 93 3a
       0.0015197331 0.0009684646 0.0012896616 0.0011220925
000310 80 66 b1 3a 55 11 8f 3a 46 6f c3 3a c0 a3 5f 3a
       0.0013534576 0.00109152 0.0014910481 0.00085311756
000320 e6 3f 13 3b 40 2e d1 39 74 41 b6 3a db 4f 76 3a
       0.0022468506 0.00039898045 0.0013905005 0.00093960547
000330 95 9a 32 3b ab 6d 06 3b b0 3a 27 3b 76 32 de 3a
       0.0027252783 0.0020512145 0.0025517158 0.0016952294
000340 8a e8 ce 3a cb e0 1a 3b d7 26 65 3b 7e e0 39 3a
       0.0015785855 0.0023632522 0.0034965777 0.0007090642
000350 d8 91 2c 3b c7 6d 98 3a be b4 cd 3a ac b0 0c 3b
       0.0026332047 0.0011629396 0.0015694124 0.002146761
000360 16 25 5e 3c eb 2e d8 3c 9d 88 ba 3c 1b aa 83 3c
       0.013558647 0.02638956 0.02277022 0.016072324
000370 53 22 5e 3c a9 71 d8 3c 8f 35 8a 3b c7 90 f5 3c
       0.013557988 0.026421385 0.0042178105 0.029976262
000380 15 b2 5a 3b 15 a9 03 3d 5a 93 70 3c 41 6c 61 3c
       0.0033370305 0.03214367 0.014683569 0.01375872
000390 e6 7f 98 39 ea ac d0 36 31 6a 45 39 aa 25 3a 38
       0.0002908699 6.219013e-06 0.00018826943 4.4380933e-05
0003a0 f0 6f 95 39 d5 ba 87 37 40 60 ee 3d a7 26 0a 3e
       0.00028502895 1.6180255e-05 0.11639452 0.13491307
0003b0 01 0b f9 3d c5 e0 01 3e f1 7a d0 3d 0a a5 1a 3e
       0.12160302 0.12683399 0.10179699 0.1510202
0003c0 55 97 a3 3b b5 8c 46 3c ae 23 ca 3b 11 7a 22 3c
       0.0049924054 0.012118508 0.006168804 0.009916798
0003d0 28 4c d1 3b 27 0e 1f 3c 50 8e b6 3a a5 63 58 3a
       0.0063872524 0.009707964 0.001392791 0.0008254594
0003e0 fa 3a 73 3a d7 f3 0b 3a 85 80 08 3a c0 58 19 3a
       0.00092785025 0.0005338764 0.0005207139 0.00058497116
0003f0 24 36 8b 3d ad 9b 69 3c d4 16 80 3d b4 56 88 3c
       0.06797436 0.014258307 0.06254354 0.016642906

exp_avg f4 [48, 16]
000000 37 23 d2 39 b5 a8 80 b9 6a db 84 b9 fc 18 69 39
       0.00040080558 -0.0002453976 -0.00025340478 0.00022229919
000010 84 45 12 ba 7e 29 52 b9 a9 7a 20 3a f6 1f 9d ba
       -0.00055798166 -0.00020042618 0.00061217934 -0.0011987675
000020 e1 cf af b8 27 63 1a b9 2d 15 e8 b9 2b c9 06 ba
       -8.383371e-05 -0.00014723522 -0.00044266265 -0.00051416707
000030 2a 62 3b 3a b4 8b 8c b8 b0 4c e7 39 83 4d 63 3a
       0.00071481115 -6.701742e-05 0.0004411689 0.0008670913
000040 8d 17 33 3a 3e 8d 3c ba 65 81 9f 38 26 7f 62 3a
       0.00068318174 -0.00071926776 7.6058124e-05 0.00086401624
000050 6d 3d 83 3a e7 78 19 ba 3e de 2a 3a 7c d0 c2 39
       0.0010012813 -0.00058545027 0.0006518102 0.00037157896
000060 06 97 1f 39 db 90 3c 38 52 5d 24 39 e9 c9 4f ba
       0.00015219682 4.49576e-05 0.00015675023 -0.00079265103
000070 95 ed 54 3a f8 71 87 ba 25 77 1b 3a 0d 34 38 39
       0.00081225607 -0.0010333648 0.00059305347 0.00017566998
000080 83 99 8e 39 74 39 d2 37 47 2d ea b8 a1 f9 bc 39
       0.00027198726 2.5060705e-05 -0.00011166423 0.00036044142
000090 dc 3b 18 ba 5d 60 29 b9 6f 41 87 3a df 8f bd ba
       -0.00058072596 -0.00016152994 0.0010319183 -0.0014462433
0000a0 e7 4f cf b8 fe 2a 1d 3a 61 a9 3b ba 06 75 58 ba
       -9.885412e-05 0.0005995481 -0.00071587233 -0.0008257184
0000b0 3a bc 53 3a ad c5 c6 b9 e7 1d 4d b9 99 4c bb 3a
       0.0008077059 -0.00037912783 -0.00019561463 0.0014289796
0000c0 35 75 10 3b f2 d1 ed ba 33 ce 01 ba 29 cf 26 3b
       0.0022042517 -0.0018144234 -0.00049516856 0.0025453067
0000d0 6a 74 48 3a e2 d8 ef ba d9 d5 3a 3b 97 fc ee ba
       0.00076467416 -0.0018298889 0.002850881 -0.0018233237
0000e0 6c 13 21 3a 88 6a 1e 3a c3 9c 85 ba 8d 89 45 bb
       0.00061445567 0.0006043096 -0.0010193813 -0.00301418
0000f0 64 47 48 3b 41 c7 09 bb f1 fc 3a 3b c3 3c f8 3a
       0.003056013 -0.0021023306 0.0028532112 0.0018939007
000100 e1 c4 83 39 29 18 37 39 aa 02 93 38 b5 db 1a b9
       0.00025132953 0.0001746124 7.0100024e-05 -0.00014768432
000110 09 a0 b0 b8 0b c8 cf 38 8a 76 e5 38 9a 89 c6 b9
       -8.422143e-05 9.90779e-05 0.000109416505 -0.00037868024
000120 c1 e8 b7 38 03 97 69 b9 51 80 9d b9 4a 4d 2b b8
       8.769474e-05 -0.00022276868 -0.00030040977 -4.0841558e-05
000130 83 5b 96 38 da 63 b2 b9 46 33 21 39 51 db 20 39
       7.169603e-05 -0.000340252 0.00015373257 0.00015340491
000140 19 0a e1 3b e7 e1 0d bc ac e4 36 b9 0a 9d 2a 3c
       0.006867659 -0.008659816 -0.0001744206 0.010413418
000150 98 db 1f 3c 50 70 da bb a0 1f 08 3c de 8d 77 3b
       0.009756945 -0.0066662207 0.008308321 0.0037773768
000160 47 d8 ed 3a 49 94 f2 3a 5a ae 2b 3b f6 bd 1a bc
       0.0018146121 0.0018507327 0.002619645 -0.009444704
000170 a1 8d 20 3c 4d 92 26 bc 93 19 00 3c 98 34 0a 3b
       0.009799392 -0.010166717 0.007818597 0.0021088477
000180 5b 02 cf 39 98 62 0f ba 18 80 13 ba 40 dc d7 39
       0.00039483872 -0.00054697087 -0.00056266924 0.00041172095
000190 b7 ca 33 b9 88 f2 0e ba f9 a9 85 3a 98 2c 76 ba
       -0.00017146287 -0.000545301 0.001019775 -0.00093908
0001a0 c3 6c b6 38 29 c6 e3 39 f3 38 b1 b9 72 20 95 ba
       8.698695e-05 0.00043444455 -0.000338025 -0.0011377467
0001b0 32 3e 95 3a 69 95 31 ba da 8f 45 3a 93 84 81 3a
       0.0011386333 -0.0006774278 0.0007536389 0.0009881429
0001c0 bf a1 73 bc a4 a4 12 3c 6d 95 0b 3b 45 e8 3d bc
       -0.014870106 0.008950386 0.0021298782 -0.011591022
0001d0 78 3b 56 bc f6 93 1c 3c 3c a3 22 bc c5 ad 06 bb
       -0.013075702 0.009556761 -0.009926613 -0.0020550352
0001e0 74 55 93 bb dd 43 e7 bb 1c fd c1 3a 15 70 3a 3c
       -0.004496271 -0.0070576505 0.0014800164 0.0113792615
0001f0 f7 51 37 bc 27 ba 65 3c 65 a2 2e bc 3a e8 54 bb
       -0.011188976 0.014021433 -0.010658835 -0.003248705
000200 9a 59 43 ba 96 43 12 ba 6f 3b c2 b9 84 fc c3 39
       -0.00074520113 -0.0005579529 -0.00037046845 0.00037381437
000210 22 ac 01 3a 60 ee c5 b9 52 16 96 39 48 a8 49 3a
       0.0004946609 -0.0003775237 0.0002862686 0.00076926174
000220 77 c4 b0 b9 4c 18 02 3a fb c6 68 3a 29 bb a4 b9
       -0.00033715714 0.0004962727 0.0008879748 -0.00031419963
000230 e9 a2 06 3a fe 48 6b 39 1a 2a 23 ba 55 cc 80 38
       0.000513597 0.00022438538 -0.000622423 6.1415754e-05
000240 18 70 81 39 dd 54 c0 b9 a8 98 a4 39 90 e7 27 3a
       0.00024688314 -0.00036684322 0.00031394255 0.000640505
000250 6f e6 a7 39 4e 42 c4 b9 7c de ee 39 65 3b 1f b9
       0.0003202441 -0.00037433434 0.0004556066 -0.00015185548
000260 ec 1a a4 38 8e c9 42 b9 8f b0 84 b8 58 d6 11 ba
       7.825144e-05 -0.00018576367 -6.327137e-05 -0.0005563251
000270 2b e1 30 3a 45 41 f1 b9 87 6e 8b 39 3f 7b b2 39
       0.000674742 -0.00046015732 0.00026594495 0.0003404263
000280 02 b5 ef bb dc 17 b0 3a 86 03 01 ba ee 3f 1d bb
       -0.007315279 0.0013434845 -0.00049214845 -0.0023994404
000290 61 5b a5 3a 4c b1 3d 3a 4f a4 80 bb c0 5f d2 3b
       0.0012615734 0.0007236197 -0.003925837 0.0064201057
0002a0 dc d3 09 bb 39 e8 3e 3b 9b bd 99 3b 77 a5 79 3b
       -0.002103082 0.0029130115 0.004691792 0.003809301
0002b0 e4 a7 66 bb 92 b8 b8 3b bc fe d4 bb 0e 33 d7 bb
       -0.0035195285 0.005637237 -0.0065000933 -0.0065673655
0002c0 31 8e ea 39 3b 2e cc 39 c4 f4 1f 38 31 bb 3d ba
       0.000447379 0.00038944356 3.813651e-05 -0.00072376715
0002d0 26 2e 72 ba 32 76 c1 39 c9 0e 0e 38 78 3d 87 ba
       -0.0009238444 0.0003689989 3.3869208e-05 -0.0010318002
0002e0 5e db 32 b9 15 f8 9d b9 e2 96 2e ba 5d 2b 07 38
       -0.00017057123 -0.0003013021 -0.00066600565 3.2226893e-05
0002f0 ae 22 35 b9 b4 7b dc b9 21 39 d7 38 83 32 55 3a
       -0.00017274424 -0.00042053836 0.0001026264 0.0008132832
000300 e2 a4 0d 3b 98 1e 8d 39 35 c0 c1 38 5f 44 3f b9
       0.002161317 0.0002691641 9.2387585e-05 -0.0001824065
000310 d8 0a da b9 bf 1b 90 b8 7f 07 08 3a 45 fd 02 bb
       -0.0004158828 -6.871623e-05 0.0005189105 -0.0019987386
000320 f3 9f 13 3a 52 3d 21 ba 84 76 da ba d3 16 c0 b9
       0.0005631439 -0.00061508 -0.00166674 -0.000366381
000330 4c ea da 39 86 a4 f0 ba 78 d5 b8 3a 3c 71 d2 3a
       0.00041754765 -0.0018359579 0.0014101705 0.0016055475
000340 b9 c5 dc 3b 39 35 92 bb 6f 60 b6 ba 6a 55 bf 3b
       0.0067374376 -0.004461911 -0.0013914237 0.0058390396
000350 7a bd df 3a 7f 97 81 bb 24 95 d3 3b ce 39 87 bb
       0.0017070018 -0.0039548273 0.006456988 -0.004126764
000360 69 6d 65 3a 6d c3 22 3a 33 91 23 bb 1b a1 ef bb
       0.000875196 0.000620893 -0.0024958372 -0.0073129064
000370 b5 42 e8 3b cb 2e 03 bc 62 33 ce 3b 0b 4a d6 3b
       0.00708803 -0.008006762 0.0062927464 0.0065395883
000380 e8 c8 93 ba 57 64 b7 39 97 78 36 b7 c1 f1 8b b9
       -0.0011275085 0.0003497924 -1.0876122e-05 -0.00026692267
000390 e1 65 43 ba 1d fc bd 39 31 01 22 ba 4a 06 31 b9
       -0.0007453841 0.00036236728 -0.0006179987 -0.00016882378
0003a0 a7 01 30 38 8f 21 3b 39 cb 60 30 39 6f 6b 29 3a
       4.196321e-05 0.00017846211 0.00016820726 0.0006462847
0003b0 df f3 f6 b9 cf 1e 0e 3b 58 ea 3a ba c4 fa 2b ba
       -0.00047102474 0.0021685844 -0.0007130257 -0.00065604993
0003c0 95 9a a5 bb 65 d1 87 3b 8b f6 c6 3a c7 9d c9 bb
       -0.005053828 0.004144835 0.0015179677 -0.0061528417
0003d0 68 4f fa bb 4d f5 c0 3b d1 02 8e bb 14 30 c1 ba
       -0.0076388605 0.005888617 -0.004333832 -0.001473906
0003e0 de 50 35 bb 21 d2 b8 bb 5f e5 29 3a 97 42 af 3b
       -0.0027666609 -0.0056402837 0.00064810173 0.0053485143
0003f0 8d c7 b5 bb 62 c2 a0 3b 07 a0 8b bb e4 d9 d3 3a
       -0.00554747 0.0049059847 -0.00426102 0.0016162959
