saved_models/slow_fast/checkpoint1.pth (torch, 53928 bytes, 48 tensors)

rnn_slow.weight_ih_l0 f4 [48, 6]
-0.051984325 0.08849131 0.7113157 -0.35174227 -0.27280182 0.554361 0.044138793 -0.13273527
0.3824626 -0.36605525 -0.4199146 0.2672388 -0.4117558 0.06003619 -0.21704401 0.23866905
-0.19453086 0.02949676 -0.09826875 -0.0018965676 0.09917187 0.021121897 -0.35814068 -0.09585191
0.056030367 -0.30685422 0.6460798 -0.65112156 -0.2777906 0.5990714 -0.344938 0.1248771
0.41438815 -0.18246262 0.2615297 -0.13706736 -0.12479603 0.31653723 0.35932866 -0.20028912
0.4130927 -0.06770089 0.18538946 -0.20226115 -0.11548468 -0.114129566 -0.09401825 -0.21693191
0.113592975 0.00867514 0.5988035 -0.5985547 -0.530233 0.574661 -0.1684436 0.1719238
0.46698588 -0.50227046 0.50108993 -0.46064734 0.07126575 -0.10787503 -0.38227823 0.34733516
-0.021163257 0.036868174 -0.2594808 0.05911753 0.742098 -0.612016 0.68465984 -0.22620234
-0.14139916 0.32750186 -0.12946106 0.034175128 -0.2406899 0.65134 0.19339205 -0.05168523
-0.10514488 -0.044383973 0.49730912 0.03866602 -0.4987006 0.20049714 0.2852311 -0.39930174
-0.00049448176 -0.22931728 0.068224244 -0.17697963 0.24670437 -0.2591737 -0.114602715 0.23090006
-0.05412546 -0.025414323 0.28833103 -0.27875668 -0.08618321 0.22597381 -0.2762422 0.25060493
0.51674134 -0.20499699 -0.39089122 0.7767466 -0.08979472 -0.15735686 0.15921496 -0.6194171
0.6876639 -0.5282418 -0.14791377 -0.057084445 0.6892221 -0.6403762 -0.5298146 0.17800722
0.030075593 -0.08255717 0.3689613 -0.5371983 -0.422993 0.27459145 -0.16348472 -0.07097972
0.44048452 -0.18929589 0.1133992 -0.55979246 0.17354716 0.011372345 0.60205126 -0.43335703
0.18715657 0.011687026 -0.25269896 0.18635912 0.042450033 -0.06654243 -0.17985994 0.29944146
-0.3338221 -0.27654764 0.71838534 -0.47126934 -0.4998652 0.28382206 -0.14623302 -0.049400624
0.4262349 -0.5384607 0.4824742 -0.29333785 -0.2763434 -0.040651217 0.2520895 -0.57506335
0.35035333 -0.40708703 0.096040785 -0.32512638 0.5856554 -0.5113228 0.41098195 -0.61103624
-0.23543856 -0.15131757 0.05038503 -0.18243961 -0.16300134 0.14395033 -0.023866372 -0.30687672
0.6031054 -0.7196961 0.07102529 -0.27483717 -0.20234095 -0.3955029 0.29224882 0.028872147
-0.08472308 -0.11208209 -0.09370772 -0.19236727 0.59585583 -0.18742874 -0.39510062 0.17814057
0.2036325 0.3010405 0.48339504 -0.5069501 -0.31585717 0.2909476 0.024217442 0.21867797
0.5304178 -0.52207184 -0.28563458 0.14149056 -0.24686584 -0.08046752 -0.54461825 0.362795
-0.29992047 -0.077315055 -0.004512471 -0.2908652 0.34181824 -0.13613573 -0.05112857 0.34126377
-0.0026670145 0.13435736 -0.5480183 0.31920353 0.44450635 -0.33164582 0.223725 -0.015909526
0.5264553 -0.44682562 0.3956175 -0.25769404 0.18671447 -0.122398265 0.28443158 -0.04769747
0.22321714 -0.11936157 0.14737394 0.0055974936 0.19175228 0.3926564 -0.12524551 0.06075068
-0.06228944 -0.05776059 -0.4374535 0.42927074 0.24934362 -0.56695086 -0.0014416086 -0.03774861
0.6435741 -0.25292742 0.10736686 -0.37758535 0.078546844 0.13408028 0.56140727 0.033210777
00000000: 84ed 54bd ef3a b53d c918 363f 9017 b4be
00000010: aeac 8bbe 9aea 0d3f e1ca 343d c1eb 07be
00000020: 23d2 c33e 986b bbbe 0cff d6be 86d3 883e
00000030: a8d1 d2be 82e8 753d c940 5ebe a965 743e
00000040: 1933 47be 30a3 f13c 2041 c9bd 4096 f8ba
00000050: 9f1a cb3d d407 ad3c 375e b7be 024e c4bd
00000060: 1980 653d ff1b 9dbe 7c65 253f e7af 26bf
00000070: 923a 8ebe be5c 193f b79b b0be 91bf ff3d
00000080: af2a d43e 7bd7 3abe 39e7 853e 635b 0cbe
00000090: 1095 ffbd 2b11 a23e edf9 b73e 9718 4dbe
000000a0: e380 d33e c4a6 8abd bcd6 3d3e 8c1d 4fbe
000000b0: 3b83 ecbd c3bc e9bd a48c c0bd 6623 5ebe
000000c0: 6fa3 e83d 2d22 0e3c 304b 193f e13a 19bf
000000d0: 5abd 07bf fc1c 133f 7b7c 2cbe cb0c 303e
000000e0: c618 ef3e cc94 00bf 6e47 003f f8d9 ebbe
000000f0: c7f3 913d 95ed dcbd f9b9 c3be ead5 b13e
00000100: 915e adbc 1503 173d abda 84be 3925 723d
00000110: 22fa 3d3f 15ad 1cbf de45 2f3f 96a1 67be
00000120: f1ca 10be 53ae a73e 7191 04be 38fb 0b3d
00000130: 6a77 76be 38be 263f 9108 463e e4b3 53bd
00000140: 3356 d7bd f8cb 35bd 4d9f fe3e 4360 1e3d
00000150: af55 ffbe 1f4f 4d3e d009 923e 4771 ccbe
00000160: 1ca0 01ba 26d2 6abe 27b9 8b3d 263a 35be
00000170: 12a0 7c3e 6ab2 84be d4b4 eabd 1171 6c3e
00000180: a9b2 5dbd b331 d0bc 20a0 933e 32b9 8ebe
00000190: d380 b0bd ae65 673e 9e6f 8dbe 4a4f 803e
000001a0: 2949 043f bbea 51be e522 c8be ddd8 463f
000001b0: 4be6 b7bd 2822 21be 3f09 233e 1e92 1ebf
000001c0: be0a 303f db3a 07bf b576 17be 61d1 69bd
000001d0: dc70 303f b2ef 23bf eea1 07bf 8647 363e
000001e0: 1761 f63c bc13 a9bd 7fe8 bc3e d485 09bf
000001f0: 8a92 d8be 4097 8c3e 8a68 27be d15d 91bd
00000200: 3087 e13e c8d6 41be d73d e83d 8f4e 0fbf
00000210: 59b6 313e 1253 3a3c 0820 1a3f f9e0 ddbe
00000220: f9a5 3f3e f17a 3f3c c261 81be edd4 3e3e
00000230: 16e0 2d3d 6647 88bd 342d 38be 6450 993e
00000240: bbea aabe a797 8dbe 1ae8 373f 374a f1be
00000250: 55ee ffbe 2051 913e 1cbe 15be 4f58 4abd
00000260: 763b da3e 8fd8 09bf dc06 f73e 6130 96be
00000270: e27c 8dbe e481 26bd e011 813e 5a37 13bf
00000280: 8361 b33e b66d d0be 08b1 c43d f776 a6be
00000290: 83ed 153f 0de6 02bf 3a6c d23e df6c 1cbf
000002a0: ce16 71be fef2 1abe 8960 4e3d 73d1 3abe
000002b0: d3e9 26be b767 133e 6983 c3bc f21e 9dbe
000002c0: 1e65 1a3f 013e 38bf b575 913d 75b7 8cbe
000002d0: 7732 4fbe 5b7f cabe a3a1 953e 4885 ec3c
000002e0: 4b83 adbd 4b8b e5bd d5e9 bfbd edfb 44be
000002f0: 028a 183f 52ed 3fbe a14a cabe 7b6a 363e
00000300: 0a85 503e fb21 9a3e 8e7f f73e 7bc7 01bf
00000310: 08b8 a1be 15f7 943e a863 c63c 1eed 5f3e
00000320: 76c9 073f 80a6 05bf b23e 92be e7e2 103e
00000330: 66ca 7cbe 28cc a4bd 1a6c 0bbf 44c0 b93e
00000340: 2d8f 99be 5b57 9ebd 5add 93bb 49ec 94be
00000350: cd02 af3e 2a67 0bbe 316c 51bd 20ba ae3e
00000360: 14c9 2ebb fa94 093e ed4a 0cbf a56e a33e
00000370: 5696 e33e 7bcd a9be 2b18 653e b254 82bc
00000380: c6c5 063f 54c6 e4be 618e ca3e 79f0 83be
00000390: 1432 3f3e f1ab fabd 04a1 913e 6c5e 43bd
000003a0: 0993 643e d773 f4bd 32e9 163e 2e6b b73b
000003b0: b65a 443e 420a c93e 5c40 00be b4d5 783d
000003c0: 3623 7fbd 5e96 6cbd e8f9 dfbe 60c9 db3e
000003d0: ef53 7f3e b123 11bf 5cf4 bcba 499e 1abd
000003e0: 46c1 243f b47f 81be 28e3 db3d de52 c1be
000003f0: 2bdd a03d 574c 093e 63b8 0f3f 0608 083d

rnn_slow.weight_hh_l0 f4 [48, 16]
0.14155303 0.04783255 -0.09189151 0.039811462 -0.12022499 -0.14881456 -0.21427515 -0.21614741
-0.15308529 -0.1974017 0.13348782 -0.08869601 -0.09330022 -0.12422265 0.102501996 0.0732896
0.19069795 -0.2013624 0.18074223 -0.14688629 0.14726804 -0.18332243 0.53766286 0.057063304
0.07283607 -0.19068493 0.29978445 0.0063536474 0.30764315 -0.17825212 0.016504379 0.28012943
0.053550124 -0.06875379 0.32503417 0.2846673 0.2005333 -0.08633682 -0.006903633 0.115512535
-0.21267582 0.17806141 0.032829676 -0.0126986075 -0.04462713 -0.03883634 -0.040418662 0.050407194
-0.2924539 -0.31831235 0.19866642 0.079026505 0.30340368 -0.27495986 -0.023020975 0.014738186
-0.14174664 0.12566583 0.04167931 -0.02970737 -0.052411534 0.21270588 -0.04650664 0.2873061
0.25687388 0.27251476 0.16996929 0.015401803 0.07510161 -0.4452322 0.18149364 0.19178958
-0.24682449 -0.06931313 0.021100108 0.04830845 -0.07968636 0.19069831 0.28232214 0.0012479067
0.2577148 -0.03915831 -0.054324716 0.37592188 -0.10532345 0.19408935 -0.099341 0.04666341
0.076218754 -0.18717352 -0.42449632 -0.3472485 -0.029273259 0.08565474 0.083752654 0.09982865
0.1783852 -0.13030714 -0.06352617 0.3573704 -0.44709834 0.19303292 -0.25504425 0.037189662
-0.39196163 -0.1385876 -0.16221507 -0.07853452 -0.28721532 -0.11192831 0.18959244 -0.27016535
-0.39158523 -0.1845221 -0.14479177 -0.11063184 0.49633867 0.3176259 0.05577798 -0.37442598
0.33619526 0.14038812 0.12866831 0.031920824 -0.066162415 -0.0036778618 -0.12538582 0.13159183
0.019892702 0.20327367 -0.0976949 0.09738856 0.1574471 -0.264546 -0.108847655 0.12456542
-0.25740954 0.18687144 0.110646464 0.06373175 -0.11512779 -0.18468799 -0.17522413 0.37678662
-0.30017206 0.048152924 0.1901405 0.33527303 0.06279461 0.22998668 -0.19086514 0.30060846
0.062327858 0.22284617 -0.25174576 0.0036713525 0.15997916 0.02020682 -0.10660949 0.08298235
-0.3316801 0.1214479 0.17867278 -0.29617107 0.28720355 -0.25853732 0.08253201 0.19169894
0.3075652 -0.276934 0.22613023 0.12377319 -0.02781096 -0.13880087 0.20444302 0.062093813
-0.27058813 0.17903295 -0.13898724 0.15234323 -0.1796322 0.17559981 -0.06233588 -0.4406149
0.31141788 0.23349392 -0.21391852 0.2702267 -0.04569538 -0.21207918 -0.3143313 0.10711005
0.11654403 0.10087548 0.25820392 0.023619944 0.38775274 -0.32675123 -0.110411525 0.112923786
0.0582283 -0.20538522 -0.45054802 0.24559996 0.18849546 0.247799 0.05282132 0.12913838
-0.061307907 0.1318757 0.012179548 0.15545736 0.21619278 -0.026715241 -0.12352059 -0.007953606
-0.06944081 -0.13950853 0.26482165 -0.3311472 0.21361138 -0.008617808 0.01364904 0.35370588
-0.15334365 0.06929737 0.037970856 0.12046781 -0.32034728 0.15153821 -0.044832934 0.116453096
-0.37593114 -0.28369376 -0.1620001 0.18901262 -0.15607315 0.1930733 0.39270568 -0.50179774
0.23151587 0.0061808224 0.21202448 -0.18749614 0.08616052 0.21123168 0.47530988 -0.1121427
-0.30662808 -0.11111906 0.41691455 -0.07559587 0.118597075 0.28011334 -0.25971454 -0.08303234
00000000: 47f3 103e 10ec 433d 9e31 bcbd 5811 233d
00000010: 8538 f6bd d862 18be f26a 5bbe bf55 5dbe
00000020: 64c2 1cbe ac23 4abe 08b1 083e 41a6 b5bd
00000030: 3014 bfbd 7268 febd 91ec d13d dc18 963d
00000040: 5346 433e f231 4ebe 7e14 393e 5c69 16be
00000050: 6fcd 163e e0b8 3bbe 46a4 093f 36bb 693d
00000060: 142b 953d e942 43be 597d 993e 4232 d03b
00000070: 6783 9d3e b987 36be 3134 873c 206d 8f3e
00000080: 6057 5b3d c9ce 8cbd e16a a63e eabf 913e
00000090: 9a58 4d3e 5cd1 b0bd df37 e2bb d691 ec3d
000000a0: b1c7 59be bb55 363e 6978 063d d20d 50bc
000000b0: f0ca 36bd db12 1fbd 0a8e 25bd c677 4e3d
000000c0: 85bc 95be d6f9 a2be 366f 4b3e a6d8 a13d
000000d0: ba57 9b3e 8ac7 8cbe 7c96 bcbc 6f78 713c
000000e0: 0826 11be 8bae 003e edb7 2a3d df5c f3bc
000000f0: 7aad 56bd 92cf 593e bf7d 3ebd c919 933e
00000100: f984 833e 0e87 8b3e 6e0c 2e3e d857 7c3c
00000110: dfce 993d 7af5 e3be 78d9 393e 7d64 443e
00000120: 8fbf 7cbe 0bf4 8dbd 22da ac3c 15df 453d
00000130: 9a32 a3bd 6b46 433e 878c 903e cd90 a33a
00000140: 32f3 833e 7764 20bd 9883 5ebd d578 c03e
00000150: d2b3 d7bd 5cbf 463e 4b73 cbbd 2222 3f3d
00000160: 9418 9c3d 6aaa 3fbe 9557 d9be 8eca b1be
00000170: 79ce efbc c16b af3d 8386 ab3d f772 cc3d
00000180: 9caa 363e 3c6f 05be 021a 82bd 41f9 b63e
00000190: 13ea e4be 6caa 453e 2995 82be 3054 183d
000001a0: 32af c8be e8e9 0dbe b51b 26be b5d6 a0bd
000001b0: e30d 93be ab3a e5bd 8524 423e 1d53 8abe
000001c0: dc7d c8be 5df3 3cbe 4b44 14be f292 e2bd
000001d0: 1a20 fe3e dd9f a23e 7377 643d c3b4 bfbe
000001e0: c921 ac3e e7c1 0f3e a0c1 033e 69bf 023d
000001f0: 2980 87bd 4808 71bb 2465 00be 02c0 063e
00000200: 05f6 a23c f926 503e 4414 c8bd a773 c73d
00000210: d039 213e 9372 87be 85eb debd 281c ff3d
00000220: 2fcb 83be 3a5b 3f3e 9d9a e23d cb85 823d
00000230: 1ec8 ebbd d91e 3dbe f46d 33be 2dea c03e
00000240: 27b0 99be 003c 453d 31b4 423e e8a8 ab3e
00000250: 769a 803d a181 6b3e 2772 43be 5ae9 993e
00000260: 7f4b 7f3d c931 643e d2e4 80be 139b 703b
00000270: 94d1 233e c688 a53c 1456 dabd a6f2 a93d
00000280: f9d1 a9be adb9 f83d fff5 363e bca3 97be
00000290: 580c 933e 015f 84be 8b06 a93d ba4c 443e
000002a0: 3079 9d3e 4bca 8dbe af8e 673e cc7c fd3d
000002b0: cfd3 e3bc d121 0ebe 8359 513e 1556 7e3d
000002c0: 878a 8abe 6a54 373e ac52 0ebe ddff 1b3e
000002d0: 81f1 37be 70d0 333e e853 7fbd 4798 e1be
000002e0: 2a72 9f3e 0819 6f3e 750d 5bbe 275b 8a3e
000002f0: 142b 3bbd 492b 59be 08f0 a0be 845c db3d
00000300: a3ae ee3d ce97 ce3d 4e33 843e 9d7e c13c
00000310: 8787 c63e f04b a7be 701f e2bd 9644 e73d
00000320: cc80 6e3d 8150 52be 3bae e6be 8e7e 7b3e
00000330: f404 413e 05bf 7d3e 2b5b 583d da3c 043e
00000340: 001e 7bbd 6c0a 073e ba8c 473c 3730 1f3e
00000350: a461 5d3e ecd9 dabc 5df8 fcbd d74f 02bc
00000360: fc36 8ebd 53db 0ebe b496 873e 208c a9be
00000370: f1bc 5a3e b531 0dbc 39a0 5f3c f018 b53e
00000380: 1e06 1dbe c8eb 8d3d 5487 1b3d d4b7 f63d
00000390: 8f04 a4be d52c 1b3e bda2 37bd f67e ee3d
000003a0: 0c7a c0be 4f40 91be 5be3 25be 868c 413e
000003b0: a4d1 1fbe 02b5 453e b810 c93e d175 00bf
000003c0: 7f12 6d3e 7f88 ca3b f21c 593e fdfe 3fbe
000003d0: ed74 b03d 1e4d 583e d15b f33e 12ab e5bd
000003e0: 5bfe 9cbe 6492 e3bd d375 d53e 02d2 9abd
000003f0: 06e3 f23d 046b 8f3e 4ef9 84be dc0c aabd

rnn_slow.bias_ih_l0 f4 [48]
-0.017952891 0.29865563 0.039774004 0.17477079 -0.11163814 0.106046006 0.06585604 0.018056577
-0.21498232 0.21352664 0.15137021 0.005919579 0.2624333 -0.036140334 0.017470626 -0.11010084
-0.35796008 0.007874391 -0.20126201 -0.13254751 -0.03813263 0.01222487 -0.055639494 0.11826368
-0.31501797 -0.29883245 -0.18631525 -0.16190939 -0.28845173 -0.03831751 -0.24561045 -0.027584216
0.20573391 0.2774914 -0.07849105 0.11711772 0.009812451 0.06389494 -0.10993888 0.34915167
0.21056083 -0.014567285 0.039070617 0.06040857 0.21347207 0.11250946 -0.2379639 -0.012878171
00000000: f111 93bc 64e9 983e 11ea 223d 1df7 323e
00000010: 8aa2 e4bd a62e d93d 88df 863d 63eb 933c
00000020: 5324 5cbe baa6 5a3e cb00 1b3e 07f9 c13b
00000030: a85d 863e e307 14bd 8f1e 8f3c 8d7c e1bd
00000040: 8b46 b7be 9703 013c a117 4ebe 89ba 07be
00000050: f630 1cbd d24a 483c 3de6 63bd 3a34 f23d
00000060: 094a a1be 9100 99be 6dc9 3ebe 93cb 25be
00000070: f2af 93be d2f2 1cbd 4e81 7bbe 4bf8 e1bc
00000080: e9ab 523e 5a13 8e3e eabf a0bd 6adb ef3d
00000090: 67c4 203c 5adb 823d a327 e1bd 02c4 b23e
000000a0: 429d 573e 9fab 6ebc 8308 203d fa6e 773d
000000b0: 6c98 5a3e 5c6b e63d cfac 73be f7fe 52bc

rnn_slow.bias_hh_l0 f4 [48]
0.05266128 0.26300606 -0.08713998 0.14223346 0.09861868 -0.08915253 -0.09033177 -0.44557709
-0.15713242 -0.04831029 -0.16149698 0.10998091 0.26002178 -0.04156945 0.2469636 0.06274704
-0.30066416 -0.21465069 0.082456194 0.05862351 0.18200043 0.07519255 0.00015622412 0.06377362
-0.07885288 -0.15897346 -0.2061344 -0.05449841 -0.33377337 -0.37536758 0.027192725 -0.19756852
0.2965412 0.037606023 0.07180378 0.1103728 -0.49934697 0.24428308 0.39720732 -0.1372276
-0.29277623 0.2558653 -0.060262732 -0.3235385 0.06840025 0.090488754 -0.28519663 -0.10895825
00000000: 5bb3 573d bba8 863e 7276 b2bd a6a5 113e
00000010: 97f8 c93d 9a95 b6bd ddff b8bd ae22 e4be
00000020: 52e7 20be 03e1 45bd 775f 25be ac3d e13d
00000030: 9321 853e ba44 2abd 07e4 7c3e 8581 803d
00000040: a7f0 99be 64cd 5bbe cbde a83d 351f 703d
00000050: 525e 3a3e 8dfe 993d 18d0 2339 be9b 823d
00000060: 9e7d a1bd f0c9 22be e514 53be ba39 5fbd
00000070: 58e4 aabe 2e30 c0be 47c3 de3c 674f 4abe
00000080: 40d4 973e c608 1a3d dc0d 933d 220b e23d
00000090: 68aa ffbe 5825 7a3e c25e cb3e 6485 0cbe
000000a0: c4e6 95be c700 833e 0ed6 76bd d7a6 a5be
000000b0: 6e15 8c3d 2b52 b93d 4b05 92be 8125 dfbd

project_sf.weight f4 [16, 16]
0.06194796 0.12969455 -0.14462824 0.19660501 -0.09570122 -0.23480321 0.06696606 -0.12947904
0.06008694 -0.055015624 -0.02929154 -0.12503643 -0.07077624 -0.08264342 -0.06085512 0.15877496
-0.031829994 -0.07153309 -0.024173012 0.061294828 0.12924302 -0.06071616 -0.16197494 -0.0060505792
0.17034493 0.15635984 0.007929619 0.004742989 0.14055382 0.19671446 0.17634493 0.08144564
-0.114146106 -0.19809592 -0.16759841 0.14373288 -0.124609195 -0.09388131 0.13260819 -0.1125302
0.046821564 0.22966442 -0.012876824 -0.06907374 -0.22793059 0.080365404 -0.22048862 -0.14285699
0.012984053 0.024318853 0.19150499 -0.075902335 -0.19792376 0.08221634 0.12508284 -0.23137584
-0.09198688 -0.11960605 -0.101327896 -0.14345428 -0.12793574 0.04682937 0.0015452458 0.2520496
-0.14789301 0.17919679 -0.116370276 -0.16990265 -0.042793974 -0.1943775 0.2442579 0.11570024
0.13094825 -0.10440682 0.0028743206 0.17787117 -0.09492663 0.16992696 0.023295578 -0.20453118
0.20382434 -0.043947957 -0.14312464 0.13073468 0.22708234 -0.108785115 -0.055018786 0.24495989
-0.11407429 -0.02602159 0.034459308 0.20204325 0.19262123 0.12363618 0.22044058 0.17377773
-0.1216488 -0.18872741 -0.2501826 -0.24562946 -0.19103044 0.08132003 0.23841965 0.093077235
0.09571419 -0.20399985 0.2019471 -0.20050375 -0.073590435 -0.19990063 0.14329627 -0.06699731
-0.14966524 0.13741542 0.23197284 -0.24693269 0.23254462 0.09223861 -0.16348788 0.17474487
-0.16441533 -0.12375832 0.14564073 -0.107334025 -0.26412934 -0.2174085 0.21167193 -0.20774631
0.18134868 0.22773083 0.16512847 0.010458181 -0.12488357 -0.19411735 0.06276941 0.25260532
0.25855222 0.17491291 -0.14502324 0.08269763 -0.042025343 -0.078136206 -0.17721198 -0.17980056
-0.13804549 0.11632901 0.052492 0.07963935 -0.02339178 -0.1244635 -0.112699196 -0.12637617
0.10384841 -0.06878846 -0.16357195 0.17149243 0.18708377 0.09917783 -0.1749376 0.0039011817
0.15737492 -0.21251124 -0.060199995 0.14625096 -0.17260095 0.23120184 -0.21239376 -0.094206765
0.13212778 -0.18930678 0.035838276 0.21985266 -0.1867073 -0.019113325 -0.03142722 0.17399703
0.033812087 0.029569734 -0.10003381 0.0037325616 -0.19909705 0.0076365806 0.14786047 0.15538569
0.15493727 0.021544665 -0.07340566 -0.029558802 -0.018687928 0.21916823 -0.0014383085 -0.173679
0.20726417 0.19616918 -0.17626266 -0.1972155 -0.13919953 0.21377927 0.16157182 0.11176638
0.1817215 0.2490701 -0.008195093 -0.23165697 -0.022791166 0.13608558 -0.14857017 0.045508496
0.08852369 0.16726722 0.058242995 0.119723275 0.11428021 -0.21595323 -0.22140883 -0.18576893
-0.016443243 0.09827016 -0.009440842 -0.14075382 -0.16437918 0.09486344 -0.17055959 -0.10457687
-0.17734651 -0.094034225 0.21458237 -0.26576135 0.165692 0.22896045 -0.24564946 0.0073225815
0.06608265 0.17225595 0.18772906 0.16288477 -0.0031359687 0.15666755 0.011183816 -0.18666565
-0.035166185 0.26383618 -0.084578596 0.12580588 0.21558042 0.1722746 -0.113917395 -0.12591226
-0.20395386 0.17677301 0.059034247 0.10802974 0.26726758 -0.047262013 -0.05219707 -0.04969247
00000000: 25bd 7d3d a6ce 043e 6d19 14be d352 493e
00000010: 00ff c3bd 4170 70be 8025 893d 2796 04be
00000020: b91d 763d 1058 61bd d0f4 efbc 8d09 00be
00000030: 22f3 90bd f440 a9bd 3843 79bd e795 223e
00000040: 2b60 02bd f17f 92bd 7b06 c6bc 4910 7b3d
00000050: 4858 043e 82b1 78bd c2dc 25be f043 c6bb
00000060: e76e 2e3e cb1c 203e 3ceb 013c 136b 9b3b
00000070: 57ed 0f3e 846f 493e c493 343e f9cc a63d
00000080: 6fc5 e9bd a8d9 4abe eb9e 2bbe b62e 133e
00000090: 1b33 ffbd d844 c0bd 71ca 073e 3c76 e6bd
000000a0: f8c7 3f3d 262d 6b3e 50f9 52bc 8876 8dbd
000000b0: a366 69be 9e96 a43d c5c7 61be 1a49 12be
000000c0: 11bb 543c 5538 c73c e219 443e af72 9bbd
000000d0: 87ac 4abe 0a61 a83d b715 003e caed 6cbe
000000e0: 9e63 bcbd 04f4 f4bd 0085 cfbd aee5 12be
000000f0: 9601 03be 27d0 3f3d d889 ca3a a50c 813e
00000100: 4471 17be 5d7f 373e 8a53 eebd f6fa 2dbe
00000110: bc48 2fbd e50a 47be be1e 7a3e 3ff4 ec3d
00000120: 4c17 063e 3ed3 d5bd 195f 3c3b dc23 363e
00000130: e568 c2bd 5501 2e3e 5ed6 be3c 9f70 51be
00000140: 54b7 503e c602 34bd 448f 12be 50df 053e
00000150: 4688 683e bbca debd 615b 61bd c4d6 7a3e
00000160: c89f e9bd 3b2b d5bc 3425 0d3d 6de4 4e3e
00000170: 803e 453e f734 fd3d 2dbb 613e caf2 313e
00000180: 0223 f9bd c241 41be ef17 80be 4a86 7bbe
00000190: 7c9d 43be 1e8b a63d 4824 743e 479f be3d
000001a0: cd05 c43d 56e5 50be 38cb 4e3e db50 4dbe
000001b0: 95b6 96bd c0b2 4cbe 42bc 123e e335 89bd
000001c0: d841 19be a1b6 0c3e 4a8a 6d3e ecdb 7cbe
000001d0: 2d20 6e3e 99e7 bc3d 5e69 27be 52f0 323e
000001e0: 7e5c 28be 0175 fdbd d822 153e f1d1 dbbd
000001f0: f63b 87be 55a0 5ebe 87c0 583e 73bb 54be
00000200: 78b3 393e 4532 693e 7017 293e ca58 2b3c
00000210: f5c2 ffbd b3c6 46be 408d 803d 7c55 813e
00000220: f560 843e 5f1c 333e f980 14be 605d a93d
00000230: c422 2cbd e005 a0bd 0f77 35be a31d 38be
00000240: cc5b 0dbe e73d ee3d da01 573d f519 a33d
00000250: 1ea0 bfbc b8e6 febd d6ce e6bd c168 01be
00000260: 7aae d43d f7e0 8cbd 687f 27be b69b 2f3e
00000270: e392 3f3e bf1d cb3d d822 33be f8aa 7f3b
00000280: e426 213e 8c9c 59be 4594 76bd d0c2 153e
00000290: 4ebe 30be 2dc0 6c3e c07d 59be 7aef c0bd
000002a0: 814c 073e a3d9 41be 28cb 123d 0e21 613e
000002b0: 3330 3fbe 8c93 9cbc d4b9 00bd 472c 323e
000002c0: 8b7e 0a3d 3a3c f23c 87de ccbd fe9d 743b
000002d0: 19e0 4bbe 483c fa3b bc68 173e 6d1d 1f3e
000002e0: e0a7 1e3e 707e b03c b555 96bd 4d25 f2bc
000002f0: 6d17 99bc a36d 603e a085 bcba e8d8 31be
00000300: 0f3d 543e 93e0 483e 337e 34be dcf2 49be
00000310: 528a 0ebe f4e8 5a3e 1573 253e c6e5 e43d
00000320: 3315 3a3e 3b0c 7f3e b644 06bc 7c37 6dbe
00000330: 8ab4 babc 055a 0b3e c722 18be 1e67 3a3d
00000340: e94b b53d 1948 2b3e 3590 6e3d 7a31 f53d
00000350: be0b ea3d d822 5dbe ffb8 62be 363a 3ebe
00000360: fbb3 86bc de41 c93d c3ad 1abc c521 10be
00000370: 0453 28be c347 c23d 2ca7 2ebe 662c d6bd
00000380: 539a 35be 0495 c0bd 7bbb 5b3e df11 88be
00000390: 2aab 293e 9c74 6a3e 888b 7bbe 44f2 ef3b
000003a0: 5756 873d dd63 303e 0c3c 403e 44cb 263e
000003b0: d384 4dbb 756d 203e 533c 373c 4825 3fbe
000003c0: 6b0a 10bd 8915 873e 8b37 adbd 42d3 003e
000003d0: 1dc1 5c3e c168 303e 864d e9bd 25ef 00be
000003e0: 48d9 50be fc03 353e e5cd 713d b23e dd3d
000003f0: 4cd7 883e d095 41bd 98cc 55bd 558a 4bbd

project_sf.bias f4 [16]
0.09556759 0.23777375 0.12952586 -0.16444965 -0.13538392 -0.08684252 -0.13237917 0.2384721
0.21475437 -0.037735317 -0.0429602 -0.2248104 0.23098917 -0.085129134 -0.24680439 -0.118318744
00000000: f1b8 c33d f67a 733e 6da2 043e 7d65 28be
00000010: 15a2 0abe 7eda b1bd 688e 07be 0832 743e
00000020: 92e8 5b3e 5990 1abd 09f7 2fbd b334 66be
00000030: 6d88 6c3e 2f58 aebd 4aba 7cbe 1951 f2bd

rnn_fast.weight_ih_l0 f4 [48, 1]
-0.19486237 0.008810669 -0.057486683 0.022823274 -0.09316617 -0.17216498 0.1403808 0.16378096
0.06633958 0.09492594 -0.09808615 -0.07400274 -0.15208733 0.03024751 0.2184399 0.17888889
0.067527086 -0.094542354 -0.073903024 -0.15699413 0.060037076 -0.2289629 0.17077023 0.16233131
-0.2397938 -0.050471723 0.071179956 0.13592467 -0.1893473 -8.2820654e-05 0.047447234 0.05938381
-0.21224532 0.24119797 0.017278671 -0.07978076 0.14448237 -0.15422007 -0.031969786 -0.059376866
-0.2433295 0.23160058 0.14886922 0.108044565 -0.2131688 0.22255188 0.11218092 0.21126184
00000000: 008a 47be a05a 103c 2877 6bbd e0f7 ba3c
00000010: e8cd bebd 044c 30be fcbf 0f3e 32b6 273e
00000020: 0cdd 873d 8868 c23d 64e1 c8bd c08e 97bd
00000030: c8bc 1bbe a0c9 f73c b6ae 5f3e a62e 373e
00000040: a44b 8a3d 6c9f c1bd 785a 97bd 12c3 20be
00000050: 70e9 753d 4075 6abe 64de 2e3e 2e3a 263e
00000060: 828c 75be 70bb 4ebd ccc6 913d d62f 0b3e
00000070: 42e4 41be 00b0 adb8 0858 423d 703c 733d
00000080: d656 59be 9afc 763e 008c 8d3c 1864 a3bd
00000090: 30f3 133e deeb 1dbe c0f2 02bd 2835 73bd
000000a0: 5e2b 79be b428 6d3e 2c71 183e 7846 dd3d
000000b0: ec48 5abe a4e4 633e 1cbf e53d 0655 583e

rnn_fast.weight_hh_l0 f4 [48, 16]
-0.22503772 0.15914679 -0.09998276 -0.1721653 0.19677827 0.21829742 0.101683564 -0.0045831865
0.15348373 0.16448355 0.1272447 0.070097834 0.23130262 -0.2026585 -0.19992211 -0.17413321
-0.21252416 -0.104599856 0.13658719 0.23390345 -0.11757968 -0.24994603 -0.18342222 -0.073719196
0.21719874 0.12085216 0.23419416 -0.18379386 -0.06556394 -0.028299881 0.22624947 -0.14293468
-0.18080355 0.1861381 0.14697754 0.18588169 0.03125366 -0.12900539 -0.17092192 0.0074884924
-0.030845568 0.17446145 0.10186254 0.06790925 -0.03786207 0.03958725 -0.17130199 -0.21564141
-0.18850973 0.22783883 0.123621576 0.11390516 0.22401564 0.16265674 -0.10029688 -0.17731449
0.023850715 0.07484125 -0.11542373 -0.122064896 0.15486377 0.016309518 -0.19581732 -0.21645112
0.18242809 0.052358635 -0.0069832075 0.04037707 0.16877446 0.18067601 0.11586898 0.18374433
-0.05014199 0.039298285 0.16140734 0.19916645 0.114904486 -0.00096879544 0.19553928 0.0392582
0.21465465 -0.08226074 0.08031429 0.19455862 0.14727809 0.094754264 -0.2604931 -0.06646494
0.24844882 -0.09471908 -0.15502188 -0.044816017 -0.1377756 -0.20430183 -0.114764296 -0.22664298
0.19434503 -0.10573678 0.024819788 0.10578559 -0.036510307 -0.18421414 -0.060512748 -0.1431594
-0.20784792 -0.18339188 -0.114727736 -0.23898502 -0.13125259 0.16739044 -0.026470793 0.022637917
0.20601104 0.14861111 -0.03226557 -0.08028222 -0.07521598 0.16333747 0.09148645 -0.1978314
-0.19735073 -0.19065183 0.227974 0.09914408 -0.05630189 0.04277638 0.18663098 -0.05081355
0.22133796 0.191763 -0.115691766 0.081175916 0.2397932 -0.19406949 0.17426889 0.058808714
0.24272639 0.07623031 -0.14961778 0.20747158 0.20361966 -0.15915067 0.11047754 0.20908387
-0.17480645 -0.06942483 0.0152942445 0.2383817 -0.08777242 0.05489332 0.026242107 0.070398815
-0.0056814346 -0.19810237 0.07654967 -0.13376504 0.06462381 -0.09745942 -0.18429706 0.035152122
-0.059534155 -0.10518205 0.16437486 0.13799329 -0.089499466 -0.16093734 -0.24084273 0.012555534
0.04865137 -0.18692364 -0.19991745 -0.0035312695 -0.12765573 -0.15534168 -0.1610431 0.08264283
-0.031108102 0.037825737 0.037159543 0.0018109424 0.1705902 -0.037925564 -0.14340948 -0.028543482
-0.18096201 0.14659062 0.08357327 -0.0071150567 -0.17764656 -0.10968739 -0.048068885 -0.13121313
-0.20142545 -0.100376196 -0.12181848 0.23943277 0.15990576 -0.20278314 -0.19087416 0.20499086
-0.08251352 0.13576578 0.19491719 0.11861173 -0.076688305 0.077362545 -0.1619265 -0.17717181
-0.14510648 0.2104452 -0.23244205 -0.1984532 0.20942508 -0.20798722 0.21651545 0.12729272
0.17767581 0.07044613 0.2303296 -0.2093306 0.23920776 -0.109391436 0.03588774 0.22052532
-0.20771028 0.10879572 0.21326084 -0.123870656 0.089835435 0.22585249 0.10259495 0.2083841
-0.097034015 -0.0022254717 -0.0429609 -0.003090186 -0.02938753 0.21844332 0.12422614 0.08102542
0.24800308 -0.18620147 -0.15995963 -0.20188035 -0.1806483 0.21592326 -0.215257 -0.20040129
0.19247542 0.03252422 0.16424833 0.14796585 -0.0046322714 0.16824548 0.057592236 -0.23136644
00000000: 4a70 66be 60f7 223e c3c3 ccbd 1a4c 30be
00000010: 3e80 493e 5c89 5f3e 793f d03d 8e2e 96bb
00000020: d72a 1d3e 606e 283e 6f4c 023e 748f 8f3d
00000030: 98da 6c3e b685 4fbe 62b8 4cbe fa4f 32be
00000040: ef9f 59be 7338 d6bd 83dd 0b3e 6384 6f3e
00000050: 9ecd f0bd daf1 7fbe 09d3 3bbe 17fa 96bd
00000060: 5969 5e3e 5681 f73d 98d0 6f3e 7534 3cbe
00000070: 6346 86bd 27d5 e7bc f1ad 673e 785d 12be
00000080: 9124 39be fc9a 3e3e 4881 163e c557 3e3e
00000090: d603 003d fd19 04be 2806 2fbe 0762 f53b
000000a0: d8af fcbc 06a6 323e 4f9d d03d 0114 8b3d
000000b0: 4215 1bbd 3e26 223d ca69 2fbe 1ad1 5cbe
000000c0: b208 41be 954e 693e 4f2d fd3d 1c47 e93d
000000d0: 5b64 653e 7d8f 263e 7368 cdbd ee91 35be
000000e0: 9362 c33c 5f46 993d 4763 ecbd 29fd f9bd
000000f0: 9c94 1e3e 8a9b 853c 5684 48be 5da5 5dbe
00000100: 6ece 3a3e 0276 563d 64d3 e4bb 6d62 253d
00000110: 36d3 2c3e 2203 393e b74c ed3d 7927 3c3e
00000120: b061 4dbd 3df7 203d f747 253e 4af2 4b3e
00000130: 0b53 eb3d c3f6 7dba 733b 483e 35cd 203d
00000140: 6ece 5b3e 5278 a8bd d27b a43d 603a 473e
00000150: 11d0 163e 860e c23d 5a5f 85be c51e 88bd
00000160: 5e69 7e3e 14fc c1bd 0ebe 1ebe 0091 37bd
00000170: 0c15 0dbe 8034 51be 8b09 ebbd 1915 68be
00000180: 6202 473e 868c d8bd de52 cb3c 1ea6 d83d
00000190: d58b 15bd a2a2 3cbe 37dc 77bd 6198 12be
000001a0: 16d6 54be 15cb 3bbe 60f6 eabd 7db8 74be
000001b0: 1467 06be 6668 2b3e 47d9 d8bc 2773 b93c
000001c0: 8ff4 523e 832d 183e e728 04bd 016b a4bd
000001d0: d60a 9abd f041 273e 3f5d bb3d 5194 4abe
000001e0: 4f16 4abe 3c3a 43be 0472 693e 0d0c cb3d
000001f0: d09c 66bd 4936 2f3d 311c 3f3e de21 50bd
00000200: 6ba6 623e 855d 443e ceef ecbd 8f3f a63d
00000210: 598c 753e 27ba 46be 8b73 323e 68e1 703d
00000220: 448d 783e a31e 9c3d 6735 19be 6e73 543e
00000230: ac81 503e 65f8 22be 0c42 e23d 151a 563e
00000240: 7600 33be 9b2e 8ebd b694 7a3c 551a 743e
00000250: 07c2 b3bd d1d7 603d b0f9 d63c 412d 903d
00000260: 542b babb 59db 4abe 13c6 9c3d b4f9 08be
00000270: 7d59 843d ce98 c7bd 5eb8 3cbe acfb 0f3d
00000280: 16da 73bd b069 d7bd e251 283e 1d4e 0d3e
00000290: 7f4b b7bd c2cc 24be 7a9f 76be bab5 4d3c
000002a0: a946 473d e968 3fbe 29b7 4cbe df6c 67bb
000002b0: 2fb8 02be e411 1fbe 7be8 24be a540 a93d
000002c0: 6bd6 febc 29ef 1a3d 9b34 183d 255d ed3a
000002d0: 33af 2e3e d657 1bbd efd9 12be 05d4 e9bc
000002e0: 1b4e 39be da1b 163e 7628 ab3d 6c25 e9bb
000002f0: fbe8 35be c8a3 e0bd e1e3 44bd bc5c 06be
00000300: 7942 4ebe 0992 cdbd f87b f9bd dd2d 753e
00000310: 56be 233e 62a6 4fbe 8474 43be 20e9 513e
00000320: d9fc a8bd 2f06 0b3e 5f98 473e b5ea f23d
00000330: c20e 9dbd 4170 9e3d 0fd0 25be 876c 35be
00000340: cb96 14be f27e 573e 4a05 6ebe 5137 4bbe
00000350: 8773 563e 9afa 54be 3ab6 5d3e 0659 023e
00000360: a6f0 353e 1046 903d 86db 6b3e c35a 56be
00000370: e1f2 743e 9e08 e0bd 06ff 123d 64d1 613e
00000380: 01b2 54be 4ad0 de3d 0d61 5a3e e6af fdbd
00000390: a4fb b73d e045 673e 4d1d d23d a462 553e
000003a0: c5b9 c6bd 38d9 11bb c5f7 2fbd b884 4abb
000003b0: 1ebe f0bc 9baf 5f3e 466a fe3d a8f0 a53d
000003c0: 85f4 7d3e 99ab 3ebe 75cc 23be b9b9 4ebe
000003d0: defb 38be fd1a 5d3e 556c 5cbe ff35 4dbe
000003e0: 4718 453e 1e38 053d b730 283e 5c84 173e
000003f0: 4fca 97bb 8b48 2c3e d6e5 6b3d 53eb 6cbe

rnn_fast.bias_ih_l0 f4 [48]
-0.21096708 -0.05242292 0.027392976 0.20774221 0.07493476 -0.18712066 0.07424077 -0.1895721
0.15110973 -0.1472261 -0.20772521 0.0760552 -0.13586356 0.22229321 0.031059934 0.22101851
0.10928567 -0.10832767 0.053260755 -0.14382614 -0.19500825 0.15355812 -0.14008127 0.073842786
0.13753437 0.09178921 0.20776075 0.22981112 0.23821382 0.026331352 -0.010143666 -0.07929599
-0.14826165 0.11366779 -0.19570565 0.25462395 0.06596953 -0.038811132 -0.19694544 0.14774524
0.14258187 0.111580305 -0.24188803 0.17084865 -0.12755263 0.23601075 0.14850488 -0.009144792
00000000: c107 58be 6ab9 56bd 3c67 e03c 60ba 543e
00000010: 6577 993d 8f9c 3fbe 8b0b 983d 301f 42be
00000020: 82bc 1a3e 70c2 16be ebb5 54be d4c2 9b3d
00000030: d11f 0bbe d5a0 633e 6771 fe3c ad52 623e
00000040: 2ad1 df3d e6da ddbd f327 5a3d 2947 13be
00000050: 3eb0 47be 573e 1d3e 7771 0fbe e33a 973d
00000060: cfd5 0c3e fbfb bb3d 3cbf 543e 9b53 6b3e
00000070: 53ee 733e d9b4 d73c 9e31 26bc f065 a2bd
00000080: e7d1 17be a9ca e83d 1067 48be 125e 823e
00000090: 081b 873d 6cf8 1ebd 11ac 49be 874a 173e
000000a0: fb00 123e 3784 e43d 7fb1 77be f3f2 2e3e
000000b0: 289d 02be cdac 713e aa11 183e 0ad4 15bc

rnn_fast.bias_hh_l0 f4 [48]
0.17988174 -0.081286564 0.18255019 0.01419564 0.23386876 0.07633718 -0.13518374 0.03188548
0.21665734 0.022487601 -0.064789675 -0.20817922 -0.09214597 0.12839167 -0.21026999 -0.034092516
-0.07515372 0.17597935 0.04938228 -0.02804154 0.2438291 -0.012894812 -0.11142847 0.22647971
-0.1443768 -0.23139991 -0.13956946 -0.16046916 0.10895424 -0.19925566 -0.028871236 0.06294475
-0.09489559 0.1796414 0.21749005 0.21064512 0.1081279 0.19373415 0.013126179 -0.2211402
0.17058119 0.06726579 0.12311766 -0.09639724 -0.13830468 -0.22413996 0.26320794 -0.23534201
00000000: eb32 383e 9279 a6bd 70ee 3a3e d494 683c
00000010: 4b7b 6f3e ab56 9c3d 9b6d 0abe 599a 023d
00000020: 6cdb 5d3e eb37 b83c 73b0 84bd ef2c 55be
00000030: 07b7 bcbd 1b79 033e 0451 57be 98a4 0bbd
00000040: 32ea 99bd ee33 343e 1345 4a3d 5fb7 e5bc
00000050: 56ae 793e c344 53bc 9c34 e4bd 4cea 673e
00000060: 83d7 13be 19f4 6cbe 4ceb 0ebe 0752 24be
00000070: 6723 df3d ad09 4cbe 5f83 ecbc 2de9 803d
00000080: 9e58 c2bd eaf3 373e b6b5 5e3e 5bb3 573e
00000090: 2972 dd3d 3f62 463e 2f0f 573c 9472 62be
000000a0: d6ac 2e3e a6c2 893d 1d25 fc3d eb6b c5bd
000000b0: be9f 0dbe f284 65be 31c3 863e 7ffd 70be

initial_evidence.weight f4 [1, 16]
0.12660211 -0.22311613 0.10809684 -0.27637696 0.027249971 -0.022115154 0.13356194 0.13332155
0.054024883 0.14211589 0.1533385 0.030820973 -0.08553869 0.13327523 -0.16469556 -0.16826206
00000000: fca3 013e 8e78 64be e061 dd3d 4881 8dbe
00000010: 553b df3c d72a b5bc 76c4 083e 7285 083e
00000020: 3249 5d3d d486 113e c504 1d3e 447c fc3c
00000030: e92e afbd 4d79 083e f4a5 28be e44c 2cbe

evidence_head.0.weight f4 [1, 16]
0.021636175 0.06554179 0.0075272336 0.26360297 0.048245557 0.060643077 0.07809009 0.044636633
0.06776507 0.053417422 0.060875393 0.016827842 0.017613208 0.056437362 0.07976703 0.08723865
00000000: 593e b13c c63a 863d 03a7 f63b f8f6 863e
00000010: 229d 453d e064 783d b2ed 9f3d e7d4 363d
00000020: 6ac8 8a3d 3acc 5a3d 7a58 793d 8bda 893c
00000030: 9349 903c dd2a 673d e65c a33d 2daa b23d

fast_choice_head.0.weight f4 [16, 16]
0.07125947 -0.21045178 0.08161217 -0.057833135 0.09361836 0.05260411 -0.24865961 -0.16304812
-0.12138823 0.061507046 -0.099197745 0.092598915 -0.061282486 0.011631519 -0.01448518 0.1084573
0.09676373 0.1342203 -0.097910285 -0.0726223 -0.024222374 -0.068457216 -0.05965531 -0.024254024
0.029310375 -0.171666 -0.12939394 -0.14664903 -0.15919209 -0.21053782 0.08951035 -0.2452671
0.18825746 0.15072164 0.19899589 0.08174819 0.14593822 -0.0925242 -0.14279124 -0.2400094
-0.061772346 -0.06319228 0.122707784 0.20977053 -0.03516102 -0.048129886 0.051149964 -0.21523768
-0.0039274693 0.1651485 -0.041691393 0.096092016 -0.0539321 -0.025176942 -0.17160201 -0.021725565
-0.18069729 0.0990572 -0.107132316 -0.1949589 -0.11827847 -0.14836258 -0.19915694 0.23870489
-0.04047966 0.053184062 0.14461914 -0.08116278 -0.19496956 -0.13777944 0.13729271 -0.21772185
0.0063870847 0.1958636 -0.051803112 -0.16085291 -0.07880992 0.006827742 0.15406367 0.0014709532
-0.16893405 -0.0063819885 0.13607213 -0.23029956 0.015238404 0.01140669 0.049519718 -0.24021718
-0.19062066 -0.2339029 0.19970164 -0.20910761 0.228039 -0.20848942 0.17128542 -0.08201015
0.2445274 0.045655966 0.21930343 0.01756695 -0.033835143 -0.18767247 -0.13479188 0.23790121
0.24824128 0.21553212 0.14059192 0.18147129 -0.18320543 0.022107184 0.111113966 -0.1362803
0.04973927 0.22909239 -0.08432299 0.12118986 -0.08344725 -0.17698303 0.043715656 -0.21700239
-0.24724296 0.0013708174 0.0112813115 -0.0935072 -0.15418482 0.085127085 -0.12041175 -0.200037
-0.20290032 0.054108918 0.22626117 -0.09111166 -0.12136358 0.15099388 -0.19077602 0.20162463
-0.24636695 0.0344055 -0.076093346 0.23080197 -0.06610367 -0.14449203 0.12972638 -0.22350499
0.11605367 0.15078256 -0.09975439 0.15714803 0.041846305 -0.09955111 0.0835354 -0.19248125
-0.006043792 0.13481805 0.22101134 -0.10336149 -0.1341185 -0.14107692 0.12417588 0.23537406
-0.13196024 0.039339125 0.22392368 -0.030615449 0.12529558 -0.05494961 -0.21990529 0.19719175
-0.17145276 -0.19027337 -0.06178695 -0.16449615 0.15139341 -0.041652143 -0.24011955 -0.004003048
0.040928215 0.18327656 0.11041695 -0.012220949 -0.24671665 -0.009302974 -0.19105086 0.056539327
0.07598886 0.11952323 -0.13905054 -0.2283499 -0.10084137 0.09411359 0.11060268 0.17169598
-0.004807651 0.1623317 -0.060018957 0.0023812652 -0.017465055 -0.1444048 -0.21258432 0.10080549
-0.094545364 0.19904536 -0.018039823 0.057192445 -0.22628635 -0.20506385 0.10686132 -0.13911209
-0.23842096 0.20669886 0.11456397 -0.11767608 0.21883133 0.025787383 0.24748677 -0.11615968
0.15058216 -0.051108122 0.109368354 0.21408859 0.068561584 -0.09516469 -0.19735673 0.11626446
0.12205559 0.16636363 -0.12543878 0.19675645 -0.0710969 -0.050976515 0.050762028 -0.17177969
-0.0013864636 -0.16238388 -0.02702725 -0.11561954 -0.03524837 -0.10291532 0.1572775 -0.20178214
-0.24897873 0.168116 -0.13565308 0.07421133 -0.15043223 0.19531813 0.046293944 0.18785664
-0.15859798 0.13984624 0.24580821 -0.005868703 -0.20518902 -0.11479363 0.21664122 -0.16195971
00000000: 7cf0 913d ac80 57be 4824 a73d 70e2 6cbd
00000010: fcba bf3d 6877 573d a0a0 7ebe 16f6 26be
00000020: 649a f8bd d0ee 7b3d 3028 cbbd 80a4 bd3d
00000030: 5803 7bbd 2092 3e3c 4053 6dbc dc1e de3d
00000040: 102c c63d 0c71 093e 3085 c8bd 00bb 94bd
00000050: 006e c6bc 4c33 8cbd 2059 74bd 60b0 c6bc
00000060: 501c f03c 36c9 2fbe d87f 04be 2a2b 16be
00000070: 4003 23be 3a97 57be 3451 b73d 4c27 7bbe
00000080: 90c6 403e c656 1a3e 94c5 4b3e 986b a73d
00000090: d470 153e 547d bdbd de37 12be 06c5 75be
000000a0: 0005 7dbd f46a 81bd 384e fb3d 16ce 563e
000000b0: 0005 10bd d823 45bd a082 513d 4467 5cbe
000000c0: 00b2 80bb b01c 293e 98c4 2abd e4cb c43d
000000d0: e8e7 5cbd e03f cebc 70b8 2fbe d0f9 b1bc
000000e0: b608 39be 80de ca3d 3068 dbbd 4ea3 47be
000000f0: fc3b f2bd 5cec 17be ccef 4bbe 0e6f 743e
00000100: 00ce 25bd 88d7 593d 0a17 143e ac38 a6bd
00000110: 1aa6 47be 0e16 0dbe 7696 0c3e 7af2 5ebe
00000120: c04a d13b 7890 483e 802f 54bd a0b6 24be
00000130: 1867 a1bd 40bb df3b dec2 1d3e 00cd c03a
00000140: 0cfd 2cbe 0020 d1bb 7e56 0b3e a6d3 6bbe
00000150: 80aa 793c 20e3 3a3c 30d5 4a3d 7efb 75be
00000160: 1032 43be 3e84 6fbe 967e 4c3e 4e20 56be
00000170: 0e83 693e 407e 55be 7265 2f3e f0f4 a7bd
00000180: 6465 7a3e c001 3b3d 1491 603e 90e8 8f3c
00000190: b896 0abd 362d 40be e206 0abe 609c 733e
000001a0: f632 7e3e 74b4 5c3e 54f7 0f3e 9cd3 393e
000001b0: 349a 3bbe 201a b53c b88f e33d 108d 0bbe
000001c0: 68bb 4b3d 3297 6a3e 88b1 acbd 6432 f83d
000001d0: 64e6 aabd 0a3b 35be 300f 333d e035 5ebe
000001e0: 422d 7dbe 00ad b33a 40d5 383c b480 bfbd
000001f0: a0e2 1dbe 1c57 ae3d 709a f6bd 80d6 4cbe
00000200: 1ac5 4fbe 50a1 5d3d 02b1 673e c098 babd
00000210: 788d f8bd 249e 1a3e ca5a 43be b076 4e3e
00000220: 9e47 7cbe c8ec 0c3d d4d6 9bbd 5a57 6c3e
00000230: 5c61 87bd b8f5 13be fed6 043e 7ede 64be
00000240: 8cad ed3d be66 1a3e 084c ccbd 6aeb 203e
00000250: 0867 2b3d 74e1 cbbd 9c14 ab3d ce19 45be
00000260: 000b c6bb be0d 0a3e cc50 623e 30af d3bd
00000270: 5c56 09be 7876 10be ec4f fe3d e605 713e
00000280: 9620 07be 1022 213d 404c 653e 40cd fabc
00000290: 7c4d 003e d812 61bd da2e 61be a2ec 493e
000002a0: 5091 2fbe 06d7 42be 5014 7dbd ae71 28be
000002b0: e006 1b3e 709b 2abd e6e1 75be 002c 83bb
000002c0: 58a4 273d daac 3b3e 4822 e23d 603a 48bc
000002d0: 4aa3 7cbe 806b 18bc d6a2 43be c895 673d
000002e0: 0ca0 9b3d 98c8 f43d 4463 0ebe 8ed4 69be
000002f0: ec85 cebd a0be c03d a883 e23d 12d1 2f3e
00000300: 8089 9dbb 483a 263e 70d6 75bd 000f 1c3b
00000310: e012 8fbc dade 13be b4af 59be 1c73 ce3d
00000320: 00a1 c1bd 8cd2 4b3e 40c8 93bc a042 6a3d
00000330: 9cb7 67be 42fc 51be 1cda da3d 6673 0ebe
00000340: a024 74be dea8 533e 84a0 ea3d 2800 f1bd
00000350: 5215 603e 1040 d33c 2c6d 7d3e 20e5 edbd
00000360: 3632 1a3e c056 51bd 84fc df3d 0a3a 5b3e
00000370: 046a 8c3d b4e5 c2bd e217 4abe 101c ee3d
00000380: 48f8 f93d 3a5b 2a3e 0673 00be 867a 493e
00000390: 409b 91bd c0cc 50bd d8eb 4f3d 04e7 2fbe
000003a0: 00ba b5ba f647 26be 4068 ddbc f0c9 ecbd
000003b0: 9860 10bd 44c5 d2bd 5a0d 213e fa9f 4ebe
000003c0: 48f4 7ebe 9a26 2c3e a4e8 0abe 1cfc 973d
000003d0: e80a 1abe 7a01 483e b89e 3d3d 7e5d 403e
000003e0: 8267 22be da33 0f3e 26b5 7b3e 404e c0bb
000003f0: 121d 52be ec18 ebbd 32d7 5d3e c4d8 25be

fast_choice_head.0.bias f4 [16]
0.080396324 -0.015366405 0.18396041 0.023882419 0.15264255 -0.0445866 -0.015697658 -0.070148766
-0.23388126 -0.11388284 0.013021231 -0.16835868 0.23380679 -0.13454282 0.0979338 -0.24191746
00000000: d4a6 a43d 60c3 7bbc 1e60 3c3e 10a5 c33c
00000010: 544e 1c3e 70a0 36bd 6098 80bc 28aa 8fbd
00000020: 927e 6fbe 683b e9bd 0057 553c 3866 2cbe
00000030: 0c6b 6f3e 98c5 09be 8491 c83d 36b9 77be

fast_choice_head.1.weight f4 [1, 16]
0.2453022 0.04449922 -0.18496075 0.14665085 0.16260755 0.20575717 0.09525275 0.04065135
0.0728575 0.041957885 0.1683271 0.23208839 0.06960246 0.058707416 0.0600729 -0.10699427
00000000: 8030 7b3e d044 363d 5a66 3dbe a42b 163e
00000010: 9882 263e 02b2 523e e013 c33d 0882 263d
00000020: 5036 953d 08dc 2b3d f05d 2c3e 94a8 6d3e
00000030: bc8b 8e3d 3077 703d 000f 763d d01f dbbd

slow_choice_head.0.weight f4 [16, 16]
-0.10954428 -0.24500483 -0.25811723 -0.06411694 0.031982258 0.33271718 0.3040779 0.042457737
0.1129547 0.12628694 0.37624672 -0.4229081 0.21995352 0.15405253 -0.2558111 0.2042495
0.5578232 0.33846998 0.21803258 0.40429896 -0.39606786 -0.3256609 -0.13022701 0.2746811
-0.5496716 -0.23860365 -0.0073943296 0.58218807 0.062128607 0.17581943 0.07168163 -0.06259678
-0.36515424 -0.35768104 0.022855513 0.038518533 0.17364876 0.3732146 0.24558713 0.30172557
0.3984254 0.42961118 0.30790743 -0.3704395 0.13162127 0.061772924 -0.30795026 0.19099195
-0.06971017 0.36531365 0.2735897 0.17060912 -0.5034524 -0.27070412 -0.3046758 0.18558018
-0.2891473 -0.3354635 0.11340477 0.4149643 -0.31953952 0.13747385 -0.11272586 -0.28772998
0.00522249 -0.011826782 -0.26691896 -0.12045952 0.18878473 0.03310303 0.284778 -0.08452351
0.49667752 0.37248015 0.36960772 -0.41027096 0.32037225 0.034814853 -0.17981416 0.27181706
0.30841538 0.017932143 0.1344018 -0.008256174 -0.30731705 -0.26424748 0.15282851 0.17218414
-0.10849257 -0.19002181 -0.29132718 -0.06094491 0.021296974 0.26449227 -0.1491368 0.10090134
0.44737867 0.32997254 0.42985648 0.21655452 -0.18888763 -0.14092483 -0.12505937 -0.10713161
-0.5212596 -0.34353167 -0.32898897 0.3224484 -0.23881301 0.31248623 0.10713926 -0.2555486
-0.10115403 -0.3598905 -0.24583076 -0.33790493 0.30418524 0.19682302 -0.057229944 0.07154303
0.24894997 0.39549226 0.14285596 -0.42846584 0.26647153 -0.09442301 -0.2514907 0.0874358
0.15653697 0.13983454 0.016350593 -0.05086147 -0.36491787 -0.31256974 -0.17073463 -0.053411245
-0.3248193 -0.18204519 -0.26274094 0.044249523 -0.31595185 0.08516492 0.2658496 -0.18347788
0.35760927 0.17246172 0.35210225 -0.11414718 -0.11216546 -0.18915714 0.17023109 -0.04980778
-0.33189318 -0.2933168 -0.22967474 -0.024973724 -0.33546427 -0.16962214 -0.113364324 -0.25764105
0.10502706 0.3393482 -0.10697666 0.35904953 -0.13825934 0.06882983 -0.025549423 -0.23092283
-0.22451752 0.045944907 -0.16264613 0.048862375 0.11614052 -0.041596282 -0.09660625 -0.23732501
-0.37163985 -0.4491922 -0.09855748 -0.2718557 0.24884407 0.41432104 0.23225178 0.091757834
0.5335517 0.3843883 0.0024687296 -0.18380362 0.3241724 0.10673811 -0.37756082 -0.0857082
0.34782818 -0.035500698 0.16790114 0.33051363 0.03439781 0.0886695 -0.0066091125 -0.100114174
-0.2498191 -0.13516007 -0.018882707 0.25327563 -0.196424 -0.1482029 0.23841146 0.1463603
0.1998155 0.4156911 0.19420461 0.26855695 -0.5965938 -0.38983333 0.04114071 -0.05367378
-0.5786745 -0.43252972 -0.3645258 0.25969994 -0.24445392 0.067692265 0.087869614 0.006651499
0.2747981 0.4196043 0.27176845 0.13892908 -0.4402653 -0.32591552 -0.02056713 -0.03908069
-0.07503664 -0.31395778 -0.21449251 0.46155193 -0.02462238 0.19997454 -0.06320138 -0.18734537
0.11585853 0.28041863 0.44467667 0.1703428 -0.122483365 -0.024186067 -0.26273298 -0.2975962
-0.4604915 -0.4598373 -0.3946217 0.11322369 -0.1952359 0.30354515 0.4253743 -0.014080087
00000000: c058 e0bd 8ce2 7abe f127 84be be4f 83bd
00000010: d4ff 023d e859 aa3e 19b0 9b3e 2ae8 2d3d
00000020: cb54 e73d 5d51 013e 69a3 c03e 6987 d8be
00000030: 7f3b 613e f2bf 1d3e acf9 82be c826 513e
00000040: 80cd 0e3f f04b ad3e ef43 5f3e 4600 cf3e
00000050: 68c9 cabe 07bd a6be 3b5a 05be 00a3 8c3e
00000060: 47b7 0cbf 8454 74be 224c f2bb 470a 153f
00000070: 917a 7e3d 020a 343e d2cd 923d be32 80bd
00000080: 7ff5 babe f821 b7be 7c3b bb3c 9cc5 1d3d
00000090: fbd0 313e fc15 bf3e 317b 7b3e c67b 9a3e
000000a0: 6afe cb3e fff5 db3e 0ba6 9d3e 3faa bdbe
000000b0: bac7 063e 9b05 7d3d a8ab 9dbe 6593 433e
000000c0: 35c4 8ebd 640a bb3e f313 8c3e 28b4 2e3e
000000d0: 42e2 00bf bb99 8abe 77fe 9bbe bb08 3e3e
000000e0: 1d0b 94be dfc1 abbe c340 e83d 3376 d43e
000000f0: af9a a3be f2c5 0c3e d1dc e6bd 5851 93be
00000100: 6c21 ab3b 1ec5 41bc 9aa9 88be 7bb3 f6bd
00000110: c950 413e 0b97 073d 6cce 913e a91a adbd
00000120: 844c fe3e b8b5 be3e 393d bd3e 090f d2be
00000130: d507 a43e 059a 0e3d 3421 38be 9b2b 8b3e
00000140: 9fe8 9d3e 6ee6 923c a0a0 093e e744 07bc
00000150: a958 9dbe 724b 87be 147f 1c3e 0a51 303e
00000160: 5a31 debd 1495 42be d628 95be 5fa1 79bd
00000170: fe76 ae3c 886b 873e 51b7 18be 5da5 ce3d
00000180: d10e e53e 29f2 a83e 2616 dc3e 78c0 5d3e
00000190: c26b 41be 994e 10be 900f 00be d167 dbbd
000001a0: 4571 05bf 62e3 afbe 3e71 a8be f517 a53e
000001b0: 668b 74be 32fe 9f3e d46b db3d 44d7 82be
000001c0: d829 cfbd 9143 b8be 0fbb 7bbe e001 adbe
000001d0: 2bbe 9b3e f98b 493e f269 6abd 2785 923d
000001e0: beec 7e3e f67d ca3e d548 123e e05f dbbe
000001f0: f56e 883e da60 c1bd 64c3 80be 8a11 b33d
00000200: 3a4b 203e c930 0f3e aef1 853c 1e54 50bd
00000210: 84d6 babe 2409 a0be 0fd5 2ebe c0c5 5abd
00000220: b74e a6be 0e6a 3abe fb85 86be fd3e 353d
00000230: 71c4 a1be f26a ae3d 701d 883e a0e1 3bbe
00000240: 9018 b73e ce99 303e bf46 b43e ffc5 e9bd
00000250: 01b7 e5bd 69b2 41be 0f51 2e3e 3e03 4cbd
00000260: e7ed a9be 9f2d 96be db2f 6bbe b295 ccbc
00000270: f9c1 abbe 6db1 2dbe 8e2b e8bd 87e9 83be
00000280: 6d18 d73d 0cbf ad3e 9416 dbbd 57d5 b73e
00000290: db93 0dbe a7f6 8c3d 064d d1bc 0977 6cbe
000002a0: ece7 65be ba30 3c3d b58c 26be ea23 483d
000002b0: 15db ed3d dd60 2abd 7fd9 c5bd 5405 73be
000002c0: 9447 bebe 85fc e5be 81d8 c9bd ac30 8bbe
000002d0: fbd0 7e3e e321 d43e 69d3 6d3e 88eb bb3d
000002e0: d896 083f 8bce c43e 69ca 213b 0437 3cbe
000002f0: edf9 a53e 8399 da3d a74f c1be c887 afbd
00000300: 8916 b23e 2e69 11bd 47ee 2b3e 1539 a93e
00000310: b8e4 0c3d 5b98 b53d 4191 d8bb a908 cdbd
00000320: 94d0 7fbe 6767 0abe e8af 9abc 58ad 813e
00000330: 6023 49be 80c2 17be 2222 743e 79df 153e
00000340: 6f9c 4c3e 77d5 d43e 93dd 463e 4c80 893e
00000350: 5fba 18bf 3c98 c7be 2983 283d 0ad9 5bbd
00000360: 0324 14bf 8974 ddbe 20a3 babe 64f7 843e
00000370: 2152 7abe 3ea2 8a3d fcf4 b33d d1f4 d93b
00000380: 56b2 8c3e 60d6 d63e 3c25 8b3e 6d43 0e3e
00000390: 746a e1be 66de a6be 667c a8bc 1313 20bd
000003a0: cfac 99bd 13bf a0be eda3 5bbe 8950 ec3e
000003b0: e0b4 c9bc 20c6 4c3e ba6f 81bd 77d7 3fbe
000003c0: 3d47 ed3d 0893 8f3e a9ac e33e 586e 2e3e
000003d0: 8fd8 fabd dc21 c6bc f084 86be 875e 98be
000003e0: 8bc5 ebbe cb6f ebbe db0b cabe d2e1 e73d
000003f0: ebeb 47be 456a 9b3e a9ca d93e 2ab0 66bc

slow_choice_head.0.bias f4 [16]
-0.1320439 -0.10825313 0.20324865 0.07678639 -0.036970258 0.14359559 0.06712982 0.10457335
-0.30780786 0.12162021 0.026746402 0.051188324 0.11694259 0.0051058345 0.10911623 0.084763795
00000000: 8436 07be d1b3 ddbd 6a20 503e 2f42 9d3d
00000010: 206e 17bd b90a 133e 5c7b 893d 8d2a d63d
00000020: fe98 9dbe 0414 f93d 451b db3c d9aa 513d
00000030: 997f ef3d d84e a73b 5478 df3d a498 ad3d

slow_choice_head.1.weight f4 [1, 16]
-0.22898313 0.30726105 -0.3467356 0.28079936 -0.37323958 0.23462735 0.21596014 -0.4236761
0.3646995 0.26831934 0.23159035 -0.2756526 0.25303927 0.28319776 0.35362437 0.20287076
00000000: 8e7a 6abe 5251 9d3e 5487 b1be efc4 8f3e
00000010: 4219 bfbe 2742 703e a824 5d3e 13ec d8be
00000020: e5b9 ba3e 2761 893e 0526 6d3e 5622 8dbe
00000030: 5d8e 813e 4cff 903e 410e b53e 5abd 4f3e

exp_avg f4 [48, 1]
0.0 0.0 0.0 0.0 0.0 0.0 0.0 0.0
0.0 0.0 0.0 0.0 0.0 0.0 0.0 0.0
0.0 0.0 0.0 0.0 0.0 0.0 0.0 0.0
0.0 0.0 0.0 0.0 0.0 0.0 0.0 0.0
0.0 0.0 0.0 0.0 0.0 0.0 0.0 0.0
0.0 0.0 0.0 0.0 0.0 0.0 0.0 0.0
00000000: 0000 0000 0000 0000 0000 0000 0000 0000
00000010: 0000 0000 0000 0000 0000 0000 0000 0000
00000020: 0000 0000 0000 0000 0000 0000 0000 0000
00000030: 0000 0000 0000 0000 0000 0000 0000 0000
00000040: 0000 0000 0000 0000 0000 0000 0000 0000
00000050: 0000 0000 0000 0000 0000 0000 0000 0000
00000060: 0000 0000 0000 0000 0000 0000 0000 0000
00000070: 0000 0000 0000 0000 0000 0000 0000 0000
00000080: 0000 0000 0000 0000 0000 0000 0000 0000
00000090: 0000 0000 0000 0000 0000 0000 0000 0000
000000a0: 0000 0000 0000 0000 0000 0000 0000 0000
000000b0: 0000 0000 0000 0000 0000 0000 0000 0000

exp_avg_sq f4 [48, 1]
0.0 0.0 0.0 0.0 0.0 0.0 0.0 0.0
0.0 0.0 0.0 0.0 0.0 0.0 0.0 0.0
0.0 0.0 0.0 0.0 0.0 0.0 0.0 0.0
0.0 0.0 0.0 0.0 0.0 0.0 0.0 0.0
0.0 0.0 0.0 0.0 0.0 0.0 0.0 0.0
0.0 0.0 0.0 0.0 0.0 0.0 0.0 0.0
00000000: 0000 0000 0000 0000 0000 0000 0000 0000
00000010: 0000 0000 0000 0000 0000 0000 0000 0000
00000020: 0000 0000 0000 0000 0000 0000 0000 0000
00000030: 0000 0000 0000 0000 0000 0000 0000 0000
00000040: 0000 0000 0000 0000 0000 0000 0000 0000
00000050: 0000 0000 0000 0000 0000 0000 0000 0000
00000060: 0000 0000 0000 0000 0000 0000 0000 0000
00000070: 0000 0000 0000 0000 0000 0000 0000 0000
00000080: 0000 0000 0000 0000 0000 0000 0000 0000
00000090: 0000 0000 0000 0000 0000 0000 0000 0000
000000a0: 0000 0000 0000 0000 0000 0000 0000 0000
000000b0: 0000 0000 0000 0000 0000 0000 0000 0000
