saved_models/slow_fast/checkpoint25.pth (torch, 53998 bytes, 48 tensors)

rnn_slow.weight_ih_l0 f4 [48, 6]
000000 49 da 62 bd 85 32 b7 3d bd 92 3b 3f e8 cc b8 be
       -0.055383954 0.08945183 0.7327078 -0.3609383
000010 49 4f 8b be 5c dc 0b 3f 05 e5 28 3d 6d ca 09 be
       -0.27208927 0.54633117 0.041234035 -0.13456126
000020 50 20 cc 3e 89 a0 c0 be 4d 43 d3 be 2b d0 6b 3e
       0.39868402 -0.3762248 -0.41262284 0.23028629
000030 a7 67 d3 be 28 82 9b 3d fd b7 57 be 11 1e 79 3e
       -0.41290018 0.07593185 -0.2106628 0.24327876
000040 59 9c 46 be cc de 16 3d 36 f0 c6 bd 51 38 2f bc
       -0.1939558 0.03683357 -0.09713785 -0.010694579
000050 1c b3 c6 3d b4 6d 89 3c 65 11 b8 be 03 95 d1 bd
       0.09702131 0.016775943 -0.3595077 -0.102335
000060 35 3b 90 3d 55 32 a5 be a7 8b 28 3f 45 90 27 bf
       0.07042543 -0.32264963 0.6583809 -0.6545451
000070 9b da 8d be c4 b5 18 3f b3 d1 b5 be 20 b5 f1 3d
       -0.27705845 0.5965235 -0.3551155 0.11802125
000080 27 4c dc 3e 8b 6c 4d be 7b 52 75 3e ab bf 0f be
       0.4302685 -0.20060937 0.23957245 -0.1403796
000090 43 f3 07 be 27 ca a7 3e e2 6f ba 3e 1d 39 4b be
       -0.1327639 0.32771417 0.36413485 -0.19846006
0000a0 39 1c d1 3e f5 fb 75 bd 13 84 6e 3e 71 9d 5b be
       0.40841845 -0.060054738 0.2329257 -0.21446778
0000b0 e5 bf b2 bd f4 c8 b0 bd 39 ab ca bc b8 cb 9a be
       -0.08728007 -0.08632079 -0.024739848 -0.3023355
0000c0 12 c2 e9 3d ad 7e 5e 3b b5 51 1f 3f 54 c0 1d bf
       0.11413969 0.0033950016 0.6223405 -0.61621594
0000d0 28 87 07 bf bf 13 11 3f 01 75 28 be 73 dd 2c 3e
       -0.5294061 0.56670755 -0.16450883 0.16881351
0000e0 82 dc f6 3e fb f1 01 bf 56 0b 01 3f 72 5c ec be
       0.4821511 -0.5075986 0.5040792 -0.4616428
0000f0 cf c4 b5 3d 88 38 dd bd 1d ce cb be 89 ff bb 3e
       0.08875429 -0.10801798 -0.3980569 0.36718395
000100 2b 0f 73 3c 6e a4 dd 3c ca 84 88 be 37 f8 4f 3d
       0.014835159 0.027055945 -0.2666381 0.050773825
000110 da 8c 41 3f d8 68 22 bf 96 eb 2f 3f 5d b1 73 be
       0.7560555 -0.6344123 0.6871885 -0.23798127
000120 71 d4 18 be f8 dd 9d 3e 98 1b f7 bd 7b 8a 26 bc
       -0.1492479 0.3083341 -0.1206581 -0.010164852
000130 65 dd 90 be 8d 2d 2d 3f 55 d8 3e 3e 5a 5c 24 bd
       -0.2829391 0.6764763 0.18637212 -0.040127136
000140 fa ae 19 be 08 01 9e 3c 1c 69 03 3f e5 50 cd 3c
       -0.15008155 0.019287601 0.5133226 0.025062988
000150 33 49 fa be 69 4d 49 3e dc a6 8e 3e 39 67 c9 be
       -0.48883972 0.19658436 0.2786168 -0.39336565
000160 d1 05 58 3b e6 74 6b be d6 02 e7 3d 6c c0 6a be
       0.0032962451 -0.22993812 0.11279838 -0.22924966
000170 62 73 76 3e ed 87 77 be 34 a0 b9 bd 6d f9 50 3e
       0.24067453 -0.24172945 -0.090637594 0.20407648
000180 a3 00 5d bd ef b3 03 bd 6a 8a 9a 3e 7a 5e b5 be
       -0.053955685 -0.03215402 0.30183727 -0.35423642
000190 b4 3a a3 bd be b5 62 3e b8 21 92 be fc 6b 69 3e
       -0.07970181 0.22139642 -0.2854135 0.22795099
0001a0 b5 82 03 3f b9 9d 6f be e8 23 c8 be 9d 15 41 3f
       0.5137132 -0.2340001 -0.39089894 0.75423604
0001b0 35 3b ef bd 03 f2 07 be d9 79 26 3e 31 50 22 bf
       -0.11681215 -0.13275914 0.16257419 -0.6340361
0001c0 c0 f1 30 3f 45 d2 09 bf 68 94 0c be 03 dc a1 bd
       0.6911888 -0.5383647 -0.13728487 -0.07903292
0001d0 55 ff 31 3f 1e d3 25 bf 60 52 03 bf 4d 31 35 3e
       0.6953023 -0.64775264 -0.5129757 0.17694588
0001e0 c7 f2 3b 3d fe 81 d8 bd b4 8e c0 3e 44 9e 0a bf
       0.045885827 -0.10571669 0.37608874 -0.54147744
0001f0 e4 2d d3 be 66 b5 8d 3e 12 6d 45 be 2f 85 7a bd
       -0.4124595 0.2767746 -0.19279888 -0.06116217
000200 53 50 e5 3e b2 f9 6c be 8d ba ca 3d bb 9f 07 bf
       0.44787845 -0.23142126 0.09898863 -0.52978104
000210 e2 32 14 3e 72 79 29 3d 9b 09 1e 3f bb 28 f0 be
       0.14472535 0.041375585 0.61733407 -0.46906075
000220 da 7a 4e 3e 92 dd dd bb 86 6f 80 be 43 0c 24 3e
       0.20164052 -0.006770798 -0.25085086 0.16020302
000230 48 91 2c 3d b1 9e b0 bd ea 88 62 be 8c d1 a7 3e
       0.04213074 -0.08624018 -0.22122541 0.3277706
000240 d0 26 ad be 92 4d 96 be 73 ff 37 3f 83 4d 00 bf
       -0.33818674 -0.29356056 0.7187416 -0.50118273
000250 f7 08 ee be 28 42 85 3e eb 91 28 be ba 2b 43 bd
       -0.46491215 0.26027036 -0.16461913 -0.047649123
000260 82 1b dd 3e c0 2a 16 bf 73 8a f0 3e 4c 2f 8f be
       0.4318505 -0.5865898 0.46980628 -0.27965772
000270 f3 bf 91 be 2f 1f 1f bc d4 51 84 3e 7e 04 12 bf
       -0.28466758 -0.009712025 0.2584368 -0.57038105
000280 b7 51 b8 3e 1b 0c c5 be 42 98 b4 3d b8 e7 a9 be
       0.35999843 -0.38485798 0.088181034 -0.331846
000290 53 c6 16 3f 02 87 0b bf 42 eb ca 3e 8c 52 19 bf
       0.5889637 -0.5450288 0.39632612 -0.5989158
0002a0 33 4a 84 be 0c c8 18 be d5 9e 42 3d a1 e6 47 be
       -0.2583786 -0.14920062 0.047514755 -0.19521572
0002b0 06 9b 10 be 91 54 03 3e 34 a9 22 3c f8 c9 96 be
       -0.14121637 0.12825228 0.0099280365 -0.29450965
0002c0 eb ad 33 3f 5c bb 57 bf dc d1 b5 3d 71 83 81 be
       0.7018725 -0.8427026 0.08877918 -0.25295594
0002d0 fa 17 4f be 5e 83 af be e7 8b a2 3e aa 9a 16 3d
       -0.2022399 -0.34279913 0.31747362 0.036768593
0002e0 86 61 6f bd 2d 41 ba bd 64 eb e6 bc fa 2a 81 be
       -0.058442615 -0.090944625 -0.028188415 -0.252281
0002f0 09 05 1a 3f b6 fd 3f be f7 ff f1 be 03 3d 5d 3e
       0.60163933 -0.18749127 -0.47265598 0.21605305
000300 3c ae 49 3e 15 06 9f 3e 70 6c fe 3e 52 fb 02 bf
       0.19695371 0.31059328 0.49692106 -0.51164734
000310 d8 12 a5 be fd 6e 9c 3e 62 be 9c 3c 36 9c 6a 3e
       -0.3224094 0.30553427 0.01913375 0.22911152
000320 48 ea 0a 3f f2 fb 06 bf 9b 29 94 be 17 65 1c 3e
       0.54263735 -0.5272819 -0.28937992 0.15272938
000330 6b 24 80 be f8 19 a5 bd 26 74 0c bf c3 c9 b9 3e
       -0.25027785 -0.08061594 -0.5486473 0.36286744
000340 84 7c 9d be ac 52 9b bd 04 2e c5 38 90 94 95 be
       -0.3075906 -0.07584128 9.402263e-05 -0.29214907
000350 9a d0 b0 3e ea 0b 0a be b7 63 49 bd e1 e9 af 3e
       0.3453415 -0.13481107 -0.04916736 0.34358123
000360 ff 17 87 bc c4 8f 18 3e d8 2d 10 bf c4 1f a5 3e
       -0.016490934 0.14898592 -0.5631995 0.32250798
000370 a9 b0 e3 3e ae c4 ab be e8 38 62 3e 12 5a 94 bc
       0.44470719 -0.33548492 0.2209202 -0.018109355
000380 3e e5 08 3f b8 34 e8 be b2 1c c9 3e 7f 1b 85 be
       0.53474796 -0.4535272 0.39279705 -0.2599754
000390 c9 72 37 3e c0 70 f5 bd f9 ff 92 3e 8b 1f 5a bd
       0.17914881 -0.11984396 0.28710917 -0.053252738
0003a0 cb 43 67 3e b1 93 00 be c9 f0 14 3e 50 3a 8c 3a
       0.22584455 -0.1255634 0.14544977 0.0010698531
0003b0 0a eb 20 3e c1 d5 e9 3e a4 7e 2d be 70 b8 a0 3d
       0.1571466 0.45670894 -0.16942841 0.07847679
0003c0 c8 26 72 bd 36 e8 8c bd ab 31 eb be 73 71 df 3e
       -0.059119016 -0.06880228 -0.4593633 0.43641242
0003d0 f0 20 82 3e 42 8d 16 bf 6a 57 f3 3b 2b 0e 20 bd
       0.25415754 -0.5880929 0.007426192 -0.03907601
0003e0 71 42 27 3f da f8 80 be d6 1c f5 3d d3 8c c1 be
       0.65335757 -0.2518986 0.11968391 -0.37802753
0003f0 19 60 a8 3d 20 71 0d 3e ab 5a 0f 3f 45 d2 2a 3d
       0.08221454 0.13812685 0.55997723 0.041704435

rnn_slow.weight_hh_l0 f4 [48, 16]
000000 24 24 10 3e a1 55 54 3d a4 1c a5 bd 67 e5 14 3d
       0.14076287 0.051839475 -0.080621034 0.036351588
000010 9c 2d fd bd 94 4c 2a be a9 89 5d be fa 90 5f be
       -0.12362215 -0.16630775 -0.21634544 -0.21832648
000020 16 d8 1f be 34 0b 5d be ea 41 00 3e 1e 4f 94 bd
       -0.15609774 -0.21586305 0.12525144 -0.07241653
000030 8f 1b df bd 7e 5b 02 be c7 11 e7 3d 2c e3 9a 3d
       -0.10893928 -0.12730214 0.11282688 0.07562861
000040 93 41 3f 3e c4 a8 50 be b5 7a 48 3e d0 a8 1b be
       0.18677358 -0.20376879 0.19578059 -0.15201116
000050 ad 76 17 3e 0b 5a 53 be 9b 61 08 3f 07 cd 68 3d
       0.14791365 -0.20639817 0.53273934 0.056836154
000060 31 a1 98 3d e2 46 5b be ca ef 93 3e c1 61 e8 3c
       0.0745262 -0.21413758 0.28893882 0.028366925
000070 ec 84 96 3e 2f 78 39 be 54 83 00 3d fc 40 91 3e
       0.29398286 -0.18112253 0.031375244 0.28369892
000080 a5 ad 68 3d 45 98 86 bd a7 35 a7 3e f2 25 94 3e
       0.056806225 -0.06572012 0.3265812 0.289352
000090 c4 63 4d 3e 52 92 b1 bd 78 f2 cb bb 61 2a f4 3d
       0.20057589 -0.086704865 -0.006223973 0.11922146
0000a0 1d 2a 5b be 01 f4 35 3e 66 dd 06 3d fc 03 59 bc
       -0.21402784 0.17768861 0.032925986 -0.013245579
0000b0 fb 96 37 bd 44 66 09 bd 93 e2 28 bd 2a a5 4d 3d
       -0.04482172 -0.033544794 -0.041231703 0.05020634
0000c0 d3 c0 98 be 54 ff a6 be 35 b7 4e 3e cb fd 95 3d
       -0.29834613 -0.32616675 0.20187075 0.07323798
0000d0 cf eb 9d 3e 54 e3 8f be fd 36 df bc 19 05 49 3c
       0.3084397 -0.28103125 -0.0272479 0.012269282
0000e0 50 c7 0a be d9 6a f3 3d d0 2d 18 3d 5d 32 ba bc
       -0.13552594 0.11885614 0.037153065 -0.022729093
0000f0 26 46 60 bd 2b af 54 3e 8e 20 25 bd e4 b1 95 3e
       -0.0547544 0.20769946 -0.04031425 0.29237282
000100 b8 e5 82 3e b2 5c 8c 3e 8c 65 26 3e ae af 6f 3c
       0.25565886 0.2741447 0.16249675 0.014629288
000110 ff 5d 9b 3d 74 fd de be 53 42 3e 3e e4 09 43 3e
       0.07586288 -0.43552744 0.18579988 0.19046742
000120 df 63 7c be 70 35 85 bd 29 d6 c7 3c f7 84 27 3d
       -0.24647473 -0.06504333 0.024394112 0.04089829
000130 2d c7 9b bd 47 31 41 3e 63 b0 8d 3e 4d 00 12 3b
       -0.07606349 0.18866454 0.27673635 0.0022278011
000140 b9 3c 7e 3e c4 81 44 bd e7 28 37 bd 1c 7a bd 3e
       0.24827851 -0.047975317 -0.044716742 0.37007225
000150 93 16 c2 bd 49 6c 40 3e dc 55 de bd e6 d5 17 3d
       -0.09476962 0.18791308 -0.1085622 0.037069224
000160 5e 66 ad 3d e0 3c 46 be 45 b0 dd be 67 a1 ae be
       0.084667906 -0.1935916 -0.43298545 -0.34107515
000170 41 bf 21 bd eb 9f a0 3d ca 81 bd 3d f0 2f e0 3d
       -0.039489035 0.07843002 0.09253271 0.10946643
000180 ff 7b 43 3e 2d a9 e5 bd 29 0b 91 bd d8 07 bc 3e
       0.1909027 -0.11213908 -0.07082207 0.36724734
000190 b2 86 eb be 83 33 53 3e 19 2f 7d be 88 aa 17 3d
       -0.46001202 0.20625119 -0.24724998 0.037027866
0001a0 89 28 d2 be 87 5a 02 be 15 f0 1d be de 31 b8 bd
       -0.4104655 -0.12729846 -0.15423615 -0.089938864
0001b0 bc e4 8b be 77 21 dc bd 1a ee 35 3e 7f 2b 8e be
       -0.27322948 -0.107485704 0.1776661 -0.2776756
0001c0 b7 a6 c9 be 34 58 4d be b8 3d 4f be 99 5f b2 bd
       -0.39385006 -0.20053178 -0.20238388 -0.0870964
0001d0 2e 8f 00 3f cd 8e bf 3e 78 35 b2 3d b6 dd ae be
       0.50218475 0.37413636 0.087016046 -0.34153527
0001e0 7b 4e b9 3e b4 0b 48 3e 29 25 36 3e 01 6a 9a bc
       0.36192688 0.19535714 0.17787613 -0.018849375
0001f0 86 45 97 bd 39 6e f0 3c 62 a3 30 be 5e a3 c3 3d
       -0.073863074 0.029349433 -0.17249826 0.09552644
000200 35 c5 5c 3c d3 46 4d 3e b9 dc b6 bd 71 e2 b8 3d
       0.013474752 0.20046549 -0.08928818 0.09027565
000210 7a 3a 25 3e ca 56 8d be 90 b3 e2 bd 2d 89 fa 3d
       0.16135588 -0.27605277 -0.11069405 0.122331955
000220 f5 3e 80 be e2 cf 34 3e 89 56 d8 3d bb 1c 92 3d
       -0.25048032 0.17657426 0.1056338 0.07134386
000230 49 9e 07 be ba 18 40 be 03 82 2b be c8 48 c3 3e
       -0.13243975 -0.18759432 -0.16748814 0.38141465
000240 11 dd 9e be cd 33 16 3d 4f b3 48 3e a0 57 aa 3e
       -0.31028035 0.036670495 0.19599651 0.33269978
000250 31 a1 98 3d 8b 30 67 3e 78 07 48 be 42 e1 99 3e
       0.0745262 0.22577111 -0.19534099 0.3005467
000260 1c 59 9e 3d f2 aa 61 3e 7c 64 82 be c8 5c e0 3b
       0.0773184 0.22037867 -0.25467288 0.006846998
000270 06 0d 16 3e d0 70 b1 3c 53 4d d0 bd 17 7b b4 3d
       0.14653406 0.021660239 -0.101709984 0.0881254
000280 b4 68 ad be 48 aa e5 3d 4e a4 47 3e 59 a9 9d be
       -0.33868945 0.11214119 0.19496271 -0.30793265
000290 1d 6c 98 3e 00 ef 8e be 5e 46 8f 3d e4 7d 4a 3e
       0.29769984 -0.27916718 0.06995843 0.19774586
0002a0 4d 45 a3 3e d8 20 95 be 2c 9f 5f 3e 6c f9 0c 3e
       0.3188881 -0.2912662 0.21838063 0.13767022
0002b0 30 84 51 bd bd 90 0d be ef 6c 5c 3e dd c1 9a 3d
       -0.051151454 -0.13824745 0.2152593 0.07556508
0002c0 e8 71 91 be dd 38 29 3e a6 27 05 be 68 6b 14 3e
       -0.28407216 0.16525598 -0.13003406 0.14494097
0002d0 26 9d 29 be 07 c7 2d 3e f5 ac 93 bd 97 f1 e5 be
       -0.16563854 0.16970454 -0.07210723 -0.4491088
0002e0 f5 0e a7 3e 16 9b 69 3e c6 da 63 be b3 29 8d 3e
       0.326286 0.22813067 -0.22251424 0.27570876
0002f0 bc 87 7a bd bd 04 60 be c1 c9 9b be 8b 39 f0 3d
       -0.061164603 -0.21876808 -0.30427364 0.117297255
000300 4c 29 e8 3d 38 fb cc 3d b3 51 8a 3e f5 cc 8a 3c
       0.11336002 0.10008854 0.27015457 0.016943434
000310 22 3c c8 3e fc 29 ac be 4a 16 fa bd 3c a5 c7 3d
       0.39108378 -0.33625782 -0.122112826 0.09748313
000320 7e 77 6a 3d b6 0d 5d be a5 72 ed be 83 7e 82 3e
       0.057242863 -0.21587262 -0.4637653 0.25487146
000330 2a a5 3f 3e e3 2e 71 3e b4 66 81 3d 2b d7 0d 3e
       0.18715349 0.23553042 0.06318417 0.13851611
000340 9b 5b 94 bd 00 e1 00 3e 71 7e b2 3c 8e 4a 19 3e
       -0.07244035 0.1258583 0.021788808 0.14969847
000350 a4 a1 60 3e 1c 5d 1f bd 49 6e f9 bd e2 57 be ba
       0.21936661 -0.038907155 -0.12179238 -0.0014522041
000360 e9 9b 6a bd 15 26 1b be 4e 97 85 3e 71 1e a2 be
       -0.057277594 -0.15151246 0.26092 -0.3166385
000370 fe f7 5a 3e 83 b4 b7 bb 5a 18 aa 3c d3 88 b4 3e
       0.21383664 -0.0056062355 0.020763565 0.3526064
000380 d8 36 1d be 51 16 94 3d 27 b3 05 3d f4 7c 02 3e
       -0.15352952 0.07230819 0.032641556 0.12742978
000390 ed 88 a5 be d5 67 26 3e f9 20 24 bd 0f 4a ee 3d
       -0.3233103 0.16250546 -0.040070508 0.11635219
0003a0 bb 89 c2 be 5c a4 8c be e3 93 22 be b8 43 39 3e
       -0.37995705 -0.27469146 -0.15876727 0.18092239
0003b0 37 b2 14 be 5b 74 49 3e d5 7d c7 3e 9f 7f 01 bf
       -0.14521109 0.19673292 0.3896319 -0.5058536
0003c0 5d f1 61 3e 0c ef 43 bb 82 aa 09 3e 1c b6 31 be
       0.22064729 -0.0029897122 0.1344395 -0.17354625
0003d0 da d6 d2 3d 2d 46 a0 3e cd bb 00 3f f7 0b db bd
       0.10294886 0.3130354 0.5028656 -0.106956415
0003e0 87 9a 92 be 7b 9b cf bc 71 2f f0 3e ac cc 22 be
       -0.2863352 -0.025342694 0.46911195 -0.15898389
0003f0 88 fc 22 3e 7b a5 94 3e 7f b6 a5 be 6f d1 bd bd
       0.15916646 0.29032502 -0.32365796 -0.09268462

rnn_slow.bias_ih_l0 f4 [48]
000000 8d 60 9a bc e0 9c 97 3e 99 33 38 3d 66 78 2f 3e
       -0.018844867 0.29611874 0.044971082 0.17135772
000010 ad 02 e6 bd 1d 6d c8 3d 32 11 8c 3d 35 8e 5b 3d
       -0.11230979 0.09786437 0.06839217 0.053602416
000020 ed 5e 5d be c2 7d 5b 3e a1 0d 20 3e 1f fa 9c ba
       -0.21618243 0.21434692 0.15630199 -0.0011976397
000030 c7 cc 7f 3e a4 bb 10 bd 45 89 98 3c 0d c3 cf bd
       0.2498046 -0.035335198 0.018620143 -0.10144625
000040 fa f9 b9 be 27 3a 10 bc 54 e4 4f be c2 c1 04 be
       -0.3632353 -0.008802927 -0.20301944 -0.12964538
000050 9d ad 00 bd f3 59 ae 3b 9c a2 55 bd 18 dd ec 3d
       -0.03141557 0.0053207814 -0.05215703 0.11565608
000060 72 9c a5 be 07 32 9c be dc 0a 30 be 14 06 2f be
       -0.3234592 -0.30506918 -0.17191643 -0.17092162
000070 35 8c 9b be 90 4a eb 3b c4 72 5b be 60 3b 99 bc
       -0.30380407 0.0071805194 -0.21430498 -0.01870507
000080 f2 97 54 3e f6 64 8f 3e a0 39 a6 bd 47 ae f5 3d
       0.20761088 0.28006715 -0.0811646 0.119961314
000090 5b 19 34 3c 09 5c 80 3d 5a 80 e7 bd bd 1f af 3e
       0.010992373 0.06267554 -0.11303778 0.34203902
0000a0 70 d9 52 3e a7 51 ec bb bf 41 33 3d 6e f0 77 3d
       0.20590758 -0.007211882 0.043763872 0.060532026
0000b0 50 b9 56 3e 60 6a ea 3d ba d4 77 be 6b 0e 25 3b
       0.20969129 0.11446071 -0.24202242 0.0025185596

rnn_slow.bias_hh_l0 f4 [48]
000000 0d 0c 54 3d 37 5c 85 3e ad d1 a7 bd ef 26 0e 3e
       0.051769305 0.26046917 -0.08194289 0.1388204
000010 74 98 c8 3d 23 57 c7 bd 2f ce b3 bd a0 ef d1 be
       0.09794703 -0.09733417 -0.08779561 -0.41003132
000020 ec 21 22 be d8 84 42 bd a1 52 20 be 37 aa d2 3d
       -0.15833253 -0.04748997 -0.1565652 0.10286372
000030 a2 54 7d 3e 7b f8 26 bd 56 11 7e 3e 05 3b 92 3d
       0.24739316 -0.040764313 0.248113 0.07140163
000040 16 a4 9c be 3b e1 6c be 72 45 a5 3d 57 02 7c 3d
       -0.30593938 -0.23132794 0.08069886 0.06152567
000050 29 3f 41 3e d4 da 8b 3d 6a 77 6e 3b 3e 89 7a 3d
       0.1887175 0.068288475 0.0036387094 0.06116604
000060 5a c7 b2 bd d1 2c 29 be 54 56 44 be e1 11 82 bd
       -0.087294295 -0.16521002 -0.19173557 -0.063510664
000070 9b c0 b2 be a2 e4 a8 be cd 9b 6f 3d ca 37 41 be
       -0.3491257 -0.32986933 0.058498193 -0.18868938
000080 4e 5d 9c 3e 21 58 34 3d 5a 29 90 3d c6 f5 e6 3d
       0.30539936 0.04402936 0.07039137 0.11277346
000090 4f ab ff be d3 a9 78 3e 91 a9 ca 3e 96 84 01 be
       -0.49935386 0.24283533 0.39582494 -0.12648234
0000a0 51 c2 9c be 5a 98 88 3e b8 ba 57 bd 59 54 a9 be
       -0.30617002 0.26678735 -0.052668303 -0.33072165
0000b0 65 01 91 3d 34 c1 bd 3d bd 70 92 be 5d 59 d6 bd
       0.07080344 0.09265366 -0.28601637 -0.104662634

project_sf.weight f4 [16, 16]
000000 ae b8 9b 3c 97 61 f0 3d 51 df 66 be c8 9e 2d 3e
       0.01900896 0.11737364 -0.22546126 0.16955101
000010 38 16 a7 bd 28 a0 a0 bd 68 3d 85 3d 77 21 5c be
       -0.08158535 -0.078430474 0.06505853 -0.21497141
000020 c1 29 67 3d 13 16 64 3d 45 49 1f bd 72 36 43 be
       0.056436304 0.055685114 -0.038888235 -0.19063738
000030 66 c3 d5 3d 02 cc 1d be f3 90 db bd 3c f6 2a 3e
       0.1043766 -0.15409854 -0.10721006 0.16695493
000040 28 99 57 bc 1c 54 0c be c2 b5 3a bd ab 53 1b 3e
       -0.013159074 -0.1370396 -0.045583494 0.15168636
000050 d4 1e 21 3e 47 34 2f be 62 9d 7e bd 54 1c 20 3e
       0.15734416 -0.17109786 -0.06216181 0.15635806
000060 ed ab 93 3e 9f ef 06 3e 33 d7 f7 3d 31 98 41 bc
       0.28842106 0.13177346 0.12101593 -0.01181607
000070 1e 0d f2 bc 46 91 af 3e 3d 97 01 3e 4a f8 70 bc
       -0.02954727 0.34290522 0.12655349 -0.014707634
000080 0a 6f 2d be f8 8e 6a be 5f 6f de bd 24 64 e8 3d
       -0.1693689 -0.22906101 -0.10861086 0.11347225
000090 8f 3d d1 bd 9d 05 f8 bd f0 ad 70 3e 8a 9e 1e bd
       -0.102168195 -0.12110446 0.23503852 -0.038725413
0000a0 33 ec b6 3d dc 1b 48 3e 61 c9 03 bd e6 f6 26 38
       0.0893177 0.19541878 -0.03217447 3.9807426e-05
0000b0 13 df 33 be 7e 04 25 3e 07 1d 3f be e1 71 49 be
       -0.17565565 0.16114995 -0.18663417 -0.19672348
0000c0 40 dc 5a 3c 1e 4e 13 3d 0f 5c 3e 3e cd 60 9a 3c
       0.013358176 0.03596317 0.18589805 0.018844986
0000d0 71 0a 5e be 95 72 8d 3d 6f 17 60 3e e1 3d 1f be
       -0.2168367 0.069066204 0.21883939 -0.15550949
0000e0 37 01 af bd 26 ac ec bd df 38 30 bd 5d f1 0a be
       -0.085451536 -0.11556272 -0.043022987 -0.13568635
0000f0 ec 83 86 bd a3 8a 09 3e 7b 81 10 bd 5f 4f c3 3d
       -0.06568131 0.13431792 -0.035279732 0.09536623
000100 6d fe 30 be 4c 64 40 3e 18 a3 1f be 81 0f 00 be
       -0.17284556 0.1878826 -0.15589559 -0.12505914
000110 2b ec 56 bd 62 23 05 be 91 84 b4 3e 08 58 3e 3e
       -0.05247132 -0.13001779 0.3525739 0.18588269
000120 5a 8c 1a 3e 97 d4 56 bd a2 9d 8f 3d 99 0f 0e 3e
       0.15092602 -0.052448835 0.07012488 0.13873138
000130 c5 cb 08 3d 2a 52 82 3e d1 5f 52 bd b4 d9 b1 be
       0.033397455 0.2545331 -0.05136091 -0.34736407
000140 5f 8c 2a 3e 42 7e 36 bd b9 7f 9c bd fd 49 0e 3e
       0.1665511 -0.044554003 -0.07641549 0.13895412
000150 9d a7 62 3e 87 3d 23 be ec 44 95 3d 2b 11 b1 3e
       0.22134252 -0.1594144 0.072885364 0.3458341
000160 ac c7 a4 bd 4b 85 78 bd 68 6d 80 3d f8 a8 87 3e
       -0.08045897 -0.060673993 0.062708676 0.264961
000170 e2 02 82 3e de d2 71 3e 7b 46 66 3e 64 f2 3d 3d
       0.25392824 0.23615596 0.22487824 0.04637374
000180 b7 9c 40 be b1 cc 65 be f7 d1 81 be 7d da 9b be
       -0.18809782 -0.22441365 -0.25355503 -0.3044013
000190 8a 58 23 be b1 fc 1a 3e 27 16 9f 3e 11 2d fb 3d
       -0.15951744 0.15135457 0.31071588 0.12264455
0001a0 a8 1b 0e 3e 1f b2 27 be 90 e4 55 3e 4d c8 4c be
       0.13877738 -0.16376542 0.20887971 -0.19998284
0001b0 6b d5 f3 3c f9 eb 27 be 4d 4e 05 3e c3 bc e1 bd
       0.029764852 -0.1639861 0.1301815 -0.110223316
0001c0 a1 c0 4f be e1 56 e6 3d d5 db 92 3e 50 db 97 be
       -0.20288326 0.112470396 0.28683344 -0.2965951
0001d0 05 a2 82 3e 01 d4 e3 3d 67 85 d0 bd f0 86 41 3e
       0.25514236 0.11124421 -0.101816945 0.18899131
0001e0 64 ae 08 be c2 81 15 be 97 a2 b2 3d 60 56 3b bd
       -0.13347775 -0.1460028 0.08722418 -0.04573667
0001f0 40 a8 33 be 8e 44 4d be 1d 1e 82 3e 47 fa 63 be
       -0.17544651 -0.20045683 0.254136 -0.22263442
000200 15 6e ed 3d e7 54 4c 3e e2 19 79 3e 0f ac 77 bd
       0.11593262 0.19954263 0.2432628 -0.060466822
000210 da 60 c9 bd f2 87 37 be 80 d8 ee 3d 35 2f 82 3e
       -0.09832926 -0.17922953 0.11662388 0.2542664
000220 1f 6c 96 3e be 38 15 3e ea 9d 62 be f4 5f 28 3e
       0.29379365 0.14572427 -0.22130552 0.16442853
000230 48 87 6b 3d 42 9b 9d bd 68 77 ea bd ff ea 42 be
       0.05750206 -0.07695629 -0.11448556 -0.19034956
000240 57 83 43 be 43 49 c7 3d 69 83 13 3e 5f bf 09 3d
       -0.19093071 0.097307704 0.14405598 0.03362977
000250 61 9c 0d bc 56 46 2e be 67 9f eb bc 63 51 a5 bd
       -0.008643241 -0.17019019 -0.028762532 -0.08072164
000260 9a 6f 0b 3e 25 1d 07 be 50 e1 67 be 6f 8b 87 3e
       0.13616791 -0.13194712 -0.22644544 0.26473567
000270 b1 9d 86 3e 0a 6f 18 3e 7a ba e2 bd b7 d5 22 bd
       0.26292184 0.14886108 -0.11070724 -0.039754596
000280 6d d7 cb 3d ef c3 72 be a8 3f 91 3b 73 8d c5 3d
       0.099531986 -0.23707555 0.0044326372 0.0964612
000290 d8 9d 1b be b8 84 75 3e 74 9a 04 be 9e a0 66 bd
       -0.15196931 0.2397641 -0.12949544 -0.05630552
0002a0 fa d7 2b 3e 31 c8 55 be 96 0e 80 bb 39 45 94 3e
       0.16781607 -0.20877148 -0.003907989 0.28959063
0002b0 fa df bb bd 62 9b c6 3c 3a 59 13 3c 08 b3 06 3e
       -0.091735795 0.024244014 0.008993441 0.13154233
0002c0 12 0b db bc 00 7e 71 bb e1 61 9a bc 42 a4 4b bd
       -0.026738677 -0.0036848783 -0.0188455 -0.049717195
0002d0 fa 6b 2f be 82 eb ee bc c0 94 60 3e 36 7f 4b 3e
       -0.17131034 -0.029165033 0.21931744 0.19872746
0002e0 51 49 4a 3e 9a 18 fe bc 64 9c 07 be 1c c8 5a 3d
       0.1975453 -0.03101759 -0.13243252 0.053413495
0002f0 16 74 f6 3c 32 ba 86 3e d3 66 74 3d 57 4c 4c be
       0.030084651 0.2631393 0.059668373 -0.19950996
000300 17 cb 81 3e ff 9c 52 3e 23 39 7d be c1 dd 3a be
       0.25350258 0.20567702 -0.24728827 -0.18248655
000310 87 ce 0d be 91 64 86 3e 91 5a 2d 3d e2 47 d9 3c
       -0.13848315 0.262486 0.0423227 0.026523534
000320 8e ba 1e 3e fb 99 a2 3e 09 f2 08 3d 2e 63 a2 be
       0.15500852 0.31758103 0.033433948 -0.31716293
000330 ce 8e f5 bd 87 95 3a 3d f1 77 42 be ff 58 fb 3d
       -0.119901285 0.045552757 -0.18991067 0.12272834
000340 6c 63 13 3d 8c e4 12 3e 8a 59 fb 3c 71 4f c4 3d
       0.035983488 0.14344996 0.030682344 0.09585465
000350 f3 65 09 3e f0 ad 16 be 54 60 05 be 87 eb 08 be
       0.13417797 -0.1471479 -0.13025028 -0.13371097
000360 9e 5c af 3c 0a 24 17 3e 4f 25 06 3d 47 7f 2a be
       0.021406468 0.14759842 0.032750424 -0.16650115
000370 94 74 57 bd fe 69 21 3e 31 db 60 be e5 a7 42 be
       -0.052601412 0.15763089 -0.21958615 -0.19009359
000380 4d 0f 87 be 2a a7 21 be 1c dd a2 3e 67 5c a4 be
       -0.2637886 -0.15786424 0.31809318 -0.32101747
000390 e8 a0 5a 3e a4 79 d7 3d 97 0c 4e be 84 97 24 3e
       0.21350443 0.10521248 -0.2012199 0.16073424
0003a0 c6 18 16 3e dd 30 67 3d 6d e7 fe 3d 12 b0 89 3e
       0.14657888 0.056443084 0.12446485 0.26892143
0003b0 0f 86 8a bd ec 4a 81 3e c3 cc be 3d d6 e1 59 be
       -0.06763851 0.25252473 0.09316399 -0.21277556
0003c0 99 3a 7e 3d 5a c0 a8 3e ba c6 4c be 22 9b 5b 3e
       0.0620676 0.32959253 -0.19997683 0.21445897
0003d0 73 bc 21 3e 60 e2 8f 3e 5f 37 a2 bd 85 17 0d be
       0.15794544 0.28102398 -0.079207174 -0.13778503
0003e0 35 59 8f be 1b 33 98 3e b6 5c 27 3e 9f 3a d8 bb
       -0.27997747 0.2972649 0.1634396 -0.006598785
0003f0 67 b1 99 3e 73 1f d1 ba 4c 6d 1f be 08 69 9e bd
       0.3001816 -0.0015954807 -0.15569037 -0.07734877

project_sf.bias f4 [16]
000000 c2 11 49 bc fe 55 ce 3e 68 49 1a 3e ae 8d c9 bd
       -0.0122723 0.40299982 0.15067065 -0.098414764
000010 8c c2 ae bd d8 5c 36 bc e6 55 28 be 21 d5 2c 3e
       -0.085332006 -0.011130534 -0.16439018 0.16878177
000020 ce 4d 01 3e 76 37 8b bd 21 c1 9e bd 1c 33 83 be
       0.12627336 -0.06797688 -0.0775168 -0.2562493
000030 ac 8b 5c 3e 51 17 8e bd d1 3c 78 be 28 68 2c ba
       0.21537656 -0.06938041 -0.2424195 -0.00065768

rnn_fast.weight_ih_l0 f4 [48, 1]
000000 00 8a 47 be a0 5a 10 3c 28 77 6b bd e0 f7 ba 3c
       -0.19486237 0.008810669 -0.057486683 0.022823274
000010 e8 cd be bd 04 4c 30 be fc bf 0f 3e 32 b6 27 3e
       -0.09316617 -0.17216498 0.1403808 0.16378096
000020 0c dd 87 3d 88 68 c2 3d 64 e1 c8 bd c0 8e 97 bd
       0.06633958 0.09492594 -0.09808615 -0.07400274
000030 c8 bc 1b be a0 c9 f7 3c b6 ae 5f 3e a6 2e 37 3e
       -0.15208733 0.03024751 0.2184399 0.17888889
000040 a4 4b 8a 3d 6c 9f c1 bd 78 5a 97 bd 12 c3 20 be
       0.067527086 -0.094542354 -0.073903024 -0.15699413
000050 70 e9 75 3d 40 75 6a be 64 de 2e 3e 2e 3a 26 3e
       0.060037076 -0.2289629 0.17077023 0.16233131
000060 82 8c 75 be 70 bb 4e bd cc c6 91 3d d6 2f 0b 3e
       -0.2397938 -0.050471723 0.071179956 0.13592467
000070 42 e4 41 be 00 b0 ad b8 08 58 42 3d 70 3c 73 3d
       -0.1893473 -8.2820654e-05 0.047447234 0.05938381
000080 d6 56 59 be 9a fc 76 3e 00 8c 8d 3c 18 64 a3 bd
       -0.21224532 0.24119797 0.017278671 -0.07978076
000090 30 f3 13 3e de eb 1d be c0 f2 02 bd 28 35 73 bd
       0.14448237 -0.15422007 -0.031969786 -0.059376866
0000a0 5e 2b 79 be b4 28 6d 3e 2c 71 18 3e 78 46 dd 3d
       -0.2433295 0.23160058 0.14886922 0.108044565
0000b0 ec 48 5a be a4 e4 63 3e 1c bf e5 3d 06 55 58 3e
       -0.2131688 0.22255188 0.11218092 0.21126184

rnn_fast.weight_hh_l0 f4 [48, 16]
000000 39 79 66 be 49 37 23 3e a1 b4 cc bd cf 68 30 be
       -0.2250718 0.15939058 -0.0999539 -0.17227481
000010 70 94 49 3e f1 c3 5f 3e d7 ae d0 3d a7 00 87 bb
       0.1968553 0.2185209 0.10189598 -0.004119951
000020 ce 26 1d 3e a3 84 28 3e 22 62 02 3e b3 83 8f 3d
       0.15346834 0.16456847 0.12732747 0.070075415
000030 09 c8 6c 3e 9d 9a 4f be 9a 9c 4c be d7 a5 32 be
       0.23123182 -0.20273824 -0.19981614 -0.17446075
000040 a3 a1 59 be 8f 2e d6 bd 4c de 0b 3e 7d 85 6f 3e
       -0.21253066 -0.10458099 0.13659018 0.23390765
000050 40 c6 f0 bd 51 e7 7f be af d3 3b be 2e e7 96 bd
       -0.11756563 -0.24990584 -0.1834247 -0.07368313
000060 67 6a 5e 3e f7 82 f7 3d ad cf 6f 3e 54 33 3c be
       0.21720277 0.120855264 0.23419066 -0.18378955
000070 23 46 86 bd ac c9 e7 bc 53 af 67 3e 6d 61 12 be
       -0.06556346 -0.028294407 0.22625475 -0.14294977
000080 a5 26 39 be 6c 9e 3e 3e 67 81 16 3e 5e 56 3e 3e
       -0.18081148 0.1861512 0.146978 0.18587634
000090 95 19 00 3d 92 17 04 be 87 ff 2e be c5 77 f6 3b
       0.031274397 -0.12899616 -0.17089663 0.007521602
0000a0 a8 b0 fc bc be a8 32 3e 45 9d d0 3d 27 16 8b 3d
       -0.030845955 0.17447183 0.10186247 0.067913346
0000b0 c6 1a 1b bd 5f 16 22 3d 54 66 2f be 10 d7 5c be
       -0.03786733 0.039572116 -0.17128879 -0.21566415
0000c0 e8 15 41 be b5 6e 69 3e a3 4c fd 3d 75 78 e9 3d
       -0.18856013 0.22796138 0.12368133 0.113999285
0000d0 5d 8e 65 3e 5a c0 26 3e 5b 7a cd bd 2f 93 35 be
       0.22417589 0.16284314 -0.10033103 -0.17731927
0000e0 d4 b7 c3 3c 6a 46 99 3d c4 92 ec bd ba da f9 bd
       0.023891367 0.074841335 -0.11551431 -0.12199922
0000f0 59 9e 1e 3e 36 a5 85 3c a2 7c 48 be e9 a4 5d be
       0.15490092 0.01631413 -0.19578794 -0.2164494
000100 2d a1 3a 3e 2a 0b 58 3d e5 88 e6 bb c4 b5 24 3d
       0.18225546 0.052745022 -0.007035362 0.040212408
000110 d4 2f 2d 3e e7 f3 39 3e 05 26 ee 3d 3b dd 3d 3e
       0.16912776 0.18159448 0.116283454 0.18541424
000120 79 44 4d bd 62 74 22 3d 81 76 25 3e 05 fb 4b 3e
       -0.05011413 0.039661773 0.16158487 0.19919975
000130 4a e0 ea 3d b4 6d 95 ba d2 8c 48 3e 1e 29 1d 3d
       0.11468561 -0.0011400492 0.19584969 0.03836929
000140 f2 82 5b 3e 84 64 a6 bd e1 7f a5 3d 85 53 47 3e
       0.2143667 -0.081246406 0.080810316 0.19465454
000150 9e fb 17 3e de 2d c4 3d 3d 40 85 be 5d 26 87 bd
       0.14842078 0.09579061 -0.26025572 -0.06599114
000160 10 b5 7e 3e ef 03 c2 bd e7 33 1f be 7f 02 36 bd
       0.24873757 -0.094734065 -0.15547143 -0.044435974
000170 0d ce 0c be d6 1d 51 be df a9 ea bd 11 44 68 be
       -0.13750477 -0.20421538 -0.114581816 -0.22682215
000180 5b ff 46 3e fb 60 d8 bd ea bd cb 3c b8 87 d8 3d
       0.19433348 -0.105653726 0.024870832 0.10572761
000190 d6 60 15 bd 2e bd 3c be 75 55 77 bd 9e a0 12 be
       -0.036469303 -0.18431541 -0.060384233 -0.14319083
0001a0 a4 d6 54 be ce d0 3b be fd ff ea bd 87 b5 74 be
       -0.20785004 -0.18341371 -0.11474607 -0.23897372
0001b0 0a 61 06 be 4e 5f 2b 3e 8d 9c d8 bc 02 69 b9 3c
       -0.13122955 0.16735575 -0.026441837 0.02263308
0001c0 88 f8 52 3e d7 25 18 3e 1d 21 04 bd c7 65 a4 bd
       0.2060262 0.14858185 -0.03225814 -0.08027225
0001d0 ef 1a 9a bd b6 2d 27 3e 4d 48 bb 3d 46 b1 4a be
       -0.075246684 0.16326031 0.0914465 -0.19794187
0001e0 88 15 4a be b7 42 43 be eb 6d 69 3e 83 0b cb 3d
       -0.19734776 -0.19068418 0.22795837 0.09914305
0001f0 fc 84 66 bd 9c 54 2f 3d dd 14 3f 3e f8 d9 4f bd
       -0.056279168 0.0428053 0.18660302 -0.05074498
000200 a8 a7 62 3e 50 61 44 3e 9d d5 ec bd 09 47 a6 3d
       0.22134268 0.19177747 -0.11564181 0.08119018
000210 0e 87 75 3e b3 e9 46 be 6c 76 32 3e ad 0d 70 3d
       0.239773 -0.19425087 0.17427987 0.058606792
000220 b6 8f 78 3e 89 f7 9b 3d 46 44 19 be 42 77 54 3e
       0.24273571 0.07615573 -0.1496745 0.20748618
000230 f0 91 50 3e 4d ed 22 be 2f 39 e2 3d 2d 3a 56 3e
       0.2036817 -0.15910836 0.11046063 0.2092063
000240 54 00 33 be b0 16 8e bd 2e 1b 7b 3c de 12 74 3e
       -0.17480594 -0.06937921 0.015326304 0.23835322
000250 52 a6 b3 bd dd b2 60 3d ed 48 d7 3c f3 20 90 3d
       -0.087719575 0.054858077 0.02627989 0.070375346
000260 bb d5 b9 bb 2e df 4a be c3 bc 9c 3d 76 f6 08 be
       -0.0056712306 -0.19811699 0.07653191 -0.13375267
000270 9a 64 84 3d 81 96 c7 bd 05 ba 3c be c9 0e 10 3d
       0.06464501 -0.09745503 -0.18430336 0.03517035
000280 b4 df 73 bd 29 60 d7 bd 59 53 28 3e 1e 4c 0d 3e
       -0.05953951 -0.10516388 0.16438045 0.13798568
000290 cb 43 b7 bd 7a c9 24 be 25 99 76 be a3 e0 4d 3c
       -0.08948477 -0.16092482 -0.24081858 0.012565765
0002a0 b5 45 47 3d 33 68 3f be 3d b7 4c be ec 4d 67 bb
       0.048650462 -0.18692093 -0.19991775 -0.0035294248
0002b0 7b b8 02 be 86 14 1f be 40 e6 24 be 27 3c a9 3d
       -0.12765686 -0.15535173 -0.16103458 0.08263426
0002c0 83 b5 fe bc 73 c0 1a 3d 82 1d 18 3d 1e 06 f1 3a
       -0.03109241 0.03778119 0.037137516 0.0018388664
0002d0 59 a4 2e 3e 3f 56 1b bd 86 eb 12 be e3 f2 e9 bc
       0.17054881 -0.037924048 -0.14347658 -0.0285582
0002e0 7a 4e 39 be 82 1b 16 3e b1 2e ab 3d 22 98 e9 bb
       -0.18096343 0.14658931 0.08358515 -0.0071287313
0002f0 60 ea 35 be 1b 92 e0 bd f5 fd 44 bd 22 56 06 be
       -0.17765188 -0.109653674 -0.048093755 -0.13118795
000300 ee 41 4e be e2 90 cd bd ce 74 f9 bd 36 27 75 3e
       -0.20142338 -0.100374 -0.12180482 0.23940739
000310 10 c1 23 3e 0e bb 4f be 79 6a 43 be 32 dd 51 3e
       0.15991616 -0.202862 -0.19083585 0.20494536
000320 4e fd a8 bd 7d 01 0b 3e c3 95 47 3e f8 ec f2 3d
       -0.08251439 0.13574786 0.19490723 0.118616045
000330 0a 07 9d bd 84 6f 9e 3d e7 d0 25 be d9 64 35 be
       -0.07667358 0.07736114 -0.16192971 -0.17714252
000340 e5 90 14 be aa 71 57 3e ad 05 6e be b1 34 4b be
       -0.14508398 0.21039453 -0.23244353 -0.19844319
000350 45 62 56 3e d6 1a 55 be c0 ac 5d 3e db 37 02 3e
       0.20935924 -0.20811018 0.2164793 0.1271662
000360 15 ef 35 3e e8 33 90 3d 68 da 6b 3e a1 5d 56 be
       0.17766984 0.0704115 0.23032534 -0.20934154
000370 6d f7 74 3e f1 f8 df bd aa e0 12 3d 5e e4 61 3e
       0.2392251 -0.10936154 0.035858788 0.22059771
000380 d3 bc 54 be c9 07 df 3d d8 66 5a 3e 8f 9a fd bd
       -0.20775156 0.10890157 0.21328294 -0.12382995
000390 78 38 b8 3d c0 86 67 3e 2a 18 d2 3d f2 88 55 3e
       0.089951456 0.22609997 0.10258515 0.20853022
0003a0 2b ac c6 bd 47 f0 0f bb d2 17 30 bd 4c 74 48 bb
       -0.09700807 -0.0021963285 -0.042991467 -0.0030586896
0003b0 f0 be f0 bc a0 af 5f 3e 31 7c fe 3d 8d cb a5 3d
       -0.029387921 0.2184434 0.124260314 0.08095465
0003c0 1f f7 7d 3e 4c b2 3e be da cd 23 be 87 bc 4e be
       0.248013 -0.18622702 -0.15996495 -0.20189105
0003d0 86 02 39 be 77 0b 5d 3e 80 6a 5c be 2b 3f 4d be
       -0.18067369 0.21586405 -0.21525002 -0.20043628
0003e0 78 16 45 3e 77 32 05 3d 04 33 28 3e 50 82 17 3e
       0.19246852 0.03251883 0.16425711 0.14795804
0003f0 73 d6 97 bb 37 48 2c 3e ee dd 6b 3d 37 e7 6c be
       -0.0046337186 0.16824423 0.057584696 -0.23135076

rnn_fast.bias_ih_l0 f4 [48]
000000 69 09 58 be 5f b1 56 bd 89 60 e0 3c 8d d3 54 3e
       -0.2109734 -0.052415248 0.027389782 0.20783825
000010 db 48 99 3d 96 0c 3f be c5 15 98 3d 72 1c 42 be
       0.07484599 -0.18657145 0.07426027 -0.18956164
000020 f8 c7 1a 3e 9f bc 16 be 6a b5 54 be 72 be 9b 3d
       0.15115345 -0.1472039 -0.20772329 0.07604684
000030 ef 1f 0b be 07 a0 63 3e ea d7 fe 3c 16 4f 62 3e
       -0.135864 0.22229014 0.031108815 0.22100481
000040 59 cf df 3d 2a d7 dd bd 3d 32 5a 3d 17 4f 13 be
       0.1092822 -0.10832055 0.053270567 -0.14385639
000050 02 84 47 be 3f 4c 1d 3e 55 4e 0f be a3 37 97 3d
       -0.1948395 0.15361117 -0.13994725 0.07383659
000060 21 d6 0c 3e 09 ff bb 3d b4 bd 54 3e 8a 57 6b 3e
       0.13753559 0.091795035 0.20775491 0.22982612
000070 f1 ef 73 3e fe 8c d7 3c eb 15 26 bc 9c 70 a2 bd
       0.23821999 0.026312348 -0.010137062 -0.07931635
000080 33 d2 17 be 3b d5 e8 3d 03 66 48 be 07 62 82 3e
       -0.14826278 0.113687955 -0.19570164 0.25465414
000090 f1 25 87 3d 7a 96 1e bd 39 aa 49 be 52 4b 17 3e
       0.065990336 -0.038717724 -0.19693841 0.14774826
0000a0 aa 02 12 3e 19 87 e4 3d 52 b0 77 be f5 f4 2e 3e
       0.14258829 0.1115858 -0.24188355 0.17085631
0000b0 a0 9a 02 be df ae 71 3e 22 19 18 3e 87 58 15 bc
       -0.12754297 0.23601864 0.14853337 -0.009115345

rnn_fast.bias_hh_l0 f4 [48]
000000 43 31 38 3e 8e 75 a6 bd 9a ed 3a 3e c5 27 6a 3c
       0.17987542 -0.081278905 0.182547 0.014291708
000010 02 64 6f 3e 8f 76 9d 3d 81 68 0a be 36 a5 02 3d
       0.23377994 0.07688629 -0.13516428 0.03189584
000020 e2 e6 5d 3e 56 66 b8 3c 79 af 84 bd 25 2f 55 be
       0.21670106 0.022509735 -0.06478781 -0.20818765
000030 42 b7 bc bd 4d 78 03 3e 30 44 57 be fd b2 0b bd
       -0.09214641 0.1283886 -0.21022105 -0.034106243
000040 03 ec 99 bd d9 35 34 3e 5d 4f 4a 3d fa f6 e5 bc
       -0.07515719 0.17598666 0.049392093 -0.02807187
000050 92 da 79 3e 3f 66 52 bc 46 ee e3 bd b2 e8 67 3e
       0.24399784 -0.01284176 -0.111294314 0.2264736
000060 31 d7 13 be 8f f2 6c be d4 ec 0e be 18 4e 24 be
       -0.14437558 -0.23139404 -0.1395753 -0.16045415
000070 a6 26 df 3d a5 0e 4c be 8c 75 ec bc 81 de 80 3d
       0.108960435 -0.19927461 -0.028864644 0.06292439
000080 1a 59 c2 bd 39 fa 37 3e d3 b6 5e 3e 9d bb 57 3e
       -0.09489651 0.17966546 0.2174943 0.21067663
000090 5c 7e dd 3d c7 79 46 3e 5b 20 57 3c b3 71 62 be
       0.10815117 0.19382392 0.013130273 -0.22113685
0000a0 9c ae 2e 3e 91 c4 89 3d af 26 fc 3d 79 66 c5 bd
       0.17058796 0.06726945 0.12312066 -0.09638686
0000b0 50 9d 0d be a8 82 65 be f0 c7 86 3e 02 f7 70 be
       -0.13829541 -0.22413123 0.26324415 -0.23531726

initial_evidence.weight f4 [1, 16]
000000 3d a1 01 3e 5c 72 64 be b9 62 dd 3d 4b 9e 8d be
       0.12659164 -0.2230925 0.108098455 -0.2765983
000010 b0 5a df 3c a0 15 b5 bc 11 c7 08 3e fa 8b 08 3e
       0.027264923 -0.022105038 0.13357188 0.13334647
000020 a2 4a 5d 3d ba 8c 11 3e 21 04 1d 3e ea 85 fc 3c
       0.054026254 0.14213839 0.15333606 0.030825574
000030 5d 2f af bd 5a 76 08 3e d6 a0 28 be 98 4d 2c be
       -0.08553956 0.13326398 -0.16467604 -0.16826475

evidence_head.0.weight f4 [1, 16]
000000 30 c8 b0 3c 63 84 86 3d 6f 94 f6 3b 94 e7 87 3e
       0.021579832 0.065682195 0.007525019 0.26543868
000010 9e c3 45 3d 95 aa 78 3d a4 ed 9f 3d c9 8f 37 3d
       0.04828226 0.060709555 0.07808998 0.04481486
000020 95 d0 8a 3d b7 21 5b 3d b6 3f 79 3d 10 fb 89 3c
       0.06778065 0.05349895 0.060851775 0.016843349
000030 fd 36 90 3c 66 31 67 3d 81 80 a3 3d 82 a2 b2 3d
       0.017604345 0.056443594 0.079834945 0.08722402

fast_choice_head.0.weight f4 [16, 16]
000000 7c f0 91 3d ac 80 57 be 48 24 a7 3d 70 e2 6c bd
       0.07125947 -0.21045178 0.08161217 -0.057833135
000010 fc ba bf 3d 68 77 57 3d a0 a0 7e be 16 f6 26 be
       0.09361836 0.05260411 -0.24865961 -0.16304812
000020 64 9a f8 bd d0 ee 7b 3d 30 28 cb bd 80 a4 bd 3d
       -0.12138823 0.061507046 -0.099197745 0.092598915
000030 58 03 7b bd 20 92 3e 3c 40 53 6d bc dc 1e de 3d
       -0.061282486 0.011631519 -0.01448518 0.1084573
000040 10 2c c6 3d 0c 71 09 3e 30 85 c8 bd 00 bb 94 bd
       0.09676373 0.1342203 -0.097910285 -0.0726223
000050 00 6e c6 bc 4c 33 8c bd 20 59 74 bd 60 b0 c6 bc
       -0.024222374 -0.068457216 -0.05965531 -0.024254024
000060 50 1c f0 3c 36 c9 2f be d8 7f 04 be 2a 2b 16 be
       0.029310375 -0.171666 -0.12939394 -0.14664903
000070 40 03 23 be 3a 97 57 be 34 51 b7 3d 4c 27 7b be
       -0.15919209 -0.21053782 0.08951035 -0.2452671
000080 90 c6 40 3e c6 56 1a 3e 94 c5 4b 3e 98 6b a7 3d
       0.18825746 0.15072164 0.19899589 0.08174819
000090 d4 70 15 3e 54 7d bd bd de 37 12 be 06 c5 75 be
       0.14593822 -0.0925242 -0.14279124 -0.2400094
0000a0 00 05 7d bd f4 6a 81 bd 38 4e fb 3d 16 ce 56 3e
       -0.061772346 -0.06319228 0.122707784 0.20977053
0000b0 00 05 10 bd d8 23 45 bd a0 82 51 3d 44 67 5c be
       -0.03516102 -0.048129886 0.051149964 -0.21523768
0000c0 00 b2 80 bb b0 1c 29 3e 98 c4 2a bd e4 cb c4 3d
       -0.0039274693 0.1651485 -0.041691393 0.096092016
0000d0 e8 e7 5c bd e0 3f ce bc 70 b8 2f be d0 f9 b1 bc
       -0.0539321 -0.025176942 -0.17160201 -0.021725565
0000e0 b6 08 39 be 80 de ca 3d 30 68 db bd 4e a3 47 be
       -0.18069729 0.0990572 -0.107132316 -0.1949589
0000f0 fc 3b f2 bd 5c ec 17 be cc ef 4b be 0e 6f 74 3e
       -0.11827847 -0.14836258 -0.19915694 0.23870489
000100 00 ce 25 bd 88 d7 59 3d 0a 17 14 3e ac 38 a6 bd
       -0.04047966 0.053184062 0.14461914 -0.08116278
000110 1a a6 47 be 0e 16 0d be 76 96 0c 3e 7a f2 5e be
       -0.19496956 -0.13777944 0.13729271 -0.21772185
000120 c0 4a d1 3b 78 90 48 3e 80 2f 54 bd a0 b6 24 be
       0.0063870847 0.1958636 -0.051803112 -0.16085291
000130 18 67 a1 bd 40 bb df 3b de c2 1d 3e 00 cd c0 3a
       -0.07880992 0.006827742 0.15406367 0.0014709532
000140 0c fd 2c be 00 20 d1 bb 7e 56 0b 3e a6 d3 6b be
       -0.16893405 -0.0063819885 0.13607213 -0.23029956
000150 80 aa 79 3c 20 e3 3a 3c 30 d5 4a 3d 7e fb 75 be
       0.015238404 0.01140669 0.049519718 -0.24021718
000160 10 32 43 be 3e 84 6f be 96 7e 4c 3e 4e 20 56 be
       -0.19062066 -0.2339029 0.19970164 -0.20910761
000170 0e 83 69 3e 40 7e 55 be 72 65 2f 3e f0 f4 a7 bd
       0.228039 -0.20848942 0.17128542 -0.08201015
000180 64 65 7a 3e c0 01 3b 3d 14 91 60 3e 90 e8 8f 3c
       0.2445274 0.045655966 0.21930343 0.01756695
000190 b8 96 0a bd 36 2d 40 be e2 06 0a be 60 9c 73 3e
       -0.033835143 -0.18767247 -0.13479188 0.23790121
0001a0 f6 32 7e 3e 74 b4 5c 3e 54 f7 0f 3e 9c d3 39 3e
       0.24824128 0.21553212 0.14059192 0.18147129
0001b0 34 9a 3b be 20 1a b5 3c b8 8f e3 3d 10 8d 0b be
       -0.18320543 0.022107184 0.111113966 -0.1362803
0001c0 68 bb 4b 3d 32 97 6a 3e 88 b1 ac bd 64 32 f8 3d
       0.04973927 0.22909239 -0.08432299 0.12118986
0001d0 64 e6 aa bd 0a 3b 35 be 30 0f 33 3d e0 35 5e be
       -0.08344725 -0.17698303 0.043715656 -0.21700239
0001e0 42 2d 7d be 00 ad b3 3a 40 d5 38 3c b4 80 bf bd
       -0.24724296 0.0013708174 0.0112813115 -0.0935072
0001f0 a0 e2 1d be 1c 57 ae 3d 70 9a f6 bd 80 d6 4c be
       -0.15418482 0.085127085 -0.12041175 -0.200037
000200 1a c5 4f be 50 a1 5d 3d 02 b1 67 3e c0 98 ba bd
       -0.20290032 0.054108918 0.22626117 -0.09111166
000210 78 8d f8 bd 24 9e 1a 3e ca 5a 43 be b0 76 4e 3e
       -0.12136358 0.15099388 -0.19077602 0.20162463
000220 9e 47 7c be c8 ec 0c 3d d4 d6 9b bd 5a 57 6c 3e
       -0.24636695 0.0344055 -0.076093346 0.23080197
000230 5c 61 87 bd b8 f5 13 be fe d6 04 3e 7e de 64 be
       -0.06610367 -0.14449203 0.12972638 -0.22350499
000240 8c ad ed 3d be 66 1a 3e 08 4c cc bd 6a eb 20 3e
       0.11605367 0.15078256 -0.09975439 0.15714803
000250 08 67 2b 3d 74 e1 cb bd 9c 14 ab 3d ce 19 45 be
       0.041846305 -0.09955111 0.0835354 -0.19248125
000260 00 0b c6 bb be 0d 0a 3e cc 50 62 3e 30 af d3 bd
       -0.006043792 0.13481805 0.22101134 -0.10336149
000270 5c 56 09 be 78 76 10 be ec 4f fe 3d e6 05 71 3e
       -0.1341185 -0.14107692 0.12417588 0.23537406
000280 96 20 07 be 10 22 21 3d 40 4c 65 3e 40 cd fa bc
       -0.13196024 0.039339125 0.22392368 -0.030615449
000290 7c 4d 00 3e d8 12 61 bd da 2e 61 be a2 ec 49 3e
       0.12529558 -0.05494961 -0.21990529 0.19719175
0002a0 50 91 2f be 06 d7 42 be 50 14 7d bd ae 71 28 be
       -0.17145276 -0.19027337 -0.06178695 -0.16449615
0002b0 e0 06 1b 3e 70 9b 2a bd e6 e1 75 be 00 2c 83 bb
       0.15139341 -0.041652143 -0.24011955 -0.004003048
0002c0 58 a4 27 3d da ac 3b 3e 48 22 e2 3d 60 3a 48 bc
       0.040928215 0.18327656 0.11041695 -0.012220949
0002d0 4a a3 7c be 80 6b 18 bc d6 a2 43 be c8 95 67 3d
       -0.24671665 -0.009302974 -0.19105086 0.056539327
0002e0 0c a0 9b 3d 98 c8 f4 3d 44 63 0e be 8e d4 69 be
       0.07598886 0.11952323 -0.13905054 -0.2283499
0002f0 ec 85 ce bd a0 be c0 3d a8 83 e2 3d 12 d1 2f 3e
       -0.10084137 0.09411359 0.11060268 0.17169598
000300 80 89 9d bb 48 3a 26 3e 70 d6 75 bd 00 0f 1c 3b
       -0.004807651 0.1623317 -0.060018957 0.0023812652
000310 e0 12 8f bc da de 13 be b4 af 59 be 1c 73 ce 3d
       -0.017465055 -0.1444048 -0.21258432 0.10080549
000320 00 a1 c1 bd 8c d2 4b 3e 40 c8 93 bc a0 42 6a 3d
       -0.094545364 0.19904536 -0.018039823 0.057192445
000330 9c b7 67 be 42 fc 51 be 1c da da 3d 66 73 0e be
       -0.22628635 -0.20506385 0.10686132 -0.13911209
000340 a0 24 74 be de a8 53 3e 84 a0 ea 3d 28 00 f1 bd
       -0.23842096 0.20669886 0.11456397 -0.11767608
000350 52 15 60 3e 10 40 d3 3c 2c 6d 7d 3e 20 e5 ed bd
       0.21883133 0.025787383 0.24748677 -0.11615968
000360 36 32 1a 3e c0 56 51 bd 84 fc df 3d 0a 3a 5b 3e
       0.15058216 -0.051108122 0.109368354 0.21408859
000370 04 6a 8c 3d b4 e5 c2 bd e2 17 4a be 10 1c ee 3d
       0.068561584 -0.09516469 -0.19735673 0.11626446
000380 48 f8 f9 3d 3a 5b 2a 3e 06 73 00 be 86 7a 49 3e
       0.12205559 0.16636363 -0.12543878 0.19675645
000390 40 9b 91 bd c0 cc 50 bd d8 eb 4f 3d 04 e7 2f be
       -0.0710969 -0.050976515 0.050762028 -0.17177969
0003a0 00 ba b5 ba f6 47 26 be 40 68 dd bc f0 c9 ec bd
       -0.0013864636 -0.16238388 -0.02702725 -0.11561954
0003b0 98 60 10 bd 44 c5 d2 bd 5a 0d 21 3e fa 9f 4e be
       -0.03524837 -0.10291532 0.1572775 -0.20178214
0003c0 48 f4 7e be 9a 26 2c 3e a4 e8 0a be 1c fc 97 3d
       -0.24897873 0.168116 -0.13565308 0.07421133
0003d0 e8 0a 1a be 7a 01 48 3e b8 9e 3d 3d 7e 5d 40 3e
       -0.15043223 0.19531813 0.046293944 0.18785664
0003e0 82 67 22 be da 33 0f 3e 26 b5 7b 3e 40 4e c0 bb
       -0.15859798 0.13984624 0.24580821 -0.005868703
0003f0 12 1d 52 be ec 18 eb bd 32 d7 5d 3e c4 d8 25 be
       -0.20518902 -0.11479363 0.21664122 -0.16195971

fast_choice_head.0.bias f4 [16]
000000 d4 a6 a4 3d 60 c3 7b bc 1e 60 3c 3e 10 a5 c3 3c
       0.080396324 -0.015366405 0.18396041 0.023882419
000010 54 4e 1c 3e 70 a0 36 bd 60 98 80 bc 28 aa 8f bd
       0.15264255 -0.0445866 -0.015697658 -0.070148766
000020 92 7e 6f be 68 3b e9 bd 00 57 55 3c 38 66 2c be
       -0.23388126 -0.11388284 0.013021231 -0.16835868
000030 0c 6b 6f 3e 98 c5 09 be 84 91 c8 3d 36 b9 77 be
       0.23380679 -0.13454282 0.0979338 -0.24191746

fast_choice_head.1.weight f4 [1, 16]
000000 80 30 7b 3e d0 44 36 3d 5a 66 3d be a4 2b 16 3e
       0.2453022 0.04449922 -0.18496075 0.14665085
000010 98 82 26 3e 02 b2 52 3e e0 13 c3 3d 08 82 26 3d
       0.16260755 0.20575717 0.09525275 0.04065135
000020 50 36 95 3d 08 dc 2b 3d f0 5d 2c 3e 94 a8 6d 3e
       0.0728575 0.041957885 0.1683271 0.23208839
000030 bc 8b 8e 3d 30 77 70 3d 00 0f 76 3d d0 1f db bd
       0.06960246 0.058707416 0.0600729 -0.10699427
