saved_models/slow_fast/checkpoint46.pth (torch, 53998 bytes, 48 tensors)

rnn_slow.weight_ih_l0 f4 [48, 6]
-0.054986123 0.092620134 0.7426271 -0.36202094 -0.26964733 0.54585433 0.052594315 -0.14012696
0.40749362 -0.3729634 -0.39836746 0.20364779 -0.41717365 0.08876245 -0.19694944 0.23813426
-0.20010486 0.04288579 -0.08919172 -0.022448748 0.09648749 0.015305856 -0.3571629 -0.10825549
0.07555898 -0.3274672 0.6523827 -0.6523798 -0.27759582 0.60013014 -0.36051956 0.11788854
0.44231415 -0.20922697 0.23408726 -0.14174163 -0.14366329 0.35232008 0.3636755 -0.18567376
0.4243162 -0.057569835 0.30874938 -0.31426138 -0.08670088 -0.048352346 0.07588742 -0.44652706
0.11692048 -0.0013917834 0.6289358 -0.6206096 -0.5292977 0.56651133 -0.16284129 0.16917455
0.48748228 -0.50812805 0.5083656 -0.46196398 0.09992429 -0.105888024 -0.4107515 0.38969383
0.06999928 0.01173469 -0.27497405 0.048146855 0.761786 -0.64591974 0.6908605 -0.24558099
-0.1462653 0.3072333 -0.11850924 -0.010794156 -0.30184433 0.7019504 0.18210605 -0.03772694
-0.17476454 0.05019402 0.52511966 0.010204432 -0.49891987 0.19667326 0.27855474 -0.39878199
-0.002471079 -0.23264733 0.12363072 -0.25646544 0.2358272 -0.24669224 -0.101818524 0.21312691
-0.053920075 -0.030343339 0.31704506 -0.425806 -0.03814245 0.2011164 -0.2883755 0.23203593
0.5187454 -0.25274205 -0.35711804 0.7313076 -0.13635673 -0.12508073 0.16702922 -0.66262436
0.67317843 -0.5229944 -0.14068457 -0.06886288 0.695266 -0.64768976 -0.4823354 0.16373609
0.052995477 -0.10148094 0.38749552 -0.5571089 -0.3813301 0.2668466 -0.19685887 -0.06345415
0.45282382 -0.25671443 0.08658692 -0.50770414 0.09283329 0.062333964 0.6310273 -0.541103
0.23014572 -0.08573968 -0.2560145 0.1941157 0.12457189 -0.16335218 -0.24322367 0.38222268
-0.34397772 -0.29315135 0.71890724 -0.515949 -0.4132179 0.23435853 -0.16208974 -0.04492239
0.43894842 -0.6050239 0.4586297 -0.25111294 -0.29523703 -0.0054660453 0.25801277 -0.57272536
0.35237125 -0.37258455 0.093056954 -0.33899587 0.5921571 -0.5639825 0.37973368 -0.5738854
-0.23080501 -0.16051984 0.05184605 -0.19654742 -0.13552293 0.12843859 0.017998302 -0.23788324
0.81413865 -0.98754394 0.07002756 -0.18661572 -0.20220509 -0.33800507 0.3265363 0.024591384
-0.06727895 -0.07008917 0.0031068518 -0.3182914 0.6131189 -0.27010283 -0.54936796 0.22887519
0.19078185 0.3207221 0.49521598 -0.5119092 -0.33077547 0.3260749 0.020641154 0.22972505
0.54294336 -0.5256275 -0.29017484 0.16095057 -0.24680805 -0.081429906 -0.550254 0.36521408
-0.310975 -0.07303556 0.0062267995 -0.29768664 0.34756553 -0.13420379 -0.04747497 0.34399807
-0.015116046 0.15073702 -0.55388135 0.32188118 0.4516289 -0.3479178 0.21619867 -0.019249247
0.5375766 -0.45848796 0.3960105 -0.26510587 0.18691784 -0.105542116 0.29171976 -0.03807308
0.2681851 -0.14027223 0.13614169 0.00833527 0.13157156 0.5247362 -0.19262183 0.09540306
-0.05765215 -0.07334307 -0.46064663 0.43601978 0.25860766 -0.6028927 0.00841212 -0.040405795
0.65555745 -0.2530373 0.12384634 -0.3802095 0.077575386 0.1453112 0.5609563 0.044981856
00000000: 2139 61bd a0af bd3d cf1c 3e3f cf5a b9be
00000010: 370f 8abe 1cbd 0b3f 236d 573d 717d 0fbe
00000020: 01a3 d03e 0ff5 bebe d2f6 cbbe 0c89 503e
00000030: c997 d5be 16c9 b53d 1dad 49be 78d9 733e
00000040: 4ae8 4cbe 03a9 2f3d 26aa b6bd 70e6 b7bc
00000050: 3c9b c53d 6ac5 7a3c 0ede b6be 0eb5 ddbd
00000060: abbe 9a3d c8a9 a7be 8d02 273f 5d02 27bf
00000070: 0a21 8ebe 21a2 193f 0596 b8be 8c6f f13d
00000080: 0077 e23e 983f 56be 92b4 6f3e b824 11be
00000090: 781c 13be 4c63 b43e ad33 ba3e 4321 3ebe
000000a0: f93f d93e 59ce 6bbd 6614 9e3e dee6 a0be
000000b0: 3b90 b1bd 1c0d 46bd dd6a 9b3d 329f e4be
000000c0: 0174 ef3d 806c b6ba f001 213f 45e0 1ebf
000000d0: 0e80 07bf e306 113f debf 26be 183c 2d3e
000000e0: 4797 f93e ae14 02bf 3f24 023f 8b86 ecbe
000000f0: 1ba5 cc3d d2db d8bd 054e d2be f385 c73e
00000100: c85b 8f3d db42 403c 66c9 8cbe a335 453d
00000110: 6804 433f ff5a 25bf 3cdc 303f 9579 7bbe
00000120: 92c6 15be af4d 9d3e f9b4 f2bd f9d9 30bc
00000130: 578b 9abe 05b3 333f 027a 3a3e 9087 1abd
00000140: 7af5 32be 3f98 4d3d 3e6e 063f 7d30 273c
00000150: 6d72 ffbe b764 493e ba9e 8e3e 272d ccbe
00000160: d3f1 21bb 1a3b 6ebe 1a32 fd3d 704f 83be
00000170: af7c 713e e49c 7cbe 3b86 d0bd f13d 5a3e
00000180: 4cdb 5cbd 9892 f8bc bb53 a23e 3e03 dabe
00000190: 423b 1cbd 75f1 4d3e f4a5 93be d49a 6d3e
000001a0: 80cc 043f 6867 81be 2dd8 b6be fa36 3b3f
000001b0: 19a1 0bbe 2a15 00be b509 2b3e c0a1 29bf
000001c0: 6c55 2c3f f6e2 05bf 9e0f 10be fb07 8dbd
000001d0: f4fc 313f ffce 25bf aaf4 f6be 6faa 273e
000001e0: c911 593d 3dd5 cfbd d065 c63e b09e 0ebf
000001f0: b33d c3be 1ea0 883e 5f95 49be 40f4 81bd
00000200: 86d8 e73e 1370 83be 7c54 b13d e6f8 01bf
00000210: 611f be3d e651 7f3d 018b 213f ba85 0abf
00000220: 52ab 6b3e 4998 afbd 5514 83be 44c6 463e
00000230: 8c1f ff3d cb45 27be a00f 79be b1b2 c33e
00000240: d91d b0be ef17 96be 4e0a 383f 3c15 04bf
00000250: 4c91 d3be affb 6f3e dafa 25be 8a00 38bd
00000260: d9bd e03e d9e2 1abf 83d1 ea3e e091 80be
00000270: 4f29 97be 831c b3bb 401a 843e 219e 12bf
00000280: 016a b43e 67c3 bebe a594 be3d de90 adbe
00000290: 9c97 173f 2861 10bf 746c c23e 27ea 12bf
000002a0: 2658 6cbe 505f 24be 865c 543d ba43 49be
000002b0: 86c6 0abe 6885 033e 2d71 933c aa97 73be
000002c0: 646b 503f aecf 7cbf 9c6a 8f3d 3118 3fbe
000002d0: da0e 4fbe 000f adbe c42f a73e df73 c93c
000002e0: 8cc9 89bd e98a 8fbd 539c 4b3b 17f7 a2be
000002f0: 5cf5 1c3f eb4a 8abe 61a3 0cbf 425e 6a3e
00000300: 515c 433e b035 a43e f38c fd3e 7b0c 03bf
00000310: 675b a9be 4af3 a63e a317 a93c 0b3d 6b3e
00000320: 56fe 0a3f 868f 06bf cc91 94be 3ad0 243e
00000330: 40bb 7cbe b9c4 a6bd 72dd 0cbf 57fd ba3e
00000340: 1d38 9fbe ab93 95bd 2e0a cc3b 626a 98be
00000350: 1cf4 b13e b86c 09be 1d75 42bd 8420 b03e
00000360: 4ba9 77bc ce5a 1a3e 2bcb 0dbf 9ccd a43e
00000370: e73b e73e 4822 b2be 2f63 5d3e 99b0 9dbc
00000380: 9f9e 093f efbe eabe e3c1 ca3e f5bb 87be
00000390: 6467 3f3e 7726 d8bd 4b5c 953e 85f2 1bbd
000003a0: 8f4f 893e 86a3 0fbe ba68 0b3e a890 083c
000003b0: b2ba 063e 1d55 063f a83e 45be ae62 c33d
000003c0: a924 6cbd e434 96bd e0d9 ebbe fc3d df3e
000003d0: 3968 843e 2d57 1abf fdd2 093c 8c80 25bd
000003e0: 9dd2 273f 1b8e 81be 26a3 fd3d d2aa c2be
000003f0: d8df 9e3d 76cc 143e d59a 0f3f e53e 383d

rnn_slow.weight_hh_l0 f4 [48, 16]
0.14276889 0.055053286 -0.07628389 0.03979981 -0.12802446 -0.17833935 -0.21616909 -0.2175959
-0.16063634 -0.22901353 0.12162611 -0.05928174 -0.12093013 -0.12606531 0.11922397 0.07356764
0.18890095 -0.2035106 0.19153593 -0.14508975 0.1446584 -0.20950717 0.5377734 0.063998416
0.07169136 -0.21806167 0.2930437 0.03304574 0.2923689 -0.1752148 0.030651554 0.2773367
0.06004397 -0.065636575 0.32825997 0.2894659 0.20036528 -0.0890406 -0.0073605096 0.11969464
-0.21912047 0.17562616 0.03255822 -0.012583066 -0.040346 -0.03204344 -0.039329216 0.051845387
-0.30363366 -0.33528215 0.2000557 0.073025845 0.31369862 -0.28121784 -0.029900646 0.012392316
-0.12821898 0.1168024 0.0354003 -0.019619351 -0.057103425 0.20539762 -0.03805942 0.29386112
0.26186037 0.2776735 0.15547673 0.020379553 0.071582526 -0.4329821 0.18744703 0.19096561
-0.25577816 -0.06629794 0.026703602 0.039093595 -0.07295438 0.18719794 0.27593172 -0.000295822
0.24660128 -0.04869703 -0.042942885 0.36784628 -0.09384289 0.18887825 -0.109944515 0.032978363
0.08459618 -0.19253218 -0.43321604 -0.3440248 -0.038651995 0.07698872 0.0933182 0.11115895
0.21496165 -0.08181135 -0.07364019 0.37092233 -0.4765973 0.2109902 -0.24086158 0.037773505
-0.43887392 -0.12001892 -0.14234696 -0.10415799 -0.26116267 -0.10097852 0.16472669 -0.27853912
-0.47923917 -0.2979791 -0.27399054 -0.08588569 0.57870245 0.45232955 0.1011208 -0.30071154
0.45169556 0.264858 0.23484513 -0.078273386 -0.11628982 0.056003336 -0.22092558 0.08265318
0.011753963 0.20279045 -0.08770153 0.09192518 0.15945593 -0.2791065 -0.10855992 0.121302724
-0.24970144 0.17254473 0.10434503 0.07427276 -0.1424757 -0.18695243 -0.16547759 0.38027874
-0.31479976 0.031009132 0.19483104 0.3318852 0.07813726 0.22941177 -0.19472407 0.30124673
0.083296865 0.22502406 -0.25222346 0.0019859783 0.14655635 0.024076175 -0.10316806 0.08814863
-0.3433855 0.102263115 0.20357686 -0.3160311 0.3091486 -0.2967867 0.063044935 0.21254121
0.32677147 -0.30035916 0.2200105 0.15131356 -0.066439435 -0.12990466 0.22509691 0.087051444
-0.2920664 0.15750578 -0.12816782 0.14011437 -0.15939382 0.17129558 -0.07529438 -0.45430988
0.33441877 0.22952732 -0.2252407 0.27299175 -0.0657258 -0.221972 -0.30190533 0.12087294
0.114924185 0.10099088 0.2684517 0.017397346 0.39027172 -0.33341706 -0.12075705 0.09890795
0.05547124 -0.21329384 -0.46305072 0.2513536 0.19942088 0.2365273 0.061602086 0.1372061
-0.07382023 0.13134906 0.033470813 0.14663374 0.21720634 -0.051370736 -0.1268075 -0.0016573829
-0.06137799 -0.1653814 0.25556558 -0.3012283 0.2075807 -0.006418566 0.029079698 0.3555436
-0.15105572 0.07596665 0.0315966 0.12817283 -0.3272109 0.16765957 -0.04107484 0.10882576
-0.38806996 -0.270979 -0.15832068 0.17470904 -0.13462016 0.19390117 0.39007044 -0.5056244
0.21574147 -0.011160672 0.106480755 -0.19032109 0.13317233 0.3592177 0.48585322 -0.1218968
-0.27820686 0.008503132 0.48972142 -0.19957745 0.13106856 0.2769406 -0.3426074 -0.06396248
00000000: 0232 123e 8e7f 613d ba3a 9cbd 2005 233d
00000010: d818 03be 979e 36be 6e5b 5dbe 76d1 5ebe
00000020: da7d 24be 8682 6abe 1c17 f93d 69d1 72bd
00000030: 37aa f7bd 4417 01be b22b f43d a1aa 963d
00000040: 406f 413e 1565 50be ff21 443e 6892 14be
00000050: 5521 143e 0c89 56be 84ab 093f 9a11 833d
00000060: ebd2 923d 8f4b 5fbe d309 963e f85a 073d
00000070: 60b1 953e 826b 33be f818 fb3c 13ff 8d3e
00000080: aaf0 753d 786c 86bd b111 a83e e034 943e
00000090: 8e2c 4d3e eb5a b6bd 6e30 f1bb 7722 f53d
000000a0: 1e61 60be 58d7 333e c55b 053d 3429 4ebc
000000b0: d941 25bd fb3f 03bd ac17 21bd d45b 543d
000000c0: df75 9bbe 1aaa abbe 67db 4c3e 938e 953d
000000d0: 1b9d a03e c9fb 8fbe 33f2 f4bc 2409 4b3c
000000e0: d64b 03be 1936 ef3d e8ff 103d c3b8 a0bc
000000f0: 48e5 69bd c153 523e 32e4 1bbd f774 963e
00000100: 9012 863e 392b 8e3e 4b35 1f3e 05f3 a63c
00000110: dc99 923d d4af ddbe 1df2 3f3e 7d8c 433e
00000120: 5bf5 82be 37c7 87bd 83c1 da3c 9b20 203d
00000130: 1b69 95bd d1b0 3f3e ec46 8d3e 8f18 9bb9
00000140: 0c85 7c3e 8976 47bd e1e4 2fbd 5956 bc3e
00000150: b330 c0bd 4d69 413e 972a e1bd 5214 073d
00000160: c340 ad3d 2827 45be 7ece ddbe 0524 b0be
00000170: 8e51 1ebd 43ac 9d3d 9d1d bf3d 4ea7 e33d
00000180: e81e 5c3e b68c a7bd abd0 96bd 88e9 bd3e
00000190: 9004 f4be d10d 583e 6ba4 76be 64b8 1a3d
000001a0: 15b4 e0be 7bcc f5bd 67c3 11be c950 d5bd
000001b0: 1db7 85be d4cd cebd 1dae 283e ae9c 8ebe
000001c0: d65e f5be b790 98be 7d48 8cbe d6e4 afbd
000001d0: d825 143f bd97 e73e 6c18 cf3d ddf6 99be
000001e0: a444 e73e 789b 873e 3e7b 703e cc4d a0bd
000001f0: 5b29 eebd c163 653d 513a 62be 1246 a93d
00000200: b293 403c 4da8 4f3e dc9c b3bd 4543 bc3d
00000210: 6a48 233e 0ce7 8ebe aa54 debd 906d f83d
00000220: bcb1 7fbe 91af 303e d9b2 d53d 511c 983d
00000230: 26e5 11be 7570 3fbe f572 29be e5b3 c23e
00000240: 6f2d a1be dd06 fe3c ca81 473e dbec a93e
00000250: 6e06 a03d ebea 6a3e bf65 47be 033d 9a3e
00000260: 8c97 aa3d b56c 663e 6f23 81be 3027 023b
00000270: de12 163e 663b c53c c749 d3bd 4587 b43d
00000280: 39d0 afbe 536f d13d 7476 503e d4ce a1be
00000290: ba48 9e3e 6df4 97be b41d 813d 67a4 593e
000002a0: 974e a73e adc8 99be 6f4a 613e f1f1 1a3e
000002b0: 6611 88bd ba05 05be ce7f 663e 0748 b23d
000002c0: ba89 95be 3249 213e 6d3e 03be 247a 0f3e
000002d0: 2238 23be 1c68 2f3e f133 9abd 4e9b e8be
000002e0: f038 ab3e 3609 6b3e 80a5 66be 93c5 8b3e
000002f0: 409b 86bd a14c 63be 5693 9abe 3b8c f73d
00000300: 5f5d eb3d 4ed4 ce3d 8072 893e e184 8e3c
00000310: b2d1 c73e a4b5 aabe 794f f7bd 4090 ca3d
00000320: d035 633d b369 5abe fc14 edbe 6bb1 803e
00000330: fd34 4c3e 3634 723e 7852 7c3d c27f 0c3e
00000340: 102f 97bd 5e80 063e b118 093d 2827 163e
00000350: 576b 5e3e 1f6a 52bd d3d9 01be 8b3c d9ba
00000360: 7d67 7bbd be59 29be 7ed9 823e 993a 9abe
00000370: 0990 543e d652 d2bb 8c38 ee3c d009 b63e
00000380: 5aae 1abe 6794 9b3d 706b 013d bd3f 033e
00000390: 3088 a7be f3ae 2b3e 173e 28bd 0ae0 de3d
000003a0: 1bb1 c6be c2bd 8abe d11e 22be ede6 323e
000003b0: ded9 09be 078e 463e 50b7 c73e 9a70 01bf
000003c0: 55eb 5c3e 40db 36bc 9512 da3d 88e3 42be
000003d0: 545e 083e 62eb b73e c1c1 f83e 08a5 f9bd
000003e0: 2171 8ebe b850 0b3c c4bc fa3e 085e 4cbe
000003f0: d636 063e 29cb 8d3e 3d6a afbe c3fe 82bd

rnn_slow.bias_ih_l0 f4 [48]
-0.015970934 0.3014063 0.046738166 0.17061213 -0.1118894 0.095282964 0.07270004 0.09058718
-0.21555804 0.21580566 0.16800562 -0.005049597 0.25105423 -0.03754892 0.014789663 -0.10913326
-0.36857355 -0.012122646 -0.20929788 -0.1322474 -0.02412209 0.0022450986 -0.06300305 0.1893436
-0.3273366 -0.30271637 -0.17446657 -0.17500156 -0.29688638 0.060831003 -0.2090576 -0.037275683
0.21087779 0.28484574 -0.081172496 0.12277279 0.013049025 0.059943248 -0.11213175 0.33802035
0.20189972 -0.005168697 0.04583315 0.06168147 0.2081638 0.11175962 -0.23796336 0.021975944
00000000: 7ad5 82bc ed51 9a3e 8570 3f3d f2b4 2e3e
00000010: 4526 e5bd b723 c33d c2e3 943d c585 b93d
00000020: 3fbb 5cbe 29fc 5c3e aa09 2c3e 1777 a5bb
00000030: 2e8a 803e e5cc 19bd 5850 723c 4281 dfbd
00000040: acb5 bcbe 109e 46bc 2f52 56be dd6b 07be
00000050: b09b c5bc 8122 133b be07 81bd 4ae3 413e
00000060: aa98 a7be a4fd 9abe 5da7 32be 9c33 33be
00000070: 7e01 98be ee29 793d 3213 56be 63ae 18bd
00000080: 59f0 573e 4dd7 913e c43d a6bd 4d70 fb3d
00000090: 94cb 553c 0d87 753d 55a5 e5bd 0111 ad3e
000000a0: cdbe 4e3e 2c5e a9bb 8bbb 3b3d b6a5 7c3d
000000b0: e428 553e 3ae2 e43d abac 73be e506 b43c

rnn_slow.bias_hh_l0 f4 [48]
0.05464326 0.26575673 -0.08017583 0.1380748 0.09836742 -0.09991557 -0.08348774 -0.37304652
-0.15770814 -0.0460312 -0.14486158 0.09901176 0.24864288 -0.042978033 0.24428245 0.06371462
-0.31127763 -0.23464756 0.07442052 0.0589236 0.19601095 0.065212786 -0.0072073042 0.13485347
-0.09117186 -0.16285689 -0.1942857 -0.067590736 -0.34220803 -0.27621883 0.06374555 -0.20726006
0.3153915 0.05018396 0.07052565 0.11553148 -0.4987879 0.2406432 0.3986997 -0.12927184
-0.31373557 0.27153474 -0.049100567 -0.3351024 0.071811326 0.09122875 -0.2825436 -0.09239165
00000000: 9cd1 5f3d 4411 883e 3a33 a4bd 7b63 0d3e
00000010: dc74 c93d 89a0 ccbd 9ffb aabd f4ff bebe
00000020: 3e7e 21be 368b 3cbd 9856 14be adc6 ca3d
00000030: 3d9c 7e3e bc09 30bd 2e25 7a3e d07c 823d
00000040: c85f 9fbe 7347 70be c969 983d df59 713d
00000050: 18b7 483e 488e 853d 402b ecbb 0717 0a3e
00000060: 50b8 babd f5c3 26be d5f2 46be 036d 8abd
00000070: e435 afbe 8e6c 8dbe 078d 823d fb3b 54be
00000080: ff7a a13e b28d 4d3d c16f 903d c59b ec3d
00000090: 2161 ffbe 2c6b 763e 5e22 cc3e d65f 04be
000000a0: f3a1 a0be 9a06 8b3e ad1d 49bd 8b92 abbe
000000b0: d111 933d 24d6 ba3d 8ea9 90be d537 bdbd

project_sf.weight f4 [16, 16]
0.0042534564 0.118319765 -0.28284886 0.13751414 -0.07205509 0.011256321 0.02848161 -0.28272617
0.04206572 0.10837161 -0.023123445 -0.2466418 0.18683082 -0.21028681 -0.15297914 0.17311113
-0.0046014194 -0.1742403 -0.12697174 0.2598187 0.14608005 -0.18071432 0.05936249 0.2764436
0.35702038 0.20993717 0.22088997 -0.07464821 -0.084359646 0.45197916 0.049428426 -0.12061328
-0.18973641 -0.22894086 -0.09951176 0.100506715 -0.10553322 -0.12863012 0.27658835 0.009061242
0.0991421 0.18256547 0.0019833099 0.010721568 -0.19358544 0.20467305 -0.19234867 -0.2441877
0.04312621 0.06434208 0.16201816 0.081653506 -0.2476167 0.07258877 0.25903538 -0.12576364
-0.11117461 -0.103848316 -0.0021412668 -0.1446639 -0.044475716 0.17052674 -0.05925916 0.024588646
-0.17437056 0.21499953 -0.17319314 -0.12873779 -0.073102914 -0.09211776 0.39466795 0.21773182
0.14477202 -0.033206154 0.11819303 0.11475796 0.06562545 0.29053548 -0.08960215 -0.4139961
0.17419024 -0.0009840537 -0.055069335 0.15757608 0.18045726 -0.18547715 0.14820781 0.41703007
-0.09084096 -0.07888494 0.119017616 0.27974704 0.26180327 0.30889714 0.20358583 -0.04379021
-0.22516936 -0.2396067 -0.25689286 -0.359 -0.14310879 0.18569823 0.31623763 0.12782237
0.1565837 -0.1559023 0.22883974 -0.21097736 0.007482644 -0.16115828 0.12398757 -0.12787785
-0.22034018 0.11340825 0.31100613 -0.33423856 0.2576832 0.11679738 -0.11349331 0.17178518
-0.13272573 -0.17289665 0.07761758 -0.026128711 -0.16657323 -0.21820585 0.27037978 -0.22748053
0.08437024 0.19960913 0.28405616 -0.11570262 -0.09342786 -0.18908352 0.11360691 0.24977767
0.30190584 0.105068326 -0.22900635 0.19658202 0.04901181 -0.08425601 -0.09054289 -0.20444207
-0.2085571 0.10657223 0.1854464 -0.00021594074 -0.01598936 -0.20438202 -0.0135454675 -0.06619322
0.13651145 -0.17798324 -0.22958408 0.29993668 0.2529285 0.1611107 -0.08688862 -0.06771085
0.07614552 -0.23183182 0.02539636 0.05898887 -0.15420194 0.24624562 -0.10928526 -0.039675612
0.17290464 -0.22845376 0.010881052 0.30518696 -0.08423878 0.039398886 0.0114575075 0.09699805
-0.053888977 -0.007337742 0.009766825 -0.088706665 -0.1669175 -0.041251097 0.22711663 0.21132736
0.20853283 -0.061231796 -0.12997238 0.07576549 0.0074663046 0.27030376 0.07602962 -0.2195752
0.26242992 0.18155362 -0.26770034 -0.17572904 -0.11265551 0.28368184 -0.0031442754 -0.02322775
0.1628868 0.3486516 0.0065967077 -0.33967564 -0.13713402 0.0009851828 -0.18845688 0.18181041
0.017111499 0.14679971 0.010722924 0.06930205 0.133689 -0.104401395 -0.100253575 -0.111269504
0.027803602 0.16914679 0.07375751 -0.19292612 -0.03891716 0.18174407 -0.2506872 -0.23793238
-0.31350735 -0.18339221 0.35238394 -0.34058508 0.22617322 0.051209904 -0.14898103 0.26830277
0.18999872 0.015036133 0.14510769 0.30345532 -0.15395407 0.3320505 0.113031834 -0.26154554
0.1120139 0.3450196 -0.25660756 0.26499188 0.14546145 0.342982 -0.069018416 -0.15510447
-0.30922726 0.36425197 0.1851647 -0.05749016 0.3674753 0.0017596292 -0.1995594 -0.07002528
00000000: 9460 8b3b a251 f23d 91d1 90be 82d0 0c3e
00000010: 9e91 93bd 6f6c 383c 4452 e93c 7cc1 90be
00000020: 1b4d 2c3d eff1 dd3d 616d bdbc ab8f 7cbe
00000030: 9450 3f3e 6d55 57be 90a6 1cbe 0b44 313e
00000040: 81c7 96bb 0d6c 32be e104 02be f506 853e
00000050: 0296 153e 2d0d 39be 1526 733d 048a 8d3e
00000060: 60cb b63e c5f9 563e fb30 623e 29e1 98bd
00000070: c0c4 acbd d069 e73e 7675 4a3d 1804 f7bd
00000080: 434a 42be 796f 6abe d2cc cbbd 77d6 cd3d
00000090: cd21 d8bd 9db7 03be fd9c 8d3e 9b75 143c
000000a0: 030b cb3d 71f2 3a3e 6bfa 013b 84a9 2f3c
000000b0: 433b 46be d095 513e 0df7 44be 570c 7abe
000000c0: 1ca5 303d c8c5 833d 17e8 253e f439 a73d
000000d0: 3b8f 7dbe 6ca9 943d 49a0 843e 2fc8 00be
000000e0: 84af e3bd 6dae d4bd 7f54 0cbb c622 14be
000000f0: 2b2c 36bd 909e 2e3e bcb9 72bd 216e c93c
00000100: 328e 32be d628 5c3e 8b59 31be d7d3 03be
00000110: fbb6 95bd 3ca8 bcbd eb11 ca3e 17f5 5e3e
00000120: 1e3f 143e 2d03 08bd 300f f23d 3906 eb3d
00000130: a366 863d 11c1 943e 5581 b7bd 4cf7 d3be
00000140: ed5e 323e 5dfb 80ba 6290 61bd a05b 213e
00000150: cac9 383e b9ed 3dbe cac3 173e f784 d53e
00000160: d30a babd 6d8e a1bd 82bf f33d 013b 8f3e
00000170: 140b 863e c427 9e3e ce78 503e 5d5d 33bd
00000180: cc92 66be 755b 75be 7687 83be d9ce b7be
00000190: 1c8b 12be ad27 3e3e e6e9 a13e dee3 023e
000001a0: 7a57 203e daa4 1fbe f754 6a3e 730a 58be
000001b0: f830 f53b ad06 25be 32ed fd3d 69f2 02be
000001c0: dba0 61be 9642 e83d 323c 9f3e 5121 abbe
000001d0: 0def 833e 7733 ef3d 2e6f e8bd 74e8 2f3e
000001e0: 41e9 07be d20b 31be f7f5 9e3d e10b d6bc
000001f0: 2c92 2abe 5b71 5fbe 386f 8a3e a8f0 68be
00000200: 4eca ac3d 5666 4c3e cf6f 913e 7ff5 ecbd
00000210: 1b57 bfbd 1c9f 41be bdaa e83d b8c5 7f3e
00000220: 6793 9a3e 102e d73d a480 6abe cc4c 493e
00000230: 9cc0 483d 6a8e acbd 8d6e b9bd 4359 51be
00000240: fe8f 55be 8b42 da3d a9e5 3d3e 276e 62b9
00000250: 1efc 82bc 8549 51be cfed 5dbc 5090 87bd
00000260: a8c9 0b3e 3d41 36be 1718 6bbe 4d91 993e
00000270: d87f 813e 34fa 243e a9f2 b1bd fcab 8abd
00000280: 2ff2 9b3d 5265 6dbe 070c d03c 509e 713d
00000290: 1de7 1dbe d027 7c3e f3d0 dfbd e582 22bd
000002a0: ea0d 313e c8ef 69be 7146 323c 7741 9c3e
000002b0: 6285 acbd ba60 213d 45b8 3b3c eaa6 c63d
000002c0: b0ba 5cbd 7171 f0bb 0805 203c d7ab b5bd
000002d0: 6cec 2abe e9f6 28bd 4391 683e 3366 583e
000002e0: a189 553e 31ce 7abd 7b17 05be f02a 9b3d
000002f0: e7a7 f43b 4165 8a3e 6bb5 9b3d 52d8 60be
00000300: 375d 863e 31e9 393e 0510 89be 50f2 33be
00000310: efb7 e6bd bf3e 913e 3010 4ebb 1f48 bebc
00000320: cccb 263e 7682 b23e 3229 d83b f7e9 adbe
00000330: dc6c 0cbe 4021 813a d7fa 40be 822c 3a3e
00000340: 6a2d 8c3c aa52 163e 34af 2f3c 3cee 8d3d
00000350: c5e5 083e 66d0 d5bd bf51 cdbd 44e1 e3bd
00000360: 61c4 e33c d134 2d3e 2d0e 973d 6d8e 45be
00000370: 9a67 1fbd 1e1b 3a3e 135a 80be 8ca4 73be
00000380: 0984 a0be 2bcb 3bbe ab6b b43e 2b61 aebe
00000390: f499 673e 7ac1 513d 7c8e 18be fb5e 893e
000003a0: 068f 423e 1d5a 763c 1c97 143e 7f5e 9b3e
000003b0: 23a6 1dbe 8602 aa3e 3c7d e73d 4ce9 85be
000003c0: 8b67 e53d 69a6 b03e 1162 83be 04ad 873e
000003d0: d9f3 143e 569b af3e 8759 8dbd b5d3 1ebe
000003e0: 0953 9ebe 3c7f ba3e d19b 3d3e cd7a 6bbd
000003f0: b925 bc3e 5ca3 e63a 4d59 4cbe 6a69 8fbd

project_sf.bias f4 [16]
-0.07631772 0.5098273 0.15059805 -0.08543694 -0.08336985 0.02619094 -0.2112242 0.10471032
0.06268375 -0.111475125 -0.117555864 -0.30106285 0.22039236 -0.08439148 -0.21780895 0.05282394
00000000: 774c 9cbd 0b84 023f 6036 1a3e 90f9 aebd
00000010: d0bd aabd 628e d63c 284b 58be 5d72 d63d
00000020: 5760 803d 124d e4bd 21c1 f0bd e924 9abe
00000030: 89ae 613e 71d5 acbd 4f09 5fbe ea5d 583d

rnn_fast.weight_ih_l0 f4 [48, 1]
-0.19486237 0.008810669 -0.057486683 0.022823274 -0.09316617 -0.17216498 0.1403808 0.16378096
0.06633958 0.09492594 -0.09808615 -0.07400274 -0.15208733 0.03024751 0.2184399 0.17888889
0.067527086 -0.094542354 -0.073903024 -0.15699413 0.060037076 -0.2289629 0.17077023 0.16233131
-0.2397938 -0.050471723 0.071179956 0.13592467 -0.1893473 -8.2820654e-05 0.047447234 0.05938381
-0.21224532 0.24119797 0.017278671 -0.07978076 0.14448237 -0.15422007 -0.031969786 -0.059376866
-0.2433295 0.23160058 0.14886922 0.108044565 -0.2131688 0.22255188 0.11218092 0.21126184
00000000: 008a 47be a05a 103c 2877 6bbd e0f7 ba3c
00000010: e8cd bebd 044c 30be fcbf 0f3e 32b6 273e
00000020: 0cdd 873d 8868 c23d 64e1 c8bd c08e 97bd
00000030: c8bc 1bbe a0c9 f73c b6ae 5f3e a62e 373e
00000040: a44b 8a3d 6c9f c1bd 785a 97bd 12c3 20be
00000050: 70e9 753d 4075 6abe 64de 2e3e 2e3a 263e
00000060: 828c 75be 70bb 4ebd ccc6 913d d62f 0b3e
00000070: 42e4 41be 00b0 adb8 0858 423d 703c 733d
00000080: d656 59be 9afc 763e 008c 8d3c 1864 a3bd
00000090: 30f3 133e deeb 1dbe c0f2 02bd 2835 73bd
000000a0: 5e2b 79be b428 6d3e 2c71 183e 7846 dd3d
000000b0: ec48 5abe a4e4 633e 1cbf e53d 0655 583e

rnn_fast.weight_hh_l0 f4 [48, 16]
-0.22511762 0.1595506 -0.0999215 -0.17237343 0.19686182 0.21863145 0.101995766 -0.003879105
0.15347531 0.16461903 0.12736435 0.07009084 0.23120292 -0.20280376 -0.19974403 -0.17470486
-0.21253629 -0.10456356 0.13659374 0.23391715 -0.117551744 -0.249853 -0.18342774 -0.073672324
0.21720558 0.12085658 0.23418698 -0.18378568 -0.06556337 -0.028290426 0.22625884 -0.14295328
-0.18081413 0.1861488 0.14697766 0.18587604 0.031278417 -0.12899998 -0.17088334 0.007541658
-0.030845618 0.1744769 0.10186424 0.06791688 -0.037869714 0.039571617 -0.1712828 -0.21567619
-0.18860914 0.22811638 0.123727806 0.11415354 0.224395 0.16339688 -0.100347176 -0.17730233
0.023910204 0.07484878 -0.11557628 -0.12194476 0.15491098 0.016350238 -0.19575572 -0.21639898
0.18206114 0.053021498 -0.006978046 0.040196374 0.16939104 0.18237677 0.11658819 0.18640387
-0.050042294 0.039908916 0.16165295 0.19933975 0.11458784 -0.0011151335 0.19610476 0.03776302
0.21401739 -0.07989982 0.081243865 0.19540364 0.15002899 0.09923591 -0.26004997 -0.06576499
0.24890408 -0.09470606 -0.1558354 -0.044074185 -0.13740574 -0.20381074 -0.114339456 -0.22663337
0.19434501 -0.10561208 0.024892548 0.105709314 -0.036452934 -0.18441863 -0.06030172 -0.14324448
-0.20785828 -0.18344563 -0.11475273 -0.23897687 -0.13121392 0.1673773 -0.0264374 0.022677686
0.20603743 0.14857987 -0.0322561 -0.080260545 -0.075246885 0.1632371 0.09142584 -0.1980157
-0.19735038 -0.19070561 0.22794761 0.09913576 -0.056267966 0.042819332 0.18658523 -0.050689485
0.2213702 0.19177713 -0.11563416 0.08121681 0.23975906 -0.1943576 0.1742821 0.058452953
0.2427238 0.07610114 -0.14969759 0.20747082 0.2037077 -0.15907794 0.110434934 0.20932639
-0.17479791 -0.06932662 0.015346718 0.23834775 -0.0876853 0.054843538 0.026287457 0.0703002
-0.005670324 -0.19814353 0.07651802 -0.1337562 0.06466197 -0.09743461 -0.18431738 0.035218585
-0.059539653 -0.105154596 0.16438381 0.13798286 -0.08948029 -0.16092506 -0.24080788 0.012563268
0.048649807 -0.18692355 -0.19991796 -0.0035289652 -0.12765633 -0.15535097 -0.16103254 0.08263557
-0.031094672 0.03778075 0.03713358 0.001848477 0.17055078 -0.037877496 -0.14352235 -0.028562406
-0.1809585 0.14659476 0.0835821 -0.0071300715 -0.17765269 -0.10965747 -0.04810257 -0.13118915
-0.20141253 -0.10037467 -0.12179852 0.23940907 0.15992546 -0.20292467 -0.19081466 0.20488706
-0.0825172 0.13572395 0.19489877 0.11861315 -0.07666094 0.077389374 -0.1619403 -0.1770894
-0.14506772 0.21037088 -0.23244968 -0.1984546 0.20931932 -0.20821309 0.21646625 0.12710764
0.17766328 0.070393346 0.23032616 -0.20935583 0.23923166 -0.109362446 0.0358428 0.2206298
-0.20778206 0.10899074 0.21330689 -0.123764366 0.090053834 0.22641084 0.102574326 0.20856917
-0.09699559 -0.0021863207 -0.043016627 -0.0030312906 -0.029386185 0.21846385 0.124281056 0.08095368
0.24801639 -0.18623333 -0.15996587 -0.20189372 -0.18068019 0.2158334 -0.21524736 -0.20044655
0.19246797 0.03251596 0.16425802 0.14795488 -0.0046326485 0.16824716 0.05758224 -0.2313452
00000000: 3c85 66be 3c61 233e a5a3 ccbd a982 30be
00000010: 2596 493e ece0 5f3e 28e3 d03d 9538 7ebb
00000020: a228 1d3e e491 283e cd6b 023e c98b 8f3d
00000030: 75c0 6c3e caab 4fbe b389 4cbe d5e5 32be
00000040: 1da3 59be 6b25 d6bd 3bdf 0b3e fa87 6f3e
00000050: f8be f0bd 77d9 7fbe 7bd4 3bbe 84e1 96bd
00000060: 246b 5e3e a883 f73d b6ce 6f3e 5032 3cbe
00000070: 1746 86bd 53c1 e7bc 66b0 673e 5862 12be
00000080: 5727 39be cb9d 3e3e 5081 163e 4a56 3e3e
00000090: cc1d 003d 9218 04be 0bfc 2ebe 0320 f73b
000000a0: f3af fcbc 13aa 323e 339e d03d 0118 8b3d
000000b0: 461d 1bbd d915 223d c264 2fbe 38da 5cbe
000000c0: c122 41be 5797 693e 0165 fd3d 55c9 e93d
000000d0: cec7 653e 8351 273e d282 cdbd be8e 35be
000000e0: 55df c33c 514a 993d 42b3 ecbd 2dbe f9bd
000000f0: fca0 1e3e eff0 853c 3074 48be b297 5dbe
00000100: 3c6e 3a3e 122d 593d 18a8 e4bb f4a4 243d
00000110: d874 2d3e fac0 3a3e cac5 ee3d a8e0 3e3e
00000120: 26f9 4cbd 8877 233d 5a88 253e b81f 4c3e
00000130: 08ad ea3d ac29 92ba b0cf 483e 65ad 1a3d
00000140: 6027 5b3e 84a2 a3bd 2f63 a63d e417 483e
00000150: 33a1 193e 323c cb3d 4525 85be ccaf 86bd
00000160: b6e0 7e3e 40f5 c1bd 5193 1fbe 2287 34bd
00000170: 17b4 0cbe c3b3 50be ce2a eabd 9412 68be
00000180: 6102 473e 254b d8bd 75eb cb3c 207e d83d
00000190: ac4f 15bd 3dd8 3cbe f0fe 76bd aeae 12be
000001a0: cdd8 54be 2cd9 3bbe 7b03 ebbd 5ab6 74be
000001b0: f15c 06be f464 2b3e 3f93 d8bc 8ec6 b93c
000001c0: 7afb 523e 5225 183e f91e 04bd a45f a4bd
000001d0: 0a1b 9abd a027 273e 793d bb3d a1c4 4abe
000001e0: 3816 4abe 5548 43be 196b 693e b007 cb3d
000001f0: 3d79 66bd 5363 2f3d 3310 3f3e c79f 4fbd
00000200: dfae 623e 3961 443e 9ad1 ecbd 0055 a63d
00000210: 6683 753e ae05 47be 0277 323e 5d6c 6f3d
00000220: 968c 783e eada 9b3d 534a 19be 3b73 543e
00000230: c098 503e 54e5 22be b62b e23d a859 563e
00000240: 39fe 32be 1dfb 8dbd cd70 7b3c 6f11 743e
00000250: 5a94 b3bd 9ea3 603d cb58 d73c 8df9 8f3d
00000260: 20ce b9bb 23e6 4abe 7bb5 9c3d 63f7 08be
00000270: 7f6d 843d cc8b c7bd b2bd 3cbe 5d41 103d
00000280: dadf 73bd 4b5b d7bd 3b54 283e 614b 0d3e
00000290: 7141 b7bd 8ac9 24be 5796 76be 2ad6 4d3c
000002a0: 0545 473d e368 3fbe 4bb7 4cbe 3646 67bb
000002b0: 57b8 02be 5314 1fbe b7e5 24be d63c a93d
000002c0: 41ba febc fdbf 1a3d 6119 183d 9948 f23a
000002d0: dda4 2e3e 6f25 1bbd 86f7 12be b5fb e9bc
000002e0: 2f4d 39be f01c 163e 182d ab3d 60a3 e9bb
000002f0: 96ea 35be 1894 e0bd 3307 45bd 7356 06be
00000300: 163f 4ebe 3c91 cdbd 8171 f9bd a727 753e
00000310: 80c3 233e 7ccb 4fbe eb64 43be eacd 513e
00000320: c7fe a8bd 38fb 0a3e 8b93 473e 74eb f23d
00000330: 6900 9dbd 527e 9e3d aed3 25be ec56 35be
00000340: a28c 14be 776b 573e 4a07 6ebe af37 4bbe
00000350: ce57 563e d035 55be 54a9 5d3e 8128 023e
00000360: 5ded 353e 632a 903d 9fda 6b3e 6061 56be
00000370: 25f9 743e 6bf9 dfbd e6cf 123d c7ec 613e
00000380: d2c4 54be 8936 df3d 1f6d 5a3e 2c78 fdbd
00000390: 256e b83d 3ed8 673e 7d12 d23d 2893 553e
000003a0: a0a5 c6bd 6048 0fbb 3432 30bd 9ea8 46bb
000003b0: 4cbb f0bc fdb4 5f3e 1187 fe3d 0bcb a53d
000003c0: 02f8 7d3e f3b3 3ebe 18ce 23be 3abd 4ebe
000003d0: 3a04 39be 6e03 5d3e ce69 5cbe dc41 4dbe
000003e0: 5316 453e 752f 053d 4133 283e 7c81 173e
000003f0: 79cd 97bb fc48 2c3e 5bdb 6b3d c2e5 6cbe

rnn_fast.bias_ih_l0 f4 [48]
-0.21096858 -0.052409966 0.02738688 0.20789662 0.07483864 -0.18618418 0.07426323 -0.18955564
0.15116379 -0.14718978 -0.20772283 0.0760527 -0.13586408 0.22228673 0.03113776 0.22100304
0.10928104 -0.10831285 0.053275656 -0.14385302 -0.1947431 0.15380108 -0.13987805 0.073837884
0.13753682 0.09179793 0.20775175 0.22983405 0.23822303 0.02632788 -0.010134204 -0.07930352
-0.14826465 0.11369925 -0.19570117 0.2546676 0.0659985 -0.03868286 -0.19693682 0.14774792
0.14259116 0.111586794 -0.24188255 0.17085719 -0.12753767 0.23602132 0.14854819 -0.009100538
00000000: 2608 58be d5ab 56bd 735a e03c dae2 543e
00000010: 0045 993d 11a7 3ebe 5217 983d e01a 42be
00000020: aeca 1a3e ebb8 16be 4bb5 54be 85c1 9b3d
00000030: f41f 0bbe 229f 633e 9e14 ff3c 9f4e 623e
00000040: bdce df3d 21d3 ddbd 9337 5a3d 354e 13be
00000050: bc6a 47be 087e 1d3e 313c 0fbe 5138 973d
00000060: 74d6 0c3e 8e00 bc3d e0bc 543e 9e59 6b3e
00000070: bdf0 733e 91ad d73c ef09 26bc e269 a2bd
00000080: b0d2 17be 27db e83d e365 48be cb63 823e
00000090: 392a 873d eb71 1ebd cea9 49be 3b4b 173e
000000a0: 6b03 123e 9e87 e43d 0fb0 77be 30f5 2e3e
000000b0: 3c99 02be 93af 713e 041d 183e 6c1a 15bc

rnn_fast.bias_hh_l0 f4 [48]
0.17988023 -0.08127363 0.18254419 0.014350026 0.23377249 0.07727342 -0.13516133 0.031901896
0.2167114 0.022523938 -0.064786546 -0.20818189 -0.09214649 0.12838519 -0.21019197 -0.03410799
-0.07515835 0.1759948 0.04939718 -0.028068503 0.24409425 -0.012651933 -0.111225136 0.22647484
-0.14437434 -0.23139106 -0.13957846 -0.16044623 0.108963534 -0.199259 -0.028861813 0.06293722
-0.0948984 0.1796781 0.21749496 0.21069112 0.10816104 0.19385776 0.01313068 -0.22113745
0.17059113 0.06726985 0.123121165 -0.096385375 -0.1382907 -0.22412883 0.26326418 -0.2353057
00000000: 8632 383e ca72 a6bd ddec 3a3e 5f1c 6b3c
00000010: 0e62 6f3e 8741 9e3d bb67 0abe 90ab 023d
00000020: 98e9 5d3e 1f84 b83c cfae 84bd a22d 55be
00000030: 4db7 bcbd 6877 033e 903c 57be d2b4 0bbd
00000040: 9fec 99bd fb37 343e b354 4a3d ebef e5bc
00000050: d8f3 793e 0e4a 4fbc 01ca e3bd 05e9 673e
00000060: ded6 13be c7f1 6cbe a8ed 0ebe 044c 24be
00000070: 4628 df3d 8d0a 4cbe 9c6f ecbc 3be5 803d
00000080: 185a c2bd 89fd 373e 00b7 5e3e 6abf 573e
00000090: 8983 dd3d a682 463e 1022 573c db71 62be
000000a0: 71af 2e3e c6c4 893d f326 fc3d b265 c5bd
000000b0: 149c 0dbe 0782 65be 90ca 863e faf3 70be

initial_evidence.weight f4 [1, 16]
0.12659022 -0.22310089 0.10809859 -0.2766849 0.027270129 -0.022102462 0.13357821 0.13336125
0.05402608 0.14215004 0.15333793 0.03082865 -0.0855401 0.13326812 -0.16466841 -0.16826461
00000000: dea0 013e 8f74 64be cb62 dd3d a5a9 8dbe
00000010: 9b65 df3c 3910 b5bc bac8 083e da8f 083e
00000020: 734a 5d3d c88f 113e 9e04 1d3e 5d8c fc3c
00000030: a62f afbd 7077 083e d69e 28be 8f4d 2cbe

evidence_head.0.weight f4 [1, 16]
0.021556338 0.065735474 0.007524636 0.26674652 0.048304062 0.06076424 0.07809109 0.04490221
0.06778591 0.053538702 0.060842756 0.016855476 0.017599752 0.056457866 0.07986944 0.08722328
00000000: eb96 b03c 52a0 863d 3991 f63b 0093 883e
00000010: 7bda 453d ece3 783d 39ee 9f3d 61eb 373d
00000020: 57d3 8a3d 664b 5b3d 4136 793d 7f14 8a3c
00000030: 5b2d 903c 5d40 673d 9792 a33d 1ea2 b23d

fast_choice_head.0.weight f4 [16, 16]
0.07125947 -0.21045178 0.08161217 -0.057833135 0.09361836 0.05260411 -0.24865961 -0.16304812
-0.12138823 0.061507046 -0.099197745 0.092598915 -0.061282486 0.011631519 -0.01448518 0.1084573
0.09676373 0.1342203 -0.097910285 -0.0726223 -0.024222374 -0.068457216 -0.05965531 -0.024254024
0.029310375 -0.171666 -0.12939394 -0.14664903 -0.15919209 -0.21053782 0.08951035 -0.2452671
0.18825746 0.15072164 0.19899589 0.08174819 0.14593822 -0.0925242 -0.14279124 -0.2400094
-0.061772346 -0.06319228 0.122707784 0.20977053 -0.03516102 -0.048129886 0.051149964 -0.21523768
-0.0039274693 0.1651485 -0.041691393 0.096092016 -0.0539321 -0.025176942 -0.17160201 -0.021725565
-0.18069729 0.0990572 -0.107132316 -0.1949589 -0.11827847 -0.14836258 -0.19915694 0.23870489
-0.04047966 0.053184062 0.14461914 -0.08116278 -0.19496956 -0.13777944 0.13729271 -0.21772185
0.0063870847 0.1958636 -0.051803112 -0.16085291 -0.07880992 0.006827742 0.15406367 0.0014709532
-0.16893405 -0.0063819885 0.13607213 -0.23029956 0.015238404 0.01140669 0.049519718 -0.24021718
-0.19062066 -0.2339029 0.19970164 -0.20910761 0.228039 -0.20848942 0.17128542 -0.08201015
0.2445274 0.045655966 0.21930343 0.01756695 -0.033835143 -0.18767247 -0.13479188 0.23790121
0.24824128 0.21553212 0.14059192 0.18147129 -0.18320543 0.022107184 0.111113966 -0.1362803
0.04973927 0.22909239 -0.08432299 0.12118986 -0.08344725 -0.17698303 0.043715656 -0.21700239
-0.24724296 0.0013708174 0.0112813115 -0.0935072 -0.15418482 0.085127085 -0.12041175 -0.200037
-0.20290032 0.054108918 0.22626117 -0.09111166 -0.12136358 0.15099388 -0.19077602 0.20162463
-0.24636695 0.0344055 -0.076093346 0.23080197 -0.06610367 -0.14449203 0.12972638 -0.22350499
0.11605367 0.15078256 -0.09975439 0.15714803 0.041846305 -0.09955111 0.0835354 -0.19248125
-0.006043792 0.13481805 0.22101134 -0.10336149 -0.1341185 -0.14107692 0.12417588 0.23537406
-0.13196024 0.039339125 0.22392368 -0.030615449 0.12529558 -0.05494961 -0.21990529 0.19719175
-0.17145276 -0.19027337 -0.06178695 -0.16449615 0.15139341 -0.041652143 -0.24011955 -0.004003048
0.040928215 0.18327656 0.11041695 -0.012220949 -0.24671665 -0.009302974 -0.19105086 0.056539327
0.07598886 0.11952323 -0.13905054 -0.2283499 -0.10084137 0.09411359 0.11060268 0.17169598
-0.004807651 0.1623317 -0.060018957 0.0023812652 -0.017465055 -0.1444048 -0.21258432 0.10080549
-0.094545364 0.19904536 -0.018039823 0.057192445 -0.22628635 -0.20506385 0.10686132 -0.13911209
-0.23842096 0.20669886 0.11456397 -0.11767608 0.21883133 0.025787383 0.24748677 -0.11615968
0.15058216 -0.051108122 0.109368354 0.21408859 0.068561584 -0.09516469 -0.19735673 0.11626446
0.12205559 0.16636363 -0.12543878 0.19675645 -0.0710969 -0.050976515 0.050762028 -0.17177969
-0.0013864636 -0.16238388 -0.02702725 -0.11561954 -0.03524837 -0.10291532 0.1572775 -0.20178214
-0.24897873 0.168116 -0.13565308 0.07421133 -0.15043223 0.19531813 0.046293944 0.18785664
-0.15859798 0.13984624 0.24580821 -0.005868703 -0.20518902 -0.11479363 0.21664122 -0.16195971
00000000: 7cf0 913d ac80 57be 4824 a73d 70e2 6cbd
00000010: fcba bf3d 6877 573d a0a0 7ebe 16f6 26be
00000020: 649a f8bd d0ee 7b3d 3028 cbbd 80a4 bd3d
00000030: 5803 7bbd 2092 3e3c 4053 6dbc dc1e de3d
00000040: 102c c63d 0c71 093e 3085 c8bd 00bb 94bd
00000050: 006e c6bc 4c33 8cbd 2059 74bd 60b0 c6bc
00000060: 501c f03c 36c9 2fbe d87f 04be 2a2b 16be
00000070: 4003 23be 3a97 57be 3451 b73d 4c27 7bbe
00000080: 90c6 403e c656 1a3e 94c5 4b3e 986b a73d
00000090: d470 153e 547d bdbd de37 12be 06c5 75be
000000a0: 0005 7dbd f46a 81bd 384e fb3d 16ce 563e
000000b0: 0005 10bd d823 45bd a082 513d 4467 5cbe
000000c0: 00b2 80bb b01c 293e 98c4 2abd e4cb c43d
000000d0: e8e7 5cbd e03f cebc 70b8 2fbe d0f9 b1bc
000000e0: b608 39be 80de ca3d 3068 dbbd 4ea3 47be
000000f0: fc3b f2bd 5cec 17be ccef 4bbe 0e6f 743e
00000100: 00ce 25bd 88d7 593d 0a17 143e ac38 a6bd
00000110: 1aa6 47be 0e16 0dbe 7696 0c3e 7af2 5ebe
00000120: c04a d13b 7890 483e 802f 54bd a0b6 24be
00000130: 1867 a1bd 40bb df3b dec2 1d3e 00cd c03a
00000140: 0cfd 2cbe 0020 d1bb 7e56 0b3e a6d3 6bbe
00000150: 80aa 793c 20e3 3a3c 30d5 4a3d 7efb 75be
00000160: 1032 43be 3e84 6fbe 967e 4c3e 4e20 56be
00000170: 0e83 693e 407e 55be 7265 2f3e f0f4 a7bd
00000180: 6465 7a3e c001 3b3d 1491 603e 90e8 8f3c
00000190: b896 0abd 362d 40be e206 0abe 609c 733e
000001a0: f632 7e3e 74b4 5c3e 54f7 0f3e 9cd3 393e
000001b0: 349a 3bbe 201a b53c b88f e33d 108d 0bbe
000001c0: 68bb 4b3d 3297 6a3e 88b1 acbd 6432 f83d
000001d0: 64e6 aabd 0a3b 35be 300f 333d e035 5ebe
000001e0: 422d 7dbe 00ad b33a 40d5 383c b480 bfbd
000001f0: a0e2 1dbe 1c57 ae3d 709a f6bd 80d6 4cbe
00000200: 1ac5 4fbe 50a1 5d3d 02b1 673e c098 babd
00000210: 788d f8bd 249e 1a3e ca5a 43be b076 4e3e
00000220: 9e47 7cbe c8ec 0c3d d4d6 9bbd 5a57 6c3e
00000230: 5c61 87bd b8f5 13be fed6 043e 7ede 64be
00000240: 8cad ed3d be66 1a3e 084c ccbd 6aeb 203e
00000250: 0867 2b3d 74e1 cbbd 9c14 ab3d ce19 45be
00000260: 000b c6bb be0d 0a3e cc50 623e 30af d3bd
00000270: 5c56 09be 7876 10be ec4f fe3d e605 713e
00000280: 9620 07be 1022 213d 404c 653e 40cd fabc
00000290: 7c4d 003e d812 61bd da2e 61be a2ec 493e
000002a0: 5091 2fbe 06d7 42be 5014 7dbd ae71 28be
000002b0: e006 1b3e 709b 2abd e6e1 75be 002c 83bb
000002c0: 58a4 273d daac 3b3e 4822 e23d 603a 48bc
000002d0: 4aa3 7cbe 806b 18bc d6a2 43be c895 673d
000002e0: 0ca0 9b3d 98c8 f43d 4463 0ebe 8ed4 69be
000002f0: ec85 cebd a0be c03d a883 e23d 12d1 2f3e
00000300: 8089 9dbb 483a 263e 70d6 75bd 000f 1c3b
00000310: e012 8fbc dade 13be b4af 59be 1c73 ce3d
00000320: 00a1 c1bd 8cd2 4b3e 40c8 93bc a042 6a3d
00000330: 9cb7 67be 42fc 51be 1cda da3d 6673 0ebe
00000340: a024 74be dea8 533e 84a0 ea3d 2800 f1bd
00000350: 5215 603e 1040 d33c 2c6d 7d3e 20e5 edbd
00000360: 3632 1a3e c056 51bd 84fc df3d 0a3a 5b3e
00000370: 046a 8c3d b4e5 c2bd e217 4abe 101c ee3d
00000380: 48f8 f93d 3a5b 2a3e 0673 00be 867a 493e
00000390: 409b 91bd c0cc 50bd d8eb 4f3d 04e7 2fbe
000003a0: 00ba b5ba f647 26be 4068 ddbc f0c9 ecbd
000003b0: 9860 10bd 44c5 d2bd 5a0d 213e fa9f 4ebe
000003c0: 48f4 7ebe 9a26 2c3e a4e8 0abe 1cfc 973d
000003d0: e80a 1abe 7a01 483e b89e 3d3d 7e5d 403e
000003e0: 8267 22be da33 0f3e 26b5 7b3e 404e c0bb
000003f0: 121d 52be ec18 ebbd 32d7 5d3e c4d8 25be

fast_choice_head.0.bias f4 [16]
0.080396324 -0.015366405 0.18396041 0.023882419 0.15264255 -0.0445866 -0.015697658 -0.070148766
-0.23388126 -0.11388284 0.013021231 -0.16835868 0.23380679 -0.13454282 0.0979338 -0.24191746
00000000: d4a6 a43d 60c3 7bbc 1e60 3c3e 10a5 c33c
00000010: 544e 1c3e 70a0 36bd 6098 80bc 28aa 8fbd
00000020: 927e 6fbe 683b e9bd 0057 553c 3866 2cbe
00000030: 0c6b 6f3e 98c5 09be 8491 c83d 36b9 77be

fast_choice_head.1.weight f4 [1, 16]
0.2453022 0.04449922 -0.18496075 0.14665085 0.16260755 0.20575717 0.09525275 0.04065135
0.0728575 0.041957885 0.1683271 0.23208839 0.06960246 0.058707416 0.0600729 -0.10699427
00000000: 8030 7b3e d044 363d 5a66 3dbe a42b 163e
00000010: 9882 263e 02b2 523e e013 c33d 0882 263d
00000020: 5036 953d 08dc 2b3d f05d 2c3e 94a8 6d3e
00000030: bc8b 8e3d 3077 703d 000f 763d d01f dbbd

slow_choice_head.0.weight f4 [16, 16]
-0.11157796 -0.24521844 -0.25265655 -0.063865155 0.03657627 0.32800698 0.3020638 0.051761057
0.11387182 0.12312955 0.37120697 -0.41661742 0.22722122 0.15139553 -0.25103214 0.20573427
0.55856556 0.3373823 0.21388076 0.40277922 -0.39934698 -0.32223898 -0.12951458 0.2641769
-0.54926556 -0.2367489 -0.0036654044 0.5771951 0.05361635 0.17721407 0.068196714 -0.062758125
-0.366907 -0.3575977 0.028052293 0.039045747 0.17796725 0.3687752 0.243847 0.31132847
0.39903572 0.4267305 0.30313367 -0.36441094 0.13922478 0.059369866 -0.30343285 0.19219363
-0.06899607 0.3641967 0.26946643 0.16906102 -0.50668347 -0.26729715 -0.30400288 0.17506996
-0.28872392 -0.3336249 0.11709585 0.40999994 -0.32803 0.13881956 -0.1161732 -0.28785443
0.0034899022 -0.011736597 -0.26176333 -0.11990815 0.1930725 0.028692888 0.28306904 -0.074928276
0.4972806 0.3696271 0.36487353 -0.40427953 0.32794377 0.03245261 -0.17533492 0.27298966
0.30898422 0.016665854 0.13043143 -0.009951658 -0.31042987 -0.261018 0.15335153 0.16146351
-0.10791877 -0.18836433 -0.28779173 -0.0657472 0.012600147 0.2657022 -0.1524323 0.10092523
0.4479082 0.32866004 0.42590225 0.21483631 -0.19192965 -0.13768786 -0.12455285 -0.11777855
-0.5206346 -0.3418608 -0.32546094 0.31765547 -0.24748823 0.31367728 0.10385722 -0.25549972
-0.10279614 -0.35970032 -0.2407542 -0.33726883 0.3083696 0.19248535 -0.05884915 0.08119909
0.24945892 0.39271325 0.13820398 -0.4225558 0.27411357 -0.09669862 -0.24709369 0.08851819
0.15824446 0.13970287 0.011199067 -0.051431514 -0.36918294 -0.3081717 -0.16903916 -0.063035764
-0.32538137 -0.17920554 -0.25801092 0.038266733 -0.32358164 0.08752463 0.26137528 -0.18463333
0.3582579 0.17126113 0.34803185 -0.115751676 -0.11534437 -0.18582581 0.17085136 -0.06039614
-0.3313901 -0.29155225 -0.22603446 -0.029871613 -0.3440612 -0.16831347 -0.11675671 -0.25771236
0.10556166 0.3380344 -0.110917404 0.35732123 -0.14134331 0.07201238 -0.025049958 -0.2416834
-0.22388735 0.047560863 -0.15913217 0.044092175 0.107354246 -0.04039395 -0.09987816 -0.2372732
-0.3734542 -0.44917232 -0.09327992 -0.27140602 0.2532017 0.40977693 0.23042297 0.10119573
0.5342192 0.38139668 -0.002395598 -0.17768627 0.3316436 0.10425428 -0.37295887 -0.08442255
0.3497782 -0.035354897 0.16254072 0.33019307 0.02991216 0.093301035 -0.00465653 -0.10936353
-0.2506458 -0.13206595 -0.013923358 0.24707359 -0.20367706 -0.14561167 0.23371674 0.14494008
0.20057301 0.41459998 0.19000226 0.26706633 -0.5998656 -0.3863504 0.041886944 -0.06410459
-0.57826835 -0.4306122 -0.36074764 0.25465846 -0.25293624 0.069123395 0.08434095 0.0064609526
0.27562818 0.41859743 0.2675181 0.13749698 -0.44362757 -0.3223974 -0.01977248 -0.049510326
-0.074727274 -0.31200752 -0.2106748 0.4564683 -0.03304387 0.20144646 -0.06677299 -0.18759407
0.1179673 0.2806921 0.43911174 0.17017376 -0.12714261 -0.019368978 -0.26062706 -0.30679768
-0.46146986 -0.4565708 -0.38947657 0.10682944 -0.20243682 0.3062963 0.42049488 -0.015653232
00000000: fc82 e4bd 8b1a 7bbe 335c 81be bccb 82bd
00000010: 00d1 153d 88f0 a73e 1ba8 9a3e 6703 543d
00000020: a135 e93d 582b fc3d d70e be3e e14e d5be
00000030: aeac 683e 6e07 1b3e 4987 80be 01ac 523e
00000040: 27fe 0e3f 5fbd ac3e 8f03 5b3e 1439 ce3e
00000050: 3577 ccbe 82fc a4be 789f 04be 3242 873e
00000060: ab9c 0cbf 4e6e 72be 4837 70bb 0fc3 133f
00000070: d19c 5b3d 9b77 353e b8aa 8b3d 5587 80bd
00000080: 3cdb bbbe 0c17 b7be eccd e53c 6fee 1f3d
00000090: 0c3d 363e 1ad0 bc3e 07b3 793e 7266 9f3e
000000a0: 694e cc3e 6c7c da3e 5634 9b3e 1294 babe
000000b0: f190 0e3e d12d 733d 8d5b 9bbe 68ce 443e
000000c0: d04d 8dbd fd77 ba3e 81f7 893e 551e 2d3e
000000d0: 02b6 01bf 2cdb 88be 44a6 9bbe 8a45 333e
000000e0: 9fd3 93be e2d0 aabe f3cf ef3d 83eb d13e
000000f0: 8cf3 a7be b726 0e3e 37ec edbd a861 93be
00000100: d8b6 643b db4a 40bc d805 86be 6792 f5bd
00000110: ccb4 453e 590d eb3c 6dee 903e ff73 99bd
00000120: 909b fe3e c33f bd3e b4d0 ba3e bafd cebe
00000130: 3fe8 a73e 07ed 043d ff8a 33be 4dc5 8b3e
00000140: 2e33 9e3e d486 883c d18f 053e 470c 23bc
00000150: aaf0 9ebe 27a4 85be 2f08 1d3e b156 253e
00000160: 8404 ddbd 94e2 40be 7059 93be 78a6 86bd
00000170: d970 4e3c 1e0a 883e 3617 1cbe e3b1 ce3d
00000180: 3954 e53e 2146 a83e dc0f da3e 0dfe 5b3e
00000190: 3589 44be 0cfe 0cbe 9115 ffbd e135 f1bd
000001a0: 4f48 05bf 6108 afbe d1a2 a6be bda3 a23e
000001b0: 8e6d 7dbe 4f9a a03e 18b3 d43d dcd0 82be
000001c0: c886 d2bd a42a b8be 4588 76be 80ae acbe
000001d0: 9fe2 9d3e e11a 453e ce0b 71bd b54b a63d
000001e0: 2972 7f3e b611 c93e 5885 0d3e 3c59 d8be
000001f0: 9d58 8c3e ed09 c6bd 2106 7dbe 0649 b53d
00000200: d60a 223e 450e 0f3e 4b7c 373c daa9 52bd
00000210: 8c05 bdbe aec8 9dbe 9a18 2dbe e518 81bd
00000220: 6398 a6be a881 37be 021a 84be 94bd 1c3d
00000230: 7eac a5be 1d40 b33d fbd2 853e 8510 3dbe
00000240: 946d b73e 145f 2f3e 3b31 b23e 370f edbd
00000250: ab39 ecbd 1f49 3ebe a9f3 2e3e f161 77bd
00000260: f7ab a9be 5646 95be 9475 67be 50b5 f4bc
00000270: ca28 b0be 5e5a 2cbe 241e efbd e0f2 83be
00000280: b630 d83d d812 ad3e aa28 e3bd cff2 b63e
00000290: 4dbc 10be 3a7b 933d 9235 cdbc da7b 77be
000002a0: ba42 65be 2ecf 423d 8bf3 22be ff99 343d
000002b0: 8bdc db3d 2074 25bd ec8c ccbd bff7 72be
000002c0: 6435 bfbe eaf9 e5be 8b09 bfbd bbf5 8abe
000002d0: a7a3 813e 48ce d13e 00f4 6b3e b53f cf3d
000002e0: 97c2 083f 6d46 c33e 77ff 1cbb 64f3 35be
000002f0: 31cd a93e 4583 d53d 77f4 bebe bbe5 acbd
00000300: 2116 b33e 4cd0 10bd 1371 263e 110f a93e
00000310: 590a f53c 9d14 bf3d ce95 98bb fdf9 dfbd
00000320: a554 80be 4c3c 07be cc1e 64bc dc00 7d3e
00000330: b890 50be 3a1b 15be 7153 6f3e 2c6b 143e
00000340: 0363 4d3e 7346 d43e f48f 423e ebbc 883e
00000350: cb90 19bf b8cf c5be a591 2b3d 4449 83bd
00000360: 6509 14bf 3479 dcbe eab3 b8be 9862 823e
00000370: dc80 81be 9190 8d3d f3ba ac3d 66b6 d33b
00000380: 231f 8d3e 6752 d63e 22f8 883e 02cc 0c3e
00000390: 2723 e3be 4611 a5be e5f9 a1bc 57cb 4abd
000003a0: 9d0a 99bd 73bf 9fbe 23bb 57be 37b6 e93e
000003b0: 0259 07bd fb47 4e3e 47c0 88bd a918 40be
000003c0: d798 f13d e0b6 8f3e 41d3 e03e 0842 2e3e
000003d0: ac31 02be b1ab 9ebc e970 85be 9614 9dbe
000003e0: c745 ecbe a6c3 e9be 7969 c7be 65c9 da3d
000003f0: 994b 4fbe ded2 9c3e 1b4b d73e 353b 80bc

slow_choice_head.0.bias f4 [16]
-0.13316703 -0.10837251 0.20237955 0.076619454 -0.03780461 0.14328891 0.066809595 0.10382195
-0.30697718 0.12141057 0.026430992 0.050238777 0.11800628 0.0050215037 0.10907 0.0859788
00000000: f05c 08be 68f2 ddbd 963c 4f3e a9ea 9c3d
00000010: 02d9 1abd 54ba 123e 78d3 883d 9aa0 d43d
00000020: 1d2c 9dbe 1ba6 f83d cf85 d83c 2dc7 4d3d
00000030: 47ad f13d 6d8b a43b 1860 df3d a715 b03d

slow_choice_head.1.weight f4 [1, 16]
-0.22166528 0.29848787 -0.34173033 0.2696502 -0.36254197 0.2312653 0.20783037 -0.40943962
0.35809323 0.26231223 0.23149058 -0.26407462 0.23738231 0.27272123 0.34410623 0.19596513
00000000: 39fc 62be 67d3 983e 47f7 aebe 970f 8a3e
00000010: 1a9f b9be d0d0 6c3e 7cd1 543e 12a2 d1be
00000020: ff57 b73e ca4d 863e de0b 6d3e ca34 87be
00000030: 5914 733e 1ea2 8b3e b12e b03e 15ab 483e

exp_avg f4 [48, 1]
0.0 0.0 0.0 0.0 0.0 0.0 0.0 0.0
0.0 0.0 0.0 0.0 0.0 0.0 0.0 0.0
0.0 0.0 0.0 0.0 0.0 0.0 0.0 0.0
0.0 0.0 0.0 0.0 0.0 0.0 0.0 0.0
0.0 0.0 0.0 0.0 0.0 0.0 0.0 0.0
0.0 0.0 0.0 0.0 0.0 0.0 0.0 0.0
00000000: 0000 0000 0000 0000 0000 0000 0000 0000
00000010: 0000 0000 0000 0000 0000 0000 0000 0000
00000020: 0000 0000 0000 0000 0000 0000 0000 0000
00000030: 0000 0000 0000 0000 0000 0000 0000 0000
00000040: 0000 0000 0000 0000 0000 0000 0000 0000
00000050: 0000 0000 0000 0000 0000 0000 0000 0000
00000060: 0000 0000 0000 0000 0000 0000 0000 0000
00000070: 0000 0000 0000 0000 0000 0000 0000 0000
00000080: 0000 0000 0000 0000 0000 0000 0000 0000
00000090: 0000 0000 0000 0000 0000 0000 0000 0000
000000a0: 0000 0000 0000 0000 0000 0000 0000 0000
000000b0: 0000 0000 0000 0000 0000 0000 0000 0000

exp_avg_sq f4 [48, 1]
0.0 0.0 0.0 0.0 0.0 0.0 0.0 0.0
0.0 0.0 0.0 0.0 0.0 0.0 0.0 0.0
0.0 0.0 0.0 0.0 0.0 0.0 0.0 0.0
0.0 0.0 0.0 0.0 0.0 0.0 0.0 0.0
0.0 0.0 0.0 0.0 0.0 0.0 0.0 0.0
0.0 0.0 0.0 0.0 0.0 0.0 0.0 0.0
00000000: 0000 0000 0000 0000 0000 0000 0000 0000
00000010: 0000 0000 0000 0000 0000 0000 0000 0000
00000020: 0000 0000 0000 0000 0000 0000 0000 0000
00000030: 0000 0000 0000 0000 0000 0000 0000 0000
00000040: 0000 0000 0000 0000 0000 0000 0000 0000
00000050: 0000 0000 0000 0000 0000 0000 0000 0000
00000060: 0000 0000 0000 0000 0000 0000 0000 0000
00000070: 0000 0000 0000 0000 0000 0000 0000 0000
00000080: 0000 0000 0000 0000 0000 0000 0000 0000
00000090: 0000 0000 0000 0000 0000 0000 0000 0000
000000a0: 0000 0000 0000 0000 0000 0000 0000 0000
000000b0: 0000 0000 0000 0000 0000 0000 0000 0000
