saved_models/slow_fast/checkpoint31.pth (torch, 53998 bytes, 48 tensors)

rnn_slow.weight_ih_l0 f4 [48, 6]
-0.055585943 0.09377433 0.73489213 -0.35934883 -0.2701082 0.54747975 0.044538535 -0.13322805
0.4017962 -0.37380248 -0.40677646 0.2221141 -0.41126782 0.07756621 -0.20904401 0.24500284
-0.19392762 0.03940987 -0.095951505 -0.013311532 0.09794875 0.015325884 -0.3582482 -0.10543704
0.07053982 -0.3219772 0.6595 -0.6543124 -0.27630562 0.5959543 -0.35673335 0.11759743
0.43386704 -0.20353723 0.23707442 -0.14078857 -0.1360291 0.33647287 0.36428833 -0.19350967
0.41159138 -0.056896053 0.25763372 -0.2367871 -0.08361864 -0.071350425 0.011534991 -0.34959787
0.11435197 0.0049036993 0.6252917 -0.6170365 -0.52797294 0.5656412 -0.16415137 0.16916476
0.4847855 -0.508043 0.5049431 -0.46147007 0.09704065 -0.110018075 -0.40968144 0.38046739
0.032013286 0.024604732 -0.2698538 0.051072314 0.7601485 -0.6386247 0.68746257 -0.23921317
-0.14722626 0.3053381 -0.12007541 -0.011634362 -0.28760454 0.6817692 0.18211608 -0.03562796
-0.15759124 0.028719202 0.5164084 0.021090066 -0.49644795 0.19715083 0.2780619 -0.3966453
-0.000943496 -0.23160994 0.1137685 -0.23373817 0.24034005 -0.24370435 -0.092591636 0.20427454
-0.056427862 -0.034248542 0.30186087 -0.36635834 -0.06884332 0.21288224 -0.28533903 0.22808596
0.51312715 -0.23159346 -0.37951344 0.74706763 -0.12274422 -0.13097689 0.1639341 -0.6436093
0.68778676 -0.53798157 -0.14190063 -0.069217354 0.69431406 -0.64752084 -0.50712395 0.17294389
0.046634484 -0.107514225 0.37577555 -0.54029363 -0.4055747 0.27253357 -0.19792844 -0.062369797
0.44763047 -0.2385014 0.09599881 -0.53063667 0.13040744 0.046813276 0.6210493 -0.48988762
0.21130262 -0.03325011 -0.2309419 0.17829609 0.069872335 -0.09160076 -0.22306874 0.35958976
-0.34379414 -0.29370722 0.7152157 -0.5024875 -0.44812205 0.24860723 -0.16887204 -0.046103097
0.43321636 -0.5939863 0.46729216 -0.27562317 -0.2860731 -0.010838675 0.2579961 -0.57120657
0.35924765 -0.386721 0.0861866 -0.33300498 0.5899476 -0.5524821 0.3925483 -0.59517944
-0.2374731 -0.15133335 0.059484478 -0.20548293 -0.1348718 0.13134098 0.018778428 -0.27464738
0.73718053 -0.8822463 0.09303468 -0.23474881 -0.205002 -0.3412695 0.3188053 0.033115942
-0.062380318 -0.08545876 -0.022356322 -0.26935795 0.6018392 -0.20623238 -0.5033801 0.22240302
0.19173014 0.31700453 0.49674383 -0.5132314 -0.32608125 0.31066024 0.017120367 0.232442
0.5440514 -0.52844924 -0.2904206 0.15432014 -0.2509965 -0.08083014 -0.55013704 0.3631041
-0.30871227 -0.07595622 4.3363678e-05 -0.29270035 0.3476283 -0.13646647 -0.048443455 0.3418403
-0.0123588145 0.14767691 -0.5630947 0.3247971 0.44724423 -0.33574456 0.22141148 -0.018703239
0.5361347 -0.45430434 0.39441153 -0.26084307 0.1808592 -0.115223065 0.2877575 -0.048537504
0.23571913 -0.127924 0.1456965 0.0052437675 0.15184858 0.47869283 -0.16984685 0.08341626
-0.056607887 -0.073545925 -0.46106893 0.43716237 0.25510067 -0.5908173 0.008255483 -0.039290898
0.65422463 -0.25182313 0.121759474 -0.3785217 0.08170502 0.14125326 0.56163293 0.043266945
00000000: 16ae 63bd c20c c03d e421 3c3f 92fc b7be
00000010: 9f4b 8abe a227 0c3f 0a6e 363d ef6c 08be
00000020: 3bb8 cd3e 0a63 bfbe 0145 d0be e171 633e
00000030: b291 d2be 08db 9e3d a20f 56be 06e2 7a3e
00000040: f694 46be 3e6c 213d 3982 c4bd 9d18 5abc
00000050: 5b99 c83d 6b19 7b3c 4f6c b7be 60ef d7bd
00000060: 2e77 903d 32da a4be fed4 283f 0481 27bf
00000070: ee77 8dbe 7690 183f c1a5 b6be ecd6 f03d
00000080: d223 de3e 106c 50be a3c3 723e e12a 10be
00000090: 364b 0bbe 2c46 ac3e 0084 ba3e 6627 46be
000000a0: 1bbc d23e d60b 69bd 91e8 833e 5178 72be
000000b0: 4040 abbd 2c20 92bd 42fd 3c3c 7efe b2be
000000c0: 5e31 ea3d 36af a03b 1e13 203f 1bf6 1dbf
000000d0: 3c29 07bf ddcd 103f 4c17 28be 8739 2d3e
000000e0: ce35 f83e 1b0f 02bf f343 013f ce45 ecbe
000000f0: 40bd c63d 2851 e1bd c4c1 d1be 9fcc c23e
00000100: 5d20 033d dd8f c93c 472a 8abe 3431 513d
00000110: 1899 423f e97c 23bf 8cfd 2f3f 4cf4 74be
00000120: 7bc2 16be 4755 9c3e 19ea f5bd 0d9e 3ebc
00000130: e740 93be 6d88 2e3f a37c 3a3e a0ee 11bd
00000140: 995f 21be 8844 eb3c 5733 043f 13c5 ac3c
00000150: 6d2e febe e8e1 493e 215e 8e3e 1815 cbbe
00000160: f254 77ba 282b 6dbe 76ff e83d 0f59 6fbe
00000170: b41b 763e a28d 79be afa0 bdbd 582d 513e
00000180: e720 67bd 3348 0cbd 828d 9a3e 5293 bbbe
00000190: bafd 8cbd cdfd 593e f517 92be 5e8f 693e
000001a0: 4d5c 033f d626 6dbe 964f c2be d33f 3f3f
000001b0: 5261 fbbd ce1e 06be 57de 273e 94c3 24bf
000001c0: cb12 303f 29b9 09bf 664e 11be d4c1 8dbd
000001d0: 91be 313f edc3 25bf e0d2 01bf 3418 313e
000001e0: cd03 3f3d 6b30 dcbd a765 c03e af50 0abf
000001f0: 7da7 cfbe 8589 8b3e c1ad 4abe 7977 7fbd
00000200: d22f e53e b639 74be 069b c43d ced7 07bf
00000210: 8789 053e 47bf 3f3d 16fd 1e3f 8dd2 fabe
00000220: b75f 583e 4431 08bd 097c 6cbe 4093 363e
00000230: 3a19 8f3d 2e99 bbbd 226c 64be 261c b83e
00000240: c905 b0be cb60 96be 6018 373f 05a3 00bf
00000250: 4170 e5be e592 7e3e cbec 2cbe 9ad6 3cbd
00000260: 89ce dd3e 7c0f 18bf eb40 ef3e 7b1e 8dbe
00000270: 2c78 92be b394 31bc 1118 843e 983a 12bf
00000280: 4fef b73e 4b00 c6be 9a82 b03d a17f aabe
00000290: ce06 173f 786f 0dbf 17fc c83e ae5d 18bf
000002a0: 262c 73be 21f7 1abe ffa5 733d 1e6a 52be
000002b0: d51b 0abe 407e 063e 38d5 993c 959e 8cbe
000002c0: ddb7 3c3f e5da 61bf f788 be3d fe61 70be
000002d0: 0bec 51be e0ba aebe 733a a33e 95a4 073d
000002e0: 8182 7fbd 0105 afbd 9b24 b7bc 49e9 89be
000002f0: 2212 1a3f 952e 53be 85dd 00bf 9ebd 633e
00000300: e854 443e 6b4e a23e 3555 fe3e 2263 03bf
00000310: 1ff4 a6be dc0e 9f3e 0340 8c3c 4705 6e3e
00000320: f446 0b3f 7348 07bf 02b2 94be 1906 1e3e
00000330: 9d82 80be 468a a5bd c8d5 0cbf c8e8 b93e
00000340: 890f 9ebe ef8e 9bbd 65e1 3538 d2dc 95be
00000350: 56fc b13e debd 0bbe a56c 46bd b105 af3e
00000360: a07c 4abc 9e38 173e f926 10bf ce4b a63e
00000370: 32fd e43e b6e6 abbe b1b9 623e 8937 99bc
00000380: 2040 093f 949a e8be 4ff0 c93e 398d 85be
00000390: 2733 393e 12fa ebbd f354 933e 43cf 46bd
000003a0: 5b60 713e 82fe 02be 7731 153e e9d3 ab3b
000003b0: 327e 1b3e 3a17 f53e 55ec 2dbe 25d6 aa3d
000003c0: acdd 67bd 3f9f 96bd 3a11 ecbe bfd3 df3e
000003d0: 8e9c 823e cd3f 17bf 0142 073c 7eef 20bd
000003e0: 447b 273f f6ee 80be 085d f93d 99cd c1be
000003f0: f654 a73d b2a4 103e 2dc7 0f3f ae38 313d

rnn_slow.weight_hh_l0 f4 [48, 16]
0.14479637 0.057988252 -0.08092924 0.03933085 -0.12872842 -0.16652541 -0.21408987 -0.21768633
-0.1618205 -0.21715549 0.12627783 -0.07193975 -0.10849009 -0.12544021 0.11232159 0.07308907
0.18963672 -0.20001982 0.19283661 -0.14859292 0.14455925 -0.20390531 0.53616697 0.05923324
0.07104661 -0.21260868 0.29234487 0.026585165 0.29671288 -0.17791873 0.028843427 0.28034273
0.053438384 -0.07277274 0.32722494 0.2878887 0.20648226 -0.08868021 -0.007320363 0.12226371
-0.20873144 0.1768396 0.0330571 -0.011817071 -0.04651475 -0.032174367 -0.04020283 0.052036203
-0.29968667 -0.32770306 0.20275544 0.07251032 0.30970943 -0.2817345 -0.02827263 0.011597547
-0.13323765 0.11770523 0.036170162 -0.021908808 -0.05733395 0.20688921 -0.039082967 0.29349217
0.25974068 0.28004998 0.15971501 0.017184034 0.07174355 -0.43116018 0.18798947 0.18954636
-0.2521493 -0.062922835 0.02666102 0.036840774 -0.071187474 0.18901439 0.27442124 0.00033350498
0.24644032 -0.05053537 -0.04298889 0.36860788 -0.09283582 0.18550333 -0.10984898 0.036669992
0.086213395 -0.19504525 -0.43422535 -0.33958006 -0.04097033 0.07767488 0.0941899 0.11078544
0.1993567 -0.102709115 -0.07364644 0.37063393 -0.46657243 0.20852628 -0.24388672 0.039319217
-0.42195117 -0.123970956 -0.14960149 -0.093865536 -0.26711017 -0.10451761 0.1727299 -0.28021201
-0.41547367 -0.22725783 -0.22446278 -0.085233435 0.52412224 0.39749432 0.094262175 -0.32640716
0.38926566 0.2171172 0.19704321 -0.03731593 -0.08170262 0.04111809 -0.18968655 0.09012502
0.01538882 0.20504741 -0.08942627 0.091744535 0.15824272 -0.275183 -0.10883688 0.121831186
-0.2530749 0.17684999 0.10654311 0.06989819 -0.13376865 -0.18654935 -0.1681203 0.38008392
-0.31274623 0.03229595 0.19621581 0.33189702 0.077551305 0.22415829 -0.19614632 0.3017965
0.08017161 0.2204189 -0.25458753 0.0076478715 0.14401723 0.02217844 -0.10090161 0.089162536
-0.34453425 0.10377132 0.19360629 -0.31259832 0.30642375 -0.281201 0.066275045 0.2049182
0.3260328 -0.29033485 0.22235984 0.13952106 -0.059520736 -0.13476743 0.2157298 0.08114694
-0.28518182 0.16351599 -0.12942745 0.14429615 -0.16471136 0.16819355 -0.07277193 -0.44960517
0.3270216 0.22773261 -0.22338249 0.27588558 -0.062320314 -0.21936224 -0.30314738 0.117863
0.113057345 0.099096335 0.2707012 0.016397562 0.39166683 -0.33734557 -0.12251367 0.098342985
0.05743948 -0.21644568 -0.46478456 0.25520447 0.19052912 0.23529041 0.0639692 0.13875629
-0.072417356 0.12890492 0.026431406 0.14889854 0.21759528 -0.042976025 -0.122966394 -0.0018755585
-0.058739226 -0.15632145 0.25878328 -0.31152827 0.21071331 -0.005584202 0.023633637 0.35323194
-0.15314287 0.073064126 0.0346275 0.12689884 -0.32447475 0.1600979 -0.041593317 0.1134011
-0.38283914 -0.27664438 -0.16081889 0.18228792 -0.14448318 0.19485132 0.39197433 -0.50480014
0.22064951 -0.0020898008 0.12573738 -0.17690848 0.1086782 0.32856 0.49983266 -0.11134196
-0.28592247 -0.014067453 0.47621238 -0.17168999 0.15756485 0.28740546 -0.3308762 -0.086845614
00000000: 8045 143e 1785 6d3d 3bbe a5bd 6319 213d
00000010: 62d1 03be a385 2abe 603a 5bbe 2ae9 5ebe
00000020: 46b4 25be 025e 5ebe fa4e 013e 2655 93bd
00000030: 0d30 debd 6673 00be dd08 e63d b9af 953d
00000040: 2130 423e ffd1 4cbe f676 453e be28 18be
00000050: 5707 143e 8ecc 50be 3d42 093f 8e9e 723d
00000060: e380 913d 17b6 59be 3aae 953e 22c9 d93c
00000070: c0ea 973e 5430 36be 0d49 ec3c 1589 8f3e
00000080: 35e2 5a3d e009 95bd 078a a73e 2666 933e
00000090: 1670 533e f89d b5bd a8df efbb 6565 fa3d
000000a0: b2bd 55be 7115 353e e266 073d 639c 41bc
000000b0: 4086 3ebd 45c9 03bd b9ab 24bd ea23 553d
000000c0: 8870 99be b2c8 a7be 1f9f 4f3e 4a80 943d
000000d0: 3c92 9e3e 813f 90be 019c e7bc a303 3e3c
000000e0: 736f 08be 710f f13d 2a27 143d 1a7a b3bc
000000f0: 01d7 6abd c4da 533e 7615 20bd 9b44 963e
00000100: bbfc 843e b662 8f3e 558c 233e 88c5 8c3c
00000110: 48ee 923d 07c1 dcbe 5080 403e 7118 423e
00000120: b719 81be b0dd 80bd 3668 da3c 5ae6 163d
00000130: bdca 91bd fd8c 413e f180 8c3e 48da ae39
00000140: da5a 7c3e 2dfe 4ebd 1e15 30bd 2cba bc3e
00000150: b520 bebd 96f4 3d3e 81f8 e0bd 4633 163d
00000160: a690 b03d f1b9 47be c952 debe 70dd adbe
00000170: 81d0 27bd 0214 9f3d a2e6 c03d 7ae3 e23d
00000180: 2a24 4c3e 2859 d2bd f2d3 96bd bbc3 bd3e
00000190: 95e2 eebe ea87 553e 71bd 79be 300d 213d
000001a0: fc09 d8be 7ce4 fdbd 2231 19be 933c c0bd
000001b0: aac2 88be 540d d6bd 1be0 303e f377 8fbe
000001c0: f7b8 d4be 47b6 68be 92d9 65be de8e aebd
000001d0: e02c 063f 6084 cb3e 870c c13d d71e a7be
000001e0: d44d c73e f953 5e3e b2c5 493e 97d8 18bd
000001f0: b453 a7bd 716b 283d 313d 42be 7793 b83d
00000200: 6421 7c3c f3f7 513e 1f25 b7bd 8fe4 bb3d
00000210: 610a 223e c9e4 8cbe dfe5 debd a182 f93d
00000220: 0993 81be 2a18 353e 4633 da3d c826 8f3d
00000230: a6fa 08be cb06 3fbe ba27 2cbe 5c9a c23e
00000240: 4620 a0be c248 043d ccec 483e 68ee a93e
00000250: 38d3 9e3d c089 653e 95da 48be 1285 9a3e
00000260: 0331 a43d 7eb5 613e 4c59 82be ff9a fa3b
00000270: 4179 133e 8faf b53c 81a5 cebd d99a b63d
00000280: cb66 b0be 0f86 d43d ba40 463e e30c a0be
00000290: 93e3 9c3e 94f9 8fbe 36bb 873d 14d6 513e
000002a0: c5ed a63e c5a6 94be 4cb2 633e 9cde 0e3e
000002b0: 04cc 73bd 7900 0abe 46e8 5c3e 5e30 a63d
000002c0: 5a03 92be bc70 273e a188 04be 5fc2 133e
000002d0: 18aa 28be ee3a 2c3e 7309 95bd a632 e6be
000002e0: 606f a73e bd32 693e 61be 64be e040 8d3e
000002f0: 9643 7fbd 7fa0 60be 2236 9bbe 2862 f13d
00000300: 9c8a e73d 05f3 ca3d 5999 8a3e 2e54 863c
00000310: 8e88 c83e 8fb8 acbe 72e8 fabd 0c68 c93d
00000320: a945 6b3d f0a3 5dbe 3ef8 edbe 29aa 823e
00000330: 111a 433e f8ef 703e 4902 833d 2116 0e3e
00000340: 8d4f 94bd a7ff 033e ad86 d83c dc78 183e
00000350: 4cd1 5e3e a107 30bd ced5 fbbd 4dd5 f5ba
00000360: 8b98 70bd bb12 20be 3e7f 843e a280 9fbe
00000370: 3bc5 573e aefb b6bb 549b c13c d1da b43e
00000380: 7cd1 1cbe a5a2 953d 91d5 0d3d c5f1 013e
00000390: 8e21 a6be b4f0 233e c15d 2abd d63e e83d
000003a0: 7e03 c4be 55a4 8dbe b5ad 24be afa9 3a3e
000003b0: 66f3 13be 1b87 473e dcb0 c83e 953a 01bf
000003c0: f2f1 613e 0af5 08bb 4dc1 003e 7f27 35be
000003d0: ad92 de3d 0439 a83e 11ea ff3e 4107 e4bd
000003e0: 6e64 92be 2d7b 66bc 1cd2 f33e 80cf 2fbe
000003f0: ae58 213e cf26 933e 9b68 a9be 1ddc b1bd

rnn_slow.bias_ih_l0 f4 [48]
-0.016572798 0.2989319 0.046789367 0.17096037 -0.11172358 0.09676074 0.07016059 0.069709696
-0.21516584 0.21475385 0.16178733 -0.001963665 0.24962467 -0.03594709 0.015988225 -0.10340538
-0.36809462 -0.010024067 -0.20521052 -0.13220824 -0.031608373 0.0026725035 -0.05513825 0.15700093
-0.3276635 -0.30543643 -0.17326638 -0.172591 -0.2936221 0.027250448 -0.21265365 -0.024888098
0.20789304 0.2812579 -0.08147382 0.12040777 0.01222121 0.062217277 -0.11383003 0.3431001
0.20432106 -0.0068127248 0.044990595 0.06081451 0.20941766 0.11393581 -0.24004571 0.008113777
00000000: adc3 87bc 9a0d 993e 35a6 3f3d 3c10 2f3e
00000010: 55cf e4bd 7f2a c63d 5bb0 8f3d f5c3 8e3d
00000020: 6f54 5cbe 6fe8 5b3e 94ab 253e d5b0 00bb
00000030: 9c9d 7f3e 413d 13bd bdf9 823c 33c6 d3bd
00000040: e676 bcbe fc3b 24bc b522 52be 9961 07be
00000050: c877 01bd 2b25 2f3b a5d8 61bd dac4 203e
00000060: 83c3 a7be 2a62 9cbe be6c 31be b2bb 30be
00000070: a355 96be 553c df3c e1c1 59be 20e2 cbbc
00000080: eae1 543e 0901 903e bfdb a6bd 5998 f63d
00000090: 783b 483c 8bd7 7e3d b81f e9bd d1aa af3e
000000a0: 8a39 513e 473d dfbb 0f48 383d a318 793d
000000b0: 9571 563e 2e57 e93d 8bce 75be a6ef 043c

rnn_slow.bias_hh_l0 f4 [48]
0.05404137 0.26328233 -0.08012462 0.13842304 0.09853324 -0.09843779 -0.08602719 -0.39392406
-0.15731594 -0.047083035 -0.15107986 0.1020977 0.2472133 -0.041376203 0.24548107 0.0694425
-0.3107987 -0.23254906 0.07850777 0.05896283 0.18852468 0.0656402 0.0006574895 0.1025108
-0.091498666 -0.16557713 -0.19308552 -0.06518008 -0.33894375 -0.30979952 0.06014955 -0.19487236
0.30870023 0.04564282 0.07025564 0.11306151 -0.49920586 0.24217395 0.39587027 -0.12536794
-0.30913487 0.26796326 -0.05150393 -0.33154246 0.07094809 0.09191397 -0.28462029 -0.101338044
00000000: 7c5a 5d3d f1cc 863e 6018 a4bd c5be 0d3e
00000010: cccb c93d c199 c9bd 062f b0bd 6ab0 c9be
00000020: 6e17 21be 24da 40bd aeb4 1abe 9918 d13d
00000030: 7c25 7d3e 187a 29bd 645f 7b3e df37 8e3d
00000040: 0221 9fbe 5721 6ebe afc8 a03d 0283 713d
00000050: 9d0c 413e 5f6e 863d 605b 2c3a 2ff1 d13d
00000060: a763 bbbd 0d8d 29be 36b8 45be 227d 85bd
00000070: 098a adbe 0b9e 9ebe 605f 763d 9f8c 47be
00000080: f50d 9e3e f7f3 3a3d 30e2 8f3d cb8c e73d
00000090: e997 ffbe 73fc 773e 82af ca3e 7460 00be
000000a0: ed46 9ebe 7b32 893e c9f5 52bd efbf a9be
000000b0: 3b4d 913d 643d bc3d c0b9 91be 528a cfbd

project_sf.weight f4 [16, 16]
0.013798668 0.11900268 -0.24132569 0.15806986 -0.079907626 -0.04997188 0.053989436 -0.23883264
0.051364515 0.0720689 -0.03775014 -0.20621505 0.13180907 -0.17396128 -0.119002394 0.1695208
-0.008173577 -0.14949974 -0.06882049 0.1869953 0.15548277 -0.17938271 -0.023348596 0.19640924
0.31156853 0.1514315 0.15386312 -0.029892609 -0.049670547 0.38003895 0.10237451 -0.049051188
-0.1759523 -0.22926715 -0.105024226 0.10932981 -0.102961175 -0.124149576 0.2499292 -0.023818018
0.09332081 0.19186038 -0.022161486 0.0028912048 -0.18092947 0.17596604 -0.18776181 -0.2125679
0.022262067 0.04526879 0.17727102 0.042062838 -0.22691551 0.069690175 0.2345239 -0.1438276
-0.09246019 -0.111164056 -0.027113758 -0.14052752 -0.05991564 0.1482789 -0.045539778 0.06894846
-0.17321205 0.1963213 -0.1633762 -0.12320535 -0.059123907 -0.11734766 0.36860844 0.1970467
0.14989892 -0.043789342 0.08674422 0.12800516 0.044327796 0.26779684 -0.06505483 -0.37134302
0.16723296 -0.03332692 -0.07008103 0.14503276 0.21047094 -0.16825433 0.09787209 0.36848593
-0.08101106 -0.0650831 0.08053341 0.2678449 0.25302172 0.26020584 0.2185438 0.016840983
-0.19939572 -0.22843698 -0.25461227 -0.3211139 -0.15507846 0.16242379 0.3149393 0.124252364
0.1445392 -0.15987292 0.21481743 -0.20458281 0.025793292 -0.1621773 0.128257 -0.11766137
-0.20903516 0.11269862 0.29472238 -0.30862647 0.25587702 0.11369144 -0.10308651 0.18383099
-0.13248448 -0.1530874 0.083462834 -0.04008555 -0.17172521 -0.20544514 0.2597797 -0.22525954
0.10587086 0.19935484 0.25588444 -0.07789913 -0.09679828 -0.18106002 0.11725474 0.2513484
0.2968622 0.13492376 -0.22542734 0.17341776 0.05761506 -0.07995747 -0.10607116 -0.19513392
-0.19692984 0.09994687 0.15739222 0.023093667 -0.010807085 -0.18085009 -0.02165315 -0.07565284
0.13736062 -0.14531486 -0.22802332 0.27504015 0.26000643 0.15391824 -0.10265395 -0.04984248
0.09187101 -0.23582792 0.01136439 0.08468961 -0.152451 0.24175228 -0.121292606 -0.051608283
0.17032182 -0.21359397 -0.0006383366 0.29369718 -0.08883588 0.029401688 0.01078453 0.12002187
-0.03535024 -0.0050048316 -0.00940401 -0.061624173 -0.1698948 -0.033586767 0.22417305 0.20307007
0.2017799 -0.039550535 -0.13239454 0.05996149 0.023586493 0.26666853 0.06553332 -0.20685662
0.25685132 0.19876868 -0.25455248 -0.18045296 -0.13084838 0.2700392 0.025853561 0.010361801
0.15584262 0.32684177 0.026097402 -0.32391065 -0.124627456 0.030039513 -0.19057341 0.1424898
0.02985725 0.1445054 0.024108011 0.08838839 0.13388878 -0.1338398 -0.118501626 -0.12612449
0.024241148 0.15571468 0.045884565 -0.17627585 -0.047634564 0.16657557 -0.22960493 -0.20726886
-0.2787885 -0.16610707 0.33045045 -0.32738256 0.21782929 0.085951686 -0.18396847 0.1947318
0.1608213 0.04208502 0.12907255 0.28040975 -0.095260434 0.2790718 0.101067334 -0.22818932
0.07810567 0.33538303 -0.2187057 0.23089159 0.15309876 0.30109134 -0.076586895 -0.14241336
-0.29086563 0.31802619 0.1718313 -0.02256318 0.3222495 -0.0006429687 -0.17080502 -0.07517729
00000000: cf13 623c adb7 f33d 151e 77be 11dd 213e
00000010: 9ca6 a3bd 50af 4cbd 0724 5d3d 8b90 74be
00000020: 9963 523d dc98 933d e49f 1abd 0a2a 53be
00000030: f5f8 063e e822 32be 87b7 f3bd dc96 2d3e
00000040: 77ea 05bc 7616 19be c2f1 8cbd b27b 3f3e
00000050: e036 1f3e 1ab0 37be 8e45 bfbc 811f 493e
00000060: e985 9f3e dc10 1b3e 4b8e 1d3e 58e1 f4bc
00000070: 5873 4bbd 7794 c23e baa9 d13d e6e9 48bd
00000080: d72c 34be 02c5 6abe f116 d7bd 4fe8 df3d
00000090: 4fdd d2bd 2242 febd 71ed 7f3e 011e c3bc
000000a0: fb1e bf3d 0c77 443e 018c b5bc 5e7a 3d3b
000000b0: 9345 39be 7130 343e a244 40be 66ab 59be
000000c0: f05e b63c c46b 393d 8986 353e 154a 2c3d
000000d0: 8a5c 68be b9b9 8e3d 0927 703e 8b47 13be
000000e0: c55b bdbd fba9 e3bd ac1d debc 72e6 0fbe
000000f0: 1a6a 75bd 6dd6 173e eb87 3abd da34 8d3d
00000100: 805e 31be 7308 493e 174c 27be 1653 fcbd
00000110: e92b 72bd f853 f0bd 3fba bc3e 9cc6 493e
00000120: 1a7f 193e 745c 33bd f4a6 b13d c913 033e
00000130: 1091 353d ab1c 893e 773b 85bd ac20 bebe
00000140: 1e3f 2b3e cf81 08bd a586 8fbd 7883 143e
00000150: b285 573e dd4a 2cbe 2a71 c83d 30aa bc3e
00000160: 20e9 a5bd 4a4a 85bd b3ee a43d f722 893e
00000170: 108c 813e b339 853e f2c9 5f3e 1af6 893c
00000180: 642e 4cbe 62eb 69be 8a5c 82be 0b69 a4be
00000190: e3cc 1ebe 6c52 263e b93f a13e 0678 fe3d
000001a0: 1602 143e bab5 23be 1af9 5b3e 287e 51be
000001b0: 744c d33c ce11 26be ce55 033e 72f8 f0bd
000001c0: 500d 56be 89ce e63d dae5 963e 4a04 9ebe
000001d0: 5002 833e 0fd7 e83d 051f d3bd 313e 3c3e
000001e0: 03aa 07be f2c2 1cbe 90ee aa3d bf30 24bd
000001f0: bcd8 2fbe 3660 52be d801 853e 70aa 66be
00000200: d2d2 d83d ad23 4c3e 4903 833e 9489 9fbd
00000210: 2d3e c6bd cc67 39be 4123 f03d bdb0 803e
00000220: 53fe 973e 7429 0a3e 6dd6 66be 6d94 313e
00000230: c5fd 6b3d bec0 a3bd d63b d9bd 30d1 47be
00000240: faa7 49be f2b0 cc3d 6d2b 213e ee2e bd3c
00000250: 3310 31bc c430 39be f261 b1bc e0ef 9abd
00000260: 43a8 0c3e 6bcd 14be f27e 69be 10d2 8c3e
00000270: 901f 853e be9c 1d3e 3c3c d2bd a127 4cbd
00000280: de26 bc3d e07c 71be b531 3a3c bf71 ad3d
00000290: 1d1c 1cbe e98d 773e 4268 f8bd 3563 53bd
000002a0: d868 2e3e 61b8 5abe 0b56 27ba 7a5f 963e
000002b0: 96ef b5bd cfdb f03c 99b1 303c 07ce f53d
000002c0: 6acb 10bd 92ff a3bb 4713 1abc a169 7cbd
000002d0: e7f8 2dbe 4792 09bd 9f8d 653e 9af1 4f3e
000002e0: 649f 4e3e beff 21bd 6f92 07be 2e9a 753d
000002f0: 7638 c13c c788 883e 5536 863d 39d2 53be
00000300: 0482 833e 048a 4b3e b454 82be a9c8 38be
00000310: 1efd 05be 9442 8a3e d9ca d33c 8bc4 293c
00000320: 3595 1f3e ce57 a73e 38ca d53c 9ed7 a5be
00000330: ae3c ffbd 6d15 f63c ad25 43be d9e8 113e
00000340: 3197 f43c 39f9 133e 2a7e c53c f904 b53d
00000350: 241a 093e 4d0d 09be fbb0 f2bd c726 01be
00000360: 5f95 c63c ab73 1f3e 74f1 3b3d a881 34be
00000370: 761c 43bd c992 2a3e 8e1d 6bbe 4a3e 54be
00000380: 5ebd 8ebe f917 2abe cd30 a93e b09e a7be
00000390: a40e 5f3e 7007 b03d 3b62 3cbe c667 473e
000003a0: 57ae 243e 5861 2c3d 982b 043e de91 8f3e
000003b0: e717 c3bd 80e2 8e3e 64fc ce3d 76aa 69be
000003c0: def5 9f3d 53b7 ab3e 63f4 5fbe d86e 6c3e
000003d0: ecc5 1c3e a528 9a3e 97d9 9cbd cfd4 11be
000003e0: 57ec 94be 54d4 a23e 8bf4 2f3e 6bd6 b8bc
000003f0: e3fd a43e e68c 28ba 83e7 2ebe 8df6 99bd

project_sf.bias f4 [16]
-0.03610586 0.44020343 0.15178049 -0.091044314 -0.08228405 0.0026464472 -0.17879471 0.14781114
0.104924425 -0.08089935 -0.09022557 -0.2694653 0.21570797 -0.07278877 -0.23282272 0.016088812
00000000: bde3 13bd 5862 e13e 586c 1b3e 7175 babd
00000010: 8a84 a8bd 0470 2d3b f615 37be ce5b 173e
00000020: 9ee2 d63d 8fae a5bd 2fc8 b8bd 5bf7 89be
00000030: 8de2 5c3e 4712 95bd 1469 6ebe afcc 833c

rnn_fast.weight_ih_l0 f4 [48, 1]
-0.19486237 0.008810669 -0.057486683 0.022823274 -0.09316617 -0.17216498 0.1403808 0.16378096
0.06633958 0.09492594 -0.09808615 -0.07400274 -0.15208733 0.03024751 0.2184399 0.17888889
0.067527086 -0.094542354 -0.073903024 -0.15699413 0.060037076 -0.2289629 0.17077023 0.16233131
-0.2397938 -0.050471723 0.071179956 0.13592467 -0.1893473 -8.2820654e-05 0.047447234 0.05938381
-0.21224532 0.24119797 0.017278671 -0.07978076 0.14448237 -0.15422007 -0.031969786 -0.059376866
-0.2433295 0.23160058 0.14886922 0.108044565 -0.2131688 0.22255188 0.11218092 0.21126184
00000000: 008a 47be a05a 103c 2877 6bbd e0f7 ba3c
00000010: e8cd bebd 044c 30be fcbf 0f3e 32b6 273e
00000020: 0cdd 873d 8868 c23d 64e1 c8bd c08e 97bd
00000030: c8bc 1bbe a0c9 f73c b6ae 5f3e a62e 373e
00000040: a44b 8a3d 6c9f c1bd 785a 97bd 12c3 20be
00000050: 70e9 753d 4075 6abe 64de 2e3e 2e3a 263e
00000060: 828c 75be 70bb 4ebd ccc6 913d d62f 0b3e
00000070: 42e4 41be 00b0 adb8 0858 423d 703c 733d
00000080: d656 59be 9afc 763e 008c 8d3c 1864 a3bd
00000090: 30f3 133e deeb 1dbe c0f2 02bd 2835 73bd
000000a0: 5e2b 79be b428 6d3e 2c71 183e 7846 dd3d
000000b0: ec48 5abe a4e4 633e 1cbf e53d 0655 583e

rnn_fast.weight_hh_l0 f4 [48, 16]
-0.22508432 0.15944354 -0.09994359 -0.17230444 0.19686028 0.21855935 0.10192689 -0.0040419726
0.15346974 0.16458343 0.12733938 0.07007863 0.23122253 -0.2027564 -0.19979455 -0.17453444
-0.21253227 -0.10457551 0.1365914 0.23391023 -0.11756149 -0.24989136 -0.1834256 -0.07367907
0.21720357 0.12085567 0.23418947 -0.18378809 -0.06556337 -0.0282931 0.22625612 -0.14295137
-0.18081228 0.18615091 0.14697795 0.18587635 0.031276055 -0.12899724 -0.17089242 0.007527652
-0.030845884 0.1744734 0.10186289 0.06791445 -0.037868086 0.039572027 -0.17128688 -0.21566781
-0.188574 0.22800553 0.12369571 0.114042886 0.22424027 0.16298133 -0.10033673 -0.17731658
0.023898141 0.07484293 -0.115534596 -0.12198228 0.15490565 0.016324371 -0.19577985 -0.2164356
0.18219815 0.05283279 -0.0070241042 0.040196683 0.16919507 0.18180692 0.11637394 0.1857573
-0.050093476 0.03974186 0.16161217 0.19923732 0.114650615 -0.0011407358 0.19592907 0.038160183
0.21426798 -0.08086852 0.08094118 0.19484755 0.14888503 0.09664169 -0.26019666 -0.065898366
0.2487968 -0.09472502 -0.15558682 -0.04432342 -0.13746509 -0.20410031 -0.11451925 -0.2267875
0.19433586 -0.105641715 0.024878383 0.1057222 -0.036462955 -0.18434428 -0.06035869 -0.14320716
-0.20785217 -0.18342268 -0.11474862 -0.2389738 -0.13122456 0.16736174 -0.026440004 0.022646135
0.20602942 0.14857975 -0.032257497 -0.08026938 -0.07524787 0.16325153 0.09144012 -0.19796436
-0.19734837 -0.19069049 0.22795513 0.09914108 -0.05627558 0.042809237 0.18659759 -0.050728552
0.22134955 0.19177705 -0.11563807 0.081199914 0.23977123 -0.19427882 0.17428064 0.0585569
0.2427329 0.07613913 -0.14968283 0.20748298 0.20369059 -0.15909763 0.11045319 0.20924455
-0.17480457 -0.069364086 0.015333183 0.23835021 -0.087707825 0.054854184 0.026284711 0.07035981
-0.0056702327 -0.19812335 0.07652791 -0.13375235 0.06465005 -0.097449616 -0.18430628 0.035181493
-0.059539746 -0.1051609 0.1643817 0.13798487 -0.08948281 -0.16092405 -0.24081507 0.012565402
0.048650313 -0.18692154 -0.19991796 -0.003529066 -0.12765653 -0.15535142 -0.16103378 0.08263447
-0.031092416 0.037779823 0.037135717 0.0018406314 0.1705471 -0.037914645 -0.14349058 -0.02855857
-0.18096219 0.1465908 0.08358479 -0.00712968 -0.1776522 -0.109654985 -0.04809677 -0.13118866
-0.2014206 -0.100375436 -0.12180265 0.239407 0.15991862 -0.20288277 -0.19082877 0.20492864
-0.08251502 0.13574101 0.1949046 0.11861566 -0.07666959 0.07736898 -0.16193278 -0.17712744
-0.14507908 0.21038617 -0.23244542 -0.19844583 0.20934665 -0.20813917 0.21647465 0.12714565
0.17766768 0.07040566 0.23032555 -0.20934601 0.2392272 -0.109361485 0.03585366 0.22060923
-0.20776102 0.10892941 0.21329056 -0.123811126 0.08998297 0.22618622 0.10258172 0.20854567
-0.09700352 -0.0021927883 -0.042999655 -0.0030497739 -0.029387001 0.21844938 0.12426663 0.080951355
0.24801438 -0.1862306 -0.15996575 -0.20189306 -0.18067719 0.21585152 -0.21524908 -0.20043944
0.19246797 0.032518014 0.16425797 0.1479569 -0.004633568 0.1682446 0.057583723 -0.23134932
00000000: 817c 66be 2b45 233e 3aaf ccbd 9370 30be
00000010: be95 493e 06ce 5f3e 0cbf d03d 8672 84bb
00000020: 2c27 1d3e 8f88 283e 4165 023e 6285 8f3d
00000030: 99c5 6c3e 609f 4fbe f196 4cbe 28b9 32be
00000040: 0fa2 59be af2b d6bd 9ede 0b3e 2a86 6f3e
00000050: 14c4 f0bd 85e3 7fbe ecd3 3bbe 0de5 96bd
00000060: 9d6a 5e3e 2d83 f73d 5dcf 6f3e f232 3cbe
00000070: 1746 86bd eec6 e7bc afaf 673e d861 12be
00000080: db26 39be 589e 3e3e 6381 163e 5f56 3e3e
00000090: 521b 003d da17 04be 6cfe 2ebe 86aa f63b
000000a0: 82b0 fcbc 28a9 323e 7e9d d03d bb16 8b3d
000000b0: 911b 1bbd 4716 223d d465 2fbe 06d8 5cbe
000000c0: 8b19 41be 487a 693e 2d54 fd3d 518f e93d
000000d0: 3e9f 653e 94e4 263e 587d cdbd 7a92 35be
000000e0: 09c6 c33c 4047 993d 679d ecbd d8d1 f9bd
000000f0: 969f 1e3e b0ba 853c 837a 48be 4ba1 5dbe
00000100: 2792 3a3e 3267 583d 752a e6bb 47a5 243d
00000110: 7941 2d3e 982b 3a3e 7655 ee3d 2937 3e3e
00000120: d12e 4dbd 5cc8 223d a97d 253e de04 4c3e
00000130: f1cd ea3d be84 95ba a1a1 483e da4d 1c3d
00000140: 1169 5b3e 659e a5bd 7dc4 a53d 1e86 473e
00000150: 5175 183e 14ec c53d 7f38 85be b9f5 86bd
00000160: 97c4 7e3e 31ff c1bd 2752 1fbe 798c 35bd
00000170: a6c3 0cbe acff 50be 1289 eabd fb3a 68be
00000180: fbff 463e af5a d8bd c0cd cb3c e184 d83d
00000190: 2e5a 15bd bfc4 3cbe ac3a 77bd e6a4 12be
000001a0: 33d7 54be 28d3 3bbe 5301 ebbd 8cb5 74be
000001b0: bb5f 06be e060 2b3e b598 d8bc 6384 b93c
000001c0: 60f9 523e 4a25 183e 7020 04bd 4664 a4bd
000001d0: 8e1b 9abd 692b 273e f544 bb3d 2bb7 4abe
000001e0: b115 4abe 5e44 43be 126d 693e 7b0a cb3d
000001f0: 3981 66bd bd58 2f3d 7013 3f3e bec8 4fbd
00000200: 75a9 623e 3461 443e a7d3 ecbd 244c a63d
00000210: 9786 753e 07f1 46be a076 323e 5cd9 6f3d
00000220: f98e 783e d5ee 9b3d 7546 19be 6b76 543e
00000230: 4494 503e 7dea 22be 4835 e23d 3444 563e
00000240: f8ff 32be c20e 8ebd 0838 7b3c 1412 743e
00000250: 29a0 b3bd c8ae 603d 0953 d73c ce18 903d
00000260: 5ccd b9bb d9e0 4abe aaba 9c3d 60f6 08be
00000270: 3f67 843d aa93 c7bd c9ba 3cbe 781a 103d
00000280: f3df 73bd 995e d7bd ad53 283e e84b 0d3e
00000290: c342 b7bd 46c9 24be 3a98 76be 1edf 4d3c
000002a0: 8d45 473d 5c68 3fbe 4bb7 4cbe e747 67bb
000002b0: 65b8 02be 7114 1fbe 0ae6 24be 433c a93d
000002c0: 86b5 febc 04bf 1a3d 9f1b 183d 5741 f13a
000002d0: e6a3 2e3e 634c 1bbd 32ef 12be aaf3 e9bc
000002e0: 274e 39be e61b 163e 812e ab3d 17a0 e9bb
000002f0: 75ea 35be cb92 e0bd 1e01 45bd 5256 06be
00000300: 3441 4ebe a391 cdbd ab73 f9bd 1c27 753e
00000310: b5c1 233e 80c0 4fbe 9e68 43be d0d8 513e
00000320: a3fd a8bd b1ff 0a3e 1295 473e c4ec f23d
00000330: f204 9dbd a173 9e3d b5d1 25be e560 35be
00000340: 9c8f 14be 796f 573e 2c06 6ebe 6235 4bbe
00000350: f85e 563e 6f22 55be 88ab 5d3e 7832 023e
00000360: 84ee 353e d830 903d 76da 6b3e cd5e 56be
00000370: faf7 743e eaf8 dfbd 4adb 123d 63e7 613e
00000380: 4ebf 54be 6216 df3d d768 5a3e b090 fdbd
00000390: fe48 b83d 5c9d 673e 5d16 d23d ff8c 553e
000003a0: c8a9 c6bd e2b4 0fbb 6820 30bd b7de 47bb
000003b0: 02bd f0bc 32b1 5f3e 817f fe3d d3c9 a53d
000003c0: 7bf7 7d3e 3cb3 3ebe 10ce 23be 0ebd 4ebe
000003d0: 7103 39be 2e08 5d3e 416a 5cbe ff3f 4dbe
000003e0: 5316 453e 9c31 053d 3e33 283e 0382 173e
000003f0: 30d5 97bb 5048 2c3e e9dc 6b3d d6e6 6cbe

rnn_fast.bias_ih_l0 f4 [48]
-0.21097158 -0.052413445 0.027388848 0.20785803 0.07484015 -0.18644385 0.07426161 -0.18955976
0.15115778 -0.14719926 -0.20772287 0.07604831 -0.13586411 0.22228895 0.031118967 0.22100362
0.1092818 -0.10831819 0.053272326 -0.14385635 -0.19480729 0.15365112 -0.13992372 0.07383661
0.13753608 0.091795914 0.20775375 0.22982888 0.23822102 0.026317002 -0.010136345 -0.079313464
-0.14826338 0.11369192 -0.19570147 0.25465932 0.065993465 -0.03870375 -0.19693771 0.14774825
0.14258935 0.111586265 -0.24188313 0.17085682 -0.12754115 0.23601972 0.14853866 -0.00911007
00000000: ef08 58be 7baf 56bd 945e e03c bcd8 543e
00000010: cb45 993d 23eb 3ebe 7916 983d f41b 42be
00000020: 1bc9 1a3e 67bb 16be 4eb5 54be 37bf 9b3d
00000030: f61f 0bbe b79f 633e 34ed fe3c c64e 623e
00000040: 23cf df3d edd5 ddbd 1534 5a3d 144f 13be
00000050: 907b 47be b856 1d3e 2a48 0fbe a637 973d
00000060: 42d6 0c3e 7fff bb3d 66bd 543e 4358 6b3e
00000070: 36f0 733e c196 d73c ea12 26bc 196f a2bd
00000080: 5bd2 17be 4fd7 e83d f765 48be b562 823e
00000090: 9527 873d d387 1ebd 0aaa 49be 514b 173e
000000a0: f102 123e 5787 e43d 36b0 77be 17f5 2e3e
000000b0: 269a 02be 27af 713e 851a 183e 6742 15bc

rnn_fast.bias_hh_l0 f4 [48]
0.17987724 -0.081277095 0.18254603 0.014311428 0.23377408 0.077013835 -0.13516296 0.031897724
0.2167054 0.022514362 -0.06478737 -0.2081862 -0.092146516 0.1283874 -0.21021083 -0.034107428
-0.07515759 0.17598908 0.04939385 -0.02807182 0.24403006 -0.012801833 -0.11127078 0.22647358
-0.14437509 -0.23139311 -0.13957646 -0.1604514 0.10896146 -0.19926995 -0.028863935 0.062927276
-0.09489715 0.17966996 0.21749459 0.2106821 0.10815482 0.19383751 0.013130585 -0.22113693
0.1705891 0.067269705 0.123120934 -0.09638608 -0.13829377 -0.22413018 0.26325113 -0.23531303
00000000: bd31 383e 9b74 a6bd 59ed 3a3e 7b7a 6a3c
00000010: 7962 6f3e 6eb9 9d3d 2968 0abe 30a7 023d
00000020: 05e8 5d3e 0a70 b83c 3eaf 84bd c32e 55be
00000030: 50b7 bcbd fd77 033e 8241 57be 3bb4 0bbd
00000040: 39ec 99bd 7b36 343e 3551 4a3d e0f6 e5bc
00000050: 04e3 793e c8be 51bc efe1 e3bd b1e8 673e
00000060: 10d7 13be 51f2 6cbe 22ed 0ebe 5f4d 24be
00000070: 3027 df3d 6c0d 4cbe 0f74 ecbc 04e0 803d
00000080: 7059 c2bd 67fb 373e e7b6 5e3e 0cbd 573e
00000090: 4680 dd3d 577d 463e aa21 573c b871 62be
000000a0: e9ae 2e3e b3c4 893d d426 fc3d 1166 c5bd
000000b0: e29c 0dbe 6282 65be dac8 863e e6f5 70be

initial_evidence.weight f4 [1, 16]
0.12659107 -0.22309428 0.10809859 -0.27662137 0.027266849 -0.022104172 0.13357387 0.13335067
0.05402622 0.14214195 0.15333651 0.030826628 -0.08553965 0.13326493 -0.16467358 -0.16826467
00000000: 17a1 013e d472 64be cb62 dd3d 51a1 8dbe
00000010: ba5e df3c cf13 b5bc 97c7 083e 148d 083e
00000020: 994a 5d3d a98d 113e 3f04 1d3e 2088 fc3c
00000030: 692f afbd 9a76 083e 31a0 28be 934d 2cbe

evidence_head.0.weight f4 [1, 16]
0.021571694 0.06570187 0.007524908 0.2658799 0.0482894 0.060725976 0.07809007 0.04484327
0.0677827 0.053512212 0.0608484 0.01684736 0.017602958 0.056448255 0.0798462 0.08722337
00000000: 1fb7 b03c b48e 863d 8193 f63b 6921 883e
00000010: 1bcb 453d cdbb 783d b0ed 9f3d 94ad 373d
00000020: a8d1 8a3d 9f2f 5b3d 2c3c 793d 7a03 8a3c
00000030: 1434 903c 4936 673d 6886 a33d 2ba2 b23d

fast_choice_head.0.weight f4 [16, 16]
0.07125947 -0.21045178 0.08161217 -0.057833135 0.09361836 0.05260411 -0.24865961 -0.16304812
-0.12138823 0.061507046 -0.099197745 0.092598915 -0.061282486 0.011631519 -0.01448518 0.1084573
0.09676373 0.1342203 -0.097910285 -0.0726223 -0.024222374 -0.068457216 -0.05965531 -0.024254024
0.029310375 -0.171666 -0.12939394 -0.14664903 -0.15919209 -0.21053782 0.08951035 -0.2452671
0.18825746 0.15072164 0.19899589 0.08174819 0.14593822 -0.0925242 -0.14279124 -0.2400094
-0.061772346 -0.06319228 0.122707784 0.20977053 -0.03516102 -0.048129886 0.051149964 -0.21523768
-0.0039274693 0.1651485 -0.041691393 0.096092016 -0.0539321 -0.025176942 -0.17160201 -0.021725565
-0.18069729 0.0990572 -0.107132316 -0.1949589 -0.11827847 -0.14836258 -0.19915694 0.23870489
-0.04047966 0.053184062 0.14461914 -0.08116278 -0.19496956 -0.13777944 0.13729271 -0.21772185
0.0063870847 0.1958636 -0.051803112 -0.16085291 -0.07880992 0.006827742 0.15406367 0.0014709532
-0.16893405 -0.0063819885 0.13607213 -0.23029956 0.015238404 0.01140669 0.049519718 -0.24021718
-0.19062066 -0.2339029 0.19970164 -0.20910761 0.228039 -0.20848942 0.17128542 -0.08201015
0.2445274 0.045655966 0.21930343 0.01756695 -0.033835143 -0.18767247 -0.13479188 0.23790121
0.24824128 0.21553212 0.14059192 0.18147129 -0.18320543 0.022107184 0.111113966 -0.1362803
0.04973927 0.22909239 -0.08432299 0.12118986 -0.08344725 -0.17698303 0.043715656 -0.21700239
-0.24724296 0.0013708174 0.0112813115 -0.0935072 -0.15418482 0.085127085 -0.12041175 -0.200037
-0.20290032 0.054108918 0.22626117 -0.09111166 -0.12136358 0.15099388 -0.19077602 0.20162463
-0.24636695 0.0344055 -0.076093346 0.23080197 -0.06610367 -0.14449203 0.12972638 -0.22350499
0.11605367 0.15078256 -0.09975439 0.15714803 0.041846305 -0.09955111 0.0835354 -0.19248125
-0.006043792 0.13481805 0.22101134 -0.10336149 -0.1341185 -0.14107692 0.12417588 0.23537406
-0.13196024 0.039339125 0.22392368 -0.030615449 0.12529558 -0.05494961 -0.21990529 0.19719175
-0.17145276 -0.19027337 -0.06178695 -0.16449615 0.15139341 -0.041652143 -0.24011955 -0.004003048
0.040928215 0.18327656 0.11041695 -0.012220949 -0.24671665 -0.009302974 -0.19105086 0.056539327
0.07598886 0.11952323 -0.13905054 -0.2283499 -0.10084137 0.09411359 0.11060268 0.17169598
-0.004807651 0.1623317 -0.060018957 0.0023812652 -0.017465055 -0.1444048 -0.21258432 0.10080549
-0.094545364 0.19904536 -0.018039823 0.057192445 -0.22628635 -0.20506385 0.10686132 -0.13911209
-0.23842096 0.20669886 0.11456397 -0.11767608 0.21883133 0.025787383 0.24748677 -0.11615968
0.15058216 -0.051108122 0.109368354 0.21408859 0.068561584 -0.09516469 -0.19735673 0.11626446
0.12205559 0.16636363 -0.12543878 0.19675645 -0.0710969 -0.050976515 0.050762028 -0.17177969
-0.0013864636 -0.16238388 -0.02702725 -0.11561954 -0.03524837 -0.10291532 0.1572775 -0.20178214
-0.24897873 0.168116 -0.13565308 0.07421133 -0.15043223 0.19531813 0.046293944 0.18785664
-0.15859798 0.13984624 0.24580821 -0.005868703 -0.20518902 -0.11479363 0.21664122 -0.16195971
00000000: 7cf0 913d ac80 57be 4824 a73d 70e2 6cbd
00000010: fcba bf3d 6877 573d a0a0 7ebe 16f6 26be
00000020: 649a f8bd d0ee 7b3d 3028 cbbd 80a4 bd3d
00000030: 5803 7bbd 2092 3e3c 4053 6dbc dc1e de3d
00000040: 102c c63d 0c71 093e 3085 c8bd 00bb 94bd
00000050: 006e c6bc 4c33 8cbd 2059 74bd 60b0 c6bc
00000060: 501c f03c 36c9 2fbe d87f 04be 2a2b 16be
00000070: 4003 23be 3a97 57be 3451 b73d 4c27 7bbe
00000080: 90c6 403e c656 1a3e 94c5 4b3e 986b a73d
00000090: d470 153e 547d bdbd de37 12be 06c5 75be
000000a0: 0005 7dbd f46a 81bd 384e fb3d 16ce 563e
000000b0: 0005 10bd d823 45bd a082 513d 4467 5cbe
000000c0: 00b2 80bb b01c 293e 98c4 2abd e4cb c43d
000000d0: e8e7 5cbd e03f cebc 70b8 2fbe d0f9 b1bc
000000e0: b608 39be 80de ca3d 3068 dbbd 4ea3 47be
000000f0: fc3b f2bd 5cec 17be ccef 4bbe 0e6f 743e
00000100: 00ce 25bd 88d7 593d 0a17 143e ac38 a6bd
00000110: 1aa6 47be 0e16 0dbe 7696 0c3e 7af2 5ebe
00000120: c04a d13b 7890 483e 802f 54bd a0b6 24be
00000130: 1867 a1bd 40bb df3b dec2 1d3e 00cd c03a
00000140: 0cfd 2cbe 0020 d1bb 7e56 0b3e a6d3 6bbe
00000150: 80aa 793c 20e3 3a3c 30d5 4a3d 7efb 75be
00000160: 1032 43be 3e84 6fbe 967e 4c3e 4e20 56be
00000170: 0e83 693e 407e 55be 7265 2f3e f0f4 a7bd
00000180: 6465 7a3e c001 3b3d 1491 603e 90e8 8f3c
00000190: b896 0abd 362d 40be e206 0abe 609c 733e
000001a0: f632 7e3e 74b4 5c3e 54f7 0f3e 9cd3 393e
000001b0: 349a 3bbe 201a b53c b88f e33d 108d 0bbe
000001c0: 68bb 4b3d 3297 6a3e 88b1 acbd 6432 f83d
000001d0: 64e6 aabd 0a3b 35be 300f 333d e035 5ebe
000001e0: 422d 7dbe 00ad b33a 40d5 383c b480 bfbd
000001f0: a0e2 1dbe 1c57 ae3d 709a f6bd 80d6 4cbe
00000200: 1ac5 4fbe 50a1 5d3d 02b1 673e c098 babd
00000210: 788d f8bd 249e 1a3e ca5a 43be b076 4e3e
00000220: 9e47 7cbe c8ec 0c3d d4d6 9bbd 5a57 6c3e
00000230: 5c61 87bd b8f5 13be fed6 043e 7ede 64be
00000240: 8cad ed3d be66 1a3e 084c ccbd 6aeb 203e
00000250: 0867 2b3d 74e1 cbbd 9c14 ab3d ce19 45be
00000260: 000b c6bb be0d 0a3e cc50 623e 30af d3bd
00000270: 5c56 09be 7876 10be ec4f fe3d e605 713e
00000280: 9620 07be 1022 213d 404c 653e 40cd fabc
00000290: 7c4d 003e d812 61bd da2e 61be a2ec 493e
000002a0: 5091 2fbe 06d7 42be 5014 7dbd ae71 28be
000002b0: e006 1b3e 709b 2abd e6e1 75be 002c 83bb
000002c0: 58a4 273d daac 3b3e 4822 e23d 603a 48bc
000002d0: 4aa3 7cbe 806b 18bc d6a2 43be c895 673d
000002e0: 0ca0 9b3d 98c8 f43d 4463 0ebe 8ed4 69be
000002f0: ec85 cebd a0be c03d a883 e23d 12d1 2f3e
00000300: 8089 9dbb 483a 263e 70d6 75bd 000f 1c3b
00000310: e012 8fbc dade 13be b4af 59be 1c73 ce3d
00000320: 00a1 c1bd 8cd2 4b3e 40c8 93bc a042 6a3d
00000330: 9cb7 67be 42fc 51be 1cda da3d 6673 0ebe
00000340: a024 74be dea8 533e 84a0 ea3d 2800 f1bd
00000350: 5215 603e 1040 d33c 2c6d 7d3e 20e5 edbd
00000360: 3632 1a3e c056 51bd 84fc df3d 0a3a 5b3e
00000370: 046a 8c3d b4e5 c2bd e217 4abe 101c ee3d
00000380: 48f8 f93d 3a5b 2a3e 0673 00be 867a 493e
00000390: 409b 91bd c0cc 50bd d8eb 4f3d 04e7 2fbe
000003a0: 00ba b5ba f647 26be 4068 ddbc f0c9 ecbd
000003b0: 9860 10bd 44c5 d2bd 5a0d 213e fa9f 4ebe
000003c0: 48f4 7ebe 9a26 2c3e a4e8 0abe 1cfc 973d
000003d0: e80a 1abe 7a01 483e b89e 3d3d 7e5d 403e
000003e0: 8267 22be da33 0f3e 26b5 7b3e 404e c0bb
000003f0: 121d 52be ec18 ebbd 32d7 5d3e c4d8 25be

fast_choice_head.0.bias f4 [16]
0.080396324 -0.015366405 0.18396041 0.023882419 0.15264255 -0.0445866 -0.015697658 -0.070148766
-0.23388126 -0.11388284 0.013021231 -0.16835868 0.23380679 -0.13454282 0.0979338 -0.24191746
00000000: d4a6 a43d 60c3 7bbc 1e60 3c3e 10a5 c33c
00000010: 544e 1c3e 70a0 36bd 6098 80bc 28aa 8fbd
00000020: 927e 6fbe 683b e9bd 0057 553c 3866 2cbe
00000030: 0c6b 6f3e 98c5 09be 8491 c83d 36b9 77be

fast_choice_head.1.weight f4 [1, 16]
0.2453022 0.04449922 -0.18496075 0.14665085 0.16260755 0.20575717 0.09525275 0.04065135
0.0728575 0.041957885 0.1683271 0.23208839 0.06960246 0.058707416 0.0600729 -0.10699427
00000000: 8030 7b3e d044 363d 5a66 3dbe a42b 163e
00000010: 9882 263e 02b2 523e e013 c33d 0882 263d
00000020: 5036 953d 08dc 2b3d f05d 2c3e 94a8 6d3e
00000030: bc8b 8e3d 3077 703d 000f 763d d01f dbbd

slow_choice_head.0.weight f4 [16, 16]
-0.11185978 -0.2454578 -0.25431874 -0.06347003 0.03572292 0.32890838 0.3024476 0.047796927
0.11457645 0.12395486 0.3718622 -0.41815707 0.22148702 0.15236917 -0.25221983 0.20532747
0.55902445 0.33780557 0.21536514 0.40255916 -0.3986771 -0.32296357 -0.12971638 0.26829398
-0.5501602 -0.23739393 -0.0041420734 0.57855636 0.05951434 0.17641132 0.0692076 -0.0625289
-0.36723164 -0.3578846 0.026418908 0.039404582 0.17715146 0.36963978 0.24419321 0.307304
0.3997933 0.42751953 0.3037538 -0.36591855 0.13340889 0.060314603 -0.30458882 0.19182418
-0.068534754 0.3646246 0.27094522 0.16884808 -0.5060241 -0.26802468 -0.30419794 0.17918302
-0.28961802 -0.33427063 0.11662506 0.41136083 -0.32215425 0.13802946 -0.115168236 -0.2876328
0.0031661296 -0.012020664 -0.2633854 -0.119554184 0.19226223 0.029553 0.28341046 -0.07893287
0.49803284 0.3704107 0.36548746 -0.4057784 0.32216397 0.03338747 -0.17648238 0.2726247
0.30945912 0.01710922 0.13190465 -0.010154838 -0.30977178 -0.2617239 0.15317345 0.16563097
-0.1088279 -0.18898924 -0.28824702 -0.06440193 0.018540379 0.26491913 -0.1514385 0.1011357
0.44840217 0.3291226 0.42735225 0.21465065 -0.1913041 -0.13838606 -0.12472286 -0.11365365
-0.52156913 -0.34247878 -0.32590634 0.31898662 -0.24158402 0.31290898 0.10483501 -0.25530538
-0.10313868 -0.36000606 -0.24235822 -0.33693388 0.30758318 0.19333175 -0.05852672 0.07718661
0.25023174 0.3934824 0.1388006 -0.42403907 0.26832855 -0.095783755 -0.24822372 0.08817312
0.15857711 0.14000021 0.012822 -0.05178154 -0.36837956 -0.30902863 -0.1693767 -0.059014365
-0.32614872 -0.17998682 -0.25862297 0.039764676 -0.3177723 0.086589366 0.2625224 -0.1842737
0.3587308 0.17170458 0.34950826 -0.11595997 -0.11468938 -0.18653914 0.17066345 -0.05625749
-0.33230105 -0.29218647 -0.22649877 -0.028521007 -0.33814314 -0.16910402 -0.11575737 -0.2574965
0.106041275 0.33848655 -0.1094426 0.35711867 -0.14068545 0.0713151 -0.025228694 -0.2374997
-0.22480817 0.046941407 -0.15958737 0.045434296 0.11332952 -0.041184243 -0.098884225 -0.23706268
-0.3737897 -0.4494673 -0.09489575 -0.27105653 0.2524078 0.410639 0.23076841 0.09722238
0.53498924 0.38218382 -0.0017791663 -0.17918418 0.3258761 0.10519122 -0.37410477 -0.08478469
0.35008717 -0.035090845 0.16415776 0.3298267 0.030725185 0.09243369 -0.005019821 -0.105448715
-0.25138116 -0.13286054 -0.0145527 0.24857251 -0.19798928 -0.14656018 0.23486835 0.14532207
0.20104225 0.41503763 0.19148424 0.2668526 -0.5992135 -0.38708043 0.041685246 -0.06000209
-0.5791805 -0.43126306 -0.36122474 0.25602275 -0.24704435 0.06832354 0.085350595 0.0066840276
0.27607322 0.4190084 0.26902068 0.13726383 -0.4429442 -0.32314122 -0.019986577 -0.045393594
-0.075605415 -0.31267065 -0.21116513 0.45784882 -0.027154233 0.20063366 -0.06574684 -0.18735236
0.11825143 0.28093717 0.44077948 0.16977656 -0.12629476 -0.020278355 -0.261017 -0.30284435
-0.46218282 -0.45740548 -0.3901386 0.108376436 -0.19670303 0.305317 0.42168805 -0.015244383
00000000: be16 e5bd 4a59 7bbe 1136 82be 93fc 81bd
00000010: 3252 123d ae66 a83e 69da 9a3e b6c6 433d
00000020: 0fa7 ea3d 0cdc fd3d b964 be3e af18 d6be
00000030: 7ecd 623e aa06 1c3e f522 81be 5d41 523e
00000040: 3a1c 0f3f daf4 ac3e ae88 5c3e 3c1c ce3e
00000050: 681f ccbe 7b5b a5be 5fd4 04be d45d 893e
00000060: 4dd7 0cbf 6517 73be 3bba 87bb 451c 143f
00000070: 4fc5 733d 2ba5 343e b7bc 8d3d 270f 80bd
00000080: c905 bcbe a63c b7be 776c d83c b366 213d
00000090: 3167 353e 6d41 bd3e c90d 7a3e f356 9d3e
000000a0: b5b1 cc3e d7e3 da3e 9e85 9b3e ad59 bbbe
000000b0: 579c 083e 720c 773d 11f3 9bbe 8f6d 443e
000000c0: f35b 8cbd 13b0 ba3e 55b9 8a3e 83e6 2c3e
000000d0: cc8a 01bf 883a 89be d5bf 9bbe c17b 373e
000000e0: d048 94be 8525 abbe 1fd9 ee3d e39d d23e
000000f0: 67f1 a4be 9857 0d3e 53dd ebbd 9b44 93be
00000100: d77e 4f3b 52f2 44bc 73da 86be d3d8 f4bd
00000110: 64e0 443e 2219 f23c 2d1b 913e 8ea7 a1bd
00000120: 29fe fe3e 79a6 bd3e 2c21 bb3e 30c2 cfbe
00000130: adf2 a43e 4dc1 083d ccb7 34be 7795 8b3e
00000140: 6d71 9e3e a328 8c3c 0312 073e 7a60 26bc
00000150: 689a 9ebe ad00 86be 80d9 1c3e 2a9b 293e
00000160: 29e1 debd 6586 41be 1d95 93be 29e5 83bd
00000170: fee1 973c 7ba3 873e b212 1bbe 3c20 cf3d
00000180: f894 e53e c282 a83e eacd da3e 61cd 5b3e
00000190: 39e5 43be 13b5 0dbe b36e ffbd 3fc3 e8bd
000001a0: 8e85 05bf 6159 afbe 32dd a6be 3752 a33e
000001b0: cd61 77be 9b35 a03e bdb3 d63d 63b7 82be
000001c0: 5f3a d3bd b752 b8be c12c 78be 9982 acbe
000001d0: 8b7b 9d3e c2f8 453e b7b9 6fbd 0314 9e3d
000001e0: 601e 803e 8676 c93e bf21 0e3e a61b d9be
000001f0: 5c62 893e 462a c4bd 5c2e 7ebe 1c94 b43d
00000200: 0a62 223e 375c 0f3e 5e13 523c e118 54bd
00000210: 3f9c bcbe 0039 9ebe 1671 2dbe 0cb9 71bd
00000220: f7fc a6be 774e 38be 3b6a 84be 49e0 223d
00000230: 0db3 a2be c455 b13d 5669 863e 3fb2 3cbe
00000240: 90ab b73e 53d3 2f3e bff2 b23e 6c7c edbd
00000250: 44e2 eabd 1e04 3fbe 66c2 2e3e 416e 66bd
00000260: 5d23 aabe 7799 95be 4bef 67be e3a4 e9bc
00000270: 1921 adbe 9b29 2dbe 3312 edbd 95d6 83be
00000280: 2b2c d93d 1c4e ad3e 7123 e0bd 42d8 b63e
00000290: d90f 10be a70d 923d 68ac cebc 1f33 73be
000002a0: 1d34 66be a245 403d df6a 23be 5019 3a3d
000002b0: 4f19 e83d cfb0 28bd d083 cabd 8fc0 72be
000002c0: 5d61 bfbe 9420 e6be b458 c2bd ecc7 8abe
000002d0: 983b 813e 463f d23e 8e4e 6c3e 871c c73d
000002e0: 0ef5 083f 99ad c33e ea32 e9ba 0f7c 37be
000002f0: 3bd9 a63e 7f6e d73d a98a bfbe 98a3 adbd
00000300: a03e b33e 6bbb 0fbd f918 283e 0cdf a83e
00000310: 62b3 fb3c e04d bd3d 507d a4bb 7ff5 d7bd
00000320: 08b5 80be 980c 08be 736e 6ebc cb89 7e3e
00000330: b4bd 4abe df13 16be 5481 703e 4fcf 143e
00000340: 05de 4d3e d07f d43e 7214 443e e7a0 883e
00000350: 0e66 19bf 682f c6be 26be 2a3d c0c4 75bd
00000360: 2c45 14bf 83ce dcbe 73f2 b8be 6a15 833e
00000370: 32f9 7cbe 36ed 8b3d 4bcc ae3d b005 db3b
00000380: 7859 8d3e 4588 d63e 14bd 893e e48e 0c3e
00000390: 95c9 e2be c472 a5be e4ba a3bc a2ee 39bd
000003a0: 03d7 9abd 5e16 a0be ac3b 58be 296b ea3e
000003b0: 8e72 debc e972 4d3e 47a6 86bd 4cd9 3fbe
000003c0: ce2d f23d ffd6 8f3e d9ad e13e e8d9 2d3e
000003d0: 6a53 01be cb1e a6bc 05a4 85be 6a0e 9bbe
000003e0: 3aa3 ecbe 0d31 eabe 3fc0 c7be 77f4 dd3d
000003f0: 856c 49be 8352 9c3e 7fe7 d73e 94c3 79bc

slow_choice_head.0.bias f4 [16]
-0.1329112 -0.1084662 0.20260395 0.07653865 -0.0375859 0.14321783 0.06674846 0.10402296
-0.30719516 0.1213312 0.026356244 0.05045983 0.1177679 0.0049318373 0.10896955 0.085718416
00000000: e019 08be 8723 debd 6977 4f3e 4cc0 9c3d
00000010: acf3 19bd b2a7 123e 6bb3 883d fd09 d53d
00000020: af48 9dbe 7e7c f83d 0de9 d73c f7ae 4e3d
00000030: 4c30 f13d 409b a13b 6d2b df3d 238d af3d

slow_choice_head.1.weight f4 [1, 16]
-0.22309187 0.30167043 -0.34275824 0.2719288 -0.3648519 0.23221196 0.2096692 -0.4119704
0.3588503 0.26348075 0.23122565 -0.2668456 0.24056835 0.2750719 0.34623632 0.1969733
00000000: 3272 64be 8c74 9a3e 027e afbe 403a 8b3e
00000010: decd babe f9c8 6d3e 86b3 563e c9ed d2be
00000020: 3abb b73e f3e6 863e 6bc6 6c3e fd9f 88be
00000030: 8d57 763e 39d6 8c3e e345 b13e 5eb3 493e

exp_avg f4 [48, 1]
0.0 0.0 0.0 0.0 0.0 0.0 0.0 0.0
0.0 0.0 0.0 0.0 0.0 0.0 0.0 0.0
0.0 0.0 0.0 0.0 0.0 0.0 0.0 0.0
0.0 0.0 0.0 0.0 0.0 0.0 0.0 0.0
0.0 0.0 0.0 0.0 0.0 0.0 0.0 0.0
0.0 0.0 0.0 0.0 0.0 0.0 0.0 0.0
00000000: 0000 0000 0000 0000 0000 0000 0000 0000
00000010: 0000 0000 0000 0000 0000 0000 0000 0000
00000020: 0000 0000 0000 0000 0000 0000 0000 0000
00000030: 0000 0000 0000 0000 0000 0000 0000 0000
00000040: 0000 0000 0000 0000 0000 0000 0000 0000
00000050: 0000 0000 0000 0000 0000 0000 0000 0000
00000060: 0000 0000 0000 0000 0000 0000 0000 0000
00000070: 0000 0000 0000 0000 0000 0000 0000 0000
00000080: 0000 0000 0000 0000 0000 0000 0000 0000
00000090: 0000 0000 0000 0000 0000 0000 0000 0000
000000a0: 0000 0000 0000 0000 0000 0000 0000 0000
000000b0: 0000 0000 0000 0000 0000 0000 0000 0000

exp_avg_sq f4 [48, 1]
0.0 0.0 0.0 0.0 0.0 0.0 0.0 0.0
0.0 0.0 0.0 0.0 0.0 0.0 0.0 0.0
0.0 0.0 0.0 0.0 0.0 0.0 0.0 0.0
0.0 0.0 0.0 0.0 0.0 0.0 0.0 0.0
0.0 0.0 0.0 0.0 0.0 0.0 0.0 0.0
0.0 0.0 0.0 0.0 0.0 0.0 0.0 0.0
00000000: 0000 0000 0000 0000 0000 0000 0000 0000
00000010: 0000 0000 0000 0000 0000 0000 0000 0000
00000020: 0000 0000 0000 0000 0000 0000 0000 0000
00000030: 0000 0000 0000 0000 0000 0000 0000 0000
00000040: 0000 0000 0000 0000 0000 0000 0000 0000
00000050: 0000 0000 0000 0000 0000 0000 0000 0000
00000060: 0000 0000 0000 0000 0000 0000 0000 0000
00000070: 0000 0000 0000 0000 0000 0000 0000 0000
00000080: 0000 0000 0000 0000 0000 0000 0000 0000
00000090: 0000 0000 0000 0000 0000 0000 0000 0000
000000a0: 0000 0000 0000 0000 0000 0000 0000 0000
000000b0: 0000 0000 0000 0000 0000 0000 0000 0000
