saved_models/slow_fast/checkpoint32.pth (torch, 53998 bytes, 48 tensors)

rnn_slow.weight_ih_l0 f4 [48, 6]
-0.05489153 0.093901806 0.7353523 -0.35884446 -0.2693227 0.5471896 0.045194827 -0.13359043
0.40188384 -0.37345248 -0.405889 0.22026134 -0.4116511 0.07845879 -0.20752619 0.24422137
-0.19474865 0.039948203 -0.09572947 -0.0128381 0.09750461 0.016136112 -0.3580779 -0.10485419
0.071899265 -0.32257918 0.65890896 -0.65356916 -0.27609828 0.59718096 -0.35681644 0.11718506
0.4346362 -0.20426346 0.2358691 -0.14071243 -0.13682316 0.33731085 0.36429787 -0.19340965
0.41171253 -0.056867443 0.2608812 -0.24049865 -0.08231174 -0.07053465 0.016331341 -0.3564143
0.11492644 0.0049950816 0.62558484 -0.6165466 -0.52757245 0.56609094 -0.1641063 0.16878392
0.48519984 -0.5084528 0.50455284 -0.4615802 0.096803375 -0.10873966 -0.40846017 0.3812073
0.034783542 0.024466459 -0.27004004 0.05061095 0.76032186 -0.63938516 0.68726426 -0.23966517
-0.14691971 0.30530187 -0.11955359 -0.012189501 -0.28877947 0.68354857 0.18161525 -0.035011
-0.15907557 0.030734405 0.51708645 0.02037173 -0.49612486 0.19705357 0.27845544 -0.39681545
-0.0018485669 -0.23129497 0.11511076 -0.23563018 0.24038507 -0.24369936 -0.09316332 0.20562308
-0.05710635 -0.03337544 0.3022649 -0.36988845 -0.065537326 0.21086575 -0.2846091 0.22863011
0.51371264 -0.23168363 -0.37630144 0.7460244 -0.12233199 -0.12932214 0.16509427 -0.6446322
0.68791884 -0.535606 -0.14149848 -0.07008382 0.6945514 -0.64786667 -0.5055381 0.17245695
0.04709804 -0.107361205 0.37657362 -0.54166675 -0.40307987 0.27158445 -0.1968565 -0.06218245
0.4486883 -0.2405959 0.09604419 -0.5290143 0.12758623 0.04805953 0.6222731 -0.49502006
0.21325444 -0.038228177 -0.23138504 0.17973882 0.07481089 -0.09667048 -0.22537316 0.36333957
-0.34427276 -0.29319754 0.71528846 -0.5034323 -0.44503155 0.24717304 -0.1666106 -0.046116225
0.4344054 -0.59598243 0.46730822 -0.27364913 -0.28560674 -0.009764396 0.25864267 -0.5714182
0.35920617 -0.38412964 0.08769298 -0.33288234 0.59095454 -0.55387187 0.39228538 -0.59296495
-0.23702633 -0.15170881 0.059683185 -0.20643829 -0.13561536 0.13161813 0.019734928 -0.273484
0.74297786 -0.89046097 0.09066217 -0.23075609 -0.20380425 -0.34094542 0.32042813 0.031387515
-0.06200242 -0.08445748 -0.02145724 -0.27146715 0.6026748 -0.21017474 -0.5066043 0.22311938
0.1925847 0.31766066 0.49677017 -0.51217407 -0.32547495 0.31213805 0.017941147 0.23256345
0.54387575 -0.52748877 -0.28982377 0.15512086 -0.25075212 -0.08034433 -0.55010164 0.36373648
-0.30843908 -0.07548323 0.00030232614 -0.29186994 0.34732607 -0.1355193 -0.048259534 0.3428345
-0.0137456 0.14792147 -0.5626547 0.32375938 0.44714746 -0.33799854 0.22109622 -0.01928819
0.5361854 -0.4550291 0.39383656 -0.261312 0.18049905 -0.11494279 0.28767642 -0.048586853
0.23722239 -0.12927163 0.1449852 0.0054337224 0.15057239 0.48155674 -0.17212003 0.08451296
-0.057471693 -0.07398365 -0.461225 0.4361445 0.25471652 -0.5925761 0.008117114 -0.03977883
0.6540218 -0.25222498 0.1215019 -0.3789138 0.081647836 0.14105727 0.56159335 0.043043837
00000000: f1d5 60bd 974f c03d 0c40 3c3f 76ba b7be
00000010: aae4 89be 9e14 0c3f 361e 393d eecb 08be
00000020: b8c3 cd3e 2a35 bfbe afd0 cfbe 308c 613e
00000030: efc3 d2be 01af a03d bf81 54be 2b15 7a3e
00000040: 316c 47be baa0 233d d00d c4bd e556 52bc
00000050: 7fb0 c73d e12f 843c fd55 b7be cbbd d6bd
00000060: ec3f 933d 1929 a5be 42ae 283f 4f50 27bf
00000070: c15c 8dbe dae0 183f a5b0 b6be b9fe ef3d
00000080: a388 de3e 712a 51be ab87 713e eb16 10be
00000090: 5f1b 0cbe 02b4 ac3e 4085 ba3e 2e0d 46be
000000a0: fccb d23e d6ed 68bd 3892 853e 4745 76be
000000b0: 0f93 a8bd 7874 90bd 4ec9 853c ef7b b6be
000000c0: 8e5e eb3d c8ad a33b 5426 203f ffd5 1dbf
000000d0: fd0e 07bf 56eb 103f 7b0b 28be b1d5 2c3e
000000e0: 1d6c f83e f629 02bf 602a 013f 3d54 ecbe
000000f0: d940 c63d e6b2 debd b121 d1be 9a2d c33e
00000100: 3079 0e3d e26d c83c b042 8abe 6d4d 4f3d
00000110: 74a4 423f bfae 23bf 8df0 2f3f c96a 75be
00000120: 1f72 16be 8750 9c3e 83d8 f4bd 79b6 47bc
00000130: e7da 93be 0afd 2e3f 59f9 393e b267 0fbd
00000140: b5e4 22be b8c6 fb3c c75f 043f 9de2 a63c
00000150: 1404 febe 69c8 493e b691 8e3e 652b cbbe
00000160: 9d4b f2ba 97d8 6cbe 31bf eb3d 0a49 71be
00000170: 8127 763e 538c 79be 69cc bebd db8e 523e
00000180: 59e8 69bd afb4 08bd 77c2 9a3e 0562 bdbe
00000190: 6f38 86bd 31ed 573e 49b8 91be 031e 6a3e
000001a0: ac82 033f 793e 6dbe 95aa c0be 75fb 3e3f
000001b0: 3289 fabd 066d 04be 790e 293e 9e06 25bf
000001c0: 731b 303f 7a1d 09bf fae4 10be 1b88 8fbd
000001d0: 1fce 313f 97da 25bf f26a 01bf 8e98 303e
000001e0: e0e9 403d 31e0 dbbd 42ce c03e acaa 0abf
000001f0: 7c60 cebe 1e0d 8b3e c094 49be 06b3 7ebd
00000200: 79ba e53e c65e 76be d1b2 c43d 7b6d 07bf
00000210: f7a5 023e 12da 443d 4a4d 1f3f 4573 fdbe
00000220: 5f5f 5a3e 2695 1cbd 33f0 6cbe 740d 383e
00000230: 7436 993d 2cfb c5bd 39c8 66be a507 ba3e
00000240: 8544 b0be fd1d 96be 251d 373f f0e0 00bf
00000250: 2ddb e3be ee1a 7d3e f89b 2abe 5ee4 3cbd
00000260: 626a de3e 4e92 18bf 0643 ef3e bd1b 8cbe
00000270: 0c3b 92be d8fa 1fbc d06c 843e 7748 12bf
00000280: dfe9 b73e a4ac c4be 6198 b33d 8e6f aabe
00000290: cc48 173f 8cca 0dbf a1d9 c83e 8dcc 17bf
000002a0: 08b7 72be 8e59 1bbe 5b76 743d 8f64 53be
000002b0: c1de 0abe e7c6 063e 25ab a13c 1806 8cbe
000002c0: cc33 3e3f 40f5 63bf 16ad b93d 534b 6cbe
000002d0: 10b2 50be 6690 aebe 280f a43e 3290 003d
000002e0: 40f6 7dbd 0bf8 acbd 18c7 afbc befd 8abe
000002f0: e548 1a3f 0c38 57be d2b0 01bf 6879 643e
00000300: ec34 453e 6ba4 a23e a958 fe3e d71d 03bf
00000310: a7a4 a6be 8fd0 9f3e 50f9 923c 1d25 6e3e
00000320: 713b 0b3f 8109 07bf c863 94be 01d8 1e3e
00000330: 9562 80be 918b a4bd 76d3 0cbf ab3b ba3e
00000340: baeb 9dbe f496 9abd 8781 9e39 fa6f 95be
00000350: b9d4 b13e 92c5 0abe caab 45bd 0188 af3e
00000360: 3a35 61bc ba78 173e 230a 10bf cac3 a53e
00000370: 83f0 e43e 250e adbe 0c67 623e 4402 9ebc
00000380: 7243 093f 93f9 e8be f2a4 c93e b0ca 85be
00000390: bed4 383e 2067 ebbd 534a 933e 0203 47bd
000003a0: 6dea 723e c85f 04be 0077 143e 5e0d b23b
000003b0: a62f 1a3e 9b8e f63e 3c40 30be 2115 ad3d
000003c0: 7067 6bbd bd84 97bd af25 ecbe 554e df3e
000003d0: 346a 823e 11b3 17bf a5fd 043c 20ef 22bd
000003e0: f96d 273f a223 81be fdd5 f83d fd00 c2be
000003f0: fb36 a73d 5171 103e 95c4 0f3f bc4e 303d

rnn_slow.weight_hh_l0 f4 [48, 16]
0.14501591 0.05839878 -0.08089631 0.039478943 -0.12903364 -0.16672057 -0.2136878 -0.21726325
-0.1618606 -0.21725892 0.12647387 -0.07184596 -0.10859346 -0.12494781 0.11220687 0.07266526
0.1896478 -0.19996853 0.19297215 -0.14858806 0.14447543 -0.20423435 0.53638226 0.059565645
0.07119543 -0.21284392 0.2923963 0.026846612 0.29669946 -0.17760344 0.028845409 0.28008026
0.054936875 -0.071266204 0.32739446 0.28852788 0.20501457 -0.08900642 -0.0073846485 0.12211478
-0.21097246 0.1764442 0.032914165 -0.011563293 -0.046315197 -0.03216129 -0.040000074 0.051935524
-0.2995722 -0.3276718 0.20289037 0.07257965 0.30961543 -0.281967 -0.028096756 0.011984515
-0.13312301 0.117522664 0.03619987 -0.021668704 -0.057303295 0.20718856 -0.039083526 0.2932415
0.25997844 0.28035 0.15913455 0.01737893 0.07158194 -0.4304257 0.18848301 0.18993382
-0.25211373 -0.06217888 0.027225034 0.036002297 -0.071193784 0.18941543 0.27381057 -6.654119e-05
0.24653861 -0.050476838 -0.04298462 0.36870164 -0.092908494 0.1855366 -0.11013387 0.036234785
0.08589214 -0.1951053 -0.43430054 -0.33963194 -0.041120622 0.077378325 0.09428297 0.11104425
0.20053524 -0.101359166 -0.0740161 0.3708879 -0.467296 0.20894636 -0.24382253 0.039038405
-0.42363414 -0.12355058 -0.1490642 -0.09459484 -0.26619658 -0.104576185 0.17210194 -0.28002444
-0.41735974 -0.22942764 -0.22770077 -0.084121615 0.5253337 0.40104568 0.09518889 -0.32478094
0.3912112 0.2201535 0.19965339 -0.039962202 -0.08252933 0.042460214 -0.19223128 0.08915402
0.015431184 0.20536065 -0.089332364 0.09179047 0.15804082 -0.2753078 -0.10840353 0.12225485
-0.25288913 0.17683381 0.10669085 0.069894105 -0.13385463 -0.1860761 -0.16823739 0.37971145
-0.31250763 0.03242161 0.19609188 0.3322211 0.07728392 0.22426641 -0.19633707 0.30148306
0.07967462 0.22042838 -0.25461665 0.0075326283 0.14406958 0.0219761 -0.100913376 0.08929325
-0.34347013 0.104571365 0.19507986 -0.31202173 0.30559102 -0.28360295 0.06632589 0.2060481
0.32507476 -0.29206493 0.22190222 0.14163946 -0.059543483 -0.1339177 0.21679446 0.08093827
-0.28557876 0.16299117 -0.1296827 0.14424354 -0.16432449 0.1685519 -0.07309149 -0.45005152
0.32737172 0.22792669 -0.22343718 0.2755592 -0.062653445 -0.21974063 -0.30313414 0.11821569
0.11359799 0.099484906 0.2702929 0.016949713 0.39123282 -0.33697355 -0.12228962 0.09851856
0.056734648 -0.21616049 -0.46449292 0.25488514 0.19126534 0.23543881 0.06376259 0.13852942
-0.072771 0.12898402 0.027550654 0.14831303 0.2177343 -0.04415424 -0.12328797 -0.001790945
-0.058440734 -0.15740167 0.25822845 -0.31032482 0.21036018 -0.005546635 0.024331672 0.35341677
-0.15255909 0.07358859 0.03421663 0.12749837 -0.32501248 0.16055965 -0.041478947 0.113234036
-0.3837249 -0.27628803 -0.16051656 0.18180321 -0.14377955 0.1948418 0.3917053 -0.50489134
0.22052905 -0.0020333303 0.124541335 -0.17782609 0.1098496 0.3308181 0.49930522 -0.111833505
-0.2854045 -0.0122090075 0.47730333 -0.1738025 0.15601553 0.28707576 -0.33188242 -0.08582102
00000000: 0d7f 143e 8f33 6f3d f7ac a5bd acb4 213d
00000010: 6521 04be ccb8 2abe fad0 5abe 427a 5ebe
00000020: c9be 25be 1f79 5ebe 5e82 013e fa23 93bd
00000030: 3f66 debd a3e4 ffbd b7cc e53d 86d1 943d
00000040: 0833 423e 8dc4 4cbe 7e9a 453e 7827 18be
00000050: 5ef1 133e cf22 51be 5950 093f 1bfb 733d
00000060: e9ce 913d c2f3 59be f8b4 953e 6ded db3c
00000070: fee8 973e addd 35be 354d ec3c ae66 8f3e
00000080: 7d05 613d 04f4 91bd 3fa0 a73e edb9 933e
00000090: 57ef 513e ff48 b6bd ecfa f1bb 5017 fa3d
000000a0: 2a09 58be caad 343e 01d1 063d f773 3dbc
000000b0: 01b5 3dbd 8fbb 03bd 1ed7 23bd 58ba 543d
000000c0: 8761 99be 99c4 a7be 7ec2 4f3e a4a4 943d
000000d0: ea85 9e3e fb5d 90be 2b2b e6bc b35a 443c
000000e0: 6651 08be b9af f03d 5146 143d 9182 b1bc
000000f0: dcb6 6abd 3d29 543e 0c16 20bd c023 963e
00000100: e51b 853e 098a 8f3e 2bf4 223e 425e 8e3c
00000110: 8d99 923d c260 dcbe b101 413e 037e 423e
00000120: 0d15 81be 48af 7ebd 0907 df3c 2577 133d
00000130: 0cce 91bd 1ef6 413e e630 8c3e 088c 8bb8
00000140: 9e74 7c3e cdc0 4ebd a410 30bd 76c6 bc3e
00000150: cf46 bebd 4efd 3d3e de8d e1bd ed6a 143d
00000160: 38e8 af3d afc9 47be a45c debe 3de4 adbe
00000170: 196e 28bd 8778 9e3d 6e17 c13d 2b6b e33d
00000180: 1c59 4d3e 6595 cfbd c195 97bd 05e5 bd3e
00000190: 6c41 efbe 09f6 553e 9dac 79be bce6 1f3d
000001a0: 93e6 d8be 1608 fdbd 49a4 18be f1ba c1bd
000001b0: eb4a 88be 0a2c d6bd 7e3b 303e 5d5f 8fbe
000001c0: 2db0 d5be 14ef 6abe 642a 69be f447 acbd
000001d0: 457c 063f dc55 cd3e 65f2 c23d b049 a6be
000001e0: d64c c83e eb6f 613e f071 4c3e 68af 23bd
000001f0: 2305 a9bd c3ea 2d3d 47d8 44be 6296 b63d
00000200: 14d3 7c3c 104a 523e e3f3 b6bd a4fc bb3d
00000210: 74d5 213e 25f5 8cbe ac02 debd c060 fa3d
00000220: af7a 81be ec13 353e bb80 da3d a424 8f3d
00000230: 3011 09be bc8a 3ebe 6c46 2cbe 8a69 c23e
00000240: 0001 a0be 86cc 043d 4fcc 483e e218 aa3e
00000250: 0847 9e3d 18a6 653e 960c 49be fd5b 9a3e
00000260: 722c a33d fab7 613e 1d5d 82be 44d4 f63b
00000270: fa86 133e 3907 b43c acab cebd 61df b63d
00000280: 51db afbe 8329 d63d 04c3 473e 50c1 9fbe
00000290: 6d76 9c3e 6834 91be ded5 873d 46fe 523e
000002a0: 3370 a63e 8989 95be 563a 633e ef09 113e
000002b0: dee3 73bd b921 09be 5eff 5d3e f7c2 a53d
000002c0: 6137 92be 28e7 263e 8bcb 04be 94b4 133e
000002d0: ae44 28be df98 2c3e feb0 95bd 276d e6be
000002e0: 449d a73e 9d65 693e b7cc 64be 1816 8d3e
000002f0: 7350 80bd b003 61be 6634 9bbe 111b f23d
00000300: 10a6 e83d bebe cb3d d563 8a3e 20da 8a3c
00000310: ab4f c83e cc87 acbe fb72 fabd 19c4 c93d
00000320: 9762 683d 2d59 5dbe 04d2 edbe 4e80 823e
00000330: 10db 433e df16 713e f695 823d a8da 0d3e
00000340: f608 95bd 6314 043e e9b1 e13c 5fdf 173e
00000350: bef5 5e3e 14db 34bd 677e fcbd 24be eaba
00000360: 8d5f 6fbd e72d 21be 8536 843e e5e2 9ebe
00000370: a968 573e 8cc0 b5bb 3753 c73c 0bf3 b43e
00000380: 7338 1cbe 9db5 963d bd26 0c3d ef8e 023e
00000390: 0968 a6be c069 243e d4e5 29bd 3fe7 e73d
000003a0: 9777 c4be a075 8dbe 745e 24be 9f2a 3a3e
000003b0: f23a 13be 9c84 473e 998d c83e 8f40 01bf
000003c0: 5ed2 613e 9f41 05bb 870f ff3d 0b18 36be
000003d0: d4f8 e03d fd60 a93e efa4 ff3e f708 e5bd
000003e0: 8a20 92be 4a08 48bc 1a61 f43e 48f9 31be
000003f0: 89c2 1f3e 98fb 923e 7eec a9be eec2 afbd

rnn_slow.bias_ih_l0 f4 [48]
-0.015946792 0.29923093 0.046891212 0.17135349 -0.11115823 0.096433796 0.0698633 0.07174491
-0.21466686 0.21452528 0.16299756 -0.002387296 0.2497787 -0.03597296 0.01595093 -0.1034187
-0.36899772 -0.009621901 -0.20407891 -0.13240242 -0.031315543 0.00334045 -0.05557528 0.16104385
-0.3277994 -0.3045936 -0.1723508 -0.17189957 -0.2929048 0.02883774 -0.21115151 -0.025561962
0.20912433 0.28226373 -0.080955245 0.121112786 0.011181557 0.061583035 -0.11485159 0.34261888
0.20316394 -0.0073397835 0.044678774 0.061462272 0.20897347 0.11445878 -0.23944207 0.008000162
00000000: d9a2 82bc cc34 993e 0011 403d 4a77 2f3e
00000010: eda6 e3bd 157f c53d 7d14 8f3d ffee 923d
00000020: a1d1 5bbe 84ac 5b3e d5e8 263e 2e74 1cbb
00000030: fdc5 7f3e 6258 13bd 86ab 823c 2fcd d3bd
00000040: 45ed bcbe 2ea5 1dbc 10fa 50be 8094 07be
00000050: ba44 00bd 74eb 5a3b e8a2 63bd aee8 243e
00000060: 53d5 a7be b1f3 9bbe ba7c 30be 7106 30be
00000070: 9ef7 95be 203d ec3c 1a38 58be 5267 d1bc
00000080: b024 563e df84 903e ddcb a5bd fb09 f83d
00000090: d932 373c 7e3e 7c3d 4f37 ebbd be6b af3e
000000a0: 350a 503e 9182 f0bb 1701 373d ddbf 7b3d
000000b0: 24fd 553e 5d69 ea3d 4d30 75be 1d13 033c

rnn_slow.bias_hh_l0 f4 [48]
0.05466738 0.26358137 -0.08002278 0.13881616 0.09909859 -0.09876474 -0.08632448 -0.39188883
-0.15681696 -0.04731159 -0.14986964 0.101674065 0.24736734 -0.041402075 0.24544379 0.06942918
-0.3117018 -0.2321469 0.0796394 0.058768637 0.1888175 0.06630814 0.00022045587 0.10655372
-0.091634534 -0.16473429 -0.19216993 -0.06448866 -0.33822644 -0.30821222 0.06165168 -0.19554625
0.31006026 0.0467521 0.07083761 0.113885775 -0.50028336 0.24160717 0.3951242 -0.12588495
-0.3104418 0.26740825 -0.05213232 -0.33111343 0.07047289 0.09249185 -0.28415877 -0.10166428
00000000: e7ea 5f3d 23f4 863e fce2 a3bd d325 0e3e
00000010: 34f4 ca3d 2b45 cabd e4ca b0bd a7a5 c8be
00000020: a094 20be ccc9 41bd 6d77 19be 7e3a d03d
00000030: dd4d 7d3e 3995 29bd 9e55 7b3e e330 8e3d
00000040: 6197 9fbe ebb7 6dbe fb19 a33d 62b7 703d
00000050: 6059 413e 90cc 873d 2c2a 6739 d638 da3d
00000060: e3aa bbbd 1bb0 28be 32c8 44be a112 84bd
00000070: 042c adbe fecd 9dbe 7986 7c3d 473d 48be
00000080: 38c0 9e3e 217f 3f3d 4f13 913d f23c e93d
00000090: 9212 00bf df67 773e b84d ca3e fce7 00be
000000a0: 3af2 9ebe bce9 883e b388 55bd b387 a9be
000000b0: 1754 903d 5e6c bd3d 427d 91be 5d35 d0bd

project_sf.weight f4 [16, 16]
0.012976991 0.119153395 -0.24340445 0.15581107 -0.07936703 -0.045952793 0.05136223 -0.24308832
0.050462823 0.07402175 -0.03785627 -0.20825347 0.13595456 -0.17755967 -0.12049177 0.17058912
-0.007307404 -0.15121764 -0.07294012 0.19270185 0.15464784 -0.18011078 -0.01703369 0.2027413
0.3149216 0.15516435 0.1590448 -0.032932047 -0.05241975 0.38579482 0.09844233 -0.054690138
-0.17662998 -0.22895668 -0.10444144 0.10876946 -0.10336926 -0.12497176 0.25194982 -0.021626124
0.093472876 0.19092919 -0.020620229 0.0035734368 -0.1807373 0.17796846 -0.18775989 -0.21499473
0.023692593 0.046687122 0.17574744 0.045275625 -0.2284423 0.07001252 0.23673584 -0.14223841
-0.093670614 -0.110398546 -0.024748312 -0.14130734 -0.058448363 0.15020147 -0.04706591 0.06516535
-0.1729623 0.19795159 -0.16429974 -0.123300545 -0.0603482 -0.11563619 0.3706971 0.19847189
0.1492995 -0.04286836 0.08909946 0.12675168 0.04689948 0.2694667 -0.066858 -0.37472603
0.16801175 -0.03086998 -0.06924184 0.14625701 0.20819111 -0.16973451 0.101731345 0.37198055
-0.08186874 -0.065982886 0.083465144 0.2684121 0.2548189 0.2638035 0.21751064 0.012091887
-0.20096163 -0.22889276 -0.25449583 -0.32394868 -0.15446886 0.16369334 0.31501472 0.12418276
0.14510372 -0.159798 0.21550147 -0.20485401 0.025632719 -0.16234241 0.1283719 -0.11840534
-0.20978013 0.112902075 0.29605994 -0.31055632 0.25589862 0.1136763 -0.10379566 0.18269223
-0.13263127 -0.15463771 0.08278763 -0.03899213 -0.17065664 -0.20661245 0.26083192 -0.22545232
0.10458582 0.19962364 0.25797555 -0.080676325 -0.09674243 -0.18185629 0.11691597 0.25067604
0.29690006 0.13271308 -0.22606105 0.17508456 0.058421504 -0.08073544 -0.10458474 -0.19575727
-0.19750719 0.10069931 0.15945694 0.021537364 -0.011406076 -0.18282628 -0.020827945 -0.0750421
0.13706636 -0.1477348 -0.22823474 0.2767976 0.26051348 0.15442242 -0.10130958 -0.051376477
0.09099939 -0.23529977 0.0125450445 0.0828127 -0.15275554 0.24165143 -0.12043389 -0.05111672
0.17024408 -0.21483055 -0.00015863897 0.294617 -0.087414704 0.029845966 0.011252605 0.11835492
-0.036403943 -0.0049189404 -0.007841211 -0.06349634 -0.16988665 -0.034646075 0.22447576 0.20347527
0.20201415 -0.041319396 -0.13247797 0.061228145 0.023484396 0.26680082 0.06665875 -0.20786576
0.25681382 0.19711763 -0.25564763 -0.1802958 -0.1291926 0.27154833 0.023523364 0.007997131
0.1567325 0.32865083 0.024859982 -0.32512042 -0.12655003 0.027917072 -0.19074427 0.14560118
0.029158892 0.14491619 0.023291582 0.08697699 0.13369782 -0.13206477 -0.11713273 -0.1252442
0.024306523 0.15656447 0.047723018 -0.1774257 -0.046093762 0.16756164 -0.23083983 -0.20958054
-0.28071776 -0.16693343 0.33222258 -0.328132 0.21804665 0.08286676 -0.18128881 0.20008641
0.16240366 0.039750203 0.12998189 0.28225926 -0.09841498 0.28300786 0.10230288 -0.23081756
0.08000534 0.33560184 -0.22169027 0.23317306 0.15297076 0.30469105 -0.07607132 -0.14318697
-0.2916573 0.32168385 0.17309564 -0.02529469 0.32446277 -0.000349212 -0.17330168 -0.074643545
00000000: 729d 543c b206 f43d 043f 79be f08c 1f3e
00000010: 2e8b a2bd ff38 3cbd 3461 523d 25ec 78be
00000020: 1bb2 4e3d b798 973d 2d0f 1bbd 6640 55be
00000030: ac37 0b3e 34d2 35be 64c4 f6bd eaae 2e3e
00000040: f372 efbb ccd8 1abe a161 95bd a253 453e
00000050: 015c 1e3e f66e 38be 3d8a 8bbc 6a9b 4f3e
00000060: 673d a13e 67e3 1e3e a4dc 223e c1e3 06bd
00000070: 17b6 56bd e686 c53e 229c c93d c402 60bd
00000080: 7dde 34be 9f73 6abe 65e5 d5bd 86c2 de3d
00000090: 43b3 d3bd 32f1 ffbd 91ff 803e 4529 b1bc
000000a0: b56e bf3d f182 433e c1eb a8bc 5230 6a3b
000000b0: 3313 39be 5d3d 363e 2144 40be 9427 5cbe
000000c0: f816 c23c ff3a 3f3d 23f7 333e ef72 393d
000000d0: c7ec 69be b962 8f3d e16a 723e f2a6 11be
000000e0: 61d6 bfbd a218 e2bd f9bc cabc dfb2 10be
000000f0: 8d67 6fbd 6ace 193e 2fc8 40bd 6975 853d
00000100: 071d 31be d2b3 4a3e 313e 28be ff84 fcbd
00000110: ad2f 77bd abd2 ecbd 03cc bd3e 373c 4b3e
00000120: f8e1 183e bc96 2fbd c779 b63d 31cb 013e
00000130: ab19 403d 8af7 893e d9ec 88bd 17dc bfbe
00000140: 460b 2c3e 0ae3 fcbc aace 8dbd 66c4 153e
00000150: 0d30 553e e2ce 2dbe 8658 d03d 3c74 be3e
00000160: ccaa a7bd 0922 87bd c6ef aa3d 506d 893e
00000170: 9f77 823e 4111 873e 1cbb 5e3e 0d1d 463c
00000180: e3c8 4dbe dd62 6abe 474d 82be 9adc a5be
00000190: 162d 1ebe 3a9f 273e 9c49 a13e 8853 fe3d
000001a0: 1296 143e 16a2 23be 6bac 5c3e 40c5 51be
000001b0: b5fb d13c 173d 26be ec73 033e 807e f2bd
000001c0: 9ad0 56be 3439 e73d 2b95 973e 3d01 9fbe
000001d0: 2505 833e 1fcf e83d d292 d4bd ac13 3b3e
000001e0: 7ed0 07be 5959 1ebe 908c a93d 36b6 1fbd
000001f0: 9dc0 2ebe 3792 53be c38b 853e f9dc 66be
00000200: 1731 d63d 246a 4c3e 5f15 843e a139 a5bd
00000210: e520 c6bd 8938 3abe a471 ef3d 9c58 803e
00000220: 4903 983e f0e5 073e 8c7c 67be 5e49 333e
00000230: 634b 6f3d 9f58 a5bd 8630 d6bd 9874 48be
00000240: 533f 4abe 713b ce3d ae48 233e 206f b03c
00000250: 8de0 3abc d036 3bbe 5e9f aabc acaf 99bd
00000260: 205b 0c3e cb47 17be 5eb6 69be 6ab8 8d3e
00000270: 0662 853e e920 1e3e 667b cfbd 2470 52bd
00000280: e35d ba3d 6cf2 70be bb89 4d3c b499 a93d
00000290: f36b 1cbe 7973 773e 0ba6 f6bd c45f 51bd
000002a0: 7754 2e3e 8afc 5bbe 5358 26b9 0ad8 963e
000002b0: 7b06 b3bd 877f f43c d95c 383c 1064 f23d
000002c0: 4d1c 15bd 102f a1bb 6c78 00bc 5e0a 82bd
000002d0: c4f6 2dbe 0be9 0dbd f9dc 653e d25b 503e
000002e0: ccdc 4e3e 873e 29bd 4ea8 07be 5dca 7a3d
000002f0: 5962 c03c 1e9a 883e 6284 883d c3da 54be
00000300: 1a7d 833e 34d9 493e 3fe4 82be 769f 38be
00000310: 114b 04be 6208 8b3e 12b4 c03c 6606 033c
00000320: 7c7e 203e ec44 a83e 29a7 cb3c 2f76 a6be
00000330: 5596 01be 58b2 e43c 7752 43be 7a18 153e
00000340: a1de ee3c e964 143e fdcd be3c fe20 b23d
00000350: 15e8 083e fd3b 07be 49e3 efbd 0440 00be
00000360: 791e c73c 7052 203e 3679 433d 15af 35be
00000370: d0cc 3cbd 4795 2b3e 4761 6cbe 489c 56be
00000380: 3dba 8fbe 99f0 2abe 1419 aa3e eb00 a8be
00000390: 9f47 5f3e 0cb6 a93d c6a3 39be 74e3 4c3e
000003a0: 254d 263e 1cd1 223d f919 053e 4984 903e
000003b0: cb8d c9bd 68e6 903e 2c84 d13d 705b 6cbe
000003c0: d7d9 a33d 01d4 ab3e c602 63be ebc4 6e3e
000003d0: 5ea4 1c3e 7700 9c3e 48cb 9bbd 9b9f 12be
000003e0: 1b54 95be bfb3 a43e fc3f 313e cf36 cfbc
000003f0: fc1f a63e 7116 b7b9 ff75 31be b7de 98bd

project_sf.bias f4 [16]
-0.04014943 0.4459439 0.15162942 -0.090242006 -0.082304105 0.0045730383 -0.18148705 0.14425299
0.10132544 -0.083201505 -0.092572555 -0.27193522 0.21605326 -0.073782355 -0.2315264 0.018820964
00000000: bb73 24bd c252 e43e be44 1b3e cdd0 b8bd
00000010: 0e8f a8bd 6dd9 953b bed7 39be 0eb7 133e
00000020: b683 cf3d 8d65 aabd ae96 bdbd 183b 8bbe
00000030: 113d 5d3e 341b 97bd 4215 6dbe 6c2e 9a3c

rnn_fast.weight_ih_l0 f4 [48, 1]
-0.19486237 0.008810669 -0.057486683 0.022823274 -0.09316617 -0.17216498 0.1403808 0.16378096
0.06633958 0.09492594 -0.09808615 -0.07400274 -0.15208733 0.03024751 0.2184399 0.17888889
0.067527086 -0.094542354 -0.073903024 -0.15699413 0.060037076 -0.2289629 0.17077023 0.16233131
-0.2397938 -0.050471723 0.071179956 0.13592467 -0.1893473 -8.2820654e-05 0.047447234 0.05938381
-0.21224532 0.24119797 0.017278671 -0.07978076 0.14448237 -0.15422007 -0.031969786 -0.059376866
-0.2433295 0.23160058 0.14886922 0.108044565 -0.2131688 0.22255188 0.11218092 0.21126184
00000000: 008a 47be a05a 103c 2877 6bbd e0f7 ba3c
00000010: e8cd bebd 044c 30be fcbf 0f3e 32b6 273e
00000020: 0cdd 873d 8868 c23d 64e1 c8bd c08e 97bd
00000030: c8bc 1bbe a0c9 f73c b6ae 5f3e a62e 373e
00000040: a44b 8a3d 6c9f c1bd 785a 97bd 12c3 20be
00000050: 70e9 753d 4075 6abe 64de 2e3e 2e3a 263e
00000060: 828c 75be 70bb 4ebd ccc6 913d d62f 0b3e
00000070: 42e4 41be 00b0 adb8 0858 423d 703c 733d
00000080: d656 59be 9afc 763e 008c 8d3c 1864 a3bd
00000090: 30f3 133e deeb 1dbe c0f2 02bd 2835 73bd
000000a0: 5e2b 79be b428 6d3e 2c71 183e 7846 dd3d
000000b0: ec48 5abe a4e4 633e 1cbf e53d 0655 583e

rnn_fast.weight_hh_l0 f4 [48, 16]
-0.2250866 0.15945181 -0.099942006 -0.17230909 0.19686095 0.21856704 0.10193109 -0.004029747
0.15347011 0.16458593 0.12734121 0.07007933 0.23122104 -0.20275973 -0.19979113 -0.17454645
-0.21253254 -0.10457461 0.13659158 0.2339107 -0.11756077 -0.24988875 -0.1834258 -0.07367853
0.2172037 0.120855734 0.23418926 -0.18378782 -0.06556337 -0.028292917 0.22625627 -0.14295152
-0.18081242 0.18615074 0.1469779 0.18587638 0.03127626 -0.12899734 -0.17089184 0.0075285574
-0.030845873 0.17447363 0.10186296 0.06791461 -0.037868205 0.039572008 -0.17128661 -0.21566835
-0.18857624 0.22801243 0.123697765 0.11405032 0.22425087 0.16300656 -0.10033815 -0.17731635
0.023899095 0.07484319 -0.11553786 -0.1219796 0.15490624 0.016325919 -0.1957786 -0.21643288
0.18218856 0.05284579 -0.007022162 0.040196735 0.16920832 0.18185164 0.11638457 0.18580666
-0.050089743 0.039754093 0.16161501 0.19924411 0.114645496 -0.0011404598 0.1959405 0.038130414
0.21425177 -0.080809616 0.0809601 0.19488402 0.14896175 0.09680368 -0.26019356 -0.06588847
0.24880546 -0.09472363 -0.15560603 -0.04430578 -0.13745989 -0.20408252 -0.1145103 -0.22677697
0.1943364 -0.105640285 0.024879254 0.10572124 -0.036462683 -0.18434961 -0.06035488 -0.14320926
-0.20785257 -0.18342403 -0.114748806 -0.23897396 -0.13122389 0.1673625 -0.026439702 0.022647915
0.20602995 0.14857961 -0.032257356 -0.08026893 -0.075247966 0.16324984 0.091439314 -0.19796787
-0.1973485 -0.19069153 0.22795466 0.09914075 -0.056275014 0.042809915 0.18659677 -0.050725956
0.22135082 0.19177696 -0.115637645 0.08120115 0.23977043 -0.19428496 0.17428115 0.05854955
0.24273233 0.07613655 -0.1496839 0.20748226 0.20369187 -0.1590961 0.11045213 0.2092502
-0.1748043 -0.0693618 0.01533412 0.23834985 -0.087706305 0.05485359 0.026285063 0.07035702
-0.005670135 -0.19812441 0.07652735 -0.13375248 0.06465079 -0.09744881 -0.18430682 0.03518338
-0.05953978 -0.10516052 0.16438183 0.13798474 -0.08948263 -0.16092397 -0.24081458 0.012565387
0.04865028 -0.18692167 -0.19991796 -0.00352904 -0.12765653 -0.15535142 -0.16103365 0.08263448
-0.031092493 0.037779935 0.03713558 0.001841029 0.17054728 -0.037912615 -0.1434927 -0.028558848
-0.18096192 0.146591 0.08358463 -0.007129743 -0.1776522 -0.1096551 -0.048097223 -0.13118866
-0.20142007 -0.100375734 -0.12180238 0.23940705 0.15991884 -0.20288622 -0.19082776 0.20492597
-0.08251516 0.13573991 0.19490422 0.11861552 -0.076669 0.07737027 -0.16193326 -0.177125
-0.14507827 0.21038511 -0.23244566 -0.19844647 0.20934467 -0.20814459 0.21647432 0.12714279
0.17766732 0.07040477 0.23032564 -0.2093467 0.23922753 -0.10936146 0.03585298 0.22061075
-0.2077625 0.10893373 0.21329169 -0.12380791 0.089988135 0.22620134 0.10258087 0.20854756
-0.09700285 -0.002192314 -0.043001015 -0.0030483818 -0.02938688 0.21845026 0.12426755 0.080951296
0.24801451 -0.186231 -0.15996584 -0.20189327 -0.1806776 0.21584973 -0.21524894 -0.2004399
0.19246797 0.03251788 0.16425808 0.14795676 -0.004633527 0.16824473 0.057583593 -0.23134911
00000000: 1a7d 66be 5647 233e 65ae ccbd cb71 30be
00000010: eb95 493e 0ad0 5f3e 3fc1 d03d f80b 84bb
00000020: 4527 1d3e 3789 283e bc65 023e c085 8f3d
00000030: 35c5 6c3e 3fa0 4fbe 0c96 4cbe 4ebc 32be
00000040: 21a2 59be 372b d6bd aade 0b3e 4986 6f3e
00000050: b3c3 f0bd d6e2 7fbe f9d3 3bbe c5e4 96bd
00000060: a66a 5e3e 3683 f73d 4fcf 6f3e e032 3cbe
00000070: 1746 86bd 8cc6 e7bc b9af 673e e261 12be
00000080: e426 39be 4d9e 3e3e 6081 163e 6156 3e3e
00000090: 891b 003d e117 04be 45fe 2ebe 1eb2 f63b
000000a0: 7cb0 fcbc 37a9 323e 879d d03d d116 8b3d
000000b0: b11b 1bbd 4216 223d c265 2fbe 2ad8 5cbe
000000c0: 211a 41be 177c 693e 4155 fd3d 3793 e93d
000000d0: 05a2 653e 31eb 263e 177e cdbd 6b92 35be
000000e0: 09c8 c33c 6347 993d 1d9f ecbd 71d0 f9bd
000000f0: be9f 1e3e efbd 853c 2f7a 48be 95a0 5dbe
00000100: a38f 3a3e d474 583d 2a1a e6bb 55a5 243d
00000110: f244 2d3e 5137 3a3e 095b ee3d 1a44 3e3e
00000120: e72a 4dbd 30d5 223d 687e 253e a606 4c3e
00000130: 42cb ea3d 7b7b 95ba a0a4 483e a32e 1c3d
00000140: d164 5b3e 837f a5bd 69ce a53d ad8f 473e
00000150: 6e89 183e 0241 c63d 1738 85be 89f0 86bd
00000160: dcc6 7e3e 76fe c1bd 3057 1fbe fa79 35bd
00000170: 49c2 0cbe 02fb 50be 6084 eabd 3938 68be
00000180: 1f00 473e ef59 d8bd 94cf cb3c 6184 d83d
00000190: e559 15bd 25c6 3cbe ae36 77bd 73a5 12be
000001a0: 4ed7 54be 82d3 3bbe 6c01 ebbd 97b5 74be
000001b0: 8e5f 06be 1361 2b3e 1398 d8bc 1f88 b93c
000001c0: 84f9 523e 4125 183e 4a20 04bd 0964 a4bd
000001d0: 9b1b 9abd f72a 273e 8944 bb3d 17b8 4abe
000001e0: ba15 4abe a444 43be f26c 693e 4e0a cb3d
000001f0: a180 66bd 7359 2f3d 3913 3f3e 05c6 4fbd
00000200: caa9 623e 2e61 443e 6ed3 ecbd ca4c a63d
00000210: 6186 753e a3f2 46be c276 323e a7d1 6f3d
00000220: d38e 783e 7bed 9b3d bc46 19be 3b76 543e
00000230: 9a94 503e 17ea 22be ba34 e23d af45 563e
00000240: e6ff 32be 8f0d 8ebd f63b 7b3c fc11 743e
00000250: 5d9f b3bd 28ae 603d c653 d73c 5717 903d
00000260: 8acc b9bb 20e1 4abe 5fba 9c3d 69f6 08be
00000270: a267 843d 3e93 c7bd edba 3cbe 731c 103d
00000280: fcdf 73bd 665e d7bd b653 283e df4b 0d3e
00000290: ab42 b7bd 41c9 24be 1998 76be 0edf 4d3c
000002a0: 8445 473d 6568 3fbe 4bb7 4cbe 7747 67bb
000002b0: 65b8 02be 7114 1fbe 01e6 24be 443c a93d
000002c0: afb5 febc 22bf 1a3d 7a1b 183d af4e f13a
000002d0: f2a3 2e3e 424a 1bbd c0ef 12be 3ff4 e9bc
000002e0: 154e 39be f31b 163e 6b2e ab3d 9fa0 e9bb
000002f0: 75ea 35be da92 e0bd 9801 45bd 5256 06be
00000300: 1041 4ebe cb91 cdbd 8773 f9bd 1f27 753e
00000310: c4c1 233e 68c1 4fbe 5a68 43be 1dd8 513e
00000320: b5fd a8bd 67ff 0a3e f994 473e b2ec f23d
00000330: a304 9dbd 4e74 9e3d d5d1 25be 4260 35be
00000340: 668f 14be 326f 573e 3c06 6ebe 8d35 4bbe
00000350: 735e 563e db23 55be 72ab 5d3e b831 023e
00000360: 6cee 353e 6030 903d 7cda 6b3e fb5e 56be
00000370: 10f8 743e e7f8 dfbd 93da 123d c9e7 613e
00000380: b1bf 54be a618 df3d 2369 5a3e 008f fdbd
00000390: b34b b83d 53a1 673e eb15 d23d 7e8d 553e
000003a0: 6ea9 c6bd edac 0fbb d521 30bd 5cc7 47bb
000003b0: c1bc f0bc 6db1 5f3e fc7f fe3d cbc9 a53d
000003c0: 84f7 7d3e 57b3 3ebe 16ce 23be 1cbd 4ebe
000003d0: 8c03 39be b607 5d3e 386a 5cbe 1e40 4dbe
000003e0: 5316 453e 7831 053d 4533 283e fa81 173e
000003f0: d7d4 97bb 5948 2c3e c6dc 6b3d c8e6 6cbe

rnn_fast.bias_ih_l0 f4 [48]
-0.21097124 -0.05241316 0.027388697 0.207861 0.0748401 -0.18642426 0.074261636 -0.18955946
0.15115824 -0.1471986 -0.20772287 0.07604863 -0.13586412 0.22228874 0.0311205 0.22100349
0.10928173 -0.108317815 0.053272534 -0.14385621 -0.19480258 0.15366018 -0.13992077 0.073836654
0.13753614 0.09179606 0.20775355 0.22982928 0.2382212 0.0263177 -0.010136267 -0.07931283
-0.14826351 0.11369253 -0.19570145 0.25466 0.065993875 -0.038701806 -0.19693765 0.14774822
0.1425895 0.1115863 -0.2418831 0.17085686 -0.12754089 0.23601988 0.14853947 -0.009109288
00000000: d808 58be 2faf 56bd 435e e03c 84d9 543e
00000010: c445 993d 00e6 3ebe 7c16 983d e01b 42be
00000020: 3ac9 1a3e 3bbb 16be 4eb5 54be 62bf 9b3d
00000030: f71f 0bbe a99f 633e 6bf0 fe3c bd4e 623e
00000040: 1acf df3d bbd5 ddbd 4d34 5a3d 0b4f 13be
00000050: 547a 47be 1859 1d3e 6447 0fbe ac37 973d
00000060: 46d6 0c3e 93ff bb3d 59bd 543e 5e58 6b3e
00000070: 42f0 733e 3898 d73c 9612 26bc c46e a2bd
00000080: 64d2 17be a1d7 e83d f665 48be cc62 823e
00000090: cc27 873d c985 1ebd 06aa 49be 4f4b 173e
000000a0: fb02 123e 5c87 e43d 34b0 77be 1af5 2e3e
000000b0: 149a 02be 32af 713e bb1a 183e 203f 15bc

rnn_fast.bias_hh_l0 f4 [48]
0.17987758 -0.081276804 0.1825459 0.014314395 0.23377402 0.07703343 -0.13516296 0.031898014
0.21670586 0.02251503 -0.064787306 -0.2081859 -0.09214655 0.1283872 -0.2102093 -0.03410755
-0.07515766 0.17598948 0.04939406 -0.028071674 0.24403477 -0.012792768 -0.11126781 0.22647364
-0.14437503 -0.23139295 -0.13957666 -0.160451 0.108961634 -0.19926924 -0.028863857 0.06292791
-0.09489727 0.17967063 0.2174946 0.21068288 0.108155325 0.19383945 0.0131306015 -0.22113699
0.17058927 0.06726971 0.123120956 -0.096386 -0.1382935 -0.22413003 0.2632522 -0.23531242
00000000: d431 383e 7474 a6bd 50ed 3a3e ed86 6a3c
00000010: 7562 6f3e b4c3 9d3d 2968 0abe 7ea7 023d
00000020: 24e8 5d3e 7171 b83c 35af 84bd af2e 55be
00000030: 55b7 bcbd ef77 033e 1b41 57be 5cb4 0bbd
00000040: 42ec 99bd 9636 343e 6d51 4a3d 91f6 e5bc
00000050: 40e4 793e c298 51bc 61e0 e3bd b5e8 673e
00000060: 0cd7 13be 46f2 6cbe 2fed 0ebe 444d 24be
00000070: 4727 df3d 3c0d 4cbe e573 ecbc 59e0 803d
00000080: 8059 c2bd 94fb 373e e8b6 5e3e 41bd 573e
00000090: 8a80 dd3d d97d 463e bc21 573c bc71 62be
000000a0: f4ae 2e3e b4c4 893d d726 fc3d 0666 c5bd
000000b0: d09c 0dbe 5882 65be fec8 863e bdf5 70be

initial_evidence.weight f4 [1, 16]
0.12659107 -0.223095 0.10809855 -0.27662718 0.027267082 -0.022104064 0.13357414 0.13335131
0.054026194 0.14214249 0.1533366 0.030826773 -0.08553968 0.13326506 -0.16467325 -0.16826464
00000000: 17a1 013e 0473 64be c662 dd3d 14a2 8dbe
00000010: 375f df3c 9513 b5bc a9c7 083e 3f8d 083e
00000020: 924a 5d3d cd8d 113e 4504 1d3e 6e88 fc3c
00000030: 6e2f afbd a376 083e 1ba0 28be 914d 2cbe

evidence_head.0.weight f4 [1, 16]
0.02157054 0.06570419 0.0075247986 0.26594475 0.04829047 0.060728632 0.07809002 0.044847474
0.06778296 0.05351414 0.06084789 0.016847966 0.01760273 0.056448907 0.07984778 0.08722335
00000000: b3b4 b03c eb8f 863d 9692 f63b e929 883e
00000010: 3acc 453d 96be 783d a9ed 9f3d fcb1 373d
00000020: cbd1 8a3d a531 5b3d a33b 793d bf04 8a3c
00000030: 9a33 903c f836 673d 3c87 a33d 28a2 b23d

fast_choice_head.0.weight f4 [16, 16]
0.07125947 -0.21045178 0.08161217 -0.057833135 0.09361836 0.05260411 -0.24865961 -0.16304812
-0.12138823 0.061507046 -0.099197745 0.092598915 -0.061282486 0.011631519 -0.01448518 0.1084573
0.09676373 0.1342203 -0.097910285 -0.0726223 -0.024222374 -0.068457216 -0.05965531 -0.024254024
0.029310375 -0.171666 -0.12939394 -0.14664903 -0.15919209 -0.21053782 0.08951035 -0.2452671
0.18825746 0.15072164 0.19899589 0.08174819 0.14593822 -0.0925242 -0.14279124 -0.2400094
-0.061772346 -0.06319228 0.122707784 0.20977053 -0.03516102 -0.048129886 0.051149964 -0.21523768
-0.0039274693 0.1651485 -0.041691393 0.096092016 -0.0539321 -0.025176942 -0.17160201 -0.021725565
-0.18069729 0.0990572 -0.107132316 -0.1949589 -0.11827847 -0.14836258 -0.19915694 0.23870489
-0.04047966 0.053184062 0.14461914 -0.08116278 -0.19496956 -0.13777944 0.13729271 -0.21772185
0.0063870847 0.1958636 -0.051803112 -0.16085291 -0.07880992 0.006827742 0.15406367 0.0014709532
-0.16893405 -0.0063819885 0.13607213 -0.23029956 0.015238404 0.01140669 0.049519718 -0.24021718
-0.19062066 -0.2339029 0.19970164 -0.20910761 0.228039 -0.20848942 0.17128542 -0.08201015
0.2445274 0.045655966 0.21930343 0.01756695 -0.033835143 -0.18767247 -0.13479188 0.23790121
0.24824128 0.21553212 0.14059192 0.18147129 -0.18320543 0.022107184 0.111113966 -0.1362803
0.04973927 0.22909239 -0.08432299 0.12118986 -0.08344725 -0.17698303 0.043715656 -0.21700239
-0.24724296 0.0013708174 0.0112813115 -0.0935072 -0.15418482 0.085127085 -0.12041175 -0.200037
-0.20290032 0.054108918 0.22626117 -0.09111166 -0.12136358 0.15099388 -0.19077602 0.20162463
-0.24636695 0.0344055 -0.076093346 0.23080197 -0.06610367 -0.14449203 0.12972638 -0.22350499
0.11605367 0.15078256 -0.09975439 0.15714803 0.041846305 -0.09955111 0.0835354 -0.19248125
-0.006043792 0.13481805 0.22101134 -0.10336149 -0.1341185 -0.14107692 0.12417588 0.23537406
-0.13196024 0.039339125 0.22392368 -0.030615449 0.12529558 -0.05494961 -0.21990529 0.19719175
-0.17145276 -0.19027337 -0.06178695 -0.16449615 0.15139341 -0.041652143 -0.24011955 -0.004003048
0.040928215 0.18327656 0.11041695 -0.012220949 -0.24671665 -0.009302974 -0.19105086 0.056539327
0.07598886 0.11952323 -0.13905054 -0.2283499 -0.10084137 0.09411359 0.11060268 0.17169598
-0.004807651 0.1623317 -0.060018957 0.0023812652 -0.017465055 -0.1444048 -0.21258432 0.10080549
-0.094545364 0.19904536 -0.018039823 0.057192445 -0.22628635 -0.20506385 0.10686132 -0.13911209
-0.23842096 0.20669886 0.11456397 -0.11767608 0.21883133 0.025787383 0.24748677 -0.11615968
0.15058216 -0.051108122 0.109368354 0.21408859 0.068561584 -0.09516469 -0.19735673 0.11626446
0.12205559 0.16636363 -0.12543878 0.19675645 -0.0710969 -0.050976515 0.050762028 -0.17177969
-0.0013864636 -0.16238388 -0.02702725 -0.11561954 -0.03524837 -0.10291532 0.1572775 -0.20178214
-0.24897873 0.168116 -0.13565308 0.07421133 -0.15043223 0.19531813 0.046293944 0.18785664
-0.15859798 0.13984624 0.24580821 -0.005868703 -0.20518902 -0.11479363 0.21664122 -0.16195971
00000000: 7cf0 913d ac80 57be 4824 a73d 70e2 6cbd
00000010: fcba bf3d 6877 573d a0a0 7ebe 16f6 26be
00000020: 649a f8bd d0ee 7b3d 3028 cbbd 80a4 bd3d
00000030: 5803 7bbd 2092 3e3c 4053 6dbc dc1e de3d
00000040: 102c c63d 0c71 093e 3085 c8bd 00bb 94bd
00000050: 006e c6bc 4c33 8cbd 2059 74bd 60b0 c6bc
00000060: 501c f03c 36c9 2fbe d87f 04be 2a2b 16be
00000070: 4003 23be 3a97 57be 3451 b73d 4c27 7bbe
00000080: 90c6 403e c656 1a3e 94c5 4b3e 986b a73d
00000090: d470 153e 547d bdbd de37 12be 06c5 75be
000000a0: 0005 7dbd f46a 81bd 384e fb3d 16ce 563e
000000b0: 0005 10bd d823 45bd a082 513d 4467 5cbe
000000c0: 00b2 80bb b01c 293e 98c4 2abd e4cb c43d
000000d0: e8e7 5cbd e03f cebc 70b8 2fbe d0f9 b1bc
000000e0: b608 39be 80de ca3d 3068 dbbd 4ea3 47be
000000f0: fc3b f2bd 5cec 17be ccef 4bbe 0e6f 743e
00000100: 00ce 25bd 88d7 593d 0a17 143e ac38 a6bd
00000110: 1aa6 47be 0e16 0dbe 7696 0c3e 7af2 5ebe
00000120: c04a d13b 7890 483e 802f 54bd a0b6 24be
00000130: 1867 a1bd 40bb df3b dec2 1d3e 00cd c03a
00000140: 0cfd 2cbe 0020 d1bb 7e56 0b3e a6d3 6bbe
00000150: 80aa 793c 20e3 3a3c 30d5 4a3d 7efb 75be
00000160: 1032 43be 3e84 6fbe 967e 4c3e 4e20 56be
00000170: 0e83 693e 407e 55be 7265 2f3e f0f4 a7bd
00000180: 6465 7a3e c001 3b3d 1491 603e 90e8 8f3c
00000190: b896 0abd 362d 40be e206 0abe 609c 733e
000001a0: f632 7e3e 74b4 5c3e 54f7 0f3e 9cd3 393e
000001b0: 349a 3bbe 201a b53c b88f e33d 108d 0bbe
000001c0: 68bb 4b3d 3297 6a3e 88b1 acbd 6432 f83d
000001d0: 64e6 aabd 0a3b 35be 300f 333d e035 5ebe
000001e0: 422d 7dbe 00ad b33a 40d5 383c b480 bfbd
000001f0: a0e2 1dbe 1c57 ae3d 709a f6bd 80d6 4cbe
00000200: 1ac5 4fbe 50a1 5d3d 02b1 673e c098 babd
00000210: 788d f8bd 249e 1a3e ca5a 43be b076 4e3e
00000220: 9e47 7cbe c8ec 0c3d d4d6 9bbd 5a57 6c3e
00000230: 5c61 87bd b8f5 13be fed6 043e 7ede 64be
00000240: 8cad ed3d be66 1a3e 084c ccbd 6aeb 203e
00000250: 0867 2b3d 74e1 cbbd 9c14 ab3d ce19 45be
00000260: 000b c6bb be0d 0a3e cc50 623e 30af d3bd
00000270: 5c56 09be 7876 10be ec4f fe3d e605 713e
00000280: 9620 07be 1022 213d 404c 653e 40cd fabc
00000290: 7c4d 003e d812 61bd da2e 61be a2ec 493e
000002a0: 5091 2fbe 06d7 42be 5014 7dbd ae71 28be
000002b0: e006 1b3e 709b 2abd e6e1 75be 002c 83bb
000002c0: 58a4 273d daac 3b3e 4822 e23d 603a 48bc
000002d0: 4aa3 7cbe 806b 18bc d6a2 43be c895 673d
000002e0: 0ca0 9b3d 98c8 f43d 4463 0ebe 8ed4 69be
000002f0: ec85 cebd a0be c03d a883 e23d 12d1 2f3e
00000300: 8089 9dbb 483a 263e 70d6 75bd 000f 1c3b
00000310: e012 8fbc dade 13be b4af 59be 1c73 ce3d
00000320: 00a1 c1bd 8cd2 4b3e 40c8 93bc a042 6a3d
00000330: 9cb7 67be 42fc 51be 1cda da3d 6673 0ebe
00000340: a024 74be dea8 533e 84a0 ea3d 2800 f1bd
00000350: 5215 603e 1040 d33c 2c6d 7d3e 20e5 edbd
00000360: 3632 1a3e c056 51bd 84fc df3d 0a3a 5b3e
00000370: 046a 8c3d b4e5 c2bd e217 4abe 101c ee3d
00000380: 48f8 f93d 3a5b 2a3e 0673 00be 867a 493e
00000390: 409b 91bd c0cc 50bd d8eb 4f3d 04e7 2fbe
000003a0: 00ba b5ba f647 26be 4068 ddbc f0c9 ecbd
000003b0: 9860 10bd 44c5 d2bd 5a0d 213e fa9f 4ebe
000003c0: 48f4 7ebe 9a26 2c3e a4e8 0abe 1cfc 973d
000003d0: e80a 1abe 7a01 483e b89e 3d3d 7e5d 403e
000003e0: 8267 22be da33 0f3e 26b5 7b3e 404e c0bb
000003f0: 121d 52be ec18 ebbd 32d7 5d3e c4d8 25be

fast_choice_head.0.bias f4 [16]
0.080396324 -0.015366405 0.18396041 0.023882419 0.15264255 -0.0445866 -0.015697658 -0.070148766
-0.23388126 -0.11388284 0.013021231 -0.16835868 0.23380679 -0.13454282 0.0979338 -0.24191746
00000000: d4a6 a43d 60c3 7bbc 1e60 3c3e 10a5 c33c
00000010: 544e 1c3e 70a0 36bd 6098 80bc 28aa 8fbd
00000020: 927e 6fbe 683b e9bd 0057 553c 3866 2cbe
00000030: 0c6b 6f3e 98c5 09be 8491 c83d 36b9 77be

fast_choice_head.1.weight f4 [1, 16]
0.2453022 0.04449922 -0.18496075 0.14665085 0.16260755 0.20575717 0.09525275 0.04065135
0.0728575 0.041957885 0.1683271 0.23208839 0.06960246 0.058707416 0.0600729 -0.10699427
00000000: 8030 7b3e d044 363d 5a66 3dbe a42b 163e
00000010: 9882 263e 02b2 523e e013 c33d 0882 263d
00000020: 5036 953d 08dc 2b3d f05d 2c3e 94a8 6d3e
00000030: bc8b 8e3d 3077 703d 000f 763d d01f dbbd

slow_choice_head.0.weight f4 [16, 16]
-0.111697644 -0.24517103 -0.2542926 -0.06338971 0.03564317 0.32902086 0.30248243 0.047748145
0.11418526 0.12394703 0.37175593 -0.41816393 0.22206871 0.15221381 -0.25210992 0.20530389
0.55885106 0.33750752 0.21535057 0.4024675 -0.39858586 -0.32308728 -0.12976341 0.26833078
-0.5497577 -0.23739786 -0.0040478087 0.5785746 0.058922086 0.17655483 0.069109224 -0.062493436
-0.36706626 -0.35759377 0.026443066 0.03948754 0.17706901 0.3697552 0.24423048 0.30725694
0.39939743 0.42751384 0.30364904 -0.36592767 0.13399649 0.060160335 -0.3044803 0.19179828
-0.0687075 0.36432794 0.2709313 0.16875617 -0.5059326 -0.26814795 -0.30424553 0.17921849
-0.28921744 -0.33427507 0.11671798 0.41137934 -0.3227428 0.13817102 -0.11526533 -0.28759667
0.0033309634 -0.01173106 -0.2633619 -0.11947113 0.19217975 0.029668184 0.28344816 -0.07897886
0.49763864 0.37040558 0.36538386 -0.4057879 0.32274854 0.03323474 -0.17637502 0.2725983
0.30928293 0.016808009 0.13189219 -0.010248937 -0.3096782 -0.26185027 0.1531241 0.16566561
-0.10842166 -0.18899535 -0.28815457 -0.06438151 0.017943306 0.26506114 -0.15153508 0.10117342
0.4482285 0.32882488 0.42733914 0.21455792 -0.19121163 -0.13851021 -0.12477136 -0.11361876
-0.5211676 -0.34248418 -0.3258143 0.31900623 -0.24217342 0.31304976 0.10473878 -0.25526842
-0.102973856 -0.35971656 -0.24233517 -0.3368504 0.3075002 0.193447 -0.058488447 0.07714124
0.24983804 0.39347768 0.13869779 -0.4240489 0.26891178 -0.09593545 -0.24811701 0.088146195
0.15841223 0.13971002 0.012797977 -0.051864494 -0.36829713 -0.30914372 -0.16941412 -0.058967628
-0.3257538 -0.17998126 -0.25851867 0.039773833 -0.31835803 0.08674292 0.26241428 -0.18424766
0.35855672 0.17140587 0.3494943 -0.11605234 -0.11459738 -0.18666346 0.17061575 -0.05622141
-0.33189797 -0.29219103 -0.22640528 -0.028502025 -0.33873588 -0.16896127 -0.115854934 -0.2574603
0.10586485 0.3381846 -0.10945552 0.3570247 -0.14059201 0.071188524 -0.02527766 -0.23746419
-0.22440098 0.04693565 -0.1594941 0.04545451 0.11273067 -0.041041102 -0.0989816 -0.23702541
-0.37362725 -0.4491803 -0.09487053 -0.2709755 0.25232697 0.4107518 0.23080426 0.097174495
0.53459847 0.38217694 -0.00188404 -0.17919205 0.3264559 0.105037555 -0.3739962 -0.084809214
0.3499267 -0.03537464 0.16413216 0.3297471 0.030804392 0.09232231 -0.0050544864 -0.105400585
-0.25099438 -0.13285312 -0.01444798 0.24857968 -0.19856367 -0.14640693 0.23476005 0.14534557
0.20087087 0.41474184 0.19146852 0.2667622 -0.59912324 -0.38720214 0.041639306 -0.05996443
-0.5787809 -0.43126577 -0.3611299 0.2560398 -0.24763188 0.06846704 0.08525163 0.006718473
0.27590054 0.4187112 0.26900542 0.13717277 -0.44285357 -0.32326418 -0.020032946 -0.045356303
-0.075203694 -0.31267384 -0.21107027 0.45786634 -0.027745562 0.20077765 -0.06584579 -0.18731749
0.11809085 0.28065187 0.44075188 0.16969758 -0.1262162 -0.02038923 -0.26105046 -0.3027941
-0.46179342 -0.4573962 -0.39003107 0.10838195 -0.19728231 0.30547342 0.42157686 -0.015222143
00000000: bcc1 e4bd 1d0e 7bbe a432 82be 77d2 81bd
00000010: 93fe 113d 6c75 a83e fade 9a3e 8f93 433d
00000020: f6d9 e93d f1d7 fd3d cb56 be3e 9519 d6be
00000030: fb65 633e f0dd 1b3e 8d14 81be 2f3b 523e
00000040: dd10 0f3f c9cd ac3e dc84 5c3e 3810 ce3e
00000050: 7213 ccbe b26b a5be b3e0 04be a762 893e
00000060: ecbc 0cbf 6d18 73be 7ba3 84bb 771d 143f
00000070: 4958 713d caca 343e 2389 8d3d 1ef9 7fbd
00000080: 1cf0 bbbe 8816 b7be 219f d83c b0bd 213d
00000090: 9451 353e 8e50 bd3e 8e17 7a3e c850 9d3e
000000a0: d27d cc3e 18e3 da3e e377 9b3e df5a bbbe
000000b0: 6036 093e af6a 763d d8e4 9bbe c566 443e
000000c0: 85b6 8cbd 3189 ba3e 82b7 8a3e 6bce 2c3e
000000d0: cd84 01bf b04a 89be 12c6 9bbe 0d85 373e
000000e0: 4f14 94be 1a26 abbe d609 ef3d 50a0 d23e
000000f0: 8b3e a5be b47c 0d3e 3b10 ecbd df3f 93be
00000100: 4b4c 5a3b a233 40bc 5fd7 86be 48ad f4bd
00000110: c5ca 443e b10a f33c 1e20 913e abbf a1bd
00000120: 7eca fe3e cda5 bd3e 9813 bb3e 6ec3 cfbe
00000130: 4c3f a53e 2721 083d a79b 34be 0192 8b3e
00000140: 555a 9e3e f3b0 893c bf0e 073e 28eb 27bc
00000150: 248e 9ebe 3d11 86be 90cc 1c3e 3fa4 293e
00000160: 2d0c debd ff87 41be ff88 93be 74da 83bd
00000170: d7fd 923c 18b6 873e 032c 1bbe 0334 cf3d
00000180: 357e e53e bc5b a83e 32cc da3e 12b5 5b3e
00000190: fbcc 43be 9fd5 0dbe 2088 ffbd f4b0 e8bd
000001a0: 3d6b 05bf 165a afbe 22d1 a6be c954 a33e
000001b0: 4ffc 77be 0f48 a03e 4981 d63d 8bb2 82be
000001c0: f5e3 d2bd c52c b8be b626 78be a877 acbe
000001d0: ab70 9d3e f816 463e 9591 6fbd 3afc 9d3d
000001e0: 8bd5 7f3e e875 c93e cb06 0e3e f01c d9be
000001f0: ceae 893e ce79 c4bd 6312 7ebe fe85 b43d
00000200: d136 223e 2510 0f3e 9bae 513c dd6f 54bd
00000210: 7191 bcbe 1648 9ebe e57a 2dbe 0a88 71bd
00000220: 34c9 a6be 024d 38be 8f5c 84be e3e9 223d
00000230: d3ff a2be 46a6 b13d 2a5b 863e 6bab 3cbe
00000240: bf94 b73e 0585 2f3e ebf0 b23e d9ac edbd
00000250: 08b2 eabd b524 3fbe e5b5 2e3e 6c48 66bd
00000260: 88ee a9be 109a 95be c9d6 67be 147d e9bc
00000270: ca6e adbe 2f04 2dbe 5a45 edbd d6d1 83be
00000280: accf d83d 8826 ad3e 372a e0bd f1cb b63e
00000290: 5af7 0fbe 4acb 913d 1813 cfbc d029 73be
000002a0: 5fc9 65be 993f 403d 6c52 23be 822e 3a3d
000002b0: 56df e63d b71a 28bd ddb6 cabd cab6 72be
000002c0: 124c bfbe f6fa e5be 7b4b c2bd 4dbd 8abe
000002d0: 0031 813e 0f4e d23e f457 6c3e 6c03 c73d
000002e0: 72db 083f b2ac c33e e4f1 f6ba 1f7e 37be
000002f0: 3a25 a73e ee1d d73d 6e7c bfbe 74b0 adbd
00000300: 9829 b33e 00e5 10bd 4312 283e 9dd4 a83e
00000310: 7e59 fc3c 7b13 bd3d 1ba0 a5bb 43dc d7bd
00000320: 5682 80be a60a 08be 38b7 6cbc ac8b 7e3e
00000330: 4654 4bbe b3eb 15be f064 703e 78d5 143e
00000340: 18b1 4d3e 0b59 d43e 5310 443e 0e95 883e
00000350: 2460 19bf 5c3f c6be fa8d 2a3d 439d 75bd
00000360: fc2a 14bf dece dcbe 05e6 b8be a617 833e
00000370: 3693 7dbe 7338 8c3d 6898 ae3d a326 dc3b
00000380: d642 8d3e 5061 d63e 14bb 893e 0577 0c3e
00000390: b4bd e2be e282 a5be 221c a4bc 88c7 39bd
000003a0: 6504 9abd c916 a0be ce22 58be 756d ea3e
000003b0: a94a e3bc a898 4d3e 28da 86bd 28d0 3fbe
000003c0: 9ed9 f13d 9ab1 8f3e 3baa e13e 34c5 2d3e
000003d0: d23e 01be 5107 a7bc 68a8 85be d407 9bbe
000003e0: 3070 ecbe d62f eabe 27b2 c7be 5bf7 dd3d
000003f0: 6004 4abe 0367 9c3e ecd8 d73e 4c66 79bc

slow_choice_head.0.bias f4 [16]
-0.13329518 -0.108093955 0.20221953 0.07690753 -0.037967507 0.14358942 0.06711658 0.103642784
-0.30681196 0.12170249 0.026729766 0.050078318 0.11814689 0.0053030294 0.10934211 0.08610321
00000000: 887e 08be 5d60 ddbd a312 4f3e b281 9d3d
00000010: d183 1bbd 1b09 133e 6b74 893d ab42 d43d
00000020: 7516 9dbe 283f f93d 62f8 da3c ec1e 4d3d
00000030: fff6 f13d 09c5 ad3b c2ee df3d e156 b03d

slow_choice_head.1.weight f4 [1, 16]
-0.22302945 0.30118388 -0.3423343 0.27178168 -0.36460197 0.23220624 0.20919052 -0.41133952
0.35818768 0.26315156 0.23099469 -0.266046 0.24009019 0.27424988 0.34599215 0.19665842
00000000: d561 64be c634 9a3e 7146 afbe f826 8b3e
00000010: 1cad babe 79c7 6d3e 0a36 563e 189b d2be
00000020: 6064 b73e cdbb 863e df89 6c3e 2e37 88be
00000030: 34da 753e 7b6a 8c3e e225 b13e d360 493e

exp_avg f4 [48, 1]
0.0 0.0 0.0 0.0 0.0 0.0 0.0 0.0
0.0 0.0 0.0 0.0 0.0 0.0 0.0 0.0
0.0 0.0 0.0 0.0 0.0 0.0 0.0 0.0
0.0 0.0 0.0 0.0 0.0 0.0 0.0 0.0
0.0 0.0 0.0 0.0 0.0 0.0 0.0 0.0
0.0 0.0 0.0 0.0 0.0 0.0 0.0 0.0
00000000: 0000 0000 0000 0000 0000 0000 0000 0000
00000010: 0000 0000 0000 0000 0000 0000 0000 0000
00000020: 0000 0000 0000 0000 0000 0000 0000 0000
00000030: 0000 0000 0000 0000 0000 0000 0000 0000
00000040: 0000 0000 0000 0000 0000 0000 0000 0000
00000050: 0000 0000 0000 0000 0000 0000 0000 0000
00000060: 0000 0000 0000 0000 0000 0000 0000 0000
00000070: 0000 0000 0000 0000 0000 0000 0000 0000
00000080: 0000 0000 0000 0000 0000 0000 0000 0000
00000090: 0000 0000 0000 0000 0000 0000 0000 0000
000000a0: 0000 0000 0000 0000 0000 0000 0000 0000
000000b0: 0000 0000 0000 0000 0000 0000 0000 0000

exp_avg_sq f4 [48, 1]
0.0 0.0 0.0 0.0 0.0 0.0 0.0 0.0
0.0 0.0 0.0 0.0 0.0 0.0 0.0 0.0
0.0 0.0 0.0 0.0 0.0 0.0 0.0 0.0
0.0 0.0 0.0 0.0 0.0 0.0 0.0 0.0
0.0 0.0 0.0 0.0 0.0 0.0 0.0 0.0
0.0 0.0 0.0 0.0 0.0 0.0 0.0 0.0
00000000: 0000 0000 0000 0000 0000 0000 0000 0000
00000010: 0000 0000 0000 0000 0000 0000 0000 0000
00000020: 0000 0000 0000 0000 0000 0000 0000 0000
00000030: 0000 0000 0000 0000 0000 0000 0000 0000
00000040: 0000 0000 0000 0000 0000 0000 0000 0000
00000050: 0000 0000 0000 0000 0000 0000 0000 0000
00000060: 0000 0000 0000 0000 0000 0000 0000 0000
00000070: 0000 0000 0000 0000 0000 0000 0000 0000
00000080: 0000 0000 0000 0000 0000 0000 0000 0000
00000090: 0000 0000 0000 0000 0000 0000 0000 0000
000000a0: 0000 0000 0000 0000 0000 0000 0000 0000
000000b0: 0000 0000 0000 0000 0000 0000 0000 0000
