saved_models/slow_fast/checkpoint40.pth (torch, 53998 bytes, 48 tensors)

rnn_slow.weight_ih_l0 f4 [48, 6]
0	0xbd6620b1	-0.05618352
1	0x3dbfe083	0.09368994
2	0x3f3d5ded	0.73971444
3	0xbeb91005	-0.36145034
4	0xbe8a2656	-0.26982373
5	0x3f0b965a	0.54526293
6	0x3d40e858	0.04709658
7	0xbe0c32b0	-0.13691211
8	0x3ecfa27a	0.40553647
9	0xbec0164b	-0.37517008
10	0xbece2786	-0.4026453
11	0x3e55ae9f	0.20867394
12	0xbed4469b	-0.41460118
13	0x3da9acaf	0.0828489
14	0xbe4c6ef0	-0.19964194
15	0x3e74b4b1	0.23897053
16	0xbe4acf03	-0.19805531
17	0x3d2864d1	0.04111177
18	0xbdbde5aa	-0.092723206
19	0xbc9dc17c	-0.0192573
20	0x3dc80b44	0.09767774
21	0x3c637c33	0.013884592
22	0xbeb704eb	-0.3574594
23	0xbddf1114	-0.10891929
24	0x3d93e0af	0.07220589
25	0xbea6dc63	-0.32590017
26	0x3f27c99d	0.6554201
27	0xbf278f07	-0.6545262
28	0xbe8ec720	-0.27886295
29	0x3f197ed6	0.5995916
30	0xbeb64996	-0.35603017
31	0x3dec90aa	0.1155103
32	0x3ee1671f	0.44023988
33	0xbe5480cf	-0.20752262
34	0x3e7142e0	0.23560667
35	0xbe10e63f	-0.14150332
36	0xbe0dea78	-0.13858974
37	0x3eb12408	0.34597802
38	0x3ebafe4c	0.36522138
39	0xbe406d46	-0.18791685
40	0x3ed758b1	0.42059854
41	0xbd67b06a	-0.056564726
42	0x3e94bed8	0.29051852
43	0xbe8fa206	-0.28053302
44	0xbdaacf37	-0.08340304
45	0xbd606150	-0.054780304
46	0x3d5eb715	0.05437382
47	0xbed26c08	-0.41098046
48	0x3ded203d	0.115784146
49	0x3a4b32d1	0.00077514077
50	0x3f209abb	0.627361
51	0xbf1e92e8	-0.6194291
52	0xbf077713	-0.5291607
53	0x3f110392	0.5664607
54	0xbe25d690	-0.1619513
55	0x3e2bfbae	0.16795227
56	0x3ef969d4	0.48713553
57	0xbf0223ac	-0.5083568
58	0x3f024854	0.50891614
59	0xbeecd594	-0.46256697
60	0x3dcbef7d	0.09957788
61	0xbddb2050	-0.106995225
62	0xbecfa12e	-0.40552658
63	0x3ec52ac4	0.3850919
64	0x3d5c5ef2	0.053801484
65	0x3c9ee3e6	0.01939578
66	0xbe89dc53	-0.26925907
67	0x3d44eb6a	0.04807607
68	0x3f42dcc9	0.7611814
69	0xbf247be5	-0.6425155
70	0x3f30e37c	0.69097114
71	0xbe78f91b	-0.24313776
72	0xbe15aa81	-0.14615823
73	0x3e9cd615	0.30632082
74	0xbdf319e2	-0.11870171
75	0xbc39e247	-0.011345453
76	0xbe97a4ec	-0.29618013
77	0x3f31c3f4	0.69439626
78	0x3e39f981	0.18161584
79	0xbd19cb18	-0.0375472
80	0xbe2cd46c	-0.16877908
81	0x3d2a10e0	0.04152
82	0x3f05c2f5	0.52250606
83	0x3c4c66a9	0.012475648
84	0xbefd7ec5	-0.4951078
85	0x3e486882	0.19571117
86	0x3e8f47c8	0.27984452
87	0xbecc0ecc	-0.3985504
88	0x3ad08f55	0.0015911857
89	0xbe6e98c2	-0.2330046
90	0x3df3d390	0.11905587
91	0xbe7e1e3e	-0.24816224
92	0x3e70f9da	0.23532811
93	0xbe7ae38b	-0.24500863
94	0xbdce4d4b	-0.10073336
95	0x3e5a4ef2	0.21319178
96	0xbd5f83c1	-0.05456901
97	0xbcdfdb27	-0.02732618
98	0x3ea04a14	0.31306517
99	0xbecf9b13	-0.40548
100	0xbd5a53ff	-0.05330276
101	0x3e566d39	0.20940103
102	0xbe92b272	-0.28651768
103	0x3e71cf13	0.23614149
104	0x3f04d27c	0.51883674
105	0xbe7afbc3	-0.24510102
106	0xbebbf33e	-0.36709017
107	0x3f3e06c0	0.7422905
108	0xbe047558	-0.12935388
109	0xbe04a35a	-0.12952939
110	0x3e29bf37	0.16576849
111	0xbf27ee1e	-0.65597713
112	0x3f2d77cf	0.6776094
113	0xbf071306	-0.527634
114	0xbe12ad58	-0.14323938
115	0xbd821726	-0.063520715
116	0x3f3211d8	0.6955848
117	0xbf2631d6	-0.64919794
118	0xbf00e1db	-0.5034463
119	0x3e307e59	0.17235698
120	0x3d437873	0.04772229
121	0xbdccc1f7	-0.09997933
122	0x3ec43e46	0.3832876
123	0xbf0e1e2c	-0.5551479
124	0xbecbd337	-0.39809582
125	0x3e8b8dc2	0.2725659
126	0xbe4bbcae	-0.19896194
127	0xbd865449	-0.06559045
128	0x3ee64431	0.449739
129	0xbe8160fd	-0.2526931
130	0x3db24bef	0.087058894
131	0xbf03f2b5	-0.51542217
132	0x3ddcdb2d	0.10783992
133	0x3d628e68	0.05531159
134	0x3f209a89	0.627358
135	0xbf05ecda	-0.5231453
136	0x3e64cd41	0.22343923
137	0xbd8a7948	-0.06761414
138	0xbe7c92a2	-0.24665311
139	0x3e3d4d5f	0.18486546
140	0x3dcfadd1	0.10140575
141	0xbe0ae41a	-0.13563576
142	0xbe6f8dc2	-0.2339392
143	0x3ebc5138	0.36780715
144	0xbeb00039	-0.3437517
145	0xbe945850	-0.28973627
146	0x3f3828ae	0.7193707
147	0xbf03611f	-0.5132007
148	0xbedc6931	-0.43049005
149	0x3e792e18	0.2433399
150	0xbe2a971e	-0.16659209
151	0xbd440653	-0.047857594
152	0x3edf0327	0.43557093
153	0xbf1b2371	-0.60600954
154	0x3eea0ce1	0.4571295
155	0xbe83da3c	-0.25752437
156	0xbe9348ae	-0.28766388
157	0xbc32e8f4	-0.010919798
158	0x3e843a84	0.25825894
159	0xbf12a323	-0.57280177
160	0x3eb5a15e	0.35474676
161	0xbec14a21	-0.37751868
162	0x3db7f159	0.0898158
163	0xbead829b	-0.33888707
164	0x3f170b72	0.5900184
165	0xbf0f7b32	-0.56047356
166	0x3ec37ae4	0.38179696
167	0xbf14abf0	-0.58074856
168	0xbe7172c6	-0.23578939
169	0xbe22b301	-0.15888597
170	0x3d4cc591	0.0499931
171	0xbe47aaa6	-0.19498691
172	0xbe096413	-0.13417082
173	0x3e01ca04	0.12674719
174	0x3c951fd5	0.018203655
175	0xbe809032	-0.25110012
176	0x3f48b3c5	0.78399307
177	0xbf71f961	-0.94521147
178	0x3da1c60e	0.07899104
179	0xbe521086	-0.20514116
180	0xbe51862c	-0.20461339
181	0xbeadce10	-0.33946276
182	0x3ea5d695	0.32390276
183	0x3cd2eb71	0.025747033
184	0xbd8a9bb2	-0.06767978
185	0xbd96cb39	-0.073629804
186	0xbb4c1071	-0.003113773
187	0xbe9718f0	-0.29511213
188	0x3f1d2866	0.6138977
189	0xbe796f92	-0.24358967
190	0xbf091e0f	-0.5356149
191	0x3e700196	0.23438105
192	0x3e437085	0.19085892
193	0x3ea356b0	0.31902075
194	0x3efe16b4	0.49626696
195	0xbf034e8e	-0.5129174
196	0xbea888b0	-0.32916784
197	0x3ea3a0ba	0.31958562
198	0x3c953fb0	0.018218845
199	0x3e6c4d01	0.2307625
200	0x3f0b4919	0.54408413
201	0xbf072ec4	-0.52805734
202	0xbe950215	-0.2910315
203	0x3e215db9	0.15758409
204	0xbe7fb3e3	-0.24970965
205	0xbda6c6a9	-0.0814336
206	0xbf0cf363	-0.5505888
207	0x3eba27d1	0.36358503
208	0xbe9f54fa	-0.3111952
209	0xbd98d9f1	-0.07463444
210	0x3b6525f4	0.0034965249
211	0xbe97e2dd	-0.2966527
212	0x3eb268a1	0.3484545
213	0xbe0bb81f	-0.13644455
214	0xbd41d379	-0.047320817
215	0x3eae90f9	0.3409498
216	0xbc5f41ae	-0.013626499
217	0x3e1b1aea	0.15146986
218	0xbf0ee2e7	-0.55814976
219	0x3ea63ede	0.3246984
220	0x3ee74e27	0.45176813
221	0xbeb00c78	-0.34384513
222	0x3e61fbe8	0.22068751
223	0xbca13757	-0.019679708
224	0x3f09c2be	0.5381278
225	0xbee9ad86	-0.456402
226	0x3ecb3416	0.39688176
227	0xbe86b9cd	-0.2631363
228	0x3e3dedc2	0.18547729
229	0xbddea858	-0.10871953
230	0x3e95514e	0.29163593
231	0xbd2ac294	-0.04168947
232	0x3e838c9b	0.2569321
233	0xbe0a7168	-0.13519824
234	0x3e10b6cc	0.14132231
235	0x3c0ce2bf	0.008598982
236	0x3e1068eb	0.14102523
237	0x3f0204a8	0.50788355
238	0xbe3547d3	-0.1770318
239	0x3db66adf	0.08907103
240	0xbd69c8e5	-0.057076354
241	0xbd9524df	-0.07282423
242	0xbeec04e9	-0.46097496
243	0x3edfc035	0.4370133
244	0x3e8404bb	0.2578486
245	0xbf194118	-0.5986495
246	0x3c1d2c52	0.009593086
247	0xbd2577d1	-0.04039747
248	0x3f27cba8	0.6554513
249	0xbe812902	-0.252266
250	0x3e005491	0.1253226
251	0xbec2950a	-0.38004333
252	0x3da62743	0.08112957
253	0x3e1371d1	0.14398886
254	0x3f0fd963	0.5619108
255	0x3d3a90cd	0.04554825

rnn_slow.weight_hh_l0 f4 [48, 16]
0	0x3e12ad51	0.14323927
1	0x3d66ade7	0.05631819
2	0xbda2bab9	-0.07945771
3	0x3d1ef2d1	0.038805787
4	0xbe01fe73	-0.12694721
5	0xbe2f6610	-0.17128778
6	0xbe5ce262	-0.21570733
7	0xbe5fdc81	-0.2186146
8	0xbe24bd32	-0.16087797
9	0xbe640168	-0.22266161
10	0x3dfe9a90	0.12431824
11	0xbd86c741	-0.065809734
12	0xbdea3179	-0.114352174
13	0xbe013834	-0.12619096
14	0x3dec957e	0.11551951
15	0x3d968171	0.07348908
16	0x3e408fdf	0.18804882
17	0xbe4fa9cf	-0.2027962
18	0x3e44b6fc	0.19210428
19	0xbe17b116	-0.14813647
20	0x3e15e2fb	0.14637367
21	0xbe53477b	-0.20632736
22	0x3f093062	0.5358945
23	0x3d76075e	0.06006562
24	0x3d9439d7	0.072375946
25	0xbe5cca4e	-0.21561548
26	0x3e95aa94	0.29231703
27	0x3cf8a6d2	0.030352984
28	0x3e9688f2	0.29401356
29	0xbe35c8ee	-0.1775243
30	0x3cf66611	0.030077966
31	0x3e8f1bb7	0.27950832
32	0x3d6a5dab	0.057218235
33	0xbd8ea9f5	-0.069660105
34	0x3ea7a152	0.32740265
35	0x3e945175	0.28968397
36	0x3e4f5182	0.20245937
37	0xbdb53a45	-0.08849005
38	0xbbf59d0a	-0.007495527
39	0x3df69eb7	0.12041991
40	0xbe5c3279	-0.21503629
41	0x3e349320	0.17634249
42	0x3d05dcf3	0.032681417
43	0xbc4f0c13	-0.012637156
44	0xbd2e436f	-0.04254478
45	0xbd05d826	-0.03267684
46	0xbd235487	-0.039875533
47	0x3d55b047	0.052170064
48	0xbe9b1835	-0.30291906
49	0xbeaa7a01	-0.33296207
50	0x3e4dd18c	0.20099467
51	0x3d92d8bc	0.07170245
52	0x3ea08af6	0.3135602
53	0xbe8f87fa	-0.2803343
54	0xbcf4c237	-0.029877765
55	0x3c2ef731	0.010679052
56	0xbe041df1	-0.12902047
57	0x3df11239	0.11771054
58	0x3d11a89d	0.035561193
59	0xbcabfaac	-0.020993553
60	0xbd6d5b9f	-0.057948705
61	0x3e523322	0.20527318
62	0xbd1ed6ef	-0.038779195
63	0x3e96c62e	0.29448074
64	0x3e84f1ad	0.25965634
65	0x3e8e6033	0.2780777
66	0x3e2011bd	0.15631767
67	0x3c8c74ab	0.017145475
68	0x3d973e05	0.07384876
69	0xbedc234d	-0.42995682
70	0x3e3f2e4e	0.18670008
71	0x3e40d76a	0.18832174
72	0xbe818ada	-0.25301248
73	0xbd81e347	-0.06342178
74	0x3cdd74d6	0.02703325
75	0x3d179f77	0.037017312
76	0xbd925342	-0.071447864
77	0x3e3f56c5	0.18685444
78	0x3e8c9b69	0.2746232
79	0x3a6b5e71	0.00089786114
80	0x3e7bcab7	0.24589048
81	0xbd4f6f6c	-0.05064337
82	0xbd307cbe	-0.043087713
83	0x3ebc9a54	0.36836493
84	0xbdbe7871	-0.09300316
85	0x3e3fbfe1	0.1872554
86	0xbde1a755	-0.11018244
87	0x3d0ed7b8	0.034873694
88	0x3db0a870	0.08625877
89	0xbe463f37	-0.19360052
90	0xbede0c33	-0.43368682
91	0xbeaf421b	-0.34230122
92	0xbd27d4e0	-0.040974498
93	0x3d9dda6e	0.07707678
94	0x3dc02e73	0.093838595
95	0x3de42d3e	0.11141442
96	0x3e56000c	0.20898455
97	0xbdb97fe2	-0.09057595
98	0xbd9b493a	-0.07582326
99	0x3ebe8c9e	0.37216657
100	0xbef22aa6	-0.47298163
101	0x3e591168	0.21198046
102	0xbe76a1c8	-0.24085152
103	0x3d23f08c	0.040024325
104	0xbedd416b	-0.43213972
105	0xbdf486c4	-0.11939767
106	0xbe12b72b	-0.14327686
107	0xbdd1dcb4	-0.10247174
108	0xbe86a289	-0.2629588
109	0xbdcfc4e1	-0.101449735
110	0x3e2a21a2	0.16614392
111	0xbe8f6ab2	-0.2801109
112	0xbee81418	-0.4532783
113	0xbe8a95b1	-0.2706733
114	0xbe843754	-0.25823462
115	0xbda6041c	-0.081062526
116	0x3f0debec	0.55438113
117	0x3edde6da	0.43340188
118	0x3dd41620	0.103557825
119	0xbe9ca600	-0.30595398
120	0x3edb4554	0.4282633
121	0x3e7ff1ea	0.24994627
122	0x3e646e35	0.22307666
123	0xbd8698d7	-0.06572121
124	0xbdcd8102	-0.10034372
125	0x3d5a1dd6	0.05325111
126	0xbe58ff06	-0.21191034
127	0x3da83696	0.082135364
128	0x3c4a478a	0.012346158
129	0x3e504314	0.20338088
130	0xbdb6b41a	-0.089210704
131	0x3db9a3e4	0.09064463
132	0x3e24b811	0.16085841
133	0xbe8d359b	-0.2757996
134	0xbddeff0b	-0.10888489
135	0x3df79123	0.120882295
136	0xbe7fbe68	-0.24974978
137	0x3e33d4b5	0.1756161
138	0x3dd8cef1	0.10586346
139	0x3d922cf9	0.07137484
140	0xbe0de780	-0.13857841
141	0xbe3f65c5	-0.18691166
142	0xbe2b3fba	-0.16723529
143	0x3ec2be69	0.38035896
144	0xbea0af52	-0.3138376
145	0x3cfcb943	0.030850058
146	0x3e4821a7	0.19544087
147	0x3eaa473e	0.33257478
148	0x3d9f065b	0.07764884
149	0x3e683449	0.22676195
150	0xbe4846f9	-0.19558324
151	0x3e9a7d9a	0.3017395
152	0x3da7caa0	0.081929445
153	0x3e6432d0	0.22285008
154	0xbe81c95b	-0.25348935
155	0x3b8dc82c	0.004326841
156	0x3e1361d4	0.14392787
157	0x3cbc8eba	0.023017276
158	0xbdd0edaa	-0.10201581
159	0x3db65bf5	0.08904258
160	0xbeb08738	-0.34478164
161	0x3dd08e23	0.101833604
162	0x3e492d7d	0.19646259
163	0xbea05676	-0.31315964
164	0x3e9df938	0.308542
165	0xbe92ff09	-0.287102
166	0x3d880f9a	0.06643601
167	0x3e583297	0.21113048
168	0x3ea7a231	0.3274093
169	0xbe963dd0	-0.29344034
170	0x3e65056e	0.22365353
171	0x3e138aa9	0.14408363
172	0xbd7d17a7	-0.061790135
173	0xbe0580b6	-0.1303738
174	0x3e5f2501	0.2179146
175	0x3daa19df	0.08305716
176	0xbe945b43	-0.28975877
177	0x3e229973	0.15878849
178	0xbe047b11	-0.12937571
179	0x3e11a5c7	0.14223395
180	0xbe24e990	-0.16104722
181	0x3e2e62d0	0.17029881
182	0xbd9801fb	-0.07422253
183	0xbee745c7	-0.45170423
184	0x3eaa2cac	0.33237207
185	0x3e6af5f7	0.2294539
186	0xbe655196	-0.22394404
187	0x3e8bed02	0.2732926
188	0xbd866700	-0.065626144
189	0xbe621ad0	-0.2208054
190	0xbe9b01bf	-0.3027477
191	0x3df5a748	0.11994797
192	0x3de9e138	0.1141991
193	0x3dcb2421	0.099190004
194	0x3e89b090	0.2689252
195	0x3c91fd15	0.017820874
196	0x3ec8076c	0.39068162
197	0xbeab8f35	-0.33507696
198	0xbdf89d50	-0.1213938
199	0x3dcb2f94	0.09921184
200	0x3d66e112	0.056366988
201	0xbe5b945d	-0.21443315
202	0xbeed4bfb	-0.4634703
203	0x3e818fe7	0.253051
204	0x3e47f1a4	0.19525772
205	0x3e71c1ef	0.23609136
206	0x3d7f408a	0.06231741
207	0x3e0d2b57	0.13786064
208	0xbd974eae	-0.07388054
209	0x3e05a36c	0.13050622
210	0x3cff7a03	0.03118611
211	0x3e15b3dd	0.14619394
212	0x3e5f90b6	0.21832547
213	0xbd4382c5	-0.047732133
214	0xbe00d26c	-0.1258027
215	0xbb2fe75f	-0.0026840789
216	0xbd746058	-0.059662193
217	0xbe25cac6	-0.16190633
218	0x3e833f24	0.2563411
219	0xbe9c5b35	-0.30538335
220	0x3e5594bf	0.20857523
221	0xbbd59586	-0.0065180687
222	0x3cdf776e	0.027278628
223	0x3eb5c4cc	0.35501707
224	0xbe1bb6cb	-0.15206449
225	0x3d96d05f	0.073639624
226	0x3d036b05	0.032084484
227	0x3e033bc0	0.12815762
228	0xbea6af9b	-0.3255585
229	0x3e28e8c2	0.1649504
230	0xbd2ab655	-0.04167779
231	0x3de3f3b9	0.11130471
232	0xbec574a6	-0.38565558
233	0xbe8ba946	-0.27277583
234	0xbe22f6e0	-0.15914488
235	0x3e35cd2d	0.1775405
236	0xbe0eb39f	-0.13935708
237	0x3e46b7fe	0.19406125
238	0x3ec80a4d	0.3907036
239	0xbf013c24	-0.5048239
240	0x3e5db61a	0.21651497
241	0xbbdb1e31	-0.0066869487
242	0x3ded9fc1	0.11602736
243	0xbe3fbc2a	-0.18724123
244	0x3dfe6d86	0.12423234
245	0x3eb1455b	0.34623227
246	0x3efb5627	0.49089167
247	0xbdf2bc50	-0.11852324
248	0xbe8f6eb9	-0.28014162
249	0xbaa54c84	-0.0012611304
250	0x3ef7a28e	0.48366207
251	0xbe3f8a89	-0.1870519
252	0x3e127559	0.14302577
253	0x3e8fc2bf	0.28078267
254	0xbeac855c	-0.33695495
255	0xbd94a634	-0.07258263

rnn_slow.bias_ih_l0 f4 [48]
0	0xbc872c38	-0.016500577
1	0x3e992a0f	0.299149
2	0x3d3dcbbd	0.046336878
3	0x3e2e2afb	0.17008583
4	0xbde73de3	-0.11291101
5	0x3dc4520c	0.09585962
6	0x3d945745	0.07243208
7	0x3daf9e9d	0.08575175
8	0xbe5cbd10	-0.21556497
9	0x3e5c8fcb	0.21539228
10	0x3e2accec	0.16679734
11	0xbb63a62a	-0.0034736493
12	0x3e805dbd	0.25071517
13	0xbd19bfae	-0.037536316
14	0x3c7c8faa	0.015415112
15	0xbddc9695	-0.10770909
16	0xbebbf205	-0.36708084
17	0xbc0f4679	-0.008744829
18	0xbe55117c	-0.20807451
19	0xbe07a4ba	-0.13246432
20	0xbce60183	-0.028076893
21	0xb6d76682	-6.419433e-06
22	0xbd7677ba	-0.060172774
23	0x3e3426b0	0.17592883
24	0xbea6ea46	-0.3260061
25	0xbe9cd13d	-0.30628386
26	0xbe32488d	-0.17410488
27	0xbe341f39	-0.17590035
28	0xbe98ab6c	-0.29818285
29	0x3d49181a	0.04909525
30	0xbe58128f	-0.2110083
31	0xbcdc7c42	-0.02691472
32	0x3e56932d	0.2095458
33	0x3e90cb32	0.28280026
34	0xbda7dd62	-0.08196522
35	0x3df88041	0.121338375
36	0x3c62d6cc	0.013845157
37	0x3d7bd3d7	0.061481323
38	0xbde6d640	-0.11271334
39	0x3eaed7b0	0.34148932
40	0x3e4fde87	0.20299731
41	0xbbb21221	-0.00543429
42	0x3d3e3aa4	0.046442643
43	0x3d77b20e	0.06047254
44	0x3e5649f5	0.2092665
45	0x3de56ebe	0.11202763
46	0xbe74d1ea	-0.23908201
47	0x3c921396	0.017831605

rnn_slow.bias_hh_l0 f4 [48]
0	0x3d5da63c	0.05411361
1	0x3e86e966	0.26349944
2	0xbda5059e	-0.08057712
3	0x3e0cd984	0.1375485
4	0x3dc75d3e	0.097345814
5	0xbdcb7234	-0.09933892
6	0xbdab881c	-0.0837557
7	0xbec179bd	-0.3778819
8	0xbe21800f	-0.15771507
9	0xbd3e3cae	-0.046444587
10	0xbe159356	-0.14606985
11	0x3dce00ea	0.10058768
12	0x3e7e435b	0.24830382
13	0xbd2ffc85	-0.04296543
14	0x3e7ac924	0.24490792
15	0x3d85677d	0.065138794
16	0xbe9e9c21	-0.30978492
17	0xbe6cd1fc	-0.23126978
18	0x3d9aeb2d	0.075643875
19	0x3d70766c	0.058706686
20	0x3e44aa5b	0.1920561
21	0x3d80f1d9	0.06296129
22	0xbb8f6d43	-0.0043770387
23	0x3df8b4da	0.1214387
24	0xbdb7febc	-0.089841336
25	0xbe2a6b31	-0.16642453
26	0xbe469405	-0.19392402
27	0xbd8c4437	-0.068489484
28	0xbeafdfd2	-0.3435045
29	0xbe936ec9	-0.2879546
30	0x3d7d1c9f	0.061794873
31	0xbe499fea	-0.19689909
32	0x3e9ff5be	0.31242174
33	0x3d443344	0.047900453
34	0x3d8ede4a	0.06975992
35	0x3de9d8cf	0.11418306
36	0xbefed3b5	-0.49770895
37	0x3e779e1f	0.24181412
38	0x3ecba8b7	0.39777157
39	0xbdfe506d	-0.12417684
40	0xbe9fca7f	-0.3120918
41	0x3e8a9d3e	0.2707309
42	0xbd47df3e	-0.048796885
43	0xbeab5805	-0.3346559
44	0x3d937fbe	0.07202099
45	0x3dbace63	0.091213964
46	0xbe911b72	-0.28341252
47	0xbdc244a5	-0.09485749

project_sf.weight f4 [16, 16]
0	0x3bd31292	0.0064414227
1	0x3df21380	0.118201256
2	0xbe87db8f	-0.26534697
3	0x3e12591f	0.1429181
4	0xbd98706e	-0.07443319
5	0xbc4e67b8	-0.012597971
6	0x3d18fd35	0.037350852
7	0xbe890f5c	-0.2676953
8	0x3d3b5329	0.045733605
9	0x3dc03f17	0.093870334
10	0xbcf99d1e	-0.030470427
11	0xbe6b3157	-0.2296804
12	0x3e295551	0.16536452
13	0xbe4ab460	-0.1979537
14	0xbe0d7328	-0.1381346
15	0x3e31675f	0.17324589
16	0xbaa8b4b9	-0.0012871242
17	0xbe262b40	-0.16227436
18	0xbdd64031	-0.10461462
19	0x3e6fe566	0.23427352
20	0x3e1699f2	0.14707163
21	0xbe3a1801	-0.1817322
22	0x3ce848e8	0.028355077
23	0x3e7cf13d	0.247014
24	0x3ead5d47	0.33860227
25	0x3e3e4d16	0.18584093
26	0x3e489f95	0.19592126
27	0xbd6a07b7	-0.057136264
28	0xbd8f2294	-0.06989017
29	0x3ed9fc78	0.4257543
30	0x3d8cf479	0.06882567
31	0xbdc1a495	-0.0945522
32	0xbe3cf792	-0.18453816
33	0xbe6a5744	-0.22884852
34	0xbdd04c59	-0.10170812
35	0x3dd36498	0.10321921
36	0xbdd655e5	-0.10465602
37	0xbe0268ef	-0.12735341
38	0x3e88cbba	0.2671793
39	0xbb539c71	-0.0032289291
40	0x3dc63b53	0.09679284
41	0x3e3ed6f4	0.18636686
42	0xbbd06b41	-0.006360442
43	0x3be76deb	0.007062664
44	0xbe427a65	-0.18992002
45	0x3e47078c	0.19436473
46	0xbe42d414	-0.19026214
47	0xbe6e397b	-0.23264115
48	0x3d0e5c7d	0.034756172
49	0x3d69e43a	0.05710242
50	0x3e2b446b	0.16725318
51	0x3d8924e2	0.06696488
52	0xbe75abda	-0.23991337
53	0x3d91a819	0.0711214
54	0x3e80682d	0.2507948
55	0xbe06f712	-0.13180187
56	0xbdd49e4c	-0.10381755
57	0xbdda2019	-0.106506534
58	0xbc2879c6	-0.010282939
59	0xbe131af9	-0.14365758
60	0xbd51929b	-0.051165204
61	0x3e26d9e6	0.16294059
62	0xbd6033f3	-0.054737043
63	0x3d23415e	0.03985726
64	0xbe327708	-0.1742822
65	0x3e54bf7b	0.20776169
66	0xbe2eef64	-0.17083508
67	0xbe020846	-0.12698469
68	0xbd8a8419	-0.06763477
69	0xbdcf68e2	-0.10127427
70	0x3ec57a8a	0.38570052
71	0x3e57679c	0.21035618
72	0x3e1655da	0.14681187
73	0xbd12a356	-0.0358003
74	0x3ddca364	0.10773352
75	0x3df1809b	0.11792108
76	0x3d688ab3	0.0567729
77	0x3e90b396	0.28262013
78	0xbda5d54f	-0.08097326
79	0xbecc2fca	-0.3988021
80	0x3e2ef3dd	0.17085214
81	0xbc620941	-0.013796152
82	0xbd7be621	-0.061498765
83	0x3e1beb45	0.15226467
84	0x3e44f810	0.19235253
85	0xbe37793a	-0.17917338
86	0x3e04c586	0.12965974
87	0x3ecc4306	0.39894885
88	0xbdb15791	-0.0865928
89	0xbd953c7a	-0.072869256
90	0x3dd8b48d	0.10581312
91	0x3e8c2706	0.27373523
92	0x3e82f95c	0.2558087
93	0x3e94ff53	0.29101047
94	0x3e56420e	0.20923635
95	0xbcb08a7f	-0.021550415
96	0xbe5cf412	-0.2157748
97	0xbe70f798	-0.2353195
98	0xbe833529	-0.25626495
99	0xbeb12c0f	-0.34603927
100	0xbe1728ec	-0.14761704
101	0x3e34fcb4	0.17674524
102	0x3ea1fd4d	0.31638566
103	0x3e017607	0.1264268
104	0x3e1b81a5	0.15186174
105	0xbe207841	-0.15670873
106	0x3e65a090	0.22424531
107	0xbe565d55	-0.20934041
108	0x3c59a43e	0.013283787
109	0xbe252aaf	-0.16129564
110	0x3e0116f9	0.1260642
111	0xbdfe996f	-0.12431609
112	0xbe5e0736	-0.21682438
113	0x3de71c7b	0.11284729
114	0x3e9c1e1a	0.30491716
115	0xbea6ada6	-0.32554358
116	0x3e83b9c1	0.25727656
117	0x3dec7cb3	0.11547222
118	0xbddf2a3e	-0.10896729
119	0x3e349875	0.17636283
120	0xbe079ad2	-0.13242653
121	0xbe28db4e	-0.16489908
122	0x3da40ed2	0.08010639
123	0xbd023631	-0.031789962
124	0xbe2e34b2	-0.17012289
125	0xbe5a6d7c	-0.21330827
126	0x3e88b9f1	0.26704362
127	0xbe683894	-0.22677833
128	0x3dbc3e7b	0.09191605
129	0x3e4c0d99	0.19927062
130	0x3e8bd5dd	0.27311602
131	0xbdd25462	-0.10270001
132	0xbdc16b8f	-0.09444343
133	0xbe3e5bb1	-0.18589665
134	0x3dec1a17	0.11528414
135	0x3e7fb2ce	0.24970552
136	0x3e9986f5	0.29985777
137	0x3df006bf	0.11720037
138	0xbe68e117	-0.22742115
139	0x3e3f50fa	0.18683234
140	0x3d4f164f	0.050558385
141	0xbda9fe28	-0.083004296
142	0xbdc3c987	-0.09559923
143	0xbe4da713	-0.20083265
144	0xbe5178a1	-0.20456173
145	0x3dd53aae	0.10411583
146	0x3e32f392	0.17475727
147	0x3c0095fa	0.007848257
148	0xbc65c1eb	-0.014023284
149	0xbe4872f5	-0.19575103
150	0xbc80b4a4	-0.015711136
151	0xbd8e2720	-0.06941056
152	0x3e0c263d	0.13686462
153	0xbe29233b	-0.16517346
154	0xbe69d5a7	-0.22835408
155	0x3e94594e	0.28974384
156	0x3e81f05a	0.25378686
157	0x3e22c141	0.15894033
158	0xbdbd1fdd	-0.09234593
159	0xbd7bef98	-0.06150779
160	0x3da6fedd	0.0815408
161	0xbe6f36b4	-0.23360711
162	0x3ca44770	0.020053595
163	0x3d8a1400	0.06742096
164	0xbe1ce7e2	-0.15322831
165	0x3e7a0c00	0.2441864
166	0xbde83d28	-0.1133979
167	0xbd35f07d	-0.0444188
168	0x3e3020af	0.17199968
169	0xbe63925c	-0.222238
170	0x3be09b28	0.0068544336
171	0x3e99a3db	0.30007824
172	0xbdb46401	-0.08808137
173	0x3d122226	0.035677098
174	0x3c44ead8	0.012018882
175	0x3dd8883f	0.10572862
176	0xbd40c784	-0.047065273
177	0xbbd20638	-0.0064094327
178	0x3b219011	0.002465252
179	0xbda1fba2	-0.07909323
180	0xbe2c0ff6	-0.16802964
181	0xbd1f321d	-0.03886615
182	0x3e683053	0.22674684
183	0x3e5574dd	0.20845361
184	0x3e52dbd4	0.2059167
185	0xbd57374a	-0.052542962
186	0xbe0575d5	-0.1303323
187	0x3d8d952a	0.069132164
188	0x3c4146e0	0.011796683
189	0x3e89f0b6	0.2694146
190	0x3d94bf47	0.07263046
191	0xbe5c2f82	-0.21502498
192	0x3e855e96	0.26048726
193	0x3e404b02	0.18778613
194	0xbe868352	-0.26272064
195	0xbe3532d5	-0.17695172
196	0xbdf47520	-0.11936402
197	0x3e8eedfa	0.27915937
198	0x3bdcf591	0.006743141
199	0xbc392566	-0.01130042
200	0x3e241cfc	0.16026682
201	0x3eae286f	0.34015223
202	0x3c57945c	0.01315793
203	0xbeaa7e7b	-0.33299622
204	0xbe05fef7	-0.13085543
205	0x3c3437fc	0.010999676
206	0xbe424250	-0.18970609
207	0x3e2bb7d0	0.16769338
208	0x3caf462e	0.021395769
209	0x3e153907	0.14572535
210	0x3c7c1342	0.015385451
211	0x3d9a20ee	0.07525812
212	0x3e0937ba	0.13400164
213	0xbded0e60	-0.115750074
214	0xbdda3db9	-0.10656304
215	0xbdef0460	-0.11670756
216	0x3cda1177	0.026619656
217	0x3e28b780	0.1647625
218	0x3d8337a8	0.064071
219	0xbe4011a5	-0.18756731
220	0xbd330b08	-0.043711692
221	0x3e34a685	0.17641647
222	0xbe785fd0	-0.242553
223	0xbe682eac	-0.22674054
224	0xbe995ed9	-0.29955176
225	0xbe34221b	-0.17591135
226	0x3eb0454e	0.34427875
227	0xbeabea7e	-0.3357734
228	0x3e638ce9	0.22221722
229	0x3d81de14	0.06341186
230	0xbe2555c7	-0.16146003
231	0x3e7706a7	0.24123631
232	0x3e364118	0.17798269
233	0x3ccaf287	0.02477385
234	0x3e0eb218	0.13935125
235	0x3e96c206	0.29444903
236	0xbe085301	-0.13312913
237	0x3ea056f4	0.3131634
238	0x3ddf9e65	0.10918883
239	0xbe7f7ec7	-0.24950705
240	0x3dcb2774	0.099196345
241	0x3eae9ba2	0.34103113
242	0xbe783f52	-0.24242905
243	0x3e815a2e	0.25264114
244	0x3e1816da	0.14852467
245	0x3ea7d393	0.32778606
246	0xbd947d28	-0.07250434
247	0xbe1adb52	-0.15122727
248	0xbe9ab0a4	-0.3021289
249	0x3eb17dc2	0.34666258
250	0x3e37fd88	0.17967808
251	0xbd33241d	-0.043735612
252	0x3eb4bbfa	0.35299665
253	0x38f7cd87	0.0001181616
254	0xbe41e106	-0.18933496
255	0xbd926f6d	-0.07150159

project_sf.bias f4 [16]
0	0xbd84341a	-0.0645525
1	0x3ef91694	0.48650038
2	0x3e19ce56	0.15020117
3	0xbdb2bf9a	-0.08727951
4	0xbdaa96c1	-0.08329535
5	0x3c8c6e64	0.017142482
6	0xbe4dc63f	-0.20095156
7	0x3df28567	0.11841851
8	0x3d9acd54	0.075586945
9	0xbdd0218e	-0.1016265
10	0xbde05a63	-0.1095474
11	0xbe94d411	-0.29068044
12	0x3e60b2dc	0.2194323
13	0xbda61489	-0.081093855
14	0xbe64ebb6	-0.22355542
15	0x3d244051	0.0401004

rnn_fast.weight_ih_l0 f4 [48, 1]
0	0xbe478a00	-0.19486237
1	0x3c105aa0	0.008810669
2	0xbd6b7728	-0.057486683
3	0x3cbaf7e0	0.022823274
4	0xbdbecde8	-0.09316617
5	0xbe304c04	-0.17216498
6	0x3e0fbffc	0.1403808
7	0x3e27b632	0.16378096
8	0x3d87dd0c	0.06633958
9	0x3dc26888	0.09492594
10	0xbdc8e164	-0.09808615
11	0xbd978ec0	-0.07400274
12	0xbe1bbcc8	-0.15208733
13	0x3cf7c9a0	0.03024751
14	0x3e5faeb6	0.2184399
15	0x3e372ea6	0.17888889
16	0x3d8a4ba4	0.067527086
17	0xbdc19f6c	-0.094542354
18	0xbd975a78	-0.073903024
19	0xbe20c312	-0.15699413
20	0x3d75e970	0.060037076
21	0xbe6a7540	-0.2289629
22	0x3e2ede64	0.17077023
23	0x3e263a2e	0.16233131
24	0xbe758c82	-0.2397938
25	0xbd4ebb70	-0.050471723
26	0x3d91c6cc	0.071179956
27	0x3e0b2fd6	0.13592467
28	0xbe41e442	-0.1893473
29	0xb8adb000	-8.2820654e-05
30	0x3d425808	0.047447234
31	0x3d733c70	0.05938381
32	0xbe5956d6	-0.21224532
33	0x3e76fc9a	0.24119797
34	0x3c8d8c00	0.017278671
35	0xbda36418	-0.07978076
36	0x3e13f330	0.14448237
37	0xbe1debde	-0.15422007
38	0xbd02f2c0	-0.031969786
39	0xbd733528	-0.059376866
40	0xbe792b5e	-0.2433295
41	0x3e6d28b4	0.23160058
42	0x3e18712c	0.14886922
43	0x3ddd4678	0.108044565
44	0xbe5a48ec	-0.2131688
45	0x3e63e4a4	0.22255188
46	0x3de5bf1c	0.11218092
47	0x3e585506	0.21126184

rnn_fast.weight_hh_l0 f4 [48, 16]
0	0xbe6681ad	-0.22510405
1	0x3e23574a	0.15951267
2	0xbdcca7d3	-0.099929474
3	0xbe307b77	-0.17234598
4	0x3e4996a5	0.19686373
5	0x3e5fdb18	0.21860921
6	0x3dd0d4f5	0.10196868
7	0xbb8125b0	-0.0039412603
8	0x3e1d2800	0.1534729
9	0x3e288e0f	0.16460441
10	0x3e02693f	0.1273546
11	0x3d8f88f3	0.07008543
12	0x3e6cc273	0.23121051
13	0xbe4fa6b1	-0.20278431
14	0xbe4c8ef9	-0.19976415
15	0xbe32d430	-0.17463756
16	0xbe59a2b1	-0.21253468
17	0xbdd627c5	-0.10456804
18	0x3e0bdefd	0.13659282
19	0x3e6f8743	0.23391442
20	0xbdf0c0ef	-0.11755549
21	0xbe7fdd84	-0.24986845
22	0xbe3bd450	-0.1834271
23	0xbd96e2cc	-0.07367477
24	0x3e5e6aee	0.21720478
25	0x3df78377	0.12085622
26	0x3e6fcef4	0.2341879
27	0xbe3c328c	-0.18378657
28	0xbd864616	-0.065563366
29	0xbce7c37e	-0.02829146
30	0x3e67b01a	0.22625771
31	0xbe12622e	-0.14295265
32	0xbe392728	-0.18081343
33	0x3e3e9e00	0.1861496
34	0x3e168157	0.14697777
35	0x3e3e565b	0.1858763
36	0x3d001d09	0.03127769
37	0xbe041852	-0.12899902
38	0xbe2efce3	-0.17088656
39	0x3bf6f2a8	0.007536251
40	0xbcfcb047	-0.030845774
41	0x3e32a9b4	0.17447549
42	0x3dd09de8	0.10186368
43	0x3d8b1789	0.06791598
44	0xbd1b1ca6	-0.03786912
45	0x3d22161c	0.039571866
46	0xbe2f6526	-0.17128429
47	0xbe5cd962	-0.215673
48	0xbe411f11	-0.18859507
49	0x3e698b8d	0.2280714
50	0x3dfd5e50	0.12371504
51	0x3de9b25b	0.11410972
52	0x3e65b7fb	0.22433464
53	0x3e2723b4	0.16322213
54	0xbdcd80e8	-0.100343525
55	0xbe35906f	-0.17730878
56	0x3cc3d64c	0.023905896
57	0x3d9948e9	0.0748461
58	0xbdecab47	-0.11556106
59	0xbdf9c597	-0.121958904
60	0x3e1ea09e	0.15490958
61	0x3c85dab7	0.016339643
62	0xbe4876d9	-0.19576587
63	0xbe5d9b81	-0.21641351
64	0x3e3a7c5b	0.182115
65	0x3d58e121	0.052949075
66	0xbbe55264	-0.006998347
67	0x3d24a157	0.04019293
68	0x3e2d6046	0.16931257
69	0x3e3a84a6	0.18214664
70	0x3dee9a5b	0.11650535
71	0x3e3ea40b	0.18617265
72	0xbd4d0e6e	-0.05006259
73	0x3d233481	0.039844994
74	0x3e258487	0.16163836
75	0x3e4c1519	0.19929923
76	0x3deab8cb	0.11461028
77	0xba93ee40	-0.0011286214
78	0x3e48bde7	0.19603692
79	0x3d1b4390	0.03790623
80	0x3e5b41ba	0.21411791
81	0xbda47011	-0.080291875
82	0x3da6248e	0.08112441
83	0x3e47dd4a	0.19518009
84	0x3e192bfc	0.14958185
85	0x3dc90260	0.09814906
86	0xbe852dd5	-0.2601153
87	0xbd86c830	-0.065811515
88	0x3e7ed6c2	0.24886611
89	0xbdc1fab6	-0.094716474
90	0xbe1f7bd6	-0.15574583
91	0xbd34eabe	-0.04416918
92	0xbe0cb8a0	-0.13742304
93	0xbe50d218	-0.20392644
94	0xbdea53d6	-0.11441772
95	0xbe6822b9	-0.22669496
96	0x3e470153	0.19434099
97	0xbdd85170	-0.10562408
98	0x3ccbe09f	0.024887381
99	0x3dd88099	0.10571403
100	0xbd155393	-0.036456656
101	0xbe3cd04a	-0.18438831
102	0xbd771562	-0.060323127
103	0xbe12aab4	-0.1432293
104	0xbe54d826	-0.20785579
105	0xbe3bd6bb	-0.18343632
106	0xbdeb02a4	-0.11475113
107	0xbe74b5f8	-0.2389754
108	0xbe065e04	-0.13121802
109	0x3e2b6342	0.16737083
110	0xbcd8946a	-0.026437957
111	0x3cb9abc2	0.022664908
112	0x3e52fa9f	0.20603417
113	0x3e18252e	0.14857933
114	0xbd041f7e	-0.032256596
115	0xbda461a5	-0.08026437
116	0xbd9a1b94	-0.07524791
117	0x3e2728cf	0.16324161
118	0x3dbb403a	0.091431096
119	0xbe4abf6a	-0.19799581
120	0xbe4a1602	-0.19734958
121	0xbe4346c1	-0.19069959
122	0x3e696be0	0.22795057
123	0x3dcb08c9	0.09913785
124	0xbd667c3b	-0.05627082
125	0x3d2f5eee	0.04281514
126	0x3e3f1170	0.18658996
127	0xbd4fafef	-0.050704893
128	0x3e62ac94	0.22136146
129	0x3e446127	0.19177686
130	0xbdecd223	-0.11563518
131	0x3da651f9	0.08121104
132	0x3e7584d9	0.23976459
133	0xbe46fd15	-0.1943248
134	0x3e3276da	0.17428151
135	0x3d6f950a	0.058491744
136	0x3e788d9b	0.24272768
137	0x3d9be2ca	0.07611616
138	0xbe1948ea	-0.14969221
139	0x3e54749d	0.2074761
140	0x3e509716	0.20370135
141	0xbe22e738	-0.15908515
142	0x3de22f9f	0.11044239
143	0x3e565189	0.2092954
144	0xbe32ff13	-0.17480116
145	0xbd8e02b1	-0.06934107
146	0x3c7b5c61	0.015341849
147	0x3e741179	0.2383479
148	0xbdb398b4	-0.0876936
149	0x3d60a8f6	0.054848634
150	0x3cd75822	0.026287142
151	0x3d9007ac	0.07032713
152	0xbbb9ca41	-0.0056698625
153	0xbe4ae3db	-0.19813482
154	0x3d9cb797	0.076522045
155	0xbe08f6e0	-0.13375425
156	0x3d846b13	0.06465735
157	0xbdc78f11	-0.097440846
158	0xbe3cbc67	-0.18431245
159	0x3d10309c	0.035202608
160	0xbd73dffe	-0.059539787
161	0xbdd75c8a	-0.10515697
162	0x3e285406	0.16438302
163	0x3e0d4b97	0.13798366
164	0xbdb741d4	-0.089481026
165	0xbe24c946	-0.16092405
166	0xbe769709	-0.24081053
167	0x3c4dda76	0.012564292
168	0x3d47453c	0.04865001
169	0xbe3f68ad	-0.18692274
170	0xbe4cb74b	-0.19991796
171	0xbb67457d	-0.003528922
172	0xbe02b85e	-0.12765643
173	0xbe1f1462	-0.15535119
174	0xbe24e5c9	-0.16103281
175	0x3da93c94	0.082635075
176	0xbcfeb7b7	-0.031093461
177	0x3d1abf63	0.037780177
178	0x3d181a08	0.0371342
179	0x3af1d2e4	0.0018449691
180	0x3e2ea43e	0.17054841
181	0xbd1b3744	-0.037894502
182	0xbe12f472	-0.14351061
183	0xbce9f83b	-0.028560748
184	0xbe394d89	-0.18095984
185	0x3e161c85	0.14659317
186	0x3dab2db4	0.083583266
187	0xbbe9a4ae	-0.007130227
188	0xbe35ea84	-0.17765242
189	0xbde0939f	-0.109656565
190	0xbd450532	-0.048100658
191	0xbe065667	-0.13118897
192	0xbe4e3ff8	-0.2014159
193	0xbdcd91d2	-0.10037579
194	0xbdf97250	-0.121800065
195	0x3e75274d	0.23940773
196	0x3e23c2b4	0.15992242
197	0xbe4fc782	-0.2029095
198	0xbe43663a	-0.19081965
199	0x3e51d25b	0.204904
200	0xbda8fe4a	-0.08251627
201	0x3e0afd09	0.13573088
202	0x3e479428	0.19490111
203	0x3df2ec13	0.11861434
204	0xbd9d0229	-0.07666428
205	0x3d9e79f5	0.07738105
206	0xbe25d2d9	-0.16193713
207	0xbe355b03	-0.177105
208	0xbe148dc8	-0.1450721
209	0x3e576cf1	0.21037652
210	0xbe6e06d9	-0.232448
211	0xbe4b36bd	-0.198451
212	0x3e565a79	0.2093295
213	0xbe552e14	-0.20818359
214	0x3e5daa19	0.21646918
215	0x3e022c16	0.1271213
216	0x3e35edcb	0.17766492
217	0x3d902ce3	0.070398115
218	0x3e6bda94	0.230326
219	0xbe566068	-0.20935214
220	0x3e74f8b2	0.23922995
221	0xbddff930	-0.109362006
222	0x3d12d446	0.03584697
223	0x3e61ead8	0.22062242
224	0xbe54c2b7	-0.20777403
225	0x3ddf2a2b	0.10896715
226	0x3e5a6b75	0.21330054
227	0xbdfd81b7	-0.12378257
228	0x3db86003	0.09002688
229	0x3e67c098	0.22632062
230	0x3dd213ba	0.10257669
231	0x3e559116	0.20856127
232	0xbdc6a713	-0.09699836
233	0xbb0f715c	-0.0021887636
234	0xbd302bcd	-0.04301052
235	0xbb471b66	-0.003038132
236	0xbcf0bb83	-0.029386288
237	0x3e5fb36f	0.21845792
238	0x3dfe840b	0.12427529
239	0x3da5ca1c	0.0809519
240	0x3e7df7cc	0.24801558
241	0xbe3eb3e2	-0.18623307
242	0xbe23ce18	-0.15996587
243	0xbe4ebd52	-0.20189407
244	0xbe39041c	-0.18067974
245	0x3e5d04c9	0.21583857
246	0xbe5c69f3	-0.21524791
247	0xbe4d411c	-0.20044369
248	0x3e451653	0.19246797
249	0x3d053061	0.03251684
250	0x3e28334c	0.16425818
251	0x3e1781b2	0.14795569
252	0xbb97d124	-0.004633086
253	0x3e2c48a2	0.16824582
254	0x3d6bdbdf	0.057582732
255	0xbe6ce640	-0.23134708

rnn_fast.bias_ih_l0 f4 [48]
0	0xbe580849	-0.2109691
1	0xbd56ad1c	-0.052411184
2	0x3ce05bd1	0.027387531
3	0x3e54df24	0.20788246
4	0x3d994484	0.074837714
5	0xbe3ebfc3	-0.18627839
6	0x3d981702	0.074262634
7	0xbe421b3e	-0.18955705
8	0x3e1aca2e	0.15116188
9	0xbe16b9c9	-0.14719309
10	0xbe54b54b	-0.20772283
11	0x3d9bc0ac	0.076051086
12	0xbe0b1ff6	-0.13586411
13	0x3e639f59	0.22228755
14	0x3cff06c3	0.031131154
15	0x3e624e9f	0.22100304
16	0x3ddfced2	0.1092812
17	0xbdddd43e	-0.108314976
18	0x3d5a3646	0.053274415
19	0xbe134e95	-0.14385445
20	0xbe4770db	-0.19476645
21	0x3e1d6c7e	0.15373418
22	0xbe0f4064	-0.13989407
23	0x3d973804	0.07383731
24	0x3e0cd661	0.13753654
25	0x3dbc0022	0.09179713
26	0x3e54bd09	0.20775236
27	0x3e6b592b	0.22983234
28	0x3e73f08c	0.2382223
29	0x3cd7a507	0.026323808
30	0xbc260e02	-0.010135176
31	0xbda26c11	-0.07930768
32	0xbe17d298	-0.14826429
33	0x3de8d9d8	0.113696754
34	0xbe4865ed	-0.19570132
35	0x3e82636a	0.25466472
36	0x3d872946	0.06599669
37	0xbd1e78f9	-0.038689587
38	0xbe49a9e8	-0.1969372
39	0x3e174b3c	0.14774793
40	0x3e120338	0.1425904
41	0x3de48779	0.11158652
42	0xbe77b022	-0.24188283
43	0x3e2ef525	0.17085703
44	0xbe02998e	-0.12753889
45	0x3e71af6a	0.23602071
46	0x3e181c29	0.14854492
47	0xbc152882	-0.009103896

rnn_fast.bias_hh_l0 f4 [48]
0	0x3e383263	0.17987971
1	0xbda67367	-0.0812748
2	0x3e3aed07	0.18254481
3	0x3c6ae0ff	0.01433587
4	0x3e6f61d4	0.23377162
5	0x3d9e1024	0.07717922
6	0xbe0a67e6	-0.13516197
7	0x3d02aa01	0.03190041
8	0x3e5de918	0.2167095
9	0x3cb87d2e	0.022520628
10	0xbd84aeed	-0.06478677
11	0xbe552e0a	-0.20818344
12	0xbdbcb75d	-0.09214661
13	0x3e03779f	0.128386
14	0xbe573e4d	-0.2101986
15	0xbd0bb4dd	-0.03410803
16	0xbd99ec8a	-0.07515819
17	0x3e343764	0.17599255
18	0x3d4a5366	0.04939594
19	0xbce5f2f2	-0.028069947
20	0x3e79edb9	0.2440709
21	0xbc506289	-0.012718805
22	0xbde3d25e	-0.11124109
23	0x3e67e8df	0.22647427
24	0xbe13d6f1	-0.14437462
25	0xbe6cf1fd	-0.23139186
26	0xbe0eed7f	-0.13957785
27	0xbe244c77	-0.16044794
28	0x3ddf27e1	0.10896278
29	0xbe4c0ba1	-0.19926311
30	0xbcec71a1	-0.028862776
31	0x3d80e30c	0.06293306
32	0xbdc259ec	-0.094898075
33	0x3e37fcce	0.17967531
34	0x3e5eb6f3	0.21749477
35	0x3e57be98	0.210688
36	0x3ddd8258	0.10815877
37	0x3e4680f5	0.1938513
38	0x3c5721ad	0.0131305875
39	0xbe6271d7	-0.22113739
40	0x3e2eaf3b	0.17059033
41	0x3d89c4b5	0.06726972
42	0x3dfc26e0	0.12312102
43	0xbdc565db	-0.09638568
44	0xbe0d9c57	-0.1382917
45	0xbe65822a	-0.22412935
46	0x3e86c9f4	0.26325953
47	0xbe70f4a4	-0.23530823

initial_evidence.weight f4 [1, 16]
0	0x3e01a0f9	0.12659062
1	0xbe647403	-0.2230988
2	0x3ddd62cb	0.10809859
3	0xbe8da747	-0.27666685
4	0x3cdf6329	0.027268963
5	0xbcb511a6	-0.022103142
6	0x3e08c859	0.13357677
7	0x3e088ecc	0.13335723
8	0x3d5d4a71	0.05402607
9	0x3e118ef2	0.14214686
10	0x3e1d047a	0.15333739
11	0x3cfc8ae7	0.030827953
12	0xbdaf2f92	-0.08553995
13	0x3e08770d	0.13326664
14	0xbe289f58	-0.16467035
15	0xbe2c4d8c	-0.16826457

evidence_head.0.weight f4 [1, 16]
0	0x3cb0a2d6	0.021562021
1	0x3d869994	0.065722615
2	0x3bf6911d	0.007524623
3	0x3e8867f9	0.26641825
4	0x3d45d4b7	0.048298564
5	0x3d78d436	0.060749255
6	0x3d9fee12	0.0780908
7	0x3d37d480	0.04488039
8	0x3d8ad2b9	0.067784734
9	0x3d5b40fe	0.05352878
10	0x3d79385e	0.06084477
11	0x3c8a0e54	0.016852535
12	0x3c902fe5	0.017600963
13	0x3d673c67	0.05645409
14	0x3da38dff	0.07986068
15	0x3db2a211	0.08722318

fast_choice_head.0.weight f4 [16, 16]
0	0x3d91f07c	0.07125947
1	0xbe5780ac	-0.21045178
2	0x3da72448	0.08161217
3	0xbd6ce270	-0.057833135
4	0x3dbfbafc	0.09361836
5	0x3d577768	0.05260411
6	0xbe7ea0a0	-0.24865961
7	0xbe26f616	-0.16304812
8	0xbdf89a64	-0.12138823
9	0x3d7beed0	0.061507046
10	0xbdcb2830	-0.099197745
11	0x3dbda480	0.092598915
12	0xbd7b0358	-0.061282486
13	0x3c3e9220	0.011631519
14	0xbc6d5340	-0.01448518
15	0x3dde1edc	0.1084573
16	0x3dc62c10	0.09676373
17	0x3e09710c	0.1342203
18	0xbdc88530	-0.097910285
19	0xbd94bb00	-0.0726223
20	0xbcc66e00	-0.024222374
21	0xbd8c334c	-0.068457216
22	0xbd745920	-0.05965531
23	0xbcc6b060	-0.024254024
24	0x3cf01c50	0.029310375
25	0xbe2fc936	-0.171666
26	0xbe047fd8	-0.12939394
27	0xbe162b2a	-0.14664903
28	0xbe230340	-0.15919209
29	0xbe57973a	-0.21053782
30	0x3db75134	0.08951035
31	0xbe7b274c	-0.2452671
32	0x3e40c690	0.18825746
33	0x3e1a56c6	0.15072164
34	0x3e4bc594	0.19899589
35	0x3da76b98	0.08174819
36	0x3e1570d4	0.14593822
37	0xbdbd7d54	-0.0925242
38	0xbe1237de	-0.14279124
39	0xbe75c506	-0.2400094
40	0xbd7d0500	-0.061772346
41	0xbd816af4	-0.06319228
42	0x3dfb4e38	0.122707784
43	0x3e56ce16	0.20977053
44	0xbd100500	-0.03516102
45	0xbd4523d8	-0.048129886
46	0x3d5182a0	0.051149964
47	0xbe5c6744	-0.21523768
48	0xbb80b200	-0.0039274693
49	0x3e291cb0	0.1651485
50	0xbd2ac498	-0.041691393
51	0x3dc4cbe4	0.096092016
52	0xbd5ce7e8	-0.0539321
53	0xbcce3fe0	-0.025176942
54	0xbe2fb870	-0.17160201
55	0xbcb1f9d0	-0.021725565
56	0xbe3908b6	-0.18069729
57	0x3dcade80	0.0990572
58	0xbddb6830	-0.107132316
59	0xbe47a34e	-0.1949589
60	0xbdf23bfc	-0.11827847
61	0xbe17ec5c	-0.14836258
62	0xbe4befcc	-0.19915694
63	0x3e746f0e	0.23870489
64	0xbd25ce00	-0.04047966
65	0x3d59d788	0.053184062
66	0x3e14170a	0.14461914
67	0xbda638ac	-0.08116278
68	0xbe47a61a	-0.19496956
69	0xbe0d160e	-0.13777944
70	0x3e0c9676	0.13729271
71	0xbe5ef27a	-0.21772185
72	0x3bd14ac0	0.0063870847
73	0x3e489078	0.1958636
74	0xbd542f80	-0.051803112
75	0xbe24b6a0	-0.16085291
76	0xbda16718	-0.07880992
77	0x3bdfbb40	0.006827742
78	0x3e1dc2de	0.15406367
79	0x3ac0cd00	0.0014709532
80	0xbe2cfd0c	-0.16893405
81	0xbbd12000	-0.0063819885
82	0x3e0b567e	0.13607213
83	0xbe6bd3a6	-0.23029956
84	0x3c79aa80	0.015238404
85	0x3c3ae320	0.01140669
86	0x3d4ad530	0.049519718
87	0xbe75fb7e	-0.24021718
88	0xbe433210	-0.19062066
89	0xbe6f843e	-0.2339029
90	0x3e4c7e96	0.19970164
91	0xbe56204e	-0.20910761
92	0x3e69830e	0.228039
93	0xbe557e40	-0.20848942
94	0x3e2f6572	0.17128542
95	0xbda7f4f0	-0.08201015
96	0x3e7a6564	0.2445274
97	0x3d3b01c0	0.045655966
98	0x3e609114	0.21930343
99	0x3c8fe890	0.01756695
100	0xbd0a96b8	-0.033835143
101	0xbe402d36	-0.18767247
102	0xbe0a06e2	-0.13479188
103	0x3e739c60	0.23790121
104	0x3e7e32f6	0.24824128
105	0x3e5cb474	0.21553212
106	0x3e0ff754	0.14059192
107	0x3e39d39c	0.18147129
108	0xbe3b9a34	-0.18320543
109	0x3cb51a20	0.022107184
110	0x3de38fb8	0.111113966
111	0xbe0b8d10	-0.1362803
112	0x3d4bbb68	0.04973927
113	0x3e6a9732	0.22909239
114	0xbdacb188	-0.08432299
115	0x3df83264	0.12118986
116	0xbdaae664	-0.08344725
117	0xbe353b0a	-0.17698303
118	0x3d330f30	0.043715656
119	0xbe5e35e0	-0.21700239
120	0xbe7d2d42	-0.24724296
121	0x3ab3ad00	0.0013708174
122	0x3c38d540	0.0112813115
123	0xbdbf80b4	-0.0935072
124	0xbe1de2a0	-0.15418482
125	0x3dae571c	0.085127085
126	0xbdf69a70	-0.12041175
127	0xbe4cd680	-0.200037
128	0xbe4fc51a	-0.20290032
129	0x3d5da150	0.054108918
130	0x3e67b102	0.22626117
131	0xbdba98c0	-0.09111166
132	0xbdf88d78	-0.12136358
133	0x3e1a9e24	0.15099388
134	0xbe435aca	-0.19077602
135	0x3e4e76b0	0.20162463
136	0xbe7c479e	-0.24636695
137	0x3d0cecc8	0.0344055
138	0xbd9bd6d4	-0.076093346
139	0x3e6c575a	0.23080197
140	0xbd87615c	-0.06610367
141	0xbe13f5b8	-0.14449203
142	0x3e04d6fe	0.12972638
143	0xbe64de7e	-0.22350499
144	0x3dedad8c	0.11605367
145	0x3e1a66be	0.15078256
146	0xbdcc4c08	-0.09975439
147	0x3e20eb6a	0.15714803
148	0x3d2b6708	0.041846305
149	0xbdcbe174	-0.09955111
150	0x3dab149c	0.0835354
151	0xbe4519ce	-0.19248125
152	0xbbc60b00	-0.006043792
153	0x3e0a0dbe	0.13481805
154	0x3e6250cc	0.22101134
155	0xbdd3af30	-0.10336149
156	0xbe09565c	-0.1341185
157	0xbe107678	-0.14107692
158	0x3dfe4fec	0.12417588
159	0x3e7105e6	0.23537406
160	0xbe072096	-0.13196024
161	0x3d212210	0.039339125
162	0x3e654c40	0.22392368
163	0xbcfacd40	-0.030615449
164	0x3e004d7c	0.12529558
165	0xbd6112d8	-0.05494961
166	0xbe612eda	-0.21990529
167	0x3e49eca2	0.19719175
168	0xbe2f9150	-0.17145276
169	0xbe42d706	-0.19027337
170	0xbd7d1450	-0.06178695
171	0xbe2871ae	-0.16449615
172	0x3e1b06e0	0.15139341
173	0xbd2a9b70	-0.041652143
174	0xbe75e1e6	-0.24011955
175	0xbb832c00	-0.004003048
176	0x3d27a458	0.040928215
177	0x3e3bacda	0.18327656
178	0x3de22248	0.11041695
179	0xbc483a60	-0.012220949
180	0xbe7ca34a	-0.24671665
181	0xbc186b80	-0.009302974
182	0xbe43a2d6	-0.19105086
183	0x3d6795c8	0.056539327
184	0x3d9ba00c	0.07598886
185	0x3df4c898	0.11952323
186	0xbe0e6344	-0.13905054
187	0xbe69d48e	-0.2283499
188	0xbdce85ec	-0.10084137
189	0x3dc0bea0	0.09411359
190	0x3de283a8	0.11060268
191	0x3e2fd112	0.17169598
192	0xbb9d8980	-0.004807651
193	0x3e263a48	0.1623317
194	0xbd75d670	-0.060018957
195	0x3b1c0f00	0.0023812652
196	0xbc8f12e0	-0.017465055
197	0xbe13deda	-0.1444048
198	0xbe59afb4	-0.21258432
199	0x3dce731c	0.10080549
200	0xbdc1a100	-0.094545364
201	0x3e4bd28c	0.19904536
202	0xbc93c840	-0.018039823
203	0x3d6a42a0	0.057192445
204	0xbe67b79c	-0.22628635
205	0xbe51fc42	-0.20506385
206	0x3ddada1c	0.10686132
207	0xbe0e7366	-0.13911209
208	0xbe7424a0	-0.23842096
209	0x3e53a8de	0.20669886
210	0x3deaa084	0.11456397
211	0xbdf10028	-0.11767608
212	0x3e601552	0.21883133
213	0x3cd34010	0.025787383
214	0x3e7d6d2c	0.24748677
215	0xbdede520	-0.11615968
216	0x3e1a3236	0.15058216
217	0xbd5156c0	-0.051108122
218	0x3ddffc84	0.109368354
219	0x3e5b3a0a	0.21408859
220	0x3d8c6a04	0.068561584
221	0xbdc2e5b4	-0.09516469
222	0xbe4a17e2	-0.19735673
223	0x3dee1c10	0.11626446
224	0x3df9f848	0.12205559
225	0x3e2a5b3a	0.16636363
226	0xbe007306	-0.12543878
227	0x3e497a86	0.19675645
228	0xbd919b40	-0.0710969
229	0xbd50ccc0	-0.050976515
230	0x3d4febd8	0.050762028
231	0xbe2fe704	-0.17177969
232	0xbab5ba00	-0.0013864636
233	0xbe2647f6	-0.16238388
234	0xbcdd6840	-0.02702725
235	0xbdecc9f0	-0.11561954
236	0xbd106098	-0.03524837
237	0xbdd2c544	-0.10291532
238	0x3e210d5a	0.1572775
239	0xbe4e9ffa	-0.20178214
240	0xbe7ef448	-0.24897873
241	0x3e2c269a	0.168116
242	0xbe0ae8a4	-0.13565308
243	0x3d97fc1c	0.07421133
244	0xbe1a0ae8	-0.15043223
245	0x3e48017a	0.19531813
246	0x3d3d9eb8	0.046293944
247	0x3e405d7e	0.18785664
248	0xbe226782	-0.15859798
249	0x3e0f33da	0.13984624
250	0x3e7bb526	0.24580821
251	0xbbc04e40	-0.005868703
252	0xbe521d12	-0.20518902
253	0xbdeb18ec	-0.11479363
254	0x3e5dd732	0.21664122
255	0xbe25d8c4	-0.16195971

fast_choice_head.0.bias f4 [16]
0	0x3da4a6d4	0.080396324
1	0xbc7bc360	-0.015366405
2	0x3e3c601e	0.18396041
3	0x3cc3a510	0.023882419
4	0x3e1c4e54	0.15264255
5	0xbd36a070	-0.0445866
6	0xbc809860	-0.015697658
7	0xbd8faa28	-0.070148766
8	0xbe6f7e92	-0.23388126
9	0xbde93b68	-0.11388284
10	0x3c555700	0.013021231
11	0xbe2c6638	-0.16835868
12	0x3e6f6b0c	0.23380679
13	0xbe09c598	-0.13454282
14	0x3dc89184	0.0979338
15	0xbe77b936	-0.24191746

fast_choice_head.1.weight f4 [1, 16]
0	0x3e7b3080	0.2453022
1	0x3d3644d0	0.04449922
2	0xbe3d665a	-0.18496075
3	0x3e162ba4	0.14665085
4	0x3e268298	0.16260755
5	0x3e52b202	0.20575717
6	0x3dc313e0	0.09525275
7	0x3d268208	0.04065135
8	0x3d953650	0.0728575
9	0x3d2bdc08	0.041957885
10	0x3e2c5df0	0.1683271
11	0x3e6da894	0.23208839
12	0x3d8e8bbc	0.06960246
13	0x3d707730	0.058707416
14	0x3d760f00	0.0600729
15	0xbddb1fd0	-0.10699427

slow_choice_head.0.weight f4 [16, 16]
0	0xbde3eafe	-0.111288056
1	0xbe7b2491	-0.24525668
2	0xbe81fc4e	-0.25387806
3	0xbd8179f6	-0.0632209
4	0x3d13ad82	0.03605414
5	0x3ea88ab7	0.3291833
6	0x3e9b14f8	0.30289435
7	0x3d4ec8b0	0.05048436
8	0x3de9e558	0.11420697
9	0x3dfe6f54	0.12423578
10	0x3ebe8318	0.37209392
11	0xbed5f680	-0.41789627
12	0x3e66b725	0.22530802
13	0x3e1c2815	0.15249665
14	0xbe812aa2	-0.2522784
15	0x3e522a7f	0.20524023
16	0x3f0eefa7	0.5583443
17	0x3eaccbd3	0.33749256
18	0x3e5c3146	0.21503171
19	0x3ecdedf0	0.40220594
20	0xbecc3c41	-0.3988972
21	0xbea58d65	-0.32334438
22	0xbe05655e	-0.1302695
23	0x3e87f1c9	0.26551655
24	0xbf0cb764	-0.5496733
25	0xbe737d53	-0.23778276
26	0xbb92cfa5	-0.0044803196
27	0x3f141237	0.57840294
28	0x3d63b32c	0.055590793
29	0x3e346995	0.17618401
30	0x3d8e1276	0.06937115
31	0xbd7f5373	-0.062335443
32	0xbebbb713	-0.36663112
33	0xbeb71ea6	-0.3576557
34	0x3cdbd8ce	0.026836779
35	0x3d228634	0.039678767
36	0x3e35b7e3	0.17745928
37	0x3ebd6941	0.36994365
38	0x3e7a89cd	0.2446663
39	0x3e9ebbd2	0.3100267
40	0x3ecc7d58	0.3993938
41	0x3edb0c60	0.4278288
42	0x3e9ba75f	0.30401132
43	0xbebb3ac4	-0.36568272
44	0x3e0c92cc	0.13727874
45	0x3d77a956	0.060464226
46	0xbe9bfe00	-0.30467224
47	0x3e445050	0.19171262
48	0xbd8dc10f	-0.06921589
49	0x3eba86a6	0.36430854
50	0x3e8a8dbc	0.2706126
51	0x3e2c8921	0.16849186
52	0xbf0198bc	-0.5062368
53	0xbe896b71	-0.26839784
54	0xbe9c0887	-0.30475256
55	0x3e34a4c1	0.17640974
56	0xbe9408da	-0.28913003
57	0xbeab57c9	-0.33465412
58	0x3dee274e	0.116285905
59	0x3ed2892b	0.41120276
60	0xbea6f1ab	-0.32606253
61	0x3e0d1a7f	0.13779639
62	0xbdeb87af	-0.11500489
63	0xbe932ab4	-0.28743517
64	0x3b76aae9	0.0037638491
65	0xbc4137e4	-0.0117931105
66	0xbe86a402	-0.26297003
67	0xbdf44928	-0.11928016
68	0x3e45306e	0.19256756
69	0x3cf48fa2	0.029853646
70	0x3e915900	0.28388214
71	0xbd9c1aab	-0.07622274
72	0x3efec9f8	0.49763465
73	0x3ebdceae	0.37071747
74	0x3ebb42d4	0.36574423
75	0xbecfa350	-0.40554285
76	0x3ea6eb1b	0.32601246
77	0x3d095f20	0.033537984
78	0xbe34cd98	-0.17656553
79	0x3e8b86bf	0.2725124
80	0x3e9e16d6	0.30876797
81	0x3c8982a4	0.016785927
82	0x3e06bd6e	0.13158199
83	0xbc2c5c32	-0.010520028
84	0xbe9eb66a	-0.30998546
85	0xbe8634db	-0.262122
86	0x3e1c43c4	0.15260226
87	0x3e26bb58	0.16282403
88	0xbddddef4	-0.108335406
89	0xbe41f104	-0.18939596
90	0xbe93c3a5	-0.28860202
91	0xbd842dc8	-0.064540446
92	0x3c6f133b	0.014591987
93	0x3e8783a5	0.26467624
94	0xbe1ae3d1	-0.15125968
95	0x3dcf8c3a	0.10134168
96	0x3ee53928	0.4477017
97	0x3ea856a0	0.3287859
98	0x3edaa48b	0.4270366
99	0x3e5b6bc4	0.21427828
100	0xbe44179c	-0.19149631
101	0xbe0e1b15	-0.13877518
102	0xbe004c66	-0.12529144
103	0xbdee74f6	-0.11643402
104	0xbf0563fe	-0.521057
105	0xbeaf8dad	-0.34287778
106	0xbea70b93	-0.32626018
107	0x3ea33fa9	0.31884506
108	0xbe7b66be	-0.24550912
109	0x3ea01562	0.31266314
110	0x3dd7114b	0.10501345
111	0xbe829b58	-0.25509143
112	0xbdd1fb44	-0.10253003
113	0xbeb83326	-0.35976523
114	0xbe77c23e	-0.24195191
115	0xbeac5d50	-0.33664942
116	0x3e9da19d	0.30787364
117	0x3e4648ba	0.1936368
118	0xbd6dc109	-0.05804542
119	0x3da3a2a0	0.07990003
120	0x3e7fd10a	0.24982086
121	0x3ec99f72	0.3937946
122	0x3e0e6757	0.13906609
123	0xbed8fd9b	-0.42380986
124	0x3e8b5ae7	0.2721779
125	0xbdc3d598	-0.09562224
126	0xbe7e463e	-0.24831483
127	0x3db45339	0.08804936
128	0x3e21c379	0.15797223
129	0x3e0f1e7f	0.13976477
130	0x3c4b533c	0.012409981
131	0xbd553d47	-0.05206039
132	0xbebcc391	-0.36867955
133	0xbe9e612f	-0.3093352
134	0xbe2dee13	-0.1698535
135	0xbd7cdb73	-0.06173272
136	0xbea6c7d2	-0.32574326
137	0xbe38a047	-0.18029891
138	0xbe848c79	-0.25888422
139	0x3d21edaa	0.039533295
140	0xbea4ad54	-0.3216349
141	0x3db104e8	0.08643514
142	0x3e8674c6	0.26260966
143	0xbe3c9390	-0.18415666
144	0x3eb75154	0.35804236
145	0x3e2f7eb3	0.17138176
146	0x3eb2c7e6	0.34918135
147	0xbdee3990	-0.11632073
148	0xbdeb5134	-0.11490098
149	0xbe3f69d3	-0.18692712
150	0x3e2e2eef	0.17010091
151	0xbd71d9ed	-0.05904572
152	0xbea9e2b2	-0.33180767
153	0xbe95cd6e	-0.29258293
154	0xbe684a42	-0.22684577
155	0xbcead796	-0.028667253
156	0xbeaf245d	-0.3420743
157	0xbe2d67b5	-0.16934092
158	0xbdecb840	-0.115585804
159	0xbe83bc18	-0.25729442
160	0x3dd7c062	0.10534741
161	0x3ead237b	0.33816132
162	0xbde0cad1	-0.10976184
163	0x3eb6a82f	0.3567519
164	0xbe104851	-0.14090087
165	0x3d913710	0.070905805
166	0xbcd35cdc	-0.025801115
167	0xbe761499	-0.24031295
168	0xbe65b272	-0.22431353
169	0x3d3e91bf	0.046525713
170	0xbe23c8b4	-0.15994531
171	0x3d398f47	0.045302656
172	0x3ddffa55	0.10936419
173	0xbd29ad94	-0.041425303
174	0xbdca23ea	-0.09870131
175	0xbe728a96	-0.23685679
176	0xbebf123c	-0.373186
177	0xbee601ab	-0.44923148
178	0xbdc17ee0	-0.094480276
179	0xbe8aa3d1	-0.27078107
180	0x3e81620f	0.25270125
181	0x3ed26585	0.41093078
182	0x3e6cc8be	0.23123452
183	0x3dcc9fe6	0.09991436
184	0x3f08da15	0.53457767
185	0x3ec3d4ae	0.382482
186	0xbac827a3	-0.0015270602
187	0xbe373ccf	-0.1789429
188	0x3ea8d084	0.32971585
189	0x3dd7bbd2	0.10533871
190	0xbebf9508	-0.3741839
191	0xbdaddf2a	-0.08489831
192	0x3eb2f290	0.34950686
193	0xbd109b00	-0.03530407
194	0x3e27a996	0.16373286
195	0x3ea8bd47	0.32956907
196	0x3cf926c3	0.03041399
197	0x3dbcbb81	0.09215451
198	0xbbb32019	-0.005466473
199	0xbddd65c9	-0.108104296
200	0xbe808223	-0.25099286
201	0xbe085742	-0.13314536
202	0xbc724c48	-0.014788695
203	0x3e7e4831	0.24832226
204	0xbe4e9f7f	-0.2017803
205	0xbe163602	-0.1466904
206	0x3e709290	0.23493409
207	0x3e14e860	0.14541769
208	0x3e4d2a13	0.20035581
209	0x3ed455a5	0.41471592
210	0x3e43bcf0	0.19115043
211	0x3e887226	0.26649588
212	0xbf1973a4	-0.5994208
213	0xbec65ffb	-0.38745102
214	0x3d287ce1	0.04113472
215	0xbd808cac	-0.06276831
216	0xbf142481	-0.578682
217	0xbedd004c	-0.4316429
218	0xbeb91e70	-0.36156034
219	0x3e830057	0.25586197
220	0xbe807dda	-0.25096017
221	0x3d8b7565	0.068095006
222	0x3daf206c	0.08551106
223	0x3be17cfe	0.0068813553
224	0x3e8d0158	0.27540088
225	0x3ed66048	0.41870332
226	0x3e899002	0.26867682
227	0x3e0c3423	0.13691764
228	0xbee2e76a	-0.4431718
229	0xbea5a320	-0.32351017
230	0xbca83612	-0.020533595
231	0xbd454ece	-0.048170857
232	0xbd99dd71	-0.0751294
233	0xbea047ec	-0.31304872
234	0xbe589266	-0.21149597
235	0x3eea5581	0.4576836
236	0xbcfe8a2d	-0.031071747
237	0x3e4d3867	0.20041047
238	0xbd8654ef	-0.065591685
239	0xbe3fa854	-0.18716556
240	0x3df1011f	0.11767792
241	0x3e8fbc3b	0.28073296
242	0x3ee17398	0.44033504
243	0x3e2d98db	0.16952841
244	0xbe01a917	-0.12662159
245	0xbca84df8	-0.02054499
246	0xbe85ddf6	-0.26145905
247	0xbe9c6d9b	-0.30552372
248	0xbeec7221	-0.46180823
249	0xbeea54c9	-0.4576781
250	0xbec7ddfd	-0.3903655
251	0x3ddd67d5	0.1081082
252	0xbe4d5575	-0.2005213
253	0x3e9c4234	0.3051926
254	0x3ed7ee82	0.42174155
255	0xbc7859f5	-0.015158166

slow_choice_head.0.bias f4 [16]
0	0xbe07a381	-0.13245966
1	0xbddf427b	-0.10901352
2	0x3e4ff3dc	0.20307869
3	0x3d9b9dc3	0.0759845
4	0xbd1802bd	-0.037111986
5	0x3e1213e7	0.14265405
6	0x3d878ac4	0.06618264
7	0x3dd607b7	0.1045069
8	0xbe9d8753	-0.30767307
9	0x3df75829	0.12077362
10	0x3cd34b46	0.02579273
11	0x3d509d53	0.050931286
12	0x3df04368	0.11731607
13	0x3b8f942e	0.004381678
14	0x3dde0d9e	0.10842441
15	0x3daea183	0.085269

slow_choice_head.1.weight f4 [1, 16]
0	0xbe64945f	-0.22322224
1	0x3e99b7b7	0.30022976
2	0xbeafdb2c	-0.34346902
3	0x3e8b0a9d	0.27156535
4	0xbebad3af	-0.36489627
5	0x3e6ce1c7	0.23133002
6	0x3e5644cf	0.20924686
7	0xbed3231f	-0.41237733
8	0x3eb86574	0.36014903
9	0x3e86c671	0.26323274
10	0x3e6ca7c3	0.23110871
11	0xbe88f04c	-0.26745832
12	0x3e75a8ec	0.2399022
13	0x3e8cefe5	0.27526775
14	0x3eb0ee48	0.34556794
15	0x3e4a6a56	0.19767126

exp_avg f4 [48, 1]
0	0x00000000	0.0
1	0x00000000	0.0
2	0x00000000	0.0
3	0x00000000	0.0
4	0x00000000	0.0
5	0x00000000	0.0
6	0x00000000	0.0
7	0x00000000	0.0
8	0x00000000	0.0
9	0x00000000	0.0
10	0x00000000	0.0
11	0x00000000	0.0
12	0x00000000	0.0
13	0x00000000	0.0
14	0x00000000	0.0
15	0x00000000	0.0
16	0x00000000	0.0
17	0x00000000	0.0
18	0x00000000	0.0
19	0x00000000	0.0
20	0x00000000	0.0
21	0x00000000	0.0
22	0x00000000	0.0
23	0x00000000	0.0
24	0x00000000	0.0
25	0x00000000	0.0
26	0x00000000	0.0
27	0x00000000	0.0
28	0x00000000	0.0
29	0x00000000	0.0
30	0x00000000	0.0
31	0x00000000	0.0
32	0x00000000	0.0
33	0x00000000	0.0
34	0x00000000	0.0
35	0x00000000	0.0
36	0x00000000	0.0
37	0x00000000	0.0
38	0x00000000	0.0
39	0x00000000	0.0
40	0x00000000	0.0
41	0x00000000	0.0
42	0x00000000	0.0
43	0x00000000	0.0
44	0x00000000	0.0
45	0x00000000	0.0
46	0x00000000	0.0
47	0x00000000	0.0
