saved_models/slow_fast/checkpoint82.pth (torch, 31730 bytes, 30 tensors)

rnn_slow.weight_ih_l0 f4 [48, 6]
00000000: 4e68 4bbd c294 b33d 46ca 363f 49f5 b3be
00000010: a9ea 8abe 3ab4 0d3f 8270 433d c224 08be
00000020: a3cd c43e f164 babe 2262 d5be 60ef 873e
00000030: 1825 d6be 7ff2 693d 25b2 5fbe 6582 6d3e
00000040: 4ec2 52be dc4b eb3c 3c47 cbbd 9933 dd3a
00000050: 63da d73d 4d6f 983c 1eec b7be 3285 bcbd
00000060: 638c 493d e5af 9bbe 2554 263f 590a 28bf
00000070: face 90be a4c7 193f 46b2 aebe f497 fd3d
00000080: 89d9 d13e c8af 35be f7c1 893e 088b 0cbe
00000090: 52fd e9bd 88e8 9f3e bcf4 b33e d549 43be
000000a0: 1568 d93e c5e4 94bd 5717 4f3e 682a 4abe
000000b0: 8387 d3bd e7a3 c7bd 77c7 9dbd 21bf 5bbe
000000c0: 5f7b f53d c91c d93b 657a 193f 221d 18bf
000000d0: f661 06bf 8969 123f 24fd 2abe 6e8f 2f3e
000000e0: 83e5 ec3e 2f4f ffbe ac99 013f 14be ebbe
000000f0: 28f0 813d 0588 dabd 9adc c2be 95a8 b03e
00000100: 09ab b9bc 1394 163d fc74 85be e2bc 6b3d
00000110: 2310 3d3f f24f 1cbf b13e 2f3f 3d4e 69be
00000120: 70e7 0bbe 6b9c a53e 6352 0ebe fe85 403d
00000130: 3d4b 70be e45d 253f d3e4 433e 92dc 49bd
00000140: 12ac d1bd a32b 4ebd e792 fc3e 0a1d 253d
00000150: 2609 03bf fd51 4d3e e2ce 943e 8234 d1be
00000160: f956 85bc 6c30 68be 9f06 613d 7cd6 2dbe
00000170: d6b3 833e b0fd 8bbe 8df7 01be 2b35 743e
00000180: ec63 68bd c085 bfbc f330 933e d7c7 8fbe
00000190: b4ad b5bd 5003 673e 2b41 8fbe 5cc9 803e
000001a0: c1e3 033f a694 4fbe a74f c9be 3dc8 463f
000001b0: 94fe b4bd f7ef 23be 3402 233e 026c 20bf
000001c0: be96 2f3f fe20 07bf 6509 1ebe d9bd 6fbd
000001d0: 828d 2f3f b262 24bf 4e73 0abf 0d79 323e
000001e0: 5e5d b43c e982 a9bd de5d bb3e 62d3 0bbf
000001f0: 76d3 ddbe 6eb2 8b3e e58b 21be 9b68 88bd
00000200: cc92 e33e f8b8 41be a8cd ed3d c814 0ebf
00000210: 3a4e 3f3e de05 af3c d604 1d3f a871 ddbe
00000220: 69f1 4a3e 6bcc 953c c3f4 86be 2bc3 313e
00000230: d2fa 1f3d 3bfb a1bd 2072 43be 8487 973e
00000240: e199 abbe c015 89be b5de 373f eea0 ecbe
00000250: 239a ffbe a772 923e 61a0 0fbe d07c 36bd
00000260: 487d dc3e 8ea0 09bf feca f93e 0283 93be
00000270: e51f 8bbe dd86 27bd f562 823e 176d 14bf
00000280: 1d4a b33e 7883 d0be cd3f d03d 74b3 a4be
00000290: 9de6 163f 1935 03bf caed d43e 9c97 1bbf
000002a0: 5358 73be 1c92 17be 081b 383d b3a1 2ebe
000002b0: 2625 2ebe c5a4 183e 36fb 0ebd 609f 9bbe
000002c0: 89ca 173f 0626 36bf 4c9c 883d 13f2 8fbe
000002d0: 0c2a 56be b7f4 cfbe ca62 913e 32a4 bd3c
000002e0: 307b bdbd 78ce eebd eb04 e1bd 63f2 48be
000002f0: fd55 173f 1932 4fbe d05e d1be 7de1 2f3e
00000300: 6acd 503e 6176 993e 1272 f83e 0a0d 02bf
00000310: 8bff a1be 3cc4 943e 00c3 dc3c 7202 5f3e
00000320: 6427 083f bc3f 05bf 0c0f 91be 3cb6 0f3e
00000330: e394 76be 65cc a1bd bb59 0bbf 0335 bb3e
00000340: 6924 96be c7fd 9ebd 7613 dfbb dc30 93be
00000350: c00a b23e 9535 0fbe 02a5 5cbd 33b5 b03e
00000360: 64ef d23b 84e5 063e b4d3 0cbf f235 a73e
00000370: 736a e73e 8cf2 aabe e3ac 693e 2d9c 8dbc
00000380: 5db8 053f 272d e2be f389 ce3e 4120 84be
00000390: 5d5e 4b3e c7f1 02be 23e7 8d3e 11e7 15bd
000003a0: 52a9 713e b8aa 00be 5000 273e 3b66 8dba
000003b0: 7835 3a3e 293d d13e 0390 e2bd c77f 603d
000003c0: 78f3 8cbd 28a4 62bd 892c e0be dd64 d93e
000003d0: 50a3 793e 2465 10bf 47f8 c239 7cc5 1cbd
000003e0: dba2 233f cb12 7fbe 8c6f e73d 3b49 c1be
000003f0: 5972 963d 04d1 073e b806 0f3f e9c1 fb3c
-0.04966002 0.08768608 0.71402395 -0.35148075 -0.27132156 0.5535313 0.047714718 -0.13295272
0.38438138 -0.36405137 -0.41676432 0.26549816 -0.41825175 0.057116028 -0.218453 0.23194273
-0.20581934 0.028722696 -0.09925696 0.0016876339 0.10539701 0.01860776 -0.3592233 -0.092050925
0.04920615 -0.30407634 0.64972144 -0.6564079 -0.2828291 0.6007025 -0.34120387 0.123824984
0.4098628 -0.17742836 0.26905796 -0.13724911 -0.1142527 0.31232095 0.35147655 -0.19071133
0.4246222 -0.07270197 0.20223747 -0.19742739 -0.10328581 -0.09748059 -0.077040605 -0.21459629
0.11986422 0.006625746 0.59952384 -0.59419453 -0.52493227 0.57192284 -0.16698128 0.17144558
0.46268854 -0.498651 0.5062511 -0.46043456 0.06344634 -0.10670475 -0.3805893 0.34503618
-0.022664564 0.03676231 -0.26065814 0.05755318 0.7385275 -0.61059487 0.68455034 -0.22783752
-0.13662505 0.323459 -0.13898616 0.047002785 -0.23466201 0.6459639 0.19130258 -0.049282618
-0.10237898 -0.050334584 0.49330828 0.040310897 -0.51185834 0.20050807 0.2906409 -0.40860373
-0.016276823 -0.22674721 0.054937955 -0.1697635 0.2572314 -0.27341986 -0.1269209 0.23848407
-0.056735918 -0.023379207 0.28748283 -0.28082153 -0.08871022 0.22559857 -0.27979407 0.25153625
0.515194 -0.20271549 -0.39318582 0.7764929 -0.088376194 -0.16009508 0.15918809 -0.62664807
0.6858939 -0.5278472 -0.15433271 -0.058530662 0.685753 -0.642131 -0.5408219 0.1742899
0.022017177 -0.08276922 0.36595052 -0.5461942 -0.43325394 0.2728457 -0.15776022 -0.06660577
0.44447935 -0.18918216 0.116114914 -0.5550046 0.18682185 0.021365102 0.61335504 -0.43250775
0.19818653 0.01828595 -0.26358613 0.17359607 0.03905756 -0.079092465 -0.19086504 0.29595578
-0.33515838 -0.26774406 0.718242 -0.4621653 -0.49922284 0.28603098 -0.14026023 -0.044552624
0.43064332 -0.5376061 0.48787683 -0.2881089 -0.2717277 -0.0409001 0.25466123 -0.5797896
0.3501748 -0.40725303 0.10168419 -0.32168162 0.5894564 -0.51252896 0.4158767 -0.6077821
-0.23764162 -0.1480183 0.044947654 -0.17053871 -0.17006359 0.14906605 -0.034907542 -0.3039503
0.5929342 -0.7115177 0.06670436 -0.28114375 -0.20914477 -0.4061639 0.28395683 0.023149583
-0.09252012 -0.116604745 -0.10987266 -0.19623713 0.5911558 -0.20233954 -0.4089265 0.1717586
0.20390859 0.29973128 0.4852453 -0.50801146 -0.31640276 0.29055965 0.026948452 0.21778277
0.53185105 -0.52050376 -0.28331792 0.1403436 -0.24080233 -0.07900313 -0.5443379 0.36563882
-0.29324654 -0.07763248 -0.00680774 -0.28748214 0.34773827 -0.13985284 -0.0538683 0.34513244
0.006437229 0.13173491 -0.55010533 0.32658345 0.45198402 -0.33388174 0.22819857 -0.017286384
0.5223444 -0.44175074 0.40339622 -0.25805858 0.19860215 -0.12787543 0.27715406 -0.036597315
0.23599747 -0.12565124 0.16308713 -0.0010787913 0.18184459 0.40866974 -0.11062624 0.054809358
-0.068823755 -0.055332333 -0.43783978 0.42459765 0.24378705 -0.5640433 0.00037187545 -0.038274273
0.6392037 -0.24909513 0.11300573 -0.37751183 0.07346029 0.13263327 0.55869627 0.030732112

rnn_slow.weight_hh_l0 f4 [48, 16]
00000000: 8c7d 133e 9598 4b3d e192 c2bd 19f8 2a3d
00000010: 88ef fabd a7cf 14be f474 5abe d6c6 5cbe
00000020: 4c2c 22be 5c3e 47be 92b8 0a3e ab72 bbbd
00000030: 1109 b8bd f5c0 fcbd aaba cc3d a2d4 923d
00000040: aff6 453e 85f6 4bbe 1be8 343e eabb 13be
00000050: df71 143e b10e 37be 9b38 0a3f 690b 713d
00000060: 2da6 8f3d ed0b 3fbe 9118 9b3e dfcb 173b
00000070: cf7a 9f3e 1a75 34be 57f7 513c 2040 8e3e
00000080: fc07 483d 03b4 95bd 322d a83e 65cb 8f3e
00000090: 8bf8 513e 01ed b7bd e38b 32bc fa4b e23d
000000a0: f263 56be cfb7 323e 717e ef3c 68ce 16bc
000000b0: 675c 42bd 8119 32bd ced0 16bd 5300 5d3d
000000c0: e584 93be bcc2 a0be 3255 4a3e fc29 a53d
000000d0: fb0f 993e a934 8cbe 4d99 b8bc 8736 6d3c
000000e0: 9478 16be 3b62 013e 1abf 2d3d 1c60 fabc
000000f0: 899b 50bd ee19 5a3e 0dd2 42bd 3652 923e
00000100: 8509 843e cc15 8c3e e0a1 323e 3a86 5c3c
00000110: 7c4e 953d 0e8d e6be 5f66 353e 00ce 3f3e
00000120: 3f89 81be fe77 99bd 6ad4 863c b09f 5c3d
00000130: 2c85 a5bd df10 3f3e a7d2 923e 240e 3b3b
00000140: bffe 823e 22fa 27bd cd1f 67bd 63f9 c03e
00000150: 314f d3bd 58fc 483e 78da c5bd 7f5b 4d3d
00000160: 9d49 a23d 6dfa 3cbe 9015 d8be 00fe b2be
00000170: 247e e3bc 215d b53d 0fe9 a63d e3d9 c93d
00000180: b9ce 323e 40a6 09be 0de8 8ebd 458c b73e
00000190: df72 e2be 3ce2 4c3e c809 80be 60c0 2f3d
000001a0: 355e c5be 1c5e 06be 5aff 1fbe 4613 afbd
000001b0: a8e4 90be 3247 dbbd 3e13 3c3e 82b8 89be
000001c0: 7f71 ccbe 79d5 46be a1b3 25be b77f bfbd
000001d0: cb1d 023f 9555 ab3e 4cdc 943d 0022 b7be
000001e0: d753 b43e 121d 213e f22c 153e d9c0 733c
000001f0: 8917 4bbd 260f 593c 06eb 11be e61e eb3d
00000200: ed97 c63c bac0 533e 21a8 d4bd 7195 ce3d
00000210: d973 1d3e ecf9 83be d602 d8bd 60cf 023e
00000220: dbbb 85be 359d 453e ba19 ec3d 5fb2 6d3d
00000230: acca e1bd 7fe2 39be becd 38be 7c97 bf3e
00000240: 4678 9abe 44cb 3f3d 1788 413e 1901 ac3e
00000250: ae1e 843d 5da2 6c3e 264d 41be bf1e 9b3e
00000260: 4d14 843d 50da 653e 7904 80be f288 0c3b
00000270: e002 253e 7727 b63c d464 ddbd 9e9c a73d
00000280: 2d5e a8be 99e2 fe3d 815f 343e 7264 96be
00000290: 3389 913e f8c1 82be 0ad6 aa3d 7a06 433e
000002a0: 8791 9b3e fb14 8dbe 256b 683e 488d f93d
000002b0: fe9c c7bc 404e 0ebe 55c4 4f3e 6f77 753d
000002c0: 53bd 8bbe 9408 353e 933a 0dbe f45b 1b3e
000002d0: 1288 35be 8369 323e 2785 7fbd c974 e1be
000002e0: a4ce a03e bb33 6e3e f688 5bbe 11d3 8a3e
000002f0: 8c10 3ebd b629 59be 8e9c a0be 4eec df3d
00000300: 3b3a e13d 8719 c03d 8ec8 833e d298 b23c
00000310: 8b4f ca3e bfab a6be 564a dfbd 5f1f ef3d
00000320: 07e6 893d 3f79 50be 2d0f e6be 6160 7a3e
00000330: aaf5 3f3e 800b 803e 05a2 553d dc59 063e
00000340: 9fd1 69bd 6b8b 0b3e 1cff 473c a5f1 1f3e
00000350: f7bc 583e 06ad dbbc 393b ffbd a641 25bc
00000360: d975 9abd f782 0fbe 3947 873e c468 a9be
00000370: cf49 5b3e b0b3 25bc 5010 633c baca b43e
00000380: 5fe7 1fbe c26c 883d a139 323d 9fcf ed3d
00000390: bc9d a2be 6512 153e 1cfb 4abd 4f1d e43d
000003a0: 451e bfbe 3132 94be 1be1 2abe 720b 473e
000003b0: 37af 24be ebd6 403e 5c99 cb3e af0f ffbe
000003c0: d101 733e d401 4f3c 5b5f 653e 9222 46be
000003d0: 1455 9f3d 5503 4b3e 76e4 ed3e 6e38 fcbd
000003e0: c5a7 a3be 0173 febd f58d cf3e 20a9 80bd
000003f0: a537 e33d 0d0b 8a3e db1c 7ebe 331f a1bd
0.14403361 0.04970606 -0.09500671 0.04174051 -0.12252718 -0.14532338 -0.21333677 -0.21560225
-0.1583721 -0.19457382 0.1354697 -0.091527306 -0.08986104 -0.12341491 0.09996541 0.07169463
0.19332384 -0.19918258 0.17666666 -0.14427152 0.14496563 -0.17876698 0.53992623 0.058848772
0.070141174 -0.18656893 0.3029218 0.0023162288 0.31148383 -0.17622796 0.012815318 0.27783298
0.04883574 -0.07309725 0.3284698 0.28084865 0.20504968 -0.08980752 -0.010897609 0.11049648
-0.20936564 0.1745293 0.029235097 -0.0092044845 -0.047451403 -0.043481354 -0.036820225 0.053955387
-0.28812328 -0.3139857 0.19759062 0.080646485 0.29895005 -0.27383927 -0.022534037 0.014478332
-0.14694434 0.12635128 0.042418577 -0.030563407 -0.05092958 0.21298954 -0.0475636 0.28578347
0.25788513 0.2736038 0.17444563 0.0134597365 0.0729036 -0.4502949 0.17714833 0.18730927
-0.25300023 -0.0749359 0.016458709 0.053863227 -0.08082041 0.1865878 0.2867634 0.0028542364
0.2558498 -0.04101003 -0.056426812 0.37690267 -0.10317839 0.19627512 -0.0966081 0.050136086
0.07924197 -0.18454905 -0.4220395 -0.34959412 -0.02777011 0.088556536 0.08149921 0.09856012
0.17461671 -0.13442326 -0.06977854 0.35849205 -0.44228265 0.20008177 -0.25007463 0.042908072
-0.38548437 -0.13121837 -0.15624753 -0.08548598 -0.2829945 -0.10706939 0.18366715 -0.2689858
-0.3993034 -0.19417371 -0.16181804 -0.093505315 0.5082671 0.3346373 0.07268581 -0.35768127
0.35220215 0.15733746 0.14567927 0.014877521 -0.04958299 0.013248241 -0.1424981 0.11480503
0.024242366 0.20678988 -0.103836305 0.100870974 0.15376224 -0.25776613 -0.10547416 0.1277442
-0.26119885 0.19298251 0.115283445 0.058031436 -0.11024985 -0.18152808 -0.18047234 0.3742026
-0.30169886 0.04682471 0.1889957 0.33594587 0.06451164 0.23108812 -0.18877086 0.30296895
0.064491846 0.22446561 -0.25003412 0.002144393 0.16114378 0.022235615 -0.10810247 0.08184169
-0.3288435 0.12445564 0.17614557 -0.2937351 0.28424987 -0.2553861 0.08341606 0.1904544
0.30384466 -0.2755507 0.22697122 0.121851504 -0.024366852 -0.13897038 0.20289738 0.059928354
-0.2729288 0.17679054 -0.13791876 0.15171796 -0.17727688 0.17423062 -0.062382843 -0.44034413
0.31407654 0.23261921 -0.21438965 0.27114156 -0.0464025 -0.21207318 -0.31369442 0.109337434
0.10997435 0.09379869 0.2573895 0.021801386 0.3951381 -0.32552907 -0.1090285 0.116759054
0.06733327 -0.20358752 -0.44933453 0.24450828 0.18746057 0.25008774 0.052156467 0.13120216
-0.057084676 0.13627402 0.012206819 0.15619524 0.21165834 -0.026815902 -0.12462468 -0.010086453
-0.07542009 -0.14014803 0.26421526 -0.33087742 0.21414874 -0.010113642 0.01385887 0.35310918
-0.15615605 0.06661369 0.04351199 0.11611866 -0.31760967 0.14557798 -0.049555883 0.11138403
-0.3732778 -0.28944543 -0.16687433 0.1943796 -0.16082464 0.18831985 0.3976544 -0.49816653
0.23731162 0.012634713 0.22399656 -0.19349125 0.07779899 0.1982549 0.46463364 -0.123154506
-0.31963935 -0.12424279 0.40537992 -0.06282258 0.11094598 0.26961556 -0.24815695 -0.07867279

rnn_slow.bias_ih_l0 f4 [48]
00000000: 6cfe 8cbc 91f3 993e 0841 0f3d 8b4b 333e
00000010: 04e6 ecbd de04 df3d ebb2 8f3d d039 0f3d
00000020: 7708 59be 43b2 5c3e 3aa8 1a3e f7ec c43b
00000030: a67e 873e e9e4 19bd e52b 563c 6682 f6bd
00000040: 24ea b7be c6c5 e43b 7867 50be 68d2 10be
00000050: 5bb8 35bd ed92 8c3c b65e 34bd 98c9 d63d
00000060: 215f a0be f05c 96be 4ff2 3dbe 05a5 21be
00000070: 4b8f 92be 0a28 3abd 3fa0 83be 65d2 23bd
00000080: aff9 513e b6bc 8e3e d62d 9dbd 1936 ee3d
00000090: 852b 813c 15f0 883d 5a58 d5bd 6dd2 b33e
000000a0: e76e 543e 4791 4fbc dcb7 193d fdf9 743d
000000b0: 8724 5d3e cad2 e03d 98a4 6ebe 4de1 36bb
-0.017211162 0.3006864 0.034974128 0.17509286 -0.115673095 0.108896 0.07016548 0.034967244
-0.21194635 0.21552376 0.15103236 0.0060096937 0.26463813 -0.03757182 0.013071989 -0.1203659
-0.35920823 0.0069815842 -0.2035197 -0.14142764 -0.04436527 0.017159903 -0.044035636 0.1048767
-0.31322578 -0.2936778 -0.18549465 -0.15785606 -0.2862495 -0.04544834 -0.25708196 -0.03999557
0.20505403 0.2787835 -0.07674758 0.11631412 0.015767822 0.06686417 -0.10417242 0.3512148
0.20745431 -0.012668914 0.037528858 0.05980872 0.21595965 0.10977705 -0.23304975 -0.0027905286

rnn_slow.bias_hh_l0 f4 [48]
00000000: 1dbd 5a3d e8b2 873e f54a bcbd 14fa 113e
00000010: 1db5 c13d 62bf b0bd 7a2c b0bd 2a7a dbbe
00000020: 76cb 1dbe d1b2 3dbd 08b8 25be ec6c e13d
00000030: 9142 863e c021 30bd f462 783e 56f7 563d
00000040: 4094 9abe 6db7 5cbe 243f a43d b8bf 4b3d
00000050: 77fc 333e ee19 a43d 5cad 403c 3462 4e3d
00000060: fad1 9dbd b282 1dbe c73d 52be 809f 4ebd
00000070: b1c3 a9be d6d6 c3be bfc9 803c f604 57be
00000080: 449e 973e 8f13 1e3d 3b9f 953d 6282 df3d
00000090: b80a febe 18c7 7c3e bacf cc3e 3b5f f9bd
000000a0: 67a6 96be 1518 843e 13c8 7dbd 21c2 a5be
000000b0: 826a 903d 2fe3 b23d 5427 92be 6e44 cdbd
0.05340301 0.26503682 -0.091939844 0.14255553 0.09458373 -0.086302534 -0.08602233 -0.4286664
-0.15409645 -0.04631311 -0.16183484 0.11007103 0.2622266 -0.043000937 0.24256498 0.05248197
-0.3019123 -0.21554346 0.080198556 0.049743384 0.17576776 0.08012758 0.011760082 0.050386623
-0.077060655 -0.15381888 -0.20531379 -0.05044508 -0.33157113 -0.38249844 0.0157212 -0.20997986
0.29612935 0.03859287 0.073057614 0.109135404 -0.49617553 0.24685323 0.40002233 -0.12176367
-0.2942383 0.25799623 -0.061958384 -0.3237467 0.07051565 0.08734738 -0.2854563 -0.100228176

project_sf.weight f4 [16, 16]
00000000: a869 a03d 4e83 153e ccdd 23be 8a58 593e
00000010: 4458 e5bd 8839 61be 740f a63d 9403 f2bd
00000020: 5082 323d a022 24bd a0b9 65bc 72f7 0fbe
00000030: 5093 65bd 84d8 8dbd b084 9cbd 08b3 123e
00000040: 8017 40bd c450 b0bd 8098 07bc e025 3d3d
00000050: 8e40 133e 0490 9cbd e011 35be f042 adbc
00000060: e21c 3d3e c6ce 0f3e 2056 00bc a08b a93c
00000070: a27d 023e ee1c 3a3e bcd2 443e 34d1 c43d
00000080: 68db c6bd 8a53 39be 42e3 33be 4ae1 233e
00000090: 2c02 11be 6040 d5bd 145b f33d d09c 04be
000000a0: a062 f33c 6e91 5e3e a070 77bc cc6e 92bd
000000b0: 1e1b 5abe c81b 833d 16fc 6abe 3cc2 22be
000000c0: 40ed f43c d064 293d 5c18 543e 18e5 7ebd
000000d0: fce8 5bbe e033 883d 1476 de3d c813 7ebe
000000e0: d00e dfbd 3ad3 0abe c45b f0bd 0043 03be
000000f0: 0e25 0fbe 804b f63c f0d2 8b3c a622 743e
00000100: 340c 06be 46ff 483e a43e cebd 700d 1fbe
00000110: f8a3 74bd 5e78 57be 40d9 683e 50dc c93d
00000120: 4830 e93d 9437 f7bd 60b1 5bbc f2e8 453e
00000130: ac9c dabd d66d 1c3e c057 1f3d 44e1 5fbe
00000140: 5e5c 623e a02c dabc 66de 05be 2a69 163e
00000150: f2f3 563e 0c1c fdbd 0c7d 92bd 584a 693e
00000160: 9c80 06be 88fb 29bd 709b 9f3c 9cd3 5b3e
00000170: 4c05 423e 5c47 da3d 3c91 6e3e a4e6 213e
00000180: fc68 d6bd 40d4 2fbe 76ce 73be 2e6b 6bbe
00000190: 5ee9 54be 9064 873d 127e 633e bcab 9b3d
000001a0: a020 a13d 76e7 60be fc43 403e 3082 40be
000001b0: c0d0 9cbd c008 5ebe 369a 1d3e b0c6 a8bd
000001c0: 2c0b 08be 52f4 1d3e 72c8 5e3e dc5c 6cbe
000001d0: 98fa 5c3e 9493 c13d fcb3 27be e2c6 213e
000001e0: 94a7 39be 7c54 ffbd c089 213e dc65 f8bd
000001f0: 7409 7ebe 1ad9 6bbe 70bb 493e 4efd 64be
00000200: d408 4b3e fe8e 7a3e 6e2f 1d3e e0f3 d93c
00000210: 2c23 11be 3849 4ebe c86c 593d 4e49 713e
00000220: a058 773e 0e2f 293e ae77 0dbe 4cbc 943d
00000230: c098 debc ecb4 bfbd c06e 42be bc5b 48be
00000240: 8c0a f8bd b880 083e 88cf 2e3d 783e c43d
00000250: d0dd 24bd 0a05 09be 4e2b 01be 28c2 12be
00000260: 7ce0 b13d 3c27 a4bd 4c4b 27be 4ebd 2a3e
00000270: 3608 4c3e 68d7 a93d e8e4 3dbe a0fc 43bc
00000280: 168d 323e 3c2a 48be 7c1e 80bd e84d 263e
00000290: fe11 42be 4e7b 603e 5075 68be fcbd e3bd
000002a0: 40aa eb3d 727f 4fbe b0cf f73c b03d 623e
000002b0: 8e12 35be c8d9 11bd 980a 12bd 24f0 213e
000002c0: 2817 503d f0ed 3e3d 1007 e1bd 1068 a43c
000002d0: e636 5dbe 0085 b6ba b856 0a3e cce0 0d3e
000002e0: c834 0d3e 60a6 273c 9061 95bd 60e7 0abd
000002f0: 8088 55bb 6203 503e c0f8 45bc 4854 42be
00000300: fcca 423e 2c62 373e b8cb 24be 0aa6 5abe
00000310: 2851 fabd aed5 573e 0e4f 2c3e ac02 043e
00000320: 569e 4b3e 86c7 7e3e a05b aabc 3cd9 5dbe
00000330: c81c 1ebd 76d0 1a3e 8693 08be c8f3 7b3d
00000340: d825 d83d 94cb 3c3e 8064 953d fa6a 0a3e
00000350: e44c c73d 484c 6dbe 0ebd 73be 90bb 4fbe
00000360: a069 09bd a048 a83d 50b9 cdbc 6a2a 01be
00000370: d261 30be 8059 9f3d 60ff 1fbe d03d f5bd
00000380: b4dd 23be 8002 9dbd 6c0f 4a3e 78b3 7ebe
00000390: 10f7 173e 38ff 7b3e 8067 6cbe 60de 02bc
000003a0: 709f 473d 3499 413e ae8e 513e a6f9 143e
000003b0: 20f1 6b3c d21c 273e 801b c6bb 1674 50be
000003c0: d01a 57bd 5061 7c3e 3002 8abd e0a9 de3d
000003d0: aa78 6e3e 7c18 1f3e 30b7 04be 5464 f1bd
000003e0: 8e0f 3fbe c0f3 233e 1093 2c3d 1a50 003e
000003f0: 86b7 7f3e 1871 75bd c874 0fbd b802 06bd
0.07832652 0.1460087 -0.16002578 0.21225181 -0.11198476 -0.21994603 0.08108416 -0.11817089
0.043581307 -0.040072083 -0.014021307 -0.14059237 -0.05604869 -0.06926063 -0.07642496 0.14326108
-0.04689741 -0.08609155 -0.008276105 0.0461787 0.14380094 -0.07644656 -0.176826 -0.021150082
0.18468049 0.14043722 -0.007833034 0.020696461 0.12743238 0.18175098 0.19221014 0.09610215
-0.09709817 -0.18098274 -0.1756716 0.1600391 -0.14160985 -0.10412669 0.11882606 -0.12950444
0.029710114 0.21735165 -0.0151025355 -0.07150039 -0.21299407 0.06401783 -0.22947726 -0.15894407
0.029898286 0.041355908 0.20712417 -0.0622302 -0.21475595 0.06650519 0.10862365 -0.24812233
-0.10891497 -0.13557139 -0.11736253 -0.12818527 -0.13978979 0.030065298 0.017068356 0.23841342
-0.13090593 0.19628629 -0.100705415 -0.1553247 -0.059726685 -0.2104201 0.22739124 0.098564744
0.11386162 -0.120711476 -0.013408989 0.19327143 -0.10674414 0.15276274 0.038902044 -0.21863276
0.22105548 -0.026632607 -0.1307312 0.14688554 0.20991495 -0.12358865 -0.07152757 0.22782266
-0.13134998 -0.041499645 0.019483298 0.21467441 0.18947333 0.10658142 0.2329759 0.15810639
-0.10469243 -0.1717081 -0.23809227 -0.22990105 -0.20792148 0.06610978 0.22216061 0.07601115
0.07867551 -0.21963295 0.18775934 -0.18799663 -0.076570034 -0.21683025 0.15390858 -0.08241022
-0.13285512 0.15425232 0.21756151 -0.23082298 0.21579969 0.094519764 -0.16377252 0.15798524
-0.18130332 -0.12467286 0.15775204 -0.12128803 -0.24808294 -0.23032036 0.19700408 -0.22362253
0.19827586 0.2446861 0.15350124 0.026605546 -0.14173573 -0.20145118 0.053082258 0.2356312
0.24154902 0.16521856 -0.13815185 0.07262477 -0.027172446 -0.0936068 -0.1898756 -0.19566244
-0.12111387 0.13330352 0.042678386 0.095822275 -0.0402506 -0.13380828 -0.12614176 -0.14331877
0.08685395 -0.08015296 -0.16337317 0.16673777 0.19925007 0.082930386 -0.18544352 -0.011962086
0.17436633 -0.19547361 -0.062558144 0.16240656 -0.18952176 0.21922037 -0.22701001 -0.11120221
0.11507082 -0.2026346 0.0302504 0.22093844 -0.1768286 -0.035608083 -0.035654634 0.15814263
0.050803334 0.046613634 -0.10987675 0.020069152 -0.21602973 -0.0013925135 0.13509643 0.13855284
0.13789666 0.010232538 -0.07293999 -0.033912063 -0.003258258 0.2031379 -0.012083232 -0.18977463
0.19022745 0.17908543 -0.16093338 -0.21352401 -0.122225106 0.21077606 0.16827032 0.12891644
0.19884619 0.248808 -0.020795643 -0.216649 -0.038601667 0.15118584 -0.13337526 0.061511785
0.10554093 0.18437034 0.072945595 0.13517371 0.097314626 -0.2317363 -0.23802587 -0.20286393
-0.033547997 0.08216977 -0.025112778 -0.12613836 -0.17224815 0.07780743 -0.15624762 -0.119746804
-0.16002542 -0.076664925 0.19732445 -0.2487315 0.1484034 0.24609077 -0.23086357 -0.007987589
0.048736036 0.18906099 0.20464584 0.14548358 0.01440075 0.16319588 -0.0060457587 -0.20356783
-0.052515805 0.24646497 -0.067386985 0.10872245 0.23288217 0.15536684 -0.12960505 -0.11786714
-0.18658277 0.16010952 0.042132437 0.12530556 0.24972352 -0.059922308 -0.03502348 -0.032717437

project_sf.bias f4 [16]
00000000: 3026 e13d b083 633e c095 e93d 4e5e 39be
00000010: 4007 1cbe 9c47 d4bd 2e60 18be 66ec 6d3e
00000020: b838 503e 1886 57bd 704b 6fbd d452 75be
00000030: f29d 773e 08bf d0bd 2af0 6fbe 5c85 08be
0.10993612 0.22218204 0.11405516 -0.1810238 -0.1523714 -0.10365221 -0.1488044 0.2323471
0.20334136 -0.052618116 -0.058421552 -0.23957378 0.24181345 -0.10192686 -0.23431459 -0.13332123

rnn_fast.weight_ih_l0 f4 [48, 1]
00000000: 008a 47be a05a 103c 2877 6bbd e0f7 ba3c
00000010: e8cd bebd 044c 30be fcbf 0f3e 32b6 273e
00000020: 0cdd 873d 8868 c23d 64e1 c8bd c08e 97bd
00000030: c8bc 1bbe a0c9 f73c b6ae 5f3e a62e 373e
00000040: a44b 8a3d 6c9f c1bd 785a 97bd 12c3 20be
00000050: 70e9 753d 4075 6abe 64de 2e3e 2e3a 263e
00000060: 828c 75be 70bb 4ebd ccc6 913d d62f 0b3e
00000070: 42e4 41be 00b0 adb8 0858 423d 703c 733d
00000080: d656 59be 9afc 763e 008c 8d3c 1864 a3bd
00000090: 30f3 133e deeb 1dbe c0f2 02bd 2835 73bd
000000a0: 5e2b 79be b428 6d3e 2c71 183e 7846 dd3d
000000b0: ec48 5abe a4e4 633e 1cbf e53d 0655 583e
-0.19486237 0.008810669 -0.057486683 0.022823274 -0.09316617 -0.17216498 0.1403808 0.16378096
0.06633958 0.09492594 -0.09808615 -0.07400274 -0.15208733 0.03024751 0.2184399 0.17888889
0.067527086 -0.094542354 -0.073903024 -0.15699413 0.060037076 -0.2289629 0.17077023 0.16233131
-0.2397938 -0.050471723 0.071179956 0.13592467 -0.1893473 -8.2820654e-05 0.047447234 0.05938381
-0.21224532 0.24119797 0.017278671 -0.07978076 0.14448237 -0.15422007 -0.031969786 -0.059376866
-0.2433295 0.23160058 0.14886922 0.108044565 -0.2131688 0.22255188 0.11218092 0.21126184

rnn_fast.weight_hh_l0 f4 [48, 16]
00000000: ff19 66be b650 213e d9ad ccbd e95a 2ebe
00000010: b025 4a3e c630 613e 9dbc cc3d 4f13 9abb
00000020: a9cf 1d3e e5aa 283e bfe2 013e 2d12 913d
00000030: eefe 6c3e 3273 4dbe 1623 4dbe 5ab9 31be
00000040: b588 59be d8b9 d6bd f4c8 0b3e 8055 6f3e
00000050: c3f0 f0bd 16fc 7fbe 13a5 3bbe 3105 97bd
00000060: 1c52 5e3e d889 f73d 1a03 703e 063a 3cbe
00000070: 935c 86bd 1080 e7bc 5a93 673e 6235 12be
00000080: 92f3 38be b0b6 3d3e 8341 163e a63e 3f3e
00000090: 9d2f 003d 979b 03be dbfd 2ebe 44e6 fc3b
000000a0: ecfd fcbc aeec 323e 2362 d13d e916 8b3d
000000b0: d112 1cbd 7bae 263d eb96 2fbe 1764 5cbe
000000c0: 58dd 3fbe 626e 653e c683 fa3d 82c3 e53d
000000d0: fe7b 643e d24b 263e a235 c7bd 6f76 34be
000000e0: a17d b93c daef 993d e894 e6bd 775a fbbd
000000f0: 85d0 1d3e 809f 923c e6e0 49be 064d 5bbe
00000100: bc8b 3b3e 8840 3d3d 3321 1fbc 7102 4b3d
00000110: 8ef1 2d3e a51a 403e 500e ed3d 8ad7 3f3e
00000120: 8321 4fbd a973 2d3d ce81 283e 8ad0 4b3e
00000130: 28c1 e53d 7d4f 0a3c 4362 473e 8d16 2d3d
00000140: 9422 603e 6b05 cbbd 026d 963d 3227 463e
00000150: cce3 133e 2e62 ce3d 1f68 7fbe af3c 76bd
00000160: b226 793e 73ba bbbd ffc8 11be 3946 43bd
00000170: 3cf3 11be f46c 46be b389 f5bd e4f0 5dbe
00000180: b274 473e e30f debd 1765 c13c ce3d df3d
00000190: a3ef 13bd c270 39be c19e 76bd b60c 11be
000001a0: 1827 55be a992 3abe 57c2 e7bd d7f6 74be
000001b0: 1598 07be 231e 2f3e 60bd dcbc c2d7 c33c
000001c0: 6eb4 523e b80f 193e a1e4 03bd d5ce a5bd
000001d0: 1002 9abd b630 273e 1cb4 bb3d 957c 4abe
000001e0: 3126 4abe 9d5a 43be a640 693e cec7 ca3d
000001f0: 1558 66bd 1426 2b3d e153 3f3e b5c9 51bd
00000200: 0f17 633e 07a6 423e 0ff3 eebd eae6 a53d
00000210: 3579 753e c162 45be 0700 343e 8e12 753d
00000220: 0ed1 773e ec42 9d3d 0881 17be 1cec 533e
00000230: 69b6 4f3e 6901 22be 2427 e13d ef0f 573e
00000240: 0106 33be b0e6 8cbd 0e2a 823c 7d49 733e
00000250: 775d b4bd 4895 5b3d 030b d33c 9227 8e3d
00000260: 472d b2bb 8a64 4bbe 4959 9b3d 70b6 08be
00000270: 1677 853d 0954 c9bd b6a0 3cbe 36e0 0e3d
00000280: 530a 73bd 0fa9 d8bd 5a51 283e 279a 0d3e
00000290: 8578 b7bd 5df5 24be c6b3 76be dc36 4b3c
000002a0: dd6a 473d ac64 3fbe 5497 4cbe da09 61bb
000002b0: 01b6 02be 6174 1ebe 1a15 25be 04df a93d
000002c0: 5555 01bd a730 263d f063 1d3d 26a2 6fba
000002d0: 5077 2e3e 1761 26bd 968d 13be a911 f7bc
000002e0: 67da 38be bff4 143e 9a95 a73d e725 debb
000002f0: 17b9 34be b4a5 e7bd 4ab8 42bd 7ac2 07be
00000300: 9a3f 4ebe 9b77 cebd 6cff f9bd caa2 763e
00000310: 08ff 233e 539d 4ebe 5a9a 43be c942 523e
00000320: 7eed a8bd 0670 0b3e 9ccf 473e 3dd2 f23d
00000330: 9dc5 9dbd 74af a03d 1cc6 25be 5147 35be
00000340: 88f8 14be b9f4 583e 2fc3 6dbe e428 4cbe
00000350: bf94 563e 1c38 55be dea1 5d3e 264d 023e
00000360: 3200 363e 59ca 8f3d a64f 6b3e 9c6d 56be
00000370: 912b 753e dc24 e3bd 0c67 143d e90e 613e
00000380: a7dd 53be 8fbb d93d f1d7 593e 0d83 ffbd
00000390: 438c b63d fd94 663e 3bac d43d 1e67 553e
000003a0: 49d8 c7bd b11f 10bb 3c18 2abd dbe5 51bb
000003b0: 567d f2bc 6ee3 603e c49b fc3d 8ef7 a83d
000003c0: eeae 7d3e e8ec 3dbe 9fa9 23be f957 4ebe
000003d0: 0ebd 38be a276 5d3e 43d2 5cbe 8016 4dbe
000003e0: 7147 453e ad42 053d cebc 273e 168a 173e
000003f0: 9927 96bb a801 2c3e 0b09 6d3d 1a5e 6dbe
-0.22470854 0.15753445 -0.09994096 -0.17026867 0.19740939 0.21991262 0.09996913 -0.004702009
0.15411247 0.16471441 0.12684153 0.07083545 0.23144123 -0.20063475 -0.20032915 -0.17355862
-0.21243556 -0.10484666 0.13650876 0.2337246 -0.11764672 -0.24998507 -0.1832469 -0.07374037
0.2171101 0.120868385 0.23438683 -0.18381509 -0.06560626 -0.028259307 0.22614804 -0.14278176
-0.18061665 0.18526721 0.14673428 0.18676242 0.031295408 -0.12852322 -0.17089026 0.0077178795
-0.030882798 0.17473099 0.10223796 0.06791479 -0.038103882 0.04069374 -0.17147414 -0.21522556
-0.1873678 0.22405389 0.12232165 0.11218931 0.22312924 0.1623986 -0.097270265 -0.17623304
0.022642912 0.07516451 -0.1125887 -0.12273114 0.15411575 0.017898321 -0.19714698 -0.21416101
0.18315023 0.04620412 -0.009712505 0.049562875 0.16986677 0.18760164 0.115749955 0.18734565
-0.05056907 0.04234663 0.16455767 0.1990377 0.11218482 0.008441803 0.19471078 0.042257834
0.2188819 -0.09913143 0.0734501 0.1935089 0.14442366 0.1007732 -0.24942063 -0.060116466
0.24331167 -0.09166422 -0.1423683 -0.04767439 -0.14252943 -0.193775 -0.11989155 -0.21673924
0.1947811 -0.10842874 0.023607774 0.1090046 -0.036117207 -0.1810942 -0.060209993 -0.14165005
-0.20815694 -0.18220009 -0.11316364 -0.23922287 -0.13241608 0.1710134 -0.02694577 0.023906592
0.20576641 0.14947402 -0.03220046 -0.08096091 -0.07519925 0.16327175 0.091652125 -0.19774087
-0.19741131 -0.19077535 0.22778568 0.09901391 -0.056236345 0.04178436 0.18684341 -0.051217753
0.22176765 0.19008647 -0.116674535 0.08100684 0.23972018 -0.19275953 0.17578135 0.05983215
0.24200842 0.0767878 -0.14795315 0.20695537 0.20284428 -0.1582085 0.109937936 0.21002172
-0.17482759 -0.06879938 0.015889194 0.23758502 -0.088068895 0.053609163 0.025762087 0.06941141
-0.0054375264 -0.19862571 0.07585389 -0.13350844 0.065168545 -0.098304816 -0.18420681 0.034881793
-0.059336018 -0.1057912 0.16437283 0.13828336 -0.08958534 -0.16109224 -0.24092016 0.012403216
0.048685897 -0.18690747 -0.19979602 -0.0034338147 -0.12764741 -0.15474083 -0.16121331 0.0829449
-0.03157552 0.040573742 0.038425386 -0.00091412885 0.17037702 -0.040619936 -0.1440948 -0.030159788
-0.18052064 0.14546488 0.08182831 -0.0067794207 -0.17648731 -0.11310902 -0.047539033 -0.1325778
-0.2014145 -0.10081407 -0.12206921 0.24085537 0.16015255 -0.20177202 -0.19101849 0.20533289
-0.08248423 0.13616952 0.1951279 0.11856506 -0.07703707 0.07845965 -0.16188854 -0.17702986
-0.14547932 0.21187104 -0.23218988 -0.19937474 0.2095518 -0.20822185 0.21643779 0.12724742
0.17773512 0.07021017 0.22979602 -0.2094025 0.239424 -0.11091015 0.036231086 0.21978344
-0.20690022 0.10631477 0.21273781 -0.12476168 0.089134715 0.22517772 0.10384413 0.20840117
-0.0975805 -0.0021991546 -0.041527018 -0.0032027874 -0.02960078 0.21961758 0.123343974 0.08250342
0.24773762 -0.18547404 -0.15982674 -0.20150746 -0.18040869 0.21627286 -0.21564583 -0.20028114
0.19265534 0.03253429 0.16380617 0.1479877 -0.004582357 0.16797507 0.057869952 -0.23180428

rnn_fast.bias_ih_l0 f4 [48]
00000000: 787a 57be c2a7 57bd 09f1 dd3c 8129 513e
00000010: f2c4 943d 4d3c 4ebe f775 953d c4fc 41be
00000020: bbe4 183e 2619 16be a5d2 54be c7ea 9e3d
00000030: 6c24 0bbe d521 643e 6923 f03c 94dd 623e
00000040: ffe2 df3d 55fc ddbd 70ab 583d d838 11be
00000050: e1b5 46be 2fd9 293e bbce 10be 64f9 973d
00000060: bee9 0c3e ef8b bc3d a508 553e 0933 6b3e
00000070: b5fc 733e ab2f ea3c 1292 26bc 6531 a1bd
00000080: dc02 18be 235b e73d 11d3 48be c7a4 813e
00000090: c830 843d 1ffd 36bd 2f62 4abe c7d8 163e
000000a0: bb68 113e 5c17 e33d 5934 78be 41fe 2d3e
000000b0: 0cd4 02be ece7 703e 40c5 163e f410 2cbc
-0.21042812 -0.05265022 0.027092474 0.20425989 0.07264127 -0.2014019 0.07297891 -0.18944079
0.14931004 -0.14658031 -0.2078348 0.07759624 -0.13588113 0.22278531 0.02931376 0.22154838
0.10931968 -0.10839144 0.05289787 -0.1418184 -0.19405319 0.16586755 -0.14141361 0.07420614
0.1376104 0.09206378 0.20804079 0.22968687 0.23826869 0.028587183 -0.010166662 -0.078707494
-0.14844841 0.1129668 -0.19611765 0.25321028 0.06454617 -0.04467499 -0.19764017 0.14731131
0.14200108 0.1108844 -0.24238719 0.16991521 -0.12776202 0.23525971 0.14723682 -0.010502089

rnn_fast.bias_hh_l0 f4 [48]
00000000: 34c0 383e bcf0 a6bd ba9f 3a3e 5d86 2f3c
00000010: 2822 6d3e 5a2e 7e3d 6cb8 0bbe 1224 033d
00000020: a503 5c3e 4182 bd3c f0e9 84bd f898 53be
00000030: 80c0 bcbd 1bfa 033e b71a 59be f778 09bd
00000040: 5dd8 99bd dc22 343e 90c8 483d 7d44 d5bc
00000050: b3a8 7a3e 8373 19ba 18ef e6bd 8849 683e
00000060: 94c3 13be 04ac 6cbe e3a1 0ebe 9972 24be
00000070: 6640 df3d 53ba 49be 90b3 ecbc b81d 823d
00000080: bebe c2bd 7411 373e ea49 5e3e 8345 563e
00000090: 4197 da3d 96ee 403e 8013 4c3c 93f8 62be
000000a0: 651c 2e3e e96a 883d aa39 fb3d 42a2 c7bd
000000b0: fbe0 0dbe aa5c 66be 2404 863e 4a2c 72be
0.1804207 -0.08151385 0.18224993 0.010713187 0.23157561 0.062055923 -0.1364457 0.03201682
0.21485765 0.023133399 -0.064899325 -0.20663822 -0.09216404 0.12888376 -0.21201597 -0.033562627
-0.07511971 0.17591423 0.049019396 -0.026033634 0.24478416 -0.00058536994 -0.11276072 0.226843
-0.14430076 -0.23112494 -0.13928942 -0.1605934 0.10900955 -0.19699983 -0.028894216 0.06353325
-0.095090374 0.17877752 0.21707883 0.20924954 0.10673381 0.18841013 0.012455821 -0.22165136
0.17003019 0.066610165 0.12266858 -0.09747745 -0.13855354 -0.22496286 0.26175034 -0.23649707

initial_evidence.weight f4 [1, 16]
00000000: 31f4 013e 15a7 66be 88fa dc3d 9a50 87be
00000010: ea49 de3c dcdb b4bc 54c8 083e 76cb 083e
00000020: 81d4 5c3d cae6 113e bf7d 1d3e cbb8 fc3c
00000030: 729a afbd 7a62 093e 2e18 29be 7b1c 2cbe
0.12690808 -0.22524674 0.107899725 -0.26428682 0.027134854 -0.022077493 0.13357669 0.13358864
0.053913597 0.14248195 0.1538 0.030849835 -0.0857438 0.13416472 -0.1651313 -0.1680774

evidence_head.0.weight f4 [1, 16]
00000000: 81f5 bf3c 4f35 6f3d ccfc f13b 5c36 423e
00000010: 8552 433d ec67 743d 2ee3 a13d a58a 2e3d
00000020: d252 893d bd12 583d 2753 803d 1528 893c
00000030: 685f 903c 6f39 693d 665d 9f3d e2fc b33d
0.023432495 0.05840045 0.007384872 0.18966049 0.04768612 0.05966942 0.07904659 0.04261269
0.0670525 0.052752245 0.0626586 0.016742745 0.017623618 0.05693954 0.07781486 0.08788468

fast_choice_head.0.weight f4 [16, 16]
00000000: 7cf0 913d ac80 57be 4824 a73d 70e2 6cbd
00000010: fcba bf3d 6877 573d a0a0 7ebe 16f6 26be
00000020: 649a f8bd d0ee 7b3d 3028 cbbd 80a4 bd3d
00000030: 5803 7bbd 2092 3e3c 4053 6dbc dc1e de3d
00000040: 102c c63d 0c71 093e 3085 c8bd 00bb 94bd
00000050: 006e c6bc 4c33 8cbd 2059 74bd 60b0 c6bc
00000060: 501c f03c 36c9 2fbe d87f 04be 2a2b 16be
00000070: 4003 23be 3a97 57be 3451 b73d 4c27 7bbe
00000080: 90c6 403e c656 1a3e 94c5 4b3e 986b a73d
00000090: d470 153e 547d bdbd de37 12be 06c5 75be
000000a0: 0005 7dbd f46a 81bd 384e fb3d 16ce 563e
000000b0: 0005 10bd d823 45bd a082 513d 4467 5cbe
000000c0: 00b2 80bb b01c 293e 98c4 2abd e4cb c43d
000000d0: e8e7 5cbd e03f cebc 70b8 2fbe d0f9 b1bc
000000e0: b608 39be 80de ca3d 3068 dbbd 4ea3 47be
000000f0: fc3b f2bd 5cec 17be ccef 4bbe 0e6f 743e
00000100: 00ce 25bd 88d7 593d 0a17 143e ac38 a6bd
00000110: 1aa6 47be 0e16 0dbe 7696 0c3e 7af2 5ebe
00000120: c04a d13b 7890 483e 802f 54bd a0b6 24be
00000130: 1867 a1bd 40bb df3b dec2 1d3e 00cd c03a
00000140: 0cfd 2cbe 0020 d1bb 7e56 0b3e a6d3 6bbe
00000150: 80aa 793c 20e3 3a3c 30d5 4a3d 7efb 75be
00000160: 1032 43be 3e84 6fbe 967e 4c3e 4e20 56be
00000170: 0e83 693e 407e 55be 7265 2f3e f0f4 a7bd
00000180: 6465 7a3e c001 3b3d 1491 603e 90e8 8f3c
00000190: b896 0abd 362d 40be e206 0abe 609c 733e
000001a0: f632 7e3e 74b4 5c3e 54f7 0f3e 9cd3 393e
000001b0: 349a 3bbe 201a b53c b88f e33d 108d 0bbe
000001c0: 68bb 4b3d 3297 6a3e 88b1 acbd 6432 f83d
000001d0: 64e6 aabd 0a3b 35be 300f 333d e035 5ebe
000001e0: 422d 7dbe 00ad b33a 40d5 383c b480 bfbd
000001f0: a0e2 1dbe 1c57 ae3d 709a f6bd 80d6 4cbe
00000200: 1ac5 4fbe 50a1 5d3d 02b1 673e c098 babd
00000210: 788d f8bd 249e 1a3e ca5a 43be b076 4e3e
00000220: 9e47 7cbe c8ec 0c3d d4d6 9bbd 5a57 6c3e
00000230: 5c61 87bd b8f5 13be fed6 043e 7ede 64be
00000240: 8cad ed3d be66 1a3e 084c ccbd 6aeb 203e
00000250: 0867 2b3d 74e1 cbbd 9c14 ab3d ce19 45be
00000260: 000b c6bb be0d 0a3e cc50 623e 30af d3bd
00000270: 5c56 09be 7876 10be ec4f fe3d e605 713e
00000280: 9620 07be 1022 213d 404c 653e 40cd fabc
00000290: 7c4d 003e d812 61bd da2e 61be a2ec 493e
000002a0: 5091 2fbe 06d7 42be 5014 7dbd ae71 28be
000002b0: e006 1b3e 709b 2abd e6e1 75be 002c 83bb
000002c0: 58a4 273d daac 3b3e 4822 e23d 603a 48bc
000002d0: 4aa3 7cbe 806b 18bc d6a2 43be c895 673d
000002e0: 0ca0 9b3d 98c8 f43d 4463 0ebe 8ed4 69be
000002f0: ec85 cebd a0be c03d a883 e23d 12d1 2f3e
00000300: 8089 9dbb 483a 263e 70d6 75bd 000f 1c3b
00000310: e012 8fbc dade 13be b4af 59be 1c73 ce3d
00000320: 00a1 c1bd 8cd2 4b3e 40c8 93bc a042 6a3d
00000330: 9cb7 67be 42fc 51be 1cda da3d 6673 0ebe
00000340: a024 74be dea8 533e 84a0 ea3d 2800 f1bd
00000350: 5215 603e 1040 d33c 2c6d 7d3e 20e5 edbd
00000360: 3632 1a3e c056 51bd 84fc df3d 0a3a 5b3e
00000370: 046a 8c3d b4e5 c2bd e217 4abe 101c ee3d
00000380: 48f8 f93d 3a5b 2a3e 0673 00be 867a 493e
00000390: 409b 91bd c0cc 50bd d8eb 4f3d 04e7 2fbe
000003a0: 00ba b5ba f647 26be 4068 ddbc f0c9 ecbd
000003b0: 9860 10bd 44c5 d2bd 5a0d 213e fa9f 4ebe
000003c0: 48f4 7ebe 9a26 2c3e a4e8 0abe 1cfc 973d
000003d0: e80a 1abe 7a01 483e b89e 3d3d 7e5d 403e
000003e0: 8267 22be da33 0f3e 26b5 7b3e 404e c0bb
000003f0: 121d 52be ec18 ebbd 32d7 5d3e c4d8 25be
0.07125947 -0.21045178 0.08161217 -0.057833135 0.09361836 0.05260411 -0.24865961 -0.16304812
-0.12138823 0.061507046 -0.099197745 0.092598915 -0.061282486 0.011631519 -0.01448518 0.1084573
0.09676373 0.1342203 -0.097910285 -0.0726223 -0.024222374 -0.068457216 -0.05965531 -0.024254024
0.029310375 -0.171666 -0.12939394 -0.14664903 -0.15919209 -0.21053782 0.08951035 -0.2452671
0.18825746 0.15072164 0.19899589 0.08174819 0.14593822 -0.0925242 -0.14279124 -0.2400094
-0.061772346 -0.06319228 0.122707784 0.20977053 -0.03516102 -0.048129886 0.051149964 -0.21523768
-0.0039274693 0.1651485 -0.041691393 0.096092016 -0.0539321 -0.025176942 -0.17160201 -0.021725565
-0.18069729 0.0990572 -0.107132316 -0.1949589 -0.11827847 -0.14836258 -0.19915694 0.23870489
-0.04047966 0.053184062 0.14461914 -0.08116278 -0.19496956 -0.13777944 0.13729271 -0.21772185
0.0063870847 0.1958636 -0.051803112 -0.16085291 -0.07880992 0.006827742 0.15406367 0.0014709532
-0.16893405 -0.0063819885 0.13607213 -0.23029956 0.015238404 0.01140669 0.049519718 -0.24021718
-0.19062066 -0.2339029 0.19970164 -0.20910761 0.228039 -0.20848942 0.17128542 -0.08201015
0.2445274 0.045655966 0.21930343 0.01756695 -0.033835143 -0.18767247 -0.13479188 0.23790121
0.24824128 0.21553212 0.14059192 0.18147129 -0.18320543 0.022107184 0.111113966 -0.1362803
0.04973927 0.22909239 -0.08432299 0.12118986 -0.08344725 -0.17698303 0.043715656 -0.21700239
-0.24724296 0.0013708174 0.0112813115 -0.0935072 -0.15418482 0.085127085 -0.12041175 -0.200037
-0.20290032 0.054108918 0.22626117 -0.09111166 -0.12136358 0.15099388 -0.19077602 0.20162463
-0.24636695 0.0344055 -0.076093346 0.23080197 -0.06610367 -0.14449203 0.12972638 -0.22350499
0.11605367 0.15078256 -0.09975439 0.15714803 0.041846305 -0.09955111 0.0835354 -0.19248125
-0.006043792 0.13481805 0.22101134 -0.10336149 -0.1341185 -0.14107692 0.12417588 0.23537406
-0.13196024 0.039339125 0.22392368 -0.030615449 0.12529558 -0.05494961 -0.21990529 0.19719175
-0.17145276 -0.19027337 -0.06178695 -0.16449615 0.15139341 -0.041652143 -0.24011955 -0.004003048
0.040928215 0.18327656 0.11041695 -0.012220949 -0.24671665 -0.009302974 -0.19105086 0.056539327
0.07598886 0.11952323 -0.13905054 -0.2283499 -0.10084137 0.09411359 0.11060268 0.17169598
-0.004807651 0.1623317 -0.060018957 0.0023812652 -0.017465055 -0.1444048 -0.21258432 0.10080549
-0.094545364 0.19904536 -0.018039823 0.057192445 -0.22628635 -0.20506385 0.10686132 -0.13911209
-0.23842096 0.20669886 0.11456397 -0.11767608 0.21883133 0.025787383 0.24748677 -0.11615968
0.15058216 -0.051108122 0.109368354 0.21408859 0.068561584 -0.09516469 -0.19735673 0.11626446
0.12205559 0.16636363 -0.12543878 0.19675645 -0.0710969 -0.050976515 0.050762028 -0.17177969
-0.0013864636 -0.16238388 -0.02702725 -0.11561954 -0.03524837 -0.10291532 0.1572775 -0.20178214
-0.24897873 0.168116 -0.13565308 0.07421133 -0.15043223 0.19531813 0.046293944 0.18785664
-0.15859798 0.13984624 0.24580821 -0.005868703 -0.20518902 -0.11479363 0.21664122 -0.16195971

fast_choice_head.0.bias f4 [16]
00000000: d4a6 a43d 60c3 7bbc 1e60 3c3e 10a5 c33c
00000010: 544e 1c3e 70a0 36bd 6098 80bc 28aa 8fbd
00000020: 927e 6fbe 683b e9bd 0057 553c 3866 2cbe
00000030: 0c6b 6f3e 98c5 09be 8491 c83d 36b9 77be
0.080396324 -0.015366405 0.18396041 0.023882419 0.15264255 -0.0445866 -0.015697658 -0.070148766
-0.23388126 -0.11388284 0.013021231 -0.16835868 0.23380679 -0.13454282 0.0979338 -0.24191746

fast_choice_head.1.weight f4 [1, 16]
00000000: 8030 7b3e d044 363d 5a66 3dbe a42b 163e
00000010: 9882 263e 02b2 523e e013 c33d 0882 263d
00000020: 5036 953d 08dc 2b3d f05d 2c3e 94a8 6d3e
00000030: bc8b 8e3d 3077 703d 000f 763d d01f dbbd
0.2453022 0.04449922 -0.18496075 0.14665085 0.16260755 0.20575717 0.09525275 0.04065135
0.0728575 0.041957885 0.1683271 0.23208839 0.06960246 0.058707416 0.0600729 -0.10699427

slow_choice_head.0.weight f4 [16, 16]
00000000: dd0e e1bd 589c 7bbe 6b29 83be a452 86bd
00000010: f70c 053d d20a a93e 87e6 9a3e a90b 273d
00000020: 9ab4 e73d d8e2 fd3d f2cc bf3e 5487 d7be
00000030: b3b6 603e c324 1c3e 2e02 82be c531 523e
00000040: 50e8 0e3f a3b0 ad3e 8338 5d3e 74c8 cf3e
00000050: f812 cbbe 2967 a5be a7b8 03be c685 8d3e
00000060: 72c7 0cbf d4e6 71be b4e1 babb c586 143f
00000070: a168 803d 80b3 353e a2d3 8e3d d466 82bd
00000080: f324 bbbe b580 b7be ea3e cb3c d3b1 173d
00000090: 0358 323e 48c5 bd3e a2e4 793e 859e 993e
000000a0: 5918 cc3e 67c4 da3e e2cd 9c3e 81a8 bcbe
000000b0: eb3e 063e 5b8b 763d 7fb2 9cbe f6a1 443e
000000c0: f0eb 8dbd bf6f bb3e fb0d 8b3e e244 303e
000000d0: 5e07 01bf 7f43 89be 6c2d 9bbe 29ce 3f3e
000000e0: fe2b 94be be8a aabe c1b8 eb3d b96e d33e
000000f0: 714f a3be be6f 0e3e 90d8 eabd e2de 93be
00000100: d544 9f3b 6c9c 4dbc 63a9 87be 68bd f9bd
00000110: cbd7 413e 1b23 fa3c 2703 913e b68f b0bd
00000120: 7366 fe3e 2084 bd3e 1065 bc3e 510d d1be
00000130: 72c3 a33e c41f 083d e12e 36be dfb2 8b3e
00000140: ea1e 9e3e db3b 993c 0394 073e 8a55 dcbb
00000150: dfa2 9dbe 04f5 85be cf21 1e3e c617 323e
00000160: 89b5 debd 4526 40be 934a 94be e0ee 80bd
00000170: 042f b33c dc40 883e 94b5 1abe d56e cc3d
00000180: 8246 e53e e158 a93e a40e db3e 8654 5f3e
00000190: f402 42be 739f 0dbe 8fd4 fcbd 5cd5 d7bd
000001a0: 7e82 05bf ceaa aebe c091 a7be 240f a43e
000001b0: 57f1 73be c5d4 a03e 836a d73d 3a66 83be
000001c0: 61ed cfbd b4a3 b8be 26b8 79be 9fc5 adbe
000001d0: 1603 9c3e 3be8 463e 83ce 70bd f80a 8f3d
000001e0: 8223 7f3e 2a4b c93e ef95 103e e35c dabe
000001f0: 0829 883e 18a3 c4bd f991 7fbe 0934 b53d
00000200: 1dab 203e 3bef 0f3e fdce 6b3c de3c 4abd
00000210: 861a bbbe 0bb8 9ebe a13d 2dbe 4fd8 53bd
00000220: 2669 a6be 0c06 38be 60ad 85be a62d 2d3d
00000230: 837f a1be c9a9 b13d dc23 873e 20f1 3cbe
00000240: bc4e b73e bf64 313e b140 b33e 35a4 e6bd
00000250: 50e0 e6bd cf05 3fbe 4ff3 2f3e efec 44bd
00000260: e90e aabe 6bf6 94be b173 69be b60e ddbc
00000270: a076 abbe 7907 2cbe a127 ecbd 2c77 84be
00000280: a5f1 d73d 6624 ae3e df2f dfbd 2d9e b83e
00000290: 4e28 0ebe 7350 923d 3637 c4bc 57b0 6abe
000002a0: 122a 66be 14ec 453d 34d0 24be 75e7 3f3d
000002b0: 1909 ef3d 59b6 23bd 0fd6 c9bd 9e20 74be
000002c0: fc78 bebe 375d e6be 13d1 c5bd cbf4 8bbe
000002d0: e45b 7f3e 9ccf d23e 4b39 6c3e 856f b83d
000002e0: c2a4 083f 519b c33e d250 533a f92f 3abe
000002f0: 61b3 a53e 6655 d73d ce54 c0be 4563 adbd
00000300: 8b45 b23e 7576 0ebd b7ee 293e 1bfb a93e
00000310: 08cc 0a3d 81d9 ba3d 5dd7 a5bb 0b95 c9bd
00000320: b801 80be 0405 08be 6033 8dbc f8ab 803e
00000330: 679b 48be a924 16be 9630 723e bdd1 143e
00000340: 3009 4d3e 1e3b d53e 1cd1 443e e948 8a3e
00000350: 9fdf 18bf bf41 c6be eb0d 2f3d efc0 54bd
00000360: 9734 14bf 243d dcbe d7c4 b9be 99ef 833e
00000370: edba 79be fff6 8d3d 33f8 af3d 2e7f b63b
00000380: a9e7 8c3e c43a d73e d01f 8a3e 30d3 0f3e
00000390: b3b3 e1be cc88 a5be 3574 9bbc 1bff 18bd
000003a0: d72c 9abd 7f88 9fbe 26e9 59be c849 eb3e
000003b0: 9c0c c5bc 106f 4e3e d568 85bd f0f0 40be
000003c0: fbff ed3d 9af0 8f3e 9cad e23e d8f0 2f3e
000003d0: c4e1 fbbd 4628 b1bc c6ba 85be 6582 97be
000003e0: 21de ebbe 4a3f eabe cf34 c9be 0bdf e33d
000003f0: a765 47be 7338 9c3e 9dd2 d83e 1174 77bc
-0.10989163 -0.24571359 -0.25617537 -0.06558731 0.032483067 0.33016068 0.30254003 0.040782604
0.11313744 0.12396783 0.37461048 -0.42095435 0.21944694 0.15248398 -0.25392288 0.20526798
0.5582323 0.33923826 0.21603589 0.4058262 -0.3966291 -0.32305267 -0.12863408 0.27641124
-0.5499183 -0.2362321 -0.0057031754 0.5801814 0.062699564 0.17744255 0.069739595 -0.06367269
-0.36551628 -0.35840383 0.024810273 0.03703482 0.17416386 0.37064576 0.24403623 0.30003753
0.39862326 0.42727968 0.30625826 -0.36847308 0.13109939 0.060191493 -0.30604932 0.19202408
-0.06929767 0.36608693 0.27159104 0.17213777 -0.50401866 -0.26809308 -0.30308092 0.18730988
-0.28939813 -0.33308977 0.115098484 0.41295412 -0.31896546 0.13909814 -0.11467087 -0.28880984
0.0048605003 -0.012549501 -0.2649642 -0.121943295 0.18929975 0.030534318 0.28322718 -0.08621161
0.49687538 0.37014866 0.36795855 -0.40830472 0.3198505 0.03323342 -0.1779132 0.27284905
0.3088296 0.0187053 0.13240056 -0.0067240642 -0.30788323 -0.26163495 0.15442584 0.17391881
-0.10874469 -0.18764599 -0.28963146 -0.06295562 0.021873005 0.26611984 -0.15108329 0.09982077
0.44780356 0.33075622 0.42784607 0.21809587 -0.18946439 -0.13830356 -0.1234523 -0.10538742
-0.5215224 -0.3411469 -0.32728386 0.320428 -0.23822533 0.3141233 0.105183624 -0.2566393
-0.10152698 -0.36062396 -0.24386653 -0.33939835 0.30471104 0.19424526 -0.058790695 0.06984514
0.24915889 0.39315158 0.14119695 -0.42648992 0.26593804 -0.0960142 -0.24958028 0.088478155
0.15690275 0.14056103 0.014392612 -0.049374454 -0.36543673 -0.3099979 -0.16918041 -0.05171996
-0.32502097 -0.17971057 -0.26108837 0.042279862 -0.31542596 0.08674962 0.26394546 -0.18451357
0.35802257 0.17323588 0.35010293 -0.11261789 -0.11273253 -0.1865456 0.17182659 -0.04807752
-0.332145 -0.29094252 -0.22798039 -0.026984554 -0.3348894 -0.16799726 -0.11530996 -0.2587217
0.10544137 0.34012145 -0.108978026 0.3605818 -0.13882563 0.07144251 -0.023952108 -0.22918831
-0.22476986 0.048320845 -0.16095048 0.046851594 0.11671657 -0.039968822 -0.098552816 -0.23840567
-0.3720168 -0.44992992 -0.09659018 -0.273352 0.24937397 0.41174018 0.2306873 0.09005646
0.533764 0.38204435 0.00080610544 -0.18182363 0.32363418 0.10514335 -0.375647 -0.084662
0.34818682 -0.03478094 0.16594969 0.3319939 0.033885986 0.09123517 -0.0050610737 -0.09842881
-0.2500131 -0.13283163 -0.017236412 0.25131202 -0.19590531 -0.14662422 0.23651347 0.14533134
0.20023036 0.41646665 0.19220394 0.2700875 -0.5971622 -0.38722035 0.042737883 -0.05194181
-0.57892746 -0.43015397 -0.3628299 0.25768736 -0.24387713 0.069318764 0.08592262 0.00556936
0.27520493 0.42037022 0.26977396 0.14045405 -0.44082412 -0.3233093 -0.01897631 -0.037352663
-0.07528084 -0.31158826 -0.21280345 0.45954728 -0.024053864 0.20159554 -0.06514136 -0.1884191
0.1162109 0.28113252 0.44273078 0.17181718 -0.12298921 -0.02162565 -0.2611906 -0.2959167
-0.46067908 -0.4575141 -0.39298102 0.111265264 -0.19472371 0.30511817 0.42348185 -0.015103356

slow_choice_head.0.bias f4 [16]
00000000: 3d8c 08be 99ea dabd 2dc7 4e3e a40b a03d
00000010: 18d3 1cbd 8e70 143e 2c4c 8c3d c472 d33d
00000020: efeb 9cbe cddd fb3d 9a49 e63c 7337 4c3d
00000030: 9830 f23d 65f9 d33b 6440 e23d 7e46 b03d
-0.13334747 -0.10689277 0.20193167 0.0781472 -0.038287252 0.14496061 0.06850466 0.10324624
-0.30648753 0.122981645 0.028111268 0.049857568 0.11825675 0.006468939 0.11047438 0.08607195

slow_choice_head.1.weight f4 [1, 16]
00000000: 97c3 67be 9fd3 9c3e c093 afbe d108 903e
00000010: 2d3d bdbe 3dd0 703e 365e 5b3e 5ea8 d5be
00000020: cd71 b83e 91b0 893e 0c15 6e3e 284d 89be
00000030: 2419 7e3e f93e 903e ff39 b43e 3377 4b3e
-0.22633205 0.30630204 -0.34292412 0.28131726 -0.36960736 0.23516937 0.21422657 -0.41730016
0.36024323 0.26892522 0.23250216 -0.26816678 0.24814278 0.28173044 0.35200498 0.1986969

exp_avg f4 [48, 1]
00000000: 0000 0000 0000 0000 0000 0000 0000 0000
00000010: 0000 0000 0000 0000 0000 0000 0000 0000
00000020: 0000 0000 0000 0000 0000 0000 0000 0000
00000030: 0000 0000 0000 0000 0000 0000 0000 0000
00000040: 0000 0000 0000 0000 0000 0000 0000 0000
00000050: 0000 0000 0000 0000 0000 0000 0000 0000
00000060: 0000 0000 0000 0000 0000 0000 0000 0000
00000070: 0000 0000 0000 0000 0000 0000 0000 0000
00000080: 0000 0000 0000 0000 0000 0000 0000 0000
00000090: 0000 0000 0000 0000 0000 0000 0000 0000
000000a0: 0000 0000 0000 0000 0000 0000 0000 0000
000000b0: 0000 0000 0000 0000 0000 0000 0000 0000
0.0 0.0 0.0 0.0 0.0 0.0 0.0 0.0
0.0 0.0 0.0 0.0 0.0 0.0 0.0 0.0
0.0 0.0 0.0 0.0 0.0 0.0 0.0 0.0
0.0 0.0 0.0 0.0 0.0 0.0 0.0 0.0
0.0 0.0 0.0 0.0 0.0 0.0 0.0 0.0
0.0 0.0 0.0 0.0 0.0 0.0 0.0 0.0

exp_avg_sq f4 [48, 1]
00000000: 0000 0000 0000 0000 0000 0000 0000 0000
00000010: 0000 0000 0000 0000 0000 0000 0000 0000
00000020: 0000 0000 0000 0000 0000 0000 0000 0000
00000030: 0000 0000 0000 0000 0000 0000 0000 0000
00000040: 0000 0000 0000 0000 0000 0000 0000 0000
00000050: 0000 0000 0000 0000 0000 0000 0000 0000
00000060: 0000 0000 0000 0000 0000 0000 0000 0000
00000070: 0000 0000 0000 0000 0000 0000 0000 0000
00000080: 0000 0000 0000 0000 0000 0000 0000 0000
00000090: 0000 0000 0000 0000 0000 0000 0000 0000
000000a0: 0000 0000 0000 0000 0000 0000 0000 0000
000000b0: 0000 0000 0000 0000 0000 0000 0000 0000
0.0 0.0 0.0 0.0 0.0 0.0 0.0 0.0
0.0 0.0 0.0 0.0 0.0 0.0 0.0 0.0
0.0 0.0 0.0 0.0 0.0 0.0 0.0 0.0
0.0 0.0 0.0 0.0 0.0 0.0 0.0 0.0
0.0 0.0 0.0 0.0 0.0 0.0 0.0 0.0
0.0 0.0 0.0 0.0 0.0 0.0 0.0 0.0
