saved_models/slow_fast/checkpoint72.pth (torch, 53998 bytes, 48 tensors)

rnn_slow.weight_ih_l0 f4 [48, 6]
000000 b1 54 70 bd 95 f7 c1 3d cc fd 3f 3f 6c 99 bb be
       -0.058674518 0.09471051 0.7499664 -0.3664049
000010 14 53 8b be 9c 14 0c 3f 8b ec 7d 3d 7e 8a 15 be
       -0.2721182 0.5471895 0.061993163 -0.14603612
000020 92 3a d3 3e 26 81 bd be 9e 6a c7 be 9c 66 41 3e
       0.41255623 -0.37012595 -0.3894853 0.18886799
000030 67 7c d6 be 03 3d b5 3d e6 a4 40 be cb 97 6c 3e
       -0.41891786 0.08849528 -0.18812904 0.2310478
000040 18 da 58 be 32 2c 40 3d d0 48 a9 bd 9e c4 0a bd
       -0.21176946 0.046917148 -0.08265841 -0.033878915
000050 6c 7d c2 3d db c6 5c 3c 7d 31 b6 be 17 c3 e9 bd
       0.094965786 0.013475145 -0.35584632 -0.114141636
000060 17 50 a2 3d 4d 95 aa be 3f d8 27 3f 27 7e 27 bf
       0.07925432 -0.33317032 0.6556434 -0.6542687
000070 21 b4 8f be 29 32 1b 3f cf ee b9 be 3a 50 eb 3d
       -0.28067115 0.60623413 -0.3631501 0.114899114
000080 34 38 e8 3e f4 61 5f be cc 15 6f 3e 9c 23 15 be
       0.4535538 -0.2181471 0.23348159 -0.14564365
000090 7d 5a 1e be f4 6f bd 3e c0 e2 ba 3e 83 f4 38 be
       -0.15464206 0.36999476 0.36501122 -0.18062024
0000a0 58 9b e7 3e a1 fc 8f bd 94 bd bf 3e 3e d2 de be
       0.45235705 -0.07030607 0.37449324 -0.43519777
0000b0 01 6a 1a be c7 80 d1 3c 4d 8e 36 3e d9 1a 1d bf
       -0.150795 0.025574101 0.17827721 -0.6136909
0000c0 59 6a f3 3d 4c 69 9a bb 13 05 23 3f 69 38 20 bf
       0.118855186 -0.0047122594 0.6367962 -0.62586075
0000d0 c1 ff 07 bf ed 43 12 3f 93 bd 1b be 19 d0 27 3e
       -0.53124624 0.57134897 -0.15209036 0.16387977
0000e0 cc dd fc 3e d9 da 01 bf 28 09 05 3f 54 3b ed be
       0.49387968 -0.5072456 0.51967096 -0.46334326
0000f0 af f8 cc 3d 35 22 d9 bd d1 06 e1 be 5b 92 ce 3e
       0.1000837 -0.106022276 -0.43950513 0.40346035
000100 73 d2 dc 3d 9e 9f 3f bc 53 68 8d be 64 38 38 3d
       0.107823275 -0.011695771 -0.27618656 0.044975653
000110 c9 7c 45 3f 7d 39 28 bf b2 54 34 3f 9b 49 82 be
       0.7714353 -0.6571272 0.70441735 -0.25446782
000120 e6 f0 0c be 75 a4 96 3e 4a c7 ed bd 67 b1 86 bc
       -0.1376377 0.29422346 -0.11610277 -0.016442014
000130 1a 32 a5 be 09 13 3a 3f 14 fc 32 3e 2d 60 27 bd
       -0.32264787 0.72685295 0.17478973 -0.040863205
000140 22 d5 52 be 3c 18 a5 3d 15 12 0a 3f 47 9a 82 bc
       -0.20589116 0.08061263 0.5393384 -0.015942706
000150 c4 5b 00 bf d6 ba 40 3e 2b dd 8c 3e b0 98 d0 be
       -0.50140023 0.18821272 0.27512488 -0.4074149
000160 7a 39 a5 3b 69 54 79 be b1 df 0c 3e 25 5f 92 be
       0.005042252 -0.24348606 0.13757206 -0.28588215
000170 28 04 73 3e ee 35 83 be 22 f9 e6 bd d6 a7 62 3e
       0.23732054 -0.25627083 -0.11277987 0.22134337
000180 05 ee 86 bd a7 74 89 bc dc 2a aa 3e 77 c7 06 bf
       -0.065883674 -0.016779257 0.33235824 -0.5264811
000190 14 26 44 bd 12 45 4b 3e f7 e6 95 be f1 df 6e 3e
       -0.047887877 0.19850567 -0.29277775 0.23327614
0001a0 7a 57 06 3f 8a c8 8f be 78 b5 b0 be 10 28 38 3f
       0.5247723 -0.28082687 -0.3451345 0.7193613
0001b0 a1 48 27 be a5 fc f1 bd c1 96 2f 3e 3c 0e 34 bf
       -0.163363 -0.11815766 0.17147352 -0.7033422
0001c0 ba 6c 29 3f 59 60 07 bf 48 99 0b be c2 50 89 bd
       0.6618153 -0.5288139 -0.13632691 -0.067048565
0001d0 22 16 33 3f e9 55 26 bf 01 cc ec be f1 2c 24 3e
       0.69955647 -0.6497484 -0.46249393 0.16032769
0001e0 4f 26 63 3d da 36 cb bd e9 ce cb 3e da 51 15 bf
       0.055456456 -0.099225715 0.39806297 -0.5832802
0001f0 09 ae be be 07 82 87 3e bb e2 50 be e1 29 6e bd
       -0.37242153 0.2646639 -0.20398991 -0.058145408
000200 08 d9 ec 3e c4 02 94 be 19 b4 a3 3d c2 35 fb be
       0.46259332 -0.2890836 0.07993335 -0.4906445
000210 96 ae 07 3d a8 9c cb 3d f8 7e 29 3f 6b 31 23 bf
       0.033125482 0.09941989 0.66209364 -0.6374728
000220 be 1a 82 3e 59 a3 0f be 5b 8f ba be 34 83 8d 3e
       0.25411028 -0.14027156 -0.36437497 0.27639163
000230 0f c5 78 3e 9d e8 a1 be 58 00 74 be b2 43 ca 3e
       0.24293922 -0.31622782 -0.23828256 0.39504772
000240 13 57 af be 04 10 93 be ab dc 39 3f bb c3 07 bf
       -0.3424612 -0.28723156 0.7260234 -0.53033036
000250 5b 73 c4 be f0 5b 66 3e 2e 82 21 be f1 28 2c bd
       -0.3836926 0.22496009 -0.15772316 -0.042031232
000260 17 42 e5 3e 0d e2 20 bf 38 bd e8 3e e6 40 71 be
       0.44776985 -0.62844926 0.45456862 -0.23559913
000270 56 d2 a2 be 36 4d 3b b9 2a e4 82 3e 41 1c 14 bf
       -0.318011 -0.00017862473 0.255647 -0.5785561
000280 0a 92 b2 3e c4 24 c5 be 75 84 e8 3d aa bd b4 be
       0.34877044 -0.38504612 0.11353389 -0.35300952
000290 17 0a 19 3f 57 a3 16 bf a7 cc bc 3e 94 2b 0f bf
       0.5978102 -0.58842987 0.36874887 -0.5592587
0002a0 6f 03 43 be a8 ca 31 be aa bb 7c 3d 00 86 43 be
       -0.19044279 -0.17362463 0.061702408 -0.19094086
0002b0 57 72 f4 bd 1f a0 03 3e ef 6c 22 3d b5 db 72 be
       -0.11935871 0.1285405 0.03965467 -0.23716624
0002c0 cc 67 69 3f 35 98 91 bf cc b7 f7 3c 69 6f 05 be
       0.91174006 -1.1374575 0.030239008 -0.13030781
0002d0 6b 2f 3f be 1b a7 ac be 82 ec b0 3e ad 60 26 3b
       -0.18670432 -0.3372124 0.3455544 0.0025387213
0002e0 33 5b 86 bd cb e0 66 bd 27 fc 3a 3d 51 62 c7 be
       -0.065603636 -0.056366723 0.045650627 -0.38942197
0002f0 cc 30 21 3f 7d 8f b5 be 3c f7 19 bf c1 fb 71 3e
       0.62965083 -0.35461035 -0.60142875 0.23631193
000300 29 d8 3d 3e 19 d6 a8 3e 6a 84 ff 3e 77 77 03 bf
       0.1853949 0.32975844 0.4990571 -0.51354164
000310 72 14 ae be 5a e8 b2 3e aa 5f ac 3c 5c 43 6b 3e
       -0.33999974 0.34942895 0.02104171 0.22974914
000320 88 a0 0c 3f 19 19 07 bf ba cc 95 be b5 39 2e 3e
       0.5493245 -0.5277267 -0.29257756 0.17014201
000330 77 bf 7f be fb 68 a9 bd 03 93 0d bf b2 34 ba 3e
       -0.24975382 -0.082719766 -0.5530245 0.36368328
000340 1b ee a2 be a2 dc 94 bd f7 b4 3b 3c df 1c 9b be
       -0.31822285 -0.07268645 0.01145672 -0.30295464
000350 e8 9d b4 3e a4 1d 0b be 6d 1e 38 bd 8b 2c af 3e
       0.35276723 -0.13585526 -0.04495089 0.3421367
000360 ea 85 3f bc c0 19 19 3e aa 40 10 bf f2 25 a7 3e
       -0.011689642 0.14951229 -0.5634867 0.32646137
000370 5d 4a ea 3e 36 b7 b7 be 2d b4 5c 3e 7c a5 a2 bc
       0.4575986 -0.35881966 0.21553107 -0.0198543
000380 48 c1 0a 3f a2 1e ec be 92 0e cf 3e 4c fb 89 be
       0.54201174 -0.4611712 0.40440804 -0.26949537
000390 4f 8d 4d 3e 9e c3 b9 bd f4 58 9a 3e f2 4c a4 bc
       0.20073436 -0.09070514 0.3014599 -0.020056222
0003a0 3e 1d a6 3e b4 5a 23 be 52 56 0b 3e 9e f8 89 ba
       0.32444185 -0.15952569 0.13607147 -0.0010526364
0003b0 5f 97 bf 3d 1c 32 18 3f d7 e7 63 be 0c 06 d6 3d
       0.093550436 0.5945146 -0.22256409 0.10450372
0003c0 3f f0 69 bd 37 56 9e bd 47 2a f1 be 2d dc e0 3e
       -0.057113882 -0.07731288 -0.47102568 0.4391798
0003d0 75 30 86 3e 91 db 1d bf 41 8c 9f 3c 3a 2b 39 bd
       0.26208845 -0.61663157 0.019476058 -0.04520724
0003e0 df 5b 29 3f d0 f8 80 be 29 7e 07 3e ac c7 c2 be
       0.6615581 -0.2518983 0.1323172 -0.38042963
0003f0 1c 52 9f 3d dd 9a 1d 3e 7a 46 10 3f b6 8f 56 3d
       0.07779333 0.15391107 0.5635754 0.052383147

rnn_slow.weight_hh_l0 f4 [48, 16]
000000 2b 9b 0c 3e 9b 69 56 3d 9b a4 8f bd 8c 24 2e 3d
       0.13731067 0.052346807 -0.07013818 0.042515323
000010 81 74 02 be 55 3e 45 be 85 ce 5f be 36 85 5f be
       -0.12739755 -0.19262059 -0.21856125 -0.2182816
000020 56 30 25 be fb 00 7b be 70 64 ee 3d e4 57 28 bd
       -0.1613172 -0.24512093 0.11640251 -0.041099444
000030 55 4b 0a be 32 08 02 be 40 f8 02 3e da d2 94 3d
       -0.135053 -0.12698439 0.12790012 0.07266779
000040 df 54 41 3e b9 34 51 be 1b 48 3c 3e 4a e6 09 be
       0.18880032 -0.20430268 0.18386881 -0.13466755
000050 38 c0 11 3e ac d9 56 be fe f4 0a 3f e3 db 92 3d
       0.14233482 -0.20981473 0.5428008 0.07170846
000060 19 74 88 3d 31 35 61 be 3e 3e 99 3e 41 90 13 3d
       0.06662769 -0.21992947 0.299303 0.036026243
000070 1a 3b 96 3e e7 60 2e be c5 4e e5 3c 71 0d 8a 3e
       0.29341966 -0.17029153 0.027991662 0.2696338
000080 8e 36 6e 3d a0 c5 88 bd 6d 0a aa 3e 7f 20 93 3e
       0.058157496 -0.06678319 0.3321108 0.2873573
000090 72 3d 4c 3e ac 70 b7 bd a6 c9 02 bc f4 2f ed 3d
       0.19945315 -0.08957037 -0.007982647 0.11581412
0000a0 71 39 5b be 8d a9 30 3e 6d ad e2 3c 44 9a 57 bc
       -0.21408631 0.17252178 0.027670586 -0.013159338
0000b0 67 7d 19 bd ca 7d 08 bd 47 52 1d bd f4 2f 66 3d
       -0.03747311 -0.033323087 -0.038408544 0.056198075
0000c0 73 fd a1 be 36 8f b4 be 5a 09 49 3e 47 7f 92 3d
       -0.3163868 -0.3526551 0.19632474 0.071531825
0000d0 f3 c3 a6 3e 6f c8 8f be 4f 78 05 bd c2 28 81 3c
       0.32571372 -0.28082606 -0.03258544 0.015766505
0000e0 f1 e7 e7 bd 27 77 ee 3d 8c a4 0f 3d b9 82 86 bc
       -0.11323536 0.1164382 0.035069034 -0.016419755
0000f0 8f f6 72 bd 12 d4 4f 3e 29 43 14 bd e8 df 96 3e
       -0.059317168 0.20295742 -0.03619686 0.29467702
000100 b9 e8 87 3e 80 c9 8c 3e 6e 8b 17 3e f2 ae e3 3c
       0.2654474 0.27497482 0.14799282 0.027793381
000110 fe 7b 96 3d d4 17 de be 02 71 3c 3e 9a 6b 45 3e
       0.073478684 -0.43377554 0.18402484 0.19279328
000120 75 f1 88 be 58 42 93 bd 69 96 dd 3c eb 28 31 3d
       -0.26746717 -0.071903884 0.02704926 0.043251913
000130 72 82 8f bd 65 ab 3a 3e 70 31 8e 3e 07 00 18 ba
       -0.07007302 0.18229444 0.27772093 -0.0005798344
000140 27 1d 7c 3e ab c0 3f bd 0d 9e 21 bd 1a ce bb 3e
       0.24620496 -0.046814602 -0.03945737 0.3668068
000150 09 10 c4 bd de 44 43 3e 58 a0 e2 bd 14 c7 e1 3c
       -0.09573371 0.1906924 -0.110657394 0.027560748
000160 63 4e aa 3d cb 14 46 be d0 33 df be 9d 54 b1 be
       0.08315732 -0.1934387 -0.43594217 -0.34634867
000170 df 40 1a bd b5 c9 99 3d 40 40 c1 3d c4 b4 e5 3d
       -0.037659522 0.07509176 0.09436083 0.11216119
000180 4f 30 72 3e 9a d5 66 bd 0c 03 71 bd f1 53 bb 3e
       0.23651241 -0.05635605 -0.058840796 0.3658748
000190 0f c7 f8 be 55 38 46 3e b1 9c 7d be 3d 5d e9 3c
       -0.4858937 0.19357426 -0.24766804 0.028486842
0001a0 c7 77 eb be a7 29 09 be d4 06 15 be 2a cd cf bd
       -0.4598982 -0.13394795 -0.14553386 -0.10146554
0001b0 96 b9 8c be 04 c8 d0 bd 9f 0b 2b 3e 62 fd 84 be
       -0.2748534 -0.101944 0.16703652 -0.25974566
0001c0 a4 88 14 bf 1a 9c d2 be 07 c6 b3 be a1 09 c6 bd
       -0.58021 -0.4113472 -0.3511202 -0.09669805
0001d0 70 e0 2c 3f fd 53 09 3f 17 c0 c8 3d 16 e9 8d be
       0.67529964 0.5364378 0.09802263 -0.27716893
0001e0 f7 d2 09 3f 1b bf ac 3e 73 50 8d 3e 1d c1 0b be
       0.5383753 0.33739552 0.2760044 -0.13647886
0001f0 51 35 21 be 10 5f 75 3d d4 1b 85 be c1 83 9c 3d
       -0.15742995 0.05990511 -0.25997794 0.076423176
000200 20 e8 72 3b d3 81 4d 3e bd 34 b3 bd 14 cf be 3d
       0.0037064627 0.20069055 -0.087502934 0.09316841
000210 27 94 26 3e da 90 8f be 42 d1 d8 bd f4 47 fa 3d
       0.16267453 -0.280402 -0.10586788 0.12220755
000220 b9 b4 7a be d2 d4 2e 3e 9b da d7 3d c4 ce 9c 3d
       -0.24483003 0.17073372 0.105397426 0.07656625
000230 1e 24 19 be 13 56 3e be f8 c6 28 be d3 ec c1 3e
       -0.14955184 -0.18587522 -0.1648215 0.37875995
000240 b0 eb a4 be 79 63 ce 3c 64 46 4b 3e 28 e7 a8 3e
       -0.32211065 0.025193917 0.1985107 0.32988858
000250 f3 e8 a6 3d c7 18 6d 3e 22 bc 44 be f1 be 9b 3e
       0.081499 0.23153983 -0.19212392 0.30419114
000260 1b 75 c4 3d 17 be 67 3e a7 39 81 be 1a e4 56 b9
       0.095926486 0.22631107 -0.25239298 -0.00020493605
000270 87 6f 10 3e ed 2e ea 3c bf c8 d4 bd 5b 55 b5 3d
       0.14105044 0.02858683 -0.10389852 0.08854171
000280 5a b9 b1 be bd 8d c7 3d ba ad 73 3e ff 0b af be
       -0.34711725 0.09743831 0.2379674 -0.3418884
000290 ae 69 a3 3e 1c 94 a8 be 00 1e 38 3d d3 f4 54 3e
       0.31916565 -0.32925498 0.044950485 0.20796518
0002a0 a8 00 ac 3e 14 ce a7 be 74 cb 4a 3e a5 ee 33 3e
       0.3359425 -0.32774413 0.19804174 0.17571504
0002b0 c3 c2 c4 bd 0d 49 09 be c5 d6 7b 3e 2e c6 fc 3d
       -0.0960746 -0.13406773 0.24593647 0.12342487
0002c0 29 ed 99 be af 44 1b 3e 63 10 f6 bd 72 74 0a 3e
       -0.3006375 0.1516292 -0.12014844 0.13520983
0002d0 29 36 1f be b8 0c 2d 3e 71 aa 9b bd 29 53 e9 be
       -0.15548004 0.16899383 -0.076008685 -0.4557126
0002e0 16 00 b1 3e fa b1 67 3e 45 93 6c be 59 80 8c 3e
       0.34570378 0.22626486 -0.23103054 0.27441671
0002f0 1f 0a 93 bd 5d 93 63 be 8d 56 98 be 9d 3f fb 3d
       -0.07179665 -0.22224183 -0.29753533 0.12267993
000300 d7 2e ef 3d 81 e7 cd 3d 6c 9a 89 3e 6c 45 8b 3c
       0.11678856 0.100539215 0.26875627 0.017000876
000310 ac 16 c7 3e 3c bb a9 be 33 cc f5 bd 02 c0 ca 3d
       0.38884485 -0.3315066 -0.120018385 0.09899904
000320 cd ad 66 3d bc 07 5a be ca b3 ee be 3c 09 7f 3e
       0.056318093 -0.21292013 -0.46621543 0.24905866
000330 76 e8 57 3e 9b 1f 71 3e 0f 55 7a 3d 52 b7 0b 3e
       0.2108477 0.23547213 0.061116274 0.1364415
000340 73 ff ae bd c8 9f ff 3d d0 59 29 3d 92 a7 0d 3e
       -0.08544817 0.12481648 0.041345417 0.13833454
000350 c6 91 6b 3e 6a 3b 78 bd 2a b9 0d be e7 e0 e7 bb
       0.23004827 -0.060603537 -0.13840166 -0.007076371
000360 6d 5d 74 bd 91 b5 33 be ae 1e 81 3e 10 f2 92 be
       -0.05965941 -0.17549731 0.2521872 -0.28700304
000370 d5 47 48 3e f9 97 51 bc 45 96 1b 3d 23 0b bb 3e
       0.19558652 -0.012792581 0.037985105 0.36531934
000380 4b 6c 1e be 38 94 96 3d 3e 3c 0f 3d 9f 0e 00 3e
       -0.15470998 0.07352489 0.03496956 0.12505578
000390 64 eb a6 be be 22 2f 3e a8 45 3a bd a6 eb c8 3d
       -0.32601464 0.17103097 -0.045476586 0.09810571
0003a0 ad d7 c6 be 93 37 8b be 1b 37 27 be ac e4 2f 3e
       -0.38836423 -0.27190837 -0.16329615 0.17177075
0003b0 22 23 09 be ac a3 3f 3e 34 31 ca 3e 4e 92 00 bf
       -0.13392308 0.1871478 0.39490664 -0.50223243
0003c0 7e 77 57 3e ca af 15 bd 1a 05 91 3d bc 64 59 be
       0.21041676 -0.0365446 0.07081051 -0.21229833
0003d0 f8 a5 3e 3e 16 52 cd 3e 1d 0b e8 3e 00 b3 0d be
       0.18618 0.4010169 0.4532098 -0.13837814
0003e0 cc 39 8c be 6d 63 28 3d 61 b8 02 3f 79 97 78 be
       -0.27387846 0.041110445 0.5106259 -0.24276532
0003f0 ee c6 a5 3d 2f 2d 83 3e ba fe b6 be 8b b8 80 bc
       0.080945835 0.2562041 -0.35741216 -0.015712997

rnn_slow.bias_ih_l0 f4 [48]
000000 2d e8 80 bc 1f 51 9c 3e ef 8d 39 3d 42 8e 2d 3e
       -0.01573571 0.3053064 0.045301374 0.16948798
000010 88 c6 e5 bd 98 85 bc 3d dc 2a 92 3d 11 fe d3 3d
       -0.112195075 0.092051685 0.07137081 0.10351194
000020 0c d2 5b be 08 94 5f 3e 43 1e 2d 3e 15 15 f2 bb
       -0.21466845 0.21833813 0.16906075 -0.007387767
000030 cd 4e 80 3e 4f da 34 bd 48 b4 e9 3b c8 71 ee bd
       0.2506012 -0.044153508 0.007132087 -0.11642796
000040 b3 01 c4 be 5f b2 97 bc 68 61 61 be 1a 66 06 be
       -0.38282546 -0.018517671 -0.22009814 -0.13124886
000050 14 2e b6 bc 2e 99 5b 3b 40 d1 88 bd 4d 87 7d 3e
       -0.022238769 0.003350805 -0.06680536 0.24758644
000060 21 6d a5 be 3b 34 99 be 06 06 3b be 2c 39 36 be
       -0.3230982 -0.2992266 -0.18264017 -0.17795247
000070 df 45 8f be 37 b2 b8 3d eb 4a 49 be 31 37 5b bd
       -0.27982995 0.09018367 -0.19657485 -0.05351943
000080 b7 f5 5c 3e 17 59 94 3e dd a0 aa bd 0a 1d 01 3e
       0.21578108 0.2897422 -0.083314635 0.12608734
000090 6e d4 48 3c 15 5e 70 3d fb 05 e2 bd 6e fc a5 3e
       0.012257678 0.058683474 -0.11036297 0.3241915
0000a0 21 bb 48 3e c6 6d 0d bb 78 f2 49 3d f6 37 79 3d
       0.19602634 -0.0021580323 0.0493035 0.060844384
0000b0 77 36 54 3e e2 ae d9 3d 1f a3 71 be 54 d1 0c 3d
       0.20723902 0.106290594 -0.23597382 0.03437932

rnn_slow.bias_hh_l0 f4 [48]
000000 45 c8 60 3d 76 10 8a 3e 87 24 a7 bd cb 3c 0c 3e
       0.054878492 0.26965684 -0.08161264 0.13695066
000010 99 d4 c8 3d a8 3e d3 bd 85 b4 ad bd dd 61 b8 be
       0.09806175 -0.10314685 -0.08481697 -0.36012164
000020 0b 95 20 be cf 2b 32 bd ff 41 13 be d2 fc c5 3d
       -0.15681855 -0.04349881 -0.14380644 0.09667362
000030 6e 25 7e 3e 26 17 4b bd c6 4d 72 3e 89 18 67 3d
       0.24818966 -0.049582623 0.2366248 0.056419883
000040 cf ab a6 be dc d3 76 be 5e 4b 82 3d f1 70 75 3d
       -0.32552955 -0.24104255 0.063620314 0.059922162
000050 c8 a4 4a 3e 07 d2 87 3d 9a 61 34 bc 0a bb 45 3e
       0.19789422 0.066318564 -0.011009598 0.19309631
000060 20 0a b2 bd 17 31 23 be 7e 51 4f be 1e 78 90 bd
       -0.086933374 -0.15936695 -0.2024593 -0.070541605
000070 45 7a a6 be 6a ca 7c be 9f 1d 9c 3d 32 de 64 be
       -0.3251516 -0.2468659 0.07622837 -0.22350386
000080 9b 25 a7 3e 44 26 68 3d dc 33 8d 3d b8 05 f6 3d
       0.32645878 0.056677118 0.06894657 0.120128095
000090 90 d4 00 bf 52 aa 75 3e be de cd 3e 61 9e 0a be
       -0.50324345 0.23990753 0.40209 -0.1353698
0000a0 04 73 a6 be fb c8 8d 3e 4b e4 2c bd ea 20 af be
       -0.32509625 0.27692398 -0.042209905 -0.342048
0000b0 ac 4b 96 3d cd 3f b7 3d 79 02 8f be 0b c3 af bd
       0.07338652 0.08947716 -0.27931574 -0.08582123

project_sf.weight f4 [16, 16]
000000 bd 23 34 bc 46 18 cd 3d c5 b4 ba be a5 83 ee 3d
       -0.010994849 0.100143954 -0.3646604 0.11646203
000010 38 ef 45 bd 1e 27 e7 3d 95 79 4c bc 21 0a ae be
       -0.04832384 0.11286758 -0.012480159 -0.33992103
000020 61 e7 27 3d fd 46 33 3e 00 d2 50 3c ad 2e a6 be
       0.040992144 0.17507549 0.01274538 -0.32457486
000030 0c 3e 80 3e bc e8 83 be d1 8c 61 be 55 f3 2a 3e
       0.25047338 -0.257635 -0.22026373 0.16694386
000040 c7 d1 f8 bc 01 d5 61 be 85 a1 73 be 86 ca be 3e
       -0.030373467 -0.22053911 -0.23792084 0.37263888
000050 04 96 16 3e e0 1b 1d be bf fb 44 3e b6 f1 cb 3e
       0.14705664 -0.15342665 0.19236659 0.39832848
000060 64 67 db 3e c8 87 ac 3e f4 42 aa 3e e3 d6 2c be
       0.42852318 0.33697343 0.33254206 -0.16878848
000070 2d c0 ee bd b9 f8 0e 3f 8f 0f 30 bd bb 4a 67 be
       -0.11657748 0.5584827 -0.042983588 -0.22587101
000080 52 57 58 be c1 d1 6d be 3c 7b ca bd 3a 6a be 3d
       -0.2112706 -0.23224546 -0.09886786 0.09297605
000090 85 d3 db bd 76 bc f4 bd fe cd a0 3e e3 30 6e 3d
       -0.107337035 -0.119500086 0.3140716 0.05815209
0000a0 22 cf db 3d df d0 32 3e 73 42 29 3d 1a 7e 91 3c
       0.10732867 0.1746249 0.041323137 0.017760325
0000b0 b1 4e 5f be 96 94 7a 3e 8e 79 54 be 6e 57 93 be
       -0.21807362 0.24470744 -0.20749494 -0.2877764
0000c0 37 bc a0 3d 58 1f b9 3d 43 1e 1d 3e 05 9f f3 3d
       0.07848399 0.090391815 0.15343575 0.11895565
0000d0 6f 38 8d be 38 e7 90 3d 34 dc 8e 3e 77 9b e4 bd
       -0.27582118 0.070753515 0.27902377 -0.11162465
0000e0 53 ca 12 be bd 07 d2 bd e3 f6 6e 3c bf 86 09 be
       -0.14334993 -0.10255382 0.01458523 -0.13430308
0000f0 72 64 e5 bc dd 92 43 3e 8d e5 6b bd d4 53 ae bc
       -0.028001998 0.19098993 -0.057591964 -0.021280207
000100 04 4d 35 be 55 8c 75 3e 05 99 31 be c9 d4 18 be
       -0.1770516 0.23979314 -0.17343529 -0.14924921
000110 1a c5 bc bd e2 ed 61 bd 0e 3c d8 3e a0 4c 76 3e
       -0.09217282 -0.055158503 0.42233318 0.24052668
000120 cc 43 0b 3e fb 28 0c bd b7 40 1d 3e 15 4c e6 3d
       0.13600081 -0.03421877 0.15356718 0.1124498
000130 6b 06 a3 3d 12 48 a1 3e 40 f0 eb bd c6 c8 ed be
       0.079602085 0.31500298 -0.115204334 -0.4644224
000140 50 d4 4c 3e 01 4e 7b 3d c1 e4 da bc 7a 19 38 3e
       0.20002866 0.061353687 -0.026720406 0.17978469
000150 da ec fb 3d d6 2b 52 be d0 30 65 3e 40 94 f9 3e
       0.12301035 -0.20524535 0.22381902 0.48745918
000160 f9 9a f8 bd 48 06 dd bd 90 30 34 3e 90 6b 9c 3e
       -0.12138934 -0.10792214 0.1759665 0.30550814
000170 78 2a 95 3e bc 81 c2 3e 4b cf 37 3e f0 ce 03 be
       0.29133964 0.37989604 0.1795017 -0.12871909
000180 c2 4d 88 be 92 90 87 be 4f 07 88 be 61 eb d1 be
       -0.26621825 -0.26477486 -0.26568076 -0.40999892
000190 03 69 f5 bd 3d 38 6d 3e 67 bf 9f 3e b0 32 07 3e
       -0.1198292 0.23165984 0.31200716 0.1320293
0001a0 e3 c8 35 3e 2e 71 1a be d8 b9 7e 3e cd 4d 62 be
       0.17752413 -0.15082237 0.24875581 -0.22099991
0001b0 b1 ea 23 bd a1 33 27 be 72 58 e6 3d f4 7a 0e be
       -0.04001874 -0.16328289 0.11247338 -0.1391409
0001c0 8b b2 6d be 2d 17 e9 3d cc d4 ab 3e 31 a2 bd be
       -0.2321264 0.113813736 0.3356079 -0.37037805
0001d0 59 0a 85 3e 0b fe fe 3d 0e cc 0d be a7 24 17 3e
       0.25984457 0.124507986 -0.13847372 0.14760076
0001e0 6f c9 0a be 9e ec 55 be 97 78 87 3d ee 32 2e bb
       -0.13553403 -0.20891044 0.066147976 -0.002658065
0001f0 f8 84 2d be 43 76 77 be 79 9f 91 3e 1e a0 68 be
       -0.16945255 -0.24166207 0.2844198 -0.2271733
000200 a5 26 61 3d 20 b0 4b 3e e9 b0 a6 3e 1b d3 2a be
       0.054968495 0.19891405 0.32556847 -0.16682093
000210 14 0f b7 bd 5f 43 45 be c3 17 db 3d ac b1 80 3e
       -0.08938423 -0.19263981 0.106978916 0.25135553
000220 bd 1e 9e 3e 5c f6 62 3d ae ad 6a be 83 81 6e 3e
       0.30882826 0.055410728 -0.22917816 0.23291592
000230 57 ee 80 3c 33 ae b2 bd d0 16 99 bd f9 e5 5f be
       0.01573865 -0.08724632 -0.07475054 -0.21865071
000240 c2 fc 63 be f7 00 e9 3d 14 31 68 3e 2a ff 0a bd
       -0.22264388 0.11377137 0.22674972 -0.03393475
000250 73 e7 ba bc e5 b2 6e be ec a3 5d bc 41 38 7e bd
       -0.022815442 -0.2331043 -0.013527852 -0.062065367
000260 a5 e4 06 3e fe 68 6c be bc 75 70 be fd 0e ae 3e
       0.13173158 -0.23086926 -0.23482412 0.3399581
000270 94 64 70 3e cb d0 26 3e 81 08 86 bd 2d 7b ae bd
       0.23475868 0.16290586 -0.06544591 -0.08519588
000280 bd 8f 62 3d dc 44 68 be 0e 05 31 3d 5b 49 d1 3c
       0.05531286 -0.22682518 0.04321771 0.025547674
000290 0d 91 21 be 4b f5 87 3e 61 b7 c2 bd 20 7f b3 bc
       -0.15777989 0.2655433 -0.09507633 -0.021911204
0002a0 a6 bf 32 3e 07 ef 81 be e7 08 03 3d 70 46 a5 3e
       0.1745592 -0.25377676 0.03199091 0.32280302
0002b0 ef 23 b3 bd 8c d2 58 3d 38 62 96 3b 88 c9 81 3d
       -0.08747088 0.05293517 0.0045893453 0.06337267
0002c0 32 ae a8 bd 32 aa 6a bc da 7b 0c 3d f8 ca 03 be
       -0.0823635 -0.014322804 0.0342978 -0.12870395
0002d0 1a 50 24 be 68 b2 16 bd 53 f9 64 3e 9b c5 5d 3e
       -0.16046181 -0.036791235 0.22360735 0.21657412
0002e0 25 48 5f 3e 86 0d c1 bd 52 35 01 be cc 3a c8 3d
       0.21804865 -0.094264075 -0.12617996 0.097768396
0002f0 20 49 d7 bc 1c 6d 89 3e db bf ad 3d 2a 6c 6f be
       -0.026279986 0.26841056 0.08483859 -0.23381105
000300 a0 08 89 3e 1e 57 22 3e ad 5f 90 be ca 26 2f be
       0.26764393 0.15853545 -0.28197995 -0.1710464
000310 86 a5 b1 bd 70 63 93 3e ac 01 14 bd 4d dd 7a bd
       -0.08674149 0.28786802 -0.036134407 -0.061246205
000320 62 e5 36 3e 7e d0 c1 3e c8 dd b8 bc ce a5 b8 be
       0.1786094 0.3785438 -0.022566691 -0.36064
000330 2c 64 1c be a7 ba 02 bd 3f ab 36 be 05 ed 6c 3e
       -0.15272588 -0.031916287 -0.17838763 0.23137291
000340 90 38 01 ba 7a 36 16 3e ce 4e 1e bc 10 0b 2f 3d
       -0.0004929388 0.14669219 -0.009662343 0.04273516
000350 f6 5b 0a 3e 0f 56 54 bd c6 54 a3 bd b4 7b be bd
       0.13511643 -0.051839884 -0.079751536 -0.09300938
000360 77 2a 01 3d e7 1e 3d 3e 8c c7 e4 3d 8a 62 5a be
       0.03153464 0.1846882 0.11170873 -0.21326652
000370 76 80 17 bd fc 6f 4b 3e 4a ac 90 be ea 64 8e be
       -0.036987744 0.19866937 -0.28256446 -0.27811366
000380 6b 26 bd be 11 f1 59 be a5 37 bd 3e 6e f6 b1 be
       -0.36943373 -0.21283366 0.36956516 -0.34758323
000390 16 b9 76 3e a8 f7 c1 3c ea 5a b6 bd 15 75 c3 3e
       0.24094042 0.023677662 -0.08904059 0.38175264
0003a0 f6 80 70 3e 3b dd ca bb a3 8f 3e 3e 4e b8 a5 3e
       0.23486695 -0.0061909235 0.1860948 0.32367176
0003b0 10 d8 6c be e8 6c d3 3e 7f 26 e5 3d 49 31 a0 be
       -0.23129296 0.41294026 0.11188983 -0.31287602
0003c0 68 1b 28 3e d1 41 bb 3e 9b ac 9c be 42 18 a1 3e
       0.16416705 0.3657365 -0.30600438 0.3146382
0003d0 ed 0e 05 3e 3d 87 c6 3e a7 32 3f bd db df 1a be
       0.12993975 0.38775054 -0.046679165 -0.15124457
0003e0 e3 a6 aa be 83 86 db 3e cc 03 53 3e f9 66 d6 bd
       -0.3333045 0.42876062 0.20606917 -0.10468859
0003f0 a8 c5 dd 3e 21 97 a5 3c af a8 6f be f5 18 99 bd
       0.43314862 0.020213665 -0.23404191 -0.07475463

project_sf.bias f4 [16]
000000 9f 80 e9 bd b9 e2 19 3f 8d 98 19 3e 24 cd b9 bd
       -0.11401486 0.60111576 0.149996 -0.090723306
000010 93 da be bd c4 64 6e 3d 51 ea 81 be c3 b6 4b 3d
       -0.093190335 0.058201566 -0.25374082 0.049734842
000020 aa d3 5f 3c d6 5d 20 be 2e 87 19 be 1d d1 b1 be
       0.0136613045 -0.15660796 -0.14992973 -0.34729853
000030 96 29 6c 3e 00 32 d1 bd d6 18 44 be 9f 7e e9 3d
       0.23062739 -0.10214615 -0.19150099 0.11401104

rnn_fast.weight_ih_l0 f4 [48, 1]
000000 00 8a 47 be a0 5a 10 3c 28 77 6b bd e0 f7 ba 3c
       -0.19486237 0.008810669 -0.057486683 0.022823274
000010 e8 cd be bd 04 4c 30 be fc bf 0f 3e 32 b6 27 3e
       -0.09316617 -0.17216498 0.1403808 0.16378096
000020 0c dd 87 3d 88 68 c2 3d 64 e1 c8 bd c0 8e 97 bd
       0.06633958 0.09492594 -0.09808615 -0.07400274
000030 c8 bc 1b be a0 c9 f7 3c b6 ae 5f 3e a6 2e 37 3e
       -0.15208733 0.03024751 0.2184399 0.17888889
000040 a4 4b 8a 3d 6c 9f c1 bd 78 5a 97 bd 12 c3 20 be
       0.067527086 -0.094542354 -0.073903024 -0.15699413
000050 70 e9 75 3d 40 75 6a be 64 de 2e 3e 2e 3a 26 3e
       0.060037076 -0.2289629 0.17077023 0.16233131
000060 82 8c 75 be 70 bb 4e bd cc c6 91 3d d6 2f 0b 3e
       -0.2397938 -0.050471723 0.071179956 0.13592467
000070 42 e4 41 be 00 b0 ad b8 08 58 42 3d 70 3c 73 3d
       -0.1893473 -8.2820654e-05 0.047447234 0.05938381
000080 d6 56 59 be 9a fc 76 3e 00 8c 8d 3c 18 64 a3 bd
       -0.21224532 0.24119797 0.017278671 -0.07978076
000090 30 f3 13 3e de eb 1d be c0 f2 02 bd 28 35 73 bd
       0.14448237 -0.15422007 -0.031969786 -0.059376866
0000a0 5e 2b 79 be b4 28 6d 3e 2c 71 18 3e 78 46 dd 3d
       -0.2433295 0.23160058 0.14886922 0.108044565
0000b0 ec 48 5a be a4 e4 63 3e 1c bf e5 3d 06 55 58 3e
       -0.2131688 0.22255188 0.11218092 0.21126184

rnn_fast.weight_hh_l0 f4 [48, 16]
000000 4c 96 66 be fd 8a 23 3e ee 90 cc bd 71 a1 30 be
       -0.22518271 0.15970989 -0.09988581 -0.17249085
000010 fe 93 49 3e ee f8 5f 3e aa 1b d1 3d f8 5b 70 bb
       0.19685361 0.21872303 0.102103546 -0.0036675911
000020 35 2c 1d 3e 95 a1 28 3e 57 74 02 3e 87 9a 8f 3d
       0.15348895 0.16467889 0.12739693 0.070118956
000030 68 b9 6c 3e 7c c2 4f be b7 73 4c be 41 2d 33 be
       0.23117602 -0.20289034 -0.19966017 -0.17497732
000040 f1 a4 59 be 97 1a d6 bd 5f e0 0b 3e 97 8b 6f 3e
       -0.21254326 -0.1045429 0.1365981 0.23393093
000050 8d b5 f0 bd 10 c4 7f be 7f d5 3b be dc dd 96 bd
       -0.11753378 -0.24977136 -0.18343161 -0.07366535
000060 73 6b 5e 3e 3d 84 f7 3d 81 cd 6f 3e 63 31 3c be
       0.21720676 0.12085769 0.23418237 -0.18378215
000070 17 46 86 bd cf b8 e7 bc b9 b1 67 3e 44 62 12 be
       -0.06556337 -0.028286366 0.2262639 -0.14295298
000080 2c 28 39 be f5 9c 3e 3e 66 81 16 3e 14 56 3e 3e
       -0.1808173 0.18614562 0.14697799 0.18587524
000090 e1 21 00 3d 51 19 04 be 25 f8 2e be 7e cf f7 3b
       0.03128231 -0.12900282 -0.17086847 0.007562577
0000a0 61 ae fc bc 74 ab 32 3e 71 9f d0 3d 17 1a 8b 3d
       -0.03084487 0.17448217 0.10186661 0.067920856
0000b0 5f 1f 1b bd 43 15 22 3d 2c 63 2f be 80 dd 5c be
       -0.037871715 0.039571058 -0.17127675 -0.2156887
0000c0 97 33 41 be 39 d0 69 3e 83 83 fd 3d 1f 36 ea 3d
       -0.18867336 0.22833337 0.123785995 0.11436104
0000d0 6c 0c 66 3e be 43 28 3e bd 86 cd bd 6c 82 35 be
       0.22465676 0.16432092 -0.10035465 -0.17725533
0000e0 22 fb c3 3c 44 50 99 3d 7b d2 ec bd c1 9f f9 bd
       0.02392346 0.074860126 -0.115635835 -0.12188674
0000f0 88 a0 1e 3e 86 5f 86 3c a9 65 48 be 58 86 5d be
       0.15490925 0.016402971 -0.1957003 -0.2163328
000100 90 39 3a 3e 26 94 5a 3d 75 b6 e0 bb 04 0f 25 3d
       0.18186021 0.05336394 -0.006857688 0.040297523
000110 8e e1 2d 3e cf e5 3b 3e c0 8c ef 3d 2e 8d 3f 3e
       0.16980574 0.18349384 0.11696768 0.187062
000120 b3 af 4c bd a6 4b 24 3d 43 8f 25 3e 21 4c 4c 3e
       -0.049972247 0.040111206 0.16167931 0.19950916
000130 bc 8b ea 3d 6b e1 81 ba d1 13 49 3e bb 13 19 3d
       0.114524335 -0.0009909099 0.19636466 0.037372332
000140 bd bb 5a 3e 01 86 9f bd 0e 8e a7 3d 18 37 49 3e
       0.21360679 -0.07789231 0.08181392 0.19649923
000150 30 ac 1b 3e fb b6 d6 3d 28 f1 84 be 41 b6 86 bd
       0.15202403 0.104841195 -0.25965238 -0.06577731
000160 76 fb 7e 3e 30 08 c2 bd 1b f4 1f be 9e 04 33 bd
       0.24900612 -0.09474218 -0.15620463 -0.043705575
000170 bb a7 0c be 3d 1d 50 be d4 59 e9 bd 20 a1 67 be
       -0.13735859 -0.20323654 -0.113940865 -0.22620058
000180 da 08 47 3e 67 27 d8 bd a7 19 cc 3c b4 71 d8 3d
       0.1943697 -0.105543904 0.024914576 0.10568562
000190 3b 3e 15 bd 34 01 3d be da 93 76 bd 59 c0 12 be
       -0.0364363 -0.1845749 -0.060199596 -0.14331187
0001a0 c8 db 54 be a3 e4 3b be 4e 06 eb bd 72 b8 74 be
       -0.20786965 -0.18348937 -0.11475812 -0.23898485
0001b0 83 58 06 be 5c 6e 2b 3e db 8d d8 bc de 3e ba 3c
       -0.13119702 0.16741318 -0.02643483 0.022735056
0001c0 3e ff 52 3e 8b 27 18 3e 8d 1d 04 bd 2d 56 a4 bd
       0.2060518 0.14858834 -0.032254744 -0.08024249
0001d0 23 17 9a bd a4 26 27 3e 1f 31 bb 3d be d8 4a be
       -0.07523944 0.16323334 0.091402285 -0.19809243
0001e0 32 17 4a be cb 4e 43 be e9 67 69 3e c0 02 cb 3d
       -0.19735411 -0.19073026 0.22793545 0.09912634
0001f0 90 6e 66 bd bf 75 2f 3d 28 0b 3f 3e 37 5d 4f bd
       -0.056257784 0.0428369 0.186566 -0.050626006
000200 5b b9 62 3e f3 60 44 3e fa d2 ec bd 11 58 a6 3d
       0.2214102 0.19177608 -0.11563678 0.08122266
000210 60 78 75 3e 5f 33 47 be f7 77 32 3e 36 f2 6e 3d
       0.239717 -0.1945319 0.17428575 0.05833646
000220 47 88 78 3e 42 be 9b 3d 66 4e 19 be da 6c 54 3e
       0.24270736 0.07604648 -0.14971313 0.20744649
000230 f1 9d 50 3e 4f e1 22 be ea 1c e2 3d 93 73 56 3e
       0.2037275 -0.15906261 0.11040671 0.20942526
000240 c6 f8 32 be 2d d7 8d bd 0c b4 7b 3c 2c 11 74 3e
       -0.17477712 -0.06925807 0.015362751 0.23834676
000250 e3 87 b3 bd e8 81 60 3d 94 32 d7 3c 71 ad 8f 3d
       -0.08766153 0.05481139 0.026269235 0.07015503
000260 30 f5 b9 bb 8e f1 4a be f4 ab 9c 3d 7d fb 08 be
       -0.0056749806 -0.19818708 0.07649985 -0.13377185
000270 c7 77 84 3d ac 7d c7 bd ef c4 3c be 6e 95 10 3d
       0.06468158 -0.09740767 -0.18434499 0.035298757
000280 13 de 73 bd 40 55 d7 bd 25 55 28 3e 50 4a 0d 3e
       -0.05953796 -0.10514307 0.1643873 0.13797879
000290 95 40 b7 bd 4b cc 24 be 7c 93 76 be e4 b9 4d 3c
       -0.08947865 -0.16093557 -0.24079698 0.012556527
0002a0 cf 43 47 3d d9 69 3f be 4f b7 4c be e0 52 67 bb
       0.04864865 -0.18692721 -0.19991802 -0.00352972
0002b0 49 b8 02 be d5 13 1f be aa e5 24 be 4a 3e a9 3d
       -0.12765612 -0.15534909 -0.16103235 0.08263834
0002c0 9a cd fe bc 98 c7 1a 3d 30 18 18 3d bc 2c f5 3a
       -0.031103898 0.037788004 0.037132442 0.0018705348
0002d0 b6 a9 2e 3e 13 ad 1a bd 3d 06 13 be 3a 17 ea bc
       0.17056927 -0.037762713 -0.14357848 -0.028575528
0002e0 9a 4b 39 be d2 1e 16 3e 68 29 ab 3d 81 96 e9 bb
       -0.18095246 0.14660195 0.08357507 -0.007128537
0002f0 f1 ea 35 be 67 96 e0 bd d0 0e 45 bd b1 55 06 be
       -0.17765404 -0.10966187 -0.04810983 -0.13118626
000300 a4 3a 4e be 44 8d cd bd 41 6f f9 bd 8d 28 75 3e
       -0.20139557 -0.1003671 -0.12179423 0.2394125
000310 da c5 23 3e 92 dc 4f be 4d 5f 43 be 93 bd 51 3e
       0.15993443 -0.20298985 -0.19079323 0.20482473
000320 48 01 a9 bd fc f3 0a 3e bf 91 47 3e f4 e7 f2 3d
       -0.082521975 0.13569635 0.19489191 0.11860648
000330 61 fa 9c bd d7 8f 9e 3d da d6 25 be 07 47 35 be
       -0.076649435 0.07742279 -0.1619524 -0.17702876
000340 25 88 14 be f7 65 57 3e 5a 09 6e be e8 3c 4b be
       -0.1450506 0.2103499 -0.23245755 -0.19847453
000350 d6 4c 56 3e 0e 59 55 be 5c a6 5d 3e 68 1d 02 3e
       0.20927748 -0.20834753 0.21645492 0.1270653
000360 e5 eb 35 3e b5 21 90 3d e3 da 6b 3e 1a 65 56 be
       0.17765768 0.07037679 0.23032717 -0.20937005
000370 b2 fa 74 3e b5 fb df bd 56 bf 12 3d 13 f2 61 3e
       0.23923758 -0.10936681 0.035827003 0.22065
000380 75 cd 54 be 17 6e df 3d 6c 74 5a 3e 9e 4b fd bd
       -0.207815 0.1090967 0.21333474 -0.123679385
000390 ca aa b8 3d e8 4c 68 3e e6 0b d2 3d 1f 98 55 3e
       0.090169504 0.22685587 0.10256176 0.20858811
0003a0 4b a1 c6 bd 32 da 0e bb a9 4c 30 bd c1 f3 44 bb
       -0.09698733 -0.0021797535 -0.04304186 -0.0030052515
0003b0 af bd f0 bc fb bb 5f 3e ef 93 fe 3d 24 d6 a5 3d
       -0.029387323 0.21849053 0.1243056 0.08097485
0003c0 69 f8 7d 3e 3e b1 3e be 64 cd 23 be 1f bb 4e be
       0.24801792 -0.186223 -0.15996319 -0.20188569
0003d0 75 02 39 be 02 05 5d 3e 50 69 5c be 8b 45 4d be
       -0.18067344 0.21583942 -0.21524549 -0.2004606
0003e0 53 16 45 3e d5 2a 05 3d 64 32 28 3e 52 81 17 3e
       0.19246797 0.03251155 0.16425472 0.14795426
0003f0 43 bb 97 bb 40 4b 2c 3e f5 da 6b 3d aa e2 6c be
       -0.0046304776 0.1682558 0.05758186 -0.2313334

rnn_fast.bias_ih_l0 f4 [48]
000000 2e 07 58 be 9f a6 56 bd 95 55 e0 3c 50 f1 54 3e
       -0.21096489 -0.052404996 0.027384559 0.20795178
000010 94 4c 99 3d 01 45 3e be 20 18 98 3d 5a 19 42 be
       0.07485309 -0.1858101 0.074264765 -0.18954983
000020 c6 cb 1a 3e 9b b5 16 be 44 b5 54 be ac c5 9b 3d
       0.15116796 -0.14717714 -0.20772272 0.07606062
000030 0f 20 0b be 53 9e 63 3e d8 48 ff 3c 4c 4f 62 3e
       -0.13586448 0.22228365 0.031162664 0.22100562
000040 8e ce df 3d 70 cd dd bd f6 3c 5a 3d da 4b 13 be
       0.10928069 -0.108302 0.053280793 -0.14384404
000050 f5 52 47 be 46 e5 1d 3e 33 29 0f be ad 3a 97 3d
       -0.1946524 0.15419492 -0.1398056 0.073842384
000060 8a d6 0c 3e 1a 02 bc 3d 74 bc 54 3e 5b 5b 6b 3e
       0.13753715 0.09180088 0.20775014 0.22984068
000070 76 f1 73 3e 0f d3 d7 3c fd f7 25 bc 3a 5e a2 bd
       0.23822579 0.026345758 -0.010129926 -0.079281285
000080 09 d3 17 be 36 e0 e8 3d c4 65 48 be ff 64 82 3e
       -0.14826597 0.1137089 -0.1957007 0.2546768
000090 94 2d 87 3d 96 5c 1e bd 7c a9 49 be 1d 4b 17 3e
       0.0660049 -0.038662516 -0.1969356 0.14774747
0000a0 2a 04 12 3e 08 88 e4 3d d7 af 77 be 31 f5 2e 3e
       0.14259401 0.111587584 -0.24188171 0.1708572
0000b0 1e 98 02 be 0a b0 71 3e 3f 20 18 3e c7 e3 14 bc
       -0.1275334 0.2360231 0.14856051 -0.0090875095

rnn_fast.bias_hh_l0 f4 [48]
000000 7e 33 38 3e 30 70 a6 bd 35 ec 3a 3e e0 03 6c 3c
       0.17988393 -0.08126867 0.18254168 0.014405221
000010 da 65 6f 3e ab 05 9f 3d 5a 67 0a be 9c b1 02 3d
       0.23378697 0.07764753 -0.13515988 0.031907663
000020 b0 ea 5d 3e 9d 9e b8 3c 85 ae 84 bd 8c 2b 55 be
       0.21671557 0.02253657 -0.064785995 -0.20817393
000030 a4 b7 bc bd 99 76 03 3e 08 36 57 be 05 b2 0b bd
       -0.09214714 0.1283821 -0.21016705 -0.03410532
000040 ce ec 99 bd de 3a 34 3e 16 5a 4a 3d 96 dd e5 bc
       -0.0751587 0.17600581 0.04940232 -0.028059762
000050 9f 0b 7a 3e 2c d6 48 bc 0b a4 e3 bd 34 ea 67 3e
       0.24418496 -0.012258094 -0.11115273 0.22647935
000060 c8 d6 13 be 01 f1 6c be 14 ee 0e be 47 4a 24 be
       -0.14437401 -0.2313881 -0.13958007 -0.1604396
000070 a8 29 df 3d df 05 4c be a1 66 ec bc e3 f0 80 3d
       0.10896617 -0.19924115 -0.028857531 0.062959455
000080 d3 5a c2 bd 49 00 38 3e 28 b7 5e 3e 3f c2 57 3e
       -0.094899796 0.17968859 0.21749556 0.21070193
000090 dd 87 dd 3d bf 87 46 3e 5e 22 57 3c 00 72 62 be
       0.108169295 0.1938772 0.013130752 -0.221138
0000a0 34 b0 2e 3e f4 c4 89 3d 2f 27 fc 3d 66 65 c5 bd
       0.17059404 0.06727019 0.12312161 -0.09638481
0000b0 24 9b 0d be b3 81 65 be fb cc 86 3e 6e f1 70 be
       -0.13828713 -0.22412758 0.26328263 -0.23529598

initial_evidence.weight f4 [1, 16]
000000 b4 a0 01 3e c5 77 64 be d1 62 dd 3d c5 b8 8d be
       0.1265896 -0.22311313 0.10809863 -0.2768003
000010 b4 6c df 3c 85 0e b5 bc 6c ca 08 3e 76 94 08 3e
       0.027273513 -0.02210165 0.13358468 0.13337883
000020 3f 4a 5d 3d 1d 93 11 3e 75 05 1d 3e eb 91 fc 3c
       0.054025885 0.14216276 0.15334113 0.030831298
000030 ff 2f af bd 32 79 08 3e d9 9c 28 be 9e 4d 2c be
       -0.085540764 0.13327482 -0.16466083 -0.16826484

evidence_head.0.weight f4 [1, 16]
000000 1f 6b b0 3c b9 ba 86 3d 7b 9a f6 3b 12 43 89 3e
       0.021535454 0.06578583 0.0075257397 0.26808983
000010 2b f2 45 3d dd 2b 79 3d 71 ef 9f 3d c7 49 38 3d
       0.048326652 0.060832847 0.07809342 0.044992235
000020 28 d5 8a 3d c3 71 5b 3d dc 2e 79 3d 42 2d 8a 3c
       0.067789376 0.05357529 0.060835704 0.016867284
000030 1c 22 90 3c 88 51 67 3d 56 a5 a3 3d 00 a3 b2 3d
       0.01759439 0.05647424 0.0799052 0.08722496

fast_choice_head.0.weight f4 [16, 16]
000000 7c f0 91 3d ac 80 57 be 48 24 a7 3d 70 e2 6c bd
       0.07125947 -0.21045178 0.08161217 -0.057833135
000010 fc ba bf 3d 68 77 57 3d a0 a0 7e be 16 f6 26 be
       0.09361836 0.05260411 -0.24865961 -0.16304812
000020 64 9a f8 bd d0 ee 7b 3d 30 28 cb bd 80 a4 bd 3d
       -0.12138823 0.061507046 -0.099197745 0.092598915
000030 58 03 7b bd 20 92 3e 3c 40 53 6d bc dc 1e de 3d
       -0.061282486 0.011631519 -0.01448518 0.1084573
000040 10 2c c6 3d 0c 71 09 3e 30 85 c8 bd 00 bb 94 bd
       0.09676373 0.1342203 -0.097910285 -0.0726223
000050 00 6e c6 bc 4c 33 8c bd 20 59 74 bd 60 b0 c6 bc
       -0.024222374 -0.068457216 -0.05965531 -0.024254024
000060 50 1c f0 3c 36 c9 2f be d8 7f 04 be 2a 2b 16 be
       0.029310375 -0.171666 -0.12939394 -0.14664903
000070 40 03 23 be 3a 97 57 be 34 51 b7 3d 4c 27 7b be
       -0.15919209 -0.21053782 0.08951035 -0.2452671
000080 90 c6 40 3e c6 56 1a 3e 94 c5 4b 3e 98 6b a7 3d
       0.18825746 0.15072164 0.19899589 0.08174819
000090 d4 70 15 3e 54 7d bd bd de 37 12 be 06 c5 75 be
       0.14593822 -0.0925242 -0.14279124 -0.2400094
0000a0 00 05 7d bd f4 6a 81 bd 38 4e fb 3d 16 ce 56 3e
       -0.061772346 -0.06319228 0.122707784 0.20977053
0000b0 00 05 10 bd d8 23 45 bd a0 82 51 3d 44 67 5c be
       -0.03516102 -0.048129886 0.051149964 -0.21523768
0000c0 00 b2 80 bb b0 1c 29 3e 98 c4 2a bd e4 cb c4 3d
       -0.0039274693 0.1651485 -0.041691393 0.096092016
0000d0 e8 e7 5c bd e0 3f ce bc 70 b8 2f be d0 f9 b1 bc
       -0.0539321 -0.025176942 -0.17160201 -0.021725565
0000e0 b6 08 39 be 80 de ca 3d 30 68 db bd 4e a3 47 be
       -0.18069729 0.0990572 -0.107132316 -0.1949589
0000f0 fc 3b f2 bd 5c ec 17 be cc ef 4b be 0e 6f 74 3e
       -0.11827847 -0.14836258 -0.19915694 0.23870489
000100 00 ce 25 bd 88 d7 59 3d 0a 17 14 3e ac 38 a6 bd
       -0.04047966 0.053184062 0.14461914 -0.08116278
000110 1a a6 47 be 0e 16 0d be 76 96 0c 3e 7a f2 5e be
       -0.19496956 -0.13777944 0.13729271 -0.21772185
000120 c0 4a d1 3b 78 90 48 3e 80 2f 54 bd a0 b6 24 be
       0.0063870847 0.1958636 -0.051803112 -0.16085291
000130 18 67 a1 bd 40 bb df 3b de c2 1d 3e 00 cd c0 3a
       -0.07880992 0.006827742 0.15406367 0.0014709532
000140 0c fd 2c be 00 20 d1 bb 7e 56 0b 3e a6 d3 6b be
       -0.16893405 -0.0063819885 0.13607213 -0.23029956
000150 80 aa 79 3c 20 e3 3a 3c 30 d5 4a 3d 7e fb 75 be
       0.015238404 0.01140669 0.049519718 -0.24021718
000160 10 32 43 be 3e 84 6f be 96 7e 4c 3e 4e 20 56 be
       -0.19062066 -0.2339029 0.19970164 -0.20910761
000170 0e 83 69 3e 40 7e 55 be 72 65 2f 3e f0 f4 a7 bd
       0.228039 -0.20848942 0.17128542 -0.08201015
000180 64 65 7a 3e c0 01 3b 3d 14 91 60 3e 90 e8 8f 3c
       0.2445274 0.045655966 0.21930343 0.01756695
000190 b8 96 0a bd 36 2d 40 be e2 06 0a be 60 9c 73 3e
       -0.033835143 -0.18767247 -0.13479188 0.23790121
0001a0 f6 32 7e 3e 74 b4 5c 3e 54 f7 0f 3e 9c d3 39 3e
       0.24824128 0.21553212 0.14059192 0.18147129
0001b0 34 9a 3b be 20 1a b5 3c b8 8f e3 3d 10 8d 0b be
       -0.18320543 0.022107184 0.111113966 -0.1362803
0001c0 68 bb 4b 3d 32 97 6a 3e 88 b1 ac bd 64 32 f8 3d
       0.04973927 0.22909239 -0.08432299 0.12118986
0001d0 64 e6 aa bd 0a 3b 35 be 30 0f 33 3d e0 35 5e be
       -0.08344725 -0.17698303 0.043715656 -0.21700239
0001e0 42 2d 7d be 00 ad b3 3a 40 d5 38 3c b4 80 bf bd
       -0.24724296 0.0013708174 0.0112813115 -0.0935072
0001f0 a0 e2 1d be 1c 57 ae 3d 70 9a f6 bd 80 d6 4c be
       -0.15418482 0.085127085 -0.12041175 -0.200037
000200 1a c5 4f be 50 a1 5d 3d 02 b1 67 3e c0 98 ba bd
       -0.20290032 0.054108918 0.22626117 -0.09111166
000210 78 8d f8 bd 24 9e 1a 3e ca 5a 43 be b0 76 4e 3e
       -0.12136358 0.15099388 -0.19077602 0.20162463
000220 9e 47 7c be c8 ec 0c 3d d4 d6 9b bd 5a 57 6c 3e
       -0.24636695 0.0344055 -0.076093346 0.23080197
000230 5c 61 87 bd b8 f5 13 be fe d6 04 3e 7e de 64 be
       -0.06610367 -0.14449203 0.12972638 -0.22350499
000240 8c ad ed 3d be 66 1a 3e 08 4c cc bd 6a eb 20 3e
       0.11605367 0.15078256 -0.09975439 0.15714803
000250 08 67 2b 3d 74 e1 cb bd 9c 14 ab 3d ce 19 45 be
       0.041846305 -0.09955111 0.0835354 -0.19248125
000260 00 0b c6 bb be 0d 0a 3e cc 50 62 3e 30 af d3 bd
       -0.006043792 0.13481805 0.22101134 -0.10336149
000270 5c 56 09 be 78 76 10 be ec 4f fe 3d e6 05 71 3e
       -0.1341185 -0.14107692 0.12417588 0.23537406
000280 96 20 07 be 10 22 21 3d 40 4c 65 3e 40 cd fa bc
       -0.13196024 0.039339125 0.22392368 -0.030615449
000290 7c 4d 00 3e d8 12 61 bd da 2e 61 be a2 ec 49 3e
       0.12529558 -0.05494961 -0.21990529 0.19719175
0002a0 50 91 2f be 06 d7 42 be 50 14 7d bd ae 71 28 be
       -0.17145276 -0.19027337 -0.06178695 -0.16449615
0002b0 e0 06 1b 3e 70 9b 2a bd e6 e1 75 be 00 2c 83 bb
       0.15139341 -0.041652143 -0.24011955 -0.004003048
0002c0 58 a4 27 3d da ac 3b 3e 48 22 e2 3d 60 3a 48 bc
       0.040928215 0.18327656 0.11041695 -0.012220949
0002d0 4a a3 7c be 80 6b 18 bc d6 a2 43 be c8 95 67 3d
       -0.24671665 -0.009302974 -0.19105086 0.056539327
0002e0 0c a0 9b 3d 98 c8 f4 3d 44 63 0e be 8e d4 69 be
       0.07598886 0.11952323 -0.13905054 -0.2283499
0002f0 ec 85 ce bd a0 be c0 3d a8 83 e2 3d 12 d1 2f 3e
       -0.10084137 0.09411359 0.11060268 0.17169598
000300 80 89 9d bb 48 3a 26 3e 70 d6 75 bd 00 0f 1c 3b
       -0.004807651 0.1623317 -0.060018957 0.0023812652
000310 e0 12 8f bc da de 13 be b4 af 59 be 1c 73 ce 3d
       -0.017465055 -0.1444048 -0.21258432 0.10080549
000320 00 a1 c1 bd 8c d2 4b 3e 40 c8 93 bc a0 42 6a 3d
       -0.094545364 0.19904536 -0.018039823 0.057192445
000330 9c b7 67 be 42 fc 51 be 1c da da 3d 66 73 0e be
       -0.22628635 -0.20506385 0.10686132 -0.13911209
000340 a0 24 74 be de a8 53 3e 84 a0 ea 3d 28 00 f1 bd
       -0.23842096 0.20669886 0.11456397 -0.11767608
000350 52 15 60 3e 10 40 d3 3c 2c 6d 7d 3e 20 e5 ed bd
       0.21883133 0.025787383 0.24748677 -0.11615968
000360 36 32 1a 3e c0 56 51 bd 84 fc df 3d 0a 3a 5b 3e
       0.15058216 -0.051108122 0.109368354 0.21408859
000370 04 6a 8c 3d b4 e5 c2 bd e2 17 4a be 10 1c ee 3d
       0.068561584 -0.09516469 -0.19735673 0.11626446
000380 48 f8 f9 3d 3a 5b 2a 3e 06 73 00 be 86 7a 49 3e
       0.12205559 0.16636363 -0.12543878 0.19675645
000390 40 9b 91 bd c0 cc 50 bd d8 eb 4f 3d 04 e7 2f be
       -0.0710969 -0.050976515 0.050762028 -0.17177969
0003a0 00 ba b5 ba f6 47 26 be 40 68 dd bc f0 c9 ec bd
       -0.0013864636 -0.16238388 -0.02702725 -0.11561954
0003b0 98 60 10 bd 44 c5 d2 bd 5a 0d 21 3e fa 9f 4e be
       -0.03524837 -0.10291532 0.1572775 -0.20178214
0003c0 48 f4 7e be 9a 26 2c 3e a4 e8 0a be 1c fc 97 3d
       -0.24897873 0.168116 -0.13565308 0.07421133
0003d0 e8 0a 1a be 7a 01 48 3e b8 9e 3d 3d 7e 5d 40 3e
       -0.15043223 0.19531813 0.046293944 0.18785664
0003e0 82 67 22 be da 33 0f 3e 26 b5 7b 3e 40 4e c0 bb
       -0.15859798 0.13984624 0.24580821 -0.005868703
0003f0 12 1d 52 be ec 18 eb bd 32 d7 5d 3e c4 d8 25 be
       -0.20518902 -0.11479363 0.21664122 -0.16195971

fast_choice_head.0.bias f4 [16]
000000 d4 a6 a4 3d 60 c3 7b bc 1e 60 3c 3e 10 a5 c3 3c
       0.080396324 -0.015366405 0.18396041 0.023882419
000010 54 4e 1c 3e 70 a0 36 bd 60 98 80 bc 28 aa 8f bd
       0.15264255 -0.0445866 -0.015697658 -0.070148766
000020 92 7e 6f be 68 3b e9 bd 00 57 55 3c 38 66 2c be
       -0.23388126 -0.11388284 0.013021231 -0.16835868
000030 0c 6b 6f 3e 98 c5 09 be 84 91 c8 3d 36 b9 77 be
       0.23380679 -0.13454282 0.0979338 -0.24191746

fast_choice_head.1.weight f4 [1, 16]
000000 80 30 7b 3e d0 44 36 3d 5a 66 3d be a4 2b 16 3e
       0.2453022 0.04449922 -0.18496075 0.14665085
000010 98 82 26 3e 02 b2 52 3e e0 13 c3 3d 08 82 26 3d
       0.16260755 0.20575717 0.09525275 0.04065135
000020 50 36 95 3d 08 dc 2b 3d f0 5d 2c 3e 94 a8 6d 3e
       0.0728575 0.041957885 0.1683271 0.23208839
000030 bc 8b 8e 3d 30 77 70 3d 00 0f 76 3d d0 1f db bd
       0.06960246 0.058707416 0.0600729 -0.10699427
