saved_models/ISNNet_GRU_HS=4_N=2_ZP1_rtw0.5_output_hidden_16/split_0/model.pth (torch, 5882 bytes, 8 tensors)

trial_output.0.weight f4 [64, 8]
000000 1d 35 61 3f 93 91 b2 3e 82 5a 3d 3e 37 74 ca be
       0.8797167 0.3487669 0.18491557 -0.3954179
000010 12 26 ec 3e 9b f6 3e 3e 81 1c c4 3e eb 62 2d bd
       0.46122795 0.1864876 0.38302997 -0.042330664
000020 90 9d a1 3d a6 a0 0a bf 9a 86 38 3e 29 53 3c 3e
       0.07891381 -0.5415138 0.18020096 0.18391098
000030 fe 58 d5 be 10 38 db be ea b1 83 be 55 36 76 3e
       -0.41669458 -0.4281621 -0.25721675 0.24044164
000040 04 db 76 be 90 b6 2d 3f c4 49 43 bf c4 e9 f2 be
       -0.24106985 0.67856693 -0.7628443 -0.47443974
000050 57 76 81 3d 25 26 af 3e 01 4b 03 bc b4 f4 08 3d
       0.063214 0.3420879 -0.008013488 0.033436492
000060 db 63 89 3e f4 85 18 bf 46 b5 a8 be f2 b3 3b 3f
       0.26833996 -0.59579396 -0.329508 0.7332145
000070 44 e9 59 3e 54 59 22 bf bc 9b e2 be 88 05 ba 3e
       0.2128039 -0.63417554 -0.4425944 0.36332345
000080 3a e8 c1 3e d8 3f 25 3d 50 b6 c7 be 55 7c 39 be
       0.37872487 0.04034409 -0.3900628 -0.18113835
000090 de c0 a0 3d 5d 50 cc 3e ac 2d e7 be fd 6a ab bc
       0.078492865 0.39905062 -0.45152032 -0.02092504
0000a0 86 1d 24 be 8b fe 63 bd ba b4 8b 3e 7d 84 c0 bd
       -0.16026887 -0.055662673 0.2728632 -0.0940027
0000b0 52 16 93 be 40 34 37 be 40 1b 67 be 7f b9 29 3c
       -0.28727967 -0.17891026 -0.22568989 0.010359167
0000c0 7f 49 6b 3d 47 c3 42 3d 82 6f 4c bf df a0 f7 3d
       0.05744314 0.047549512 -0.7985765 0.120912306
0000d0 f0 2b af bb f3 03 ab be a8 d6 86 be 6d 2d 10 be
       -0.005345814 -0.3340145 -0.26335645 -0.14079829
0000e0 3d 0b 47 3e e2 cb af 3e a8 ab 57 3d a5 a1 9c 3e
       0.19437881 0.34335238 0.05265394 0.30592075
0000f0 42 13 2e be 1e cb 86 be 6a 9c 6f be 59 44 45 3e
       -0.16999534 -0.2632684 -0.23399511 0.19264354
000100 51 80 f5 3c 86 21 1d bd 57 d2 8e 3c 8c c8 3c be
       0.029968413 -0.03836205 0.017434282 -0.18435878
000110 4f 92 94 be b3 60 17 3d 03 25 c3 3e ab bb c0 be
       -0.29017875 0.036957454 0.38114175 -0.3764318
000120 8f 54 8e be f0 d7 cb be 09 b2 0c be 64 b6 6b be
       -0.27798888 -0.39813185 -0.1373979 -0.23018795
000130 47 35 a4 3d 80 16 60 3d a9 2f cb bd 1e 51 27 3c
       0.08017974 0.054708958 -0.099212 0.010212211
000140 62 e9 fc bc d5 74 03 bf 27 7a fd 3e 25 52 71 3e
       -0.030873004 -0.51350147 0.49507257 0.23566492
000150 45 0c 5c 3e 70 11 d5 be a3 97 6e 3e 15 37 06 bc
       0.21489055 -0.41614866 0.23300032 -0.0081918435
000160 61 82 6f be 65 04 01 be f6 ac 35 3d 90 2c 93 be
       -0.2338958 -0.12599333 0.0443544 -0.28744936
000170 bd fd 7e be 49 d4 6d bc 37 7f 7b 3e cc 1d ec bd
       -0.24901481 -0.014515945 0.24560247 -0.11529121
000180 f5 d2 07 be e5 da 74 3e 20 d2 1b be d6 f8 97 3e
       -0.13264067 0.23911627 -0.15216875 0.29682034
000190 e8 3a 3a bd 60 b5 d2 bd ae a6 28 be b4 32 80 bd
       -0.045466334 -0.10288501 -0.16469833 -0.06259671
0001a0 f3 f3 57 3d 42 0e 78 3e 4c d1 3c 3e 24 73 a2 be
       0.052722882 0.24224189 0.18439215 -0.3172847
0001b0 e0 ad 64 bd 88 4c 64 be 62 8a 5f be 29 63 9e be
       -0.055829883 -0.2229482 -0.21830133 -0.30935028
0001c0 40 66 d0 be 5d 21 0d bf 58 52 78 3e ca f4 9b be
       -0.4070301 -0.55129033 0.24250162 -0.30460197
0001d0 e6 84 0c 3e 0c 47 40 be 7a 3c 25 3e 64 1c e3 3e
       0.13722572 -0.18777102 0.16136351 0.44357598
0001e0 22 c0 43 bf 02 5d 27 bd f0 dd 0f bf 96 74 4b 3e
       -0.76465046 -0.040860184 -0.56198025 0.19868693
0001f0 d0 ae 99 be 00 46 54 be 03 0c 01 be e1 8d 4c 3e
       -0.30016184 -0.20729828 -0.12602238 0.19975998
000200 26 db 11 be 9f 06 0c 3f 0b ed 39 3e 13 6d eb bb
       -0.14243755 0.54697603 0.18156831 -0.0071846335
000210 fd 5a a2 bc 2c 38 a4 3e 0f ab 02 3e 5e 61 09 bf
       -0.019818777 0.32074106 0.12760566 -0.53664196
000220 49 0d 88 be 8d ef 81 3e 86 43 02 3e 14 c8 b8 bc
       -0.26572636 0.25378075 0.1272107 -0.022556342
000230 d7 6e 8a bc 83 8b b5 bd 4e 32 8d 3e 51 71 b1 bd
       -0.016898556 -0.088645004 0.27577442 -0.086641915
000240 48 85 fd 3c de fb 8d be 96 2d f4 bc 2c c4 83 be
       0.030947343 -0.27731222 -0.029806893 -0.25735605
000250 ea ab 10 be 80 ef a3 3d e6 9a da bc ec b5 7d 3d
       -0.1412808 0.080046654 -0.02668519 0.061941072
000260 96 b8 30 be 4f 7b e1 3e 60 77 2d 3d 6d 07 f5 3e
       -0.17257914 0.4403939 0.042350173 0.47857228
000270 68 99 3b bd f6 98 a5 3e d8 e5 0e bd 1f 47 c3 be
       -0.045800596 0.32343262 -0.034887165 -0.381402
000280 e7 c2 29 3e 9c 98 bc be eb 5d 12 3e 5d 81 8b be
       0.16578256 -0.36835182 0.1429364 -0.27247134
000290 79 be 9e bb ed 32 3e be 03 f2 a7 3e 0d 22 8e 3d
       -0.0048444835 -0.18574114 0.32801828 0.069400884
0002a0 61 3e 17 3f 31 4b a3 3e 67 a6 a1 3b a1 b0 c6 be
       0.5907956 0.31893304 0.004933167 -0.38806632
0002b0 1c 0b ce 3e 85 f9 33 3e 67 53 01 bc 94 64 69 be
       0.4024285 0.17575653 -0.00789342 -0.22792274
0002c0 f7 61 c8 bd 62 98 0e 3d bd 55 d5 3e c2 f0 26 be
       -0.0978431 0.034813292 0.41666976 -0.1630278
0002d0 94 82 8d 3e 1c 7c 92 3d 51 57 97 3e f4 4d 51 be
       0.27638686 0.07152578 0.29558805 -0.20439893
0002e0 bd 94 33 3e 9a 20 3a be 98 f2 1d be ed b5 ee 3b
       0.17537208 -0.18176499 -0.15424573 0.007284871
0002f0 c3 9b 14 3f 1f 55 a1 3e aa 11 60 be 3b 79 3a 3d
       0.58050174 0.31510255 -0.21881738 0.04552577
000300 75 91 12 3f 96 f6 77 bd f1 e7 6f 3d 34 72 14 bc
       0.572532 -0.060537897 0.058570806 -0.009060431
000310 08 70 94 3e f3 02 f7 3d a5 ec cf 3d 1a 7b 13 bd
       0.28991723 0.120611094 0.10152558 -0.03600607
000320 98 bd 07 be 6c 9f 60 3e e8 0e ca 3e 49 23 ff be
       -0.13255918 0.21935815 0.39464498 -0.49831608
000330 8c 20 be 3d d1 8b 9e 3e 44 c5 c3 3e b6 1b fa be
       0.092835516 0.30966046 0.3823644 -0.48849267
000340 03 68 38 3e 6e f9 c9 be df 7d 88 3e a7 e3 81 3d
       0.18008427 -0.39448112 0.26658532 0.06342249
000350 dd e1 58 be e5 ce be be 6c 86 4d be 07 d8 99 3e
       -0.2117991 -0.37267223 -0.20070809 0.30047628
000360 e7 a2 6e be 25 45 8f be 4b 7a 90 3e 18 c3 67 3e
       -0.2330433 -0.2798244 0.28218302 0.22633016
000370 04 cf be be 86 8b b4 be bb ad 5b 3c a7 4d 63 3e
       -0.37267315 -0.35262698 0.01340812 0.22197591
000380 80 c2 26 bf f9 91 cc be 89 1b 97 be b2 69 47 3c
       -0.65140533 -0.39955118 -0.29513195 0.012171196
000390 73 50 1f be b1 19 88 bd 43 b8 f7 be af 7c db be
       -0.15558033 -0.06645525 -0.48382768 -0.42868564
0003a0 a7 f0 c4 bd 35 af f1 be 13 22 31 3d 9e 2e a9 3e
       -0.09616213 -0.47203985 0.043245386 0.3304338
0003b0 06 f5 20 bd 11 e2 dd be 54 f7 47 3e 25 c2 ce bd
       -0.039296173 -0.43336537 0.19527942 -0.10095624
0003c0 e8 cb 0d 3d a2 0c 4c 3e 75 5c 6c 3b a9 f5 82 bd
       0.03461829 0.19926694 0.003606585 -0.06394512
0003d0 ca 81 61 3d 90 65 b0 3e 9c 2f e8 bc 4d 15 e6 bd
       0.055055417 0.34452486 -0.028343014 -0.112345316
0003e0 ff 04 b4 bd 40 91 a3 be fa 4c b8 3e 8c 2a 8d be
       -0.087900154 -0.31946754 0.35996228 -0.27571523
0003f0 c9 f7 fa bd c7 bb e2 3d 16 b4 a8 3e c0 60 8c 3e
       -0.122542925 0.11070972 0.32949895 0.27417564

trial_output.0.bias f4 [64]
000000 97 bf 4f 3e c3 f9 cf 3d 23 d1 b7 bd 25 fc a3 3e
       0.2028793 0.1015506 -0.089754365 0.3202831
000010 fc 2c b2 3e 4f 54 9f be cd 70 16 3c 23 76 b9 be
       0.34799945 -0.3111901 0.009182167 -0.36222944
000020 cb d1 42 3e 4f f6 41 3e 0f 3f 3d be 0b 06 e6 bd
       0.19025342 0.18941616 -0.18481086 -0.11231621
000030 e7 23 a1 be 22 09 c6 3e 03 32 f2 be ad 48 5f 3e
       -0.31472704 0.38678843 -0.4730378 0.21805067
000040 26 d6 28 3e ab dd bd 3d e7 94 12 3e 89 26 d6 bd
       0.16487941 0.092707954 0.14314614 -0.10456569
000050 55 c8 58 bd c5 05 39 be 54 cd d5 3b 37 5f 30 3e
       -0.052925427 -0.18068607 0.006524721 0.17223822
000060 4a fa 2f be 96 ce cb 3c ee b2 3d 3e 3f 3a d5 bc
       -0.17185321 0.024878781 0.18525288 -0.02602875
000070 90 a3 33 be 57 55 d9 3c 2e 06 4b 3e 1d 70 25 3e
       -0.17542863 0.026529951 0.19826576 0.16156049
000080 dd 55 90 3c 54 5a 79 bd 51 22 15 3a 49 99 9c be
       0.017619068 -0.06087716 0.00056890125 -0.30585697
000090 bf 3f c1 bd 53 1c d8 3e d2 2b d0 3d 19 61 83 3e
       -0.09435987 0.4220911 0.10164608 0.25660017
0000a0 6c 63 ca 3e 93 90 c0 bc 49 59 35 3d f7 23 90 be
       0.39528978 -0.023506438 0.044274602 -0.2815244
0000b0 44 79 00 be 0b ca 47 bc b9 c8 7e bd c9 bb 82 3e
       -0.12546259 -0.012194167 -0.062203143 0.25533894
0000c0 26 0d 84 bd ea 55 79 3e e7 d7 ad be fa e9 3d bd
       -0.0644782 0.2434918 -0.33953783 -0.046365716
0000d0 a5 dd 97 3d 47 87 a2 be ae 0e 40 3e c4 aa 56 3e
       0.07415322 -0.31743833 0.187556 0.2096358
0000e0 9e 35 b4 3d 37 aa a0 bd 10 52 98 3e c6 f2 8f bd
       0.08799289 -0.07844966 0.2975011 -0.07028727
0000f0 73 27 4b be 97 fe 2b be 22 87 da 3d 8b ff e7 3d
       -0.19839267 -0.16796337 0.10670306 0.11328038

trial_output.2.weight f4 [2, 64]
000000 31 a8 2b 3f b0 4e 7a 3e 54 e3 ab 3e 1a 0b 99 bf
       0.67053515 0.2444408 0.33571875 -1.1956513
000010 9e 57 30 bf 4a c0 74 be 3d 4a 46 3e a4 bf 62 3c
       -0.68883693 -0.23901477 0.19364257 0.013839636
000020 2a a5 23 be b7 06 1c 3c 0f 32 c8 3d 0c 3f f3 bd
       -0.15980974 0.009523085 0.09775173 -0.118772596
000030 94 03 13 3d 2d 5b a3 bd d0 0e 1a c0 c0 0b 49 3f
       0.035892084 -0.07976375 -2.407154 0.78533554
000040 b3 ae 09 bf 67 6c b9 bc 8b ee c2 3c a4 ca 37 3f
       -0.53782195 -0.022634698 0.023795387 0.7179358
000050 b1 43 04 be a7 57 36 bf 62 7c a1 be 2d ed a5 3e
       -0.12916447 -0.71227497 -0.3154021 0.32407513
000060 82 1a 20 bf 95 67 f8 be 58 f6 a1 3e c1 29 51 3e
       -0.6254045 -0.48516527 0.31633258 0.20426084
000070 f6 f8 59 3f 8b 45 d8 3e c3 07 4a bd 65 d7 85 bd
       0.8514551 0.42240557 -0.04932381 -0.06535224
000080 7d a7 bf be f8 20 84 3d 6a 6b b4 3e f0 f9 32 be
       -0.3743247 0.06451601 0.352382 -0.17478156
000090 b4 08 20 3f fe 66 4e be 34 02 fa 3d e7 e2 dc bd
       0.6251328 -0.20156476 0.122074515 -0.10785466
0000a0 c9 80 57 bd bd b1 31 3e 25 61 d8 bd e3 6a 59 3f
       -0.052613053 0.17352958 -0.10565404 0.8492872
0000b0 7f 32 6e 3d f2 d2 44 be 38 19 55 bf d5 5e d0 bb
       0.058153626 -0.19221094 -0.83241606 -0.006358961
0000c0 b2 88 bc be 7e f0 c1 3e 43 3c 4a 3f 32 c5 dc bd
       -0.3682304 0.37878793 0.789982 -0.107797995
0000d0 96 bf ac 3e b6 60 0b be 4a 25 d0 3d 23 fa d8 3d
       0.33739918 -0.13611111 0.10163362 0.10594585
0000e0 2f 97 ec bc b0 92 fb bd f4 3c 37 3d ee ee 6b be
       -0.028880684 -0.12283838 0.044735864 -0.23040363
0000f0 71 f9 44 bf 67 17 27 3c a9 1e 15 3f 9b c4 85 3e
       -0.7694312 0.010198451 0.5824991 0.2612656
000100 b2 71 f7 be f2 77 7c bd 90 97 f9 be e8 d8 12 be
       -0.4832893 -0.061637826 -0.48748446 -0.14340556
000110 68 e7 1f be 8f 98 37 3e 71 53 88 be cb b7 23 bd
       -0.15615618 0.1792929 -0.2662616 -0.0399702
000120 95 38 10 be 05 6f dc bd 66 8f 13 be 70 22 8c bd
       -0.14084084 -0.10763363 -0.14410171 -0.06842506
000130 10 25 80 3c 3c ce 2c be 9e 7f 06 3e b9 ad 0e 3c
       0.015642673 -0.16875547 0.1313462 0.008708411
000140 d9 b0 28 3b a7 32 94 bd e9 5c 18 be d6 09 d5 be
       0.0025740175 -0.07236224 -0.14879192 -0.41609067
000150 ae a6 fd bd f9 38 bc 3e 75 91 20 bc 8a 4d 32 bc
       -0.12385307 0.36762217 -0.009800305 -0.010882745
000160 28 b3 c1 bc 9d ed ad bc 3f 45 36 be bd a1 c8 bd
       -0.023644999 -0.021231467 -0.17799853 -0.09796474
000170 5f 53 0c 3f 24 1a 2b be 52 3c 4b 3b b6 c0 25 be
       0.54814714 -0.1670919 0.0031011296 -0.16186795
000180 8d 26 c8 3d 2f 04 7a bd 35 c2 33 be 04 7b b6 3d
       0.09772978 -0.061039146 -0.17554553 0.08910182
000190 de 46 1c 3e be 64 2f be b5 67 69 bd 7c 0c 27 be
       0.15261409 -0.17128274 -0.05698367 -0.16313356
0001a0 58 1e 2e be 41 94 04 3f 0b db 45 be b0 b1 04 3f
       -0.17003763 0.5178872 -0.1932184 0.5183363
0001b0 eb 71 04 3f fd 8d 07 be 7d a5 4a bd b1 f0 15 be
       0.51736325 -0.13237758 -0.04947423 -0.14642598
0001c0 cd 7b 36 3e d9 8b 12 be 07 0b 0e 3d 99 6e b0 3c
       0.17820664 -0.1431116 0.034678485 0.021537112
0001d0 42 f9 77 be 3b a0 63 bd 5f c1 bd bd 48 de a6 bd
       -0.24216178 -0.05557273 -0.09265398 -0.081478655
0001e0 69 26 52 3e 30 72 08 3f 28 9f fd bd 68 07 01 be
       0.20522465 0.53299236 -0.12383872 -0.12600482
0001f0 92 50 fd be 88 6a 3a bd 1b da 55 be 2d 5e 30 be
       -0.49475533 -0.045511752 -0.20883982 -0.17223425

trial_output.2.bias f4 [2]
000000 5f 32 d5 3d 89 bd 99 bd
       0.10409998 -0.07506854

rnn.weight_ih_l0 f4 [12, 6]
000000 1f cb 7c be d6 d9 1d be 4c 48 1a 3f a0 50 a9 be
       -0.2468686 -0.15415129 0.60266566 -0.33069324
000010 f2 fe 01 bf 8f 82 3a 3f 8e da a0 bf cd 1e 77 3f
       -0.5077964 0.72855467 -1.2566698 0.96531373
000020 c2 f8 85 be 4a aa 1e bf 97 4d 5d 3f 55 22 b2 be
       -0.2616635 -0.6197859 0.8644652 -0.34791818
000030 c7 3c 23 bd 1f 3b 56 bf 36 45 ab be f7 f2 11 3f
       -0.039852884 -0.8368396 -0.3345124 0.5701136
000040 32 74 86 3e e7 22 b7 bd 7e 5e 01 3f 72 d9 70 3e
       0.26260525 -0.08942204 0.5053481 0.23520449
000050 f1 df 84 3f f9 bc a1 be b4 41 51 3e ec de bf 3d
       1.0380841 -0.31589487 0.2043522 0.09368691
000060 7c 4f 49 bf 4e 56 41 3e c1 a3 ef be 84 05 20 bf
       -0.7863691 0.18880579 -0.46804622 -0.62508416
000070 9c c7 41 be f0 c7 91 3e 29 bb 8a 3e 2c 5a 54 be
       -0.18923801 0.28472853 0.27095917 -0.20737523
000080 cd 9a 97 bf 37 3e 9a 3f 84 71 6b 3e 05 f4 fb 3e
       -1.1844116 1.2050236 0.22992522 0.4920961
000090 a2 32 d7 be 64 b1 84 3c 96 3f a6 bf c4 ad 97 bd
       -0.42030817 0.016197868 -1.2988155 -0.0740619
0000a0 21 3a b0 3e 09 87 4a bf b2 2f 12 bf 5b 42 f1 3e
       0.3441935 -0.791123 -0.5710403 0.47120938
0000b0 59 a8 a5 3e e8 57 72 be 61 7d af 3f 65 f6 6b bf
       0.32355002 -0.23666346 1.3710138 -0.92172843
0000c0 fa f2 2c 3f 13 17 c5 be a4 3f 72 be d7 de ed 3e
       0.6755825 -0.38494167 -0.2365709 0.46459076
0000d0 6b fb 3e 3f cf 9d d9 be 23 c9 b4 bd 7d b3 aa be
       0.74602383 -0.4250321 -0.08827426 -0.33340064
0000e0 35 68 ee 3d 2b 4e 7e bf 20 5a 4c bf 27 c0 1d 3f
       0.1164097 -0.99338025 -0.7982502 0.61621326
0000f0 dd c3 28 3f 2c a9 f9 be 64 9d ff be 04 dd 80 3d
       0.65923864 -0.4876188 -0.49924767 0.062921554
000100 20 a0 90 3c cf de d8 3e 54 95 8e be 8a 56 99 3e
       0.017654479 0.4235749 -0.27848303 0.29948837
000110 70 83 7b bf 0e e2 1e 3f 8a 2c f3 be a1 5f 83 3e
       -0.9824743 0.6206368 -0.47494918 0.25658897

rnn.weight_hh_l0 f4 [12, 4]
000000 57 79 09 bf ec 87 c4 3f e2 73 2b 3f c2 af 24 bf
       -0.53700775 1.535398 0.669737 -0.64330685
000010 fa 87 85 3c 4b d8 d1 bf 94 1f f4 be a0 f7 d8 be
       0.01630019 -1.6394132 -0.47680342 -0.42376423
000020 b4 44 c9 bf 4c 21 61 bd ec ba 98 3e e4 54 f6 3e
       -1.5724092 -0.054963395 0.2983011 0.4811164
000030 af 18 b3 be b3 ae 04 be 09 54 97 bc a9 0a 4e 3e
       -0.3497977 -0.12957267 -0.018472688 0.20121254
000040 c0 32 9e 3e 84 c5 32 bf f7 79 8b bf 98 eb 5c 3f
       0.30898094 -0.69832635 -1.0896596 0.8629699
000050 05 57 2d bf 56 21 33 bd 97 0b 9c 3e 9b b7 33 bf
       -0.67710906 -0.043732964 0.30477592 -0.70202035
000060 40 7c 8a 3d c0 be 79 bf 30 a3 05 be 77 be ff 3e
       0.0676198 -0.97556686 -0.13050532 0.4995
000070 e4 43 a6 bd 50 7d c4 b9 bc 84 8e 3e c1 37 9e 3c
       -0.08118418 -0.00037477398 0.27835643 0.019313695
000080 2a f6 21 bd d3 83 50 3f c6 da 52 bf 95 84 b5 3d
       -0.0395414 0.8145115 -0.8236507 0.08863179
000090 34 2d 25 3f 26 e5 99 3c b8 8e d9 be d7 b3 f7 3d
       0.645221 0.018786024 -0.42491698 0.120948486
0000a0 ad aa 23 bf cd 9c 3b bf 0f 28 c1 3e b2 16 93 be
       -0.63932306 -0.73286134 0.37725875 -0.28728253
0000b0 5c 1f a3 3e f2 e4 75 be 69 33 79 3e 9e ed 89 3e
       0.31859863 -0.24013117 0.24336018 0.269391

rnn.bias_ih_l0 f4 [12]
000000 3e b9 02 3e ed 91 9e be 3c fe 7f be 9c 17 e6 be
       0.12765977 -0.30970708 -0.24999326 -0.44939888
000010 54 23 67 3e f6 b7 0b 3f 8b d6 be be f9 c3 33 bf
       0.2257207 0.5457758 -0.37273058 -0.70220906
000020 de b4 de be d2 8f 64 be 9e 6c c2 3d 66 13 94 be
       -0.43497366 -0.22320488 0.09493373 -0.2892105

rnn.bias_hh_l0 f4 [12]
000000 12 93 c9 3e 7a 76 44 be 2b 28 91 3e 70 1e 9a 3e
       0.39370018 -0.1918582 0.28350958 0.30101347
000010 f6 5e c1 3e fc 5e 44 bd c0 10 83 3e 55 57 27 bf
       0.37767762 -0.047942147 0.25598717 -0.65367633
000020 1f 7a 7e 3e 51 9b b1 3d 68 75 82 be 6d 98 cc be
       0.24851273 0.086722024 -0.254802 -0.39960042
