saved_models/LS0_GRU_HS=16_N=1_ZP1/checkpoint1499.pth (torch, 20426 bytes, 18 tensors)

trial_output.weight f4 [2, 16]
00000000: 85c2 bfbe d82d 783f 0cb9 203f c29e 563f
00000010: 5482 d6be 331c 51bf fcd3 19bf f483 c8bf
00000020: c3f4 52be 6bac 0f3f ee1b dfbe 25cd 713f
00000030: 2ab7 2a3f ec4d 73bf d85d 80bf d87f 03bf
00000040: f686 8d3e 8513 c73d 9759 2c3e 5ec0 283e
00000050: 38ca 093e e2e6 b53e b364 b93e bf71 91bd
00000060: 133a 573e db82 b338 c09f 4e3e 0898 8b3d
00000070: 5995 02be 56e1 35be 297a c5bc 259a 3bbe
-0.37453094 0.9694495 0.6278236 0.83835995 -0.41896307 -0.81683654 -0.6008909 -1.5665269
-0.20601182 0.56122464 -0.43575996 0.9445365 0.66685736 -0.95040774 -1.0028639 -0.5136695
0.2764203 0.0972052 0.16831051 0.16479632 0.13456047 0.35527712 0.3620964 -0.071017735
0.21018247 8.559759e-05 0.20178127 0.06816107 -0.12752284 -0.1776174 -0.024106102 -0.1832052

trial_output.bias f4 [2]
00000000: 0fbc cdbd 3b6d 27bf
-0.10045635 -0.6540105

rnn.weight_ih_l0 f4 [48, 4]
00000000: 287c 033f 0e31 04bf 32da c03e d050 fe3e
00000010: 2ba4 913e 5eb9 d03d 9e0c 983e a742 2dbe
00000020: a3b1 0e3e 6173 233f 3ad1 663f 134a 35be
00000030: eb1e bf3e d56e 3ebe a2a7 623f f68d b0be
00000040: 955f d3be 94b9 503f 7c92 7c3f ca8f 14bf
00000050: 80c8 dbbd 1c65 2d3f 945d 1dbf cfb1 6d3f
00000060: 5ed2 923f ef15 63bf 2750 933f 653a cbbe
00000070: d8e7 8bbf 561c e13f 4dcd 27bf 84fb 6d3f
00000080: e582 d63e 9598 7f3e 0955 ce3e d3bb 2c3f
00000090: f12d 943e bb90 9b3e 00cf 89be 6f14 7b3e
000000a0: d8af 1cbf abb1 483f 2fc2 9a3f 6993 16bf
000000b0: 0588 e73e 04d9 55bf 9bd1 b23f 4852 10bf
000000c0: 8a1b 6ebe 714d edbb a43b 493d 4886 943e
000000d0: 4864 b53e 288a f8be eee2 9dbf 4461 0c3f
000000e0: 3cbe 113f 0e03 15bf 22a5 933f f33c 41be
000000f0: e9fc aabe a98b dd3e e610 5a3f dee8 5c3e
00000100: 0c1d 46bf 77ad 473e ad0d 13bf bd00 60be
00000110: 7a34 15c0 cc98 0540 631a 883f 5026 8dbf
00000120: 8117 d1bf 669a 973f cc54 673f a346 86bf
00000130: 164a a43f 2f31 88bf b33f ec3e 7f9f 80bf
00000140: 15f9 44bf bd6f 8a3d 35d7 fc3e 5996 9abe
00000150: 6cd9 913d 4961 23bf 090d 03bf 21af 3ebf
00000160: 8618 793f 7bcf afbf 6765 553f cc53 0abf
00000170: a2ce a6bf 036a 8d3f f974 c1bf b70c 823f
00000180: 8331 f83d f31d cabd 43d7 53be 7621 c5bd
00000190: a9e2 b83e 7588 adbf a7fc bc3e 649a cbbe
000001a0: 0d71 6ebf 633a cc3e ebae 263f d7cf d2be
000001b0: 8ba5 bc3f 505e a9bf ba5a 803f 96d2 c1bf
000001c0: 0658 c03f 3cee c0bf eb39 6c3f 43e0 7ebf
000001d0: d09e c8bf dece 9c3f cb93 b43f cdca 90bf
000001e0: cdeb d63f 0995 a9bf 0679 933f daeb 1abf
000001f0: b2e9 acbf e9ce 873f d628 763f 2a50 3fbf
00000200: 992f c7bd d392 cc3d b5b1 83be 6f6b 2b3e
00000210: 1335 22bd 7fe1 29bd 9b2c 8b3f 57b1 55bf
00000220: 8fe4 1cbf 0a44 5d3f 199d 713f bde6 1dbf
00000230: 86df 19bf 2c31 d33e 5e8e 9bbf 873d 383f
00000240: 7233 043f 1815 23bf f298 9cbe f16c 263f
00000250: 9632 51bf 8b47 833e fae9 6dbe 8010 70bf
00000260: 9e88 043f 7dd5 2cbf 6204 4f3f c355 58bf
00000270: 216f 24bf 2ad4 5f3f 2866 5bbf cc45 543f
00000280: 0cd7 e9be 246e af3d 1edd 80be d20a c7be
00000290: 482a 6cbe 762e 16be c49f bdbe 2ddf 5d3e
000002a0: 4a28 313f b6cb f4be d45d 3bbf e320 e63e
000002b0: ee8b 84be 8a15 283f e6e0 93bf 879c 5e3f
000002c0: 68ea 46bf 29b4 7c3e f542 9dbf 345d 1d3f
000002d0: 7acd 823e f441 27bf c42e 98bf 29f1 633f
000002e0: 8f52 863e 1416 15bf fd75 613f 0092 85bf
000002f0: 96ee d63e 7cc9 98be 3ee2 fdbd 4d82 1f3f
0.5136132 -0.5163735 0.3766647 0.4967103 0.28445563 0.10191606 0.29697126 -0.16919957
0.1393495 0.6384793 0.90163004 -0.17704038 0.37328276 -0.18596967 0.8853704 -0.34483308
-0.4128386 0.8153317 0.9866102 -0.58031905 -0.10731602 0.67732406 -0.61470914 0.9284944
1.1470449 -0.88705343 1.1508836 -0.3969299 -1.0930128 1.7586772 -0.6554764 0.9296191
0.4189674 0.24960549 0.40299252 0.67474097 0.289413 0.30383858 -0.2691574 0.24519514
-0.61205816 0.783961 1.209051 -0.5881868 0.45220962 -0.83534265 1.3970217 -0.5637555
-0.23252693 -0.0072418978 0.049129143 0.29008698 0.3542807 -0.48542905 -1.2334878 0.54835916
0.569309 -0.58207786 1.153477 -0.18870907 -0.3339608 0.43270615 0.85182035 0.21573207
-0.7738807 0.19499765 -0.5744274 -0.21875282 -2.331328 2.087451 1.0633053 -1.1027317
-1.6335298 1.1843994 0.90363765 -1.0490307 1.2835109 -1.064001 0.4614235 -1.0048674
-0.7694257 0.06759594 0.4938294 -0.3019283 0.07121548 -0.6382032 -0.51191765 -0.74485976
0.97303045 -1.3735193 0.8335785 -0.54034114 -1.3031809 1.1047977 -1.5113822 1.016013
0.121188186 -0.098689936 -0.20687585 -0.09625523 0.36110428 -1.3557268 0.36911508 -0.39766228
-0.9314125 0.39888296 0.65110654 -0.41174194 1.473802 -1.3231907 1.0027688 -1.5142391
1.5026863 -1.5072703 0.92275876 -0.99560946 -1.5673466 1.2250631 1.4107603 -1.131189
1.6790711 -1.3248607 1.1521308 -0.6051613 -1.3508818 1.0610019 0.9615606 -0.74731696
-0.097258754 0.09988942 -0.25721517 0.16740201 -0.039601397 -0.041474815 1.0872988 -0.83473724
-0.6128625 0.86431944 0.94380337 -0.61680204 -0.60106695 0.41248453 -1.2152822 0.71968883
0.51641 -0.6370406 -0.30585438 0.6500998 -0.81717813 0.2564052 -0.23233786 -0.93775177
0.5177096 -0.6751326 0.8086606 -0.8450586 -0.6423207 0.8743311 -0.85702753 0.82919
-0.4567188 0.085659295 -0.251687 -0.38875443 -0.23063004 -0.14666161 -0.37035954 0.21667166
0.692021 -0.4781167 -0.73190045 0.44946966 -0.25888008 0.65657866 -1.1553009 0.8695759
-0.77701426 0.246781 -1.2286059 0.6147034 0.2554739 -0.6533501 -1.1889272 0.89039856
0.26234862 -0.58236814 0.8807066 -1.0435181 0.41978902 -0.2984122 -0.12396668 0.623082

rnn.weight_hh_l0 f4 [48, 16]
00000000: f709 893e c595 c63e 7c49 a8bb 5bcd e9bc
00000010: 4c44 873d ec49 03bf b2c1 8bbe a66e adbd
00000020: e694 02bf 40d0 9cbe 6ea3 343e 5bee 35be
00000030: 2375 803e b713 c2bb 31f7 72be 6688 12bd
00000040: eb13 1d3d 43b7 fabe 3f1c d2bd 9ed9 22bf
00000050: 197f a0bd e877 d9be 6821 453f 05cd 7a3f
00000060: 53e8 2dbf 4cd9 0fbf eaca b83c 4d2c a7be
00000070: 508a 4abf fb18 8a3e 7ace 273f 28f1 0e3f
00000080: a621 bbbd 92f1 03be 0963 e7bd 6e61 703c
00000090: fb1a fd3d 8cab 80bf 8abe a5be 74ba e73e
000000a0: 8d65 3dbf 46ea 97be 8f33 3bbe 55a2 02bd
000000b0: 6465 d43c 12d3 91bc 28e0 733c 1c26 86bd
000000c0: 9b78 783d a127 91be 721e 95bd 0fbc ec3d
000000d0: 4668 b0bd e4a6 a5be 4213 8ebe c46b 1a3f
000000e0: 2464 ebbe 99ee 623e c8b3 49be 75a5 0f3e
000000f0: 6fdc 7b3e f57a 7a3d 223a b1be c35b b23e
00000100: 1cb4 6abe 0930 8dbd 85f7 593e 1924 183e
00000110: 74d1 1dbe 8f56 2dbf 850e 4e3c 3c97 3f3e
00000120: 6ddc 9e3c 102a 3dbe f7b0 4cbd e858 1ebe
00000130: 1261 19be 7f44 363f 6d7f c3bd 5d94 acbe
00000140: 991a ffbe cb67 c0bd 677e aa3f ad5f 003f
00000150: 1db7 9abf 3b29 8fbe 7c7f e7be 1420 e9bc
00000160: 348a dc3d 3960 c63e e5e5 87bf 630e ce3e
00000170: 77d5 203f 753d a8bd 39eb 3fbf 9e5b 5cbf
00000180: e011 843c e321 7bbe 4caf a43e 3674 ba3d
00000190: 311f 02be 9ca9 d13d 64b0 ad3e 5be5 d43e
000001a0: e429 413e 82d4 f3be 5f87 05be b95b 883e
000001b0: c915 09bb 832f ef3d 07ce a63e dd90 af3e
000001c0: d2f4 a03e f1a6 34bf 6e7c 9cbe 5f22 ab3e
000001d0: 6877 ccbe def9 e0be 9111 83be 858e 833f
000001e0: 0a11 56be 60bd 83bd db4a d83d 1225 4fbe
000001f0: 2944 283e 0f15 0cbe ad51 a6be b78d 8b3e
00000200: b414 e4be c11e 743e 2869 da3e f4e4 d5be
00000210: c057 e6be ed57 ddbe b528 843e 1e22 adbe
00000220: 6a34 2abf 92f3 36be 0573 a7be 9876 40bb
00000230: 0a79 40be c56d abbd c1c3 0b3e ec06 05bf
00000240: 932b 38bf 82d2 9cbe c7c1 c03e dc84 ac3d
00000250: e59c 0bbf 199d 1fbf da5c f43d 79f4 363e
00000260: 5ac0 ecbe 4d25 203c 6fa1 74be 06d7 c2be
00000270: 5934 81be 1602 d6bd e006 fabd 1d9c 863e
00000280: f6e9 be3e 622e de3d 4e4d b9be 186b 87bd
00000290: 7677 37be 8f0a 00bf 2af0 e4bd fb83 933e
000002a0: 96b5 4dbd 7662 bbbe ed05 0a3e 3b66 663d
000002b0: 138e e83d 297a 253f 567e 9d3d 0850 0c3d
000002c0: 010a a63e 974c 8dbe eba3 a33e b02d 20be
000002d0: 824f 193c 00ed cc3c 498b 33bd c296 3a3f
000002e0: a14b aabd cd08 d43d d84c a83e 3b4c ac3c
000002f0: 90ea 31bd 91fb bbbc ae2b 67be 4f7e c53d
00000300: 8d1a 7bbe 4c8c bdbe 1b84 f63e 002a 57be
00000310: 68af c8be c056 0ebe 32f3 c13e d993 703f
00000320: aa2a 40bf 733f bf3c 3895 aabd 139c 31be
00000330: 7841 41be 401d 2f3e 6f3b 373e 6bd8 6dbe
00000340: e3d5 31bc b2ca 11bf b6d9 4f3e 0f09 963e
00000350: 3a35 423d 40e6 aabe ccb3 6bbe 1a66 583e
00000360: db4b 06bd 502a b93e 8a6f c2be 51b6 0c3e
00000370: 9915 b13e 30ef 7abe a3f9 c5be c66a 1ebc
00000380: e6ea 093d 223e acbe c042 173f 2652 24bd
00000390: 33d7 3abe 4d88 cc3d 6c6f 11be 9707 6e3f
000003a0: 4e76 41be 143f e4bc b329 053c d7ba 4abe
000003b0: c12d cb3c d9a4 36be 0734 743e ca26 6ebe
000003c0: 29e9 c0bb 0d3e cfbe 844d e33d b34d 12bf
000003d0: 841a 5bbe d870 92be 746c bbbc 6d8f d63c
000003e0: a144 bcbe 68d8 bbbe 0dc1 523e 9c91 a7be
000003f0: 7d4f d6be 41eb c8bd 8c53 a4bd a3d3 8c3e
0.26765415 0.3878614 -0.005135713 -0.028540304 0.066048235 -0.5128467 -0.27296215 -0.0846837
-0.5100845 -0.30627632 0.17640468 -0.17766707 0.25089368 -0.0059227603 -0.23727109 -0.03577461
0.038349073 -0.48967943 -0.10259294 -0.6361331 -0.07836742 -0.42474294 0.770041 0.97969085
-0.67932624 -0.56190944 0.022557694 -0.32650986 -0.791173 0.26972184 0.65549433 0.55836725
-0.09137277 -0.1288512 -0.11298186 0.014671667 0.12358662 -1.0052352 -0.32371932 0.4525944
-0.7398308 -0.29670924 -0.18281387 -0.031893093 0.025927253 -0.017800841 0.014884986 -0.065502375
0.060661893 -0.28350547 -0.072811976 0.11559307 -0.086136386 -0.3235389 -0.27749068 0.6032069
-0.4597484 0.2216133 -0.19697487 0.1402796 0.24595807 0.061152417 -0.34614664 0.34835634
-0.22920269 -0.068939276 0.21285827 0.1485752 -0.15411931 -0.677102 0.012576704 0.18710035
0.019392217 -0.18473077 -0.049973454 -0.15463603 -0.14978436 0.71198267 -0.09545789 -0.33706942
-0.4982498 -0.09394797 1.3319825 0.5014599 -1.2087132 -0.27961144 -0.4521445 -0.028457679
0.10768548 0.38745287 -1.0617033 0.4024535 0.6282572 -0.08214847 -0.74968296 -0.86077297
0.016121805 -0.24524646 0.3216499 0.09104197 -0.12707211 0.102374285 0.33923638 0.41581234
0.18863636 -0.47623068 -0.13039921 0.2663248 -0.0020917526 0.11678984 0.3257906 0.3429021
0.31436783 -0.7056723 -0.30563682 0.3342466 -0.3993485 -0.43940634 -0.2559934 1.0277869
-0.20904937 -0.06432605 0.105611525 -0.20228985 0.16432251 -0.13679908 -0.3248419 0.27256557
-0.44547045 0.23839857 0.42658353 -0.4177624 -0.44988823 -0.43231145 0.25812307 -0.33815092
-0.6648623 -0.17866352 -0.3270494 -0.0029367562 -0.18796173 -0.08370546 0.13648893 -0.51963687
-0.7194149 -0.30629355 0.3764784 0.084237784 -0.5453628 -0.62349087 0.119317725 0.17866696
-0.46240503 0.009774518 -0.23889707 -0.38054675 -0.2523525 -0.104496166 -0.122083426 0.2629098
0.37287873 0.108486906 -0.3619179 -0.066122234 -0.17916664 -0.5001611 -0.1117862 0.2881163
-0.050222002 -0.36598557 0.13478823 0.05624984 0.113552235 0.64639527 0.07690112 0.03425601
0.32429507 -0.27597496 0.31960997 -0.15642428 0.009357335 0.025015354 -0.043834005 0.7288629
-0.08315206 0.10353241 0.32871127 0.021032443 -0.043436587 -0.022947105 -0.22575256 0.09643232
-0.24521847 -0.370211 0.48147663 -0.21012115 -0.39196324 -0.1390028 0.37880856 0.939756
-0.750651 0.023345685 -0.083292425 -0.17344694 -0.1887263 0.17101002 0.17893766 -0.23227088
-0.010854217 -0.56949914 0.20297894 0.29303786 0.047414042 -0.33378792 -0.23017806 0.21132699
-0.032787185 0.36165094 -0.37975723 0.13741423 0.3458679 -0.24505305 -0.3866702 -0.009669011
0.033671282 -0.33641154 0.5908623 -0.040117405 -0.18246154 0.09986935 -0.1420266 0.9298033
-0.18892786 -0.02786211 0.008127618 -0.19797836 0.02480209 -0.17836322 0.23847972 -0.23256984
-0.00588717 -0.40477028 0.11098769 -0.5714981 -0.21396834 -0.28601718 -0.022878863 0.026191438
-0.3677111 -0.36688542 0.20581456 -0.3272828 -0.4185752 -0.09810496 -0.08023748 0.27505216

rnn.bias_ih_l0 f4 [48]
00000000: 67ee 24be 4df8 16bf eb42 d1be aca2 a4bc
00000010: ce78 4a3e 8ff8 033e c088 8f3e 781f c43d
00000020: d115 a63e 4d26 4a3e e45f c73e bfb5 2ebe
00000030: 470e 6abe d8b8 e7be f08d 40be a092 2c3d
00000040: df05 c5bd 4c5b 80bd a6f4 c6be 48db d7be
00000050: 8650 a8be 18bd e9be 7513 e7be dcaa 48be
00000060: bc8a 96bd 798d 25bf 4877 d7be 4160 cabe
00000070: ee67 d8be 126b f2be f79d efbe 1c65 3cbe
00000080: 88e0 0dbf 05b6 debd 7db1 a43e 638c b9be
00000090: 0d8c 94be 36cb 28bf 75c5 173e 98dc 16bf
000000a0: cbdf ebbe b328 0abf 94cb 4f3d 27f5 85be
000000b0: 2f41 40be da01 27bf 695a 693e 8d38 46bd
-0.16106568 -0.58972627 -0.40871367 -0.0200971 0.19772646 0.12887786 0.2803402 0.09576315
0.3243852 0.19741173 0.38940346 -0.17061518 -0.22857009 -0.45258212 -0.18804145 0.04213202
-0.096202604 -0.062674135 -0.38858527 -0.42159486 -0.32873935 -0.4565208 -0.45132032 -0.19596428
-0.0735068 -0.64668995 -0.42083192 -0.3952656 -0.42266792 -0.47347313 -0.46800205 -0.18397945
-0.5542073 -0.10874561 0.32166663 -0.3623992 -0.290131 -0.65935075 0.14821418 -0.5893035
-0.46069178 -0.5396835 0.050731257 -0.261636 -0.18774866 -0.652372 0.22788395 -0.048393775

rnn.bias_hh_l0 f4 [48]
00000000: 3f0e 25be cfa8 0fbf 3a50 0ebe 151b 80be
00000010: f3d6 a43e 4cf2 3a3e 5223 433d a5ba 053e
00000020: c928 533e 544a d0bd 850b 663e b3af 5e3c
00000030: 88c0 1dbd e669 09be d36e 60be 665e 4d3d
00000040: d3f1 a2be d92c cbbe 1c25 33be d966 f3be
00000050: 43de 99be f077 2fbf b753 17bf 3b6d 03bf
00000060: 3144 96be 814c 2cbf fb15 b1be 0bee fcbe
00000070: 68a6 c8be e609 75bd 1adf 3ebe 6004 4fbe
00000080: ae0b 1bbe 3f54 bd3e b899 e43e 0cba 1ebe
00000090: 3e1d d4be 9c2c acbe 4524 703f c056 433f
000000a0: 43a0 aabe c4e8 78be d17d e2be c275 47bf
000000b0: 7c0d cb3e f117 973e 25de 873e fa82 c1be
-0.16118716 -0.56116956 -0.13897792 -0.25020662 0.32195243 0.18256491 0.047641106 0.1305948
0.20621027 -0.10170427 0.22465332 0.013591695 -0.03851369 -0.13419303 -0.21917276 0.050138853
-0.31825122 -0.39682654 -0.17494625 -0.47539404 -0.30052385 -0.68542385 -0.59112114 -0.5133855
-0.293489 -0.67304236 -0.34587082 -0.49400362 -0.39189458 -0.059823893 -0.18639794 -0.20216513
-0.15141174 0.36978337 0.44648528 -0.15500659 -0.4142856 -0.33627784 0.9380534 0.76304245
-0.33325395 -0.24307543 -0.44236615 -0.7791406 0.39658725 0.29510453 0.2653667 -0.3779524

exp_avg f4 [2, 16]
00000000: 006a 1cb8 0fba e6b9 90e3 4139 8699 cab9
00000010: 5d45 89b9 1dab 933a 50b1 8539 e629 923a
00000020: bc9d 6f3a 1fa5 fc38 4e8d 72b9 d0ab f0b9
00000030: 3a38 66b9 9cf0 cd39 242b 8a37 fd12 9db9
00000040: 9b43 1338 15e1 08b8 67a5 6db6 90c5 1bb7
00000050: 166b e037 71df ab38 63d8 e037 502c c7b7
00000060: 862d 3c38 00e7 e9b7 2350 2a36 9ea9 c837
00000070: 2d68 b5b7 ace1 8937 f0c5 8536 8470 3a37
-3.729202e-05 -0.00044007643 0.00018490688 -0.00038642826 -0.00026182356 0.0011266206 0.00025499845 0.0011151403
0.0009140631 0.000120470526 -0.00023131559 -0.00045904377 -0.00021955455 0.00039279915 1.647097e-05 -0.0002995952
3.5110494e-05 -3.263455e-05 -3.541203e-06 -9.2847185e-06 2.6752747e-05 8.1955346e-05 2.6803644e-05 -2.3743283e-05
4.486509e-05 -2.7883332e-05 2.537862e-06 2.3920842e-05 -2.1625392e-05 1.643676e-05 3.986752e-06 1.1112661e-05

exp_avg_sq f4 [2, 16]
00000000: 0804 0b37 549a db36 37bc 2237 81ad 3437
00000010: dc15 4037 6ce4 0f37 2f34 8037 1cda 8137
00000020: 58c5 e736 44aa 1737 eaeb 6b37 bc7d 1237
00000030: a52c 0837 913f f236 f54e 1c37 534b 2037
00000040: 6e61 ca32 593a 8833 44ea 8533 c8a1 5532
00000050: 4dc4 0533 62dc 4733 c026 9f32 caa7 b932
00000060: 3125 b133 44c4 0733 d366 e632 9680 8832
00000070: 8956 9332 e017 c832 65ac 8e32 3be0 5432
8.285984e-06 6.5446748e-06 9.699775e-06 1.0769233e-05 1.1449181e-05 8.576648e-06 1.5283089e-05 1.5479563e-05
6.9073103e-06 9.039944e-06 1.40620195e-05 8.731553e-06 8.116626e-06 7.219562e-06 9.316708e-06 9.554281e-06
2.3560201e-08 6.343607e-08 6.235908e-08 1.2435017e-08 3.114501e-08 4.6533735e-08 1.8527658e-08 2.1613136e-08
8.24897e-08 3.161064e-08 2.6822283e-08 1.5890958e-08 1.7152404e-08 2.3293921e-08 1.6609372e-08 1.2391008e-08

exp_avg f4 [2]
00000000: 0b97 023a 2c95 9439
0.00049816136 0.00028339901

exp_avg_sq f4 [2]
00000000: bf6c 5837 5858 cd34
1.2899923e-05 3.8248504e-07

exp_avg f4 [48, 4]
00000000: 4b14 6a35 3029 16b8 d127 16b7 cfed d9b7
00000010: 8a67 c7b7 396b b137 d415 c237 2512 d8b7
00000020: 05d3 1ab8 c3e3 92b6 c5d1 0fb6 6332 24b8
00000030: cf35 a9b8 1b4b 9337 2462 f8b5 7f81 80b8
00000040: c1a6 03b8 70a8 c4b6 c4e1 bfb7 892b 71b7
00000050: e74d 81b8 d16c d138 ecaa 5338 34b4 4db7
00000060: e02a 02b8 4ee6 a8b9 fcd1 d1b7 900e acb9
00000070: 9ca0 e739 7ddc e2b8 2a32 da39 b822 adb8
00000080: d3cd c6b3 45a6 b8b5 4706 2e37 b5a8 46b7
00000090: 112c 3336 1353 2a38 9774 3b38 28d8 bdb5
000000a0: bc5c 5bb9 5d3f 32b8 0850 d2b7 91a2 6db9
000000b0: fcd2 4fb7 2931 45b8 d3dd 83b8 645a 6936
000000c0: 1f60 5d36 2ef0 fc36 7962 06b7 4e19 9e37
000000d0: c7de dab7 84c5 0db8 9c0f 4037 659c 95b8
000000e0: f48a f5b8 63b9 dd37 a31b fbb7 67ab 7eb8
000000f0: 9c78 2436 e507 23b8 393e 6738 4eff bfb8
00000100: 9e03 7636 d5e2 3238 717f c837 ad06 bc37
00000110: 93b8 1039 adc4 1eb9 4843 31b8 d025 f237
00000120: 7040 1b38 5026 b0b8 2ada fbb7 363e 8eb7
00000130: 0082 beb6 feeb 9f38 4e61 a638 6beb 12b7
00000140: b5c2 d937 d379 1d37 1fba e537 008b 0537
00000150: 4e11 b635 e641 5737 6d26 2ab6 d646 8c37
00000160: 91a1 81b8 5d72 e738 ac86 9537 3dde 0038
00000170: c23d b5b7 03d8 0338 ba0e 4238 b7d5 18b8
00000180: b54f 2638 4549 8038 9140 2f38 afa1 7738
00000190: b3f7 d137 bf8f 2a38 bd4b 1f38 c17f e837
000001a0: 15d6 9137 5951 a436 5b40 1637 7a94 5f37
000001b0: 2d4e 96b7 8b6b 1c39 d5b4 db37 5656 dc38
000001c0: 586d 52b8 2322 ed38 9620 4738 a16c 8137
000001d0: ea9e 8db7 d761 d2b6 75b6 c2b8 9d28 9238
000001e0: 6217 80b8 0799 1239 23f5 ae38 fea6 9db6
000001f0: 9117 ef37 6ec1 f2b8 d807 dbb8 5031 9037
00000200: 98fb a039 8dd6 9138 18d3 c438 753c 9439
00000210: fb1a 01ba b668 d638 078f c9b8 0338 9ab9
00000220: af2c 08ba b26f 5d38 846c 0bb9 24f5 aeb9
00000230: ea8e 9f39 a207 9739 dee5 a039 b1b0 9539
00000240: 135d b239 4f58 2438 92ea 8439 1afb 0339
00000250: 85a8 8639 a503 53b8 f7f2 17b8 e18c 7e39
00000260: c617 d237 81fb f0b9 b079 09b9 331d 9fb9
00000270: 6359 fa39 015c c6b9 c61e b739 6421 83b9
00000280: 58c6 8d38 6e9f da38 488d e737 3a41 1739
00000290: abf8 5339 d583 6f3a c4be e439 9d22 323a
000002a0: 4d34 cd39 85a7 8337 7ce1 5039 14fc 5939
000002b0: 99ca a2b8 53e1 1739 85da 3439 f3bc dcb8
000002c0: afe4 1e39 6b5b 9839 0aae 7039 74ed 5e39
000002d0: 7e15 2939 bfaf 62b9 a4d2 cf38 9783 21b9
000002e0: 2ff6 b3b9 63cf 00b9 3170 86b9 5cdb 5bb9
000002f0: b70e db38 2db8 91b9 cc42 afb9 919c 2839
8.7201323e-07 -3.5801146e-05 -8.949967e-06 -2.5979154e-05 -2.3770863e-05 2.1149974e-05 2.3136767e-05 -2.5757656e-05
-3.691299e-05 -4.377654e-06 -2.1430762e-06 -3.9147573e-05 -8.0685706e-05 1.755874e-05 -1.8506003e-06 -6.127636e-05
-3.1388136e-05 -5.860864e-06 -2.2874105e-05 -1.4374856e-05 -6.16571e-05 9.986165e-05 5.0465504e-05 -1.2260909e-05
-3.1034346e-05 -0.00032215047 -2.5012523e-05 -0.00032817246 0.00044179417 -0.00010817589 0.00041617575 -8.25575e-05
-9.257533e-08 -1.3757459e-06 1.037267e-05 -1.1841e-05 2.6698729e-06 4.0608527e-05 4.4692857e-05 -1.4144507e-06
-0.00020920014 -4.249752e-05 -2.5071218e-05 -0.00022662642 -1.2387285e-05 -4.7014244e-05 -6.287885e-05 3.477232e-06
3.2987516e-06 7.538146e-06 -8.00995e-06 1.8846851e-05 -2.6091364e-05 -3.380097e-05 1.1447726e-05 -7.1340044e-05
-0.000117083924 2.643158e-05 -2.9934401e-05 -6.071795e-05 2.4508108e-06 -3.886958e-05 5.513264e-05 -9.155144e-05
3.6658962e-06 4.264976e-05 2.3901202e-05 2.2414455e-05 0.0001380167 -0.00015141322 -4.226275e-05 2.8866256e-05
3.7014892e-05 -8.39947e-05 -3.0023122e-05 -1.6956688e-05 -5.6775752e-06 7.625668e-05 7.933621e-05 -8.757091e-06
2.5959083e-05 9.386294e-06 2.7385597e-05 7.959781e-06 1.3565093e-06 1.2830342e-05 -2.535434e-06 1.6722286e-05
-6.1812934e-05 0.0001103624 1.7824896e-05 3.0724554e-05 -2.160564e-05 3.143401e-05 4.626692e-05 -3.643866e-05
3.9651717e-05 6.117163e-05 4.1783383e-05 5.903997e-05 2.5030085e-05 4.0665032e-05 3.797909e-05 2.7716045e-05
1.7385037e-05 4.897051e-06 8.955681e-06 1.3326406e-05 -1.7917797e-05 0.00014917382 2.619104e-05 0.00010506499
-5.0169736e-05 0.00011307399 4.7475645e-05 1.5428583e-05 -1.688251e-05 -6.2698778e-06 -9.284626e-05 6.969387e-05
-6.107871e-05 0.00013980652 8.342627e-05 -4.698405e-06 2.8501994e-05 -0.00011575488 -0.00010444195 1.71891e-05
0.0003070503 6.954102e-05 9.3853276e-05 0.00028273804 -0.000492498 0.00010223819 -9.611068e-05 -0.000294149
-0.00051946467 5.279453e-05 -0.00013296498 -0.0003337051 0.00030433323 0.0002880665 0.00030688843 0.0002855114
0.0003402015 3.918289e-05 0.0002535177 0.00012586676 0.00025684029 -5.0309714e-05 -3.6227484e-05 0.00024275809
2.5045021e-05 -0.00045963752 -0.0001311067 -0.00030348598 0.00047750314 -0.0003783405 0.00034927408 -0.00025011145
6.760348e-05 0.00010424746 2.7603135e-05 0.00014424781 0.00020215164 0.0009136771 0.0004362968 0.0006795319
0.00039139614 1.5694424e-05 0.00019920425 0.00020788639 -7.762499e-05 0.00014484422 0.00017247543 -0.00010525612
0.00015153245 0.0002905981 0.00022953018 0.00021260028 0.00016125102 -0.0002161851 9.909764e-05 -0.00015403178
-0.00034324962 -0.00012284289 -0.0002564206 -0.00020967185 0.000104454746 -0.00027793777 -0.0003342837 0.00016080054

exp_avg_sq f4 [48, 4]
00000000: c09e a533 5f84 a232 30a7 e232 b10e 9233
00000010: da37 0733 2699 8b33 77c0 0e32 bdc0 ba33
00000020: c48a f933 0bf7 1332 94b6 8031 12ce 0934
00000030: b104 3b33 bb96 9733 6d26 0133 d8a0 b233
00000040: dfef 1735 38ed 9331 f2dc 6531 312e 1435
00000050: 5001 b234 75e5 4733 eae3 e833 650c c034
00000060: bf19 de32 ca20 a636 c323 2933 9e97 9736
00000070: 06a5 6237 85fe 4934 25bf 4037 ad13 9134
00000080: 4988 4230 8238 8531 7b61 8831 f79e 2931
00000090: 7817 bd32 e2cf 9d34 0d1a 1e34 bf96 8e33
000000a0: de3b a935 fca3 1233 b9c5 fb31 7b9d a735
000000b0: ddf7 4135 c881 2234 2cd0 1a33 9020 6035
000000c0: 7e5f 8031 d88e af33 c108 0033 cc07 dc32
000000d0: c9f0 e032 b2a6 4534 e220 0032 2cac 6334
000000e0: 0e71 f333 df4b 8c34 03f2 5033 f8e9 ae34
000000f0: bbf4 8534 fe07 be34 80a8 d432 d87a 2a35
00000100: 7bcc 8531 6c15 0732 334c a831 56b7 c031
00000110: 6bc9 8b34 389f 8234 67ca b634 f270 7734
00000120: 269e 5032 b0db 3933 ce11 9f32 b9b6 d032
00000130: 5a26 4533 c5ab c833 6feb 2034 d188 0533
00000140: 09eb b731 cc40 8c32 9ad0 d331 2c6a 8432
00000150: f0d4 2e31 a3ac 3e31 3660 6231 9d6a 2a31
00000160: 98cc 0c34 7a49 ee33 5e40 5634 f8e0 0f34
00000170: 8ce7 f333 9c7d 1e36 3c51 9535 a455 5d35
00000180: e258 9132 9939 e532 c44a 7a32 56c1 e632
00000190: e6b9 1933 d681 0633 c22c 3133 7670 a132
000001a0: 6e08 5432 2f62 7632 bad5 2432 2c5d af32
000001b0: 1364 a433 bcca 0c35 c0ef 2935 1e4a 3333
000001c0: 1a8f 3333 b923 ab34 3a18 f034 f808 9732
000001d0: 0cb6 d233 a344 8134 d09c e533 4756 7c34
000001e0: 7ae5 cb33 ed41 3335 a778 8435 a4c3 5933
000001f0: 8dfc 5234 b04a 5434 b02f 9b34 cca3 1034
00000200: baa3 6336 69a5 9e34 7fbc 1135 6ce5 2336
00000210: a128 d036 faf0 b935 7433 4136 4a9c 5f36
00000220: a902 b236 9a9d 7734 9030 9935 a14c 5936
00000230: 28ab e335 7012 b636 0a05 0b36 a133 0836
00000240: f8db ce36 db2a 5534 1976 4d35 f85e 8e36
00000250: 565c af35 4d4c c135 b5e0 8235 7783 dd35
00000260: 66ee 6a36 9073 5437 48a8 a934 5dfc 4637
00000270: 0c9b 9537 8554 1a36 59cc 8937 e17d 3e35
00000280: 7922 1833 17df 5034 686f 1734 bb02 1434
00000290: b147 da35 aabc 0538 e366 9a36 1297 8037
000002a0: 8b8b e236 fc10 d134 7725 0e35 de30 a236
000002b0: 8bc7 b536 9492 3736 50ac c434 df21 e236
000002c0: 638a b735 1b18 aa36 b0e1 9c35 5984 6236
000002d0: 7a98 c235 7378 c636 4142 ed34 9a15 f236
000002e0: 40c5 ca35 1bb5 ff36 3a4c 0636 176c 6236
000002f0: ddf9 1637 bc7e 9336 d593 b535 88df fa36
7.712288e-08 1.8919478e-08 2.638589e-08 6.801327e-08 3.1482934e-08 6.5005494e-08 8.309249e-09 8.696359e-08
1.16202074e-07 8.612697e-09 3.746047e-09 1.2834087e-07 4.3543597e-08 7.058903e-08 3.00701e-08 8.318028e-08
5.660094e-07 4.3052317e-09 3.3449479e-09 5.5201514e-07 3.315604e-07 4.6541988e-08 1.0844799e-07 3.5771805e-07
2.585591e-08 4.9510027e-06 3.9380904e-08 4.5178012e-06 1.3509072e-05 1.8812177e-07 1.1488596e-05 2.702267e-07
7.077046e-10 3.8772336e-09 3.969203e-09 2.4683098e-09 2.2013168e-08 2.9394783e-07 1.4724374e-07 6.639811e-08
1.2608905e-06 3.4142417e-08 7.32754e-09 1.2488302e-06 7.225879e-07 1.513464e-07 3.604525e-08 8.349389e-07
3.7361465e-09 8.175056e-08 2.9810284e-08 2.5614916e-08 2.6186529e-08 1.8407698e-07 7.458057e-09 2.1203658e-07
1.1336134e-07 2.6132236e-07 4.8648882e-08 3.258026e-07 2.4951245e-07 3.5396073e-07 2.4756673e-08 6.3508696e-07
3.894056e-09 7.862905e-09 4.8981064e-09 5.6087783e-09 2.6037318e-07 2.4330234e-07 3.404741e-07 2.3044757e-07
1.2143152e-08 4.3273474e-08 1.8518133e-08 2.429748e-08 4.5902517e-08 9.3444704e-08 1.4986811e-07 3.109091e-08
5.3527214e-09 1.6327611e-08 6.1646235e-09 1.5415104e-08 2.5441373e-09 2.7746772e-09 3.2942018e-09 2.4798859e-09
1.3112947e-07 1.1096104e-07 1.995372e-07 1.3399756e-07 1.13576874e-07 2.361695e-06 1.1125007e-06 8.245354e-07
1.6920641e-08 2.6685301e-08 1.4568915e-08 2.6863443e-08 3.5792162e-08 3.131739e-08 4.125173e-08 1.8794008e-08
1.2341941e-08 1.4341409e-08 9.594652e-09 2.0415051e-08 7.6550485e-08 5.244908e-07 6.330629e-07 4.1744094e-08
4.1806835e-08 3.1877224e-07 4.472111e-07 1.7582792e-08 9.812001e-08 2.4078062e-07 1.06921675e-07 2.3500716e-07
9.494666e-08 6.677863e-07 9.869881e-07 5.0702184e-08 1.9649652e-07 1.977121e-07 2.8905697e-07 1.3470634e-07
3.3920937e-06 2.9550145e-07 5.429101e-07 2.4422434e-06 6.203613e-06 1.3853708e-06 2.878919e-06 3.3320562e-06
5.305123e-06 2.3061003e-07 1.1413522e-06 3.2380124e-06 1.6962631e-06 5.426169e-06 2.0715547e-06 2.0295631e-06
6.164886e-06 1.9852762e-07 7.6540306e-07 4.2429856e-06 1.3065389e-06 1.4401827e-06 9.751153e-07 1.6504044e-06
3.5007483e-06 1.2663091e-05 3.1601144e-07 1.1860478e-05 1.7834383e-05 2.2996985e-06 1.642683e-05 7.0963694e-07
3.542161e-08 1.9452669e-07 1.41035e-07 1.3784567e-07 1.6263131e-06 3.1885378e-05 4.6015352e-06 1.5329137e-05
6.75157e-06 3.894164e-07 5.295364e-07 4.833665e-06 5.41745e-06 2.7354445e-06 3.663322e-07 6.739268e-06
1.3674838e-06 5.069201e-06 1.168859e-06 3.375366e-06 1.4498503e-06 5.914882e-06 4.4192896e-07 7.2146768e-06
1.510758e-06 7.6206757e-06 2.0011926e-06 3.373954e-06 8.9988725e-06 4.395695e-06 1.3528576e-06 7.476603e-06

exp_avg f4 [48, 16]
00000000: 622e 4938 36df 19b7 5738 8db8 6810 51b7
00000010: 0d1a 2d38 cbe5 86b7 896e 7ab6 05b8 a0b6
00000020: 1ab5 6238 f54e bf36 46d9 0337 88bb 35b8
00000030: 6499 7ab7 6fef acb6 dc98 c738 2d70 9538
00000040: c7c6 f8b7 0e5e b437 27b4 8438 8934 1b38
00000050: 959c 30b7 c18f 20b7 2fae 3bb8 a061 8db8
00000060: 6a09 8838 ca76 8e38 f897 7db8 1efe 3137
00000070: a88a d738 d10b 2338 c469 9638 a0f1 66b8
00000080: c9cf 07b7 b3db f938 8fc0 bc37 7a8b 4038
00000090: e8e7 8ab7 a7de 1a39 d22a 99b6 0037 0db7
000000a0: af0c 9938 be0a 1f38 f7ff 9d37 3645 3338
000000b0: 6723 2838 f7c2 e535 c80c 50b8 767e a138
000000c0: 19c9 f3b7 14f2 7a37 3b6e e737 a60d aa38
000000d0: 42d5 14b8 aa28 6d38 715b 03b8 6773 3fb8
000000e0: 11e3 7638 3d3b 8238 2dab 25b8 b785 1638
000000f0: 964b 8c38 cf3d 1bb8 a011 b7b7 368a 0ab7
00000100: bbb5 8a38 4c76 4539 341c 2438 1a53 ac38
00000110: 3a4f b1b7 a1f1 0339 6c1e b5b8 cc6a e8b8
00000120: aacb 3b38 1626 9c37 75ba 6437 fc61 1738
00000130: 733a 1239 41f1 27b9 0859 9eb8 a895 1d39
00000140: 008e 1639 6ce7 75b7 ee90 37b9 9849 f3b7
00000150: f007 1f39 0b74 95b8 b6b2 84b6 5f71 80b8
00000160: 0ad0 2db8 d223 17b9 8890 8238 c867 ce38
00000170: 6391 5cb7 b033 eab6 864a d038 5d53 d036
00000180: f21f 2039 b537 3e38 2fa4 9db9 2368 62b8
00000190: b86b b339 e0a8 6f39 68a1 49b9 eb67 25b9
000001a0: 8cb0 4c38 f3fc f638 d113 d839 86bd 00b9
000001b0: b3b2 31b7 50b0 f2b5 f0a7 7038 70e0 aab8
000001c0: 6947 04b9 6318 90b9 4ac3 5939 53db f9b9
000001d0: 6dfb ab39 4a6b f4b8 c85e 5839 3508 1339
000001e0: 0466 05ba 5685 f4b9 211a 87b9 7256 05b9
000001f0: 64f3 75b9 5ea4 8839 08f5 353a 0300 0cba
00000200: e12a 9fb7 4323 42b7 3de8 14b6 aabd 0d37
00000210: 0286 a334 7b2d 8337 085b 10b4 3fa8 a437
00000220: 2cef d436 fdfa a937 b7b0 1c34 7eaa 98b6
00000230: 6360 5c36 b568 96b7 53f5 dc36 528f c837
00000240: 3214 f8b7 94e0 89b8 0598 1c38 009b ec38
00000250: cb32 bdb8 e042 69b8 7ae7 c0b8 0f1e 5d37
00000260: e56b a338 48c5 0739 b243 42b8 6b68 8d38
00000270: 457e b438 0d17 38b8 af3a a6b8 7769 fcb5
00000280: 061c ac38 0556 4539 55cb e337 6e76 7939
00000290: 48b5 2939 9e2b 8939 9bb0 3fb9 dec5 0cb9
000002a0: 62b7 8d39 8112 8b39 286d 2d39 fa50 1d39
000002b0: 7fad 6039 b594 72b8 5f6b 9cb9 6f47 7a39
000002c0: 3896 8938 3f76 9a37 a150 b2b7 e913 27b8
000002d0: 2ced fab8 c4ee c238 705e c1b8 723a fdb7
000002e0: 2b15 8837 b28b 24b8 992d 43b8 196c 90b8
000002f0: 4760 36b7 d6a0 21b9 4751 e238 8bba b938
00000300: bf22 9a36 e73c f7b7 6ba2 adb5 2c45 0c38
00000310: 651d 2136 02af e7b7 a127 67b8 541c 43b8
00000320: a8ba 9f37 5d8a 9d38 6664 eab7 30e3 6437
00000330: 3726 1e38 e7a5 a037 4c8f 05b8 03f2 2237
00000340: cfa0 95b7 88ee 5238 2941 8cb8 6c94 a2b8
00000350: 005c ea37 4c32 6338 b82a 0238 5b7e 0537
00000360: 315a 55b7 2ae8 20b8 a8a2 4538 c3d0 b3b8
00000370: 9aa9 1db8 1c55 1b38 a661 ba37 6a05 80b8
00000380: 485a 9eb7 8db0 5e38 0f2e f636 a17e 2339
00000390: a12b e6b7 c29a 4538 d66a deb8 600e c0b8
000003a0: 160c 0139 1d7d fe38 e29f fb36 b004 a338
000003b0: c13d 1a39 8d8b e2b8 36f3 e7b8 3935 7738
000003c0: 7ce9 0038 677f ea38 6ac6 4637 8bc2 1939
000003d0: 8f37 be37 6b81 4438 7a40 49b8 cbe7 f2b8
000003e0: 42f6 0939 b843 bd38 5978 2db8 54f4 cc38
000003f0: b67a 0039 d731 b6b8 8a91 c3b8 3985 c737
4.796533e-05 -9.171481e-06 -6.733898e-05 -1.2461191e-05 4.1270676e-05 -1.608105e-05 -3.7317243e-06 -4.7897943e-06
5.4051263e-05 5.7014354e-06 7.858796e-06 -4.3328415e-05 -1.4936875e-05 -5.153873e-06 9.517532e-05 7.125768e-05
-2.9656467e-05 2.150147e-05 6.3278065e-05 3.7003807e-05 -1.0526875e-05 -9.5702135e-06 -4.4746495e-05 -6.741588e-05
6.486739e-05 6.793214e-05 -6.0461432e-05 1.0609188e-05 0.00010277826 3.8873233e-05 7.172258e-05 -5.5061304e-05
-8.095006e-06 0.000119141674 2.2501014e-05 4.5906265e-05 -1.6558872e-05 0.00014769529 -4.5647403e-06 -8.417061e-06
7.297971e-05 3.791856e-05 1.8835051e-05 4.2741383e-05 4.0087292e-05 1.7118572e-06 -4.9602968e-05 7.7006334e-05
-2.90615e-05 1.4957524e-05 2.7588676e-05 8.108774e-05 -3.548456e-05 5.6543075e-05 -3.1317995e-05 -4.5645425e-05
5.8862443e-05 6.209917e-05 -3.9498485e-05 3.588732e-05 6.689799e-05 -3.7012443e-05 -2.1823507e-05 -8.257621e-06
6.614203e-05 0.00018831453 3.9126913e-05 8.217078e-05 -2.1136937e-05 0.00012583147 -8.636419e-05 -0.000110825145
4.477395e-05 1.8614384e-05 1.3633272e-05 3.609246e-05 0.00013945419 -0.00016016235 -7.5506105e-05 0.00015028438
0.00014358014 -1.465702e-05 -0.0001750623 -2.9002127e-05 0.00015166379 -7.126488e-05 -3.9547112e-06 -6.124633e-05
-4.1440166e-05 -0.00014413826 6.225804e-05 9.842176e-05 -1.3146872e-05 -6.9797607e-06 9.932094e-05 6.208588e-06
0.0001527069 4.535141e-05 -0.000300677 -5.3979584e-05 0.00034221797 0.00022855727 -0.00019228982 -0.00015774339
4.8801812e-05 0.000117773096 0.00041213495 -0.00012277634 -1.0591629e-05 -1.8081719e-06 5.7376863e-05 -8.1480364e-05
-0.00012615103 -0.0002748399 0.00020767484 -0.0004765639 0.00032802988 -0.00011654811 0.00020634674 0.0001402207
-0.0005088749 -0.0004663865 -0.00025768674 -0.00012716072 -0.00023455691 0.00026062405 0.00069411146 -0.0005340578
-1.8974244e-05 -1.1571511e-05 -2.21889e-06 8.4484145e-06 3.045862e-07 1.5637595e-05 -1.3444162e-07 1.962867e-05
6.3459356e-06 2.0263245e-05 1.459292e-07 -4.549801e-06 3.283866e-06 -1.7930151e-05 6.5850704e-06 2.3908597e-05
-2.9573308e-05 -6.5745e-05 3.7334878e-05 0.00011282228 -9.021683e-05 -5.561381e-05 -9.198389e-05 1.3179625e-05
7.7925426e-05 0.00012948096 -4.631625e-05 6.742853e-05 8.6065884e-05 -4.3890486e-05 -7.9264275e-05 -1.8806157e-06
8.206819e-05 0.00018819429 2.7155193e-05 0.00023790609 0.00016184628 0.00026163174 -0.0001828097 -0.00013425152
0.00027030247 0.00026525932 0.0001653923 0.00015002853 0.00021426937 -5.783579e-05 -0.00029834636 0.00023868469
6.5606495e-05 1.8413293e-05 -2.12568e-05 -3.9834445e-05 -0.00011965106 9.2951144e-05 -9.2205475e-05 -3.0187166e-05
1.622232e-05 -3.923075e-05 -4.653409e-05 -6.88659e-05 -1.0870462e-05 -0.00015414073 0.00010791659 8.856234e-05
4.5936026e-06 -2.9473054e-05 -1.2936774e-06 3.3443022e-05 2.400798e-06 -2.761884e-05 -5.51116e-05 -4.6518006e-05
1.9041196e-05 7.5121156e-05 -2.7941725e-05 1.3642755e-05 3.7705726e-05 1.915074e-05 -3.1843127e-05 9.7123e-06
-1.7837066e-05 5.029005e-05 -6.687857e-05 -7.752408e-05 2.7937815e-05 5.416786e-05 3.10342e-05 7.956837e-06
-1.2716789e-05 -3.8363192e-05 4.7119946e-05 -8.57427e-05 -3.758967e-05 3.7034144e-05 2.2218399e-05 -6.104524e-05
-1.8877108e-05 5.309335e-05 7.3367332e-06 0.00015592064 -2.7438453e-05 4.711259e-05 -0.00010605685 -9.157951e-05
0.00012306901 0.00012134968 7.4989957e-06 7.773319e-05 0.0001470959 -0.00010802513 -0.0001106024 5.8938956e-05
3.0735027e-05 0.0001118172 1.18479165e-05 0.0001466369 2.2675637e-05 4.685057e-05 -4.7982183e-05 -0.00011582634
0.00013157076 9.024836e-05 -4.1358497e-05 9.772988e-05 0.00012252745 -8.68772e-05 -9.325433e-05 2.3784685e-05

exp_avg_sq f4 [48, 16]
00000000: b58b f332 8321 ab33 0276 9033 28cd 6233
00000010: 1aa3 e432 5ceb bc33 5614 7033 d66d 9333
00000020: 0afe c533 841f c033 3ece 3533 df7a 0533
00000030: a451 5533 e480 0933 8b8e 4d33 0143 ec32
00000040: 4200 a433 e178 6233 32e8 a433 a708 3c33
00000050: 6c79 b633 8168 9033 1dd7 8d33 c6bd d533
00000060: b30c 8b33 98cb a033 cefd ac33 30fe 3233
00000070: ea37 0233 522e 7133 2a6a 0633 b616 8a33
00000080: fc63 b133 e1a0 6f33 9508 b633 00ab 6433
00000090: d8ed f233 26d4 9b33 8b90 b433 35e5 3933
000000a0: 1bfd c133 2002 bf33 1b2b bc33 fb96 4733
000000b0: 6c18 7333 3407 0833 45c2 8b33 06ef 6133
000000c0: 8bdb 4e33 e381 8e33 c186 8c33 e5f4 9433
000000d0: a833 8233 1484 eb33 8787 6533 d607 6d33
000000e0: ccfa a533 7709 b033 de16 6033 93b9 6833
000000f0: 7d16 8133 d71c e632 7886 9a33 aac9 fc32
00000100: 80c2 4c34 15b8 db34 d04a 3234 135c ba34
00000110: 5bf6 9034 0ba6 8a34 1359 d434 678f cd34
00000120: e9b5 1035 c37e 0f35 4695 7234 1fc7 8f34
00000130: 15b2 c334 4e7f 5b34 9bcd d234 a3b3 e233
00000140: 1205 5a34 e965 8f34 5755 8633 6db1 2334
00000150: 7752 4034 5e86 2234 cf97 9434 12e5 ba34
00000160: 892c 9334 59f1 8e34 cf7b e733 d1f5 0c34
00000170: 632f 3a34 2792 7a34 9f53 4d34 9c06 fd33
00000180: 7cba 6836 ac89 1f35 1cb4 9136 1210 2335
00000190: e6f6 9c36 abf6 5436 be4d 5235 db8b 7035
000001a0: 79e8 b635 48f6 c935 989b 8f36 606c 0835
000001b0: 596c 1f35 7935 4335 20ef c135 2e86 0f36
000001c0: c64c d436 e480 1837 776c 7e36 5c79 db36
000001d0: 7968 a236 4de6 e736 b481 2737 b300 1c37
000001e0: f41d 4a37 6957 4837 e52b 3236 f24b 9736
000001f0: b614 e136 e1b0 8036 dc95 ea36 b842 7136
00000200: df59 7231 a35a 5631 a63c a531 e9fb 9b31
00000210: 4f2b aa31 90e0 b231 8249 5b31 f4c9 1831
00000220: 3409 3831 7f81 a831 7899 9831 e79a 8b31
00000230: 4f3d 9a31 c638 f430 cc0c a731 3bca 1631
00000240: 5b25 3834 6196 ef33 b126 8f34 9305 5e34
00000250: 59db 9334 bbd2 b134 5d79 e433 35aa 4c33
00000260: c8ac 9a33 0f7c f833 68a4 7534 2d5b 3534
00000270: 5995 4b34 11ab 7b33 8b9a 8434 8068 ca33
00000280: b30e 1235 10d1 3a35 0e78 7b34 f016 4135
00000290: 5822 3435 d452 f834 afbc 7b35 5b8d 2635
000002a0: 1552 a535 ceac 9f35 cc78 bc34 7dfe 0635
000002b0: 587a 4c35 9e33 1534 4ce7 6335 b60b a234
000002c0: 4930 d334 76c1 0a35 b332 0135 dfe9 0235
000002d0: 925b f734 1a80 1435 acb8 0235 6e45 e334
000002e0: 4129 5735 3c16 5135 c39a ec34 6374 a734
000002f0: 9599 e534 b452 7a34 751d 1135 3473 7a34
00000300: d70c 7033 ba0d fa32 79fb b033 2e15 5733
00000310: d8b3 b333 24b5 b533 9a49 a932 0f41 ae32
00000320: 62aa b832 10c7 0533 5188 9833 09e7 2c33
00000330: 6fc6 4133 85a7 8732 7a81 9233 770c 0a33
00000340: 9eba 1934 020b 9533 1399 2b34 70c2 7133
00000350: 6c58 3c34 055e 1734 48ba e833 4e72 b033
00000360: 0b4b ed33 1ac8 0e34 44d3 3334 f4e3 5733
00000370: 0a91 4833 7e1a b333 ab4d 6433 ed4d d233
00000380: 76a0 5134 7a92 7034 0ad0 6334 75a1 7b34
00000390: 7d2e 6f34 0148 8b34 a493 7034 ce15 2234
000003a0: 5c29 b634 c2ef c834 6e82 6a34 bcfb 3634
000003b0: c5c2 5834 dc5c f733 caf8 7734 6e7d 0234
000003c0: 5bc5 f634 dce3 3834 fd05 1835 d0c8 9534
000003d0: 9840 3135 e428 1435 a968 4e34 136b 3834
000003e0: 3a95 8034 542c 8334 7397 1035 8293 7c34
000003f0: 8f5a 9034 1623 ef33 0492 c934 208f 9234
2.8352455e-08 7.968904e-08 6.726988e-08 5.2806314e-08 2.6616863e-08 8.797244e-08 5.589785e-08 6.8652e-08
9.219737e-08 8.9464294e-08 4.2329923e-08 3.1078226e-08 4.966718e-08 3.2015024e-08 4.7859924e-08 2.7504486e-08
7.636892e-08 5.2729664e-08 7.679081e-08 4.378003e-08 8.497122e-08 6.724532e-08 6.604953e-08 9.953105e-08
6.475002e-08 7.487614e-08 8.055541e-08 4.1675037e-08 3.0318837e-08 5.6154313e-08 3.1295862e-08 6.430257e-08
8.260392e-08 5.5792842e-08 8.4765965e-08 5.324091e-08 1.1312267e-07 7.2563395e-08 8.4081954e-08 4.328213e-08
9.0333025e-08 8.894517e-08 8.762273e-08 4.6470614e-08 5.6600058e-08 3.167152e-08 6.508029e-08 5.2604285e-08
4.8162786e-08 6.6360165e-08 6.5437696e-08 6.936333e-08 6.062993e-08 1.0967065e-07 5.344148e-08 5.518799e-08
7.729031e-08 8.19736e-08 5.217486e-08 5.4185488e-08 6.011121e-08 2.6788639e-08 7.1956435e-08 2.9428367e-08
1.9069739e-07 4.0925866e-07 1.6604758e-07 3.4712193e-07 2.7001337e-07 2.5825315e-07 3.9552887e-07 3.8288564e-07
5.3908894e-07 5.3456114e-07 2.2592312e-07 2.6780705e-07 3.6451152e-07 2.0442278e-07 3.9265146e-07 1.0556621e-07
2.0304677e-07 2.6709975e-07 6.2553845e-08 1.5245105e-07 1.7911394e-07 1.5136308e-07 2.7677603e-07 3.481187e-07
2.7413287e-07 2.6625165e-07 1.07792964e-07 1.3127944e-07 1.7339839e-07 2.3336234e-07 1.9122534e-07 1.1782433e-07
3.4679242e-06 5.9432455e-07 4.3423042e-06 6.074562e-07 4.677905e-06 3.1734041e-06 7.8344226e-07 8.9610484e-07
1.3627715e-06 1.5047344e-06 4.2798456e-06 5.0821654e-07 5.938978e-07 7.2720974e-07 1.4449215e-06 2.1386763e-06
6.32703e-06 9.089916e-06 3.7912084e-06 6.5408367e-06 4.8401384e-06 6.911147e-06 9.9841745e-06 9.298487e-06
1.2047112e-05 1.1941281e-05 2.6549617e-06 4.508992e-06 6.7079336e-06 3.8352887e-06 6.9911894e-06 3.5950634e-06
3.526672e-09 3.119262e-09 4.809027e-09 4.5397326e-09 4.952575e-09 5.2060116e-09 3.1910479e-09 2.2233708e-09
2.6780755e-09 4.9041655e-09 4.4412296e-09 4.063043e-09 4.48896e-09 1.7769473e-09 4.8617945e-09 2.1942828e-09
1.7149925e-07 1.11566585e-07 2.6663977e-07 2.0677389e-07 2.754048e-07 3.3122146e-07 1.0639153e-07 4.7652254e-08
7.2026126e-08 1.1570966e-07 2.2877214e-07 1.6890108e-07 1.896018e-07 5.8596076e-08 2.469936e-07 9.4253664e-08
5.441063e-07 6.9594626e-07 2.3419872e-07 7.193148e-07 6.71052e-07 4.6253865e-07 9.377936e-07 6.204552e-07
1.2317347e-06 1.1896716e-06 3.510562e-07 5.028922e-07 7.6173956e-07 1.3895485e-07 8.490067e-07 3.0183372e-07
3.9336945e-07 5.169053e-07 4.813002e-07 4.87691e-07 4.607396e-07 5.532071e-07 4.8697507e-07 4.2332562e-07
8.0153774e-07 7.789092e-07 4.407103e-07 3.1190856e-07 4.276632e-07 2.3313152e-07 5.4059575e-07 2.3324975e-07
5.5891032e-08 2.9110073e-08 8.241381e-08 5.007785e-08 8.3680504e-08 8.4614186e-08 1.970766e-08 2.0285851e-08
2.14979e-08 3.1147522e-08 7.1028474e-08 4.0256996e-08 4.511679e-08 1.5792248e-08 6.8222064e-08 3.2141966e-08
1.4317126e-07 6.9403555e-08 1.5981304e-07 5.6289025e-08 1.7541032e-07 1.4097175e-07 1.0837226e-07 8.2164306e-08
1.1049823e-07 1.3297577e-07 1.6747532e-07 5.026591e-08 4.669804e-08 8.340156e-08 5.3156025e-08 9.793062e-08
1.9523017e-07 2.240503e-07 2.1216707e-07 2.3434934e-07 2.2275522e-07 2.5943157e-07 2.2405453e-07 1.5095358e-07
3.3930235e-07 3.742735e-07 2.1840398e-07 1.7041651e-07 2.0187424e-07 1.1518725e-07 2.3094177e-07 1.2152825e-07
4.5964666e-07 1.721923e-07 5.6633127e-07 2.7899523e-07 6.6031635e-07 5.51938e-07 1.922332e-07 1.7175289e-07
2.3950435e-07 2.4432904e-07 5.386457e-07 2.3522992e-07 2.688798e-07 1.1135687e-07 3.7545408e-07 2.7298756e-07

exp_avg f4 [48]
00000000: 3341 23b7 0fdd 9838 fe73 1a36 e9cc 2bb8
00000010: ef64 8337 dfa6 d135 cbd6 ceb9 8306 eb39
00000020: 573e ddb6 2d4c 0739 668d 7cb9 1998 f2b7
00000030: 2abd e937 d673 9db8 c2e0 13b8 2419 ab37
00000040: 5fee 0238 0014 5e36 fcf1 68b8 45ed 6438
00000050: bb0b 5937 22bb 41b8 1a77 bf38 9e3d 6f39
00000060: f181 0739 5e15 f438 6346 ab38 0efe 3339
00000070: 4534 ee38 d6ba 88b7 8d87 ec37 6cee 0c39
00000080: 80bf e339 d089 5bb8 04c1 f8b9 2f37 073a
00000090: c7f2 c339 4905 8b39 b8d8 32ba 6a44 5839
000000a0: 7fe1 2239 0df7 a63a 2872 c239 f1c5 3639
000000b0: ff5c 8a39 4df0 2738 aa68 07ba cae7 9ab9
-9.7307375e-06 7.2891e-05 2.3015305e-06 -4.0960414e-05 1.5663418e-05 1.5620279e-06 -0.00039451415 0.00044827544
-6.5935706e-06 0.00012902981 -0.00024085268 -2.8919474e-05 2.786385e-05 -7.5079195e-05 -3.5256853e-05 2.0396496e-05
3.1216416e-05 3.309222e-06 -5.5538476e-05 5.458041e-05 1.2936939e-05 -4.6189067e-05 9.129774e-05 0.0002281577
0.0001292301 0.000116388066 8.167026e-05 0.00017165413 0.0001135846 -1.6299466e-05 2.8196513e-05 0.0001344026
0.00043439493 -5.2342017e-05 -0.00047446054 0.00051580643 0.00037374182 0.00026516084 -0.0006822455 0.00020624851
0.00015533528 0.0012738422 0.00037087617 0.00017430611 0.000263907 4.00397e-05 -0.00051654375 -0.00029545865

exp_avg_sq f4 [48]
00000000: e6a6 e833 6577 0234 1814 1534 1653 1c34
00000010: 3bd9 1a35 73f9 a134 a27c a536 b420 6737
00000020: 640e c031 4286 c834 a923 ad35 2272 7635
00000030: 40cf d233 8026 7534 6ba8 dc34 bc0b 5135
00000040: 06fb e332 d18e 1435 cb3c c333 999b 3034
00000050: 56d6 3633 81a2 2333 16ad af34 da84 3436
00000060: df76 9633 dbe2 fa33 c790 2133 8150 3c35
00000070: f3c1 e434 d20b 9734 e229 6335 c346 3035
00000080: 0547 7936 50b2 2237 42d3 c536 18d7 c536
00000090: b552 dd36 cdf3 d935 9263 6537 9467 b637
000000a0: 6761 8734 82a3 1138 58c9 e836 ff66 0937
000000b0: a094 e936 8bbc 0637 fba1 0d37 3093 5b37
1.08337005e-07 1.2150629e-07 1.3884016e-07 1.4558859e-07 5.768558e-07 3.0170085e-07 4.9318924e-06 1.3776287e-05
5.5895715e-09 3.7350588e-07 1.2899883e-06 9.1808226e-07 9.8165856e-08 2.283141e-07 4.1100733e-07 7.7875643e-07
2.654043e-08 5.534212e-07 9.091453e-08 1.6447883e-07 4.2570115e-08 3.809919e-08 3.2722227e-07 2.689942e-06
7.006542e-08 1.1682797e-07 3.7617408e-08 7.0152606e-07 4.2609426e-07 2.8134542e-07 8.462504e-07 6.566808e-07
3.714523e-06 9.697469e-06 5.895651e-06 5.8960977e-06 6.5959416e-06 1.6238715e-06 1.3672647e-05 2.1744323e-05
2.521658e-07 3.4722972e-05 6.9375783e-06 8.189817e-06 6.9612433e-06 8.030921e-06 8.441969e-06 1.3087687e-05

exp_avg f4 [48]
00000000: 3341 23b7 0fdd 9838 fe73 1a36 e9cc 2bb8
00000010: ef64 8337 dfa6 d135 cbd6 ceb9 8306 eb39
00000020: 573e ddb6 2d4c 0739 668d 7cb9 1998 f2b7
00000030: 2abd e937 d673 9db8 c2e0 13b8 2419 ab37
00000040: 5fee 0238 0014 5e36 fcf1 68b8 45ed 6438
00000050: bb0b 5937 22bb 41b8 1a77 bf38 9e3d 6f39
00000060: f181 0739 5e15 f438 6346 ab38 0efe 3339
00000070: 4534 ee38 d6ba 88b7 8d87 ec37 6cee 0c39
00000080: cbac 8139 5077 21ba 0129 f6b9 529b 8d39
00000090: 1e59 cf39 7447 2eb9 a8f4 abb9 b3cd 15b9
000000a0: 30c6 de38 b74e 813a f075 cf39 c4c4 f437
000000b0: f154 6c38 f5b1 6bb9 9f3b b2b9 3022 1b39
-9.7307375e-06 7.2891e-05 2.3015305e-06 -4.0960414e-05 1.5663418e-05 1.5620279e-06 -0.00039451415 0.00044827544
-6.5935706e-06 0.00012902981 -0.00024085268 -2.8919474e-05 2.786385e-05 -7.5079195e-05 -3.5256853e-05 2.0396496e-05
3.1216416e-05 3.309222e-06 -5.5538476e-05 5.458041e-05 1.2936939e-05 -4.6189067e-05 9.129774e-05 0.0002281577
0.0001292301 0.000116388066 8.167026e-05 0.00017165413 0.0001135846 -1.6299466e-05 2.8196513e-05 0.0001344026
0.00024733538 -0.00061594415 -0.00046951327 0.00027009338 0.00039548514 -0.00016620551 -0.00032797945 -0.00014286376
0.000106227 0.0009865378 0.00039569987 2.9178693e-05 5.6345893e-05 -0.0002247764 -0.00033995227 0.00014794688

exp_avg_sq f4 [48]
00000000: e6a6 e833 6577 0234 1814 1534 1653 1c34
00000010: 3bd9 1a35 73f9 a134 a27c a536 b420 6737
00000020: 640e c031 4286 c834 a923 ad35 2272 7635
00000030: 40cf d233 8026 7534 6ba8 dc34 bc0b 5135
00000040: 06fb e332 d18e 1435 cb3c c333 999b 3034
00000050: 56d6 3633 81a2 2333 16ad af34 da84 3436
00000060: df76 9633 dbe2 fa33 c790 2133 8150 3c35
00000070: f3c1 e434 d20b 9734 e229 6335 c346 3035
00000080: 2e26 e435 6ad5 cb36 0ac0 6736 029b 2836
00000090: 267a 4136 0add 9e35 1e8b 5a36 a7c3 d636
000000a0: e59b 3a34 3406 e837 7415 2236 b4eb fd35
000000b0: cf5e 7b36 65e8 1736 69b5 1a36 2f69 e536
1.08337005e-07 1.2150629e-07 1.3884016e-07 1.4558859e-07 5.768558e-07 3.0170085e-07 4.9318924e-06 1.3776287e-05
5.5895715e-09 3.7350588e-07 1.2899883e-06 9.1808226e-07 9.8165856e-08 2.283141e-07 4.1100733e-07 7.7875643e-07
2.654043e-08 5.534212e-07 9.091453e-08 1.6447883e-07 4.2570115e-08 3.809919e-08 3.2722227e-07 2.689942e-06
7.006542e-08 1.1682797e-07 3.7617408e-08 7.0152606e-07 4.2609426e-07 2.8134542e-07 8.462504e-07 6.566808e-07
1.6998436e-06 6.074716e-06 3.4533464e-06 2.5124177e-06 2.883034e-06 1.1836248e-06 3.2565508e-06 6.400474e-06
1.7379314e-07 2.7659444e-05 2.4152368e-06 1.8918568e-06 3.74571e-06 2.2636025e-06 2.3053383e-06 6.836977e-06
