saved_models/ISNNet_GRU_HS=16_N=4_ZP1_rtw0.01/split_4/checkpoint999.pth (torch, 22768 bytes, 18 tensors)

trial_output.weight f4 [2, 64]
000000 96 b9 68 3f 72 b3 8c 3e 0d dc 0b be af 7b e1 bd
       0.9090818 0.27480656 -0.13658161 -0.11009919
000010 5a a3 98 3e c3 2f 4f bd 96 f4 05 bd 31 c8 4d be
       0.29812127 -0.05058266 -0.03270396 -0.20095898
000020 1c 71 a9 bd d6 08 2b be c6 e3 d6 3d 30 e5 15 bf
       -0.08273527 -0.1670259 0.10492663 -0.5855284
000030 84 e8 c5 3c 05 0b e8 3c db a9 1e bc 1a 7e fe bd
       0.024158724 0.028325567 -0.009684051 -0.12426396
000040 49 79 44 3f bd 94 50 bf ac 55 c8 3f c8 7a f6 3d
       0.76747566 -0.81476957 1.5651145 0.120351374
000050 a6 85 2b be 75 1d 3d 3f 0b 9e be 3f 2e 13 34 c0
       -0.16750202 0.7387307 1.4891981 -2.8136706
000060 56 b1 3e 3e f6 a0 34 3f df 44 af be 3d 92 96 3e
       0.18622336 0.70558107 -0.34232232 0.29408446
000070 83 36 4c c0 15 78 90 3f 64 bc 2a c0 be df ba be
       -3.1908271 1.1286646 -2.6677485 -0.36498827
000080 04 52 bc bd b2 f2 b5 be 3c 2e f9 3f 28 50 18 3f
       -0.09195331 -0.35536724 1.9467235 0.5949731
000090 60 30 92 be 9a c5 50 3e 71 77 3c bf d2 67 23 bd
       -0.28552532 0.20387879 -0.73619753 -0.039893933
0000a0 28 bd 53 3e df 90 c1 be b5 95 ad be 24 a0 38 3f
       0.20677626 -0.3780584 -0.3390328 0.72119355
0000b0 34 9e 55 be 70 46 4e 3f de 46 c3 3e df 5b 79 be
       -0.20861131 0.8057623 0.38140005 -0.24351452
0000c0 71 2e fe 3e 96 aa 0f 3f 9e 25 cc 3e 3e 34 05 3e
       0.49644807 0.5611967 0.3987245 0.1300821
0000d0 83 4d 8a be e2 36 1a 40 89 e8 d7 be 40 48 80 c0
       -0.27012262 2.4095998 -0.42169598 -4.0088196
0000e0 4b 18 69 3f bf c3 65 be 2f 1b 2d 3e d3 f7 74 3f
       0.91052693 -0.22437952 0.16904901 0.9569065
0000f0 b0 ea 24 be 08 a4 84 40 40 f1 4c 40 e9 d5 d5 bf
       -0.16105151 4.1450233 3.2022247 -1.6705905
000100 ed ee 55 bd 40 57 47 bc 68 e0 29 3d f5 04 47 bc
       -0.05222981 -0.012166798 0.041473776 -0.012147178
000110 b3 89 0b 3a da 9d 21 3a a5 07 28 bc fe 4f 9b bc
       0.0005322948 0.00061651843 -0.010255729 -0.018959042
000120 ca e3 c2 3c 1c ea 8e bd 85 c9 63 bd 7d 34 07 3c
       0.023790259 -0.069782466 -0.055612106 0.00825226
000130 e3 b4 ac 3c 7c f7 37 bd 30 af 3a bc 80 42 98 ba
       0.021082347 -0.044913754 -0.011394307 -0.0011616498
000140 71 92 0a bd 60 6f bb be 2b 7b 34 3b e5 ae fb bd
       -0.033831064 -0.3660841 0.0027539234 -0.12289218
000150 f1 a4 6c be 5d d3 82 be e2 98 62 3e 60 e9 12 3e
       -0.23109795 -0.25551882 0.22128633 0.14346838
000160 41 23 20 be e0 d9 25 3e 9c 57 6d be f9 6f 04 3e
       -0.15638448 0.16196394 -0.23177952 0.12933339
000170 6c ed 29 be 82 4c 11 3f 74 c0 af be 7e 3d a2 bd
       -0.16594476 0.56757367 -0.34326518 -0.07921885
000180 c0 0a 9e 3d 07 ac 0c 3f 7d af 09 3f 49 39 ec bc
       0.07716894 0.5494999 0.537834 -0.02883591
000190 38 fc 08 be a0 47 af 3d fe 52 fa 3d 1b 42 2f 3e
       -0.13377464 0.08558583 0.12222861 0.17115061
0001a0 e9 a2 7c be b0 a7 a1 3e 1e ec c4 be 0e a5 8d 3e
       -0.2467152 0.31573248 -0.38461393 0.2766499
0001b0 8c de b5 3d 88 28 0a bf b8 17 90 3e 49 1f df bd
       0.08880338 -0.53968096 0.28143096 -0.10894639
0001c0 d7 23 c8 bd 64 da 91 3e 00 c0 99 3e ee 54 42 be
       -0.09772461 0.2848693 0.30029297 -0.1897771
0001d0 a8 27 c4 3c 4f 86 a8 3e b6 b5 4e be c5 d7 2e 3d
       0.02394469 0.3291497 -0.20186505 0.042686243
0001e0 eb b9 dd 3d c4 af 83 3e df bc cc 3d e3 62 6a 3e
       0.10826477 0.25720036 0.09996962 0.22889285
0001f0 fe 9b 11 3d 3b 6d 82 be 78 d0 30 bd 85 4d 9a 3d
       0.035549156 -0.2547396 -0.04316756 0.07534317

trial_output.bias f4 [2]
000000 1e 5d ba bd 08 2e 58 be
       -0.09099792 -0.2111131

rnn.weight_ih_l0 f4 [48, 6]
000000 3e 4e 5f 3d a4 35 17 bf 0d 46 22 be 8d a0 e7 be
       0.054517977 -0.59066224 -0.15847035 -0.45239678
000010 4d d5 66 3d b6 21 01 bf fe da 19 3f 74 2a 09 bd
       0.056355763 -0.50442064 0.6009978 -0.033487752
000020 b0 ef 5e 3f aa 38 a2 be 5f 6f fa 3d 30 e2 f2 be
       0.87084484 -0.31683856 0.122282736 -0.47438192
000030 43 45 b5 bd 9e 8d 60 3d 53 ee 2f 3f ad 0d bd be
       -0.08851101 0.054822557 0.6872303 -0.36924496
000040 32 d3 03 bf cf 68 cd 3e f0 d6 f6 bd be 43 aa be
       -0.51494133 0.40119025 -0.12052715 -0.33254808
000050 57 57 48 3c 8e a1 9f bc 7a 07 00 bf 6e d3 ca 3f
       0.012227855 -0.019486215 -0.5001141 1.5845773
000060 db cf 89 3e 1a 71 99 3e db 75 19 3a bd 56 20 bf
       0.26916394 0.29969102 0.00058540486 -0.6263235
000070 94 0b 8f 3d 87 7e 5f be 73 20 54 3f 58 a2 06 be
       0.0698463 -0.2182561 0.82862014 -0.13147867
000080 de 61 20 3f 05 cb 08 be 36 e0 a5 bc 79 22 7b be
       0.62649333 -0.13358696 -0.020248514 -0.24524869
000090 bc 54 a6 bd 02 99 7c 3f ee 76 f4 be 40 fb 77 3f
       -0.081216305 0.9867097 -0.47746986 0.9686775
0000a0 79 35 25 bf b7 d0 27 40 c2 f9 9b 3e f0 b6 34 bf
       -0.6453472 2.622114 0.30463988 -0.7059164
0000b0 84 a8 f5 bd 5a 84 89 be 5d bb f5 be b7 2e 41 bc
       -0.119950324 -0.2685879 -0.4799451 -0.011790923
0000c0 d3 b8 ed 3d e3 ab 4f bd c7 52 6d 3e 8b c6 22 be
       0.11607518 -0.050701033 0.23176108 -0.1589605
0000d0 fc e2 85 be e7 ed 04 3f 9e e7 26 3f ac da 2e bf
       -0.26149738 0.5192551 0.6519717 -0.68302417
0000e0 ff fa ab bd 8b 77 86 bd 5a 60 b9 be 84 64 57 3e
       -0.08397483 -0.0656577 -0.36206323 0.21034437
0000f0 6d f3 e1 be c1 70 44 3f 00 4e 7e be 68 0b 36 be
       -0.44131032 0.7673455 -0.24834442 -0.17777789
000100 f1 dc f5 be 98 d9 9e 3c 76 40 1d be 2f c8 3d bf
       -0.48020127 0.019390866 -0.15356621 -0.7413358
000110 bf 0a f2 be ab 7f 10 bf 3a d8 46 bf 3b 5f 41 bd
       -0.47273824 -0.56444806 -0.77673686 -0.04720996
000120 fb 6d dd be 50 ff b9 3f 92 14 5f bc 0a 62 05 be
       -0.4324797 1.453104 -0.013615744 -0.1302568
000130 ef 17 b7 3c 34 49 f0 3d 06 2f 3c 3f 5c fb 7b 3f
       0.02235028 0.117327124 0.7350925 0.9843042
000140 4b 9e 3d 3f 12 13 a5 3e 0b 0d 3e 3f 1e 3d dc 3e
       0.7406966 0.32241112 0.7423865 0.4301538
000150 e3 bf 51 be 59 9d 72 be 57 a4 02 3e 4c 91 a3 3d
       -0.20483355 -0.23692836 0.12758003 0.079866976
000160 d0 4d 80 be 9c 06 b3 be 68 5b 60 bf 84 3f cf 3e
       -0.25059366 -0.3496598 -0.87639475 0.40478146
000170 58 96 5c be a9 db 09 bf 5c 56 d5 be 08 b8 fd bd
       -0.21541727 -0.538508 -0.4166745 -0.12388617
000180 bd 96 6e bf 7c d2 3a 3e c4 e5 03 bf f9 60 bd be
       -0.9319876 0.18244356 -0.5152247 -0.36988047
000190 bd 37 c8 be c3 db 72 be 04 1e bf 3e ff f5 9e be
       -0.39105025 -0.23716645 0.37327588 -0.31047055
0001a0 cd bf 22 be 97 a9 bd be de 87 ab be e1 97 72 3d
       -0.15893479 -0.3704345 -0.33502096 0.059226874
0001b0 18 b3 ec be c4 7e 4d 3d a5 f3 03 3e f9 9f 68 be
       -0.46230388 0.05016972 0.12885912 -0.22717275
0001c0 9b 55 34 3d af cd 19 be 53 3f 93 bd 2a 5d 02 3e
       0.044026952 -0.15019868 -0.071898125 0.12730852
0001d0 62 4a 3d 3d a0 ef 8a 3d 57 58 6e 3e 89 33 96 3e
       0.046213515 0.06783986 0.23275886 0.29336193
0001e0 77 56 b7 be 04 1a b5 3c e9 ac d0 be 25 33 49 bd
       -0.35808155 0.022107132 -0.4075692 -0.04912104
0001f0 14 3e f1 be 4f 48 c7 be 94 d1 01 bf dc 8e 09 bf
       -0.47117674 -0.38922355 -0.50710416 -0.5373361
000200 b3 a2 96 be ee 71 79 be 02 cb 08 bf 5b ed df be
       -0.29421005 -0.24359867 -0.53434765 -0.43735775
000210 80 d1 77 3c 05 6b d5 3e a6 dd 0a 3f 63 c0 d0 3d
       0.015125632 0.41683212 0.5424446 0.10192945
000220 d3 3d d6 3c 06 30 83 3e ae 4a 08 3e d0 83 ab 3f
       0.026152527 0.25622576 0.13309738 1.3399601
000230 30 09 3c 3c ce c8 5d be 02 92 13 bd 2f a1 03 bf
       0.0114768 -0.21658632 -0.036027916 -0.5141782
000240 e8 6c 96 3d 03 1e 12 be 3f 1f 5d be fb 00 8e bd
       0.07344991 -0.14269261 -0.2159395 -0.06933781
000250 af 9f 0f be 12 9e ab be 9f e5 31 be 32 78 2d be
       -0.14025758 -0.33519036 -0.1737275 -0.16940382
000260 9b d8 aa be e3 46 80 be 1b 8e 5b be a0 21 5e be
       -0.33368382 -0.25054082 -0.21440928 -0.21692514
000270 ce be b4 be 1d 15 73 be ef 2b 29 be 03 c7 c0 be
       -0.35301822 -0.23738523 -0.16520666 -0.37651834
000280 a2 48 39 3d 32 a1 10 bf 71 4c 47 3f 79 01 ad be
       0.045235284 -0.56495965 0.77851015 -0.33790186
000290 d0 15 5f bd 4b 0d 1c bb 5e f7 86 3c 93 56 4d be
       -0.05446416 -0.0023811634 0.016475376 -0.20052557
0002a0 2f f1 10 bd f4 72 25 3e 92 fc e1 bd ef e4 b4 3e
       -0.03538626 0.16157132 -0.11034502 0.35330912
0002b0 63 45 c7 bc 08 db af be f7 7e 55 bc 9d 37 64 be
       -0.024325078 -0.34346795 -0.013030759 -0.2228684
0002c0 a4 da 79 bd 85 5b 20 be 3d 8f ba 3e e9 66 c0 3e
       -0.060999528 -0.15659912 0.36437407 0.37578514
0002d0 fc 31 2f bf 6e 14 a7 be 6f be 67 bf 7e 47 60 bf
       -0.68435645 -0.32632774 -0.90524954 -0.8760909
0002e0 ae 4e 3f bf 30 6c 30 bf 10 de 29 bd a3 32 32 bf
       -0.7472943 -0.6891508 -0.04147154 -0.69608516
0002f0 e0 4c eb bd 6b 68 47 bf 1d e9 09 3f db 85 6d bf
       -0.11489272 -0.77893704 0.5387133 -0.9278237
000300 52 03 67 3e bb 42 e0 bd b7 dc a1 bd b7 a8 45 bd
       0.2255986 -0.10950228 -0.07903426 -0.048256602
000310 f4 58 83 3e ce 36 8e 3e 94 b1 cd 3d ea 21 43 be
       0.25653803 0.27776188 0.10043636 -0.19055906
000320 9a b6 bd 3d 97 ba 36 3d f2 80 7f 3e 0c 21 1c be
       0.09263344 0.04461154 0.24951532 -0.15246981
000330 d3 f1 21 3e 84 e7 04 be c5 5b 7c 3e 71 70 0c bc
       0.15814905 -0.12978941 0.24644382 -0.00857173
000340 7b ec 91 3d 1d 81 bd 3d 76 cf 62 be 09 b1 0b bd
       0.07125183 0.09253142 -0.22149453 -0.03410438
000350 58 ca d9 bd f9 1c 4a be 61 01 3e be db 13 6c be
       -0.10634297 -0.19737615 -0.18555214 -0.2305445
000360 92 0e 94 3e b9 a4 8c 3f d0 d0 cf 3e cb 73 62 3f
       0.28917366 1.0987769 0.40589 0.88457936
000370 a0 07 b3 ba 89 2e bc 3f df 62 6f bf 5e 83 0b 3e
       -0.0013658889 1.4701701 -0.9351024 0.13624331
000380 13 fa 95 bd 3d 5c d9 bd 18 0d 70 be 13 e2 32 be
       -0.073230885 -0.10613296 -0.23442495 -0.17469053
000390 cc 74 e3 3d 7e fa 32 3e 2f 66 83 3e 5e b6 61 3e
       0.111062616 0.17478368 0.25663897 0.22042224
0003a0 a7 23 b1 3d fc fc c3 3d 33 d9 d6 bd 9f 4b 91 3d
       0.08649378 0.09569737 -0.10490646 0.07094502
0003b0 9b 4e db bd 7f dd b8 bd 26 05 73 bd 50 a3 ca bc
       -0.10708352 -0.09026622 -0.05933108 -0.024736077
0003c0 87 b6 df be af 59 98 3f d7 e2 12 3d 4a 20 17 3e
       -0.43693945 1.1902369 0.035860863 0.14758411
0003d0 66 d5 9b 3d 81 a7 ab be d7 61 15 3f 89 b0 b1 be
       0.07609062 -0.33526233 0.58352417 -0.34704998
0003e0 ce 19 10 3e b4 8f df 3d b2 4d 5a 3d 43 52 80 bc
       0.14072344 0.10916081 0.053296752 -0.015664225
0003f0 d9 5c 48 3e 3c b0 21 3f 86 7d ae 3d 09 78 7f 3e
       0.19566669 0.6315954 0.085200354 0.24948134

rnn.weight_hh_l0 f4 [48, 16]
000000 e6 54 1e bf 33 fa af be 27 d2 a8 3d 4b 46 9b 3e
       -0.61848295 -0.34370574 0.082432084 0.30327067
000010 51 3d bb 3d 2d ab f5 be 1d ec 49 3f df fd 56 3e
       0.091425546 -0.4798216 0.78875905 0.20995282
000020 1a 52 b0 3e ce c1 e4 3e 97 c5 37 3e f7 c5 bf 3e
       0.3443764 0.4467911 0.17946468 0.37455723
000030 23 e9 33 3d f0 c5 10 3f a9 b5 b6 be fa 38 15 3f
       0.04392351 0.5655203 -0.3568547 0.58290064
000040 fd 4e 4f be 45 3f 73 3e ef 72 56 be eb ee 60 be
       -0.20244975 0.23754604 -0.20942281 -0.2196614
000050 66 7d 85 3e cf 7c e8 be 80 3d 44 3e 53 c0 e4 3e
       0.26072234 -0.4540772 0.19164085 0.44677982
000060 c8 33 7e 3d 97 e1 ae 3e be e3 b4 3e 9e 9e 39 bd
       0.0620611 0.34156486 0.35330003 -0.045317285
000070 f5 97 81 3e 4d f6 5a be df c9 c5 bd 5f ab f9 bd
       0.25311247 -0.21383019 -0.096576445 -0.121908896
000080 2a e4 59 be 8c b7 08 3e 13 4d 5b bf 66 6e 4d 3e
       -0.21278444 0.13351268 -0.8566448 0.20061645
000090 f4 09 b6 3e 3d 87 2e be c0 54 07 be 30 d5 85 3e
       0.3555447 -0.17043777 -0.13215923 0.26139212
0000a0 bc b2 18 3e 9d 40 27 3f 74 49 db 3e 29 6a 5c be
       0.14911932 0.6533297 0.42829478 -0.21524872
0000b0 16 8d 1f 3e 22 27 a4 3e 13 86 6e 3b ad 0e 18 3e
       0.15581164 0.32061106 0.0036395832 0.14849348
0000c0 e7 11 82 be 2a 79 27 bd 8f a4 0f bf 3e cf d4 3d
       -0.25404283 -0.040887035 -0.5611047 0.10391091
0000d0 02 ed 48 3f 5b 16 07 bf 3a 18 0d be 15 a1 bd 3e
       0.78486645 -0.52768487 -0.13778773 0.37036958
0000e0 95 4b 77 be 0c d1 8e 3f 18 b3 65 3f 83 a9 0f be
       -0.24149926 1.1157546 0.897264 -0.14029507
0000f0 ae 5c 82 3e f5 f5 7c 3e ab 34 a8 bd c5 20 ac 3e
       0.25461334 0.247032 -0.082131706 0.3361875
000100 fb d9 3d 3d 31 82 90 3e b9 9c 11 3e d1 05 7b be
       0.04635046 0.28224328 0.14219941 -0.24513938
000110 22 03 3c 3e 4d d1 ab be fa 77 6d 3f 6a 9f 8b 3e
       0.1836057 -0.3355812 0.92761195 0.2727006
000120 c2 4b 82 3d 9c e4 06 be 76 86 f5 3d fe c1 95 3e
       0.06362106 -0.13173145 0.11988537 0.29249567
000130 3f ff 01 be ca 15 58 3e 4b df b3 3d 64 5b f7 bd
       -0.12695025 0.21102062 0.08782824 -0.12077978
000140 06 8b 17 be 36 61 31 be 77 a2 3d bf 2b 7b 87 3e
       -0.14799127 -0.1732224 -0.74076027 0.26461157
000150 f9 f7 f6 3d 6a 37 59 bf ef c2 71 be e3 02 8e 3e
       0.12059016 -0.8485018 -0.23609518 0.27736577
000160 cd 33 fa 3e 76 6a b9 3e c9 6e ad 3e c9 e8 ba bd
       0.48867646 0.36214036 0.33873585 -0.091264315
000170 16 b3 3d bf d3 48 19 be 4e da 41 3f 0c 60 b1 3d
       -0.7410139 -0.14969186 0.7572373 0.086608976
000180 04 46 11 bf f6 44 ab be 50 61 82 bf 6e a2 83 3d
       -0.5674746 -0.3345105 -1.0185947 0.064274654
000190 57 8f 0a 3f 16 b3 11 be 8a 47 ac be ea a0 e9 3d
       0.5412497 -0.14228472 -0.3364833 0.11407645
0001a0 f9 c1 70 3e 76 b4 74 3f 3c 9b 57 3f 7b 3c e6 3d
       0.23511495 0.9558786 0.84221244 0.112420045
0001b0 79 d8 17 bd 25 7d 32 bf e0 4e 19 bf f7 91 24 3f
       -0.03707168 -0.69722205 -0.5988598 0.64285225
0001c0 29 c9 1c be ce 1e 43 be d4 58 b4 be 05 a9 52 3f
       -0.15311112 -0.1905472 -0.3522402 0.82289153
0001d0 cf 09 93 3e 55 ab a3 be ec cd ef be 0b 65 a6 bf
       0.2871842 -0.31966653 -0.46836793 -1.2999586
0001e0 f1 a8 d9 3d 30 e2 18 3e 9b 19 17 3e 6a 8e b6 3e
       0.10627926 0.14930034 0.14755861 0.35655528
0001f0 d7 f0 66 bf a2 a6 84 be fb 7e 2a bf b4 be 9b 3e
       -0.9021124 -0.2590838 -0.66600007 0.30418932
000200 9d ca c6 3e c7 b9 9e 3e 63 fc af 3e 4f 22 d2 be
       0.38826457 0.31001112 0.34372243 -0.410418
000210 89 f5 f6 3d bb e4 f7 3d 22 3f 07 40 58 a2 44 be
       0.12058551 0.12104174 2.1132283 -0.19202554
000220 bf 8d 3a 3e f8 af bb bd 88 c8 3a 3e 98 d4 15 3e
       0.18218134 -0.09164423 0.18240559 0.1463188
000230 54 ef b9 3e 5a bb 58 3e c5 b0 94 be d3 26 39 be
       0.36315405 0.21165219 -0.29041114 -0.18081217
000240 64 6d 54 be 2e e3 61 be 39 9b b8 3e 81 8f 0e be
       -0.20744854 -0.22059318 0.36055925 -0.1392193
000250 c6 ba a8 3e 26 e1 4d be 42 33 2a bf c2 2f 99 bd
       0.32954997 -0.20105419 -0.66484463 -0.07479812
000260 33 5f bf be f8 42 10 3b a7 25 3d 3e 6e 82 04 be
       -0.3737732 0.0022012573 0.18471394 -0.1294038
000270 43 1d 4c bd 56 8b 83 3d b2 7a 47 bd ff e9 21 3e
       -0.049832594 0.064230606 -0.048700996 0.15811919
000280 be 59 a0 bd d7 17 40 be 11 d7 95 be d3 19 48 be
       -0.07829617 -0.18759094 -0.29265645 -0.19541101
000290 20 43 c2 3d 20 88 7f be 35 eb 73 3d ba 5e 23 3e
       0.09485459 -0.24954271 0.059550483 0.15954104
0002a0 05 8f 83 3d d2 50 8f 3e 6a 16 f9 3e bb d3 97 bc
       0.06423763 0.27991349 0.48649913 -0.018533578
0002b0 50 ce 98 be d4 2e 4a 3e d4 23 f9 3d 5e 5e b5 3d
       -0.29844904 0.19744426 0.12165037 0.0885589
0002c0 ac fc 57 be fd 04 c2 be 1d 56 18 be e3 1f 22 3e
       -0.2109248 -0.3789443 -0.148766 0.15832476
0002d0 2d 67 29 3f a2 ef 0d bf a9 6e 72 3e c3 47 61 3e
       0.6617306 -0.55443776 0.23675026 0.22000031
0002e0 c1 31 09 3f 5d 77 81 3e 85 46 30 3f b3 97 d2 3e
       0.53591543 0.2528638 0.68857604 0.41131362
0002f0 a6 27 18 bf 7c ab cd 3e 96 ec 66 3e 87 d6 bd 3e
       -0.594355 0.40169895 0.22551188 0.37077734
000300 82 86 85 be fd 0d 17 bf 15 5b df bf f9 a5 22 3e
       -0.26079184 -0.5900572 -1.7449671 0.15883626
000310 b3 d7 9c 3d 7f 33 f2 3e 5f 93 7e bf e4 5c b5 3f
       0.07658329 0.47304913 -0.9944362 1.4168973
000320 88 68 40 3e a3 87 dc 3e d7 de 72 3e 04 90 7b 3d
       0.18789876 0.43072233 0.23717819 0.06141664
000330 c3 3a aa be 07 ff 84 bf 2d bf b1 3f 0d 41 bf bd
       -0.33247957 -1.0390328 1.3886467 -0.09338579
000340 4a d6 9a be 7c c5 4e bf 45 1c 95 be dc 08 5e 3f
       -0.30241615 -0.8077009 -0.2912313 0.8673227
000350 c5 af 45 bd 35 d1 1c 3f 3a d1 fe be 88 91 28 3e
       -0.04826333 0.61256725 -0.49769002 0.16461766
000360 fe 53 78 3e fc ea af 3d f7 cf 2a 3e ac 3c ad be
       0.2425079 0.085897416 0.16680895 -0.3383535
000370 ef 47 2f bf cb f9 3b 3e 9c 8b 22 3f a7 78 b4 be
       -0.68469137 0.18357007 0.63494277 -0.352483
000380 4b 3f 5d bf a4 e3 aa 3e 94 e7 43 bf 6e e3 ac 3b
       -0.864247 0.333768 -0.76525235 0.005276135
000390 61 18 80 3d d7 b5 12 3c e9 f8 ec bd fe d4 37 bf
       0.0625465 0.008954487 -0.11570913 -0.71809375
0003a0 10 fb c2 3e 95 41 52 3b 99 ca 36 3f 25 af 18 bf
       0.3808217 0.0032082547 0.7140289 -0.5964225
0003b0 46 63 21 be 22 a4 be 3e 53 b5 6a 3f d0 93 03 bf
       -0.15760526 0.37234598 0.9168293 -0.5139742
0003c0 96 64 62 3e 87 11 a5 bf c1 c8 65 3f 81 00 bc 3e
       0.22108683 -1.2895974 0.8975945 0.36719134
0003d0 c6 b9 18 3e 91 0d d5 bd a1 74 d5 be 07 4d 86 3f
       0.14914617 -0.10402978 -0.41690543 1.0492257
0003e0 4b 46 0e 3f 25 c3 54 3f 4c 35 04 3e fc 65 c1 3e
       0.5557601 0.83110267 0.12910956 0.3777312
0003f0 48 c5 50 bf 30 83 d6 be 51 e6 06 bf 56 cd 02 3f
       -0.8155103 -0.41896963 -0.52695185 0.5109457

rnn.bias_ih_l0 f4 [48]
000000 7a cc 0d 3e c7 1d 5c 3e 3f 13 a9 3e 65 9c 80 bd
       0.13847533 0.21495734 0.33022496 -0.0627983
000010 5e 94 a2 3e e6 d8 9b 3e af d8 93 3e b9 ca c1 be
       0.3175382 0.30438918 0.28876254 -0.37849978
000020 5f 5f d9 bc 6f 6f 7b bc cc d9 e1 3e 4f 50 3f 3e
       -0.026534734 -0.015346392 0.44111478 0.18682979
000030 14 d9 46 3d 05 cf 26 3e 0e 1f 97 be 00 16 12 3f
       0.048546866 0.16289909 -0.2951588 0.5706482
000040 f0 52 06 3f 1b 28 05 3e 4a 9b 07 be f0 e3 f7 3d
       0.524703 0.1300358 -0.13242832 0.121040225
000050 84 14 fb 3e 08 28 3b 3c 54 81 04 3f 09 8c 16 bf
       0.4903909 0.011423118 0.5175984 -0.58807427
000060 5a 22 14 3f 52 9f 76 3e 38 9e 83 3e 97 a2 11 3e
       0.57864916 0.24084213 0.2570665 0.1422218
000070 de e9 18 3e 29 39 bd 3e ad bc 02 3f 55 96 c8 3e
       0.14932963 0.36957672 0.51069146 0.39177194
000080 b0 f5 81 3e 9c 5a cf 3d 59 35 ae 3e 04 4c 06 bd
       0.25382757 0.10124704 0.34025076 -0.032787338
000090 15 b5 b3 bc 60 34 f4 3c 6e 3c 84 3e c3 db e3 3e
       -0.021936933 0.02981013 0.25827354 0.44503602
0000a0 dc cb c3 be bf c8 21 be ad e2 8a bd 9a f4 6f be
       -0.3824147 -0.15799235 -0.06781516 -0.23433152
0000b0 d4 fd 5f 3e a0 34 8d 3e 79 4a af be 7c 8b a5 3d
       0.21874171 0.27579212 -0.34236506 0.08083245

rnn.bias_hh_l0 f4 [48]
000000 52 88 3f be 81 9a 49 3d db bf 2e bb 8c 97 b0 ba
       -0.18704346 0.049219612 -0.0026664648 -0.0013472899
000010 a9 e1 20 3e 1a 44 16 3f 20 8c 33 3f 36 79 08 be
       0.15711083 0.58697665 0.7013569 -0.13327488
000020 24 85 07 3e 1b cb 49 bc b6 25 94 3e 56 3c 9d 3e
       0.13234383 -0.0123164905 0.2893502 0.30710095
000030 a1 84 3c 3d 84 59 52 3e dd 4b 83 be 33 74 8c 3e
       0.046024922 0.2054196 -0.25643817 0.27432403
000040 f5 ea f9 3e 22 3e d0 3e 09 ea d0 3b a5 e9 cd 3e
       0.4881207 0.40672404 0.0063755554 0.4021732
000050 d2 5a c6 3e ce e6 b9 3e be 95 04 3f 61 b2 30 bf
       0.38741165 0.36308903 0.5179099 -0.69022185
000060 21 52 4d 3f 23 6f b8 3e 4d b8 7e 3e 63 ac c1 3e
       0.80203444 0.3602229 0.24874993 0.37826833
000070 d5 d2 f8 3e 4b 4f 91 3e 2e 24 d6 3e 02 31 3d 3e
       0.48598352 0.28380808 0.41824478 0.18475726
000080 bb d9 7d 3e 99 6f b0 3e e8 26 90 bb 84 e7 84 3d
       0.24790089 0.34460142 -0.0043991692 0.064894706
000090 38 72 15 be 16 4d b4 3e ac 04 1f be ca 8f 97 3e
       -0.14594352 0.35215062 -0.15529126 0.2960189
0000a0 be fe d8 3d 9e 5e 98 3e b9 cc 00 3e 6f 22 e1 be
       0.10595463 0.29759687 0.12578095 -0.43971583
0000b0 06 b0 9f 3d a3 98 13 3c ab 51 01 bf a0 4f 4d bd
       0.07797246 0.009008559 -0.5051524 -0.050124764

exp_avg f4 [2, 64]
000000 f5 7e f7 3a 97 ef 76 3a 53 36 04 3a 3a f1 22 3a
       0.0018882441 0.0009419857 0.00050434953 0.0006215755
000010 f3 32 f2 ba ce 2f 9f 3a c4 bf de ba 57 ce ae b9
       -0.0018478319 0.0012144984 -0.0016994406 -0.000333416
000020 3e 33 d7 ba e3 b3 21 ba 61 82 fe ba 3f 20 17 bb
       -0.001641847 -0.0006168468 -0.0019417518 -0.0023059992
000030 dc fe a7 ba dd 37 23 ba 03 70 4f 3a 3a 09 da ba
       -0.0012817043 -0.0006226281 0.00079131144 -0.001663483
000040 e6 db db 3a 62 8a db 3a 06 93 3a b9 7f f0 73 ba
       0.0016773909 0.0016749615 -0.00017793113 -0.0009305551
000050 ca a5 fc ba 8d 76 e3 3a f5 29 9b ba 2f 12 0a 3b
       -0.0019275483 0.0017354056 -0.0011838066 0.0021067967
000060 3d 8c fd ba 31 08 00 ba c9 b0 ed ba 78 b7 e8 ba
       -0.0019344162 -0.0004884033 -0.0018134351 -0.0017754873
000070 d0 19 1c 3b 99 fb 13 b9 67 0f ad ba a2 57 00 bb
       0.0023819096 -0.0001411274 -0.0013203443 -0.0019583483
000080 99 9a f2 3a 73 17 e5 3a 23 c4 8d b8 44 de d9 ba
       0.0018509208 0.0017478302 -6.759937e-05 -0.0016622026
000090 7e 2c f3 ba 59 7f ee 3a b6 ec ca 39 bd bd aa 3a
       -0.0018552688 0.0018195912 0.00038704806 0.0013026517
0000a0 cd d3 e5 ba 4b 87 1a ba 54 1d ee ba 9b 7e cc ba
       -0.0017534435 -0.0005894794 -0.00181667 -0.0015601696
0000b0 e9 d5 00 3b 44 0f 08 3a d6 cf be ba 7f e0 00 bb
       0.001965875 0.0005190263 -0.001455779 -0.001966506
0000c0 4f ae 68 3a 98 41 73 3a 9c e3 ba b9 68 84 43 ba
       0.00088760717 0.00092794886 -0.00035646267 -0.000745839
0000d0 fb 84 bc ba d5 1a 0f 39 ba 9b 35 3a dc 05 9c 39
       -0.0014382893 0.00013647538 0.0006927807 0.00029759004
0000e0 ae 61 83 ba 72 69 4d ba 7a 9d cf ba 27 0f 86 b9
       -0.0010023618 -0.0007835842 -0.0015839778 -0.0002556976
0000f0 ce c5 9b 3a 54 b5 1b ba d3 fd e2 36 c9 13 e1 ba
       0.0011884512 -0.0005939801 6.764874e-06 -0.0017172034
000100 75 08 97 b8 d3 3f b0 b6 7e 2e d1 b5 43 ed ee b8
       -7.201816e-05 -5.252639e-06 -1.5585244e-06 -0.00011392918
000110 62 c0 4b 39 f1 90 f7 b8 09 76 54 39 f5 f1 25 38
       0.00019431257 -0.00011804875 0.00020261867 3.9564406e-05
000120 d9 27 47 39 53 d6 ef 38 a4 32 42 39 5b bf 05 39
       0.00018992963 0.00011436329 0.00018520147 0.00012755154
000130 c2 67 1b 39 91 64 b5 38 59 35 98 b8 25 6e 4e 39
       0.00014820605 8.6494845e-05 -7.2578616e-05 0.00019686723
000140 bd 20 39 b9 50 cf 2f b9 8b 6b 5d b7 6d bf e8 38
       -0.00017655171 -0.0001676653 -1.3197666e-05 0.00011098278
000150 fb 3b 55 39 6d 6c 44 b9 89 ac 05 39 ad 26 2a b9
       0.00020335607 -0.00018732408 0.00012748143 -0.00016226871
000160 8f 8c 56 39 f9 63 8b 38 43 24 4a 39 cd 28 48 39
       0.00020460993 6.646658e-05 0.0001927773 0.00019088686
000170 5b ca 13 b9 44 31 9f 37 76 cf 1f 39 f1 ee 58 39
       -0.00014094396 1.8977218e-05 0.00015240707 0.00020688378
000180 24 3a 46 b9 ae 82 3f b9 be c2 b5 36 64 21 3a 39
       -0.0001890441 -0.00018263861 5.4168913e-06 0.00017750781
000190 b1 d8 4e 39 64 b5 45 b9 09 a0 20 b8 32 d2 15 b9
       0.00019726415 -0.00018854957 -3.8296017e-05 -0.00014288051
0001a0 5f e3 41 39 cf 43 33 38 bc 86 50 39 19 b8 2b 39
       0.00018490617 4.2740077e-05 0.00019886618 0.00016376413
0001b0 0c b9 58 b9 36 c2 4b b8 cc a9 23 39 a0 19 5a 39
       -0.000206683 -4.8579845e-05 0.00015608146 0.00020799646
0001c0 59 8e f1 b8 f1 18 13 b9 da 02 c6 37 89 68 f6 38
       -0.0001151829 -0.00014028304 2.3604767e-05 0.00011749665
0001d0 92 64 23 39 4f 09 7b b7 2a 64 f7 b8 9e 12 b2 b6
       0.00015582357 -1.4962933e-05 -0.00011796535 -5.3069807e-06
0001e0 fc ce e2 38 f0 ea 12 38 57 34 2e 39 1e b7 52 38
       0.000108150736 3.5027915e-05 0.00016613431 5.0238443e-05
0001f0 8a 47 33 b9 eb b3 b1 b6 04 a6 19 b8 f5 20 23 39
       -0.0001709742 -5.2959563e-06 -3.6632657e-05 0.00015557169

exp_avg_sq f4 [2, 64]
000000 32 16 17 38 80 ea 2f 38 0c fe 33 37 ca 94 8f 38
       3.6021876e-05 4.1941646e-05 1.0728381e-05 6.8464855e-05
000010 a4 f6 c7 38 f9 e2 2c 38 69 5a ea 38 52 80 82 37
       9.535e-05 4.121938e-05 0.0001117483 1.5556961e-05
000020 a4 f5 b6 38 65 2a 4d 38 9c 59 b6 38 52 9a 70 38
       8.7241904e-05 4.891529e-05 8.695127e-05 5.736418e-05
000030 91 53 62 38 7e da df 37 3e 24 12 38 b6 33 b1 38
       5.3960426e-05 2.6685415e-05 3.4842866e-05 8.4496496e-05
000040 3b 31 bb 38 38 53 a7 38 82 11 be 36 9b c1 cb 37
       8.926025e-05 7.978681e-05 5.6644794e-06 2.428964e-05
000050 dd 74 fb 38 20 f8 da 38 24 53 96 38 47 01 8f 38
       0.0001199038 0.00010441267 7.1680435e-05 6.819009e-05
000060 4b 16 ff 38 ed a7 61 37 08 bd d8 38 de 64 de 38
       0.000121635 1.3450143e-05 0.000103348924 0.00010604573
000070 39 06 7f 38 3d 18 8e 36 38 67 83 38 aa 81 00 39
       6.0802533e-05 4.2347515e-06 6.265793e-05 0.00012255335
000080 55 91 e0 38 65 0f c2 38 79 87 bf 34 6a dc a9 38
       0.000107082225 9.253508e-05 3.5675092e-07 8.099603e-05
000090 c0 e6 ee 38 85 18 de 38 33 54 d9 36 b6 ea 8a 38
       0.00011391705 0.00010590352 6.476906e-06 6.624071e-05
0000a0 72 d4 de 38 49 4d df 36 f9 9a e2 38 ae de b3 38
       0.00010625356 6.654915e-06 0.00010805386 8.5768625e-05
0000b0 91 f4 00 39 59 0b d2 36 4f e6 a2 38 94 38 02 39
       0.0001229814 6.2598087e-06 7.76766e-05 0.00012418843
0000c0 2a c2 a9 38 0b 97 a8 38 a2 fa 14 36 be 5a a5 38
       8.094714e-05 8.038998e-05 2.2199606e-06 7.884715e-05
0000d0 45 40 b8 38 e1 8c 5a 38 b3 bf 4a 38 b6 a0 a5 37
       8.785775e-05 5.2106454e-05 4.8339087e-05 1.974437e-05
0000e0 4d 76 4d 38 de 14 56 37 da 0f ca 38 f9 dd f2 37
       4.8985985e-05 1.27602525e-05 9.635063e-05 2.8952012e-05
0000f0 8d 0c e5 38 64 cc 97 37 03 e3 9a 37 cc c1 04 39
       0.00010921909 1.809578e-05 1.8463941e-05 0.00012660696
000100 45 4c a3 33 19 97 61 33 14 cf 85 32 e0 b9 03 34
       7.604152e-08 5.2524317e-08 1.5577406e-08 1.2267947e-07
000110 6a 9c 78 34 e3 be ea 33 f2 74 8c 34 b6 4b c8 32
       2.3153703e-07 1.0931196e-07 2.616212e-07 2.3317494e-08
000120 61 ee 5f 34 82 3c de 33 0c 73 5f 34 bb fc 13 34
       2.0855215e-07 1.0348687e-07 2.0810347e-07 1.3782385e-07
000130 96 fc 0c 34 5a 26 6d 33 c4 e5 62 33 e5 38 63 34
       1.3130406e-07 5.5215743e-08 5.2828696e-08 2.116172e-07
000140 5c 4f 65 34 1a 82 4b 34 21 76 fe 31 ab 0d 8e 33
       2.1356158e-07 1.8953179e-07 7.4058026e-09 6.6148765e-08
000150 c5 f7 94 34 91 b7 85 34 c5 2c 0f 34 ff 25 42 34
       2.7747424e-07 2.4906743e-07 1.33342e-07 1.8081481e-07
000160 84 f8 96 34 eb 7e f4 32 60 9e 81 34 c4 55 83 34
       2.8120496e-07 2.8463054e-08 2.4143355e-07 2.4463054e-07
000170 15 a4 1d 34 0b 33 b4 31 2e e0 32 34 3a 8c 99 34
       1.4681457e-07 5.2444924e-09 1.6659098e-07 2.86005e-07
000180 5b 94 86 34 46 59 69 34 a8 02 59 30 a7 5d 52 34
       2.5067388e-07 2.1732293e-07 7.8947915e-10 1.9591845e-07
000190 1d 11 8c 34 45 7d 82 34 1d e0 62 32 62 d0 17 34
       2.6089484e-07 2.4305533e-07 1.3205889e-08 1.413878e-07
0001a0 33 43 7e 34 7b f6 79 32 8d 41 86 34 7a 7c 4b 34
       2.368004e-07 1.4549751e-08 2.500714e-07 1.8951133e-07
0001b0 0d 12 9a 34 0e 2d 8e 32 3d e7 34 34 c9 b5 9a 34
       2.869787e-07 1.6551464e-08 1.684793e-07 2.8817e-07
0001c0 a9 d9 18 34 5d e5 31 34 7e cc 6b 31 24 6a 20 34
       1.4235287e-07 1.6567851e-07 3.4313241e-09 1.4939775e-07
0001d0 61 24 41 34 55 37 69 33 4c 23 f3 33 48 ac 72 32
       1.798776e-07 5.4299864e-08 1.132199e-07 1.4125426e-08
0001e0 67 4e c1 33 a5 7b ce 32 2b 4e 51 34 ed d5 41 33
       9.001524e-08 2.4037783e-08 1.9493079e-07 4.513088e-08
0001f0 34 58 7a 34 4c fb bc 32 4a d2 eb 32 61 bb 80 34
       2.3315152e-07 2.2000357e-08 2.7453229e-08 2.3978194e-07

exp_avg f4 [2]
000000 cf ac 01 bb 21 d1 5a 39
       -0.001978684 0.00020868007

exp_avg_sq f4 [2]
000000 7c 3d 04 39 91 76 9c 34
       0.00012611406 2.9143533e-07

exp_avg f4 [48, 6]
000000 2f 02 d3 ba 8a 86 a1 ba ee 3b 95 ba c7 4c df ba
       -0.0016098673 -0.0012323421 -0.0011385658 -0.0017036431
000010 44 b9 ff 39 84 3b 5a bb 03 67 05 b9 ca 70 aa ba
       0.00048775424 -0.0033299634 -0.00012722243 -0.0013003584
000020 5b 38 10 b8 ea 9b b6 ba 43 27 01 ba 13 14 75 ba
       -3.438476e-05 -0.0013931964 -0.000492681 -0.00093489996
000030 34 95 f6 39 fa 27 23 b9 2a 9d 86 39 99 20 73 38
       0.0004703194 -0.00015559784 0.00025675568 5.7966074e-05
000040 7b 27 ed 39 70 4c 10 b9 86 d3 cf 38 87 b5 bb b7
       0.00045233578 -0.00013761385 9.9099285e-05 -2.2376667e-05
000050 2c 8a 5b 38 8e 84 cc 37 fb 19 fd 38 9a 67 38 b8
       5.234235e-05 2.438042e-05 0.00012068819 -4.3965505e-05
000060 50 61 01 38 5d e5 86 b6 e6 e2 4a b5 ca 60 e7 37
       3.0846626e-05 -4.0202126e-06 -7.5581045e-07 2.7582417e-05
000070 10 7b 61 38 87 ec e1 b7 5b 9c 72 b8 6e da 95 38
       5.375879e-05 -2.6932232e-05 -5.7842914e-05 7.145559e-05
000080 86 7a 0f b8 2f 93 48 38 fe e8 d2 38 cb 5c b6 b8
       -3.4207966e-05 4.782079e-05 0.000100569785 -8.69572e-05
000090 1a 53 26 36 a7 f4 c7 b6 50 fa 07 b6 3f 39 c3 b5
       2.47843e-06 -5.9591434e-06 -2.0262269e-06 -1.4545293e-06
0000a0 06 3c 07 b6 1d b8 c4 b5 90 70 9f 3a 66 9c c3 b9
       -2.0151506e-06 -1.4656722e-06 0.0012164284 -0.00037309824
0000b0 3e 87 86 3a 4a ee 3f b9 0c 5f 34 39 26 fb 2f 3a
       0.0010263694 -0.00018303949 0.00017201545 0.0006713144
0000c0 04 c5 42 ba 06 c6 91 b9 4c 77 10 ba 5b 61 f6 b9
       -0.00074298703 -0.00027804094 -0.00055109407 -0.00046993312
0000d0 5b 76 54 b9 6b 8a 56 ba a9 70 8c 3a fb 42 c9 ba
       -0.00020261986 -0.0008184078 0.0010714728 -0.0015355045
0000e0 bd a7 c7 3a 0b 3d 02 bb 47 2e 6c b8 93 c3 d5 b9
       0.0015232485 -0.001987281 -5.6309884e-05 -0.0004077224
0000f0 ba 08 37 b9 0d 35 88 b8 e3 0e 4c b9 7f 51 3c b8
       -0.00017455491 -6.494867e-05 -0.00019460502 -4.4898592e-05
000100 a7 ee 35 b8 88 a7 4d b9 4f b2 69 b8 a7 94 f2 b9
       -4.3376025e-05 -0.00019612734 -5.571759e-05 -0.00046268592
000110 34 28 69 b9 d3 36 9b b9 46 66 af b9 61 c9 40 b9
       -0.00022235588 -0.0002960475 -0.000334548 -0.00018385566
000120 8d 10 0e ba 35 fc c1 b8 22 ce dc b9 07 a4 5f b9
       -0.00054193364 -9.2499344e-05 -0.0004211525 -0.00021328042
000130 85 a5 15 38 6c aa 2f ba 48 e6 e6 39 29 8e d5 38
       3.567852e-05 -0.0006701115 0.00044040591 0.00010183111
000140 23 91 e9 39 a4 e2 ca 38 3d 57 1e 39 31 1e cd 39
       0.00044549358 9.674326e-05 0.00015100553 0.0003912314
000150 41 be 97 3b c9 4a 32 bc bd fc aa 3b 0b ea 3b bc
       0.0046308343 -0.010882088 0.005218117 -0.011469374
000160 78 ab 93 b9 9b 9c c3 bb ea c4 c6 b6 43 1c e3 b8
       -0.0002816578 -0.0059695966 -5.9237836e-06 -0.00010829468
000170 3e fb dd 35 79 00 f3 b8 72 12 d6 37 98 86 12 b9
       1.6538904e-06 -0.00011587231 2.5519377e-05 -0.00013973785
000180 b9 c6 3b 39 d5 56 f7 b9 ad 84 43 39 d3 35 fb b9
       0.0001790774 -0.00047176206 0.00018646075 -0.00047914553
000190 95 b0 91 3a 70 0d b8 ba c2 fb 48 ba 72 ec 1e bb
       0.0011115248 -0.0014042091 -0.00076669094 -0.002424982
0001a0 42 72 8f ba 3e 72 09 bb e6 58 6e ba 28 95 15 bb
       -0.0010944086 -0.0020972635 -0.00090922264 -0.00228245
0001b0 ad d7 18 39 ef 4c fb 38 0b b4 73 b8 8f b5 a9 39
       0.00014576195 0.00011982943 -5.8103393e-05 0.00032369464
0001c0 3e 87 d5 39 64 90 14 b9 86 0c a4 ba 32 37 ad 39
       0.0004072729 -0.0001416817 -0.0012515939 0.00033038255
0001d0 12 48 c6 ba a9 12 1b 3a ff 49 10 39 f8 c7 8a ba
       -0.001512768 0.00059155613 0.00013760476 -0.001058816
0001e0 9e 7b 0a 3a a2 aa 39 3a ff 16 f3 39 c9 9a 4a 3a
       0.00052827026 0.0007082616 0.00046365705 0.0007728753
0001f0 f7 87 7f b8 63 0f aa 3a de c7 dc 39 ea 7e 26 bb
       -6.0923365e-05 0.0012974556 0.00042110583 -0.0025405237
000200 4d 21 29 39 07 78 15 bb 20 37 2f b9 fa e4 ff ba
       0.00016129501 -0.0022807138 -0.00016709836 -0.0019523196
000210 23 44 a2 ba d4 a0 d2 ba ec dd 19 ba 01 fb 13 bb
       -0.0012379925 -0.0016069659 -0.0005869556 -0.002258003
000220 ee 1e 97 ba 0d c6 dd ba 67 ce b1 ba be e2 fc b9
       -0.0011529604 -0.0016919986 -0.0013565541 -0.00048234122
000230 55 4d 7b ba e0 c0 66 ba a3 86 75 ba 8f 87 6c ba
       -0.00095864135 -0.00088025443 -0.0009366071 -0.00090228854
000240 40 b4 e8 ba d0 51 e0 b8 e4 9f 92 ba f7 32 48 ba
       -0.0017753914 -0.00010696391 -0.0011186567 -0.0007636989
000250 9f 61 03 39 c9 92 03 bb f2 8c 59 bb 35 d1 be ba
       0.000125295 -0.0020076504 -0.0033195582 -0.0014558198
000260 bd f2 2d bb c9 02 0b bb 40 50 a6 ba 64 cd 65 bb
       -0.0026542388 -0.0021211377 -0.0012688711 -0.003506505
000270 7a a3 93 3a 32 00 cf 3a 1f 65 6e 3a 12 71 eb 3a
       0.001126393 0.0015792905 0.0009094048 0.0017962775
000280 93 8d 01 3a 70 ee 10 3b 5a 4b 42 ba 48 71 f7 ba
       0.00049420557 0.0022114776 -0.0007411741 -0.0018878365
000290 88 8e 13 ba d6 67 07 bb 63 27 42 ba 3b 83 f7 ba
       -0.0005628844 -0.0020661256 -0.0007406382 -0.0018883714
0002a0 37 6d 0f b9 3d 73 bb b7 68 05 b2 b9 28 2f 3d 39
       -0.00013678228 -2.23458e-05 -0.00033954834 0.00018042012
0002b0 9e 66 2b 39 21 21 a9 b9 2d 1c 3c 3b 03 99 14 ba
       0.00016346059 -0.00032258875 0.0028703318 -0.00056685525
0002c0 fb 29 02 3b 86 5f a6 39 f8 bd 47 38 f5 d6 13 3b
       0.0019861448 0.00031733158 4.762222e-05 0.0022558544
0002d0 bf e8 7e 3b 28 b1 6e bb 9d 8e 35 3b 04 57 25 bb
       0.0038896052 -0.0036421511 0.0027703412 -0.0025228867
0002e0 9e 7d 56 3b 08 46 46 bb 04 4f 9c b5 31 73 c4 37
       0.0032728682 -0.0030254144 -1.1645902e-06 2.3418661e-05
0002f0 58 58 a4 38 ac 59 6b b8 05 6a 46 b8 8d e0 91 38
       7.836585e-05 -5.611188e-05 -4.7305617e-05 6.955965e-05
000300 95 43 9d 39 47 95 d7 3b 40 da 83 b9 23 a7 e9 3b
       0.00029995726 0.0065790745 -0.00025148876 0.00713052
000310 ef 6f 7b ba c2 6b 00 3c f7 dc bd ba 13 50 6c 3a
       -0.00095915695 0.007838191 -0.0014485408 0.00090146175
000320 83 77 cd ba 99 c2 85 3a e2 06 77 ba 40 3a cf 39
       -0.0015675876 0.0010205089 -0.0009423328 0.00039525516
000330 8f 9d d0 bb 6a 37 60 3b 8a bf a4 bb 59 7b 08 3b
       -0.0063664387 0.0034212717 -0.005027716 0.0020825474
000340 48 ad 50 bb ed 98 7a 39 b8 d4 7f 3b b1 09 15 bb
       -0.0031841565 0.00023898827 0.0039036702 -0.0022741372
000350 59 fe 8c 3b c0 31 2f bb f3 d3 a6 37 a4 fa d2 3a
       0.0043027815 -0.0026732534 1.9887439e-05 0.0016096425
000360 f3 c6 f7 39 d7 79 9f b8 93 2f c1 39 a4 8d eb 37
       0.0004725974 -7.604405e-05 0.00036847274 2.808014e-05
000370 c5 8e f5 39 3f 99 96 b8 87 9c 8f b9 a4 77 96 3b
       0.00046836413 -7.181102e-05 -0.00027391707 0.004591899
000380 23 d2 4e 3a 28 47 67 3b db 0a 0a 32 cc 7d 8d 3b
       0.0007889589 0.0035290215 8.0351255e-09 0.0043179747
000390 76 cf f8 ba 8e 7d 04 bb e5 52 26 ba 86 50 57 bb
       -0.0018982727 -0.0020216438 -0.00063447497 -0.0032854392
0003a0 81 1a 39 bb 80 95 8f ba ae 45 2d bb d4 ce 23 3b
       -0.0028244557 -0.0010954589 -0.0026439237 0.0024995105
0003b0 3d d1 29 bb 5e 5a 20 3b e1 a5 db bb 6a ea d6 3b
       -0.002591207 0.0024467926 -0.006703124 0.006558706
0003c0 1d 0f 7f ba 85 4a 9a ba 00 11 22 ba 9a c9 c8 ba
       -0.000972973 -0.0011771476 -0.0006182343 -0.0015318871
0003d0 59 99 28 39 9d 72 17 bb 5a 7c 76 3b 29 da db bb
       0.00016078855 -0.0023109086 0.003761074 -0.0067093563
0003e0 fc cc 91 3b f9 68 f2 bb ad c2 63 3a 9b 28 7a bb
       0.004449485 -0.0073977676 0.0008688372 -0.0038171175
0003f0 de 4f 9f b9 87 f5 1f ba 58 a8 c4 b9 48 49 0d ba
       -0.0003038635 -0.0006101955 -0.0003750946 -0.0005389643

exp_avg_sq f4 [48, 6]
000000 17 7a 98 3a 30 6f 80 39 8e 60 5f 3a 8d 4b d5 39
       0.0011633065 0.00024496904 0.00085211627 0.00040682816
000010 9f 9c 96 39 7b 45 8a 3a da 6a 9b 36 31 01 91 38
       0.0002872692 0.0010549271 4.631799e-06 6.914361e-05
000020 4f 65 cb 35 cd 18 ac 38 49 2b 44 38 12 9f 8b 37
       1.5154163e-06 8.2062186e-05 4.6770354e-05 1.6644164e-05
000030 38 1d ec 37 23 68 95 37 c0 79 53 37 b4 83 02 38
       2.8146998e-05 1.7810677e-05 1.2604927e-05 3.1117073e-05
000040 2e e4 fe 37 27 b1 69 37 c8 93 3c 36 be cd e9 35
       3.0385414e-05 1.3929129e-05 2.8100203e-06 1.7419732e-06
000050 01 04 32 36 05 80 f5 35 99 ce d3 36 07 2e 30 34
       2.6526398e-06 1.8291181e-06 6.312341e-06 1.6408022e-07
000060 c9 c8 1e 38 81 cd d0 34 0e 6e 07 38 6e 31 a5 35
       3.785713e-05 3.8892543e-07 3.2289005e-05 1.2307844e-06
000070 70 35 25 38 7a 0f 8a 34 a5 68 8a 34 dc a5 de 36
       3.9388833e-05 2.5715764e-07 2.5780642e-07 6.635424e-06
000080 0b 3c 11 35 01 0b ad 36 5e 6e c0 35 71 bd 7f 36
       5.4104083e-07 5.157083e-06 1.4337236e-06 3.810823e-06
000090 af b8 ee 35 13 15 1a 33 d0 8c e0 35 88 a6 64 33
       1.7786132e-06 3.5875086e-08 1.6730282e-06 5.3236846e-08
0000a0 02 7a 0e 36 09 16 83 31 b8 1d fc 38 c0 7e ff 37
       2.1230667e-06 3.815107e-09 0.00012021832 3.0457391e-05
0000b0 0c b1 b8 38 1d 35 3c 38 19 b4 ef 37 bc 49 ee 38
       8.806781e-05 4.487216e-05 2.8574885e-05 0.000113624585
0000c0 f7 63 b2 39 d8 d1 91 37 f0 87 88 39 d3 a2 2d 38
       0.00034025285 1.7383063e-05 0.00026041223 4.1398056e-05
0000d0 81 29 8e 38 4d 46 5a 39 74 49 a4 38 dd bb 6f 3a
       6.778818e-05 0.00020816289 7.833811e-05 0.000914512
0000e0 e2 45 30 39 2e 58 30 3a c3 35 9e 39 35 77 ff 39
       0.00016810701 0.0006727007 0.00030176164 0.00048726206
0000f0 46 4d a9 38 8a 3e db 35 48 59 6d 38 73 9f 00 37
       8.072941e-05 1.6334973e-06 5.6588353e-05 7.666519e-06
000100 ba 81 42 38 e0 8b 54 37 72 bc 66 35 99 ac 1b 37
       4.637402e-05 1.2668752e-05 8.59559e-07 9.278906e-06
000110 f0 3b 0e 36 3f 28 d4 36 e4 cb a9 36 f8 2b 58 36
       2.1194537e-06 6.3227776e-06 5.0603285e-06 3.2212101e-06
000120 6b b9 1f 38 1d a6 75 35 16 73 01 38 9e 65 67 36
       3.8081238e-05 9.151134e-07 3.086318e-05 3.4480831e-06
000130 db 10 12 37 cd 81 b3 37 8c 2e 85 37 cc e2 04 38
       8.706203e-06 2.1398906e-05 1.587651e-05 3.1682473e-05
000140 bf 84 69 37 60 94 0d 38 5f fb 72 37 63 7c 0a 38
       1.391879e-05 3.3755205e-05 1.4482851e-05 3.3017608e-05
000150 be 72 c0 3b 85 94 94 3a 5a 66 92 3b 4a fb b4 3a
       0.0058730533 0.0011335766 0.0044677677 0.00138078
000160 c6 5c 09 3b 4d c2 73 3b 64 d0 d1 35 4a 9f 4f 36
       0.0020959838 0.003719467 1.5632363e-06 3.0938122e-06
000170 77 64 43 34 ff 32 d3 36 b2 90 7d 33 5a 70 ef 36
       1.8197339e-07 6.2942268e-06 5.9037752e-08 7.1358345e-06
000180 4a 6b 37 3a a9 5c 0f 3a aa e8 1c 3a 4d 64 22 3a
       0.00069968833 0.00054688245 0.00059855974 0.00061947556
000190 a6 64 9a 39 ac 5d 88 3a da 1c 71 38 6a 4f ab 39
       0.00029448158 0.0010403893 5.7485748e-05 0.0003267483
0001a0 ca 0b 7a 38 47 52 a5 39 51 60 1c 39 97 c4 37 39
       5.9615624e-05 0.00031532554 0.000149132 0.00017525475
0001b0 37 84 a8 38 f2 b0 77 36 15 08 8c 38 51 61 2b 37
       8.035491e-05 3.6908864e-06 6.6772256e-05 1.02150525e-05
0001c0 cc ec f8 37 23 f2 68 38 0e 86 53 39 41 ad f8 39
       2.9674171e-05 5.5538618e-05 0.00020172467 0.0004743133
0001d0 07 88 96 39 e1 23 b8 39 e9 2a 8a 39 b2 3b c8 39
       0.00028711578 0.00035121947 0.00026353382 0.0003819145
0001e0 1c ea b1 39 e1 9d a3 39 18 e8 cc 39 24 1a 89 39
       0.00033934496 0.00031207412 0.00039082835 0.00026150153
0001f0 2e 50 2e 39 17 0c 0d 3a 9e 7b 37 3a e9 70 22 3a
       0.00016623802 0.00053805247 0.00069993164 0.00061966345
000200 7b 15 80 39 46 17 50 39 50 62 cb 37 85 c8 1f 38
       0.00024430067 0.00019845096 2.4245266e-05 3.8095302e-05
000210 de aa 96 3a a9 aa 4a 3a 04 53 3e 3a 9b 05 9c 3a
       0.0011495014 0.0007731119 0.0007260295 0.0011903526
000220 97 59 7d 3a c1 b2 74 3a 92 f7 32 39 fd 7b b4 35
       0.0009664534 0.0009334498 0.0001706763 1.344713e-06
000230 ca 02 01 39 cd 8f d5 36 7c 96 a4 37 56 f5 b9 38
       0.00012303438 6.3646353e-06 1.9620398e-05 8.867185e-05
000240 4e 27 28 3b d6 8f 76 37 6e c4 da 3a af 26 32 38
       0.0025658193 1.4696232e-05 0.0016690621 4.2474534e-05
000250 23 70 8e 39 a8 72 7e 3a 54 90 06 3a 76 92 bf 3a
       0.000271679 0.0009706416 0.0005133201 0.0014615792
000260 dc a3 4b 39 ec ee 4a 3a 8b e0 7d 39 34 3a 4f 39
       0.00019420631 0.00077412906 0.00024211609 0.0001976274
000270 0b a8 a7 38 df ad 24 3a 05 c7 dc 38 00 27 11 3a
       7.994481e-05 0.00062820123 0.00010527488 0.00055371225
000280 0c 24 7d 37 82 87 69 3a 19 44 88 39 97 d3 8f 3a
       1.5088368e-05 0.0008908437 0.00025990678 0.0010973093
000290 b5 e7 f3 39 d4 13 47 3a c9 6c ce 39 5c 7a 62 3a
       0.00046521207 0.0007594202 0.00039372433 0.0008639449
0002a0 19 ce b4 37 87 5c 60 36 30 0a 84 37 6b a3 22 36
       2.1553644e-05 3.343246e-06 1.574037e-05 2.4235003e-06
0002b0 10 69 51 36 27 bb 4a 37 ea 15 ca 3a c8 c6 83 38
       3.1204581e-06 1.2083713e-05 0.0015417908 6.283593e-05
0002c0 77 91 2e 3a 1d f4 2a 39 ff 87 62 39 18 77 16 3a
       0.0006659249 0.00016303403 0.00021603702 0.0005739792
0002d0 92 36 d0 3a e5 6e 41 3a d3 85 b6 3a 0d 56 55 3a
       0.0015885404 0.00073788903 0.0013925381 0.0008138128
0002e0 08 83 5a 3a 1d 85 b6 3a 89 bc 02 37 9e 22 76 37
       0.0008335565 0.0013925169 7.792501e-06 1.4670803e-05
0002f0 64 79 3e 37 40 6e 26 37 4e 52 bd 36 e4 4a 90 37
       1.1353146e-05 9.920041e-06 5.6422205e-06 1.7201011e-05
000300 3c b9 bf 3b 6a e0 31 3a 24 0e 90 3b 60 c3 66 3a
       0.005850939 0.00067854545 0.004396217 0.0008802917
000310 36 f1 28 3b ac 19 3a 3b 55 b8 ea 38 7d 3a fe 38
       0.0025778539 0.002839665 0.00011192324 0.00012122558
000320 12 19 dc 38 0f 30 05 39 0c a2 23 39 95 29 6d 38
       0.00010495087 0.00012701772 0.00015605259 5.654393e-05
000330 5a 2b 99 3b 2c 3a f6 3a 43 db 71 3b dc 76 08 3b
       0.0046743574 0.0018785647 0.0036904372 0.0020822799
000340 78 1d 0b 3b f4 c6 65 3b be 39 37 3b 71 02 35 3b
       0.0021227282 0.0035061212 0.0027958 0.0027619863
000350 a1 70 33 3b 44 5d 30 3b bc 6c 25 3b c6 2f 43 3b
       0.0027380364 0.002691106 0.0025241813 0.0029783114
000360 70 69 40 38 6e 0f 4a 36 e9 49 16 38 86 06 f5 36
       4.5874564e-05 3.0109327e-06 3.583162e-05 7.3023284e-06
000370 42 f8 5c 38 4c 1b c6 35 81 13 43 3a 1d 4b 02 3c
       5.2683296e-05 1.4760094e-06 0.0007441566 0.007952479
000380 6b 8e c8 3a 63 e6 c1 3b 79 ef 2c 3b b4 9e 8c 3b
       0.0015301233 0.005917357 0.0026387854 0.00429138
000390 f7 b0 57 3b c2 fb 33 3b 95 39 17 3b 83 e4 75 3b
       0.0032911876 0.0027463292 0.0023075093 0.0037520237
0003a0 84 39 47 3b 40 df 42 3b 67 79 2b 3b 36 7b 85 3a
       0.0030399272 0.0029735118 0.002616489 0.0010183814
0003b0 3d 1a f9 3a e5 45 96 3a 5a a3 4f 3a 25 1d f3 3a
       0.0019005012 0.0011464922 0.00079207646 0.0018548114
0003c0 d9 84 af 3a 90 e4 8b 39 41 46 94 3a e9 ff c0 39
       0.0013391032 0.00026682438 0.0011312441 0.00036811762
0003d0 e2 c9 cd 39 91 cb 90 3a 40 02 b6 39 50 1b b8 3b
       0.0003925106 0.0011046996 0.00034715421 0.0056184903
0003e0 62 f6 5b 3a c8 0e 81 3b 23 68 15 3b 88 59 16 3b
       0.0008390901 0.0039385296 0.0022797666 0.0022941548
0003f0 36 98 f3 39 69 82 ef 38 04 e8 af 39 59 2f 4d 39
       0.00046461978 0.00011420699 0.00033551466 0.00019567962

exp_avg f4 [48, 16]
000000 9c 89 3f 3b b5 47 7b 3b c3 98 02 ba 21 78 5c bb
       0.0029226309 0.0038342301 -0.000498187 -0.0033640938
000010 42 1a 46 bb 6c 7f ef 3a 3f 91 7e 3a 79 a6 66 3a
       -0.0030228053 0.0018272228 0.00097109744 0.000879861
000020 d8 93 3c bb 25 96 03 ba 64 94 3f bb ae df 34 bb
       -0.0028774645 -0.00050196267 -0.0029232735 -0.0027599144
000030 83 24 58 3b a8 29 61 3a fc fe 6d ba 92 ac 5f bb
       0.0032980747 0.0008589276 -0.0009078828 -0.003412996
000040 19 95 2b 3b f2 49 45 3b ad b6 13 ba 77 23 32 bb
       0.0026181398 0.003010389 -0.0005634826 -0.0027181783
000050 4d 31 5e bb 6d 5a 00 3b f1 8a 65 3a 7f c1 b3 3a
       -0.0033903897 0.0019585148 0.00087563606 0.0013714283
000060 ff f1 3d bb 25 2e 1e ba b8 04 5a bb f3 35 19 bb
       -0.0028983352 -0.0006034098 -0.0033266973 -0.0023378104
000070 cc 74 6a 3b 07 fd b7 39 86 e2 48 ba cb eb 71 bb
       0.0035775183 0.00035093 -0.0007663149 -0.0036914225
000080 fd c6 8d ba b3 cc 84 b9 f4 89 2c ba f9 81 d4 b9
       -0.001081675 -0.00025329515 -0.0006581836 -0.00040532628
000090 2c 1e ba 3a 51 89 03 bb 48 d3 64 3a f5 14 d3 b9
       0.0014199666 -0.002007086 0.0008728993 -0.0004026067
0000a0 a7 07 a7 3a a2 a1 97 3a 89 f0 ab 3a 02 18 94 3a
       0.001274337 0.0011568556 0.001311795 0.0011298659
0000b0 8f 0c b7 39 ee ff 50 b9 fc 02 b0 3a 80 e0 aa 3a
       0.00034913837 -0.00019931767 0.0013428624 0.0013036877
0000c0 f2 d1 72 39 b4 0b 9e 39 95 f2 24 39 77 db 2d ba
       0.00023157129 0.00030144828 0.00015730628 -0.0006632129
0000d0 57 a9 9d 38 a9 99 e5 38 22 20 2f 3a cc 75 dd 38
       7.5178854e-05 0.00010948192 0.00066805084 0.000105600426
0000e0 13 ee f0 38 10 ff b5 38 f6 70 a5 b3 35 16 55 39
       0.000114884366 8.678262e-05 -7.703959e-08 0.00020321536
0000f0 96 5e 1f 3a 47 cc 8b 39 ee 47 18 b9 11 42 81 b9
       0.0006079463 0.00026664344 -0.00014522646 -0.0002465402
000100 4c 76 76 3b d1 ec 71 3b 3d 42 3f b9 df ad 6a bb
       0.0037607132 0.0036914835 -0.00018239855 -0.0035809202
000110 2e cb 7a bb ec a3 42 3b 89 53 95 3a d8 bd de 3a
       -0.0038268077 0.0029699756 0.0011392693 0.0016993834
000120 b2 ca 67 bb 25 ed 31 ba da 9b 79 bb 33 c6 5c bb
       -0.0035368619 -0.00067873514 -0.003808728 -0.0033687472
000130 3b 04 7a 3b 96 c3 a1 3a 37 37 dc ba 40 5d 88 bb
       0.0038149494 0.0012341614 -0.0016801123 -0.004161507
000140 e3 ed 53 39 4c fd 37 3a cb 0b a5 38 f9 30 86 b9
       0.00020211148 0.000701864 7.87001e-05 -0.0002559496
000150 6a 12 b9 b5 26 31 d1 b9 3d ec 76 39 98 44 8f b9
       -1.3788933e-06 -0.00039900205 0.00023548394 -0.00027326192
000160 c3 20 a0 b9 07 cf 42 b9 6d 3e 02 b8 c1 5a 25 b8
       -0.00030541988 -0.00018578405 -3.1052554e-05 -3.9423587e-05
000170 00 2b 48 39 cd 45 a8 b9 3d 24 b7 37 25 91 ab b8
       0.00019089505 -0.00032095463 2.1832175e-05 -8.180951e-05
000180 36 cf 35 b9 bc 4d 49 b9 a4 2f b9 37 58 d9 37 39
       -0.00017338697 -0.00019197812 2.2075903e-05 0.00017533207
000190 5b c8 1b 39 22 3c 47 b9 e9 e7 8b 38 3a fa 0a b9
       0.0001485659 -0.0001900052 6.671233e-05 -0.00013253922
0001a0 b3 bc 24 39 b6 ef 7d b6 bd 84 bd 38 32 10 2c 39
       0.00015710555 -3.7839468e-06 9.036947e-05 0.00016409231
0001b0 78 ec 9f b9 f3 f5 a3 b7 a4 cf 18 39 bb b8 37 39
       -0.00030503026 -1.9545643e-05 0.00014573202 0.00017521057
0001c0 02 57 86 ba 1e 13 fe 39 c4 17 d0 ba f7 77 c5 ba
       -0.0010249319 0.000484609 -0.0015876223 -0.001506566
0001d0 8d 84 9f 3a cf cb e3 ba dd 08 22 3b f4 f6 2d 3a
       0.001217024 -0.0017379465 0.0024724521 0.0006636225
0001e0 80 ea bb 3a bf 34 6d 3a 55 0c 88 3a 3a 72 bf 3a
       0.0014336854 0.00090486923 0.0010379652 0.0014606186
0001f0 28 ea 35 3b 9b 04 29 3a 7b c6 ae 3a 36 92 76 3a
       0.0027757976 0.00064475246 0.0013334298 0.00094059424
000200 0a ae 61 3b e2 af 4e 3b 10 b8 84 39 f7 3d 1e bb
       0.003443601 0.003153794 0.0002531414 -0.002414582
000210 13 ca 70 bb 34 82 50 3b 7a e7 ec b9 e9 86 0f 3b
       -0.003674154 0.0031815888 -0.0004518589 0.002190048
000220 8c 99 65 bb c7 80 73 ba 25 a9 69 bb 7a 0d 4b bb
       -0.0035034148 -0.00092889037 -0.0035653797 -0.0030983374
000230 df ed 40 3b ca 13 41 3a 6a 45 12 bb 56 de 7a bb
       0.0029438657 0.00073653145 -0.0022319206 -0.0038279495
000240 d5 8d ac ba bb 68 e8 3a 59 58 cd ba c7 f5 d2 ba
       -0.0013164828 0.0017731407 -0.0015666588 -0.0016094976
000250 f8 9f 1b 3b c5 18 40 bb 57 06 e4 3a c3 f9 03 39
       0.0023746472 -0.0029311639 0.0017396909 0.00012586177
000260 91 45 b8 3a eb 1d 75 3b 4f d5 18 3b 9b 59 02 ba
       0.0014058818 0.0037401866 0.0023320501 -0.00049724587
000270 49 c8 83 3a ce 3e 04 3a e0 7f 27 b8 9d cf 2f 3b
       0.0010054196 0.0005044759 -3.9934996e-05 0.0026826628
000280 8c 7e b6 3a af ad b4 3a ed 67 c0 38 af 3b 2e ba
       0.0013923212 0.0013784672 9.174631e-05 -0.0006646467
000290 ef 38 02 bb da 44 ab 3a a7 2b 49 ba 3f 97 e2 39
       -0.001987036 0.0013066784 -0.0007674046 0.00043218766
0002a0 2d b6 11 bb 82 63 2f ba 41 48 e4 ba cc d2 f6 ba
       -0.002223383 -0.0006690548 -0.0017416553 -0.0018831133
0002b0 69 55 29 39 1f 54 7b b8 06 45 23 ba f5 d3 f2 ba
       0.00016148914 -5.9921407e-05 -0.0006228242 -0.0018526303
0002c0 c1 5f 76 39 0e ae d7 38 1d 5a ed b8 ba 98 58 b7
       0.0002349606 0.00010284419 -0.000113178256 -1.2910163e-05
0002d0 da f2 3b ba 1d f8 c1 39 71 d1 c1 b9 61 6e 5c 38
       -0.00071696716 0.00036996687 -0.00036967875 5.2554886e-05
0002e0 4c 0c c4 b9 bd e9 bf b9 71 38 46 ba d6 db d7 b9
       -0.00037393195 -0.00036604507 -0.0007561511 -0.00041171786
0002f0 a3 91 2e 39 3f f4 a8 b8 89 b2 c5 b8 7b 12 21 ba
       0.00016648187 -8.056359e-05 -9.426947e-05 -0.00061444164
000300 62 75 f7 3a 3e e7 e1 3a f1 14 d0 39 99 a6 88 ba
       0.0018879587 0.0017235053 0.00039688454 -0.0010425627
000310 64 8f f4 ba 67 db d0 3a a5 48 7a ba cc 8c a8 3a
       -0.0018658456 0.0015934528 -0.0009547568 0.0012859344
000320 0c 99 c8 ba c6 00 00 39 21 6a de ba f4 09 ef ba
       -0.0015304401 0.0001220732 -0.0016968885 -0.0018237219
000330 f0 94 c1 3a 72 fc 10 b9 f6 49 bb ba aa cd 01 bb
       0.0014769118 -0.00013826953 -0.001428901 -0.0019806423
000340 53 e8 9b bb d1 1e 89 bb e8 d8 bc ba 83 8b b0 3a
       -0.00475792 -0.004184582 -0.0014407905 0.0013469312
000350 d2 47 b2 3b f9 f8 b7 bb 24 04 84 3b 73 3e 0e bb
       0.0054406906 -0.0056143967 0.004028814 -0.0021704703
000360 11 82 b4 3b 10 91 34 3b 6a 98 a5 3b c1 2e b6 3b
       0.005508669 0.0027552284 0.0050535696 0.0055597727
000370 87 6b 86 3a 49 58 14 3a 49 3c 1e 3b 3d 9f b4 3b
       0.0010255434 0.00056589075 0.002414482 0.0055121467
000380 5f d4 c9 3b ca 66 5a 3c d6 20 89 bb db 37 70 bc
       0.00615935 0.013330171 -0.0041848226 -0.0146617545
000390 0f db ce bb 22 3a 44 3b 78 ee d1 3b 40 e2 13 3c
       -0.006312735 0.0029941876 0.0064066015 0.00902611
0003a0 4a e8 b1 bb 97 85 36 3b 92 fd cd bb f3 a7 af bb
       -0.0054293023 0.0027850622 -0.0062863315 -0.0053605973
0003b0 32 d5 8a 3c 49 40 8f 3b 23 06 ed bb 35 9e eb bb
       0.016947363 0.004371677 -0.0072333976 -0.0071904906
0003c0 58 20 95 39 eb 03 66 39 b3 fc 00 39 30 5c af b9
       0.00028443593 0.00021935969 0.00012301169 -0.00033447286
0003d0 9b a1 7f 39 78 16 8a 38 74 28 26 39 b7 44 a1 b7
       0.00024378898 6.584538e-05 0.00015846064 -1.9224693e-05
0003e0 f7 e2 0c b9 eb 30 d7 38 ce 34 49 39 a9 b6 bf b9
       -0.00013435991 0.000102611106 0.00019188525 -0.0003656645
0003f0 c0 b6 5c 38 3c 90 b6 38 00 48 aa b9 8d 86 89 39
       5.2622287e-05 8.705302e-05 -0.0003247857 0.00026230924
