saved_models/LS0_GRU_HS=8_N=1_ZP0/checkpoint499.pth (torch, 11440 bytes, 18 tensors)

trial_output.weight f4 [2, 8]
00000000: c961 253f c819 2d3f 6e9b 71bf a888 58bf
00000010: bbb1 603f ef8a 5dbf 2892 3fbf 088c 553f
00000020: 51ab b73d c620 e73e 7c22 c8bc 5860 b03d
00000030: 44f9 1d3f 7328 2c3f f867 373f f972 3a3d
0.64602333 0.67617464 -0.9437779 -0.8458352 0.87771195 -0.8654012 -0.7483239 0.83416796
0.08968223 0.45142192 -0.024430506 0.08612126 0.61708474 0.6724922 0.7164302 0.045519803

trial_output.bias f4 [2]
00000000: c214 8cbe 2ee9 a5be
-0.27359587 -0.32404464

rnn.weight_ih_l0 f4 [24, 4]
00000000: 6c36 1b3c 568f 053f c515 b7bd 5e4c 4c3e
00000010: 3e5b 6a3f c15d c8be 722e 2d3f a82a babe
00000020: 52ec 60bf cad2 713e 79a1 9e3f 0531 51be
00000030: 422e 8ebe aefa 843c 087e 0c3f b58f a53e
00000040: 8a4c fa3e 70cb d9bd 20f9 993d b578 823e
00000050: 347a 1d3f 25c2 d2be 4b93 5e3f 2cce 30bf
00000060: 101d 033c d150 a23d df26 69be 119e 323f
00000070: b697 6ebe b964 023f 46ec 913e 26fb 39bd
00000080: 44cd 353f e07d b6bf 032b 5c3f 1808 67bf
00000090: 6c40 123f 49c2 65bf 2a48 6e3f 9193 81bf
000000a0: b431 96bf 1552 803f 638b 623f 948f 7fbf
000000b0: 68c5 7fbf bffc 9e3f ca82 003f 0f80 66bf
000000c0: f17f 7b3f f0b2 a3bf 43e2 f03e f206 60bf
000000d0: a05f a13f 2f9a afbf 61c7 2c3f e40f 50bf
000000e0: 2740 6cbf 9c03 883e 3156 3f3f 795b 91be
000000f0: 4b9b 9bbf d462 513f c44c 533f 3f1b 38bf
00000100: e389 3fbe 6a53 853e 6e52 07bf ef04 093f
00000110: 7260 15bf c187 433e b64e 75bf 9873 513e
00000120: 4743 e33e 93ce a7be 0a37 51bf 993c 423f
00000130: a85d a63e 9e12 e0be bb5e 82bf cba0 093f
00000140: 16f0 b2be 5efa 943e 75ed 8ebf c135 333f
00000150: a533 fc3e eac9 f4be 99d8 163f 7f44 86bf
00000160: cf4f 32be 6bd1 f9be 3729 39bf 12dc d1bd
00000170: 040c d8bd a9b0 fc3e 9dd9 6a3f 4ed3 e7be
0.009473424 0.5217184 -0.08939699 0.19951007 0.91545475 -0.3913403 0.67648995 -0.3636067
-0.87860596 0.23615566 1.2393028 -0.20428856 -0.27769667 0.016232815 0.5487981 0.32336202
0.4888652 -0.10634506 0.0751822 0.25482717 0.6151459 -0.41163746 0.869435 -0.69064593
0.0080025345 0.07925571 -0.22768734 0.6977244 -0.2330006 0.5093494 0.28500575 -0.04540553
0.71016335 -1.4257164 0.8600313 -0.90246725 0.5712955 -0.8974958 0.93078864 -1.0123159
-1.1733918 1.002505 0.8849394 -0.9982846 -0.99910593 1.2420882 0.5019957 -0.9003915
0.982421 -1.2788982 0.47047624 -0.875106 1.2607307 -1.3718928 0.6749173 -0.8127425
-0.9228539 0.26565254 0.7474089 -0.283901 -1.2156767 0.81791425 0.8253901 -0.71916574
-0.18704943 0.26040202 -0.5286015 0.53523153 -0.5835029 0.19094755 -0.9582323 0.20454252
0.44387266 -0.3277479 -0.8172461 0.75873715 0.3249333 -0.43764204 -1.018516 0.53760976
-0.34948796 0.29097265 -1.1166216 0.70003897 0.49258152 -0.47810298 0.5892425 -1.0489653
-0.17413257 -0.48792586 -0.72328514 -0.10247053 -0.10549167 0.4935353 0.917383 -0.452784

rnn.weight_hh_l0 f4 [24, 8]
00000000: c946 8bbe 1c5a 2cbf 9b63 e23d ad6e 61be
00000010: 0901 873c 1099 b3be 4e11 e93d f654 f0bd
00000020: 9c24 9d3c b6c1 3b3e 66ab fe3e 0521 3dbe
00000030: 1410 7c3d edf2 9b3e 6177 bfbd 3150 f2be
00000040: a92b 793e 9277 a9be a17b 293e b515 703e
00000050: 6ae3 3e3e aa59 a4be 64ec 18bd 2460 9bbe
00000060: 47e5 943e 694c a6be 887e 8ebe 98c1 0a3e
00000070: d01f edbd 7134 3bbf a658 05be c605 96bd
00000080: 5a10 8dbd 7c09 8ebd 51e4 063e 4de4 823e
00000090: 8143 7a3e c847 70bf 8d8e 2e3e 6f04 aabe
000000a0: 6d0f 4fbe 65c3 b13e dac6 f53d 041f 3cbd
000000b0: db64 6bbd 8f73 c33e acec 8abe 7bc5 78bd
000000c0: 8f2e 733d 61b6 2bbe 17cb 30bd 246e b1bd
000000d0: 60ef ae3d a8cb b4bd 1fa2 bdbe 706e fe3c
000000e0: c79e 253e ff99 84be 6383 cd3e b015 9a3d
000000f0: d46c 3bbe 1147 c7be 3a37 6dbe c55a 21be
00000100: 7da0 493e d950 29be 88a9 4d3e 26cc fc3d
00000110: 6cea d83d e3a2 593e fad1 51be 7e4e 77be
00000120: 5baf f8be 4427 8f3e b7a7 acbd c0b7 173e
00000130: 7910 a4bc 9394 ed3e 89bf 073e dd35 be3d
00000140: 3629 c63d a4b8 d2be 68d7 4ebf 0b11 863e
00000150: ada9 a43d 9b0b 0abe 813f abbd 9f74 f83d
00000160: 1a02 c4be 5c3b fdba 67f3 53be 79f6 35bf
00000170: 33f7 783e 0de2 5c3d 350c 313e ba5e 893d
00000180: 2c2e 52bd e38f 35be f41c 07be 85f3 32be
00000190: c1bf cf3e 3617 f83e d0c2 223e c14a 25bd
000001a0: 279a 69be db67 01be 86b2 873e 699e 323e
000001b0: c357 cd3d b427 dabe 7ece 77bc 3be3 30be
000001c0: d2b4 a0be 2f39 d73c 4304 88bd 93c8 9d3e
000001d0: bd9c e13d e38a bd3e 6635 28bf 6b14 f0be
000001e0: 24ff 93be bc8b 1bbd 2fdd f73c b294 a23c
000001f0: ec20 023e 3417 b6bd 4224 163c a6af 413f
00000200: 5b84 933e 4739 bc3e 1abe 98be 8f68 b7be
00000210: 40a5 b93e 3564 5dbe ac13 d73e 993f 933e
00000220: 1b61 bb3e a7c5 ca3e 723a 36be ac76 0fbe
00000230: ed9b ff3d 19ad 5cbd 2a89 b43e 6026 50be
00000240: 604f 18bd b901 82be e358 2d3e 270a 9c3e
00000250: ab98 193e 7d9c 283d 39dc d43e 6ae7 f2be
00000260: 5294 93be 554d 3abe d109 113e cb5d ae3b
00000270: 2191 043d 48e9 c73e 0225 d73e af3a afbd
00000280: aa4e 8e3e 06fb b53e cbea 48bd f722 0cbf
00000290: 7ff5 193e 27f2 f5be 6d59 70be e2aa f23e
000002a0: 8c47 213d d3bc aebe 4435 8e3d 0b7d d0be
000002b0: d322 35bf 0af4 e43d 3c83 06bd b31e 613e
000002c0: b2b2 b5be b371 3bbe 1dd9 c03e 88f0 ce3e
000002d0: 714c 873d 5222 0abd b41c 4c3d 397e 0cbf
000002e0: 03d4 21be efc8 6b3e edf5 0dbe 6f67 09bf
000002f0: 6436 543d 0c7d f4be 9555 c0be 7de1 053e
-0.27202442 -0.67324996 0.110541545 -0.22014876 0.016479986 -0.35077715 0.11380254 -0.11734955
0.019182496 0.18335614 0.49740142 -0.18469627 0.06153877 0.30458775 -0.093489416 -0.47326806
0.24333061 -0.33099037 0.16551067 0.2344578 0.18641439 -0.32099658 -0.037334815 -0.30346787
0.29081175 -0.3248017 -0.2783091 0.13550413 -0.115783334 -0.73126894 -0.13022098 -0.0732532
-0.068878844 -0.06935403 0.13173033 0.25564805 0.24439813 -0.9385953 0.17046566 -0.33206508
-0.20220728 0.34719387 0.120008186 -0.045928016 -0.05746923 0.38174102 -0.2713369 -0.060735207
0.059370574 -0.16768791 -0.04316243 -0.08663586 0.08541751 -0.08827907 -0.3703775 0.03105852
0.1617385 -0.2589874 0.40139303 0.07523668 -0.18303233 -0.38921407 -0.23165599 -0.15757282
0.19690128 -0.16534747 0.20084202 0.12343626 0.105915874 0.21253543 -0.20490256 -0.24151036
-0.48571286 0.27959645 -0.084304266 0.14816189 -0.020027386 0.46402416 0.13256659 0.09287617
0.09675829 -0.41156495 -0.80797434 0.26184878 0.080401756 -0.1348099 -0.08361722 0.12131619
-0.38282853 -0.0019320059 -0.2069832 -0.7107921 0.24313049 0.053926516 0.17289813 0.06707521
-0.051313564 -0.1773067 -0.13194638 -0.17475708 0.40575984 0.4845521 0.15894628 -0.040354494
-0.2281271 -0.12637274 0.2650339 0.17443241 0.10026505 -0.42608416 -0.015124915 -0.17274182
-0.31387955 0.026272384 -0.06641438 0.30817088 0.110162236 0.37020025 -0.6570648 -0.46890578
-0.28905594 -0.037975058 0.030256836 0.019846294 0.12707871 -0.088911444 0.009163918 0.75658643
0.28811917 0.3676245 -0.29832536 -0.3582196 0.36258888 -0.21620257 0.42007196 0.2875946
0.36597523 0.39603922 -0.17795733 -0.14010113 0.12480912 -0.053876016 0.35260898 -0.20327139
-0.037185073 -0.2539194 0.16928439 0.30476496 0.14999644 0.041164864 0.41574267 -0.4744218
-0.28824097 -0.18193562 0.14163901 0.0053212396 0.03236497 0.39045167 0.42020422 -0.08556115
0.2779439 0.35543078 -0.04905204 -0.5474085 0.15035056 -0.4803631 -0.23471613 0.47395998
0.039374873 -0.34128436 0.06943753 -0.407204 -0.7075626 0.11179359 -0.03284 0.21984367
-0.35487896 -0.18305092 0.37665644 0.40417886 0.06606377 -0.033724137 0.04983206 -0.548801
-0.15803532 0.23025869 -0.13863344 -0.5367345 0.051809683 -0.47751653 -0.37565294 0.13074298

rnn.bias_ih_l0 f4 [24]
00000000: 7688 1f3d 6080 523e 6605 153f f8f3 7cbd
00000010: b043 6c3e 15b4 5ebe 9385 a53d 87f7 edbd
00000020: 3348 d1bd 78fe c7be 3b97 b6be 7ce1 e6be
00000030: 27fe e7bd c8af 60be 33df 15bf 78b5 f9bc
00000040: e693 15bf c4ea b33d 694f 4dbe 4e22 1fbe
00000050: b62e 07bf 0290 9b3e 0927 bdbd 7272 c0bd
0.0389485 0.20556784 0.5821136 -0.061756104 0.23072696 -0.21748383 0.08082118 -0.11619478
-0.10218849 -0.39061332 -0.35662255 -0.45093906 -0.113277726 -0.21942055 -0.585437 -0.030482039
-0.584288 0.08785012 -0.20049824 -0.1554043 -0.5280565 0.30383307 -0.09235961 -0.09396829

rnn.bias_hh_l0 f4 [24]
00000000: 6b00 403e 5d94 7b3d 1f11 a73c 4c5e 80bd
00000010: fe1b bf3b 8728 a73e 2564 2bbe 4261 d43e
00000020: 22cf 883e 56c5 33bd 952e e0be 0095 b8bd
00000030: 40bc a93d 66cb c63c 271a 89bc 1f8c c7be
00000040: 15fe 663d 8f52 1cbf edcc 3abf df21 f8be
00000050: 4d01 fcbe b104 193f 0e7d f6bc 872b ce3e
0.1875016 0.061420787 0.020393906 -0.06267986 0.0058321944 0.32648107 -0.16737421 0.41480452
0.2672053 -0.043889366 -0.4378554 -0.090127945 0.08287859 0.02426691 -0.016736103 -0.3897409
0.056394655 -0.61063474 -0.7296894 -0.48463342 -0.49219742 0.59772784 -0.030088928 0.40267584

exp_avg f4 [2, 8]
00000000: d616 afbb 5dc9 a3bb 12a6 e23b 26d3 ae3b
00000010: e413 e4bb 5155 0a3c 5dec b53a c67f 9bbb
00000020: 062c 273a 3c5d 92b9 724e 4f3a 360c c839
00000030: dd8e 8e3a 8a56 05bb 4fbd 8eba f574 ffb9
-0.0053432984 -0.0049983696 0.00691677 0.0053352294 -0.006960379 0.008443193 0.0013879646 -0.0047454564
0.00063771044 -0.00027916755 0.00079081126 0.0003815607 0.0010876317 -0.002034577 -0.0010890159 -0.0004872453

exp_avg_sq f4 [2, 8]
00000000: c3e5 5939 dd62 e138 92e9 4f39 567b 8e39
00000010: 7fe1 5739 520f c339 bf49 ba38 821b 6d39
00000020: 222d 7535 8d8a c036 4838 1135 e9e1 1935
00000030: d667 1937 6004 5136 21f6 0336 2c1a 1236
0.00020780326 0.00010747251 0.0001982807 0.00027176243 0.00020588002 0.00037204713 8.8829074e-05 0.00022612329
9.133529e-07 5.7381753e-06 5.409861e-07 5.7325684e-07 9.143687e-06 3.1145973e-06 1.9663787e-06 2.177093e-06

exp_avg f4 [2]
00000000: f718 c039 396c 973b
0.00036639694 0.0046210554

exp_avg_sq f4 [2]
00000000: 4c1b 4b38 fb17 a938
4.8424394e-05 8.063015e-05

exp_avg f4 [24, 4]
00000000: dbbc 0db8 e123 49b9 7de8 24b9 3455 8fb8
00000010: 8208 48b9 017b 2a39 ace5 d1b9 ec1e c339
00000020: ed7d 9bb8 57cc ed38 d93a 28ba a784 323a
00000030: ab46 e5b8 bc14 c238 120e a3b9 9641 9a39
00000040: e149 20b9 4a40 0737 41cb 7cb9 c8ea c938
00000050: f362 6a38 bb62 ccb7 57a8 13ba 70eb 1b3a
00000060: b85d 56b9 efa1 cd38 bb0f c7b8 394e 40b7
00000070: c9d3 28b9 3674 0e39 98d7 efb9 cfa7 e239
00000080: 360e 56ba e595 3c3a aa20 86b9 0b60 2639
00000090: 1e3b 48ba 3c29 3b3a e8de a7b9 24bb 8d39
000000a0: 1a56 a03a a4f7 b0ba e749 d5b9 c3c3 9239
000000b0: ec5d 623a 402a 7aba ebb8 13ba 2fd9 f739
000000c0: 662e 8bba 0e89 7f3a 8e1c dab9 1175 ac39
000000d0: 6087 99ba 64a2 903a 0f1c 0dba 34a4 f639
000000e0: b6b2 4039 58b1 02ba 14c0 ddb9 feda e238
000000f0: f8e2 853a d22e 8dba 849e d1b9 196f b439
00000100: 7760 4e39 6f61 c5b9 27ba d23a 7446 eaba
00000110: a6ce 673a c5d1 89ba 6804 983a dbee adba
00000120: 4cc2 c8ba 56bf df39 9523 d03a 077b 30bb
00000130: 2939 20ba 0df0 9e39 98b5 2a3b e1e5 3ebb
00000140: 306f 323a 0c4a 99ba e885 893a 5b98 c9ba
00000150: 3cfd 65b9 4b57 bd3a 1e63 ccba 607d 363b
00000160: 1a68 653a 641c a239 de78 943a f148 5838
00000170: 42f8 283a 631b 3fb9 d1b3 22bb 2b00 413b
-3.3792905e-05 -0.0001918222 -0.00015726867 -6.834642e-05 -0.00019076656 0.00016258286 -0.00040034705 0.00037216337
-7.4144315e-05 0.00011339102 -0.00064174604 0.0006809928 -0.00010932734 9.254503e-05 -0.00031100266 0.00029422034
-0.00015286311 8.0615955e-06 -0.00024108311 9.628158e-05 5.58821e-05 -2.436467e-05 -0.00056326896 0.00059478637
-0.00020443543 9.805324e-05 -9.4919895e-05 -1.1462304e-05 -0.00016100625 0.00013585467 -0.00045746262 0.00043231106
-0.000816557 0.0007193967 -0.00025582808 0.00015866772 -0.00076382037 0.0007139628 -0.000320188 0.00027033046
0.0012232692 -0.0013501537 -0.00040681587 0.00027993144 0.0008635211 -0.0009543039 -0.000563516 0.00047273326
-0.0010618686 0.0009747901 -0.00041601475 0.00032893618 -0.0011713319 0.0011034724 -0.0005382904 0.00047043117
0.00018377122 -0.0004985533 -0.00042295514 0.0001081731 0.0010214737 -0.00107714 -0.0003998169 0.0003441505
0.00019681627 -0.00037647362 0.0016077206 -0.001787378 0.00088427437 -0.0010514787 0.0011597993 -0.0013270037
-0.0015316694 0.0004267643 0.0015879745 -0.0026928799 -0.0006112033 0.0003031496 0.002604818 -0.0029128718
0.00068067294 -0.0011695041 0.0010492178 -0.0015380488 -0.00021933479 0.0014445571 -0.0015593504 0.0027845725
0.0008751169 0.000309202 0.0011327525 5.1566345e-05 0.00064456847 -0.00018225382 -0.0024826417 0.0029449563

exp_avg_sq f4 [24, 4]
00000000: c72f 6534 d4d2 6e35 1e23 2534 3387 5d35
00000010: 00c2 4c34 bba0 0234 86cd 3434 641d 7134
00000020: 7bf5 5835 cd8d 0336 1817 da34 bedf 6535
00000030: c6b0 0035 8075 c035 82b9 0934 1163 6435
00000040: 6ca9 1634 e1d0 9334 f54d 4434 8baf 0c35
00000050: de18 ee34 2165 e834 0702 3a35 1450 6535
00000060: 5a97 3335 6679 e434 fbe6 e034 c7d4 c335
00000070: e9c5 fb34 9ac7 c135 905c 7834 3a6b 6a35
00000080: e539 6b35 d3db 0435 f395 0535 82fb f434
00000090: 8159 8035 60e6 4b35 1f37 5835 5803 fe34
000000a0: edfd 1a36 bbff 2436 904e 7935 34a2 5735
000000b0: 47e6 ea35 1916 0a36 f6d2 b435 3335 be35
000000c0: 70a5 0036 db70 fc35 985a 9d34 9b31 1e34
000000d0: d41e 4036 7a0f 4936 d9ed a235 8dbe 9035
000000e0: 40ab b634 a62c d134 fcb9 9334 2e53 9d35
000000f0: e03d fc35 260c ef35 5016 7035 1b7f ba35
00000100: e280 df38 0a86 9f38 1b5a 5337 d235 0737
00000110: 808f 1b38 045b ec37 a978 4537 da13 f036
00000120: bf5c e038 7dc9 fa38 b9f0 8837 fcf4 9837
00000130: 1b07 7139 6c44 7839 6b74 0338 74bb c637
00000140: 5f22 f037 e0d7 d737 8b82 0b37 90f0 0837
00000150: efb5 a438 bf44 b338 de49 3738 d65d 0d38
00000160: 48b7 1639 24fa 2939 e0d2 2537 c84a da36
00000170: ecf3 8239 7634 3239 3f39 e037 fb66 1438
2.1344668e-07 8.8968704e-07 1.5379598e-07 8.2525656e-07 1.9069557e-07 1.2165667e-07 1.6838575e-07 2.2455566e-07
8.082349e-07 1.960306e-06 4.0622467e-07 8.5634736e-07 4.7940955e-07 1.4339312e-06 1.2826607e-07 8.508078e-07
1.4031474e-07 2.7532863e-07 1.8282283e-07 5.240951e-07 4.4349048e-07 4.3286948e-07 6.929335e-07 8.5425677e-07
6.690294e-07 4.2556638e-07 4.1891312e-07 1.4590559e-06 4.6896392e-07 1.4437712e-06 2.3130474e-07 8.732783e-07
8.762857e-07 4.949372e-07 4.9764566e-07 4.5631538e-07 9.562792e-07 7.595863e-07 8.054648e-07 4.731362e-07
2.3095592e-06 2.458676e-06 9.287405e-07 8.032978e-07 1.7501378e-06 2.0576465e-06 1.3472443e-06 1.4171586e-06
1.9169784e-06 1.8808308e-06 2.9309444e-07 1.4732943e-07 2.8628174e-06 2.9960343e-06 1.2139163e-06 1.0784294e-06
3.4024742e-07 3.896177e-07 2.7516205e-07 1.172162e-06 1.8793471e-06 1.7810423e-06 8.9439436e-07 1.3895072e-06
0.00010657475 7.6066775e-05 1.2597559e-05 8.059158e-06 3.7088525e-05 2.8175775e-05 1.1770208e-05 7.1548684e-06
0.00010698428 0.00011958459 1.6324559e-05 1.8233892e-05 0.00022986198 0.00023676612 3.1341257e-05 2.3690729e-05
2.8626235e-05 2.5730522e-05 8.31544e-06 8.162242e-06 7.854017e-05 8.54819e-05 4.3699394e-05 3.370441e-05
0.00014373392 0.0001621028 9.883865e-06 6.505612e-06 0.00024977268 0.00016994946 2.6729538e-05 3.5381858e-05

exp_avg f4 [24, 8]
00000000: b28d 25b9 e318 3bb7 b57f e238 662b 1239
00000010: 9732 18b9 22ef 2639 9fc1 6839 fd56 11b9
00000020: d500 8bb8 7a80 bab8 83b3 4138 4951 ee38
00000030: d5a0 10b8 47ca bc38 4af1 f938 f1dd 22b9
00000040: 1cb4 5a39 a611 6c39 d49f c7b8 e31a 2eb9
00000050: bb4d 9939 9668 59b9 6177 13b9 2bc4 1a39
00000060: cc33 0739 ca08 ee38 cc81 8db8 91f0 a8b8
00000070: d3eb 7439 a7c2 dbb8 23bb 95b8 b1f4 f638
00000080: ebee 9ab9 f1fa 0eb9 222f 7139 724f 6939
00000090: 352a afb9 1b91 8a39 9d61 8939 f05b 6db9
000000a0: 6361 20b8 2d16 e1b8 b660 4db8 f3c6 3838
000000b0: c8f6 c4b7 f42f 5a39 8e52 b637 bbdc 1cb8
000000c0: 4c68 2bb7 e154 8b37 e247 5d38 48d6 af38
000000d0: 359c d537 4a5d 8638 79ca 13b7 ef5f 2db8
000000e0: 7dcb 4f39 0a6b 4039 3f6a 13b9 d6cd 2bb9
000000f0: b5ab 9d39 b955 14b9 1a73 1db9 4b15 0639
00000100: c327 15b9 0263 8038 57c0 a537 ca04 b838
00000110: 2b60 2a38 6b9a 1bb9 d50a 4538 059e 01b8
00000120: 88fd 28b9 a722 42b8 d2bd 9a38 d693 bd38
00000130: 909a e437 1363 ad37 2eae 2c39 05a5 f1b8
00000140: a7a8 02b9 dc2a 75b9 67b9 1639 c363 fa38
00000150: 6649 91b9 02c0 033a 5be4 36b8 c053 f3b8
00000160: e883 3fb9 9457 e5b8 afc7 d738 fd98 27b8
00000170: 36a3 0db9 b40b f139 f4c8 64b8 67fd 57b9
00000180: 3b9c afb8 f511 6638 4992 33b8 2ef3 03b9
00000190: a37d ec36 560c 1839 0f04 d238 0fe9 3c37
000001a0: 197f 20b9 2d11 b6b7 6106 9139 21e5 8539
000001b0: d197 1db9 1f95 edb9 e1d3 9d39 4e1c 1cb9
000001c0: a154 8239 0ee9 9439 5a98 d9b8 1627 68b8
000001d0: 0761 9a39 2922 c8b8 b6ac 2639 bc77 1837
000001e0: 2993 b9b8 0108 cfb7 701c 5338 1a8b 3039
000001f0: 1acd 2bb8 6c49 6e39 f401 7137 5218 93b7
00000200: 1fc8 83b9 9b12 adb8 23d0 6b39 344f b438
00000210: 50b9 9bb9 db40 b638 3505 a0b8 6d60 1cb7
00000220: d5db 6cb9 031f 48b8 99b3 e4b7 3344 3eb9
00000230: d6c4 22b9 ceaa c3b8 f3d5 aab9 8c1d 1939
00000240: da04 f4b9 a65f 2bba e8df 6fb9 6b2d 25b9
00000250: c3f6 05ba 4dd7 613a 3130 a7b9 5d1d 9f38
00000260: fd25 9cb9 b9b6 eeb9 1f83 bbb9 99e7 1eb9
00000270: d8ae deb9 5018 433a c0ba 75b9 704a 3f38
00000280: c104 6db9 7d0c 07b8 0077 4939 4779 5439
00000290: 0163 84b9 b0ae ba38 8281 0539 4d1d 00b9
000002a0: 1360 b239 af02 8737 790b d038 6b93 9039
000002b0: e479 9f39 eb71 6cb8 3e8d 9039 9d3c 74b9
000002c0: ab4c dab9 6e25 f9b9 7e70 30b9 9cfb 25b9
000002d0: db88 e7b9 ed69 2c3a 25e9 b8b9 2259 9238
000002e0: 9d2c 9f39 15fb da39 148a 9939 09b9 5f39
000002f0: f85f aa39 7239 56ba bb7d 8e39 c7df f9b8
-0.00015788412 -1.1151863e-05 0.00010800307 0.00013939812 -0.00014514696 0.00015920078 0.00022197374 -0.00013860683
-6.6281915e-05 -8.893102e-05 4.618197e-05 0.00011363865 -3.4482062e-05 9.002216e-05 0.00011918189 -0.00015532204
0.00020857196 0.00022513288 -9.51883e-05 -0.00016603949 0.00029240348 -0.00020733694 -0.00014063485 0.00014759663
0.00012893899 0.000113503615 -6.7475805e-05 -8.055673e-05 0.00023357505 -0.000104789906 -7.1397306e-05 0.000117757714
-0.00029551177 -0.00013635658 0.0002300111 0.00022250207 -0.00033410048 0.00026429523 0.00026203404 -0.0002263633
-3.823767e-05 -0.000107329666 -4.8965878e-05 4.4054304e-05 -2.3479937e-05 0.00020807964 2.1734533e-05 -3.739887e-05
-1.0216678e-05 1.6609616e-05 5.2757452e-05 8.384563e-05 2.5464318e-05 6.406994e-05 -8.809025e-06 -4.133576e-05
0.00019816864 0.00018350422 -0.00014058592 -0.0001638451 0.00030073305 -0.00014146314 -0.00015015565 0.00012787168
-0.0001422456 6.121957e-05 1.9759098e-05 8.774696e-05 4.0620722e-05 -0.00014839477 4.697855e-05 -3.0903164e-05
-0.00016116176 -4.6285477e-05 7.378649e-05 9.039759e-05 2.7251692e-05 2.0669342e-05 0.00016468085 -0.00011522513
-0.00012460594 -0.00023380987 0.00014374183 0.00011939511 -0.0002771124 0.0005025865 -4.3604854e-05 -0.000116027426
-0.00018264318 -0.000109358836 0.00010289193 -3.9958384e-05 -0.00013507609 0.00045975822 -5.454659e-05 -0.00020598398
-8.3737505e-05 5.4852997e-05 -4.2813164e-05 -0.00012583725 7.047974e-06 0.00014500445 0.00010014336 1.1259936e-05
-0.00015306137 -2.1704089e-05 0.00027661308 0.0002553845 -0.00015029243 -0.00045315266 0.00030103236 -0.00014887864
0.00024858586 0.000284024 -0.00010375744 -5.5349512e-05 0.0002944546 -9.543106e-05 0.00015895333 9.087784e-06
-8.848898e-05 -2.468005e-05 5.0332805e-05 0.00016836487 -4.0960593e-05 0.000227248 1.4365174e-05 -1.753509e-05
-0.0002513537 -8.2527484e-05 0.00022488883 8.5978216e-05 -0.00029701972 8.6905166e-05 -7.6303644e-05 -9.3207755e-06
-0.00022588608 -4.7712598e-05 -2.726335e-05 -0.00018145218 -0.00015522851 -9.3301394e-05 -0.0003258433 0.00014602224
-0.0004654292 -0.0006537385 -0.00022876228 -0.00015752546 -0.0005110318 0.0008615151 -0.00031888628 7.58718e-05
-0.00029782942 -0.00045531036 -0.00035765112 -0.00015154331 -0.00042473408 0.00074422825 -0.0002343459 4.5607274e-05
-0.00022603852 -3.219814e-05 0.00019213185 0.00020263075 -0.00025250766 8.901709e-05 0.00012732114 -0.00012217947
0.00034022387 1.6094504e-05 9.92035e-05 0.00027575655 0.0003041766 -5.637288e-05 0.00027571054 -0.00023292234
-0.00041637322 -0.00047520868 -0.00016826575 -0.00015829358 -0.0004416172 0.00065770635 -0.0003526892 6.978425e-05
0.00030360083 0.0004176727 0.0002928531 0.00021335868 0.0003249643 -0.0008172012 0.00027178027 -0.00011914927

exp_avg_sq f4 [24, 8]
00000000: ebba c634 beb6 e733 f6fc a634 a388 c534
00000010: 4349 9d34 5e0f 1f34 7316 f234 ac07 f834
00000020: 2fce b333 efe5 e733 3ca7 9033 f1e0 aa33
00000030: 4356 0834 8f41 9933 a7c5 db33 ee12 c833
00000040: 466c 9934 149a ca33 d8d1 5d34 1420 a634
00000050: 5e2d 4834 be4b 9234 75a4 a634 b876 bd34
00000060: f233 9b34 94fb 1e34 5b9e 4834 4405 9a34
00000070: c202 9d34 1a23 9c34 283f 9734 950d c634
00000080: e2e6 e233 e4f1 a533 009b 0d34 7b55 0d34
00000090: c33c 4734 9ad4 e633 04fc 1934 152e 1b34
000000a0: a763 8134 8108 5934 985c 5b34 ff5b 6034
000000b0: 0f1f 7d34 c73a 0734 7e3f 9134 a677 7234
000000c0: b61a 6634 19ae ab34 1c83 0b34 dc3f 0a34
000000d0: 6fd2 2235 25a7 3334 20bf 3634 1fc1 5634
000000e0: 1246 0935 5f13 7d34 9f17 a934 8792 c734
000000f0: 8f57 ea34 e8bf 9734 7b89 c534 51e4 0035
00000100: 28bf 9534 f167 0134 5e40 f433 326d f633
00000110: 2591 0c34 8cf6 1a34 6056 0734 527e 0b34
00000120: b733 0634 22a8 3d35 71b9 dd33 ec69 dd33
00000130: f19e f833 afe8 0c34 267c fc33 8bef ee33
00000140: 43a6 2234 7185 3834 f9dc a134 d0b9 db33
00000150: d122 3934 8a77 7934 3cc2 f133 8985 ef33
00000160: c459 6134 7c15 5234 0a4d 5234 467c 0735
00000170: ebfe 5334 88ac 7334 ab2b 5034 d569 7334
00000180: 2a82 1c34 2860 fa33 70c3 1534 f4b6 1d34
00000190: da9a 9734 5b72 3e34 92c2 3834 2b19 1934
000001a0: d033 8234 c11a 5d34 d2a1 9534 5029 8f34
000001b0: 3e68 9134 928e 8f35 4462 bc34 bfd9 a134
000001c0: fccb 1534 bb05 0434 797c c433 8c85 9e33
000001d0: c4a8 4834 a872 a133 1f7f 6234 a464 d733
000001e0: 59ce 4a34 1e56 3f34 091a 2534 b3b1 6734
000001f0: 3237 3034 7d47 6734 cbc2 4334 f911 c234
00000200: ceda 1337 b7c1 1236 26bb a036 08c4 0e37
00000210: e37d c136 1e8c f336 8973 bf36 f2b6 fd36
00000220: 96e4 0c36 7f8c e735 c565 8d35 0167 e335
00000230: 4197 3d36 d8d7 f135 ace1 c435 7c2b ce35
00000240: f9e9 d436 334b 1236 21f9 7c36 56e0 cc36
00000250: 584c 4736 bec3 b836 8c5e 4136 6091 b136
00000260: 0d48 4337 bddf 4036 ddd7 d536 4bf8 3f37
00000270: 90ea ad36 887b 2c37 52d1 a636 9d00 2237
00000280: 8b34 9935 3591 ed34 8f94 6f35 2191 ac35
00000290: 1b15 7135 e785 c335 ac1e 8b35 5e63 9535
000002a0: 4fa2 3636 799a e535 5f94 0736 84db 5436
000002b0: af0f 7136 66f3 1836 24c3 4d36 b0f0 4336
000002c0: 2a9e 2b37 8401 8036 8a19 c036 7ff2 2b37
000002d0: ead8 eb36 5b1f 1637 aa74 6c36 cf83 0737
000002e0: b99c 4537 c4fa 8a36 590e ca36 45dd 3f37
000002f0: 032f eb36 3e74 2937 133f 9236 4fb4 1837
3.7016375e-07 1.0790016e-07 3.1103963e-07 3.6793526e-07 2.9296834e-07 1.481362e-07 4.5092347e-07 4.6199182e-07
8.3728416e-08 1.07986004e-07 6.735942e-08 7.9571585e-08 1.2697369e-07 7.136543e-08 1.0233935e-07 9.316669e-08
2.857725e-07 9.434385e-08 2.065857e-07 3.094325e-07 1.8642956e-07 2.724973e-07 3.1039568e-07 3.5290373e-07
2.8908795e-07 1.480642e-07 1.8684061e-07 2.8688567e-07 2.9245535e-07 2.9082804e-07 2.8171894e-07 3.6890256e-07
1.05659424e-07 7.727411e-08 1.3188037e-07 1.3162746e-07 1.8555424e-07 1.07488816e-07 1.4340918e-07 1.4452264e-07
2.410063e-07 2.0212794e-07 2.042965e-07 2.0895094e-07 2.357376e-07 1.2594238e-07 2.705455e-07 2.2581534e-07
2.1430137e-07 3.1977905e-07 1.2993081e-07 1.2875483e-07 6.0655924e-07 1.6731481e-07 1.7019602e-07 2.000056e-07
5.113844e-07 2.3569508e-07 3.149589e-07 3.717325e-07 4.3649604e-07 2.8265572e-07 3.679414e-07 4.801596e-07
2.7892497e-07 1.2051875e-07 1.1373844e-07 1.147513e-07 1.309132e-07 1.4432061e-07 1.2604278e-07 1.2991339e-07
1.2498536e-07 7.065265e-07 1.0324846e-07 1.03103815e-07 1.1577311e-07 1.3123166e-07 1.1757247e-07 1.1126311e-07
1.5147911e-07 1.7184881e-07 3.0149366e-07 1.0231781e-07 1.7242134e-07 2.323342e-07 1.1257768e-07 1.1153595e-07
2.0987414e-07 1.956559e-07 1.9585801e-07 5.047226e-07 1.9743645e-07 2.2693905e-07 1.9387396e-07 2.266964e-07
1.4575986e-07 1.1659023e-07 1.3947806e-07 1.4688322e-07 2.823861e-07 1.7736731e-07 1.720712e-07 1.4258391e-07
2.4252085e-07 2.0591962e-07 2.7871152e-07 2.6665884e-07 2.70842e-07 1.0695824e-06 3.5089226e-07 3.0147018e-07
1.3950915e-07 1.2295543e-07 9.149603e-08 7.3817404e-08 1.8687848e-07 7.5180026e-08 2.1094137e-07 1.0030024e-07
1.8887785e-07 1.781959e-07 1.5376294e-07 2.1578198e-07 1.6411357e-07 2.1539559e-07 1.8231655e-07 3.6148393e-07
8.812827e-06 2.1868452e-06 4.7901585e-06 8.509502e-06 5.7665034e-06 7.258276e-06 5.7056936e-06 7.561285e-06
2.099468e-06 1.7251731e-06 1.0534937e-06 1.6942796e-06 2.8251236e-06 1.8018718e-06 1.4668817e-06 1.5360852e-06
6.3453303e-06 2.1799467e-06 3.7695938e-06 6.10579e-06 2.9697749e-06 5.5064147e-06 2.8814275e-06 5.291935e-06
1.1639681e-05 2.8740462e-06 6.3730245e-06 1.1442297e-05 5.1831084e-06 1.0280761e-05 4.9715536e-06 9.656095e-06
1.141468e-06 4.4250342e-07 8.925062e-07 1.2857237e-06 8.981021e-07 1.4567603e-06 1.0365234e-06 1.1130285e-06
2.721459e-06 1.7106787e-06 2.020293e-06 3.1718237e-06 3.5920928e-06 2.2791442e-06 3.0660967e-06 2.9197363e-06
1.022922e-05 3.8148737e-06 5.725019e-06 1.0248855e-05 7.028798e-06 8.947997e-06 3.5234648e-06 8.077316e-06
1.1778605e-05 4.1419135e-06 6.0217394e-06 1.14360055e-05 7.0090186e-06 1.010025e-05 4.358482e-06 9.101887e-06

exp_avg f4 [24]
00000000: b6a0 17b9 43ad 9538 644b db38 5747 be38
00000010: 94a1 52b8 09d1 cd38 6e85 2537 8cca d138
00000020: e4a1 c3b8 0f05 ec38 a430 cfb8 99b6 eeb7
00000030: af03 27b8 575b 3439 88c4 a9b9 75fb 8db8
00000040: 5959 0db9 1583 a9b9 47d0 41ba 8562 9939
00000050: e41c a6b9 9e67 a33a fb03 9e3a daa5 4539
-0.00014460352 7.137146e-05 0.00010456776 9.073194e-05 -5.0218383e-05 9.8140976e-05 9.865833e-06 0.00010003624
-9.328479e-05 0.00011254299 -9.879589e-05 -2.845684e-05 -3.9819333e-05 0.00017200164 -0.0003238062 -6.7702415e-05
-0.00013480092 -0.00032331856 -0.00073934015 0.00029255837 -0.00031683512 0.0012466793 0.001205563 0.00018849169

exp_avg_sq f4 [24]
00000000: d0ec a435 f853 8a34 0f45 5535 e786 a835
00000010: 609f fd34 5dce 1935 141e 0136 7a92 ac35
00000020: 48ca bb34 71d7 5634 c6bb 8334 ebbd ba34
00000030: a99f 7434 d508 1c35 db50 1835 e132 f334
00000040: 778d 4e37 adbb 0637 726d 5737 3b38 d937
00000050: da92 b136 1f64 8b37 91ac b637 cd3d 0638
1.2287874e-06 2.5765598e-07 7.9449177e-07 1.2556237e-06 4.7240883e-07 5.729724e-07 1.9240006e-06 1.2857629e-06
3.4978643e-07 2.000868e-07 2.4537275e-07 3.4783383e-07 2.2782355e-07 5.812738e-07 5.674207e-07 4.5299296e-07
1.2311494e-05 8.030719e-06 1.2840481e-05 2.58946e-05 5.292107e-06 1.6616714e-05 2.1776448e-05 3.2005646e-05

exp_avg f4 [24]
00000000: b6a0 17b9 43ad 9538 644b db38 5747 be38
00000010: 94a1 52b8 09d1 cd38 6e85 2537 8cca d138
00000020: e4a1 c3b8 0f05 ec38 a430 cfb8 99b6 eeb7
00000030: af03 27b8 575b 3439 88c4 a9b9 75fb 8db8
00000040: 66c4 39b9 5545 cb39 723c e739 078f 0939
00000050: 3b7b 36b9 a448 acb9 4572 1a3a 5f1d 07b8
-0.00014460352 7.137146e-05 0.00010456776 9.073194e-05 -5.0218383e-05 9.8140976e-05 9.865833e-06 0.00010003624
-9.328479e-05 0.00011254299 -9.879589e-05 -2.845684e-05 -3.9819333e-05 0.00017200164 -0.0003238062 -6.7702415e-05
-0.00017716139 0.00038770834 0.0004410479 0.0001311862 -0.0001740278 -0.00032860518 0.0005891661 -3.2213862e-05

exp_avg_sq f4 [24]
00000000: d0ec a435 f853 8a34 0f45 5535 e786 a835
00000010: 609f fd34 5dce 1935 141e 0136 7a92 ac35
00000020: 48ca bb34 71d7 5634 c6bb 8334 ebbd ba34
00000030: a99f 7434 d508 1c35 db50 1835 e132 f334
00000040: 8cdd a136 7748 2336 876a 0437 1c2a c036
00000050: 958a bb35 ab50 9c36 85e9 b036 8cc7 d336
1.2287874e-06 2.5765598e-07 7.9449177e-07 1.2556237e-06 4.7240883e-07 5.729724e-07 1.9240006e-06 1.2857629e-06
3.4978643e-07 2.000868e-07 2.4537275e-07 3.4783383e-07 2.2782355e-07 5.812738e-07 5.674207e-07 4.5299296e-07
4.8239654e-06 2.4331073e-06 7.892616e-06 5.726948e-06 1.3972918e-06 4.6585533e-06 5.272394e-06 6.3115203e-06
