saved_models/MB0s_RNN_HS=16_N=2_ZP1_experimental_5/checkpoint2999.pth (torch, 20810 bytes, 18 tensors)

trial_output.weight f4 [2, 32]
0	0xbd4b0292	-0.049562998
1	0xbf08bb3e	-0.5341071
2	0x3dba19ed	0.09086976
3	0xbf9be14d	-1.2178131
4	0xbc7be281	-0.015373827
5	0x3b82ad54	0.0039879475
6	0xbdc539f6	-0.09630196
7	0xbe2f5016	-0.17120394
8	0x3da03b84	0.07823852
9	0xbead595f	-0.33857247
10	0x3e69a107	0.22815333
11	0x3caf3325	0.021386692
12	0x3d386e12	0.045026846
13	0xbf2656f6	-0.6497644
14	0xbd9d92c1	-0.07694007
15	0xbf535a7c	-0.82559943
16	0xbf71eb19	-0.94499356
17	0x402605de	2.594108
18	0x3fc315f8	1.5241079
19	0x3fc8f9dd	1.5701252
20	0xbd446a1a	-0.04795275
21	0x3ff85821	1.9401895
22	0xbebd83c6	-0.37014598
23	0x3cb53079	0.02211784
24	0x3d3b4d55	0.045728046
25	0xbf5fa046	-0.8735393
26	0xbd9a073b	-0.0752091
27	0x3ff37061	1.901867
28	0xbe8b3c36	-0.27194375
29	0xbf825bf1	-1.0184308
30	0xbed5e6ea	-0.41777736
31	0x3f54f238	0.83182096
32	0x3db8f46e	0.09030996
33	0xbe1ff579	-0.15620984
34	0x3e018d76	0.1265162
35	0xbddcd3b3	-0.10782566
36	0xbe20836b	-0.15675132
37	0x3e31a466	0.1734787
38	0xbe22d497	-0.15901409
39	0x3db4871e	0.08814834
40	0x3c883879	0.01662849
41	0x3e6a9a50	0.22910428
42	0xbe43904f	-0.19098018
43	0x3db8d4f7	0.09024995
44	0x3d782152	0.06057865
45	0x3d9642b3	0.073369406
46	0xbc91e0dc	-0.017807417
47	0x3dc6127a	0.09671493
48	0xbdd5aa98	-0.10432929
49	0x3e38cead	0.1804759
50	0xbd4f6dd3	-0.050641846
51	0x3e4ac8aa	0.1980311
52	0xbeeca4c8	-0.46219468
53	0x3e4995a4	0.1968599
54	0xbec9cb9a	-0.39413148
55	0x3cafef9b	0.021476557
56	0x3df5dc64	0.12004927
57	0xbf18874f	-0.59581465
58	0xbe4197e5	-0.189056
59	0xbf4f34b9	-0.80939823
60	0x3e89544e	0.26822132
61	0x3eb4db4e	0.35323566
62	0xbe4f4abe	-0.20243356
63	0xbe6e33d8	-0.23261964

trial_output.bias f4 [2]
0	0x3c377b35	0.011198808
1	0x3d98d1a4	0.07461861

rnn.weight_ih_l0 f4 [48, 4]
0	0x3cf295fd	0.029612536
1	0x3ed993a4	0.42495453
2	0xbdab3bd2	-0.08361019
3	0x3e8b85da	0.27250558
4	0xbe805f2a	-0.25072604
5	0x3d4946a1	0.049139623
6	0x3e86c107	0.26319143
7	0xbe083705	-0.13302238
8	0xbdb09d3d	-0.08623741
9	0xbdb44540	-0.08802271
10	0x3e9f7bb0	0.31149054
11	0xbe771988	-0.24130833
12	0xbe2a784a	-0.16647449
13	0x3f3486f2	0.7051841
14	0x3e703ed8	0.23461473
15	0xbe47de45	-0.19518383
16	0xbc900344	-0.017579682
17	0x3e136401	0.14393617
18	0xbea5720d	-0.32313576
19	0x3a82886a	0.0009958867
20	0x3f302ee1	0.6882153
21	0xbecaa71d	-0.39580622
22	0xbeb9418b	-0.36182818
23	0x3d5e496b	0.054269236
24	0x3d55d7b8	0.05220768
25	0x3de82b8f	0.11336433
26	0xbe7614a8	-0.24031317
27	0x3d9088d3	0.07057347
28	0x3d9a509d	0.07534907
29	0x3d2a178c	0.041526362
30	0x3ce54c02	0.027990345
31	0x3dd3e772	0.10346879
32	0xbea0f349	-0.31435612
33	0xbe74dc6a	-0.23912206
34	0x3dcf8c54	0.10134187
35	0xbed1c493	-0.40970287
36	0x3f12d398	0.57354116
37	0xbeb05a0e	-0.34443706
38	0x3ee79493	0.4523054
39	0x3e7206af	0.23635362
40	0x3e45be3b	0.19310848
41	0xbe76ca4b	-0.24100606
42	0xbcb61ab0	-0.022229522
43	0xbe4b52e7	-0.19855843
44	0xbf67928c	-0.9045799
45	0x3f682403	0.9067995
46	0x3f08df94	0.53466153
47	0xbeea77f6	-0.45794648
48	0xbe56dd69	-0.20982899
49	0xbe2853d5	-0.1643823
50	0xbe27014b	-0.16309087
51	0xbe45ab42	-0.19303611
52	0x3ee28258	0.4424007
53	0xbeb60741	-0.3555241
54	0xbe36acf3	-0.17839412
55	0xbe4088cf	-0.18802188
56	0x3e7488da	0.2388033
57	0x3ea0e46c	0.31424272
58	0x3e4cad88	0.19988072
59	0x3f038d1a	0.5138718
60	0x3b764380	0.0037576854
61	0xbebebeeb	-0.37255034
62	0x3e3e4693	0.1858161
63	0x3d53b89f	0.05168974
64	0xbf1f6162	-0.6225797
65	0xbee74f0c	-0.45177495
66	0xbc3149f0	-0.010820851
67	0xbf0b6101	-0.5444489
68	0xbf7c9209	-0.9866033
69	0x3f164c83	0.587105
70	0x3d9e0b75	0.07717029
71	0xbe31ffe6	-0.17382774
72	0xbe9828e3	-0.29718694
73	0x3c1c9a39	0.009558254
74	0x3c5e1935	0.0135558145
75	0xbefa5e0b	-0.48899874
76	0xbed6bdd6	-0.41941708
77	0xbf8d4e86	-1.1039588
78	0xbf1514d3	-0.582349
79	0xbf97a4ef	-1.1847209
80	0x3d3e03c8	0.046390325
81	0xbe3ad822	-0.1824651
82	0x3d88ee4f	0.06686079
83	0xbed66bfb	-0.41879258
84	0xbea4eb15	-0.32210603
85	0xbd18ca77	-0.03730246
86	0xbdab2521	-0.08356691
87	0xbed66977	-0.41877338
88	0xbea75751	-0.32683805
89	0x3eaa4354	0.33254492
90	0x3eb41f3b	0.35180077
91	0x3da48800	0.080337524
92	0xbd278417	-0.040897455
93	0xbe76d8e2	-0.24106172
94	0x3e2a794b	0.16647832
95	0xbeff6376	-0.4988057
96	0xbdd5e4fd	-0.10444067
97	0xbd620064	-0.055176154
98	0x3cad7da6	0.021178078
99	0xbe81d501	-0.25357822
100	0xbe8b4fdd	-0.27209368
101	0xbe8517ea	-0.25994807
102	0x3dafa6c9	0.085767336
103	0xbec6ad15	-0.38803926
104	0xbe728133	-0.23682098
105	0xbd6bd389	-0.057574783
106	0x3efe7f19	0.49706343
107	0xbf69c5e0	-0.9131756
108	0xbf1e658e	-0.6187371
109	0xbe2f5d51	-0.17125441
110	0xbef2e936	-0.4744355
111	0xbeddaf5b	-0.43297848
112	0xbf44ce2e	-0.76877105
113	0xbe7bcedb	-0.24590628
114	0x3e876178	0.2644155
115	0xbee71051	-0.45129636
116	0x3e275047	0.16339217
117	0xbf6d4ef6	-0.9269861
118	0xbea0471f	-0.3130426
119	0xbd979e9a	-0.07403298
120	0xbcde8a39	-0.02716552
121	0xbebaeb51	-0.36507657
122	0x3f21a18a	0.63137114
123	0xbf17eef6	-0.59349
124	0xbd840e4a	-0.06448038
125	0xbe1fb10f	-0.15594886
126	0xbd6d8f72	-0.05799813
127	0xbee973f5	-0.4559628
128	0x3ebc428b	0.36769518
129	0xbf13cf8b	-0.5773856
130	0xbdfbd427	-0.12296324
131	0xbd4adcac	-0.049526855
132	0x3ee77f8d	0.452145
133	0xbd0bcc28	-0.034130245
134	0x3e6f1dd8	0.23351228
135	0x3dc39b55	0.095511116
136	0xbe32a46d	-0.17445536
137	0x3da02533	0.07819595
138	0xbe1c424f	-0.1525967
139	0xbe4dad7b	-0.20085709
140	0xbe472354	-0.1944707
141	0x3f761981	0.96132666
142	0xbe46e28d	-0.1942236
143	0x3d93df52	0.07220329
144	0xbd43a43c	-0.047764048
145	0x3ded9d46	0.11602263
146	0x3d656f50	0.05601436
147	0x3e2a5281	0.16633035
148	0xbe4797ec	-0.19491547
149	0xbb903d71	-0.0044018556
150	0x3d6de049	0.058075223
151	0x3ca44f89	0.020057457
152	0xbda0235d	-0.07819245
153	0x3cb2133a	0.021737684
154	0xbd1ea550	-0.038731873
155	0xbc2e2061	-0.010627837
156	0xbeaa7d47	-0.33298704
157	0xbec02639	-0.37529162
158	0xbe8056a0	-0.2506609
159	0xbe0912bf	-0.13386057
160	0x3bfd2c4c	0.007726228
161	0x3ce4ebcf	0.027944474
162	0xbee65821	-0.44989112
163	0x3e94a409	0.290314
164	0x3ddd0ca5	0.107934274
165	0xbd8f3c04	-0.06993869
166	0xbd847aae	-0.06468712
167	0x3ea9b12a	0.33142978
168	0x3e2337e3	0.15939288
169	0x3da801ac	0.08203444
170	0xbeacd5e1	-0.33756927
171	0x3db49523	0.08817508
172	0xbe8369d9	-0.25666693
173	0x3ef2c149	0.4741309
174	0xbecb3db6	-0.3969552
175	0xbdeeb663	-0.11655881
176	0x3ebc41d8	0.36768985
177	0x3ed5a4d7	0.41727325
178	0x3e90e39e	0.28298658
179	0x3e8bf698	0.27336574
180	0xbed87b5b	-0.42281613
181	0x3ea0fb7d	0.3144187
182	0x3dee19a0	0.11625981
183	0x3d6ce06e	0.05783122
184	0x3de8f904	0.11375621
185	0xbc91827c	-0.017762415
186	0xbb65fb7f	-0.003509253
187	0x3e2a80f9	0.16650762
188	0xbe488f65	-0.1958595
189	0x3e86b382	0.2630883
190	0xbb971eeb	-0.00461184
191	0x3d314138	0.043275088

rnn.weight_hh_l0 f4 [48, 16]
0	0x3df0c061	0.11755443
1	0x3e9104f2	0.28324085
2	0xbe9b3648	-0.3031485
3	0x3bc95da4	0.006145196
4	0x3f0e0907	0.55482525
5	0xbf3b4935	-0.7315858
6	0x3e0669b3	0.13126259
7	0xbed742f1	-0.4204326
8	0xbe81621f	-0.25270173
9	0x3e0711b1	0.13190342
10	0x3d9edc7b	0.07756897
11	0x3e42e88e	0.19034025
12	0x3d30eeef	0.043196615
13	0xbf49604d	-0.7866257
14	0x3e366845	0.17813213
15	0x3e5c4244	0.21509653
16	0x3c4b4571	0.012406693
17	0xbe5cf643	-0.21578316
18	0xbd8283f7	-0.063728265
19	0xbd5d674a	-0.054053582
20	0x3eb944eb	0.36185393
21	0xbc9fd545	-0.019510875
22	0x3e15aa13	0.1461566
23	0xbee9f984	-0.45698178
24	0xbeebc32a	-0.46047336
25	0x3eb03a99	0.34419706
26	0x3f2b3e00	0.6689148
27	0x3e97cd25	0.296487
28	0xbed1da89	-0.40987042
29	0xbebda159	-0.3703716
30	0x3d98a471	0.0745324
31	0xbebdd552	-0.37076813
32	0xbf38b3fc	-0.72149634
33	0xbea76757	-0.3269603
34	0xbdd62118	-0.10455531
35	0x3e071932	0.13193205
36	0x3eea5029	0.45764282
37	0xbdf150db	-0.11783
38	0x3eef277c	0.46709812
39	0xbeaf03e4	-0.34182656
40	0xbe4f6e00	-0.20256805
41	0x3e238d9c	0.15971988
42	0x3eb4a9f6	0.3528592
43	0x3e0b2489	0.13588156
44	0xbf06c77a	-0.5264813
45	0xbe45d25a	-0.19318524
46	0x3e146849	0.14492907
47	0xbe9464e8	-0.28983235
48	0x3e982a33	0.29719695
49	0xbf91e7bc	-1.1398845
50	0xbf20fee2	-0.6288892
51	0xbd9726a0	-0.07380414
52	0x3e9c0992	0.30476052
53	0xbe7ba274	-0.2457369
54	0x3f1d05d9	0.6133705
55	0xbe2e9b6f	-0.1705148
56	0xbf4981c8	-0.78713655
57	0x3e5dccaf	0.21660112
58	0x3eab34f5	0.3343884
59	0x3d76df2c	0.060271427
60	0xbfa302ec	-1.2735267
61	0xbd52b7fc	-0.051444992
62	0x3f2850ed	0.6574848
63	0x3e227afa	0.15867224
64	0xbed551ff	-0.4166412
65	0xbdb13ee3	-0.08654573
66	0xbe954520	-0.291543
67	0x3e3c38bd	0.18381019
68	0x3ef9c16d	0.48780385
69	0xbd9a297f	-0.07527446
70	0x3ed5fa41	0.4179249
71	0xbdd5a816	-0.104324505
72	0xbea9893b	-0.3311251
73	0x3e35ec10	0.17765832
74	0x3ee33056	0.44372815
75	0x3e31b444	0.17353922
76	0xbe2c90fe	-0.16852185
77	0xbef73999	-0.4828613
78	0x3df1b8e4	0.11802843
79	0x3ea14400	0.31497192
80	0x3f0cace5	0.54951316
81	0x3e2bbdc1	0.16771604
82	0xbe16fb8c	-0.14744395
83	0xbf0b297f	-0.54360193
84	0x3f28ced6	0.65940607
85	0x3e807153	0.2508646
86	0x3e913b5d	0.28365603
87	0x3d223383	0.039599907
88	0xbeacfcb2	-0.3378654
89	0xbed0a605	-0.40751663
90	0x3e51a410	0.20472741
91	0xbf1602a2	-0.5859777
92	0xbe9b66aa	-0.30351764
93	0xbf683d99	-0.9071899
94	0x3eaa984b	0.33319315
95	0xbe8b8a2c	-0.27253854
96	0xbe422531	-0.189595
97	0xbec22c60	-0.3792448
98	0x3d828829	0.06373627
99	0x3e73f832	0.23825148
100	0x3da34349	0.07971818
101	0xbed3bd2e	-0.4135527
102	0x3ee1cb0c	0.44100225
103	0xbed6cafd	-0.41951743
104	0x3d03fff0	0.032226503
105	0x3dfccdcc	0.1234394
106	0x3e4eb56a	0.20186391
107	0x3e03d5a3	0.12874465
108	0xbbb402ed	-0.005493513
109	0xbc8ae316	-0.016953986
110	0x3e9a69b5	0.30158773
111	0x3d64eb80	0.055888653
112	0x3f11613c	0.5678899
113	0xbf02b87f	-0.5106277
114	0xbf3608f9	-0.7110744
115	0x3ead9ba3	0.33907804
116	0x3cfbaee7	0.030723048
117	0xbef43782	-0.476986
118	0x3e06cc84	0.13163954
119	0xbe49e629	-0.19716705
120	0xbe8e3997	-0.27778313
121	0x3d7ad53e	0.06123852
122	0x3ea8bd24	0.32956803
123	0xbf242e63	-0.6413328
124	0xbe6de1aa	-0.23230615
125	0xbe6e2400	-0.2325592
126	0x3ec471e4	0.38368142
127	0x3da52bee	0.080650195
128	0xbf66b51c	-0.901201
129	0xbf169d5f	-0.5883388
130	0xbe99cb75	-0.30038038
131	0x3e7aaa16	0.24478945
132	0x3da72af4	0.081624895
133	0xbd92ec3a	-0.07173963
134	0x3dfdf959	0.12401075
135	0xbecb2ff1	-0.39685014
136	0xbcdca033	-0.026931858
137	0x3e159059	0.14605846
138	0x3e9e6c9d	0.3094224
139	0x3c668fb7	0.01407235
140	0xbed753ea	-0.4205621
141	0x3b1f34ae	0.0024292874
142	0x3cbec273	0.02328608
143	0x3e338345	0.17530544
144	0xbe287f01	-0.16454698
145	0xbecd53c3	-0.40102968
146	0xbde8e37d	-0.11371515
147	0xbe53de64	-0.20690304
148	0x3e3c3517	0.18379627
149	0xbecac53d	-0.39603606
150	0x3e20dd13	0.15709333
151	0xbf187d59	-0.59566265
152	0xbef5e1d2	-0.4802385
153	0xbd622f4e	-0.055220895
154	0x3f2b13a2	0.6682683
155	0x3db9a953	0.09065499
156	0xbe463bb1	-0.19358708
157	0xbf380120	-0.71876717
158	0x3f21d7e1	0.6322003
159	0xbdfb9896	-0.12284963
160	0x3d8892d7	0.066686325
161	0x3ce5a417	0.028032346
162	0xbbfce6b2	-0.0077179307
163	0x3e210c02	0.15727237
164	0x3e6b12d9	0.22956409
165	0x3d7e34af	0.06206196
166	0x3e059ec3	0.13048844
167	0xbe98edb6	-0.2986886
168	0xbebaf0af	-0.36511752
169	0x3e6de003	0.23229985
170	0x3ee10bad	0.4395422
171	0xbd615b9a	-0.055019
172	0xbe875468	-0.26431584
173	0xbd376a21	-0.044778947
174	0x3e83be01	0.257309
175	0xbcdbc6d9	-0.026828216
176	0x3e2621f5	0.16223891
177	0xbe3f5219	-0.18683662
178	0x3c6bd754	0.0143946
179	0x3d2dcbc1	0.042430643
180	0x3e582526	0.21107921
181	0xbde9713d	-0.113985516
182	0x3ef4f8fd	0.47846213
183	0xbed9ddb7	-0.42551968
184	0xbf263fdc	-0.6494119
185	0x3e26fa35	0.16306384
186	0x3dbd2f9a	0.09237595
187	0xbe3674b9	-0.17817964
188	0xbebdaf9a	-0.37048036
189	0x3e9ae654	0.3025385
190	0x3e503090	0.20331025
191	0x3dcfe543	0.1015115
192	0xbe29f1dd	-0.1659617
193	0xbecbc0cf	-0.3979554
194	0x3cd0906f	0.025459496
195	0x3d8a9426	0.06766538
196	0x3e201780	0.15633965
197	0x3ea6a1f6	0.3254544
198	0x3de59a68	0.11211091
199	0xbe155040	-0.14581394
200	0xbeefac05	-0.46810928
201	0x3ec5468e	0.3853039
202	0x3e2becc1	0.16789533
203	0x3da98886	0.08277993
204	0xbf23abf0	-0.6393423
205	0xbef1aa3f	-0.472002
206	0x3eee31ca	0.4652236
207	0x3edeb62a	0.43498355
208	0x3c523419	0.012829804
209	0x3f60df7d	0.87841016
210	0x3da874e5	0.08225421
211	0x3ef7fd94	0.48435652
212	0xbc8502ef	-0.01623675
213	0x3ebe642e	0.37185806
214	0x3e3df79a	0.18551484
215	0x3e4148b1	0.18875386
216	0xbcff477a	-0.031162012
217	0xbe979e06	-0.2961275
218	0xbd831867	-0.06401139
219	0x3ed4b6fa	0.4154585
220	0x3e43a3ed	0.19105501
221	0xbe5db74a	-0.2165195
222	0xbdf15727	-0.11784201
223	0xbdb9a9fd	-0.09065626
224	0x3e30d8da	0.17270222
225	0xbd9256b4	-0.071454436
226	0xbdbf73a2	-0.09348227
227	0x3e20953f	0.15681933
228	0x3e6098be	0.21933267
229	0xbebb6baa	-0.3660558
230	0x3ef64a02	0.48103338
231	0xbebb220b	-0.3654941
232	0xbe88420f	-0.266129
233	0x3f092a8c	0.53580546
234	0x3ec5e5c9	0.38651875
235	0xbda3cbd0	-0.079978585
236	0xbe8ef0cd	-0.2791809
237	0xbe5e478c	-0.2170698
238	0x3e6489fc	0.22318262
239	0xbdd52d2a	-0.10409005
240	0xbd266eeb	-0.040633123
241	0xbf1ccf20	-0.6125355
242	0xbf4561e1	-0.77102476
243	0xbea2396c	-0.31684434
244	0xbd672bef	-0.056438383
245	0xbf8215a2	-1.0162852
246	0x3ef52808	0.47882104
247	0xbe2c5ebf	-0.16833018
248	0xbdcfd5a4	-0.101481706
249	0x3ebc10de	0.3673162
250	0x3e93c353	0.28859958
251	0xbe3e5827	-0.18588315
252	0xbe35e37e	-0.17762563
253	0xbe52f6a2	-0.20601895
254	0x3e35d005	0.17755134
255	0xbeb31526	-0.34977072

rnn.bias_ih_l0 f4 [48]
0	0x3d4b9ec0	0.049711943
1	0x3eb127c6	0.34600657
2	0x3db18035	0.08667032
3	0xbe5d3abd	-0.21604438
4	0x3e28e278	0.16492641
5	0x3e0bb60b	0.13643663
6	0x3e8662a7	0.2624714
7	0xbe0f8eb8	-0.14019287
8	0x3db11147	0.086458735
9	0xba41f125	-0.0007398299
10	0xbd185c5e	-0.037197463
11	0x3eb35d01	0.35031894
12	0xbebb51be	-0.36585802
13	0xbe1ad51a	-0.15120354
14	0x3c68beff	0.014205693
15	0xbdc86446	-0.09784751
16	0x3dc25f34	0.09490815
17	0xbf0c0d51	-0.5470782
18	0xbe090efa	-0.1338462
19	0xbd0af69c	-0.03392659
20	0x3d30c2dc	0.043154582
21	0xbf4e399b	-0.8055665
22	0x3d9d2f1a	0.076749995
23	0xbd0442f6	-0.03229042
24	0xbd382265	-0.044954676
25	0x3e3ca53e	0.1842241
26	0x3cc4305c	0.02394884
27	0x3e35ee38	0.17766654
28	0xbe725169	-0.23663868
29	0x3dca9d8f	0.09893333
30	0xbdfc53de	-0.12320684
31	0xbe47db9e	-0.19517371
32	0xbdff5bec	-0.124687046
33	0x3edf01ea	0.43556148
34	0xbe6ca275	-0.23108847
35	0x3d800501	0.062509544
36	0x3da224ee	0.079172
37	0xbea88c71	-0.32919648
38	0x3e76c87f	0.2409992
39	0xbe52c06a	-0.20581213
40	0xbdac3333	-0.08408203
41	0x3ddadd3b	0.106867276
42	0xbe83881b	-0.25689778
43	0x3dad0887	0.08448892
44	0x3e9b3516	0.3031394
45	0x3de97d4c	0.114008516
46	0x3e3dd0a1	0.18536617
47	0xbe96217e	-0.29322428

rnn.bias_hh_l0 f4 [48]
0	0x3eb34766	0.3501541
1	0x3e891fd3	0.26782092
2	0xbcb0b27a	-0.02156948
3	0xbd9b9e8f	-0.07598602
4	0xbdcacd1a	-0.09902401
5	0xbe4d674b	-0.20058934
6	0x3e338d7b	0.1753444
7	0x3de144a9	0.10999424
8	0xbe367284	-0.17817122
9	0x3e063971	0.1310785
10	0xbe8b2d71	-0.27183107
11	0x3e37c803	0.17947392
12	0xbe8d868d	-0.27641717
13	0x3d22eb69	0.039775286
14	0xbcbee669	-0.023303227
15	0x3d2f61fe	0.042818062
16	0x3e71ce37	0.23613821
17	0xbf31841d	-0.69342214
18	0xbe14a7b0	-0.14517093
19	0xbe4179b2	-0.1889408
20	0xbd1087c3	-0.035285722
21	0xbf4e45ab	-0.80575055
22	0xbe148ad0	-0.14506078
23	0x3d1c6585	0.038182754
24	0x3e31b144	0.17352778
25	0x3eab9123	0.33509168
26	0xbe994fbc	-0.29943645
27	0xbe1a3fdc	-0.15063423
28	0xbe917f75	-0.28417554
29	0xbec4efd9	-0.3846424
30	0x3dc288f6	0.094987795
31	0xbceef4be	-0.029169437
32	0xbe32cdb6	-0.17461285
33	0x3e39d697	0.18148266
34	0x3dfb5a4a	0.12273081
35	0x3dd2f03a	0.10299726
36	0xbe02a947	-0.12759887
37	0xbdacacf4	-0.08431426
38	0xbda671ab	-0.08127149
39	0x3df28599	0.11841888
40	0x3d1e4a8a	0.038645305
41	0x3ceb3b2d	0.02871474
42	0x3dfc0485	0.123055495
43	0xbd890963	-0.066912435
44	0x3e2c09cc	0.16800612
45	0xbe0d0d81	-0.13774683
46	0xbe8051d3	-0.25062427
47	0xbe6ef429	-0.23335327

exp_avg f4 [2, 32]
0	0x3a46a211	0.00075772504
1	0x3a22b01a	0.0006206051
2	0x3a5f3b70	0.0008515632
3	0x3a8abd92	0.0010585061
4	0xb9876b15	-0.0002582899
5	0x3a21c5aa	0.0006171117
6	0xba5182ee	-0.00079922273
7	0x3a2e126c	0.00066403183
8	0x3a07621f	0.00051644625
9	0xba28e6b3	-0.0006443068
10	0xb9ad0850	-0.00033003325
11	0x395f4b41	0.00021294972
12	0xb9ef14ca	-0.0004560112
13	0xb99ec528	-0.00030283
14	0xba1e5f52	-0.00060414255
15	0x3a27de4f	0.0006403671
16	0x3a06e7cd	0.00051462353
17	0xb991bba2	-0.00027796353
18	0xb8de00bb	-0.00010585921
19	0xbaa14d80	-0.0012306422
20	0xba696084	-0.00089026266
21	0xbac8fdb4	-0.0015334398
22	0xba0dfff7	-0.0005416865
23	0x3a3c5dcb	0.0007185607
24	0x3a2c5e56	0.00065753364
25	0x3a0d2864	0.0005384742
26	0xba3ab110	-0.0007121721
27	0xb9c93a32	-0.00038381066
28	0x3a82a10e	0.0009966211
29	0x3a0e9838	0.00054395525
30	0xba4a2e81	-0.0007712618
31	0xba0356ed	-0.00050102064
32	0xb9dc609b	-0.00042033647
33	0xb922194f	-0.00015458952
34	0xb9b14ec1	-0.00033818747
35	0x394ef96f	0.00019738612
36	0x38a88063	8.034778e-05
37	0x3a337880	0.0006846264
38	0xba74cf42	-0.0009338745
39	0xb93b765c	-0.00017877802
40	0x3a31de3a	0.00067851285
41	0xba6d4fa3	-0.00090526993
42	0x395d2f25	0.00021093765
43	0xba0ca620	-0.0005365331
44	0xba1e2ae9	-0.0006033616
45	0xba12fb75	-0.0005606928
46	0x388766e1	6.456464e-05
47	0x39ad01bc	0.00032998424
48	0x3a4c06af	0.00077829784
49	0x3a2b15ef	0.00065264007
50	0x3a6afe0f	0.0008964249
51	0xba0ed3f3	-0.0005448453
52	0x3a8b7ee8	0.0010642679
53	0xb9e88ec7	-0.00044356866
54	0x3a19d8af	0.0005868775
55	0xba15527c	-0.000569619
56	0x3a16cd5a	0.00057526457
57	0x39adfb03	0.0003318415
58	0xb944dc1a	-0.00018774011
59	0x3ae26c4e	0.0017274709
60	0x3a5c23bb	0.0008397658
61	0xb88fd66c	-6.8587105e-05
62	0x39e35003	0.00043356427
63	0x38a10c6b	7.679391e-05

exp_avg_sq f4 [2, 32]
0	0x3701b714	7.731625e-06
1	0x36b83161	5.489376e-06
2	0x37449f48	1.1719596e-05
3	0x374b0b97	1.2102441e-05
4	0x372dab49	1.0351484e-05
5	0x36acfbfa	5.1553334e-06
6	0x37746cda	1.4568877e-05
7	0x37709505	1.4339811e-05
8	0x373ac324	1.1131899e-05
9	0x36f08119	7.1675863e-06
10	0x372f3344	1.0442749e-05
11	0x366c1039	3.5176183e-06
12	0x36d3b1de	6.3089965e-06
13	0x35f0a955	1.7930676e-06
14	0x3781ac9c	1.5458376e-05
15	0x37221d00	9.6627045e-06
16	0x356947b9	8.6903634e-07
17	0x363a8583	2.7793874e-06
18	0x36e9afa4	6.9643884e-06
19	0x377863e5	1.480521e-05
20	0x3729a5ca	1.0111786e-05
21	0x364d717e	3.0613442e-06
22	0x373751ca	1.0926693e-05
23	0x37812923	1.5397154e-05
24	0x3732acec	1.0649888e-05
25	0x36734543	3.6250137e-06
26	0x373efe3d	1.1384077e-05
27	0x36087ef4	2.0339476e-06
28	0x36c6e564	5.9275644e-06
29	0x3682471f	3.8825815e-06
30	0x37774706	1.4738884e-05
31	0x376c04f1	1.4067847e-05
32	0x38cdcbfe	9.813158e-05
33	0x388a2381	6.586966e-05
34	0x392f3f74	0.00016712939
35	0x3917a7a2	0.0001446293
36	0x3919c116	0.00014663147
37	0x387f5abc	6.088124e-05
38	0x3957700c	0.00020545739
39	0x394f73a8	0.00019784144
40	0x39239c8f	0.00015603214
41	0x38ce8dba	9.849244e-05
42	0x392ad10d	0.00016290341
43	0x38164290	3.5824778e-05
44	0x38d6b220	0.000102374936
45	0x37943be3	1.7670862e-05
46	0x3967bb9e	0.0002209977
47	0x391c0f47	0.0001488301
48	0x37882e54	1.6234037e-05
49	0x37f780d7	2.950469e-05
50	0x38bfffc6	9.155231e-05
51	0x3942d197	0.0001857936
52	0x3914d37a	0.00014193161
53	0x37e63fea	2.7447899e-05
54	0x391cb5a4	0.00014944986
55	0x3961e361	0.00021542377
56	0x3920da85	0.00015340194
57	0x388528e2	6.349549e-05
58	0x392be327	0.00016392452
59	0x37f9adda	2.9764069e-05
60	0x38be6420	9.078556e-05
61	0x38332793	4.2713782e-05
62	0x395d4b8b	0.00021104344
63	0x3947cb9b	0.00019053968

exp_avg f4 [2]
0	0xba3fb7a4	-0.00073134364
1	0x3a20cdfe	0.0006134211

exp_avg_sq f4 [2]
0	0x37a34cbb	1.9466845e-05
1	0x398dba51	0.00027032432

exp_avg f4 [48, 4]
0	0x380218c5	3.1017484e-05
1	0xb8bebaf3	-9.094728e-05
2	0xb8a1f886	-7.723369e-05
3	0x379127e0	1.7303915e-05
4	0xb93ffdb0	-0.00018309685
5	0xb716f857	-8.998518e-06
6	0xb8e4a913	-0.0001090338
7	0xb8ae3168	-8.306169e-05
8	0x38e99248	0.00011137553
9	0x3805cf4f	3.1902742e-05
10	0x386cf2fc	5.649308e-05
11	0x38b60078	8.6785236e-05
12	0xb97fca29	-0.00024394006
13	0x3875cff0	5.860621e-05
14	0xb7ae4a5d	-2.0777044e-05
15	0xb92c8ce2	-0.00016455681
16	0x38749ed6	5.832206e-05
17	0x38b90a87	8.823448e-05
18	0x38eeef21	0.000113932656
19	0x3808d59d	3.262387e-05
20	0x393de8f4	0.00018111226
21	0xba212b87	-0.00061481487
22	0xb98dbdc7	-0.0002703501
23	0xb92b49a8	-0.0001633527
24	0x38b4fe5c	8.630447e-05
25	0x38656ea3	5.4700893e-05
26	0x39093197	0.00013083812
27	0x372a93ce	1.0167203e-05
28	0xb75502e0	-1.2696459e-05
29	0x36f0f63d	7.1812233e-06
30	0x37e85e19	2.7700373e-05
31	0xb80b50fe	-3.3215612e-05
32	0xb70c0513	-8.345832e-06
33	0x37f54737	2.9239438e-05
34	0x3720bfc6	9.581394e-06
35	0x373dc99d	1.131222e-05
36	0x3735c72c	1.0834814e-05
37	0xb946514a	-0.00018913034
38	0xb900fb64	-0.00012300682
39	0xb867e5bf	-5.528866e-05
40	0x37864724	1.6007172e-05
41	0x39d788cb	0.00041109914
42	0x3990fe8f	0.0002765548
43	0x391ddd58	0.00015055144
44	0xb8133a29	-3.5101697e-05
45	0xb870f17a	-5.744535e-05
46	0xb871b091	-5.7623318e-05
47	0xb8127b16	-3.4923745e-05
48	0x39461b94	0.00018893025
49	0x3ab05376	0.0013452608
50	0x39c2959e	0.00037114037
51	0x3a98717d	0.0011630502
52	0x388801f1	6.485347e-05
53	0x3a98d7b7	0.0011660968
54	0x3a8515e2	0.0010153616
55	0x39620fa0	0.0002155886
56	0x37a68a63	1.9853183e-05
57	0x37efcc74	2.8586226e-05
58	0x38d2d058	0.000100523874
59	0xb85a7542	-5.2084455e-05
60	0xb9ac0045	-0.00032806597
61	0x393283da	0.00017024521
62	0x38ba6339	8.887653e-05
63	0xb981572a	-0.0002466974
64	0x3a5e7a8c	0.0008486889
65	0xb9a8c73e	-0.00032191904
66	0x3a33589d	0.00068415125
67	0xb92506dc	-0.00015738182
68	0xb95d9e4f	-0.00021135177
69	0x39f76b6d	0.0004719155
70	0x3900d222	0.00012285312
71	0x3910665f	0.00013771046
72	0xb8cfc67a	-9.907498e-05
73	0x39833a28	0.00025029597
74	0xb863bc37	-5.4296306e-05
75	0x39578025	0.00020551735
76	0x3812b035	3.4973218e-05
77	0x38e85e6c	0.000110802095
78	0x37809e5d	1.5332533e-05
79	0x3908c778	0.00013044279
80	0x388da15c	6.7534595e-05
81	0xb92a42b8	-0.00016237318
82	0x38996181	7.31377e-05
83	0xb93022cf	-0.00016797635
84	0xb92e00f2	-0.00016594285
85	0x390ef3d1	0.00013633004
86	0x3924ff8d	0.00015735459
87	0xb9440cad	-0.00018696739
88	0x3933b397	0.00017137673
89	0x390fcaf4	0.00013713149
90	0x399911e3	0.0002919576
91	0x378ad634	1.6550628e-05
92	0xb8ba18e8	-8.87381e-05
93	0xb8e51497	-0.00010923406
94	0xb9658642	-0.00021889157
95	0x37af7c02	2.0919371e-05
96	0x3990b3c0	0.00027599744
97	0x396d40f6	0.00022626281
98	0x3887a090	6.467209e-05
99	0x39e56c1e	0.00043758837
100	0x3ac5bc20	0.0015085973
101	0x3b15b85f	0.002284549
102	0x3b188da7	0.002327779
103	0x3ac01192	0.0014653674
104	0x384d41ed	4.8937207e-05
105	0x39b3427e	0.0003419108
106	0x39821ba5	0.0002481613
107	0x39159e34	0.00014268683
108	0xb9a9fc45	-0.00032422147
109	0x391edeec	0.00015151099
110	0x3891cff7	6.952875e-05
111	0xb97e0198	-0.00024223921
112	0xb878e5b7	-5.9341746e-05
113	0x3a7e3f3c	0.0009698754
114	0x3a0b5bbe	0.00053161
115	0x39c6aa4e	0.0003789239
116	0xb9d27a30	-0.00040145358
117	0x3acfb771	0.0015847516
118	0x3a62e917	0.0008655949
119	0x39a6916b	0.00031770332
120	0x384198b2	4.6156994e-05
121	0x38de4e28	0.00010600343
122	0x391d16fb	0.00014981248
123	0x361d9120	2.3479297e-06
124	0x3a05ff27	0.0005111568
125	0x3a152f01	0.0005690903
126	0x39cd390f	0.0003914316
127	0x3a34919b	0.0006888152
128	0xbb2571f1	-0.0025244916
129	0xbb411b25	-0.0029465642
130	0xba0a63f0	-0.0005279174
131	0xbba1fa0a	-0.004943137
132	0xb99c300e	-0.00029790442
133	0x3a00e8c4	0.0004917497
134	0x3a57a9dd	0.0008226911
135	0xba24d91b	-0.0006288455
136	0xba170a6e	-0.0005761747
137	0xbb158a81	-0.002281815
138	0xbaff72d8	-0.0019489182
139	0xba6e4ec1	-0.0009090715
140	0xba199230	-0.00058582705
141	0xb8cabd94	-9.667422e-05
142	0xb9830584	-0.00024990377
143	0xb9e2ce3b	-0.00043259733
144	0x3abf8eb1	0.0014614669
145	0x3af7f7a9	0.0018918413
146	0x3b185232	0.0023242352
147	0x3a86e1f4	0.0010290728
148	0xbafdad21	-0.0019353965
149	0xbb4358e3	-0.002980762
150	0xbb1b1a33	-0.002366674
151	0xbb27153e	-0.002549484
152	0x39c7b830	0.00038093468
153	0x3a1ccf1d	0.000598179
154	0x3aa1adcb	0.001233512
155	0xb98560af	-0.00025439772
156	0xb92829b9	-0.00016037271
157	0xb9b1b089	-0.000338916
158	0xba080df6	-0.00051900686
159	0x37a567ff	1.971796e-05
160	0x398aa617	0.00026445158
161	0xba1914b5	-0.00058395724
162	0x37526f3d	1.2542875e-05
163	0xb9ae16cf	-0.0003320486
164	0x3b489067	0.0030603649
165	0x3ba5f029	0.0050640297
166	0x3b3b8455	0.0028612812
167	0x3bac7634	0.0052631143
168	0xb8140b99	-3.529675e-05
169	0x3a8925b8	0.0010463512
170	0x3a672fc7	0.000881907
171	0x39076bbc	0.00012914737
172	0xb96b7433	-0.00022454634
173	0xbae1e26b	-0.0017233616
174	0x391b3455	0.00014801447
175	0xbb095bbd	-0.0020959221
176	0x3a86a54f	0.0010272654
177	0xbb7486d2	-0.0037311804
178	0xba56bf6d	-0.0008191977
179	0xbaf708a1	-0.0018847176
180	0x3a172b52	0.0005766648
181	0xbbb5751d	-0.0055376426
182	0xbb618547	-0.0034411715
183	0xbac7343e	-0.0015198065
184	0x39d5f4ee	0.00040809013
185	0x3a413605	0.0007370415
186	0x3a882415	0.001038673
187	0x38df4249	0.00010645815
188	0xbb1ecba0	-0.0024230257
189	0xba4a5f12	-0.0007719855
190	0xbad832c2	-0.0016494619
191	0xbaca93fd	-0.0015455481

exp_avg_sq f4 [48, 4]
0	0x346e19a5	2.2174807e-07
1	0x34e89184	4.3319244e-07
2	0x34ae13b3	3.242436e-07
3	0x3494ac1c	2.7692374e-07
4	0x36d6546d	6.3875254e-06
5	0x34cd9205	3.829047e-07
6	0x35f063ec	1.7910475e-06
7	0x3660fcd2	3.3525762e-06
8	0x344a1c58	1.8823027e-07
9	0x34770ca8	2.3008272e-07
10	0x33a4b1b2	7.669168e-08
11	0x34cb7c76	3.7902254e-07
12	0x35ae9fa3	1.3010471e-06
13	0x32ceafcd	2.4061501e-08
14	0x34b13371	3.3006248e-07
15	0x3516c950	5.61723e-07
16	0x353e9179	7.0992206e-07
17	0x358dd9c9	1.0568702e-06
18	0x357a0bab	9.3149237e-07
19	0x35550359	7.9353555e-07
20	0x3640b820	2.8717404e-06
21	0x3708afa4	8.147126e-06
22	0x36787ce4	3.7027576e-06
23	0x36cd6e3b	6.1223086e-06
24	0x361de327	2.3527043e-06
25	0x351b99e3	5.7965934e-07
26	0x35a8c0c9	1.2573083e-06
27	0x35b98a45	1.3823816e-06
28	0x34194ea4	1.4277845e-07
29	0x351b6558	5.7889474e-07
30	0x340bd17f	1.3021598e-07
31	0x3521590d	6.010676e-07
32	0x35940ee5	1.1031194e-06
33	0x35996dd5	1.1431354e-06
34	0x343559e7	1.6889645e-07
35	0x36299347	2.526869e-06
36	0x351022aa	5.3694623e-07
37	0x36702cb4	3.5788808e-06
38	0x3502846f	4.862149e-07
39	0x367cc5af	3.7665993e-06
40	0x36b29556	5.3221984e-06
41	0x37c0ec38	2.2998182e-05
42	0x36de96ab	6.6336556e-06
43	0x37a8478e	2.006048e-05
44	0x35438139	7.2831205e-07
45	0x3316996e	3.506414e-08
46	0x33e0d87a	1.047019e-07
47	0x35055e07	4.968319e-07
48	0x38e171f4	0.000107500615
49	0x39235232	0.00015575511
50	0x38ac3175	8.210811e-05
51	0x394153f2	0.00018437186
52	0x3688d230	4.077585e-06
53	0x38eacea0	0.000111964764
54	0x385f197d	5.319108e-05
55	0x37ef4632	2.8523707e-05
56	0x347575b1	2.2860219e-07
57	0x35b0aed5	1.3163905e-06
58	0x34da3899	4.0646844e-07
59	0x3584838a	9.873049e-07
60	0x3705040c	7.92836e-06
61	0x36353945	2.7004437e-06
62	0x36366af8	2.7182377e-06
63	0x369d1b3d	4.6821356e-06
64	0x3a239322	0.0006239881
65	0x378c2655	1.670715e-05
66	0x38af5fee	8.3625186e-05
67	0x3958a7b2	0.00020661837
68	0x37a07517	1.912801e-05
69	0x35f7e798	1.8470337e-06
70	0x36e92da7	6.9492557e-06
71	0x364b865c	3.0327565e-06
72	0x36c2afce	5.802117e-06
73	0x364f50e5	3.089249e-06
74	0x358d76ef	1.0539933e-06
75	0x35f79ec9	1.8449147e-06
76	0x3539c150	6.919918e-07
77	0x352bc8da	6.399474e-07
78	0x358d5a39	1.0531577e-06
79	0x347fec83	2.3834768e-07
80	0x34ff1be6	4.751775e-07
81	0x365d957e	3.3018582e-06
82	0x34ba1ea7	3.4667502e-07
83	0x364a0567	3.010349e-06
84	0x34f15105	4.4948698e-07
85	0x34bc24c1	3.504447e-07
86	0x34692fb7	2.1717175e-07
87	0x34cfe4f6	3.8723346e-07
88	0x36c4b3f9	5.8622068e-06
89	0x3554c777	7.9266414e-07
90	0x36443533	2.9237242e-06
91	0x362de9f7	2.5915194e-06
92	0x35daa3f5	1.6289983e-06
93	0x36999eea	4.5782554e-06
94	0x3632ecff	2.6662017e-06
95	0x3650867f	3.1072702e-06
96	0x36b6dc08	5.4496377e-06
97	0x36563c68	3.1923646e-06
98	0x355976e7	8.1011825e-07
99	0x376ded84	1.4181602e-05
100	0x38ab2793	8.161287e-05
101	0x39b06452	0.0003364408
102	0x39c2ca26	0.00037153176
103	0x388f3fa8	6.830628e-05
104	0x35a703cb	1.2443573e-06
105	0x3655a23c	3.1833906e-06
106	0x36a79226	4.9940018e-06
107	0x35aa1643	1.2672466e-06
108	0x3881f25a	6.196341e-05
109	0x3714a2f8	8.859432e-06
110	0x37b2046b	2.122131e-05
111	0x3740781f	1.147206e-05
112	0x375fd231	1.3340775e-05
113	0x3848533f	4.7761245e-05
114	0x37da4744	2.602081e-05
115	0x3800c422	3.070024e-05
116	0x37a26960	1.9360974e-05
117	0x38939a41	7.038238e-05
118	0x3724f136	9.831323e-06
119	0x367d3930	3.7733225e-06
120	0x352e9dfb	6.5049943e-07
121	0x357b386c	9.358689e-07
122	0x351cf561	5.84716e-07
123	0x35b4c5d4	1.3468621e-06
124	0x36cc3471	6.0857788e-06
125	0x37eb4a03	2.8048647e-05
126	0x37676e9d	1.3794427e-05
127	0x3782536b	1.5536052e-05
128	0x3a6e88fe	0.0009099393
129	0x3a2a18db	0.0006488689
130	0x3a0c32b1	0.000534813
131	0x3a8b0354	0.001060585
132	0x39fadf0f	0.00047849907
133	0x38648bba	5.4489567e-05
134	0x39450cf3	0.00018792208
135	0x39686c90	0.00022165687
136	0x3956ca65	0.00020484028
137	0x39ccfc40	0.00039097853
138	0x3950a18f	0.00019896611
139	0x39ce2db2	0.00039325427
140	0x38922967	6.969534e-05
141	0x36921020	4.3530163e-06
142	0x37b8c83e	2.2027754e-05
143	0x37fc7711	3.0096186e-05
144	0x38c97c19	9.607542e-05
145	0x3960746e	0.00021405678
146	0x3906d650	0.00012859073
147	0x39302c37	0.0001680114
148	0x3a77ac27	0.0009447955
149	0x3a2598d8	0.0006317026
150	0x3a201860	0.0006107148
151	0x3a690fcb	0.0008890598
152	0x3970cb9b	0.00022964033
153	0x3893b7e1	7.043756e-05
154	0x38f161f9	0.00011510024
155	0x392e6749	0.0001663241
156	0x3718fd15	9.118831e-06
157	0x3815a7db	3.5680696e-05
158	0x370ad48d	8.274929e-06
159	0x381b1ea8	3.698343e-05
160	0x38089652	3.2564923e-05
161	0x37da6cab	2.6038228e-05
162	0x36f0c03c	7.1749364e-06
163	0x387b49be	5.991174e-05
164	0x3b0698c3	0.002053783
165	0x3b078b67	0.0020682456
166	0x3a83c92d	0.0010054462
167	0x3b57cb27	0.0032927485
168	0x38938b86	7.0354945e-05
169	0x392868b8	0.0001606074
170	0x388801d1	6.485324e-05
171	0x3929e0e8	0.0001620088
172	0x39845c38	0.0002524571
173	0x3908d5c2	0.00013049602
174	0x39281c32	0.00016032232
175	0x395386dc	0.00020172767
176	0x39e0d1df	0.00042880976
177	0x3a4a2a02	0.0007711948
178	0x39b17710	0.0003384878
179	0x3a63273a	0.0008665208
180	0x38888903	6.510506e-05
181	0x3ae8b853	0.0017755128
182	0x3a59347a	0.00082857127
183	0x39ef1b11	0.00045605798
184	0x377f7718	1.5226913e-05
185	0x38e3d972	0.00010864706
186	0x37d3ec66	2.5263242e-05
187	0x38b23b92	8.498797e-05
188	0x38d72600	0.00010259077
189	0x38afb9ad	8.379235e-05
190	0x38bce6ce	9.007529e-05
191	0x3897b285	7.233493e-05

exp_avg f4 [48, 16]
0	0xb869e7ff	-5.5767592e-05
1	0xb8bc00f1	-8.964714e-05
2	0x38b541be	8.642998e-05
3	0xb95e1194	-0.00021178118
4	0xb8866e6e	-6.410187e-05
5	0x373fb4dc	1.1426597e-05
6	0xb8a60512	-7.916441e-05
7	0x39258b4d	0.0001578752
8	0x38b90532	8.822455e-05
9	0x38c8af45	9.56939e-05
10	0xb8c55d1d	-9.411036e-05
11	0x37e33f10	2.7089874e-05
12	0x38374569	4.3695243e-05
13	0x389323a4	7.016145e-05
14	0xb8d58d86	-0.00010182992
15	0xb900fbba	-0.00012300807
16	0x36fe4699	7.5780085e-06
17	0x396e8b17	0.00022749264
18	0x3936b5e8	0.00017424638
19	0x3897a539	7.231016e-05
20	0xb9c211d1	-0.00037015838
21	0x39b1e3f7	0.00033929918
22	0xb9664754	-0.00021961081
23	0x39a99465	0.00032344754
24	0x38bfde72	9.1490234e-05
25	0xb8a6270f	-7.922772e-05
26	0xb961509c	-0.00021487701
27	0x3928e4cc	0.00016106962
28	0x3855494d	5.0851424e-05
29	0x38200188	3.81484e-05
30	0xb9a377eb	-0.0003117913
31	0x37c60980	2.3607863e-05
32	0xb8f6da10	-0.000117708114
33	0x38122e18	3.485204e-05
34	0xb94ec041	-0.00019717311
35	0x398227e1	0.00024825244
36	0x390d4b23	0.00013474798
37	0xb87d5bf1	-6.0405528e-05
38	0x394a177d	0.00019272971
39	0xb94f62de	-0.00019777889
40	0xb94cb591	-0.00019522595
41	0x380cf1e3	3.3603876e-05
42	0x393a348a	0.00017757915
43	0xb8c976dd	-9.606567e-05
44	0xb900ac6d	-0.00012271265
45	0xb856b269	-5.1187733e-05
46	0x397db9e4	0.0002419721
47	0x3956f953	0.00020501511
48	0x38d1f27f	0.00010011065
49	0xb7c396d7	-2.3316052e-05
50	0x3960044f	0.0002136391
51	0xb797c930	-1.8094288e-05
52	0xb80d6eae	-3.3720098e-05
53	0x380b7b08	3.3254764e-05
54	0xb9454f55	-0.00018816938
55	0x3933dfce	0.00017154144
56	0x396d746f	0.00022645456
57	0x38a95339	8.0740494e-05
58	0xb949ff49	-0.00019263955
59	0x38cf1f1d	9.8763245e-05
60	0x38921b98	6.966962e-05
61	0x38a2d8f4	7.7651726e-05
62	0xb934f7e7	-0.00017258489
63	0xb89eaaeb	-7.565863e-05
64	0xb81f9255	-3.8044836e-05
65	0xb8c97b50	-9.6073956e-05
66	0xb965c836	-0.00021913726
67	0x39d0b736	0.00039809354
68	0x390d67f3	0.00013485532
69	0xb8e58a1d	-0.000109452965
70	0x397605b7	0.00023462517
71	0xb9750db3	-0.00023370124
72	0xb99f3da8	-0.0003037278
73	0xb8a53945	-7.8784804e-05
74	0x3986008a	0.00025558873
75	0xb88f6bd9	-6.8388596e-05
76	0xb989777f	-0.00026219708
77	0x38df4054	0.00010645451
78	0x3981f383	0.00024786228
79	0x39c9c96d	0.0003848778
80	0xb9c50d52	-0.00037584692
81	0x381f3f31	3.7967406e-05
82	0x3a09fa5b	0.0005263441
83	0xb9d549e3	-0.00040681576
84	0xb9711494	-0.00022991217
85	0xb88f1418	-6.822514e-05
86	0xb9f73c8e	-0.00047156628
87	0x3a15f4d1	0.00057203794
88	0x3a01a4be	0.0004945508
89	0x3a24cbd5	0.0006286477
90	0xb9e5b685	-0.0004381427
91	0x3a16afaf	0.0005748225
92	0x3a086233	0.0005202621
93	0x396b454e	0.00022437164
94	0xb9f6f8d0	-0.00047106156
95	0xba20bda5	-0.0006131775
96	0x38ae0ba4	8.299135e-05
97	0xb6adcee3	-5.1798866e-06
98	0xb97ce47d	-0.00024117711
99	0x39b7632e	0.00034978375
100	0x394e19e4	0.00019655336
101	0xb8b547c5	-8.644121e-05
102	0x3988d235	0.00026096558
103	0xb99daca0	-0.0003007399
104	0xb997f02d	-0.0002897991
105	0xb94cc6a5	-0.00019528957
106	0x39901d59	0.00027487686
107	0xb93dabd4	-0.00018088456
108	0xb98f354a	-0.0002731479
109	0xb81b9f3b	-3.7103175e-05
110	0x39ab67c0	0.0003269296
111	0x39e7bc3c	0.000442
112	0x38373c82	4.3686952e-05
113	0xb8a75458	-7.978891e-05
114	0xb7a36ea4	-1.9482635e-05
115	0x389e8dd8	7.5604476e-05
116	0x370913fd	8.17049e-06
117	0xb8c612ea	-9.444899e-05
118	0x382a2764	4.0567844e-05
119	0xb81af6ff	-3.6946494e-05
120	0xb8942efe	-7.065943e-05
121	0xb885698e	-6.361595e-05
122	0x3871d4e3	5.7657144e-05
123	0xb86801b0	-5.5314682e-05
124	0xb8e9d692	-0.000111502726
125	0x38ce36ce	9.8330536e-05
126	0x385a2cd2	5.2016992e-05
127	0x3926046b	0.0001583264
128	0x39a6f9ac	0.00031848007
129	0x39199cc5	0.00014649618
130	0xb6a61b69	-4.9503765e-06
131	0x39952dda	0.00028453657
132	0x39111cd5	0.00013839018
133	0x385fa436	5.3320276e-05
134	0x38643057	5.4404456e-05
135	0xb9002aa5	-0.00012222918
136	0xb8cca9c9	-9.759103e-05
137	0xb9bc9442	-0.00035968615
138	0x3937577f	0.00017484835
139	0xb837c694	-4.381554e-05
140	0xb96388c3	-0.00021699355
141	0xb924e2c6	-0.00015724738
142	0x391f1028	0.0001516944
143	0x39df82c7	0.0004263131
144	0x39215195	0.00015384548
145	0x38964fa6	7.167393e-05
146	0x398235f9	0.00024835745
147	0xb9ed20ae	-0.0004522851
148	0xb9ba94c6	-0.0003558753
149	0x3792db34	1.750663e-05
150	0xb9c3a7d7	-0.0003731835
151	0x39ed906c	0.00045311765
152	0x39c078c3	0.00036711068
153	0x39170814	0.00014403492
154	0xb9d42fbe	-0.00040471362
155	0x38584653	5.1563908e-05
156	0x39994ec8	0.0002924113
157	0x3904c19f	0.0001266063
158	0xb9d28fb5	-0.0004016139
159	0xb9c5f591	-0.0003775773
160	0x39a09a46	0.0003063252
161	0x39a2897b	0.0003100148
162	0xb9bc2140	-0.00035882927
163	0x3ab56a2a	0.0013840843
164	0x39e3641d	0.00043371404
165	0x38891703	6.536955e-05
166	0x3a049711	0.0005057911
167	0xba274d4f	-0.00063820643
168	0xba122c61	-0.0005576071
169	0xba60edfc	-0.00085803843
170	0x3a11ebd5	0.0005566453
171	0xb91565ed	-0.00014247718
172	0xba46f8a4	-0.0007590151
173	0xb93e3076	-0.00018137865
174	0x3a14fc73	0.000568337
175	0x3aa17b17	0.0012320009
176	0x387fbe70	6.0974096e-05
177	0xb6c30bbf	-5.8128203e-06
178	0x3969122b	0.0002222738
179	0xb879b771	-5.953707e-05
180	0xb8c48caa	-9.372209e-05
181	0x3900c7d9	0.0001228148
182	0xb9128c02	-0.00013975802
183	0x396a24d0	0.00022329693
184	0x3929f179	0.00016207052
185	0xb56fb43a	-8.92967e-07
186	0xb8e980b1	-0.000111342764
187	0x390eecdd	0.00013630414
188	0x3820da57	3.8350317e-05
189	0x37592980	1.294387e-05
190	0xb92c4ced	-0.00016431855
191	0xb7ea8c2a	-2.7960243e-05
192	0x3a5fca66	0.00085369346
193	0x39bfe0f5	0.00036597965
194	0xba8073bd	-0.0009800118
195	0x3b4c4960	0.0031171665
196	0x3a9199ff	0.0011108516
197	0xb9123d8d	-0.00013946574
198	0x3aacec7b	0.0013193035
199	0xbace8462	-0.0015756006
200	0xbab41b12	-0.0013740978
201	0xbb156aaa	-0.0022799172
202	0x3abaa935	0.0014241101
203	0xb94d6991	-0.0001958965
204	0xbae03036	-0.0017104212
205	0xb900e807	-0.00012293468
206	0x3abf5e1d	0.0014600191
207	0x3b2f1e6d	0.0026721016
208	0x38442c95	4.677156e-05
209	0xb9c96243	-0.00038410918
210	0xba5d3a56	-0.00084391737
211	0x3ab1b2a7	0.0013557271
212	0x3ab55bfc	0.0013836618
213	0xb9b5db53	-0.0003468642
214	0x3a86ba55	0.001027892
215	0xbacabc7f	-0.0015467553
216	0xba8fd24b	-0.0010972706
217	0xba2fd945	-0.0006708096
218	0x3a8ac86a	0.0010588292
219	0xba7a7b26	-0.0009555094
220	0xba8bdc4e	-0.0010670514
221	0xb9137000	-0.00014060736
222	0x3ace6463	0.001574647
223	0x3a618ec9	0.00086043455
224	0xb7f68934	-2.9389375e-05
225	0xb8fbad60	-0.00012000906
226	0xb996b4cf	-0.00028744942
227	0x3999d4fb	0.00029341117
228	0x3953023a	0.00020123358
229	0xb91fac1c	-0.00015227537
230	0x399a8641	0.00029473196
231	0xb98d0d84	-0.00026903686
232	0xb9b84a07	-0.0003515037
233	0xb90707d1	-0.00012877515
234	0x39b440ef	0.00034380655
235	0xb931862e	-0.00016930021
236	0xb998c2f8	-0.00029136962
237	0x38648112	5.4479642e-05
238	0x398d311c	0.00026930205
239	0x39d9dc01	0.0004155338
240	0x3a57de3c	0.00082347146
241	0x3a054e96	0.00050852576
242	0x394e4620	0.00019671815
243	0xb94e919b	-0.00019699933
244	0xb9d59279	-0.00040735657
245	0x38436ab8	4.6591013e-05
246	0xb9bc476c	-0.00035911368
247	0x399d394d	0.00029988066
248	0x39b6a016	0.00034833018
249	0xb9aa393f	-0.00032467578
250	0xba260086	-0.00063324755
251	0xba042d8b	-0.0005042187
252	0x39cc39bd	0.0003895293
253	0xb905ccba	-0.00012760135
254	0xb9bb32c5	-0.00035705246
255	0xb935789c	-0.00017306436

exp_avg_sq f4 [48, 16]
0	0x3539a58f	6.915879e-07
1	0x34fac408	4.670876e-07
2	0x352a3fd9	6.3422846e-07
3	0x36987b09	4.544276e-06
4	0x35babec4	1.39136e-06
5	0x3532015f	6.631216e-07
6	0x358e42f5	1.0599312e-06
7	0x35fcc3a6	1.8832404e-06
8	0x35c33ef8	1.4546958e-06
9	0x368dbb71	4.2239485e-06
10	0x360ef915	2.1304634e-06
11	0x34ac1970	3.2056005e-07
12	0x363cab99	2.8114066e-06
13	0x352f9a48	6.541709e-07
14	0x35e7ec3e	1.7279597e-06
15	0x369d19e7	4.68198e-06
16	0x36556385	3.1797401e-06
17	0x363a615b	2.7772828e-06
18	0x37749d37	1.4580138e-05
19	0x370144e4	7.705039e-06
20	0x3748f724	1.1978471e-05
21	0x3680a4a7	3.8338653e-06
22	0x378a6ca2	1.6501468e-05
23	0x3795b77c	1.7847626e-05
24	0x375d7c5b	1.320158e-05
25	0x3626933f	2.4821636e-06
26	0x3758428d	1.2890098e-05
27	0x363192cb	2.64605e-06
28	0x36ba1728	5.5459277e-06
29	0x353179d1	6.6114904e-07
30	0x37a115bd	1.9202818e-05
31	0x372d56c5	1.0331806e-05
32	0x3468ac11	2.1669281e-07
33	0x34a4fd6c	3.073177e-07
34	0x35bfc654	1.428833e-06
35	0x35bb8ad8	1.3972995e-06
36	0x35b31e7b	1.334541e-06
37	0x34ae7f36	3.2502584e-07
38	0x35ebde73	1.7573606e-06
39	0x36071551	2.0128975e-06
40	0x35c315bb	1.4534957e-06
41	0x3440b9d9	1.7949004e-07
42	0x35d2759f	1.5680451e-06
43	0x34906ed9	2.6902742e-07
44	0x355c84e9	8.2149796e-07
45	0x342b789f	1.5969498e-07
46	0x360df360	2.11523e-06
47	0x35d5dc08	1.5933774e-06
48	0x3490493f	2.6875384e-07
49	0x357c4eb7	9.399186e-07
50	0x3533271d	6.6739614e-07
51	0x359bb545	1.1601156e-06
52	0x35e08ce5	1.6730306e-06
53	0x3441fc8b	1.80664e-07
54	0x35a3fe1d	1.2218403e-06
55	0x36396bcd	2.7629897e-06
56	0x35a6b7e1	1.242148e-06
57	0x35673caf	8.614251e-07
58	0x35beeb52	1.422459e-06
59	0x34d33e28	3.9347037e-07
60	0x34e8d14e	4.3365657e-07
61	0x35a9ae54	1.2642217e-06
62	0x3629926c	2.5268191e-06
63	0x3593275d	1.096381e-06
64	0x3496e240	2.8104296e-07
65	0x34d96d58	4.0498958e-07
66	0x36a44980	4.8961374e-06
67	0x37539317	1.2610827e-05
68	0x36f92c16	7.4259106e-06
69	0x34cb5bc8	3.7878476e-07
70	0x3705be04	7.971659e-06
71	0x373d616a	1.1287959e-05
72	0x370da4b8	8.4426065e-06
73	0x36717553	3.598009e-06
74	0x3722b081	9.697048e-06
75	0x355a9fe9	8.144403e-07
76	0x36bc5b94	5.6134977e-06
77	0x3582dcfa	9.750067e-07
78	0x37365f0d	1.0870176e-05
79	0x375bdffa	1.3105566e-05
80	0x374dd438	1.2268363e-05
81	0x370504fd	7.928579e-06
82	0x374f6b21	1.2363104e-05
83	0x385eeb27	5.3147927e-05
84	0x3817d52f	3.6199748e-05
85	0x36f1b692	7.2036137e-06
86	0x380fedbf	3.4315275e-05
87	0x382fbd2b	4.1899428e-05
88	0x380c02af	3.33811e-05
89	0x37074d96	8.064691e-06
90	0x381dbf74	3.761002e-05
91	0x36748335	3.6435206e-06
92	0x37c66a93	2.3653067e-05
93	0x3714b225	8.862965e-06
94	0x383e376c	4.5351146e-05
95	0x3821fcbc	3.862077e-05
96	0x34ff7e5f	4.7589398e-07
97	0x354142ba	7.19952e-07
98	0x37054ad3	7.944839e-06
99	0x37a2734f	1.93656e-05
100	0x37667663	1.3736632e-05
101	0x3515420c	5.5602936e-07
102	0x3762bc60	1.3514509e-05
103	0x37a19fbb	1.9267076e-05
104	0x3769bb72	1.3931525e-05
105	0x36b94610	5.521586e-06
106	0x37918e03	1.7351476e-05
107	0x35cfa259	1.5469951e-06
108	0x3736c2b8	1.0893382e-05
109	0x364a3158	3.0129067e-06
110	0x37a2ed14	1.9422303e-05
111	0x37afaba4	2.0941552e-05
112	0x352b3bd9	6.3789554e-07
113	0x3525a789	6.1711086e-07
114	0x364f67fc	3.090593e-06
115	0x37411e03	1.1510684e-05
116	0x36e9f25d	6.972156e-06
117	0x34c68f03	3.698443e-07
118	0x36dd03d7	6.5867603e-06
119	0x371a7220	9.205687e-06
120	0x36eda9dc	7.0829246e-06
121	0x364b9df4	3.0341298e-06
122	0x3712a160	8.739851e-06
123	0x34c93bcc	3.7482675e-07
124	0x36ab1bdc	5.0994404e-06
125	0x359f821b	1.1884289e-06
126	0x371bd072	9.287252e-06
127	0x37390c66	1.1029746e-05
128	0x36172553	2.252248e-06
129	0x359b99fe	1.1593218e-06
130	0x362bbdaf	2.5591396e-06
131	0x377b7d22	1.4989901e-05
132	0x36e2e058	6.761442e-06
133	0x35a3a48c	1.2192336e-06
134	0x36a1b4c4	4.819218e-06
135	0x3714728d	8.848158e-06
136	0x36ce0231	6.1395335e-06
137	0x37431bb0	1.1629352e-05
138	0x372b638b	1.0215571e-05
139	0x35ce2283	1.535824e-06
140	0x37260608	9.895775e-06
141	0x363e8956	2.8392146e-06
142	0x370b4ce2	8.302946e-06
143	0x3795f596	1.7876544e-05
144	0x352e8ab8	6.5021914e-07
145	0x353a92e8	6.9504176e-07
146	0x36fb3898	7.4869713e-06
147	0x3797cc3f	1.8095712e-05
148	0x3747b666	1.1903792e-05
149	0x351bed8a	5.8087664e-07
150	0x3752a437	1.255521e-05
151	0x378801b5	1.6213258e-05
152	0x3759bf3e	1.2978735e-05
153	0x36a7adc2	4.997216e-06
154	0x3784d3fa	1.5834335e-05
155	0x3589d5ce	1.0269521e-06
156	0x3743a827	1.1662057e-05
157	0x35c79728	1.4870648e-06
158	0x378a9530	1.6520353e-05
159	0x37a39946	1.9502488e-05
160	0x36b73732	5.4602506e-06
161	0x36c31e73	5.8149976e-06
162	0x38223914	3.8676968e-05
163	0x3917a046	0.00014460189
164	0x3896fa7e	7.199215e-05
165	0x36805815	3.8249514e-06
166	0x3890c594	6.903257e-05
167	0x38e1de26	0.000107702144
168	0x38a15958	7.69372e-05
169	0x3883b976	6.2811116e-05
170	0x38cbcd80	9.718072e-05
171	0x37161237	8.944938e-06
172	0x388d1009	6.726391e-05
173	0x376e55df	1.4205899e-05
174	0x38d4d57b	0.000101487116
175	0x391d7617	0.00015016679
176	0x345d3382	2.0600967e-07
177	0x3457693a	2.0061717e-07
178	0x354b0fcd	7.5646386e-07
179	0x35090c98	5.1054803e-07
180	0x357517fc	9.1304514e-07
181	0x348224e9	2.4241243e-07
182	0x358152b4	9.635319e-07
183	0x35bdc209	1.4138069e-06
184	0x3558c2de	8.074984e-07
185	0x34a70eff	3.1117085e-07
186	0x3574b07e	9.1153913e-07
187	0x34c7b955	3.7201485e-07
188	0x350c7a6d	5.2332217e-07
189	0x34cbfae9	3.7994258e-07
190	0x35be7a53	1.4191704e-06
191	0x353aae43	6.9543984e-07
192	0x38b7fc8a	8.773159e-05
193	0x38ebe12f	0.00011247617
194	0x39006135	0.00012243244
195	0x3a37e32d	0.0007014748
196	0x39a6e487	0.00031832253
197	0x380c03a1	3.338198e-05
198	0x398cf047	0.000268819
199	0x3a09c364	0.0005255251
200	0x39a7f566	0.00032035558
201	0x3a2685f9	0.0006352361
202	0x39d8ef60	0.0004137708
203	0x3860d97f	5.360832e-05
204	0x398e7160	0.00027168822
205	0x39146eee	0.00014155704
206	0x39f1e36c	0.00046136545
207	0x3a305808	0.0006726985
208	0x369dcb44	4.702628e-06
209	0x368e148f	4.234323e-06
210	0x39002e09	0.0001222418
211	0x397f58df	0.00024351802
212	0x3941653b	0.00018443626
213	0x36e4b5cd	6.816094e-06
214	0x394d2246	0.00019563091
215	0x398feac3	0.00027449997
216	0x394b8ae0	0.00019411324
217	0x38711f69	5.748813e-05
218	0x39654d1a	0.00021867864
219	0x37bb563c	2.2332293e-05
220	0x3904fe04	0.00012683129
221	0x37d68a35	2.5575146e-05
222	0x398f7f8d	0.00027370118
223	0x398264c7	0.00024870617
224	0x34ed29d7	4.4175133e-07
225	0x356098a1	8.3668607e-07
226	0x36d7ae0a	6.42776e-06
227	0x37a6c758	1.9881569e-05
228	0x3747a871	1.1900543e-05
229	0x34ea9fd9	4.37022e-07
230	0x374afc1b	1.2098836e-05
231	0x37920c94	1.7410413e-05
232	0x375deee4	1.3228248e-05
233	0x36c8ebd5	5.987919e-06
234	0x377ff236	1.5255579e-05
235	0x35607c8f	8.362776e-07
236	0x370a0b50	8.228075e-06
237	0x35e4f8bb	1.7059714e-06
238	0x378db557	1.6892953e-05
239	0x37a9525b	2.018472e-05
240	0x376cd0cd	1.4115311e-05
241	0x378ca5d9	1.676653e-05
242	0x36d6005a	6.377738e-06
243	0x37c0ecff	2.2998543e-05
244	0x37a42aca	1.9570249e-05
245	0x36dc9004	6.5732766e-06
246	0x37818fc2	1.544494e-05
247	0x37e02353	2.671933e-05
248	0x37844900	1.576962e-05
249	0x37ef6ece	2.8542618e-05
250	0x379cf9eb	1.8713026e-05
251	0x36c91d60	5.9936865e-06
252	0x3740336a	1.1456063e-05
253	0x379ea134	1.8910134e-05
254	0x37d810bc	2.5757e-05
255	0x378c4da3	1.6725453e-05

exp_avg f4 [48]
0	0xb945eecc	-0.00018876343
1	0xb9b9a9b2	-0.00035412383
2	0x39978d34	0.0002890617
3	0xb8eac519	-0.00011194702
4	0x397d44ab	0.00024153541
5	0xba143df1	-0.0005654982
6	0x3995c778	0.0002856811
7	0x37e940c0	2.7805916e-05
8	0x38533cba	5.0362876e-05
9	0xb9a501d1	-0.00031472606
10	0x3a453b6c	0.0007523808
11	0xb951716a	-0.00019974043
12	0x3ae1d033	0.0017228186
13	0x3ae00268	0.0017090561
14	0x396ae34a	0.00022400651
15	0xb95a4152	-0.00020814434
16	0x3a9771d8	0.0011554314
17	0x3a8697bb	0.0010268608
18	0x3a5b7866	0.0008372128
19	0x390f2263	0.00013650353
20	0x3a04e113	0.0005068939
21	0x396b4c5e	0.00022439795
22	0x3a3ad90d	0.000712768
23	0x394b5902	0.00019392747
24	0x3a471d98	0.00075956574
25	0x3bf1182c	0.007357618
26	0x3a0f8d78	0.00054760976
27	0xba20757a	-0.0006121021
28	0x3a26a3d9	0.00063568127
29	0x399603ec	0.00028613152
30	0x3a2bcd26	0.0006553702
31	0x3b0a707a	0.002112417
32	0xbbf01cdb	-0.0073276586
33	0x3a319469	0.0006774129
34	0xbbd03db3	-0.0063550114
35	0xb982ad20	-0.0002492452
36	0x3bf87635	0.0075824508
37	0xbbf3c00a	-0.0074386643
38	0x3b3b1d10	0.0028551258
39	0xbb263d18	-0.0025366005
40	0xba537daa	-0.00080677366
41	0x3c66e5f6	0.014092913
42	0x3b1abb52	0.0023610187
43	0xbb4ab2da	-0.0030929358
44	0xbb55d11d	-0.0032625862
45	0xbbd8b421	-0.00661327
46	0x3b6999e5	0.0035644707
47	0xbbb9ae20	-0.0056665093

exp_avg_sq f4 [48]
0	0x361e3ae2	2.357811e-06
1	0x37c2eac5	2.3235925e-05
2	0x3633d609	2.6797663e-06
3	0x368263a0	3.8859e-06
4	0x3767f712	1.38261985e-05
5	0x38628f02	5.4015785e-05
6	0x37be5355	2.268857e-05
7	0x373a2bd5	1.1096669e-05
8	0x3715a654	8.919818e-06
9	0x379cb3cd	1.8680375e-05
10	0x3904d4fd	0.00012667845
11	0x35ffcef6	1.9059214e-06
12	0x3a25f148	0.0006330204
13	0x39b0c307	0.00033714643
14	0x37b10be7	2.1105587e-05
15	0x38162ef3	3.580651e-05
16	0x3ab0dbf4	0.0013493286
17	0x37b388a3	2.140209e-05
18	0x38364fae	4.346639e-05
19	0x3657fd1f	3.2184832e-06
20	0x370628dc	7.996536e-06
21	0x3693954b	4.3983214e-06
22	0x3815a944	3.568201e-05
23	0x36ab3375	5.1021875e-06
24	0x381e9390	3.7807564e-05
25	0x3b33c772	0.002743211
26	0x37bebb63	2.2737024e-05
27	0x38695132	5.5627148e-05
28	0x380ca991	3.3536522e-05
29	0x371dc2b6	9.403264e-06
30	0x37832c29	1.563698e-05
31	0x391b0dc3	0.00014787079
32	0x3be51639	0.0069911745
33	0x3b0fdb21	0.002195068
34	0x3b8aadab	0.0042321286
35	0x392cb4c8	0.00016470545
36	0x3b2c5203	0.0026294
37	0x3c0d9a77	0.008642784
38	0x3b23a771	0.002497163
39	0x3a2eba60	0.0006665345
40	0x3998f820	0.00029176567
41	0x3ca3a116	0.019974273
42	0x3a96d9e3	0.0011509027
43	0x3ace6e6a	0.0015749459
44	0x3b109178	0.0022059362
45	0x3bada3d8	0.0052990727
46	0x3a777de7	0.0009441063
47	0x3a5379fd	0.0008067189

exp_avg f4 [48]
0	0xb945eecc	-0.00018876343
1	0xb9b9a9b2	-0.00035412383
2	0x39978d34	0.0002890617
3	0xb8eac519	-0.00011194702
4	0x397d44ab	0.00024153541
5	0xba143df1	-0.0005654982
6	0x3995c778	0.0002856811
7	0x37e940c0	2.7805916e-05
8	0x38533cba	5.0362876e-05
9	0xb9a501d1	-0.00031472606
10	0x3a453b6c	0.0007523808
11	0xb951716a	-0.00019974043
12	0x3ae1d033	0.0017228186
13	0x3ae00268	0.0017090561
14	0x396ae34a	0.00022400651
15	0xb95a4152	-0.00020814434
16	0x3a9771d8	0.0011554314
17	0x3a8697bb	0.0010268608
18	0x3a5b7866	0.0008372128
19	0x390f2263	0.00013650353
20	0x3a04e113	0.0005068939
21	0x396b4c5e	0.00022439795
22	0x3a3ad90d	0.000712768
23	0x394b5902	0.00019392747
24	0x3a471d98	0.00075956574
25	0x3bf1182c	0.007357618
26	0x3a0f8d78	0.00054760976
27	0xba20757a	-0.0006121021
28	0x3a26a3d9	0.00063568127
29	0x399603ec	0.00028613152
30	0x3a2bcd26	0.0006553702
31	0x3b0a707a	0.002112417
32	0xbbe75a5d	-0.0070603327
33	0x3a694ca2	0.0008899664
34	0xbbad2e28	-0.0052850433
35	0xb983bc4f	-0.00025126568
36	0x3be5dd38	0.0070148967
37	0xbbd045a9	-0.0063559604
38	0x3b239c4b	0.0024964984
39	0xbb11bfcc	-0.0022239564
40	0xb9a1cab2	-0.00030859333
41	0x3c5c607b	0.013450737
42	0x3b02afe6	0.001994127
43	0xbb25ce14	-0.0025299834
44	0xbb1cf36f	-0.0023948809
45	0xbb0b6133	-0.0021267652
46	0x3b436a6e	0.0029818076
47	0xbbb9791b	-0.005660189

exp_avg_sq f4 [48]
0	0x361e3ae2	2.357811e-06
1	0x37c2eac5	2.3235925e-05
2	0x3633d609	2.6797663e-06
3	0x368263a0	3.8859e-06
4	0x3767f712	1.38261985e-05
5	0x38628f02	5.4015785e-05
6	0x37be5355	2.268857e-05
7	0x373a2bd5	1.1096669e-05
8	0x3715a654	8.919818e-06
9	0x379cb3cd	1.8680375e-05
10	0x3904d4fd	0.00012667845
11	0x35ffcef6	1.9059214e-06
12	0x3a25f148	0.0006330204
13	0x39b0c307	0.00033714643
14	0x37b10be7	2.1105587e-05
15	0x38162ef3	3.580651e-05
16	0x3ab0dbf4	0.0013493286
17	0x37b388a3	2.140209e-05
18	0x38364fae	4.346639e-05
19	0x3657fd1f	3.2184832e-06
20	0x370628dc	7.996536e-06
21	0x3693954b	4.3983214e-06
22	0x3815a944	3.568201e-05
23	0x36ab3375	5.1021875e-06
24	0x381e9390	3.7807564e-05
25	0x3b33c772	0.002743211
26	0x37bebb63	2.2737024e-05
27	0x38695132	5.5627148e-05
28	0x380ca991	3.3536522e-05
29	0x371dc2b6	9.403264e-06
30	0x37832c29	1.563698e-05
31	0x391b0dc3	0.00014787079
32	0x3bbc8668	0.005753327
33	0x3ae801fe	0.0017700789
34	0x3b56b1cb	0.0032759781
35	0x38f22fc5	0.00011548357
36	0x3b107a66	0.0022045611
37	0x3b780108	0.0037842412
38	0x3ae8c9e0	0.0017760359
39	0x3a12acbf	0.0005595199
40	0x39208aa2	0.00015310434
41	0x3c917740	0.017757058
42	0x3a3abc61	0.00071234076
43	0x3a947287	0.0011325636
44	0x3a94853e	0.0011331213
45	0x3a4930f7	0.0007674838
46	0x3a3be291	0.0007167245
47	0x3a4708d9	0.0007592566
