saved_models/ISNNet/checkpoint249.pth (torch, 13194 bytes, 6 tensors)

B.weight f4 [200, 3]
00000000: e766 c8be c975 f63e c818 e43e aa84 113f
00000010: de90 bb3e 8444 2bbe 039f 4d3e eb2d f73d
00000020: 1603 813e c10d ce3e bff1 71bd febf 9d3d
00000030: 0b43 5ebe 483c 843e 3389 b63e 858f 9abd
00000040: c696 a6be c41b 013e cf17 e3be f6bb abbe
00000050: d8c3 afbc 3077 883e 30e5 0b3e f030 93be
00000060: 57de a23e 74b4 09bf 8992 e5be aa15 b03e
00000070: 2b05 0cbf ef06 f73e 0b3d 02bf 613b d2bd
00000080: 44aa 133e ab3e 04bf 09d2 99be 61a5 5cbe
00000090: 0634 f7bd 3b5f 043f 788e e23d 1015 ec3e
000000a0: 41d8 ff3d 8a23 973e 8780 af3d 40e4 06bf
000000b0: ac92 803e 5f23 b8bd ed5d 113f 15bb d23e
000000c0: 164e d6be 02d3 f83e bb85 00bf 44b7 6d3e
000000d0: 8b5a 45be 8fce a93d f8d5 c93d 0b45 ba3e
000000e0: 09c9 8b3d b515 3e3e b36c 8b3e 916f b83e
000000f0: eabb ed3e 38bb 6c3c e425 653d 437c 013f
00000100: 8239 583d 50c5 00bf ae46 0abd 6cd4 89be
00000110: 1573 ddbd 3fae 493e 61e9 efbe a591 e9bd
00000120: a667 943e 25e6 edbe d168 39bd 937c 86be
00000130: 8472 ed3c b951 5cbe a561 ef3e f530 8c3e
00000140: 7be8 ddbd 6458 2a3e ed19 cf3e 99d5 613e
00000150: bae9 743d ec84 d4be b86c 8c3e 44da dd3d
00000160: 5774 913e 5d91 47be ebdc 7bbe 6cd7 ccbe
00000170: ac8e 603d 13f3 1f3e 874a 8cbe 148c 993d
00000180: 4a73 00bf e4d1 6bbc 4b2b c5be 954f 02bf
00000190: a19a aa3e 4063 d1be 6524 e53e 3688 82bd
000001a0: 9de2 cfbb a705 c63e 1297 2abe 6082 8e3e
000001b0: d512 203c 9bae b7bd 3e27 c23e a868 d9be
000001c0: c724 0fbe 8ddb 2c3e b486 bcbe 8c3a fe3e
000001d0: 4531 e73e 4b3e 35be 572e 05be 68bb cb3e
000001e0: 337a dbbd cc7d c03e 8386 ec3d f312 99be
000001f0: 0fa4 a63e 2676 a5be 6ef7 c4bc bd8c 04be
00000200: 40f7 8d3e cad9 efbe 4f09 debe f983 57bc
00000210: a1fc 00bf c2a0 9dbe 2611 a63e a360 243e
00000220: 3d27 cfbd 31e1 6e3e d78c e7bc 244d 67be
00000230: 0062 073e fb65 a1be 4e7d 2a3e 6d65 9dbe
00000240: 1e59 243e f239 f6be f902 f3be 119e 1fbe
00000250: 5088 033e cd17 80be 7a57 123f f526 003f
00000260: b215 b73e 15c8 d13e 18ae ba3e 8a84 03bf
00000270: df00 07bf 6f58 34be d41b ccbc 161e 0cbf
00000280: 209b 0d3f d9cb 3cbe 95c0 61bd b440 c5be
00000290: 9134 dabe 0fc0 a23e a5d7 e63e 9059 323d
000002a0: 35aa 0cbf 37d1 063f 57dd babe 9d3f 073f
000002b0: 7d4a 08be 3c5c c93e 8121 dbbc 75c0 d83e
000002c0: 3d2f 963e c419 c5bd 8c78 39be bcb4 173d
000002d0: 3f45 323e 9f50 9bbe c6e8 23be 805a dcbe
000002e0: 3f4e fabe ad0f 8ebe 95a1 583e d9f8 c9be
000002f0: e81d edbe b57d fe3e 86e6 a63e 4df1 52be
00000300: 4864 f03e 293c ccbe fd35 183d 98fe 58be
00000310: ea03 073f ef0e ac3d 5682 33bd 63d4 48be
00000320: 22da b83d 69cc e53e 4306 2fbe 4506 3abe
00000330: 67ce c73e a925 a63d ed9a 03be d693 003f
00000340: bc5d 0e3f 770c d7be d5e1 8abe 0635 853d
00000350: ed4e dd3b 9853 12be 00a8 543e f0b4 41be
00000360: 2168 2d3e 2c50 8ebe 78be a6bd f7d9 0fbf
00000370: 634c d93e d961 8d3d 09f8 323e f8a0 4b3e
00000380: 6108 4b3c f5fd 7bbe 488e 06bd f745 adbe
00000390: d3f2 d63e 884c d5be a31c b9be f15e 023f
000003a0: 823a b33d 0af8 923e fcf5 fd3d e5da fcbe
000003b0: ddf6 86bd e980 58be f5f8 ab3c 1fb4 3f3c
000003c0: 1152 5f3e a015 03bf 5667 c7bd fa7b 0bbf
000003d0: 625b d5be b0ab 5f3e d263 5ebe 2e7e 2f3e
000003e0: e37a e03e 5e72 cfbe 9800 eabe 11bd 05be
000003f0: d26e a2bc 293f ebbc 73ad c4bd c2b3 3ebe
-0.39141008 0.48136738 0.44550157 0.56843054 0.36633962 -0.16725355 0.2008019 0.12069305
0.25197667 0.40244868 -0.059068438 0.07702635 -0.21705262 0.2582724 0.3565155 -0.075469054
-0.32536906 0.12608248 -0.44354102 -0.3354184 -0.02145569 0.26653433 0.13661647 -0.28748274
0.31810257 -0.53790975 -0.4483836 0.34391528 -0.54695386 0.48247477 -0.50874394 -0.10265232
0.1442042 -0.51658124 -0.30043057 -0.21547462 -0.120704696 0.5170781 0.1106233 0.4610982
0.12492419 0.29519302 0.085694365 -0.5269203 0.25111902 -0.089911215 0.56783944 0.41158357
-0.4185645 0.48598486 -0.50204057 0.23214442 -0.1927282 0.08291351 0.098552644 0.363808
0.06825454 0.18562968 0.27231368 0.36022618 0.4643243 0.014448933 0.05594434 0.50580233
0.05278922 -0.50301075 -0.03375881 -0.26919878 -0.10812966 0.19695376 -0.4685774 -0.114047326
0.28985327 -0.4646465 -0.045265976 -0.26266918 0.02898527 -0.2151555 0.46754184 0.273811
-0.10835358 0.16635281 0.40449467 0.22054137 0.05979321 -0.4150766 0.27426696 0.108326465
0.28409073 -0.19489045 -0.24595992 -0.40008104 0.054823563 0.15620069 -0.2740061 0.07497421
-0.5017592 -0.014393304 -0.38509592 -0.5090268 0.33321097 -0.40896034 0.4475433 -0.063736364
-0.006344153 0.38676187 -0.16659191 0.27833843 0.009770115 -0.0896885 0.37920564 -0.4246266
-0.13978873 0.16880627 -0.3682152 0.49654043 0.45154777 -0.17699544 -0.13005958 0.39791417
-0.10716667 0.37595975 0.115490936 -0.2989727 0.32547042 -0.32316703 -0.024043765 -0.12944312
0.277277 -0.46845847 -0.43366477 -0.013154023 -0.5038548 -0.3078671 0.32434958 0.16052489
-0.10114906 0.23328091 -0.0282654 -0.2258802 0.13220978 -0.31523117 0.16649362 -0.30741444
0.1604962 -0.48091084 -0.47463205 -0.15587641 0.12844968 -0.2501816 0.5716473 0.50059444
0.3575874 0.40972963 0.36460948 -0.51374114 -0.52735704 -0.1761186 -0.024915613 -0.5473341
0.55314827 -0.18437137 -0.0551153 -0.38525927 -0.4261823 0.31787154 0.450864 0.043542445
-0.54947215 0.52662987 -0.36496994 0.5283144 -0.13309665 0.39328182 -0.026749374 0.42334333
0.29332915 -0.09624055 -0.18112391 0.037037596 0.17409228 -0.30334947 -0.16006765 -0.43037796
-0.48887822 -0.27746335 0.21155389 -0.39447668 -0.4631188 0.49705282 0.3259775 -0.20599861
0.4695151 -0.3988965 0.037160862 -0.2119087 0.5274035 0.08401286 -0.04382547 -0.19612269
0.090259805 0.44882515 -0.17092232 -0.18166454 0.3902466 0.08112652 -0.12852068 0.5022558
0.5561178 -0.42001697 -0.2712542 0.06504254 0.0067537935 -0.14289701 0.20767212 -0.18916678
0.16934253 -0.2779554 -0.08141798 -0.5619196 0.4244109 0.069034286 0.1747743 0.19885623
0.012392134 -0.24608596 -0.032850534 -0.3384244 0.41982135 -0.4165995 -0.3615466 0.5092612
0.08751394 0.28704864 0.124004334 -0.49385753 -0.06590054 -0.21142925 0.020992735 0.011700659
0.2180865 -0.5120487 -0.09736507 -0.5448605 -0.41671282 0.21842837 -0.21717766 0.17137977
0.43843755 -0.40516943 -0.45703578 -0.13060404 -0.019828234 -0.02871664 -0.09603395 -0.1862326

C.0.weight f4 [1, 200]
00000000: 5069 8dbd db6f 723c 35b8 943d fd61 aabc
00000010: d1fd 743c 380e 32bc 1754 1b3d a2ca 883d
00000020: 5e19 93bc 5c49 95bd 2c15 433d 3d82 003d
00000030: 670c 4bbc f1d9 f3bc 4b82 ebbb 81c9 f538
00000040: f275 dcbc 7169 4cbd ee91 51bd 545d 5abd
00000050: eb28 dabc 766e 1e3c 417c 48bd af77 27bd
00000060: 4369 eeba a5ab 0abd ea24 64bd 99ab 66bb
00000070: 9ab7 3dbd 66ab 0cbc 5deb e93c 2459 0cbb
00000080: c5ef 573d f185 af3b 87c7 853c 018c 033d
00000090: d5f4 75bd 7c0a 56bd 88c7 023d dbe0 35bd
000000a0: 9511 f23c 5069 63ba 7044 dcbc d313 84bc
000000b0: 4ac6 6c3c 24b6 923d 8156 a8bc 8cf3 bd3c
000000c0: 591f 003d d2c7 bb3c 93bf e83c 671b 09bd
000000d0: 39b0 06bd 3921 f9bc 57cf 1dbd 57a6 57bd
000000e0: 3fe6 f23c 0624 2a3d 4e7e 013d 50e9 99bc
000000f0: 88e7 073d bb17 173d 26ba 893d f066 2ebd
00000100: 4dd2 29bd c5ce 3dbc a0d3 803c c5cc eb3c
00000110: 1219 e03b 06bb 943c da16 0fbc ca69 09bb
00000120: 5a8a 54bc 3b5b ef3c 29b9 533d a901 0abd
00000130: d0b1 1fbd 7c09 33bd 15ee 703d f77c 173d
00000140: 6264 d83c 5672 883b f9cf c0bb eb7b 10bc
00000150: 803f 8cbd fa22 ee39 0341 74bc 1aaf 7bbd
00000160: 4c2d fcbc 7041 11bd 1d37 4cbd 62d6 8c3d
00000170: 5c9e 093c bc15 0b3d 9849 513d d152 ff3c
00000180: 4399 5cbc 425f cc3b caa5 c53c 055f 53bd
00000190: 25a2 07bc 63ac 8abc fa76 ba3c f6b1 5bbd
000001a0: 7b47 f9bc 5867 4f3d 6b98 543c 9dfc 743d
000001b0: 3a4a 91bc e8e8 153d 5ed9 28bd e575 403d
000001c0: 7cdf 833d 0cb0 a5bc 1a7f 3dbc 5126 5a3c
000001d0: b0f6 1a3d 3c59 2a3d db3f 583c 9bc7 2ebc
000001e0: bd72 2a3d 58e3 7bbd 1504 863d bc7d 39bd
000001f0: 9c89 dabc 1a5d 06bc 7dd7 1cbd 1255 84bd
00000200: 9c87 9cbc 3267 103b 6b79 603d 9da5 18bd
00000210: 8398 483d 3183 df3c b4aa db3b e8d2 563c
00000220: e3fc eebc 54d5 e3bc b0cf a6ba caff 8c3d
00000230: dbd6 d43c 9c38 efbc 0d48 b7bc dc5b 9dbd
00000240: c567 6bbc d3cd 5e3c acf4 25bd 896e c53b
00000250: 6dd4 d93c 9971 06bc 5681 333b 14d5 fe3c
00000260: 242d 603d b2a8 66bd 142a c63b fe5e 523b
00000270: 0cd1 c73c 7d6e 7d3d 028e ce3c 6b53 833d
00000280: 0742 d2bc ae49 70bd c533 6f3d 5b89 af3c
00000290: a428 c93c c082 103d a66a bb3c dd71 523c
000002a0: 0097 4c3c 591a 133d 73d5 913d 92e2 583d
000002b0: 6853 85bd 4c6b ae3c f656 96bc b4a6 893d
000002c0: 4155 013d 932b 22bd 460b 523d f446 5abd
000002d0: f5a8 b83c d875 0f3d 6cbc b5bc ede3 803d
000002e0: 3f43 73bc 02d8 35bc a2b5 95bd b03e 2d3c
000002f0: 9fc9 45bc e26d cbbc 66f9 023d bc3f 3c3d
00000300: bf41 9abc 1997 02bd cf8c 25bc ed59 1ebd
00000310: 8c05 693d d337 65bc f17a 95bc 3575 fbbc
-0.069048524 0.014797176 0.07261697 -0.020798678 0.014953093 -0.010867648 0.03792199 0.06679274
-0.017956432 -0.07289383 0.047627613 0.031374205 -0.012393094 -0.029767008 -0.007187163 0.000117200434
-0.02691171 -0.049905244 -0.05116456 -0.05331166 -0.02663084 0.009669891 -0.048946623 -0.040885624
-0.001818933 -0.0338551 -0.055699266 -0.0035197495 -0.046317674 -0.008585786 0.028554613 -0.0021415437
0.052718896 0.005356543 0.016330494 0.03211594 -0.060047943 -0.052256092 0.03192857 -0.044403892
0.0295494 -0.00086750556 -0.026888102 -0.016122734 0.014451573 0.07163647 -0.02054906 0.023187421
0.031279895 0.02292243 0.028411662 -0.0334734 -0.032882903 -0.03041135 -0.038527813 -0.05264887
0.029650806 0.04153826 0.031614594 -0.01878801 0.03317979 0.036887866 0.06724958 -0.042578638
-0.041460324 -0.011584942 0.01572591 0.028784165 0.006838926 0.018155586 -0.008733476 -0.0020967596
-0.012972439 0.029218307 0.051690254 -0.03369299 -0.038987935 -0.043710217 0.058820803 0.03698441
0.026415054 0.0041640205 -0.0058841673 -0.008818607 -0.06848049 0.00045420957 -0.014908078 -0.061446287
-0.030783318 -0.035462797 -0.049857248 0.06876828 0.008399572 0.033956274 0.051095575 0.03116742
-0.013464275 0.0062369416 0.024126906 -0.05160429 -0.008278404 -0.016927904 0.02276181 -0.053636514
-0.030429592 0.050635666 0.012975792 0.059811223 -0.01773559 0.03659907 -0.041222923 0.046987433
0.06439111 -0.020225547 -0.011565948 0.013314799 0.037832916 0.041589007 0.013198818 -0.010667707
0.04161333 -0.06149611 0.06543747 -0.045285925 -0.026676945 -0.008200908 -0.038291443 -0.064615384
-0.019107632 0.0022034165 0.054803293 -0.037267316 0.04897357 0.027284237 0.006703699 0.013111807
-0.02917332 -0.027811684 -0.0012726691 0.068847254 0.025981357 -0.029201798 -0.022373224 -0.076835364
-0.014368002 0.013598877 -0.04051654 0.0060251397 0.02659055 -0.008205795 0.0027390323 0.031107463
0.05473055 -0.056313224 0.0060474966 0.0032100077 0.024391674 0.061872948 0.025214199 0.06412395
-0.02566625 -0.058664016 0.05839898 0.0214278 0.024555512 0.035280943 0.022878002 0.01284453
0.012487173 0.0359138 0.0712079 0.05295045 -0.06510049 0.021291398 -0.018352013 0.06721249
0.031575445 -0.039592337 0.051280282 -0.053290322 0.022541502 0.035024494 -0.022184573 0.062934734
-0.014847576 -0.011098864 -0.07310034 0.010574028 -0.012071996 -0.02483267 0.031976126 0.04595922
-0.018830178 -0.03188238 -0.010104372 -0.03865998 0.056890056 -0.01399036 -0.0182471 -0.030695537

exp_avg f4 [200, 3]
00000000: a305 183b 8bbf 763b 054c 733a 9527 163b
00000010: ebd1 113b 8147 f2b7 0c46 af3a 0428 b13a
00000020: 6e86 043a e633 b23b 38d2 b13b 28d6 423a
00000030: df76 e1b9 053f 3839 b2d1 d539 071b 58bb
00000040: c157 82bb 63cb 94b9 274d 25bb fa72 2bbb
00000050: a6f4 9fb9 8863 baba 801c eaba d272 25ba
00000060: f37d c13b a8e5 b23b abac 2e39 d6a6 a2ba
00000070: 3dcf 27bb f889 d239 3cbe 1abb 00a3 05bb
00000080: a360 21b8 873d b03a b5c8 f23a 4428 0ab7
00000090: 5095 5bbb 5035 3ebb dcab 98b9 711a e43a
000000a0: c3d1 bc3a e226 1a3a 41bc 3f3b ec5a 223b
000000b0: 4fa5 373a c96c 853b 4db1 b03b 1030 943a
000000c0: 811a cc3a 5c59 423b 759b d4b9 5e5f 0abb
000000d0: c081 3fbb ffa3 86b9 227f e3ba 3a10 d3ba
000000e0: df3e 48b9 24d5 15b9 f723 b0b8 b525 da39
000000f0: ae70 aab6 e46e 29ba 2636 0eb7 43f1 a03b
00000100: e4a2 9d3b 44a9 28b7 03ef a5bb f0d9 c2bb
00000110: 8e87 5dba 45e9 083a f3c7 9db9 f5a4 c8b8
00000120: 12f2 f23a dd3c 8d3a dadd ab38 db98 11ba
00000130: ce90 4bb9 32ba b6b9 06cc 6cbb 4ea5 8ebb
00000140: e21b 3aba 5fc4 adba 30b3 9eba bc26 c638
00000150: b052 ac3b d257 ac3b d9f9 863a e9e1 bcba
00000160: 6cb7 b7ba 5395 f7b9 7c79 3f3a 081e 2a3a
00000170: 1e41 7c39 e9fe d5ba d9c6 1dbb 52fc e6b8
00000180: bf7e 08ba e806 d638 c34d dfb9 dd53 45bb
00000190: de2d 10bb df44 64ba 62de 2bb9 9c48 6cba
000001a0: fb5e beb8 2551 6f3b 9e3c 593b fcd8 4e3a
000001b0: 71ba b6b9 1bc4 06ba 9f01 df39 3578 91ba
000001c0: 16f5 54ba 98c9 0e39 2c66 5dbb d95d 2cbb
000001d0: 4b33 7339 a08a 9d3b 99cf b23b 3f9f 9c3a
000001e0: d48f d6ba ea08 9eba 6d58 f0b6 8dde ffb9
000001f0: b4d5 9c39 633e dbb9 7997 8bba 8610 acba
00000200: 3309 3439 9eb7 43bb 6fdc 53bb b0e6 a7b9
00000210: d6d9 103b ff4f 373b 1b4e 4f3a 5abc f439
00000220: 7c84 2e39 84e7 a639 84d7 3fbb 4371 66bb
00000230: 5f12 44b9 3b71 31bb 4879 1abb 9cd0 33ba
00000240: 1322 07ba 7dae b9ba 1714 33ba 8111 9a3b
00000250: 2605 b93b 6c77 a139 b15d 06bb 64e1 21bb
00000260: 0c45 ff38 0cd0 923b e465 9f3b 3b8a ceb8
00000270: 5c97 1abb 4446 09bb 715b a9b9 2d98 9e39
00000280: 50fe ed3a 8f4b ccb8 84bf cf3a 3c9e b23a
00000290: 19b7 a6b9 3b20 b63a 04db da3a deba 6f39
000002a0: de37 923a aba8 303b d60d 56b9 2c35 3fbb
000002b0: 79e6 88bb 976c a937 2a06 383b dd90 743b
000002c0: 0110 3c3a bc32 9539 dc71 6739 0347 d838
000002d0: c7b9 e6ba 1760 29bb 1e84 fcb9 d519 9e3b
000002e0: 190b b03b 33ef d239 6310 383b 008c 183b
000002f0: b170 7cb9 840d f03a ccf9 e43a db4b 9cb8
00000300: 8db8 f13a 7fcd 663a bed1 6a39 4c66 8cbb
00000310: 604a 79bb 3572 e3b9 c3c2 b239 5eab 6239
00000320: 193d 1339 026d 4f3b 7748 2f3b f417 2139
00000330: 366a ff3a 6cf7 e13a 1406 1d38 83e3 0c3b
00000340: f30a 1c3b ed1d a9b9 e2a4 83b9 62ae 5639
00000350: 0f9c 3837 8938 18bc 5830 22bc 622b c3ba
00000360: 94b5 ad3b 19ae ae3b 1c3b 163a af23 e6ba
00000370: 54ba 23ba 372f 10b7 6ed4 a2bb 0f5e b5bb
00000380: 3da6 3cba d8d9 963b 1323 b23b c804 8539
00000390: dcec 8cb9 301a bbba 878a 19ba c2be 01bb
000003a0: a84c 38bb f0c4 2eb7 b91f ecb9 b658 a9ba
000003b0: 861e 5bb9 5c78 f4b9 4de0 45b9 f6e4 35b7
000003c0: a59e 8fba 78d7 0ebb a9eb b3b9 d641 683b
000003d0: 2c61 893b cad2 663a af1d 8ebb 6355 8dbb
000003e0: cfde 3f38 d96f 9c3a 4a21 ae3a c66f 8d38
000003f0: 8b0b 99bb 2f2a abbb 7f3f 4cba 3194 82ba
0.002319672 0.003765079 0.0009281042 0.0022911776 0.0022250365 -2.8881945e-05 0.0013372316 0.0013515954
0.0005055432 0.0054383157 0.0054266714 0.00074324245 -0.0004300391 0.00017571084 0.0004078276 -0.0032975094
-0.0039777462 -0.00028380295 -0.0025222988 -0.002616106 -0.0003050912 -0.0014220336 -0.0017861277 -0.000631136
0.005904907 0.005459506 0.00016658257 -0.001240934 -0.0025605701 0.00040157116 -0.0023611924 -0.0020391345
-3.847539e-05 0.0013446071 0.001852295 -8.234816e-06 -0.0033505745 -0.0029023476 -0.00029119744 0.00174029
0.0014405776 0.0005880428 0.0029256495 0.0024773432 0.0007005529 0.004071806 0.0053922297 0.0011305828
0.0015571864 0.0029655313 -0.00040551616 -0.0021113972 -0.0029221624 -0.00025680658 -0.0017356614 -0.0016102858
-0.00019096908 -0.00014289148 -8.399033e-05 0.00041608294 -5.0795124e-06 -0.00064633624 -8.476467e-06 0.004911573
0.004810678 -1.0052991e-05 -0.005063893 -0.0059463903 -0.000845068 0.0005222748 -0.00030094347 -9.567469e-05
0.0018535277 0.0010775585 8.1952385e-05 -0.0005554088 -0.00019413533 -0.0003485247 -0.003613235 -0.004353202
-0.0007099492 -0.0013257376 -0.0012107845 9.4485906e-05 0.0052588806 0.0052594924 0.0010297849 -0.0014410588
-0.0014016456 -0.00047222766 0.00073041744 0.00064894604 0.00024056851 -0.001632658 -0.0024074821 -0.00011014253
-0.0005206875 0.000102056016 -0.00042591812 -0.00301098 -0.0021999995 -0.00087077724 -0.00016390675 -0.0009013505
-9.0775975e-05 0.0036516872 0.0033147703 0.00078906096 -0.00034852655 -0.00051409163 0.00042535082 -0.0011098447
-0.0008123679 0.00013617275 -0.0033782823 -0.0026301055 0.00023193394 0.004807785 0.0054568765 0.0011949315
-0.0016369768 -0.00120571 -7.1628515e-06 -0.00048803203 0.0002991386 -0.00041817417 -0.0010650001 -0.0013127483
0.00017169565 -0.0029864083 -0.0032327434 -0.00032024598 0.0022102497 0.0027971265 0.0007908062 0.0004667964
0.00016643287 0.0003183448 -0.0029272744 -0.0035162724 -0.0001869886 -0.0027075547 -0.0023570824 -0.00068593933
-0.0005154919 -0.0014166381 -0.0006831302 0.0047017937 0.0056463657 0.0003079729 -0.0020502622 -0.0024700994
0.000121722085 0.0044803675 0.004864441 -9.848593e-05 -0.0023588752 -0.0020946423 -0.0003230232 0.00030249488
0.0018157456 -9.741552e-05 0.0015849923 0.001362748 -0.00031798406 0.0013895103 0.0016697352 0.0002286243
0.0011155566 0.0026956003 -0.00020413785 -0.002917598 -0.004177865 2.0196936e-05 0.0028079846 0.003731779
0.00071740156 0.00028457295 0.00022072293 0.000103129096 -0.0017602973 -0.0025844628 -0.0004816362 0.0048248568
0.0053724167 0.0004023254 0.002808594 0.0023276806 -0.00024074574 0.0018314575 0.0017469465 -7.452789e-05
0.0018441841 0.0008804425 0.00022394114 -0.0042846557 -0.0038038716 -0.00043381905 0.00034095914 0.00021616879
0.00014041773 0.0031650667 0.0026746073 0.0001536308 0.0019486609 0.0017239875 3.7437378e-05 0.0021497912
0.0023810237 -0.00032256488 -0.00025109114 0.00020473593 1.100359e-05 -0.009290823 -0.009899221 -0.0014890248
0.005301187 0.0053308127 0.0005730854 -0.0017558242 -0.00062457216 -8.594062e-06 -0.0049691712 -0.0055348943
-0.00071964023 0.0046036057 0.00543631 0.000253713 -0.00026879355 -0.0014274772 -0.0005857129 -0.0019797538
-0.0028121863 -1.0417061e-05 -0.00045037063 -0.0012920115 -0.00020896838 -0.0004662898 -0.00018870943 -1.084175e-05
-0.0010957314 -0.002179591 -0.0003431712 0.0035439632 0.004192492 0.0008805214 -0.0043370347 -0.0043131574
4.5745455e-05 0.0011935189 0.0013285067 6.744223e-05 -0.0046705655 -0.0052235345 -0.0007791444 -0.0009962377

exp_avg_sq f4 [200, 3]
00000000: 5a11 fa38 88f1 0339 f889 0f36 7dcc ee37
00000010: d491 f737 c721 0735 2774 8e37 3b3c 9637
00000020: 250f b034 eb0a b439 7638 be39 4c78 c636
00000030: ae4d 3e35 4c91 5435 2f22 8833 0f0f 1a39
00000040: 1c65 2239 d293 2836 036f 4d38 f06f 5738
00000050: 9a7c 5d35 39a1 3338 f737 3e38 c7ea 5535
00000060: 6e45 d939 b976 e639 c2b2 ec36 75f1 4938
00000070: 1bcc 5438 80fc 7335 2302 4638 2cbb 4f38
00000080: 641a 5d35 274d 7738 47d8 8338 c233 8635
00000090: ca39 2839 b520 3339 e2a9 3536 ccc9 7137
000000a0: efea 7937 259f a534 fa7c d938 8d37 e738
000000b0: fbb4 f335 7c03 8739 b4c8 8e39 83e2 9436
000000c0: 63b0 8038 8c9f 8738 3e74 9735 9290 a338
000000d0: 2648 ad38 092c b335 868c 5838 41d5 6638
000000e0: 17e9 6835 35d9 5735 02f7 6f35 0a64 9433
000000f0: 8622 3036 144e 3436 b630 6a33 9a0c 8a39
00000100: c8b9 9139 bd11 9936 6185 af39 4960 b939
00000110: acbf c136 7e1e 6f35 48b4 8a35 cc30 9832
00000120: 0fe9 0038 32dd 0838 07bb 1135 f982 b835
00000130: 4d9b c435 6f04 5733 422a 7339 dffe 8039
00000140: 09d8 8636 b3b1 e037 ac8d ed37 4146 0435
00000150: eae4 c039 ae72 cc39 bde4 d536 610c 0f38
00000160: 13c6 1738 5c71 2435 5741 8337 d515 8c37
00000170: b7c4 9234 72e3 3938 7bca 4338 7a79 4e35
00000180: 9e47 5334 b103 f933 4e88 7133 3cd7 ae38
00000190: 4560 b938 8bf3 c935 5c64 1637 2f90 1d37
000001a0: fe92 2934 f0f5 1b39 4845 2539 c046 2a36
000001b0: 5fa6 d035 3ecb db35 51ab b533 f2f6 7436
000001c0: 70bc 7736 480b 9a33 a494 da38 fed1 e638
000001d0: 3aea fb35 ac42 b039 9099 ba39 de94 c536
000001e0: c192 0d38 3b1e 1738 b402 1935 be4a 6834
000001f0: d477 6f34 4a90 5b33 be47 8537 d9c6 8c37
00000200: b73e 9434 767d a238 2f00 ab38 4e74 b135
00000210: b3c2 de38 da0c ec38 cb5f ff35 85bb 0d35
00000220: 82cb 0c35 0896 1d33 2268 fa38 9923 0439
00000230: bb47 0c36 ba36 9e38 8a7c a638 cd28 b835
00000240: 847d 3937 183a 4437 3621 9334 6a07 a839
00000250: 669a b139 ddb4 b836 507b d338 29c3 e038
00000260: 2920 ef35 546c 7839 31fe 8239 4811 8a36
00000270: 430e 2a38 1aaf 3238 9886 3735 081b 8937
00000280: 63c1 8f37 0571 9c34 900f 0438 3a66 0c38
00000290: f815 1f35 116b 1337 cecd 1837 33e0 3234
000002a0: 3678 4438 f106 4f38 29f3 6035 01df 4b39
000002b0: fbf3 5739 1e11 6036 3794 d938 b4b2 e538
000002c0: 3f61 f635 7e15 6f36 a6b7 8036 c4cd 8333
000002d0: b639 a038 8255 a938 7424 af35 6448 cc39
000002e0: 908d d839 4142 e036 5f70 ba38 03c6 c538
000002f0: c6aa d335 e716 9937 9d99 9f37 df7c ab34
00000300: b852 ac37 a540 b737 9200 b834 346c 5e39
00000310: c036 6b39 b3d8 7836 1c13 3635 e26e 4735
00000320: 3b3f 7632 0397 ba38 94bc c438 52cf c935
00000330: 6c2e e637 cc5b f137 652c fe34 0144 1438
00000340: f5ec 1938 7da9 3335 5743 3733 6f88 b432
00000350: fc21 1430 ee1f 963a 83c1 9e3a 3ba0 a537
00000360: c54b b839 1406 c339 f2ee c936 55c3 5f37
00000370: b001 6a37 ebaa 8034 0981 ba39 e6cd c439
00000380: 7317 d036 9784 ae39 b02d b839 26f1 c136
00000390: 10c1 1a37 db24 2237 f702 6e34 3506 d538
000003a0: b65a e138 d374 ed35 f13f c136 f012 cb36
000003b0: 9472 e933 9a97 8035 1c2b 8635 c037 8832
000003c0: bcad ca37 9f3d d637 7ed4 e434 f225 7a39
000003d0: b067 8439 e7b4 8c36 d057 7a39 8340 8439
000003e0: 075a 8b36 4d88 1738 5b5a 2138 0d3e 2a35
000003f0: bdc0 8e39 097a 9639 006a a036 c86e 3137
0.00011924161 0.00012583111 2.138897e-06 2.8467033e-05 2.9512601e-05 5.034057e-07 1.6981807e-05 1.790944e-05
3.2793574e-07 0.0003434041 0.0003628169 5.9148642e-06 7.0893554e-07 7.918759e-07 6.3392115e-08 0.00014692194
0.0001548719 2.5119994e-06 4.8979196e-05 5.1364244e-05 8.2510235e-07 4.2827076e-05 4.535165e-05 7.969033e-07
0.00041441194 0.00043957474 7.0541582e-06 4.814701e-05 5.0734827e-05 9.089199e-07 4.720887e-05 4.9526963e-05
8.236732e-07 5.8961243e-05 6.2868516e-05 9.998842e-07 0.00016043257 0.00017082955 2.7069987e-06 1.4411704e-05
1.4896256e-05 3.0849438e-07 0.00010370645 0.000110252855 1.8157583e-06 0.00025751803 0.00027233886 4.437113e-06
6.13637e-05 6.4670196e-05 1.1284208e-06 7.799374e-05 8.2627215e-05 1.3349355e-06 5.1629286e-05 5.503488e-05
8.6765925e-07 8.040982e-07 8.939388e-07 6.909984e-08 2.624614e-06 2.6867538e-06 5.4526673e-08 0.000263308
0.00027794973 4.5618203e-06 0.00033477976 0.00035357688 5.7741618e-06 8.907881e-07 1.033427e-06 1.771732e-08
3.073463e-05 3.263093e-05 5.428887e-07 1.3747186e-06 1.4648336e-06 5.006262e-08 0.00023190028 0.00024603956
4.018661e-06 2.6785629e-05 2.8318573e-05 4.9276065e-07 0.00036791648 0.00038995355 6.3745233e-06 3.4105386e-05
3.6185676e-05 6.125972e-07 1.5646843e-05 1.6699467e-05 2.7337748e-07 4.4319262e-05 4.6680198e-05 7.691775e-07
1.967696e-07 1.15956375e-07 5.6236154e-08 8.337057e-05 8.839419e-05 1.5046547e-06 8.964063e-06 9.3915e-06
1.5792827e-07 0.00014873571 0.00015761435 2.5373156e-06 1.5545628e-06 1.6375923e-06 8.4596316e-08 3.6502574e-06
3.6915553e-06 7.173236e-08 0.000104227365 0.00011006369 1.8769126e-06 0.0003361901 0.00035591098 5.888388e-06
3.3753695e-05 3.602936e-05 5.7000875e-07 2.1633875e-07 2.2302203e-07 5.112114e-08 1.5888243e-05 1.6781896e-05
2.761278e-07 7.748131e-05 8.1539496e-05 1.3221377e-06 0.000106220505 0.00011255751 1.902686e-06 5.279947e-07
5.2450207e-07 3.6690864e-08 0.00011940325 0.00012601762 2.0903378e-06 7.544221e-05 7.938694e-05 1.3720943e-06
1.1056083e-05 1.1696036e-05 2.7405048e-07 0.0003204898 0.00033875107 5.5046826e-06 0.00010084233 0.00010717504
1.7816247e-06 0.00023691478 0.0002498492 4.1147323e-06 4.054444e-05 4.2601583e-05 6.836867e-07 1.634426e-05
1.7136981e-05 2.9139497e-07 3.1485746e-05 3.3473807e-05 5.9264084e-07 8.786811e-06 9.107824e-06 1.6659105e-07
4.6841997e-05 4.935911e-05 8.380035e-07 0.00019442664 0.00020594888 3.3388565e-06 0.000103749735 0.00010952857
1.8356731e-06 3.5626285e-06 3.8360768e-06 6.1375914e-08 7.640144e-05 8.074475e-05 1.3049125e-06 0.00038963847
0.00041304203 6.683433e-06 8.890102e-05 9.4305746e-05 1.5770427e-06 1.8249686e-05 1.9025809e-05 3.1942088e-07
2.0542517e-05 2.1845402e-05 3.4273086e-07 0.00021211879 0.00022431742 3.7081015e-06 6.782809e-07 7.429463e-07
1.43334615e-08 8.897299e-05 9.381134e-05 1.5036005e-06 2.7439753e-05 2.8772185e-05 4.7343488e-07 3.5349283e-05
3.6698726e-05 6.6929334e-07 4.2669253e-08 2.10168e-08 5.389038e-10 0.0011453608 0.0012112114 1.9744146e-05
0.00035151668 0.00037197827 6.0180837e-06 1.3337315e-05 1.394788e-05 2.3966217e-07 0.00035572823 0.0003753744
6.201613e-06 0.00033286653 0.00035129255 5.7799216e-06 9.224066e-06 9.6645335e-06 2.2166556e-07 0.000101577876
0.00010745732 1.7691876e-06 5.759292e-06 6.052076e-06 1.08707496e-07 9.580865e-07 9.996324e-07 1.5857836e-08
2.4161178e-05 2.5539483e-05 4.2622918e-07 0.00023855994 0.00025254255 4.193385e-06 0.0002387457 0.00025225067
4.1530034e-06 3.6128145e-05 3.846954e-05 6.342023e-07 0.00027227952 0.00028701153 4.7807116e-06 1.0575815e-05

exp_avg f4 [1, 200]
00000000: 8791 25bc 1137 a13a e1b1 643c 4c52 a0bb
00000010: effd 1d3c 268e f13b 33ce efba 0de0 9b3b
00000020: d04b 6f3a 5d3b 09bc b74e 043b f8f1 81b9
00000030: fe99 70bb 3587 21bb da9d 1dbc 9588 64b9
00000040: d0c1 51bb 4e77 f53b 3e01 30ba 3e19 7cbb
00000050: 762a 0c3b 9bef 18bb fcf3 7fbc 1371 583b
00000060: a6ed fd3a 484d 7b39 2980 c6bb 7295 b3bb
00000070: a800 8dbb 5a2b c83b 2c4e 56bc ad78 aeba
00000080: 05b0 823b 4a73 c33b 60a0 50bb edb7 1e3b
00000090: 64be 05bb 89d0 77bb 78f1 6a3a ae25 1f3b
000000a0: b976 8e3a a9f9 6f3b 39fd 423a 66c5 5fbb
000000b0: ffb2 873b 3f57 1b3b b46b a23b 0a49 933a
000000c0: 9b51 6a38 6b6b 15bb e180 89bb ea42 0d3b
000000d0: d234 a8bb 507b 4dba 2bf2 113c 2c5d 5cba
000000e0: c2ac b7ba 7e8a 20ba 3082 6d3c a864 64bb
000000f0: b2db 743b dbe1 9c3b 7788 b73b 704a 3c3a
00000100: 6cb3 adbb 5579 45bb ef86 03bb e4ce 543c
00000110: 6565 203a 380c fc3b e4d2 79bb 623b a83a
00000120: bffc 653b fed4 553b 9881 b63b 9c65 933b
00000130: 0768 39ba 0576 1e3b 75d8 e13b acb0 a53b
00000140: 6939 013a 2b9b 9f39 b6e9 97bb 25b1 7c3a
00000150: ab8e 6abb c461 f4bb 21b3 d4bb 9acd 5e3b
00000160: cbd2 9a3b 86c5 e13a 68c3 43bb e41a de3a
00000170: 2ccd b93b dd63 013c b68c 47bb e135 823b
00000180: fbd2 143c 182e 69ba d988 b0ba 36c2 e1bb
00000190: 1f05 a53a f4de d73a b591 4238 4c55 33bc
000001a0: 08d2 1637 c4a5 5139 72a9 c53b 4d22 5b3b
000001b0: 87d7 073a d3c9 b13a df19 093a 9c5c 263a
000001c0: c873 2d3c dd3a adba 1101 39bb 5afa b2b8
000001d0: eb45 08bc ee57 023c ca9c 9a3a 84b9 433c
000001e0: 8740 8ab9 8b36 3cbc 6b7f a8ba f60b e03b
000001f0: 6e31 71bb c2e9 87bb 2b04 363b d57d 58bb
00000200: 6561 90b9 0bb8 793c 569a df3a bf84 54bb
00000210: 86bf 923b e5e4 993b a1f3 b03a 6abd a73a
00000220: 239c d33b 1cb5 743b 8ee6 c83b 75ca 0e3c
00000230: 8c27 2b3a d0d8 a13b 0ad1 9ebb 8ed2 cfba
00000240: f5db e2ba 8ab9 b5bb 2808 c93b ba03 d73b
00000250: 5ab3 7e3a 0277 1bbc 94c1 aabb 5aa2 13b7
00000260: e60c eaba c2aa 5a3c 1bd9 113a de54 953b
00000270: dd2f 20ba 27b6 753b 4a80 0e3b cfd4 4d3b
00000280: d600 4cba 56b6 2b3b 9479 963b 4390 97ba
00000290: 02e6 80bb 06c7 0fbb da07 66ba 5283 e5ba
000002a0: 2537 1fbb ba0b 0bbb ada1 f23a 42c6 10bb
000002b0: dc63 c939 35f3 8eba a9a4 673b 41e8 363b
000002c0: 9083 113b 5108 8a3a 550e 1d3b daa2 513b
000002d0: 6605 0f3b 7d0f 8e3b 6442 2dbb 6882 843b
000002e0: bcac 0c3a 4dc6 433b da2c 83bb b13d e23b
000002f0: c999 2fbb d965 73ba f25a 983b 333a 8c3b
00000300: e9d7 67bb 8352 013b a6c4 31bb 8d91 ebb9
00000310: 7825 eaba 14f3 ce3a 578e 55bb c5df 1b3b
-0.010105497 0.0012299736 0.013958425 -0.004892623 0.009643062 0.0073716817 -0.0018295705 0.0047569335
0.00091284234 -0.00837597 0.002018852 -0.00024785078 -0.003671288 -0.002464724 -0.009620154 -0.00021794655
-0.003200639 0.007491029 -0.0006714052 -0.0038467194 0.0021387613 -0.0023336175 -0.015622135 0.0033026382
0.0019373193 0.00023966015 -0.0060577583 -0.0054804618 -0.0043030567 0.0061086835 -0.013080161 -0.0013311111
0.0039882683 0.0059646713 -0.0031833872 0.0024218515 -0.002040767 -0.0037813506 0.0008962373 0.0024283933
0.0010869122 0.0036617315 0.0007438246 -0.0034144758 0.004141211 0.0023703126 0.004956687 0.0011236977
5.586595e-05 -0.0022799622 -0.0041962718 0.0021554776 -0.00513325 -0.00078385044 0.008907835 -0.00084062177
-0.0014013278 -0.00061241526 0.014496371 -0.0034850035 0.0037362394 0.0047876663 0.0056009847 0.0007182723
-0.00530093 -0.0030132134 -0.002006944 0.01298878 0.00061186246 0.0076918863 -0.0038120085 0.001283508
0.0035093275 0.0032628174 0.005569648 0.0044981968 -0.0007072691 0.0024179232 0.0068922588 0.0050564613
0.0004929514 0.00030442452 -0.004636015 0.00096394337 -0.0035790603 -0.0074579436 -0.0064910804 0.003399706
0.0047248355 0.0017225004 -0.002987111 0.001694527 0.0056702103 0.007897344 -0.003044886 0.003973708
0.009083505 -0.0008895113 -0.0013468518 -0.006889607 0.0012590027 0.0016469643 4.6388905e-05 -0.010945629
8.989598e-06 0.00019993546 0.0060321623 0.0033437193 0.00051819574 0.0013564177 0.00052299903 0.00063461973
0.010586686 -0.0013216395 -0.0028229395 -8.534333e-05 -0.008317451 0.007955534 0.0011795994 0.011946086
-0.00026369488 -0.011487613 -0.0012855356 0.0068373634 -0.0036803144 -0.004147739 0.002777348 -0.0033033986
-0.00027538385 0.015241633 0.0017059545 -0.0032427756 0.004478398 0.004696476 0.0013500341 0.0012797539
0.006457822 0.0037339395 0.006131 0.008715262 0.0006529025 0.004939176 -0.0048466967 -0.0015855597
-0.0017307984 -0.0055457996 0.0061350055 0.0065617235 0.00097160565 -0.009488823 -0.0052110646 -8.799683e-06
-0.0017856627 0.013346376 0.0005563662 0.004557236 -0.0006110648 0.0037492604 0.0021743947 0.0031407361
-0.0007782107 0.002620121 0.00459213 -0.0011563379 -0.003933669 -0.0021938696 -0.00087749737 -0.001751045
-0.0024294343 -0.0021216706 0.0018511318 -0.0022090827 0.0003841211 -0.0010906222 0.0035345948 0.002790943
0.0022203662 0.0010531043 0.0023964841 0.0031987936 0.0021823286 0.0043353424 -0.0026437277 0.004043866
0.00053663156 0.0029872835 -0.0040031495 0.006904327 -0.0026794544 -0.0009284891 0.0046495134 0.004279399
-0.0035376495 0.0019733019 -0.0027125268 -0.00044931137 -0.001786395 0.0015788996 -0.0032586062 0.00237845

exp_avg_sq f4 [1, 200]
00000000: 550b 4d3b 23d7 c638 805d dc3b da39 c63a
00000010: 93a2 3b3b 81b4 563b eaa1 9738 77f8 b93a
00000020: 73de 4139 6864 f43a 95e2 8f37 fe94 4535
00000030: 613b 4a3a e7a0 6438 5c25 a03b df86 fd38
00000040: 0557 9439 cc12 2e3b 1e5e 0039 bafd ac38
00000050: 2f2c c739 e177 b538 82c3 df3b 38e4 1039
00000060: 0c6c 3b3a ec87 7d39 c38d d839 4a94 d539
00000070: 5e5d 803a d2fe a439 a289 0b3c a69f 9839
00000080: 70c8 0b3a 65e8 bd3a 8199 4c39 0965 0539
00000090: 2c6f 8f38 c8b3 b83a b926 8437 0a77 cd3a
000000a0: 4d23 c938 4f12 7b39 906a fe34 c87c 953a
000000b0: 2028 4e39 d415 243a b10a f039 f2ef 7836
000000c0: 1814 1035 b62c 5839 1f97 9a3a b801 aa37
000000d0: 1202 6a3a 30b6 ac37 587f ab3b 99fc 9037
000000e0: 816d ec38 6449 a939 c942 0f3c 7c1b 2d3a
000000f0: 67b5 8d3a 4c1f 853a 4218 713a e607 a334
00000100: bdba 233a 2fef 1339 b710 0f39 3081 a93b
00000110: 5230 e439 3e58 a73a 3280 d839 6365 e838
00000120: ee23 8138 c364 0b39 c26a b739 c134 d139
00000130: 7c1b 8937 98e4 3a3a 1e56 243b 56b0 743a
00000140: e685 ff37 387f 0d38 f524 443a 3f02 fe35
00000150: d266 be39 b986 d13a 14f0 513a 3f43 553a
00000160: 625c 223b 0917 b438 943a 3639 fbf6 8638
00000170: 5438 2e3b 6a75 2d3b 53be 153a 66d4 c439
00000180: 2fe4 ce3a 4f84 3337 1121 6639 aab3 a93a
00000190: fcc3 2c37 6c7e ed38 e333 e037 e5f4 9f3b
000001a0: 7247 c338 ced1 aa37 197a dc3a 7d20 1039
000001b0: cbee af36 a7c0 8f36 fdf0 e537 ee71 4c38
000001c0: 288c a53b 1d95 8e39 5e75 773a 89e6 ab36
000001d0: 6eaa bc3b 68d7 fc3a 70f7 c138 564a 8a3b
000001e0: 4b14 9437 006a 853b bdb5 8f37 4b6a 173b
000001f0: e75c bb39 54df 9939 85f2 8c3a 19dd 4d39
00000200: 0e9a 8839 a0fb 0d3c 2fd8 fd37 6ce9 a539
00000210: 7bb0 a839 eb8b a639 42aa 2c39 7435 2239
00000220: 81da f13a 61fb 5d3a 2eff 503b 6383 233b
00000230: 7276 0a39 c4f6 ac3a 865d 0a3a cec9 8e39
00000240: 750e ad38 6c63 ad3a f2d6 c13a 9b3b ce3a
00000250: d82c 8a39 560e 6f3b 8918 e43a a127 0a38
00000260: a7c9 043a d582 d43b a1f7 fb38 1b85 373a
00000270: 6271 7236 7ff5 2539 5356 b439 1dff 8238
00000280: 3310 0b38 e446 2d3a 40f2 223a 0149 1438
00000290: 72af d03a 2a89 9339 cee8 de38 e42d b237
000002a0: 44c3 073a fe37 8639 e756 eb38 a2ec 4d3a
000002b0: 86ce a236 1d4a 3a39 dc9d 2a3a b6fd 9e38
000002c0: 2d8b 8e39 6eea ce38 3cba 8739 6d97 2e39
000002d0: d013 1638 f956 2839 32d5 6939 4cb9 9c39
000002e0: b068 8336 6f27 2f3a 54a3 053a 4a2f 243b
000002f0: 5414 9438 b8cc e236 f81d 413a 112e 513a
00000300: 366d 273a 370e 1e3a bb78 ee38 18b6 df36
00000310: b007 7439 ca40 d138 ab85 6639 67fc 103a
0.0031287272 9.481448e-05 0.0067250133 0.0015123442 0.0028630837 0.0032761397 7.2304e-05 0.0014188428
0.00018488783 0.0018645646 1.7152439e-05 7.360503e-07 0.00077145366 5.4509288e-05 0.004887266 0.00012089102
0.00028293594 0.0026561497 0.00012242093 8.2488594e-05 0.00037989157 8.653082e-05 0.0068287263 0.00013817928
0.0007149584 0.00024178595 0.0004130435 0.0004073701 0.0009793451 0.00031470374 0.008516701 0.00029110647
0.0005332297 0.0014488815 0.0001951214 0.00012721507 6.839479e-05 0.0014091665 1.5753658e-05 0.0015675735
9.591002e-05 0.00023944046 4.738872e-07 0.0011404986 0.00019660639 0.0006259356 0.00045784333 3.7094546e-06
5.367342e-07 0.00020616021 0.0011794305 2.026638e-05 0.00089267 2.0588835e-05 0.0052336864 1.7283763e-05
0.000112737536 0.00032288872 0.00874395 0.0006603522 0.0010811508 0.0010156422 0.0009197035 3.0366863e-07
0.0006245783 0.00014108115 0.0001364377 0.005172871 0.0004352355 0.0012767387 0.00041294243 0.00011081507
6.157892e-05 0.0001329361 0.0003498402 0.0003990289 1.6344471e-05 0.00071294 0.0025075744 0.00093341374
3.046072e-05 3.37355e-05 0.00074823137 1.8925128e-06 0.0003631623 0.0015985585 0.0008008492 0.00081353256
0.0024774303 8.5873595e-05 0.00017378695 6.4356216e-05 0.0026583867 0.002646769 0.00057122594 0.00037542282
0.0015784557 1.0700037e-05 0.00021946827 0.0012947221 1.029763e-05 0.000113245886 2.6727042e-05 0.0048814886
9.311632e-05 2.0363277e-05 0.0016821056 0.00013745013 5.2432056e-06 4.28416e-06 2.7411146e-05 4.8743495e-05
0.0050521083 0.0002719545 0.00094397913 5.123035e-06 0.0057576215 0.001929027 9.249046e-05 0.0042202873
1.7652425e-05 0.004071474 1.7131557e-05 0.0023104127 0.00035736637 0.00029348827 0.0010753429 0.00019632689
0.0002605472 0.008665949 3.0260619e-05 0.00031645165 0.00032174945 0.00031766234 0.00016466624 0.00015469437
0.001845196 0.00084679393 0.003189038 0.0024950139 0.0001320483 0.00131961 0.00052782183 0.00027234707
8.251976e-05 0.0013228483 0.001478879 0.0015734317 0.00026354822 0.003647705 0.0017402332 3.293867e-05
0.0005065449 0.006485323 0.00012014737 0.000700073 3.6126808e-06 0.0001582708 0.00034396592 6.2464016e-05
3.315527e-05 0.000660999 0.00062159076 3.535394e-05 0.0015921427 0.0002814022 0.00010629148 2.1240623e-05
0.0005178938 0.0002560019 0.0001122186 0.00078553904 4.8520187e-06 0.00017765952 0.0006508508 7.5812844e-05
0.00027188045 9.8665114e-05 0.00025887962 0.00016650344 3.578124e-05 0.00016054128 0.00022300033 0.00029892696
3.9162915e-06 0.0006681596 0.0005097885 0.00250526 7.060976e-05 6.7591573e-06 0.00073668314 0.0007979582
0.0006386818 0.000602934 0.00011371212 6.6671164e-06 0.00023272517 9.9779645e-05 0.00021984304 0.0005530775
