saved_models/ISNNet_GRU_HS=16_N=4_ZP1_rtw0.0_output_hidden_16/split_0/model.pth (torch, 24250 bytes, 8 tensors)

trial_output.0.weight f4 [64, 64]
000000 c5 ab eb 3d 61 42 95 3b be 0f c2 3d cb c0 11 3e
       0.11507372 0.004555032 0.09475659 0.14233701
000010 cc 47 4c 3c b2 66 bf 3b 65 4d 41 bd e7 c0 c1 bd
       0.01246829 0.0058410997 -0.04719295 -0.09460621
000020 9a 66 b5 bb 07 cb d4 bd 8f 7f 91 be 60 57 0f bd
       -0.0055359127 -0.10390287 -0.28417632 -0.034995437
000030 0a f4 c0 bd de b6 ee bb 37 1d 92 be 26 86 80 be
       -0.09421547 -0.007284983 -0.28537914 -0.25102347
000040 df 1f 1a 3d 24 5f fd 3d 02 81 b5 3d 69 e9 1a 3e
       0.03762805 0.12371662 0.08862497 0.15128101
000050 77 34 df bc ae 6c 68 bd 75 b9 2f be a4 c4 20 be
       -0.027246697 -0.05674427 -0.1716059 -0.15700012
000060 76 7a 4a 3d ec 9d fe bd 01 02 b2 bd 4e 26 c7 bc
       0.049433194 -0.12432465 -0.086917885 -0.024310257
000070 d9 b0 05 bd 27 5c 91 3d cf 00 8c bd b8 6b f2 bd
       -0.03263936 0.07097655 -0.06836092 -0.11836952
000080 aa fc ba bd 1d af 23 3d 8f 7b c3 3d b1 69 c0 3c
       -0.09130223 0.039961923 0.09545051 0.023487898
000090 48 ef 99 bd 42 5b 68 bc 62 3f 83 bb 13 6c e2 bb
       -0.075163424 -0.014181914 -0.0040053586 -0.006909856
0000a0 c5 5e ee 3d 35 9b 92 bc c8 71 34 bc ef 53 8d 3d
       0.116391696 -0.017896274 -0.011013456 0.06900775
0000b0 47 33 1a 3e cf 9c a4 bc e1 00 b6 bc 6c be 6f bd
       0.15058623 -0.020094303 -0.022217216 -0.05853121
0000c0 b8 48 ad bd e7 b1 f1 bd 9c be bd 3d 13 5e 07 3d
       -0.084611356 -0.1180151 0.092648715 0.0330487
0000d0 d1 18 83 3d 4f 17 f2 bd cc 89 8f bc 97 ea a2 bd
       0.06401218 -0.11820852 -0.017521761 -0.07954901
0000e0 6f de 9c bd 56 01 4c 3e e4 f4 c8 3d fd 52 1f 3d
       -0.07659613 0.19922385 0.09812334 0.038897503
0000f0 21 f2 f4 3d 94 12 4e 3d b0 5d a8 3c 3b bd f8 bd
       0.11960245 0.050310686 0.020552486 -0.12145468
000100 56 76 b8 3c cb 28 d8 3d c9 5b be bd 5f dd d6 3d
       0.022517364 0.10554656 -0.092948504 0.10491442
000110 ea 51 d9 be 54 77 b2 3d e2 00 41 be ce 75 16 be
       -0.42445308 0.08714166 -0.18847993 -0.14693376
000120 a7 23 6a bd c9 69 b8 bd 9c 61 90 be 32 35 b6 3d
       -0.057162907 -0.09004552 -0.2819947 0.08896865
000130 4f 2e c3 3e 7f b6 a7 be 17 1f 22 bd 45 33 08 be
       0.38121268 -0.3275642 -0.03958043 -0.13300808
000140 df 3e b6 be f8 93 d4 3d 06 31 1f bd 0a 63 d3 bc
       -0.35594842 0.10379785 -0.03886511 -0.025804061
000150 ba 07 04 bf c6 ad 00 3c 71 80 3b be 13 9d 5b bb
       -0.5157429 0.007853931 -0.18310715 -0.0033510372
000160 5f 1a 25 be 72 6c 24 be 9a b5 cc be c4 20 92 3e
       -0.16123341 -0.16056994 -0.399823 0.28540623
000170 7d 10 8f 3e fd 5e 7f be 20 27 84 bc 37 a7 27 bb
       0.27942267 -0.24938579 -0.016131938 -0.0025581846
000180 c1 e8 e5 be fe ed 87 bd 67 26 49 be 5a 1d 1e 3b
       -0.4490414 -0.0663719 -0.19643556 0.0024126382
000190 aa 78 b0 be 86 22 63 3e 95 f4 2e be c3 59 ad bd
       -0.3446706 0.22181138 -0.17085488 -0.08464386
0001a0 a0 79 b9 bd 6a 54 b0 be 41 b3 4f be 21 92 eb 3e
       -0.09056401 -0.34439403 -0.20283224 0.46009925
0001b0 c1 30 bc bc f0 8b 20 bc 0b c9 65 3e ce 62 8b bd
       -0.022972466 -0.009798989 0.22439973 -0.06805955
0001c0 af 71 a4 be 88 21 22 be 3b 28 a2 bd 86 7c 10 3e
       -0.32117984 -0.15833104 -0.079178296 0.14110002
0001d0 9e 00 06 bf 8c 90 2c 3e 3d 94 4a bc 00 a9 58 bd
       -0.5234469 0.16852015 -0.012364444 -0.052895546
0001e0 c4 c2 27 3d 84 49 ad be a0 6d 94 be 48 34 41 3f
       0.040957227 -0.3384515 -0.28989887 0.754704
0001f0 de 1a 16 bd dc 85 3f be c0 18 a5 3e 58 73 4a 3e
       -0.036646716 -0.18703407 0.32245445 0.19770563
000200 cd ac 5c be 68 be 35 be 50 8e ff 3d 40 04 2b 3e
       -0.21550293 -0.17748415 0.12478316 0.1670084
000210 fe cd 86 be be f8 5d be ba c6 43 bd 6e 9c 20 3d
       -0.26329035 -0.21676919 -0.047796942 0.039211683
000220 1f e5 38 3e 86 91 f1 3d d4 f9 39 3d 83 87 d6 3e
       0.18056153 0.117953345 0.04540427 0.41900262
000230 b2 1e e2 3d 9d a3 94 bb 24 1a ae 3e f5 2b 63 bd
       0.11041011 -0.004536106 0.3400432 -0.055461843
000240 4a b1 94 bd 34 f8 9d bd bd 30 6c 3e 53 23 f9 3d
       -0.07260378 -0.077133566 0.23065467 0.12164941
000250 78 75 46 be 29 7b 62 be b7 ab 93 ba 6e 2e b1 3c
       -0.19380748 -0.22117294 -0.0011266385 0.021628585
000260 42 ce 81 3d a0 71 14 bd d2 a4 c6 bc 8d 2f bf 3e
       0.06338169 -0.036241174 -0.024248514 0.37340966
000270 45 ed 98 be 92 ff 2f be ed 28 14 3e 94 73 f6 bc
       -0.29868522 -0.17187336 0.14468737 -0.030084409
000280 60 18 a5 bc 43 6d 8f be 02 dc 60 3d 22 06 13 3e
       -0.020153224 -0.28013048 0.054897316 0.14357808
000290 19 5b 22 3a 47 29 7d bd 11 09 d7 bc 2a 7b 04 3e
       0.0006193384 -0.061806943 -0.02624944 0.12937608
0002a0 00 f5 9d 3d 3b 4f 74 3d 7e 09 90 3d 71 0a ee 3e
       0.07712746 0.059645873 0.070330605 0.4649234
0002b0 93 14 5f be 74 cf 2b 3d 44 cc 54 3e b8 60 a7 3c
       -0.21785192 0.04194589 0.20781046 0.020431861
0002c0 ee d6 34 bd 70 97 c6 be 27 84 87 bd e5 e0 cb 3d
       -0.044150285 -0.38787413 -0.06617003 0.099550046
0002d0 d7 7a c7 bd 33 c6 da bd d6 7d 13 ba ac d2 55 bd
       -0.09740227 -0.10682335 -0.0005626356 -0.052202865
0002e0 a7 53 de 3c d6 d7 ff bd c7 ac 7f 3b 6a 5a dc 3e
       0.027139498 -0.12492339 0.0039012895 0.4303773
0002f0 56 40 52 be a3 ac 01 3d fa 3c 1d 3e 73 57 34 3d
       -0.20532355 0.03165878 0.15355292 0.04402871
000300 7f 3a 10 be 41 5b 96 bc bf 98 85 3c 0e 0c 7d be
       -0.14084814 -0.01835406 0.016308187 -0.2471163
000310 29 d1 7f 3e 1b 09 db 3d 3b 30 c0 3d 44 bb 4d 3e
       0.24982132 0.10695096 0.09384199 0.20090967
000320 5e 06 3a be 44 75 f1 3d e7 d3 87 3c ea 0a 6b bc
       -0.18166491 0.11789945 0.016580535 -0.014345864
000330 9e db da 3d a6 90 20 bd 51 ba 1f 3d 3f bc 8d 3d
       0.1068642 -0.039200447 0.038996045 0.06920671
000340 b0 9b d4 bc 24 1d 9a 3d a5 e9 1b 3e 5a a6 00 be
       -0.025953144 0.075250894 0.15225847 -0.12563458
000350 ee f2 72 3e c0 0d d9 3c 7a b2 1a bc 57 83 63 3e
       0.23725483 0.026495814 -0.009441966 0.22218071
000360 26 3a 13 be 43 5f ac 3d bd 9e 11 3d 4d 98 13 be
       -0.1437765 0.08416607 0.035551775 -0.14413567
000370 54 e1 73 3e 59 9e de 3d 69 e9 a0 3c 7e 99 82 3d
       0.23816425 0.10870046 0.019642549 0.063769326
000380 b8 3f dd 3d 89 04 6a 3d cb 06 ea bc 59 65 2c bc
       0.10803169 0.05713323 -0.028567692 -0.01052221
000390 28 5f e3 3c d6 71 39 bd 69 04 34 3e e3 f0 ea 3d
       0.027755335 -0.045274578 0.17579807 0.11471727
0003a0 98 20 f0 bd 99 68 1b 3e a0 0d d8 3c 2a 4b 76 3c
       -0.11724967 0.1517662 0.026373684 0.015032569
0003b0 50 04 01 bc d9 93 64 3c a9 0f e5 3d a0 c4 b2 bd
       -0.007874563 0.013951265 0.111846276 -0.087289095
0003c0 bf 31 68 3d d2 9a cb 3d e1 5d 1b bd 3e e4 40 be
       0.056688067 0.09941639 -0.037931327 -0.18837067
0003d0 26 26 d9 3c ab 74 d2 bc 32 92 38 bc 4f aa 38 3e
       0.026507448 -0.025690397 -0.011265324 0.18033718
0003e0 43 d9 b4 bd d0 be 40 3c c7 ae 2a be 66 d8 b9 bc
       -0.08830502 0.011764243 -0.16668235 -0.022686195
0003f0 70 1e 9c 3d 18 3e e7 3d 48 ff 64 3c 53 23 a7 bd
       0.07622993 0.1129114 0.013976879 -0.081610344

trial_output.0.bias f4 [64]
000000 1b d0 c0 3d 91 a8 86 be e7 20 06 be fc 47 a8 3d
       0.09414693 -0.2630048 -0.13098489 0.08216855
000010 22 05 65 bd 10 0f d5 3d 2b 15 17 be ba 85 92 be
       -0.0559131 0.104032636 -0.14754169 -0.2861765
000020 ca 12 f1 3c 3d 3f 98 bd dd ce a5 3d 87 28 17 be
       0.029427905 -0.07433937 0.08096097 -0.14761554
000030 ac a1 fe bd 5b 18 f5 3d ba f0 f0 bd 3e b2 90 bc
       -0.1243318 0.11967536 -0.11764665 -0.017663117
000040 41 73 a7 3d 61 76 19 be 1a 7c 3c be 4f 79 ba 3c
       0.0817628 -0.14986564 -0.18406716 0.022762923
000050 f6 df 76 be be dd 98 bd f1 a6 83 3d b9 38 70 3c
       -0.24108872 -0.07464169 0.06428326 0.014661961
000060 53 ed 0f be b0 09 4d 3d a8 6f 84 be 65 06 9d 3d
       -0.14055376 0.050058067 -0.25866437 0.07667235
000070 47 5d ff 3d de 51 19 3e 4a a8 89 3c 85 41 c6 bd
       0.12468963 0.14972636 0.01680388 -0.096804656
000080 cb 22 2a bd ae dc 81 bd 5b b1 eb 3d 1e aa f9 3d
       -0.041537087 -0.063409194 0.11508437 0.121906504
000090 d5 5a 65 3d 96 e8 86 3c df ee 3a be 56 44 1b 3e
       0.055994827 0.016468327 -0.18255185 0.15162787
0000a0 23 4c f0 3d 9b d5 e0 3d 85 d5 d2 bd f6 bd fd 3d
       0.11733272 0.10978242 -0.10294632 0.12389748
0000b0 e4 c0 b0 bd 91 a1 8b 3c 90 1d 2b 3e b4 7b b7 bd
       -0.08630541 0.017044814 0.16710496 -0.089591414
0000c0 b6 8c 9b 3d a5 fd 06 3e 7d 0c 04 be d2 d3 25 be
       0.07595198 0.13182695 -0.12895389 -0.16194084
0000d0 b8 3e 12 3e 5b 98 18 be ef 0c 23 be f0 84 b1 3d
       0.14281738 -0.14901869 -0.15922903 0.08667934
0000e0 b1 cb 67 3d ed 63 cd 3d 24 a1 64 bc 41 62 3a be
       0.05659074 0.10028825 -0.013954435 -0.18201543
0000f0 a7 1c 09 be fe 37 a6 3d a2 cc 12 be e1 1f 76 bd
       -0.13389836 0.081161484 -0.14335874 -0.060088996

trial_output.2.weight f4 [2, 64]
000000 50 5e a1 bd 7c 22 27 3f 9b 87 73 be 5e 02 24 3e
       -0.07879317 0.65286994 -0.23782198 0.16016528
000010 2e 5e 06 be e7 72 32 be ba 4e 1a bc bf f1 36 bf
       -0.13121864 -0.17426644 -0.009418184 -0.71462625
000020 23 3e 52 be 9f 37 3c 3e 5e 85 12 3e e0 bb cd be
       -0.20531516 0.18380593 0.14308688 -0.401824
000030 8e ac 18 bf d6 4e 05 3e d0 37 97 be 00 e6 3c bd
       -0.596383 0.13018355 -0.2953477 -0.046117783
000040 72 eb 51 be 81 35 68 be 31 37 de bb 89 62 92 3e
       -0.20499972 -0.2267666 -0.0067814817 0.285908
000050 a9 e1 e3 3e c0 b5 30 3e 0f 25 ad bd 4e ae 1b be
       0.44508103 0.17256832 -0.08454334 -0.1520321
000060 21 28 65 be 99 50 1f be 0c 2b e2 3e c7 b8 1c be
       -0.22378589 -0.1555809 0.44173467 -0.15304862
000070 11 f5 2b be 60 29 e2 bd d3 38 44 3e 46 d0 24 3e
       -0.16792704 -0.11043048 0.19162302 0.16095075
000080 49 c0 56 be 71 c3 24 be 74 40 50 3e 76 d8 fa bd
       -0.20971788 -0.1609018 0.20337087 -0.12248318
000090 b8 1d 62 3e 6e 01 22 3e db 3c 63 be 9c 44 57 be
       0.2208165 0.15820858 -0.22191183 -0.21022266
0000a0 24 5f 1a be b6 c3 ec bd d7 82 58 3d 56 de 21 3e
       -0.15075356 -0.115607664 0.052859154 0.1580747
0000b0 fc 12 e5 bd 65 e1 a5 be 2d b8 9b 3d 6c 6f 6e be
       -0.111852616 -0.32398525 0.07603488 -0.23284692
0000c0 10 7e 38 be 17 3c b3 3d 99 83 d1 3c 0a e5 d9 3e
       -0.18016839 0.087516956 0.025575446 0.42557555
0000d0 2d 82 b5 3d 17 ad 12 be 86 14 c8 3d 4c 94 d3 3d
       0.0886272 -0.14323841 0.097695395 0.1033102
0000e0 19 a3 72 3e 8f 88 29 3e 0d 4b f3 bd 85 74 ab be
       0.2369503 0.16555999 -0.11879549 -0.33487335
0000f0 57 0a db be ca 11 aa 3e 7e 40 3f 3e ec 69 19 be
       -0.42781326 0.33216697 0.18676946 -0.14981812
000100 84 1d da bd c8 86 a2 bc 48 f7 cb bc c0 1c 60 bb
       -0.10650161 -0.01983966 -0.024898186 -0.0034196824
000110 56 58 ba 3d 68 d6 f1 3d 20 2e ea 3c 2e 2b a3 3d
       0.0909888 0.11808473 0.028586447 0.0796722
000120 c0 83 d1 3d 14 ec 64 3d 20 51 ef 3c 0a 0c e4 3d
       0.102302074 0.055889204 0.029213488 0.11135109
000130 60 ed 00 3c 90 60 12 3d 08 20 dd bc 88 87 aa bc
       0.007869095 0.03573662 -0.026992813 -0.02081658
000140 04 34 bb bd 50 5d d6 3c 20 cb d1 bc 24 a2 da bd
       -0.091407806 0.026167542 -0.025609553 -0.10675457
000150 00 58 eb 3b 24 de d9 bd a6 f2 c9 bd a4 24 0a bd
       0.0071821213 -0.10638073 -0.09860735 -0.03372635
000160 2e ca f6 bd 2c af a9 3d 60 46 eb bb 5a f6 cc 3d
       -0.120502815 0.082853645 -0.00718002 0.10007925
000170 5c 18 b2 3d 02 6e e3 3d bc 97 44 bd 70 b8 a2 3c
       0.086960524 0.11104967 -0.047996268 0.019863337
000180 a0 87 3f 3d c0 f8 42 bb 68 3e f1 bc 86 85 e2 3d
       0.0467602 -0.0029750317 -0.029448703 0.11060624
000190 40 27 23 bc 48 75 80 3c 82 4b c6 bd 18 8a 85 bd
       -0.009958088 0.015680924 -0.09682371 -0.0652048
0001a0 f4 44 af 3d a4 ea 6f bd 8c b7 f9 3d d0 54 af 3c
       0.08558074 -0.05857338 0.12193212 0.021402746
0001b0 b0 2d 83 3d ee 13 be 3d 74 01 b5 3d 3c 90 c1 bd
       0.064051986 0.09281145 0.08838168 -0.09451339
0001c0 08 49 bf bc b0 83 33 bc e0 b7 56 bc 84 d4 09 bd
       -0.023350254 -0.01095669 -0.013105363 -0.033649936
0001d0 54 b2 e5 bd 94 99 80 3d 20 95 0b 3c 98 19 b6 bd
       -0.11215654 0.06279293 0.008519441 -0.088916
0001e0 f0 f2 d4 3c 00 59 89 bc 30 78 20 3c 60 60 91 3d
       0.025994748 -0.016766071 0.00979428 0.0709846
0001f0 c0 16 9a 3c bc 4a 3c bd 28 c7 b7 3c 8e c5 ca 3d
       0.018809676 -0.04596971 0.022433832 0.09900962

trial_output.2.bias f4 [2]
000000 2a f3 2b bd d8 dd 8c bd
       -0.041979946 -0.06878251

rnn.weight_ih_l0 f4 [48, 6]
000000 5a 88 5c be ac e9 b9 3e 89 8e 30 3d d8 9b a0 3e
       -0.21536389 0.3631109 0.043104682 0.313689
000010 ab c6 b2 be c8 d2 11 3e a6 3b 48 be 03 d8 80 3e
       -0.34917197 0.14240563 -0.19554004 0.25164804
000020 69 80 09 3d be aa 8b 3e a7 b3 f6 3d 90 4b 24 3e
       0.033569727 0.27278703 0.12045985 0.1604445
000030 d2 8f d3 bd 55 17 c7 3e 8b 98 8f be 09 b6 2a 3e
       -0.10330166 0.38884988 -0.2804607 0.16671003
000040 1b 0d 43 bf b6 98 9f 3e ca 6f e1 3d 60 e5 30 3d
       -0.7619187 0.31171197 0.1100765 0.0431875
000050 9c 01 89 be 2c 43 49 3e 6f 5a a7 3e 07 1f 2c 3e
       -0.2675904 0.1965453 0.32686183 0.16808711
000060 ff c7 f8 be c2 ce f2 3e 69 d3 1a 3d 29 63 46 3e
       -0.48590085 0.4742337 0.037799273 0.19373764
000070 d0 53 70 be 62 4a c2 3e 4c 55 a6 3c ea fa 41 be
       -0.23469472 0.37947375 0.020304345 -0.18943372
000080 3c 20 27 3e 09 4a 16 3e fe 8e 07 3f 43 4a 1d be
       0.1632089 0.1467668 0.52952564 -0.1536036
000090 63 da 8a ba 1e d7 b6 3d 38 17 a4 be af 79 9e 3e
       -0.0010593649 0.08927749 -0.32048965 0.30952212
0000a0 ff a6 73 be c8 80 ea 3d 12 20 93 be cb cf d5 3d
       -0.23794173 0.11450344 -0.28735405 0.10440024
0000b0 66 95 d2 be 69 88 c0 bc f8 d8 ec bd 0a a2 c9 bd
       -0.41129607 -0.023502545 -0.11564821 -0.098453596
0000c0 c9 ac fd 3d 20 c9 96 3e bc 44 f4 3b aa bb 02 3f
       0.12386472 0.2945032 0.007454483 0.510676
0000d0 42 67 95 3d e9 b0 10 3f 5c dd 84 be 56 32 96 3e
       0.072950855 0.56519943 -0.25950134 0.29335278
0000e0 87 f0 b3 bd e5 4d 98 3d 1d 7c a1 be 07 6b 9d 3e
       -0.08786111 0.07436732 -0.31540003 0.30745718
0000f0 51 a1 a7 3e 6e e0 dc be fe d3 e0 bd ae 70 8f be
       0.32740262 -0.43139976 -0.10977934 -0.28015655
000100 15 2f 2e 3f 23 36 94 bf 8a cf eb 3d e3 e6 9c ba
       0.6804059 -1.1579021 0.11514194 -0.0011970665
000110 50 ec 32 3e d3 5d 13 3d c4 b2 b3 3c 1d 50 a1 be
       0.17472959 0.03597815 0.021935828 -0.31506434
000120 01 ec c3 be 69 46 82 3e 50 35 52 be af df 05 be
       -0.38265994 0.25444344 -0.2052815 -0.1307361
000130 e4 60 87 3e 97 70 65 bd 4b a8 6c bf 7d c5 f7 3d
       0.2644111 -0.056015577 -0.92444295 0.12098215
000140 b0 62 c5 3e 45 57 1b bf 56 f6 e0 be 09 8b a9 3e
       0.38551855 -0.6068004 -0.4393794 0.33113888
000150 a9 01 da 3e 2b 9e e4 be 9a 93 5d bd a1 cc 89 be
       0.42579392 -0.44651923 -0.054095842 -0.26913932
000160 35 8c 70 3f 6c 73 1f bf 01 f1 cc 3e 22 33 9b be
       0.9396394 -0.62285495 0.4002762 -0.3031245
000170 f5 b2 a3 3e 4c d4 dc bc 8a 1d 5a be ec 10 3e 3e
       0.3197247 -0.0269567 -0.21300331 0.18561143
000180 1f f8 31 be 09 e4 66 3e 80 54 a3 be 3e 30 ae 3e
       -0.17379807 0.22547926 -0.31900406 0.3402118
000190 37 1e e4 3d 55 16 a3 3d ac 7c 9e be c6 07 a7 3e
       0.111385755 0.07963244 -0.30954492 0.32623118
0001a0 8e b3 26 be 4d 9c 52 3f 54 86 48 3c b6 0a 8e be
       -0.16279432 0.82269746 0.012239058 -0.27742547
0001b0 a6 ca 4d 3c f1 7b 00 bf 35 22 13 3c d9 da e9 be
       0.012560522 -0.5018912 0.008980324 -0.4567478
0001c0 e3 0d b6 bd d5 fa 52 bd 9b d5 f4 bd 60 24 8b be
       -0.088893674 -0.051508743 -0.119548045 -0.2717619
0001d0 44 3c 83 3f a0 52 39 bf b1 3d b5 bc 19 7b df be
       1.0252767 -0.723917 -0.022124143 -0.43648604
0001e0 8b 66 de be d7 70 0d bf 5c e5 d6 3e 85 bd 14 bf
       -0.4343761 -0.55250305 0.41971862 -0.58101684
0001f0 3e ca 1c be fe 02 df be bd 00 03 be 16 fd d0 be
       -0.15311524 -0.4355697 -0.1279325 -0.4081809
000200 34 a9 2e bf 9d 81 5a 3e 36 9c fb be c7 97 16 be
       -0.68226933 0.21338506 -0.49142617 -0.14706336
000210 fc 9f 97 be b2 b3 06 bf d9 97 a4 be cc 96 b6 3d
       -0.29614246 -0.52617943 -0.321471 0.08915481
000220 20 1e b3 3e 57 0b 23 be 7d 02 ac 3c 37 b7 11 be
       0.3498392 -0.15922295 0.02099728 -0.14230047
000230 d2 ff 97 be 14 63 c4 3e 41 b0 c0 3d 39 fa 9f bd
       -0.29687363 0.3835684 0.09408618 -0.07811398
000240 f8 b6 54 3b 2c cf c3 bc 4a 42 4a 3e 21 3f ee bd
       0.003245769 -0.023902498 0.1975185 -0.11633135
000250 c1 0f e1 3d 8a 28 b8 be 50 db b8 bc c6 fc 2d be
       0.10989333 -0.3596843 -0.022565514 -0.16990957
000260 9b 37 79 bd 3e 52 b0 be 90 42 bb 3d 46 85 9c bc
       -0.060844045 -0.34437746 0.09143555 -0.019106518
000270 e2 64 44 3d b6 a7 9f be dc f6 eb bd 02 2c 02 bf
       0.04794777 -0.3118264 -0.11521694 -0.508484
000280 53 04 59 3e 5a b6 d5 be c9 49 62 3d 56 b8 a9 be
       0.21193056 -0.41740686 0.05524615 -0.3314845
000290 d7 c9 77 be 8d 6d 56 be 2f 8a 81 bd cc 5d 88 be
       -0.2419809 -0.20940228 -0.063251846 -0.2663406
0002a0 a3 f4 83 3d 15 86 cd bc 88 d2 c5 3e 71 36 7d 3c
       0.06443145 -0.02508835 0.38637185 0.015454874
0002b0 d2 0b d4 3e 34 ee 08 3e 6b 01 f9 be b2 4f b5 bc
       0.41415268 0.13372117 -0.48633894 -0.022132728
0002c0 39 c2 b4 be 38 51 89 bd 7c f7 3b bf 44 e7 01 3f
       -0.3530443 -0.06704944 -0.73424506 0.5074351
0002d0 f7 a9 a1 be 9e 72 05 bf 14 53 06 bf 81 00 05 be
       -0.31574985 -0.52128017 -0.5247052 -0.12988473
0002e0 66 cb ae 3d e3 9e d1 be e4 0a a9 3e bf e4 ff bd
       0.08534889 -0.40941533 0.3301612 -0.12494802
0002f0 6f f0 87 3e a4 cc 61 be c8 01 b7 3e d7 fc aa bd
       0.26550624 -0.2205072 0.35743546 -0.083490066
000300 bf 76 8b 3d 2b 87 a6 be 16 6f 03 3e ff 65 4b be
       0.068097584 -0.32525 0.12835345 -0.19863127
000310 4f 2a 02 bf 2a e9 23 3d 5c 58 a4 3e d2 f8 ea be
       -0.5084581 0.040017284 0.32098663 -0.4589296
000320 83 9c 49 3e a0 78 ea bb 06 23 bc bd ec df b8 3e
       0.1968861 -0.007155493 -0.09186368 0.3610834
000330 c7 f2 71 be ec b0 d7 3e 18 cb 03 be f2 d2 82 3e
       -0.23627768 0.42127168 -0.12870443 0.25551564
000340 d8 a8 ae 3e a7 65 88 3d a3 3b c0 3d 0d f6 49 be
       0.34113193 0.06660014 0.09386375 -0.19722767
000350 e9 f6 44 3d 36 d1 d3 3d 65 b0 d4 3e 35 17 06 bf
       0.048087034 0.10342638 0.41540828 -0.5237916
000360 38 36 d5 bc 19 e2 87 3e 1f 6a e5 3e 54 66 5e 3e
       -0.02602683 0.26539686 0.44807526 0.21718723
000370 cf cf dd be 41 80 b9 3e da a0 25 be 0e 82 00 3f
       -0.43322608 0.36230662 -0.16174641 0.5019845
000380 e4 05 15 3e 55 39 7b be 1d 84 db be 00 9f 04 3f
       0.14553028 -0.24533589 -0.42874232 0.51805115
000390 fe 54 52 be bb 4d e1 3e 3e 08 53 be 00 d5 6c bd
       -0.20540234 0.44004616 -0.20608613 -0.05782032
0003a0 c6 6c 02 3e 43 14 96 3d 73 4c 32 be 11 f5 94 3e
       0.12736806 0.07328083 -0.17411976 0.2909322
0003b0 7d a8 cc bd d2 92 ea 3e 6b 7d d5 3e b8 16 c0 be
       -0.09993074 0.4581514 0.4169725 -0.37517333
0003c0 31 38 06 3e 99 96 af bc d3 96 ac be d1 7e c9 3d
       0.13107373 -0.021434115 -0.3370882 0.098386414
0003d0 f5 8e 15 3d 06 fb 97 be 83 bb 06 bf 46 8e b2 3e
       0.036513288 -0.29683703 -0.5262987 0.3487417
0003e0 72 31 a5 be ff 10 2d be a3 19 97 be 03 a4 81 3d
       -0.32264286 -0.16901015 -0.29511747 0.06330111
0003f0 1b ff a2 be 1c f2 cd bd e6 4c ae 3e 42 27 a5 be
       -0.31835255 -0.10055944 0.34043044 -0.32256514

rnn.weight_hh_l0 f4 [48, 16]
000000 04 0d 74 bd a5 c8 2c bf 36 60 78 3e 79 42 38 3d
       -0.059582725 -0.6749366 0.24255452 0.04498527
000010 3e 87 eb bc 1f be 27 be ae 67 9c 3e 0b 4d 27 3f
       -0.028751012 -0.16381119 0.3054785 0.65351933
000020 94 12 76 be e4 78 1a 3f 7b a0 c6 be 8a 7c 92 3e
       -0.24030524 0.60340714 -0.38794312 0.2861064
000030 e4 02 25 be ee 97 68 be ff 15 fe 3e 5a 28 eb 3e
       -0.16114384 -0.22714207 0.49626157 0.45929223
000040 8f 20 08 bf 68 a7 9a 3e a8 a5 f5 3e 55 d8 a6 3e
       -0.5317468 0.30205846 0.47977948 0.32586923
000050 2c c5 8c 3e dd 81 84 be 56 ba a0 be e4 44 82 3e
       0.2749418 -0.25880328 -0.31392163 0.25443184
000060 27 e8 5e be ba e8 a4 be cf b2 81 bd cc 6e 9f bd
       -0.21768247 -0.32208806 -0.06332933 -0.07784805
000070 db d8 ad 3e 14 57 e5 3d ad d4 be 3e fe d0 b5 be
       0.3395451 0.111982495 0.37271634 -0.3551101
000080 4c b2 1f 3f f0 52 d8 3e ba fd 1b 3e be e0 e7 3e
       0.62381434 0.42250776 0.15233508 0.45288652
000090 02 b0 0d ba f8 a7 b4 3a 13 d0 9c bd 2c 03 78 be
       -0.00054049504 0.0013782969 -0.076568745 -0.2421996
0000a0 ea 60 e3 3e 4d 55 9c 3e f3 a4 21 bb 08 e9 e5 bd
       0.44409877 0.3053383 -0.0024664968 -0.11226088
0000b0 48 da 18 3f e5 4d 9d be 89 17 68 3e 2f 14 8a 3e
       0.5970807 -0.3072349 0.22665228 0.26968524
0000c0 9a e6 14 bf a6 e7 cf bd 3e eb 3a 3f 36 68 ac be
       -0.5816437 -0.10151605 0.730152 -0.33673257
0000d0 d8 a2 8c 3e 71 1c 7b 3d 32 da 41 be dc 75 98 3e
       0.2746799 0.06130642 -0.18930891 0.2977742
0000e0 f0 21 68 be 09 4e ab be e8 4f ab bd ac 25 b8 3c
       -0.22669196 -0.33457974 -0.0836485 0.0224789
0000f0 35 83 0c 3f 3a ee 13 3f 6d 6c 84 3d 35 d2 bf bd
       0.54887706 0.5778538 0.06465993 -0.09366266
000100 a6 c2 d2 3e fe 51 23 3f 76 cc 21 be cf 39 02 3f
       0.4116413 0.63796985 -0.15800652 0.5086946
000110 76 c7 69 bd 0c a0 f7 3e 6a 3b 87 3e 74 a5 a3 3e
       -0.057074986 0.48364294 0.26412517 0.31962168
000120 4a 65 d0 be 0a fb 95 3e e3 78 9f be d7 9a 8c 3c
       -0.40702277 0.2929309 -0.31146917 0.017163677
000130 b7 5e a9 bd 03 0f 8e 3d 84 b6 e2 be 45 34 ed 3e
       -0.082700185 0.06936457 -0.44279873 0.4632894
000140 28 93 54 bf c9 d0 6d 3e c6 f1 9e 3e 85 43 45 bf
       -0.8303704 0.23224176 0.31043833 -0.7705615
000150 d8 8e c5 3e 20 cd f6 be 41 38 31 bf 00 26 f2 3d
       0.38585544 -0.48203373 -0.6922646 0.11823654
000160 46 b2 46 bf 6f 7f 35 bf 8e 4b 47 be 2b 34 29 3d
       -0.77615774 -0.70897573 -0.19462416 0.041309517
000170 e7 68 cd 3d 59 37 c2 3f 92 88 5b bf ca 15 7c bf
       0.10029774 1.5173141 -0.85755265 -0.9847075
000180 aa 21 4d 3e 34 13 5a be 2c 92 2d 3e 51 44 1c be
       0.20032373 -0.21296388 0.16950291 -0.15260436
000190 38 38 9c 3e 97 46 38 bd 39 45 b0 bd 74 cc 0a 3e
       0.30511642 -0.044989195 -0.08606953 0.13554555
0001a0 b4 b5 4f 3e 06 f1 03 3e 71 39 57 bd 49 31 74 3d
       0.20284158 0.12884912 -0.052545015 0.059617314
0001b0 1b ef ad 3d 76 09 48 3d a1 20 5a bd 44 97 43 3e
       0.084928714 0.048837148 -0.053253774 0.19100672
0001c0 88 a0 e6 be 92 f2 77 be a4 56 14 3f c4 5c 06 bf
       -0.4504435 -0.24213627 0.57944703 -0.524853
0001d0 b3 29 21 3e 5c 6c ad bd c3 b7 9e 3c af 31 4f be
       0.15738563 -0.084679335 0.019374734 -0.20233797
0001e0 ad 15 9c bd 2c 06 c8 bd d6 99 e8 3e ee b9 37 3e
       -0.07621322 -0.09766802 0.45429868 0.1794202
0001f0 00 67 9d be 6c cd 88 be 35 56 a1 3e 40 e6 5d bd
       -0.30742645 -0.26719224 0.31511083 -0.05417466
000200 c3 87 d3 3d 4f e8 dd 3e 18 eb 8a 3e d5 a5 cb be
       0.10328629 0.433413 0.27132487 -0.39774957
000210 29 61 d3 3e 56 65 6d 3e 64 39 9c 3c 2a 23 12 be
       0.41285065 0.23183188 0.019070335 -0.14271227
000220 5b 45 94 bd dc 0f 97 3c a9 5c 85 bf 84 c1 ae bc
       -0.07239791 0.01844018 -1.0418903 -0.02133251
000230 a6 dd d2 3e f3 3a 08 3f c6 ab e9 be 2d 38 a5 be
       0.4118473 0.5321495 -0.45638865 -0.3226942
000240 d9 5f 7c bf 50 8f 30 bf 22 42 01 3f 31 a9 29 be
       -0.9858375 -0.6896868 0.50491536 -0.16568448
000250 e4 2b f2 3e 57 0f 19 3d aa 43 2b 3e 27 e2 e6 3e
       0.4729911 0.037368145 0.1672503 0.45094416
000260 3a 70 61 3d e4 7f 01 3f d3 ff 03 be f2 04 63 be
       0.05503867 0.5058577 -0.12890558 -0.22169855
000270 5f 0a 01 3d e2 73 11 3f db 18 48 be 4e c4 9c 3e
       0.03150403 0.5681745 -0.19540732 0.3061852
000280 bc 43 ba be b8 4a da bd 1e 0d 35 3e a4 68 a8 be
       -0.36379802 -0.10658783 0.17680785 -0.32892334
000290 86 1b 9a 3e 84 23 21 bf 69 75 34 3f 31 45 2a 3f
       0.30099124 -0.6294482 0.70491654 0.6651183
0002a0 53 51 61 be d2 97 bf 3e ce 44 c4 be 52 13 ac 3e
       -0.22003679 0.37420517 -0.38333744 0.3360849
0002b0 46 49 7d be 78 1f 26 3e 64 45 89 3e a5 2b 7a 3f
       -0.24734983 0.16222942 0.26810753 0.97722846
0002c0 5b 84 7c be 8c b4 91 bd c1 87 32 3e 4f d2 1c be
       -0.24659865 -0.07114515 0.17434599 -0.15314601
0002d0 61 5e ef 3d d0 bc 53 be 1e a2 16 3e 79 a9 da bd
       0.11687923 -0.20677495 0.1471028 -0.106768556
0002e0 a4 60 72 be a3 81 2e 3e 72 da 1c 3e 09 18 14 3d
       -0.23669678 0.1704164 0.15317705 0.036155734
0002f0 6e 46 8d be 43 e8 9d 3e 86 39 60 be 7c bb ad 3e
       -0.27592796 0.30841264 -0.21896943 0.33932102
000300 2c 5d 56 bf c6 ec c9 bc cb b0 05 3f ae 54 8c bf
       -0.8373592 -0.024649035 0.5222289 -1.0963342
000310 8f 8c 54 3f 32 6e 96 be 12 cd 2c be fa 99 6f 3e
       0.83026975 -0.29380947 -0.16875103 0.23398581
000320 c8 fa a9 bd 92 05 a9 3e d6 0e 68 bd c5 df 91 be
       -0.08299786 0.33012062 -0.056654774 -0.28491035
000330 eb 74 31 3f 78 d3 a4 3f a4 54 88 be 6d b2 2f bf
       0.6931903 1.2877035 -0.26627076 -0.6863163
000340 4b 6a 34 be 48 67 15 bf cc 77 98 3e ca c3 3a 3e
       -0.17618673 -0.5836072 0.29778898 0.1823875
000350 ba 6b a3 bd 4d 41 ef be b8 73 99 3e 94 14 7d 3e
       -0.079795316 -0.46729508 0.299711 0.24714881
000360 3d 45 2b bd c3 1c bd be f8 9f d0 3d 6a 83 f7 3e
       -0.041814078 -0.36936006 0.101867616 0.48342448
000370 d5 53 3f 3d e0 e1 4d bd 6f 55 fe 3e ce dd 17 3f
       0.046710808 -0.05026424 0.49674556 0.5932282
000380 6c 49 45 bf 99 fa e2 be 0d f6 be bd 7b 3a e0 be
       -0.7706516 -0.44331816 -0.09324274 -0.43794617
000390 0a eb 3a be fa 16 ed be b1 0b fe 3d d1 c2 fc 3e
       -0.18253723 -0.46306592 0.12404574 0.49367383
0003a0 3e 64 0d be 82 97 ba be 12 49 59 3f 90 7d 90 3e
       -0.1380777 -0.36443716 0.8487712 0.28220797
0003b0 86 46 0f bf 4a e7 b2 3e 32 ba c6 3e b0 48 c8 3d
       -0.55966985 0.34942085 0.3881393 0.09779489
0003c0 8b c0 06 bd db 2d 72 bd 4f 18 f3 3d 70 8f 25 be
       -0.032898467 -0.059125762 0.11869871 -0.16167998
0003d0 91 4d a5 3d 30 f5 b6 be 2c 6b 1b bd c1 d2 60 bd
       0.08071435 -0.35733938 -0.037944004 -0.05488849
0003e0 88 fb 09 be ed 06 93 be 9a f4 9e 3c 9b 15 a4 3d
       -0.13474858 -0.2871622 0.019403744 0.080119334
0003f0 17 95 2f be 24 37 57 3d 30 84 94 be 48 cd 9b 3c
       -0.17146717 0.05254282 -0.290071 0.019018784

rnn.bias_ih_l0 f4 [48]
000000 38 a6 e3 3d 7b da 9a 3d 00 04 42 3b 5b 83 e2 bd
       0.11115688 0.07561203 0.0029604435 -0.1106021
000010 5f a4 5f 3e 71 e7 20 3e 2f 49 08 be f7 09 bc bd
       0.21840046 0.15713288 -0.13309167 -0.09181588
000020 88 cb 3c 3e d3 4e 95 3e b9 1f 82 3e 5d 83 89 3e
       0.18437016 0.291617 0.25414827 0.26858035
000030 5b 64 56 3e 92 91 bb 3e 87 ae 9a bd 8e 49 fd bd
       0.2093672 0.366345 -0.0755282 -0.12367545
000040 1d f9 15 3e df f4 2b be 38 97 9d 3e 36 3c e9 3e
       0.1464581 -0.1679263 0.30779433 0.4555375
000050 f8 f1 2b be f5 b9 36 3e 52 5e 3f be 49 9d 0d 3e
       -0.16791523 0.17844374 -0.18688324 0.13829531
000060 4a c1 0b 3f a1 58 dc be bb 08 27 be 7a f0 20 be
       0.5459181 -0.43036368 -0.16311924 -0.15716735
000070 10 9d df be cc 00 d6 3d ff ea f1 be 13 b6 4a be
       -0.43674517 0.10449371 -0.472496 -0.19796018
000080 b7 1d 96 3d 72 c2 b5 3c d2 44 dd 3d 2b ef af bd
       0.073298864 0.022187445 0.10804142 -0.085905395
000090 a2 27 00 3e 29 3f 3d be 84 74 b1 bd d5 e5 00 3e
       0.12515119 -0.18481125 -0.08664802 0.12587674
0000a0 f4 a7 8b be 08 e4 38 3e cc 16 84 3d e6 37 73 be
       -0.27276576 0.18055737 0.06449661 -0.23751792
0000b0 fb b9 39 3e b4 d1 e3 3d e9 ee 1a be 1a aa 29 3d
       0.18137352 0.11123982 -0.151302 0.041421987

rnn.bias_hh_l0 f4 [48]
000000 a7 0f 06 3e 4c 47 b6 3e c5 fa 6a be 04 01 c6 3d
       0.13091908 0.3560127 -0.22947223 0.096681625
000010 e5 19 58 be 3b d1 ed bd 94 c4 3f 3e 00 cc 95 be
       -0.21103628 -0.11612173 0.18727332 -0.29257202
000020 fa 5b 9a 3e f9 df a9 3e 1a 4b 11 3f 7f 59 46 3e
       0.30148298 0.3317869 0.5675522 0.19370078
000030 09 99 61 bd 6e 61 96 3e a0 18 31 bd 26 31 f7 3d
       -0.055077586 0.29371208 -0.043236375 0.12069921
000040 45 af 2a be ae 5f 18 3d 85 89 b7 3e cf a9 be 3e
       -0.16668423 0.037200622 0.35847107 0.3723893
000050 ff 4d b6 3c 84 b3 48 be 02 7a eb be aa 5a 56 bc
       0.022253988 -0.1959973 -0.45991522 -0.013083139
000060 34 07 b0 3e aa 24 d0 be c0 67 07 3c b4 66 77 3c
       0.34380496 -0.40652972 0.008264482 0.01510017
000070 89 c1 2b be 82 cd c9 3d 71 cb 8d be 5e be bf be
       -0.16773047 0.09853651 -0.27694276 -0.37449926
000080 5e b8 0a 3d 55 73 3d 3d df 2b 81 be eb 72 33 3e
       0.033867233 0.046252567 -0.25228783 0.17524306
000090 d4 56 c1 3d cb 15 ce bd 4f 68 8a 3e 40 65 b6 3d
       0.09440389 -0.100627504 0.27032706 0.08906031
0000a0 0c 1b b6 3d 44 ce ab bb c9 4a ce 3d 29 b9 45 be
       0.088918775 -0.0052430946 0.10072858 -0.19308914
0000b0 b1 c8 53 be 24 f2 10 be 6e ad c4 3d 43 75 e3 bd
       -0.20682026 -0.1415487 0.096033916 -0.1110635
