saved_models/discretised/checkpoint255.pth (torch, 224977 bytes, 27 tensors)

h0 f4 [1, 64]
00000000: 7fbf ccbe ae2e 1ebf 2fa2 ff3e 9b1b 8e3f
00000010: fc45 98bf 3946 8a3e 62bf 90bf e8b5 afbe
00000020: d698 6b3e 2960 a13f d0ed 36bf 9c3c 923f
00000030: 4b79 44be f53f fc3f d013 e73e 5445 b7be
00000040: b060 12bf a818 35bf 9698 b1be 3fe0 933e
00000050: 9f67 df3e efbd 39bf c082 c4be bfee d53f
00000060: 8b7d a0bf 658c 1c3e b08d d93e 8cfd bc3f
00000070: bf06 0b3f 4ef8 ff3e c693 623f 1d60 b6bd
00000080: ab9a 523f 050c 85bf 5b5f 953d ec31 1b3f
00000090: 0f80 d83e 42e5 00be 7846 9b3f c424 c6bd
000000a0: 63f3 453f b8f2 b43e 55c2 12bf 0bed 833f
000000b0: 0574 05bf 44ab 0040 94ac d0bf 17e3 23bf
000000c0: b652 683f 43cf e73f 6a79 d0be ce2e ba3f
000000d0: b95a cc3f 4844 253f 1149 c7bf 6bb1 05bf
000000e0: 4840 64bf 022c f13d 3eae 4e3f 02d6 cbbe
000000f0: 7344 06c0 aea7 2abf 1fd8 cabf 4610 c4bf
-0.3998985 -0.6178998 0.49928424 1.1102175 -1.1896358 0.270067 -1.1308405 -0.3431847
0.23007521 1.2607471 -0.71456623 1.1424747 -0.19186895 1.9707018 0.45132303 -0.3579508
-0.57178783 -0.7074075 -0.34686726 0.28882024 0.43633744 -0.7255544 -0.38381004 1.6713485
-1.2538313 0.15287931 0.4249091 1.4764876 0.5430717 0.4999413 0.88506734 -0.08905051
0.82267255 -1.0394293 0.07293578 0.6062305 0.422852 -0.12587455 1.213088 -0.09674981
0.77324504 0.3534143 -0.5732778 1.0306715 -0.52130157 2.0104532 -1.6302667 -0.64018387
0.90751207 1.8110126 -0.40717632 1.4545534 1.5965186 0.64557314 -1.5569173 -0.52223843
-0.89160585 0.11775972 0.8073462 -0.39811713 -2.0979278 -0.6666211 -1.5847205 -1.5317466

trial_output.0.weight f4 [64, 64]
00000000: 1b3c b8be e321 5f3b cc2f 38be 222a c33e
00000010: 1b64 aebe 5278 e3bd 45b6 33be c2b7 883e
00000020: 89b3 f13e d781 693e 767c c4bd 73f7 29be
00000030: c7da 783d eed9 a9be eba1 313e 6f81 f5bd
00000040: 8a07 a5be 578f 0bbe 8758 bfbc d187 79bd
00000050: 455d 3b3e 1d50 e8bd d757 fdbd eda3 ca3d
00000060: 5a7c 8cbd 00be b43c 1891 afbd 4c7b 723e
00000070: 70ee 89be 7ef4 953e 64fc 7ebd 0a1f 153d
00000080: 55b2 74be a695 e63c 89cf 0c3c b94e 3bbe
00000090: 087d 72be 2ce5 c3bd 6009 81be ada2 df3d
000000a0: 0684 84bd f5ed d6bd d733 7c3e 5416 1dbe
000000b0: 9460 923d 73ed 763e 7a3a 0dbe 0426 f2bd
000000c0: 1501 8cbe c931 1a3e 45c3 413e fec9 223e
000000d0: 88a0 433e 609c fa3d 260a 60be 0038 1f3e
000000e0: bff3 a93e e989 213e a3ab 40bc 5ce2 9dbd
000000f0: 8491 b23e 46ad 1a3d dc3b 543e 0511 cc3d
00000100: d405 193e 93d2 19bd c0f7 02be 08f4 bebc
00000110: 68e7 0f3d 02c9 503d eff5 7e3d cdd3 06bc
00000120: 18ce a2bd 1560 133e 15aa 66be c235 b13d
00000130: 563c 873b 6411 83be 7be6 d2bd 3fb0 bdbd
00000140: c252 05be 0add 6c3d 1e81 39be 2e43 633e
00000150: 3550 e53d 3ddf 533d 8cd4 c63d 2afb de3a
00000160: ccec fabd 661d 053e a059 8b3d d5f3 bf3e
00000170: 70c9 54bd e26d 58bd c6e2 01be 0849 54bc
00000180: ea6d fcbd ad24 0cbd b22a 9dbd 3851 78bd
00000190: 2e1c 5d3d bc90 6bbd d9b9 ec3d 4489 353d
000001a0: 09b1 00bd 0c9e 543d 6344 873e 3273 0ebe
000001b0: c315 86bd 4b98 85bd d0bd bdbc 8b0c c9bd
000001c0: a7d3 4ebe 5090 853d 72cf ac3d 20aa 33bd
000001d0: 6af0 0eb9 fb88 cbbd 02cd e63d 8fa4 8e3e
000001e0: 4ae7 2fbd 1a72 b53c 9814 db3d 1736 00be
000001f0: 8acc 21bb b710 ce3c e82a cd3d 58b7 ad3d
00000200: 10ff 07be a2a1 7fbc c77b b4bd d763 b03c
00000210: 794e 0abe 7f43 5a3b 100c 2c3d 3836 ca3d
00000220: 1fc7 ed3d d26e 223e 2a1e 90bc 6a77 15be
00000230: 6a25 f7bd 83b7 a3bc cb5d 03bd ff0d dabc
00000240: 666b 973d 5581 cabd 465a 7ebc ad67 d43c
00000250: 5c4d d73d adb7 883c d6a9 aebc 16ee 553b
00000260: a58d 4f3e 362b 213e 8ca7 d3bb 2ad0 92bd
00000270: 18fa 0bbd 0efb 9e3d 71f8 f3ba 9115 ca3c
00000280: 77c0 89bc bb76 a83d ff23 4f3c 9a82 1bbe
00000290: 2b53 3abd dd1a af3d c050 5e3d 403a 3e3d
000002a0: 0882 023e 86f8 9bbc dafd c73d a4f1 b8bd
000002b0: e791 cbbd 76ec 1a3e 7680 e13d 23ea f7bc
000002c0: 076b 0abe 7f9d af3c 44af a43d 0564 7d3d
000002d0: 0f39 ef3d 45dd 783c f90b 99bd cadc f53d
000002e0: 0246 63bd 95cf f03b f3dd c53c 7001 723a
000002f0: bd12 6e39 50d4 17bc f888 fe3d 2c94 613e
00000300: fa9b 0dbd 7a72 17bc c1a3 483b 6d6b 023d
00000310: ab47 bdbd e220 9e3d 8f74 abbd 0eb5 3d3d
00000320: cff7 963c b14e 7e3c e515 24bb d2a2 2a3d
00000330: 6584 9a3d 3b1e 02bb 8809 323d 1c18 bcbd
00000340: 9a31 693d 36b3 cfbc 8fc0 c93d 55af 94bc
00000350: 81f4 a03d 83df 46bd 62ac 9aba 10e7 0a3e
00000360: ca30 643d 3bbb 2f3d 56e8 8d3d a9ff d13c
00000370: 30de 073d 1cf9 c3bd 114b bb3d 8dd2 f03c
00000380: 406c bbbb 533c 65bd 2ba7 c73d ce96 e93c
00000390: 4226 dc3c 840c acbc b82a 103d 7fe3 19bd
000003a0: 83fd 12be 669c db3d 654f 24bd 6a7a 5d3d
000003b0: a7ea 0c3e dfe1 86bd 217e 983d 8fe4 663d
000003c0: 7c5e b63d 96a0 073d 34ac 02be 3a62 b13c
000003d0: eda9 b0bd 06bc 21bd a6a3 0b3e 07b2 7c3d
000003e0: 72aa bd3d 2462 73bb 8b43 0fbd a15d 5bbd
000003f0: a1cc fdbc 881f 0b3e aca8 47bc 0abe aa3b
-0.35983357 0.0034047298 -0.17986983 0.38118082 -0.3406075 -0.11106934 -0.17549999 0.26702696
0.47207287 0.22803436 -0.095940515 -0.165983 0.060755517 -0.3317408 0.17346923 -0.11987578
-0.32232314 -0.13628899 -0.023357643 -0.06092054 0.18297298 -0.113434054 -0.1237027 0.098945476
-0.06859656 0.022063255 -0.08572596 0.23679847 -0.26939726 0.29288095 -0.062252417 0.036406554
-0.23896153 0.02814753 0.008594402 -0.18291749 -0.23680508 -0.095651954 -0.25202465 0.109197
-0.06470494 -0.104946055 0.2462915 -0.15340549 0.07147327 0.24114017 -0.13791838 -0.11823657
-0.27344576 0.15058054 0.18922146 0.15897366 0.19104207 0.122368574 -0.21878871 0.15548706
0.33193776 0.15775265 -0.011759671 -0.0770919 0.34876645 0.037762903 0.2072596 0.09964184
0.1494363 -0.037554335 -0.12789822 -0.023309723 0.035132796 0.050972946 0.06224626 -0.008229208
-0.079494655 0.14392121 -0.22525819 0.086528316 0.0041270657 -0.25599205 -0.10297867 -0.09262132
-0.13019851 0.057827987 -0.1811566 0.22193596 0.11196939 0.05172657 0.09708509 0.0017012109
-0.12252197 0.12999496 0.06804204 0.37490717 -0.05194992 -0.052839167 -0.12684163 -0.012956865
-0.12325652 -0.034214664 -0.07674159 -0.06062433 0.053981952 -0.057511076 0.11558885 0.04432036
-0.031418834 0.051908538 0.26419362 -0.13911131 -0.065471195 -0.06523188 -0.023161799 -0.098168455
-0.20197926 0.06521666 0.084380046 -0.043863416 -0.00013631737 -0.09938236 0.11269571 0.27859923
-0.042945184 0.022149134 0.10697287 -0.12520634 -0.0024688565 0.025154455 0.10017949 0.08482236
-0.13280892 -0.015602501 -0.08812671 0.021531982 -0.13506497 0.003330439 0.04200369 0.09873623
0.11610245 0.15862587 -0.017592508 -0.14596334 -0.12067683 -0.019984966 -0.03207187 -0.026618002
0.073935315 -0.098879494 -0.015524453 0.025928343 0.10512802 0.016689146 -0.021321218 0.003264313
0.20268877 0.1573914 -0.006459182 -0.071686104 -0.034174055 0.07762729 -0.001861347 0.024668487
-0.016815407 0.08225771 0.0126428595 -0.1518654 -0.04548947 0.08550046 0.054276228 0.04644227
0.12744915 -0.019039404 0.09765215 -0.09030464 -0.09939938 0.15129265 0.1101083 -0.030263012
-0.1351739 0.021437405 0.08041242 0.061862964 0.11680805 0.0151894735 -0.07472987 0.12005003
-0.055486687 0.0073489645 0.024153685 0.00092317816 0.0002270443 -0.009266928 0.124284685 0.2202918
-0.03457258 -0.009243602 0.0030615183 0.03184073 -0.09242185 0.07721116 -0.08371841 0.046315245
0.018428711 0.015521691 -0.0025037464 0.041659184 0.075447835 -0.0019854445 0.04346612 -0.09184286
0.05693207 -0.02535401 0.09851181 -0.018150011 0.078591354 -0.048553 -0.0011800642 0.13564706
0.05571059 0.042903166 0.0692908 0.025634604 0.03317088 -0.09568998 0.09145177 0.029397273
-0.0057196915 -0.055965733 0.09748682 0.028514292 0.026873711 -0.021002062 0.03519699 -0.037570473
-0.1435452 0.1072319 -0.04011478 0.05407182 0.13761388 -0.0658605 0.07445932 0.056370314
0.0890474 0.03311213 -0.12761003 0.021653283 -0.08626161 -0.039485954 0.13636646 0.061693218
0.092610255 -0.0037137354 -0.034976523 -0.05355609 -0.030981364 0.13586247 -0.012186211 0.0052106427

trial_output.0.bias f4 [64]
00000000: 5956 37bd 64e0 6b3d d0d1 e83d cad1 983d
00000010: 5754 833d 1988 1a3e 6d3f c73c 5399 46bd
00000020: 1540 353d 4363 bc3d 6a3e c73d 5d93 2b3d
00000030: b629 673d e94d a43c cfa8 5fbc 6f14 c4bb
00000040: 4ca6 05be 37f1 ecb9 7134 5ebd 8c38 16be
00000050: 396e 8cbd 5454 b53b bfb6 8cbd e2a6 84bd
00000060: 06c6 3d3d 9433 d23c 2eab c6bd d259 103d
00000070: e33e 4fbd 2bef cebd a742 06ba 4f3a 98bd
00000080: 8b00 aebc 28db dfbc 7ac2 13be 3350 14bd
00000090: 982c cc3d c6d4 013e 1b6a f73c a76d ce3d
000000a0: 96f9 503c bfac b63d 9a62 963d 7542 11bb
000000b0: ffee ba3d 2e3c 4cbe 4fd3 8d3b be9e 2cbd
000000c0: 3d1d 7ebd 55b0 ca3d 4cec 843d 752f 483d
000000d0: 3223 123e 9053 3cbc f8e5 e4bc 3306 fd3d
000000e0: 0a82 27bd b2d9 adbd 6602 da3c 3093 663d
000000f0: 46df f7bc 827e 123d 5481 ffbd 18fb 803d
-0.044760082 0.057587042 0.113681436 0.07461889 0.06412571 0.1509098 0.024322236 -0.048486065
0.044250567 0.0919862 0.097287014 0.041888583 0.056436263 0.020056682 -0.013651087 -0.005983881
-0.13051718 -0.00045193147 -0.05424923 -0.14670008 -0.06856961 0.0055337343 -0.068707936 -0.06477143
0.046331428 0.02565936 -0.09700619 0.03524191 -0.050597083 -0.101042114 -0.00051216263 -0.074329965
-0.021240493 -0.027326182 -0.14429656 -0.036209296 0.09969443 0.12678823 0.030201962 0.10079508
0.012754818 0.089196675 0.073430255 -0.0022164856 0.09127616 -0.19944832 0.0043281685 -0.042143576
-0.062039603 0.09896914 0.064903826 0.048873384 0.14271238 -0.011494532 -0.027941689 0.12354698
-0.0408955 -0.08488788 0.026612472 0.056292713 -0.030257832 0.03576518 -0.12475839 0.06297892

trial_output.2.weight f4 [3, 64]
00000000: 81a7 9b3e 0097 02be d5fd 983d 87d1 81bd
00000010: 67fa 263e d0ac fd3d bd05 873d 7829 1ebd
00000020: c94d 263e e8ea eb3c a04e 873e 153d 193d
00000030: 2b3d 86bd f2b3 8fbe 9eb5 e0bd 5b6f 233e
00000040: ac0e 3f3d 9795 5e3e 23b2 0bbf e185 883e
00000050: 91f5 82be a133 39bd 811a 9fbf 7b64 4c3f
00000060: 9778 54be fa80 c13b 7a59 473d 194e aa3d
00000070: 0278 87bd 9f55 163d 8286 253e d567 e9bd
00000080: c02f 973d 8064 06bd bdaf 78bd 1b51 b83e
00000090: 73ed 7ebd 1cb2 b7bc 6cd9 d43c 3dcb 3bbd
000000a0: 558a dabd 3308 c23d 7cbb 8a3d 0bd2 ad3d
000000b0: a928 d13d edf4 debd ff54 98bc 9c26 afbd
000000c0: 9028 e03d 09cf 44be d221 aabd 86e6 b33e
000000d0: f4c6 bbbc 0a55 b0bd 2fe6 8c3a 56d4 3e3d
000000e0: f845 1e3f b966 18bd 425e 063f 93d7 e53d
000000f0: 8d6e e23d fc92 1d3d ac09 2abd e415 a43e
00000100: e4d8 17bf 81ab 23be 9993 553d 756c 19be
00000110: 1d96 20be 871b 71bd 4512 21be 9298 153c
00000120: f60e c7bb bf72 81bc a25c 13bd fd91 02be
00000130: 0512 4c3d cff1 413e 1db4 893d 3a38 20be
00000140: 01fc 9fbc 131a 9bbe 4a6f 4c3e 01b4 ecbb
00000150: 237c fa3c 77f7 22bd c64f 2d3f 7240 7dbf
00000160: 2e9b 633f 4aca 933d 4a04 b93d 8109 d73d
00000170: 6641 f4bd ac71 1b3f 81c2 dcbb 8fd0 33bf
00000180: 09c8 0f3d 00b3 c1ba 8cc7 00bc 1eb6 0abf
00000190: 57c3 17be 2e0a 13bd ec06 a93d 8c2d 5abd
000001a0: c9b1 853c 335f b53c fba9 8ebc 70f4 833c
000001b0: f5c7 40be f538 033f 0848 473d aa78 b53d
000001c0: 7b0e 863e e4dc 3f3d 7409 b73d 32b4 83bf
000001d0: e648 15be 3244 773d 2a97 57bd 2c42 b9bd
000001e0: 5f62 90be c6a8 7dbd 46d9 16bf a9ab bbbd
000001f0: 774b 13be 624e 34be c904 d93d e7ec d83d
00000200: f006 0b3e b6ba 9e3e db3a 13be a4ec 553d
00000210: e64c ca3d 1708 0dbe 5f20 50bc 3e19 893d
00000220: 1a2f 25be faae 0fbe dfdd 80be 8355 dbbc
00000230: 6d85 343c 755e 7e3e 93ec e1bd ac3f 54bd
00000240: 87b0 bb3d 0303 c03d ef33 753f b76a e5be
00000250: b01f 843e 1c07 3d3b 1557 3e3f b29c 92be
00000260: 4271 dcbe 1bf3 46bd 031c 1c3d 7fe8 25be
00000270: 1188 45bd 16b2 19bf b53b 9fbd d7f1 e93e
00000280: 57ad 003e b4c1 bdbd d057 abbc 7dd1 dbbe
00000290: 4af4 143d 4f6a 35be b29e ab3a a39d 3bbc
000002a0: e4d4 e5bd 6bea f5bc d095 99bd 3e02 c5bd
000002b0: 7701 1c3e 1c25 b1be 907f 373e 3d22 9bbd
000002c0: 682c edbe 07d9 953e 778d 9abd cf1a 053e
000002d0: 2803 e0bd b47e b63c 409b bb3d 567b 1bbc
000002e0: 52fb 2dbf ce80 7cbd 6c2a a2bd 6dea 87bd
000002f0: 605c 1f3d c28c 913d f402 5dbb b0fd d7be
0.30401233 -0.12752914 0.074702896 -0.06338792 0.16306458 0.12386477 0.06592891 -0.038613766
0.1624061 0.028798535 0.26427174 0.037411768 -0.065546356 -0.28066975 -0.10972141 0.15960447
0.04664485 0.21736751 -0.5456869 0.26664641 -0.25577977 -0.045215253 -1.2429963 0.7984082
-0.20749126 0.005905268 0.048669316 0.08315677 -0.066146865 0.03670275 0.16164592 -0.113967575
0.073821545 -0.032810688 -0.060714472 0.3599938 -0.062238168 -0.022423796 0.025982581 -0.04584812
-0.10670916 0.0947422 0.06774041 0.08487328 0.102128334 -0.1088656 -0.018595217 -0.08552286
0.10945237 -0.19219603 -0.08307232 0.35136813 -0.022922017 -0.0860997 0.0010749752 0.046589218
0.61825514 -0.03720734 0.52487576 0.11222758 0.11056242 0.038470253 -0.04151313 0.3204795
-0.59315324 -0.15983392 0.052142713 -0.1498278 -0.15682264 -0.058864143 -0.15729626 0.009130614
-0.0060747815 -0.015801786 -0.035977013 -0.12751003 0.049821872 0.18939899 0.06723807 -0.15646449
-0.019529345 -0.3029333 0.19964328 -0.0072236066 0.030576771 -0.039786782 0.6769985 -0.9892646
0.8890866 0.07216318 0.09034021 0.104998596 -0.11926536 0.60720325 -0.006737054 -0.7024011
0.035102878 -0.0014778078 -0.007860076 -0.5418414 -0.1482061 -0.03589838 0.08253273 -0.053266093
0.016320126 0.022140121 -0.017415037 0.016107768 -0.18826278 0.51258785 0.04865268 0.088609055
0.26182923 0.046841517 0.0893735 -1.0289366 -0.1457859 0.06036777 -0.052634396 -0.090458244
-0.2820005 -0.061928533 -0.5892528 -0.09163601 -0.14384256 -0.17608026 0.10596616 0.105920605
0.13576865 0.31001824 -0.1437792 0.05222763 0.098779485 -0.13772617 -0.01270303 0.06694268
-0.16131249 -0.14031592 -0.25169274 -0.026774174 0.011018139 0.2484072 -0.11031451 -0.051818535
0.09164529 0.093755744 0.9578237 -0.4480798 0.25805426 0.002884335 0.74351627 -0.28635174
-0.4305516 -0.048571687 0.03811265 -0.16201971 -0.048225466 -0.6003736 -0.0777506 0.45692322
0.12566124 -0.092654616 -0.020915896 -0.42933264 0.036365785 -0.17716335 0.001309356 -0.011451158
-0.11222246 -0.030019006 -0.074992776 -0.09619568 0.15234934 -0.34598625 0.17919755 -0.0757489
-0.46322942 0.2926714 -0.075465135 0.12998508 -0.10938102 0.022277214 0.09160471 -0.009489855
-0.6796161 -0.061646275 -0.079182476 -0.0663651 0.038906455 0.071069255 -0.0033723684 -0.42185736

trial_output.2.bias f4 [3]
00000000: 9714 933c 80c7 9ebc dd6d 13bd
0.017954154 -0.019382238 -0.035993446

rnn.weight_ih_l0 f4 [192, 4]
00000000: 03d9 01bd 5f38 81be 7b73 8a3e 8a6d 893e
00000010: 06b1 0dbd d887 42bf 3254 03bf f656 83be
00000020: 1b05 8f3d 57f4 593b ced7 82bd dff7 3f3e
00000030: f423 9ebd 56f2 813e 603b 22be cb42 98bd
00000040: 46bc 65bc c2a9 203e 443a 9a3d 41cf 543d
00000050: 928b 2d3d 90fe 65be 7b43 ae3a 4b0e 073e
00000060: d79f 34bd 9a0d 403e a142 d2bd e5ef 79bc
00000070: 644b 433e a75d 9e3e 3f4d 6e3d 8efd 113e
00000080: 49b8 26be 094e 103e 64cb 15bc d287 283e
00000090: b4c6 bf3d 782d 513e 6c42 7d3e eb48 983e
000000a0: e9f8 14be c0a1 c63d 9df7 89b8 5249 143d
000000b0: 0752 b2bd 3195 503e cea5 fa3d 189f 853e
000000c0: fc3a fe3d 3e9e 9a3d c989 413e 955c cc3c
000000d0: 2c0a aebd 78fa 93be 938b 49bc c863 a83d
000000e0: 1033 82be 268a 39be 7910 fb3c 1552 10bd
000000f0: f944 9b3d fed2 253e 51cd 563e 2748 f83d
00000100: d307 e63c 278c 0c3c cac4 983d 5696 7e3d
00000110: 151c 223e 2927 3fbe c149 ffbd 8b76 393e
00000120: 10b6 01bd c5e2 243d 9da1 e23c f2d9 c13c
00000130: f481 6a3e a66c 1a3e 3903 10bb 6819 c43d
00000140: ca5c 463d 2eaf cfba 745c 7e3e d98a 5e3e
00000150: beb5 9e3d e417 6b3d 3fce 803d 6537 2a3c
00000160: 0e40 b93d 1241 fb3e 9610 8b3e ba17 e13e
00000170: 89c5 1ebf b539 d7bc 79df cabe b9b9 a1be
00000180: a26e ff3e fd52 ebbe cad1 863f f3bc 6cbd
00000190: afad f6bd ef5c 73bd 1756 063d 1774 9d3e
000001a0: b9ec 4c3d 7944 f03d 253c a93e 8745 94bc
000001b0: 5748 823e ef32 92be a9a4 47be b529 02bd
000001c0: 2f87 b23d 3862 b73e 42bc 06be 328e 053e
000001d0: 40aa 083e ec2a c23d 000e 113e 7a44 8f3e
000001e0: ffcd d53e ab93 313c 8fa9 03be 2b37 f43d
000001f0: d54a 5dbd ee2c ed3e ac33 a83d 166f 1abe
00000200: 52cb 463e c4b1 cb3d a681 4c3e 7ee5 a23d
00000210: 1a67 cd3d 6de7 a03d ea53 733d 53b8 ad3d
00000220: 3115 efbd 3ce3 29bf 5622 dfbe f5a9 ebbe
00000230: 21a7 04bd 9d47 653e 65c4 0e3e 3bdc 863e
00000240: 482a 063c 816f 413e 1033 163d 4df1 8dbd
00000250: 9e4f b23d cb49 eebd c97a 2cbd 8dc6 003d
00000260: a0af d93d 99ce 233f b6b0 e83e 8e04 6b3d
00000270: e0bb 67bc 1625 983e cabf 1f3e 87f5 6b3e
00000280: cede 563d 8d5e 72be e68d 0e3e e476 003e
00000290: 2053 e53c 02c6 623e bd9c bf3d bc4c 363e
000002a0: 9ce0 77be d274 1abf 43c3 f8be 1b9b 12be
000002b0: d991 9c3d 4914 2e3e 20bc 873e ab12 333e
000002c0: c61f c0bc 712c 883c 4125 3c3e 851b a03e
000002d0: 0ac0 6c3d 05e6 ae3c 14f2 1a3d 1ce9 843e
000002e0: 4054 03be cdc7 4b3d 5b87 2b3d 4777 283d
000002f0: eae5 50bd 6560 36be a573 6d3e 8088 0ebd
00000300: 122f 9fbc e80e 473e 1c8d b53d 568a 973d
00000310: b2ad afbc f195 df3e 3516 cf3e 0711 843e
00000320: ca5d 1f3c 388f 453c 7ff4 f73c 7815 bd3c
00000330: a661 17bd 4180 5f3d 82af d93c 9231 843c
00000340: fb07 d33d ac40 4e3e 7d78 c73d ce2e 3b3e
00000350: c0f0 153e 49de a03e 4f82 a93e 8df7 b23d
00000360: acab 153e 4f7a 593e b969 9b3d ac70 863e
00000370: 06ff 893e fa98 afbc 03ba eebd c3bf e83d
00000380: f112 89be 060f 21bf 3666 a1bc 70dc 9dbe
00000390: 6501 5a3e 86d1 eebe 40e8 1fbd ea89 a23d
000003a0: c59f 00be b481 503e 6a61 18bb ea80 5c3e
000003b0: 911c c53d e746 4dbb 9065 663d eb0b b83b
000003c0: cae6 c63d 6b14 213e 7207 603e 1fbc 483e
000003d0: ba92 a93d c209 b4bd 7e67 e4bd e983 533e
000003e0: 8de6 113d 7f14 093e ac44 533e 1047 693d
000003f0: 9c3b 123d 2ddc d43e 810f 943d 56e1 8e3e
-0.0317011 -0.2523832 0.2704123 0.26841384 -0.03459265 -0.7598853 -0.51300347 -0.25652283
0.06983396 0.003325721 -0.06388818 0.18746899 -0.07721701 0.253802 -0.15842962 -0.07434615
-0.014021939 0.15689757 0.075306445 0.051955465 0.042369433 -0.22460389 0.0013295257 0.13189046
-0.044097748 0.18755189 -0.10266615 -0.015254949 0.19071728 0.30930826 0.058179136 0.1425688
-0.16281237 0.14092268 -0.00914273 0.16458061 0.093640715 0.20427501 0.24732369 0.29743132
-0.14548077 0.0969882 -6.5787906e-05 0.036202736 -0.08707052 0.20369412 0.12238656 0.2609794
0.12413594 0.075497136 0.18900217 0.02494649 -0.08498034 -0.2890203 -0.0123013435 0.08222157
-0.25429583 -0.18119106 0.030647503 -0.03523453 0.07581515 0.16193768 0.2097676 0.12123137
0.028079903 0.008578337 0.074594095 0.06215509 0.15831025 -0.18667282 -0.12465239 0.18111627
-0.03166777 0.040255327 0.027664954 0.023663495 0.22901136 0.15080509 -0.0021974577 0.09575158
0.048428334 -0.0015845054 0.24839956 0.21732654 0.07749508 0.05739583 0.06289338 0.010389184
0.090454206 0.49073082 0.27161092 0.43963414 -0.62020165 -0.026272634 -0.3962362 -0.31587008
0.49889094 -0.45961753 1.0532773 -0.057797384 -0.12044846 -0.0594148 0.032796945 0.30752632
0.050030444 0.1173181 0.330537 -0.01809956 0.25445816 -0.28554484 -0.19496407 -0.031778056
0.087171905 0.35817122 -0.13157752 0.13042524 0.13346195 0.09480843 0.14165497 0.2798193
0.41758725 0.010838429 -0.1285765 0.11924585 -0.054026444 0.4632334 0.08212981 -0.15081438
0.19413498 0.099460155 0.19971332 0.079539284 0.10029431 0.07856641 0.0594062 0.08482423
-0.11673964 -0.6636236 -0.43580884 -0.46028104 -0.03238595 0.223906 0.13942106 0.26339898
0.008188792 0.18890192 0.03666979 -0.0693079 0.08706592 -0.11635169 -0.042109285 0.031439353
0.10629201 0.6398712 0.4544732 0.05737739 -0.014143914 0.29715794 0.15600505 0.2304288
0.052458577 -0.23668881 0.13921317 0.12545353 0.027993739 0.22145846 0.09356067 0.1780271
-0.24206775 -0.60334504 -0.48586473 -0.1431698 0.07645006 0.16999926 0.26510715 0.1748759
-0.02345265 0.016622754 0.18373586 0.31270996 0.05780033 0.021349916 0.03782852 0.25959098
-0.12825108 0.04975109 0.041877132 0.041129377 -0.051000513 -0.17810209 0.23188646 -0.034798145
-0.019431625 0.1943928 0.08864805 0.07399432 -0.021445129 0.43669084 0.4044663 0.2579424
0.009726951 0.012058072 0.030267952 0.023081526 -0.03695836 0.05456567 0.026572946 0.016136918
0.103042565 0.20141858 0.09739778 0.18279573 0.1464262 0.3141959 0.3310723 0.08738623
0.14616269 0.21238063 0.07588524 0.26257837 0.2695238 -0.02143525 -0.11656573 0.11364701
-0.26772264 -0.6291355 -0.019702058 -0.30832243 0.21289594 -0.4664423 -0.03903985 0.07936461
-0.12560947 0.20361978 -0.0023251423 0.21533552 0.09624589 -0.0031322779 0.0562492 0.005616655
0.09711988 0.15730445 0.2187784 0.19603013 0.08279939 -0.08790924 -0.11152552 0.20655788
0.03562026 0.13386725 0.20631665 0.056952536 0.03570138 0.4157423 0.0722952 0.27906293

rnn.weight_hh_l0 f4 [192, 64]
00000000: 522a 393d d673 72be d589 893d c88f ac3d
00000010: 9c04 603b 60a2 11bc 30f9 373d 8f5a c6bd
00000020: bd69 f4bd d8f9 21be b7d9 873d 680d ba3d
00000030: 786c 8b3d 15be a03e e1f7 a9be 0318 a3bc
00000040: d1a6 393e 538a 68bd 535b 9abd fb2a 13be
00000050: 3cbb 13bd 34e8 c83d f024 383e 4ea8 8fbe
00000060: a5fe 513e 56ca d93c 2946 243e ecf5 0bbe
00000070: 619d 8b3d 91a8 2abe fb3a 23be 5878 07bd
00000080: cb27 5c3e 2162 773d 9133 41be 3bb7 08bd
00000090: dbf1 593c 46ab bb3c 358b fabd 4885 ff3c
000000a0: 4f8a 4a3d 7ccf 053d 5680 853d 8d89 263e
000000b0: db52 083e b188 d43c b10b 3d3e d904 08bd
000000c0: 2d12 6a3e 7c9c a3bc 9420 5ebe 569b 503d
000000d0: a74f 043d eed3 25be b2d2 b23d e6df ff3c
000000e0: cf45 a8bd 7c09 a7bd 7719 3dbd 7eb4 613d
000000f0: 06cc 973c 4623 ca3c 056e 793c 9704 1abd
00000100: 4c71 a9bc bbe6 49be 51b7 9fbc 828c 833d
00000110: 2e1e 083e 86d7 e8bd 989e 34bd 0401 f8bd
00000120: cb4f 0bbe 87e2 cebd 1295 cabc baca 233e
00000130: 1e1b e7bd aa66 64bb cea9 35be badf 3839
00000140: c4fc ae3c eb1d 063d 830e 54bd 66ab 97bd
00000150: b3e7 193d 9011 0cbd a7b4 713e b6d9 72be
00000160: 3687 6bbc 7f24 c5bd 6a25 44bd 7458 98be
00000170: 8cb7 063e 13cf 173d 4d62 31be de75 cb3e
00000180: 4070 7a3d ca53 313d 8c68 8dbe 1af9 7a3b
00000190: 55c5 b0bd b886 92bd 015c 17be 6a3e 0ebe
000001a0: 2ae3 fabb 39c1 143e aade 85be 37fe 363e
000001b0: a5c2 78bd 3d19 6d3d c9bc 2f3e 4a0b e8bd
000001c0: 811a 693e 33f9 62be 901c adbd 4458 953d
000001d0: aa2c d5bd 65c6 f23c 037e 9b3d 92f1 f6bd
000001e0: 105a 59bd bfef 55bd ecd4 57bd 4fda 123e
000001f0: 9751 0fbd 51a2 1bbd b53f 663d 3298 dbbd
00000200: e959 fabd 30be 1c3e 9c43 7dbd 37bc 513c
00000210: 4285 8bbd 5e53 c4bd a6f2 cebd a36e 183d
00000220: 5163 1fbb d7e5 2dbd 3a8e 29bc a0cb cebd
00000230: 2f4b 9dbc bf84 9d3c 85d8 423e 022a d6bd
00000240: 4e31 90bc a591 c3bd 8e53 bcbd 42cb 85bc
00000250: 4134 fe3d 7729 e4bd 8205 35be 5092 abbd
00000260: 8130 bb3d fa13 e33d 74a9 373d b660 cdbd
00000270: a279 d83c 1c87 46bc 4157 01bd a6a7 b43c
00000280: 48eb 63bc 705b 45bd 1ca3 253e 7f87 02bd
00000290: 448c 85bd ab71 e5bd 3377 e138 7448 c7bc
000002a0: 31ad 1e3e 3ef5 a5bd 14d1 943d 1d68 cdbd
000002b0: 396a 6bbb 6cd8 32bd 2fbc 8b3d 4222 9f3c
000002c0: 7609 edbb 0cb9 133e 06b8 f3bd a770 d83c
000002d0: ca4e a0bc bca2 9d3d b8c4 e1bd fba8 a0bd
000002e0: 8942 a5bc 260d 623d c850 513c 033d 76bd
000002f0: 77fd 8c3d 9586 05be 342d 8b3d 2cf5 463e
00000300: d1c4 383d 88c8 23be 518f b8bd 934c 0dbd
00000310: 59d1 74bd c297 80bd 4b79 08bd cade 34be
00000320: 5fae 78be 7852 4dbd 2b6d 3b3e 8a72 3a3e
00000330: 75de fc3b 3746 1d3e dcbd abbe 63ce 16bd
00000340: 0989 e33d 51b5 4bbd 9462 053b 6905 62bd
00000350: bf0a 29be ebb2 9a3d 59c0 bfbc 97a8 40be
00000360: 1933 3f3e 3d22 8dbd 7937 9e3d 19b6 58be
00000370: 4e2e f6bc 9487 66bd dd52 533e 15ff e33d
00000380: 5731 4e3e 7c06 543d 4a2f 7ebe b8b3 de3d
00000390: 015b 9e3d 75a0 bf3c cc3d 8b3e c3f9 cfbc
000003a0: 6e8a 5a3e 3784 8dbd b7a7 80bd 5ce4 003e
000003b0: fdb2 c23c 23fc 01be 508a 5b3d cf19 9c3d
000003c0: a1fe be3d 18b4 11be 945c 48be c75b 7f3d
000003d0: 6e08 11be bc55 51be 576a b13b eddc 6cbe
000003e0: 4e0f d4be 8cb0 fcbd 8253 b53b c489 8a3d
000003f0: f6d2 e4bd 4e1d d03d c62a 45bd b39d 703c
0.045206375 -0.23677 0.067157425 0.084258616 0.0034182435 -0.008888811 0.044915378 -0.096852414
-0.119342305 -0.15817964 0.06633323 0.09084588 0.06807798 0.3139502 -0.3319693 -0.01990891
0.18130042 -0.05677254 -0.0753695 -0.14371864 -0.036067232 0.09809914 0.1798284 -0.28058094
0.20507295 0.02658574 0.16042389 -0.1366803 0.06817127 -0.16665865 -0.15940468 -0.033073753
0.21499555 0.060396317 -0.18867327 -0.033377867 0.013302292 0.022908818 -0.12233583 0.031191483
0.049448308 0.032668576 0.06518619 0.16263409 0.13312857 0.025944086 0.18461491 -0.033207748
0.22858496 -0.019972079 -0.21692115 0.05092939 0.032302525 -0.16194126 0.08731593 0.031234693
-0.0821644 -0.08156106 -0.046166863 0.05510377 0.018529903 0.024675023 0.015223985 -0.037602033
-0.020683907 -0.19716923 -0.019496592 0.06423284 0.13292763 -0.11369233 -0.04409656 -0.12109569
-0.13604657 -0.101018004 -0.024729285 0.15995303 -0.11284469 -0.0034851232 -0.17740557 0.00017630952
0.021360762 0.032743376 -0.051771652 -0.074057385 0.03757448 -0.034196436 0.2360407 -0.23715863
-0.0143754985 -0.09626102 -0.047887243 -0.29754984 0.13155955 0.037062716 -0.17322655 0.39738363
0.061142206 0.043292798 -0.27618825 0.0038295449 -0.08631388 -0.07154602 -0.1478119 -0.13890997
-0.0076564746 0.14526834 -0.26146442 0.17870413 -0.060732502 0.057885397 0.1716186 -0.11330278
0.22764017 -0.22165374 -0.084527135 0.07292226 -0.104089096 0.029635618 0.07592394 -0.12057795
-0.053064406 -0.052230593 -0.052693292 0.1434109 -0.03498992 -0.037996594 0.0562131 -0.10722388
-0.1222418 0.15306926 -0.061832055 0.012801222 -0.06812526 -0.095862135 -0.10104875 0.037214886
-0.0024320672 -0.04245552 -0.010348851 -0.10097432 -0.01920089 0.019228337 0.19027908 -0.10457231
-0.017601635 -0.09549264 -0.09195624 -0.016332272 0.124123104 -0.11140721 -0.17677882 -0.08377516
0.09140111 0.110877946 0.044839337 -0.10028212 0.026425187 -0.0121171735 -0.031577352 0.022052597
-0.013911076 -0.048182905 0.16175503 -0.0318675 -0.06520894 -0.11203321 0.00010751039 -0.02432654
0.15495755 -0.08103417 0.07266441 -0.10029624 -0.0035921468 -0.043663427 0.068230025 0.019425515
-0.007233794 0.14426059 -0.11900334 0.026420904 -0.01956882 0.07697055 -0.11023849 -0.078447305
-0.020173328 0.05518832 0.012775607 -0.06011678 0.06884282 -0.1303962 0.06795731 0.19429463
0.045109574 -0.15994465 -0.090117104 -0.034496855 -0.059769962 -0.062789455 -0.0333188 -0.17663112
-0.24285267 -0.050127476 0.18303363 0.18207756 0.0077169486 0.15358816 -0.3354329 -0.03681792
0.11110122 -0.049733464 0.0020352947 -0.05518094 -0.16508006 0.07553657 -0.023407148 -0.18814312
0.18671836 -0.06891296 0.07725424 -0.21163215 -0.030051377 -0.05628164 0.20637079 0.111326374
0.20136009 0.051763996 -0.24822727 0.108741224 0.07732201 0.023391942 0.27195585 -0.02538765
0.21341869 -0.069099836 -0.06281989 0.12587112 0.023766989 -0.12693839 0.053598702 0.0762211
0.0932591 -0.14228857 -0.19566566 0.062343385 -0.14163372 -0.20442861 0.005414288 -0.23131151
-0.41417927 -0.12338361 0.0055336365 0.06764558 -0.1117305 0.101618394 -0.048136495 0.014686036

rnn.bias_ih_l0 f4 [192]
00000000: 851e 87bc b77e c4bd a8a6 573d c04c c7bd
00000010: b1e0 97bd 505a 03bd a25e d23d b804 883d
00000020: ef62 3e3c 5ed4 533d 5401 e3bc c219 1e3e
00000030: 31d9 f23d f419 343e 49fd 843e 88b5 17bb
00000040: 95eb 11bc 8c64 703d 2fee 9abd 5277 a6bc
00000050: 83a9 ec3c eb24 c73d 5219 4dbb 40b4 3d3e
00000060: 76ea 4f3d 9bbe 6b3c 04e1 a03d 4c7d 9a3c
00000070: cba2 28bd 2d46 09be 9b5a 193e 1df7 a7bb
00000080: d769 7f3d 79c9 70bd 75e0 a3bc 8dd7 813d
00000090: db86 343e 1916 ecbb bffb 5e3c faf0 a03d
000000a0: b8f3 073e 0ace 09be 8f4d 99bd 3f18 66bd
000000b0: 6684 a2bd 65a6 85bd 4aa4 7b3e 137c 1abd
000000c0: 68d8 003d ba2f 033e df0b 413d 9b34 09be
000000d0: e707 efbd dc5a a6bc 0d38 9dbc a4a6 f33d
000000e0: b283 8b3d 6a89 b63d 12a8 e83d 72d8 8b3b
000000f0: d39f 3bbd 4fbc 103e 1545 583e ac8f 003e
00000100: 00ab 9ebe 89ba d8be b170 3dbe 6766 90be
00000110: d453 aabe 8e83 08be db8c 04be 5272 e5be
00000120: a04b b23c bca1 41bc e8fb afbd 056e 3fbe
00000130: 9074 be3d 4459 48be 79de 34be d636 a0be
00000140: 680c 4cbe ad18 89be 4ee1 49be 728a 2ebe
00000150: 7dc8 22be 472e dc3d 4277 c7be 711b bcbe
00000160: e2ab 0abe d5d9 12be 0e53 eabd 28ab 98bd
00000170: 7265 52be 23e6 6abd ed1b 3cbe 8052 6dbe
00000180: 5ded 80be f9e6 a9be 87b3 1cbe 5f4f 08be
00000190: 9d8d 8abe 3662 553d b7a3 b0bd 126d 80bd
000001a0: 1625 0d3e db2f 0bba 2719 8ebe 9bca b7bd
000001b0: f797 b6be 4ff8 20be ae68 bebe 6d6c 94bd
000001c0: 3162 8dbe 4b00 3fbe 5318 9cbe aa0d 44be
000001d0: e022 7cbe aca2 0fbe b3c4 13bd 1766 a6bd
000001e0: 5945 3fbe b09f d1bd 24e0 8cbd c81c 08be
000001f0: 37d1 4cbe 4db7 6bbd c518 27be eb2f a9be
00000200: dd4f 90bd f527 bfbd e46b 01be bfe3 e23d
00000210: 1bef 9dbd b066 a33d 84bb f1bd 27c6 b63d
00000220: dee1 063e 99c2 cd3d 9974 fcbc a6e9 8cbd
00000230: 5b68 17be 12f1 b03d c036 c4bd 9de2 3ebd
00000240: df2b a23d 661c a4bd ac53 9fbd 2232 0abd
00000250: 2c21 ef3d 685c 19be 9d5b 75bc d87b 18bd
00000260: b87b 483d 1e1f b3bd ee5e e7bd 2ab1 ffbc
00000270: ad5f 02be a3cc 70bc f31f cf3d 55a1 f8bb
00000280: 6950 bfbc aef2 0ebe 5912 f83d 0913 8cbd
00000290: 0490 e4bd c8a7 38bd 44a5 443d 9218 2abc
000002a0: 91ad 413d b009 e9bd 388f 043e 2409 b53c
000002b0: b004 b83c 7c93 133e d185 6b3c 0932 85bc
000002c0: a850 12be f534 b8ba 5263 123e 2e4e 183e
000002d0: 60d7 b03d 1e4d e93d cd6e 67bd 9ba9 b5bc
000002e0: 3009 2a3d a9e3 8cbd 6db6 c73d a5b2 d83d
000002f0: 0e02 c03d 40e9 bdbd eb2c f73d 434a 0abd
-0.016494045 -0.095944814 0.05264917 -0.09731436 -0.07415903 -0.03206855 0.10271956 0.06641525
0.011620267 0.0517162 -0.027710594 0.15439513 0.11857832 0.17588025 0.2597449 -0.0023148973
-0.008906265 0.05868964 -0.07564961 -0.020320568 0.028889423 0.097238384 -0.003129561 0.18525791
0.05076071 0.014388706 0.07855418 0.018858574 -0.041170876 -0.13405676 0.1497597 -0.0051258937
0.062356796 -0.05878589 -0.02000449 0.06339941 0.17629568 -0.0072047827 0.013609826 0.07858463
0.13276565 -0.13457504 -0.07485496 -0.056175467 -0.07935409 -0.06525878 0.2457439 -0.037715983
0.03145638 0.12811175 0.04713046 -0.13398974 -0.11671429 -0.020306997 -0.019191766 0.118970186
0.06812228 0.089129284 0.11360182 0.0042677457 -0.045806717 0.14134334 0.21120103 0.12554806
-0.30989838 -0.42329815 -0.1850002 -0.28203127 -0.3326708 -0.13331434 -0.12944357 -0.44813782
0.021764576 -0.011818346 -0.08592969 -0.18694313 0.09299576 -0.19565302 -0.17662992 -0.31291837
-0.19926608 -0.2677664 -0.19714853 -0.17045 -0.15896793 0.10751014 -0.38958174 -0.36739686
-0.1354213 -0.14340909 -0.11441623 -0.074545205 -0.20546511 -0.05734838 -0.18370028 -0.23176003
-0.25181094 -0.3318403 -0.15302859 -0.13311528 -0.27061167 0.052095614 -0.08624976 -0.062708035
0.13783678 -0.000530956 -0.27753565 -0.08974191 -0.35662815 -0.15719722 -0.3718924 -0.07247243
-0.27613977 -0.18652456 -0.30487308 -0.19145837 -0.24622679 -0.14026898 -0.03607626 -0.08124941
-0.18678798 -0.10235536 -0.06878689 -0.13292229 -0.20001684 -0.057547856 -0.16318043 -0.3304437
-0.07046483 -0.09333793 -0.12638813 0.11078595 -0.077116214 0.079785705 -0.11803344 0.08924513
0.13172099 0.10046882 -0.030817317 -0.068805024 -0.14785902 0.086397305 -0.09580755 -0.046602834
0.07918524 -0.08013229 -0.07779631 -0.033739217 0.11676249 -0.14976656 -0.014975456 -0.03722748
0.048946112 -0.087461695 -0.11297403 -0.031212408 -0.1273181 -0.014697227 0.10113516 -0.0075875917
-0.023353772 -0.13959762 0.121128745 -0.06839568 -0.11160281 -0.045081884 0.048009172 -0.010381835
0.047284666 -0.11378801 0.12945259 0.022099085 0.022463173 0.1441173 0.014375166 -0.01625921
-0.1428858 -0.0014053868 0.142957 0.14873573 0.086348295 0.11391662 -0.056502152 -0.0221756
0.041512668 -0.0687936 0.09751592 0.10580949 0.09375392 -0.092730045 0.12069114 -0.033762228

rnn.bias_hh_l0 f4 [192]
00000000: 4193 153d 1604 e43d 54a6 ab3c 4822 babd
00000010: 0313 973d 1ba0 c53d 13b0 febc 3109 efbd
00000020: c2e9 513d 7979 b43d 8ea2 463e 40e9 a93c
00000030: 8c37 a73d 147d c83d ddc5 ad3d 3992 4f3e
00000040: 219b db3d b7da e63c 0302 fa3d 1107 143e
00000050: fba8 07be a483 2b3e f55c bb3d 76fe 973d
00000060: 4110 1f3c 4132 99bd 272d 2cbd 66a7 37bb
00000070: be0a 4a3d defe 0dbe 7275 b03b 39cb db3d
00000080: 4a98 4d3e 18ff 713d fd72 d9bd 7b01 9e3d
00000090: d4c1 fe3d 1ec2 33bd ad2c 453e 2140 a0bd
000000a0: 8a38 8b3d ba1b 02be 374d 5bbe 4732 0f3e
000000b0: 613b d2bc f7ec f03d d046 843e af6e ec3d
000000c0: 7df3 493e 8cf8 3e3d 2769 463e 2e8b 8bbd
000000d0: 9942 8d3d b2af 2d3d 635c 8b3d fc2a af3d
000000e0: 63d6 48bd 95d7 e43d 9eed 9cbd 185a 0cbb
000000f0: 79ce 1a3e e33e 7e3d 3006 f63d b007 403e
00000100: 9771 14be b0c4 74be e853 5cbe 7c1e a3be
00000110: 5013 9abe d2fd b23c 4cc8 44be 3ed7 a9be
00000120: 6eea 8ebc 513f 523c f1fe 87bd 0b7d c2bd
00000130: b741 483e b7cd 72bd 79e0 14be 96aa 9fbe
00000140: 25e5 71be 3143 9bbe 3df5 25be 3068 d23c
00000150: 6f5a 1abe 4f5e f2bd 01dd 7abe ea0f ccbe
00000160: d5c9 21be cd9e 023d 16a3 b6bd 9ac5 10bc
00000170: 19ac c3bb e6e8 883c ce9e 7fbe e2a7 40bd
00000180: ac06 a3be 5811 a2be 313e 2ebe e76c 8fbe
00000190: 8fd1 13be c3df 063e f259 f93c ddfe d8bd
000001a0: 693e a53d b05d 23be 0977 8fbe c264 75bd
000001b0: 7b5b 68be 2c3a 73be 9725 a6be 4772 f4bb
000001c0: 7492 a6be b48e 8cbe 656c 4cbe 0a1e 8abe
000001d0: 047f 96be 9a53 a6be d1d8 56be b152 61be
000001e0: 87ef 3bbe bf15 e2bd 86a7 843c de08 9c3d
000001f0: 9d65 f7bd 6392 e8bd e206 e63b a7f7 dabe
00000200: 9cd2 ecbc cf49 f2bc 5606 c7bd 9875 0b3d
00000210: 32b7 30bd d8c5 10be bc37 18be ee93 83bd
00000220: 6ef4 403c 3fa1 11ba 927d e6bc 0e95 16be
00000230: 0139 19be 270f f1bd d6a6 9c3a 6e5d 6a3c
00000240: db6e 00be 8e7a 08be d731 77bd cfdb c63c
00000250: 0f1f c6bd 78f7 0cbe 36b3 11be 973d a5bb
00000260: 2e14 18bd 330c d8bc ccb7 08be a1a6 0c3e
00000270: ffb0 253d 1b6c 30bd c8e0 b93d a6ef dbbd
00000280: fb88 dfbd 1702 8dbd 6f8a a13d 91f5 dd3c
00000290: 28d5 8dbd 31ca fbbd 9c2b 6fbd 0f32 083e
000002a0: c271 da3c 2f05 fd3b c603 29bd 6bf7 f13b
000002b0: 352f ac3c fe18 d9bc 2ef0 f4bd 32cb bbbd
000002c0: 7dfa 433d e236 b2bc a4ef d73d ae1b 37bd
000002d0: ecb4 6ebd 7bad 203c 5183 a3bc d194 3bbd
000002e0: bfc9 c43d 4f72 9bbd 5496 c7bd 6214 08be
000002f0: dfe8 0a3e 88a0 92bd 36ae 6e3d 1070 f73d
0.036517385 0.11133592 0.020953335 -0.0908857 0.07376673 0.09649678 -0.031089818 -0.11671675
0.05124832 0.088122316 0.19397947 0.020741105 0.081648916 0.09789482 0.08485005 0.20270623
0.10722948 0.028180463 0.12207415 0.1445582 -0.13248055 0.16749436 0.091485895 0.074215814
0.009708465 -0.07480288 -0.042035248 -0.0028023361 0.04932665 -0.13866755 0.0053850943 0.10732121
0.20077625 0.059081167 -0.106176354 0.07715126 0.124393135 -0.043886296 0.19255324 -0.078247316
0.06797893 -0.1270589 -0.21416174 0.13984023 -0.02566308 0.117639475 0.25835276 0.11544549
0.1972179 0.04662375 0.1937605 -0.06813656 0.06897468 0.042403884 0.06804731 0.085531205
-0.04903258 0.111739315 -0.076625094 -0.0021416005 0.15117826 0.062071692 0.12012899 0.18752933
-0.14496456 -0.23903155 -0.21516383 -0.31859195 -0.3009286 0.021849547 -0.19217032 -0.3317203
-0.01744577 0.012832479 -0.06640423 -0.09496506 0.19556318 -0.059278216 -0.14538755 -0.31184834
-0.23622568 -0.303247 -0.16206832 0.025684446 -0.1507356 -0.11834394 -0.24498369 -0.3985589
-0.15799649 0.031889725 -0.08917825 -0.008836174 -0.0059714434 0.016712617 -0.24962923 -0.047035106
-0.31841028 -0.31653857 -0.17015912 -0.28012773 -0.14435409 0.13171296 0.030438397 -0.10595486
0.080685444 -0.15953708 -0.28020504 -0.059910543 -0.22691147 -0.2375266 -0.32450554 -0.007459912
-0.3253361 -0.27452624 -0.19963224 -0.26976043 -0.2939378 -0.32485658 -0.20981146 -0.220042
-0.18353091 -0.11039304 0.016193163 0.07618879 -0.12079928 -0.11356046 0.0070198635 -0.4276707
-0.02890902 -0.02957621 -0.09718005 0.034047693 -0.04314346 -0.14137971 -0.14865011 -0.064247
0.011777027 -0.00055553386 -0.028136048 -0.14705297 -0.14963152 -0.11770468 0.0011951576 0.014304502
-0.12542288 -0.13328001 -0.060350265 0.024274735 -0.09673893 -0.13766277 -0.1422852 -0.0050427425
-0.03712862 -0.026373005 -0.13351363 0.13735439 0.040452 -0.043071847 0.09076077 -0.10739069
-0.10914799 -0.06885164 0.07887732 0.027094634 -0.06925422 -0.12294424 -0.0583912 0.13300346
0.026665572 0.007721565 -0.041263364 0.007384231 0.021018604 -0.026501175 -0.11959873 -0.09169616
0.047846306 -0.021754686 0.10543755 -0.04470413 -0.05827801 0.009806986 -0.019960077 -0.04579622
0.096087925 -0.07590162 -0.0974547 -0.13289025 0.13565396 -0.07159525 0.05827161 0.12081921

exp_avg f4 [1, 64]
00000000: 3401 4f33 8290 8cb4 fc77 a435 c204 69b5
00000010: d9a3 b934 9eaa 94b4 7edc 2035 d0a9 0535
00000020: c2f4 f2b4 5ab9 67b5 7569 5335 3c53 1235
00000030: 3501 9032 13b9 9535 acb9 9d34 ab5d c5b3
00000040: cd1a 0635 a0a9 dab4 6b59 3c35 0932 9db5
00000050: 1a8b b234 59ec d9b5 63ad d334 7be4 a4b4
00000060: c420 f8b5 37c6 1734 977f 0235 66fc 5eb6
00000070: 8bce 8735 7699 1ab5 43a2 7232 8f43 9335
00000080: 2f35 a734 cac2 9533 1d7c 33b4 a4c3 2ab4
00000090: a300 2f35 860e 9e36 615f c3b5 7927 8fb5
000000a0: da8f d2b6 bddf 0235 a828 41b5 f4a5 2034
000000b0: c35a 3c35 4197 53b4 55d6 4135 9ae2 0cb6
000000c0: 9cfd 3735 4d6f 1fb4 0392 19b5 ba14 b8b4
000000d0: 8375 3cb4 b013 9634 f538 8934 4457 e7b4
000000e0: 5e48 3f35 219b 1fb6 3e54 fcb4 07f2 1235
000000f0: a52e 1cb5 9f93 cc34 456f 66b5 0254 0cb5
4.8197037e-08 -2.6182175e-07 1.2253872e-06 -8.680619e-07 3.457815e-07 -2.7691289e-07 5.9925503e-07 4.979347e-07
-4.5254097e-07 -8.632393e-07 7.8757085e-07 5.451036e-07 1.6764355e-08 1.1155229e-06 2.9378623e-07 -9.1905655e-08
4.995789e-07 -4.0729083e-07 7.016558e-07 -1.1711974e-06 3.3256293e-07 -1.6236546e-06 3.9427968e-07 -3.0713622e-07
-1.8486976e-06 1.4135081e-07 4.861444e-07 -3.3227493e-06 1.0118396e-06 -5.7592786e-07 1.4123148e-08 1.0972016e-06
3.114487e-07 6.973785e-08 -1.6715826e-07 -1.5903657e-07 6.5193507e-07 4.7104577e-06 -1.4556391e-06 -1.0665818e-06
-6.275234e-06 4.8754356e-07 -7.1957265e-07 1.4961535e-07 7.0167533e-07 -1.9705932e-07 7.2209997e-07 -2.0993525e-06
6.854186e-07 -1.484852e-07 -5.7209417e-07 -3.428775e-07 -1.7551615e-07 2.7954002e-07 2.555968e-07 -4.3090597e-07
7.125835e-07 -2.3783143e-06 -4.6999952e-07 5.4741434e-07 -5.8182405e-07 3.810537e-07 -8.5843595e-07 -5.227631e-07

exp_avg_sq f4 [1, 64]
00000000: 5155 3d2d 1254 e22c 7176 dd2c 9374 222c
00000010: 238f ca2b ec32 bd2c 4dd9 fc2c 68b4 8d2c
00000020: 2b5c 7a2c a18f a62c f157 f62b 6b08 882d
00000030: 6e35 e32d 5fcb a72d 561e 3f2d 8a42 d32c
00000040: 732f b32b e2c7 392c 56b9 f12c ab7b 982c
00000050: cf42 952d add1 532e 1e41 8a2b 2502 5e2c
00000060: 9d45 852d ff09 3b2d e50e e52b f32d 5530
00000070: 8049 242c 02f2 4e2c 39f5 0e2d debd 232f
00000080: 849f 562c d783 242c 6e8f 6f2d c600 212d
00000090: 326b 792b 8cb2 142f fe3d 4e2e cb86 072c
000000a0: fffc 982e 9fea 7d2b 0a38 8e2f 53a4 0a2d
000000b0: 900d b02b cb28 852c 2489 b72c a505 cb2e
000000c0: 676d 8d2c 6553 b32b dcd0 bd2b 0f85 ed2b
000000d0: e64f c72b a018 142d 738e 212c 276c a42c
000000e0: b5db db2d b090 e82e 32df ab2b 3397 982c
000000f0: 1897 fe2b b1a8 d02b ec7b b32b 6eae 2d2d
1.076235e-11 6.43264e-12 6.2943474e-12 2.3086296e-12 1.4392692e-12 5.3773565e-12 7.186396e-12 4.02749e-12
3.55783e-12 4.7339498e-12 1.750376e-12 1.5465148e-11 2.583064e-11 1.9076017e-11 1.0863829e-11 6.004368e-12
1.2731885e-12 2.6401038e-12 6.8702084e-12 4.3338297e-12 1.6969008e-11 4.8162075e-11 9.823563e-13 3.1549288e-12
1.5151264e-11 1.0631939e-11 1.6275563e-12 7.7554246e-10 2.3346602e-12 2.9408702e-12 8.126216e-12 1.4892218e-10
3.0499778e-12 2.3378988e-12 1.3617425e-11 9.151962e-12 8.8611334e-13 1.3523954e-10 4.6894037e-11 1.925948e-12
6.957101e-11 9.020926e-13 2.5869468e-10 7.880879e-12 1.2509316e-12 3.7846163e-12 5.2163985e-12 9.232374e-11
4.019607e-12 1.2741862e-12 1.3487228e-12 1.6876794e-12 1.4161977e-12 8.418294e-12 2.2958551e-12 4.6731677e-12
2.4994987e-11 1.057584e-10 1.221223e-12 4.3368863e-12 1.8089722e-12 1.482611e-12 1.275311e-12 9.872643e-12

exp_avg f4 [64, 64]
00000000: bbe8 e736 3382 9736 e632 a2b7 d356 90b6
00000010: 682d a836 d615 17b7 9b44 03b7 d3b2 8136
00000020: 2b66 72b7 fd91 1137 1a84 eab7 0dfe b2b7
00000030: 6e72 0bb7 25cf 8eb7 586b 2bb7 6ab9 2b37
00000040: e9a3 b8b6 522f a135 ebc5 19b7 70a4 1838
00000050: 6878 7d35 c049 efb6 3fdd 8c36 7ba9 98b7
00000060: 6f40 42b6 abfe e737 b00f 62b6 3161 d2b5
00000070: 45d4 0136 1a76 0136 dcfb 9037 1c7f b8b6
00000080: e995 a0b6 bb89 62b7 407e 0cb7 e860 9eb6
00000090: d771 a6b6 f1b5 4fb7 112f 9a37 f4ff 7836
000000a0: 6f47 0438 9483 13b4 61db fab6 5f1f c6b7
000000b0: a513 f7b6 e5c5 e7b5 97dc 89b6 465a 8236
000000c0: 4aa5 b7b7 c7a3 8ab6 b55c c237 c7fa 3636
000000d0: e3dd 2535 3750 0d37 ca4c 84b6 95f6 3238
000000e0: 64a8 74b7 dfed 1cb7 c385 8037 d3b8 94b7
000000f0: 15f3 4337 5e4a 99b6 d330 a237 60c2 b0b5
00000100: 0aee 46b6 85e2 f6b6 b829 77b6 9b55 6c36
00000110: df0e 46b6 51c6 8bb6 6f29 1cb7 3aee ba35
00000120: 97b7 8a35 7ef5 5136 c04c 21b6 fc70 48b6
00000130: 03ec 17b7 f354 fab6 3f8a de36 5a04 da32
00000140: 67c5 a3b5 ab67 b3b6 dad6 0fb6 a90a 1035
00000150: 7d2f e435 13ca 0eb7 d5f6 30b6 11a3 8bb6
00000160: ee6a 0eb7 132f 5eb5 7cd6 7cb5 cafd c2b6
00000170: 0269 2cb6 dacc dbb4 c8b5 8436 c265 8ab5
00000180: 8d41 c836 b9c5 3eb6 a7c5 02b6 405e a035
00000190: bcbf 5c36 d3a7 63b6 ea5e 0f37 0731 7334
000001a0: b90c 7635 8c07 d3b5 ad6b 63b6 32c6 4b36
000001b0: 84d8 b7b5 c535 c336 75cb 5036 b057 88b6
000001c0: a628 da35 277d 7535 2b48 d836 0c7c ea35
000001d0: 92c7 0936 f563 0f35 fa05 16b5 4620 bcb6
000001e0: 7362 c633 111e 87b6 7721 4d36 e6b4 30b6
000001f0: d81b 0437 e08b 05b7 a6da 3935 c495 be33
00000200: fcc8 0237 e0a9 b537 77e7 f736 b6a0 0db7
00000210: 220e f436 df46 6537 153a c337 fb40 f1b5
00000220: e2ca aab6 9c3f c3b6 dc09 9eb6 2a3e c2b5
00000230: 3b0c c237 0bfa 2937 a1ca 1ab6 b309 98b6
00000240: 409c fb34 93e3 5537 bf52 b336 bd5f 0c37
00000250: 60f0 87b6 e4be bc37 a4b3 8e36 7ac9 6f37
00000260: db6a 1f37 17f2 ad36 03df 7236 629b c136
00000270: 2684 df36 f3e8 d835 fd10 abb5 9c9a 9335
00000280: 4de9 6bb7 760a 1437 5489 f336 e342 37b6
00000290: 2d3e f1b6 dcc5 4637 9ae6 98b7 41e6 06b6
000002a0: 7a4d 02b6 b215 9336 2296 2136 dfe3 28b7
000002b0: 58f9 7f36 ee1e 79b7 3b2a 60b7 b170 4337
000002c0: 9ef2 09b7 8ddb b4b5 d5de 07b7 7cab 84b6
000002d0: ec83 6bb6 281f a0b3 a09d 1136 8eeb 9d37
000002e0: f4a5 8bb5 1a4e 5e37 6ec6 e0b6 4744 9d36
000002f0: 55bb 81b7 a14d a537 52c4 7535 b522 2036
00000300: c90a 67b5 c1fe 7db5 6a5c bfb4 1939 5035
00000310: cfbc 40b5 7e23 06b5 c6c9 86b5 2016 ad33
00000320: d927 fd34 2c8c 7f34 c0bf 6e35 79c7 9534
00000330: 822d 8bb5 3e83 ecb2 b1b0 3a34 ae65 d7b3
00000340: ed00 fa30 de88 4db5 3291 aeb4 0e52 d9b4
00000350: 4ca5 5e34 c7d9 92b5 e9c0 acb4 2334 3633
00000360: 4bc3 c734 08cb aeb4 afe4 62b4 6cf2 0e35
00000370: 33f1 ffb4 6940 8ab3 ffa6 1fb5 d7b7 f733
00000380: 467a 1935 e38a e7b4 9a59 6834 a6c1 6733
00000390: 484e eb34 1f39 17b5 bc08 bd34 c143 7234
000003a0: c965 6eb5 6df5 8ab4 0422 6f34 dbc7 d034
000003b0: 2bc3 f6b4 4f8d 7235 3b99 2435 bad4 3cb5
000003c0: 09ca 6b34 29a1 ef34 bdfc cb33 e740 2834
000003d0: d2c0 9833 5275 9b33 c07d 20b4 5de9 52b5
000003e0: 34f4 c034 72ac 2634 7875 9934 0fcc 64b4
000003f0: 8474 4435 df94 71b5 df68 c2b3 6af5 0635
6.91143e-06 4.515308e-06 -1.9335606e-05 -4.301642e-06 5.012076e-06 -9.005385e-06 -7.824182e-06 3.8653175e-06
-1.4448112e-05 8.676664e-06 -2.7956488e-05 -2.1337555e-05 -8.311688e-06 -1.7024178e-05 -1.0217387e-05 1.0235564e-05
-5.502709e-06 1.2009207e-06 -9.165592e-06 3.639277e-05 9.442506e-07 -7.1313407e-06 4.1980816e-06 -1.8198733e-05
-2.8945758e-06 2.7655935e-05 -3.3685756e-06 -1.5674506e-06 1.9346055e-06 1.9291242e-06 1.7283419e-05 -5.498425e-06
-4.7858234e-06 -1.3502718e-05 -8.374045e-06 -4.7200483e-06 -4.960438e-06 -1.2380523e-05 1.8380148e-05 3.7103864e-06
3.153778e-05 -1.373831e-07 -7.4761197e-06 -2.3618048e-05 -7.3634606e-06 -1.7268436e-06 -4.108598e-06 3.884811e-06
-2.1892269e-05 -4.1317867e-06 2.3169772e-05 2.7266085e-06 6.179018e-07 8.422931e-06 -3.942846e-06 4.2668154e-05
-1.458274e-05 -9.353708e-06 1.5321077e-05 -1.772904e-05 1.1679503e-05 -4.568413e-06 1.933464e-05 -1.3169592e-06
-2.9642856e-06 -7.3577417e-06 -3.6830152e-06 3.521657e-06 -2.9512955e-06 -4.16561e-06 -9.307972e-06 1.3927413e-06
1.0335233e-06 3.1286322e-06 -2.4035544e-06 -2.9868088e-06 -9.055252e-06 -7.46047e-06 6.6322095e-06 2.5380519e-08
-1.2201898e-06 -5.3466842e-06 -2.143372e-06 5.3659693e-07 1.7001145e-06 -8.510909e-06 -2.6369719e-06 -4.1615062e-06
-8.488756e-06 -8.2769947e-07 -9.418943e-07 -5.8111955e-06 -2.569112e-06 -4.0940978e-07 3.9550687e-06 -1.0311417e-06
5.9680956e-06 -2.8427296e-06 -1.9486558e-06 1.1948359e-06 3.2894159e-06 -3.3923322e-06 8.545563e-06 2.2648975e-07
9.1660655e-07 -1.5722921e-06 -3.3888311e-06 3.0364722e-06 -1.3697577e-06 5.8177125e-06 3.1112843e-06 -4.063324e-06
1.6254096e-06 9.1451733e-07 6.445703e-06 1.7470461e-06 2.0530756e-06 5.341711e-07 -5.588805e-07 -5.6065937e-06
9.238001e-08 -4.0268137e-06 3.056686e-06 -2.633134e-06 7.874296e-06 -7.959985e-06 6.9236046e-07 8.874807e-08
7.795399e-06 2.1655986e-05 7.3881197e-06 -8.441673e-06 7.273412e-06 1.3665965e-05 2.3272858e-05 -1.7974811e-06
-5.0900135e-06 -5.818858e-06 -4.7099147e-06 -1.4472218e-06 2.3132297e-05 1.0131403e-05 -2.3065734e-06 -4.531082e-06
4.686608e-07 1.2748776e-05 5.3442486e-06 8.366941e-06 -4.051297e-06 2.2500237e-05 4.2528427e-06 1.429242e-05
9.502018e-06 5.1839847e-06 3.619062e-06 5.769937e-06 6.661302e-06 1.6161051e-06 -1.2745437e-06 1.0997351e-06
-1.4061411e-05 8.823923e-06 7.2579514e-06 -2.7308058e-06 -7.189598e-06 1.1847787e-05 -1.8227194e-05 -2.0101581e-06
-1.9416607e-06 4.383467e-06 2.4078258e-06 -1.0066636e-05 3.8143098e-06 -1.4848758e-05 -1.3361273e-05 1.1649144e-05
-8.222325e-06 -1.3474943e-06 -8.098509e-06 -3.95387e-06 -3.5094517e-06 -7.456248e-08 2.1698434e-06 1.8825547e-05
-1.0404606e-06 1.3250416e-05 -6.6988205e-06 4.686913e-06 -1.5465232e-05 1.9705682e-05 9.1555296e-07 2.386206e-06
-8.60699e-07 -9.462056e-07 -3.5643762e-07 7.7569126e-07 -7.1800326e-07 -4.997054e-07 -1.0042502e-06 8.059965e-08
4.7153915e-07 2.379972e-07 8.894094e-07 2.7898548e-07 -1.0369552e-06 -2.7533698e-08 1.738688e-07 -1.0030213e-07
1.8190157e-09 -7.656762e-07 -3.251567e-07 -4.0479102e-07 2.0735496e-07 -1.0941229e-06 -3.2177857e-07 4.2422595e-08
3.7208733e-07 -3.255775e-07 -2.1131085e-07 5.325189e-07 -4.7672947e-07 -6.437842e-08 -5.9475127e-07 1.1535274e-07
5.717487e-07 -4.3128156e-07 2.163928e-07 5.396e-08 4.3829118e-07 -5.6335006e-07 3.5210348e-07 2.2562655e-07
-8.8810026e-07 -2.5883074e-07 2.2270984e-07 3.8888433e-07 -4.5963074e-07 9.0357656e-07 6.131774e-07 -7.0345016e-07
2.195958e-07 4.4634479e-07 9.498897e-08 1.566983e-07 7.1131254e-08 7.2390904e-08 -1.4946909e-07 -7.8570685e-07
3.5940468e-07 1.552269e-07 2.858394e-07 -2.1308391e-07 7.318524e-07 -8.999613e-07 -9.052905e-08 5.0276014e-07
