saved_models/discretised/checkpoint381.pth (torch, 224977 bytes, 27 tensors)

h0 f4 [1, 64]
0	0xbf8194b1	-1.0123502
1	0x3f933d07	1.1502999
2	0xbf01b8be	-0.5067252
3	0xbf4ae693	-0.7925808
4	0x3e07b541	0.13252737
5	0xbf6d6aee	-0.92741287
6	0x3f287184	0.6579821
7	0x3ecc190e	0.39862865
8	0xbf83aa1e	-1.0286291
9	0xbfa2e271	-1.2725354
10	0x3eed5ac5	0.46358314
11	0x3f22c023	0.6357443
12	0x3f6df9c4	0.9295924
13	0xbf1b0f43	-0.6057016
14	0xbf0256d7	-0.5091376
15	0x3e8420d7	0.25806305
16	0xbf35b871	-0.7098456
17	0x3f5e6455	0.86871845
18	0xbf092919	-0.53578335
19	0xbfd9b158	-1.7007246
20	0x400499e7	2.0718935
21	0x3f0d8736	0.5528444
22	0x3e4aa3bd	0.19789024
23	0x3e6936d3	0.2277482
24	0xbfacf22f	-1.3511409
25	0xbed41e29	-0.4142926
26	0x3fe80128	1.8125353
27	0x3f682de8	0.9069505
28	0xbf9b1cd6	-1.2118175
29	0xbf8f2219	-1.1182281
30	0xbec2a635	-0.3801743
31	0x3fad521e	1.3540685
32	0xbfaf12f6	-1.3677661
33	0x3f2efe7f	0.6835708
34	0xbe6c7363	-0.23090892
35	0xc012b321	-2.2921832
36	0xbe0b6535	-0.13612826
37	0xbc075cba	-0.008261854
38	0xbf0a2bc3	-0.53973025
39	0xbfc4e11c	-1.5381198
40	0xbf5bda78	-0.8588023
41	0xbf9266d2	-1.1437628
42	0xbf8608b1	-1.0471402
43	0x3dda4712	0.10658087
44	0x3ea1271d	0.31475154
45	0xbf10a2d9	-0.56498486
46	0xbf067a54	-0.5253041
47	0x3fe07c88	1.7538004
48	0x3e2718e5	0.1631809
49	0x3f807b85	1.0037695
50	0x3f8c5b1c	1.0965304
51	0xbee3e43c	-0.44510067
52	0x3f4e1f4c	0.80516505
53	0x3faeb7f4	1.3649888
54	0xbf99b5ac	-1.2008567
55	0x3f2819ef	0.6566457
56	0xbf241aa6	-0.6410316
57	0x3f46436c	0.7744663
58	0xbf726c40	-0.94696426
59	0x3fb3437a	1.4004967
60	0xbf8515ef	-1.0397319
61	0x3f0b6d33	0.544635
62	0x3fc48223	1.5352215
63	0xbf9742b6	-1.1817234

trial_output.0.weight f4 [64, 64]
0	0xba3e2a2c	-0.0007254209
1	0xbe811038	-0.25207686
2	0xbd23f6e0	-0.04003036
3	0x3de9b52c	0.11411509
4	0x3b852f59	0.004064482
5	0xbe8d82ba	-0.276388
6	0xbda359d8	-0.07976121
7	0x3de5b199	0.11215515
8	0x3c8fa8c4	0.017536528
9	0xbdc8684b	-0.09785517
10	0x3c1a98a9	0.009435811
11	0xbedc8b68	-0.4307511
12	0x3df5acca	0.119958475
13	0xbe165fd4	-0.14684993
14	0xbe3b64fb	-0.1830024
15	0xbd91790e	-0.071031675
16	0x3e130050	0.14355588
17	0x3cad050e	0.021120574
18	0xbe2ceebb	-0.16887943
19	0x3de617dc	0.112350196
20	0x3e345280	0.17609596
21	0xbd663d78	-0.056210965
22	0x3e431069	0.19049229
23	0x3e192178	0.14954174
24	0x3c333d91	0.010939972
25	0xbdad1e47	-0.084530406
26	0x3ccea8c1	0.025226953
27	0xbc90b8cc	-0.017666243
28	0xbe0b9c6f	-0.13633893
29	0x3d044a22	0.03229726
30	0x39f6d82b	0.00047081834
31	0x3d633bbf	0.0554769
32	0x3df45c12	0.119316235
33	0xbce339ca	-0.027737517
34	0xbde75477	-0.11295407
35	0xbe00d20a	-0.12580124
36	0x3eac8bbe	0.33700365
37	0xbe48b3a9	-0.19599785
38	0xbd232abb	-0.039835673
39	0xbedb05fd	-0.42778006
40	0x3d49030d	0.049075175
41	0xbda8c7c0	-0.08241224
42	0xbe5123a9	-0.2042376
43	0xbe7520f3	-0.2393835
44	0x3a9becd8	0.0011896146
45	0x3c52ec63	0.012873742
46	0x3d9b9694	0.0759708
47	0x3e821dbc	0.2541331
48	0xbe16971f	-0.14706086
49	0xbb875b6a	-0.0041307705
50	0xbec4116b	-0.3829454
51	0x3e54353b	0.20723431
52	0xbd33988a	-0.043846644
53	0xbe230499	-0.15919723
54	0x3e204918	0.15652883
55	0xbdbe5ca3	-0.09295013
56	0xbddcb80a	-0.1077729
57	0x3d08e12b	0.033417862
58	0x3d9903f2	0.07471456
59	0x3e0a74bd	0.13521095
60	0x3d87c6a3	0.06629684
61	0xbe6622cf	-0.22474216
62	0x3cdbeffe	0.026847836
63	0xbd564b66	-0.052318
64	0x3e1b72d7	0.15180527
65	0xbe4778c4	-0.19479662
66	0xbe189d89	-0.14903845
67	0xbe381aac	-0.17978925
68	0xbdd877ac	-0.105697006
69	0xbf16702e	-0.5876492
70	0x3e96ae5e	0.29429907
71	0xbdc6f7b4	-0.09715214
72	0x3e2ca592	0.16860035
73	0xbf415da4	-0.7553351
74	0x3c978f57	0.018500967
75	0xbd34dbe3	-0.044155013
76	0x3dbf377d	0.093367554
77	0x3f084575	0.53230983
78	0xbe848ee0	-0.25890255
79	0x3eff4d50	0.49863672
80	0xbcef52ea	-0.029214341
81	0xbeb400eb	-0.3515695
82	0xbef2bb5a	-0.47408563
83	0x3ebdf6a1	0.37102225
84	0x3d8b0892	0.06788744
85	0x3db541f0	0.08850467
86	0xbe50b9e2	-0.20383409
87	0xbda7ce01	-0.08193589
88	0x3c0b4709	0.008500823
89	0xbcf9f8e2	-0.030514184
90	0x3ee7b3e0	0.4525442
91	0x3eda1509	0.42594174
92	0xbe558000	-0.2084961
93	0x3e28e3a1	0.16493084
94	0x3e90d680	0.2828865
95	0xbc91f033	-0.017814731
96	0x3df600b4	0.12011853
97	0xbdb3d706	-0.08781247
98	0x3bb0a804	0.005391123
99	0xbd444966	-0.04792156
100	0x3f07597f	0.52870935
101	0xbdf57844	-0.119858295
102	0xbe5570f8	-0.20843875
103	0x3f46a0fe	0.77589405
104	0x3ea4676d	0.32110158
105	0x3ea802c2	0.32814604
106	0x3e877074	0.26452982
107	0xbdb10a51	-0.08644546
108	0x3d6bd597	0.057576742
109	0xbd1c63aa	-0.038180985
110	0x3e3bae7c	0.1832828
111	0x3da38649	0.07984597
112	0x3e486143	0.19568352
113	0xbd6e6a0a	-0.058206595
114	0xbe8e13d7	-0.27749512
115	0x3cb593b0	0.02216515
116	0x3e9bc8b1	0.30426553
117	0xbeb4f352	-0.3534189
118	0x3d5cc619	0.05389986
119	0xbe5cba9d	-0.21555562
120	0xbe23b6ad	-0.15987654
121	0xbf332b3a	-0.69987833
122	0xbdffe8be	-0.12495564
123	0x3e0424fe	0.12904736
124	0x3c644109	0.013931521
125	0xbe5aeda2	-0.21379712
126	0x3ef0ce03	0.47032174
127	0x3d4479fb	0.047967892
128	0xbe48db28	-0.19614851
129	0xbea266bd	-0.31719008
130	0x3e330f44	0.17486292
131	0x3e36c35d	0.17847963
132	0x3d615f92	0.055022784
133	0xbdd7d0ae	-0.10537849
134	0xbebe592e	-0.37177414
135	0x3e73b3d9	0.23799075
136	0x3d723733	0.059134673
137	0x3c9c9848	0.019115582
138	0xbc81fb7d	-0.01586699
139	0xbe80d615	-0.25163332
140	0x3dfdebf8	0.12398523
141	0x3d4f60ed	0.050629545
142	0xbd9d56c4	-0.07682565
143	0x3cf895a3	0.03034479
144	0x3b33105b	0.002732298
145	0xbb157d3f	-0.0022810248
146	0x3d7c8648	0.061651498
147	0x3d65d3e1	0.056110267
148	0x3e2c9e6b	0.16857307
149	0x3d7b07d7	0.061286774
150	0x3eb5f99f	0.35542008
151	0x3e1a36e3	0.1506
152	0x3e65a269	0.22425236
153	0x3dd2e8f4	0.102983385
154	0xbda6bc16	-0.08141343
155	0xbe184efb	-0.14873879
156	0xbe4364fb	-0.1908149
157	0xb78ed590	-1.7027167e-05
158	0x3e683238	0.22675407
159	0xbe34529a	-0.17609635
160	0x3ea33d88	0.31882882
161	0x3d655e96	0.055998407
162	0x3ab0f085	0.0013499415
163	0x3d029cef	0.031887945
164	0x3e472390	0.1944716
165	0xbe40ace1	-0.18815948
166	0xbe271a3f	-0.16318606
167	0x3e51ac79	0.2047595
168	0xbd018194	-0.031617716
169	0xbdef89f2	-0.11696233
170	0xbe1450c4	-0.14483935
171	0xbeb8d53e	-0.3610019
172	0x3e3a4223	0.18189292
173	0xbe066e99	-0.13128127
174	0xbdd486a4	-0.10377243
175	0x3e41c029	0.1892096
176	0xbe53a8af	-0.20669816
177	0xbe8d5b9c	-0.27608955
178	0x3d0253fe	0.031818382
179	0x3e3b88df	0.18313931
180	0x3de16803	0.11006167
181	0x3d84a56d	0.06476865
182	0x3e506be5	0.20353658
183	0x3d12861d	0.03577243
184	0x3dcff977	0.101550035
185	0xbe51f697	-0.20504223
186	0x3df1d0da	0.118074134
187	0x3d8e68de	0.069535956
188	0xbe7d2084	-0.24719435
189	0x3dc41868	0.095749676
190	0x3ddb3b46	0.10704665
191	0x3c998e5e	0.018744644
192	0x3d541d0e	0.05178552
193	0x3df65f78	0.12029928
194	0xbe03f091	-0.12884738
195	0x3b944ac5	0.004525515
196	0x3dcc3c5b	0.099724494
197	0xbdeb366a	-0.11484988
198	0xbd1435a3	-0.036183964
199	0x3e13e9a4	0.14444596
200	0x3d0eeca1	0.034893636
201	0x3e10412a	0.14087358
202	0xbd7bcbda	-0.061473705
203	0xbc7e62f5	-0.015526523
204	0xbd09af2f	-0.033614334
205	0x3d1beb3e	0.03806614
206	0xbd51eaa8	-0.051249176
207	0x3e268980	0.1626339
208	0x3d7ae738	0.061255664
209	0xbae44480	-0.0017415434
210	0x3d00f04d	0.03147917
211	0xbbd10742	-0.006379039
212	0xbe0bdbc8	-0.13658059
213	0x3d284400	0.041080475
214	0xbd9eaea4	-0.07748154
215	0xbdd5e5a7	-0.10444193
216	0xbdacc452	-0.08435883
217	0x3d1fa512	0.038975783
218	0x3d2e6380	0.04257536
219	0x3e248318	0.16065633
220	0x3e1576b2	0.1459606
221	0x3da82304	0.08209804
222	0xbd564b7f	-0.052318092
223	0x3d3443ee	0.044010095
224	0xbd302e75	-0.043013055
225	0x3cddb022	0.027061526
226	0xbcb1448a	-0.021639127
227	0x3cdfb7fe	0.027309414
228	0xbab05aeb	-0.001345483
229	0xbd2296ba	-0.039694525
230	0x3d1afa63	0.037836444
231	0xbd4f41a8	-0.050599724
232	0x3d72720d	0.0591908
233	0x3e29ee2a	0.16594759
234	0xbc8e7b48	-0.01739277
235	0x3c3356de	0.010946004
236	0x3d024562	0.03180445
237	0x3cad7c85	0.02117754
238	0x3cdec890	0.027195245
239	0xbc1d8c44	-0.009615961
240	0x3dbd0bba	0.09230752
241	0xbdd14131	-0.102175124
242	0x3d291d97	0.041287985
243	0x3d3476fc	0.044058785
244	0x3ddf07f4	0.10890189
245	0xbdf50b75	-0.11965076
246	0xbd116679	-0.035498116
247	0x3d813e17	0.06310671
248	0xbc661efb	-0.014045472
249	0x3dd1d8f4	0.10246459
250	0xbc3496f6	-0.01102232
251	0xbd23a073	-0.03994794
252	0x3de1fded	0.110347606
253	0x3d81fc20	0.06346917
254	0xbdb01130	-0.08597028
255	0xbd165235	-0.036699492

trial_output.0.bias f4 [64]
0	0x3e4c50b5	0.19952662
1	0xbd8ac279	-0.06775374
2	0x3e05603f	0.13024996
3	0xbe1c7767	-0.15279923
4	0x3d1432f3	0.0361814
5	0x3be7ff59	0.0070800004
6	0x3df3c8a8	0.119035065
7	0x3da8830c	0.0822812
8	0xbe13dae2	-0.14438966
9	0xbb44dfd0	-0.003004063
10	0xbca9de23	-0.020735806
11	0x3daa7727	0.08323508
12	0x3e364f92	0.17803791
13	0xbc06002b	-0.008178751
14	0x3db94a81	0.090474136
15	0x3e1453ce	0.14485094
16	0x3d81fa2c	0.063465446
17	0x3d74f158	0.059800476
18	0x3df35d74	0.11883059
19	0xbd17366f	-0.036917146
20	0x3d978f31	0.074003585
21	0x3e73277f	0.23745535
22	0xbe6d2ad4	-0.23160869
23	0xbe16f1e6	-0.14740714
24	0x3d350f34	0.044203952
25	0x3d88705d	0.066620566
26	0xbd55452a	-0.052067913
27	0xbe38ce65	-0.18047483
28	0xbce79dd1	-0.028273495
29	0xbc3fd8e7	-0.011709428
30	0x3e7e8547	0.24855529
31	0xbde5f40b	-0.11228188
32	0x3e52694b	0.20547979
33	0x3e68d623	0.22737937
34	0x3c0ee36e	0.008721216
35	0xbbed4125	-0.007240432
36	0x3d99a1c3	0.07501557
37	0x3d187274	0.037218526
38	0xba92c0b5	-0.0011196347
39	0xbc801ad5	-0.015637795
40	0xbe092ad8	-0.1339525
41	0x3e2a6cc2	0.1664305
42	0xbcd9d955	-0.02659289
43	0x3e61fb7b	0.22068588
44	0xbd2a298e	-0.041543536
45	0xbc3b032d	-0.011414331
46	0x3c3f1ce3	0.011664602
47	0x3db10fb7	0.086455755
48	0xbcaafde9	-0.020873027
49	0x3dbaa8ca	0.09114225
50	0xbd695e50	-0.05697471
51	0xbc4c171e	-0.012456683
52	0x3dddedb5	0.10836355
53	0x3d8d1204	0.06888202
54	0x3dc45bed	0.09587846
55	0x3e4fd131	0.20294644
56	0x3db99bdc	0.09062931
57	0x3d6c578a	0.05770067
58	0xbe26c89e	-0.16287467
59	0x3cbad6f3	0.022807574
60	0x3e151289	0.14557852
61	0xbc0b5279	-0.00850355
62	0x3dcad5f5	0.0990409
63	0xb9a311d6	-0.00031103072

trial_output.2.weight f4 [3, 64]
0	0x3e5dcd4d	0.21660347
1	0xbf1eb704	-0.6199801
2	0x3dd2642f	0.10273015
3	0xbd32134d	-0.043475438
4	0xbe7eb545	-0.24873836
5	0xbe7143b5	-0.23560984
6	0x3e90f963	0.28315267
7	0x3db2da2e	0.08733021
8	0x3c78f6ba	0.015195543
9	0xbe7af4c7	-0.24507438
10	0xbed36b49	-0.4129279
11	0x3e09f1e7	0.13471185
12	0x3df2aa6e	0.11848913
13	0xbf11b05d	-0.56909734
14	0xbe9764aa	-0.29568988
15	0x3e672cdd	0.22575708
16	0x3e40f4e9	0.18843426
17	0xbe9fcfdb	-0.3121327
18	0x3e10a171	0.14124085
19	0xbd90d833	-0.07072487
20	0xbe76930a	-0.24079528
21	0x3e31cbf3	0.17362957
22	0x3f9d4c45	1.2288901
23	0xbdd93273	-0.106053255
24	0xbee8b2c2	-0.4544888
25	0xbe1ff9ec	-0.15622681
26	0x3e25dfdf	0.16198681
27	0xbdb462aa	-0.08807881
28	0xbe75351b	-0.2394604
29	0xbe9aa217	-0.3020179
30	0x3eaef70e	0.34172863
31	0x3e288453	0.16456728
32	0x3e6d6c92	0.23185948
33	0x3e2b20a0	0.16711664
34	0xbe752471	-0.23939683
35	0x3fcb8096	1.5898616
36	0x3e0bc9b5	0.13651164
37	0xbdf0d787	-0.117598586
38	0xbd83dc97	-0.064385585
39	0xbdf3784f	-0.118881814
40	0x3ed4ce40	0.41563606
41	0x3e76f87e	0.2411823
42	0xbe1e581c	-0.15463299
43	0x3e941526	0.28922385
44	0xbde8a50a	-0.11359604
45	0x3f58b0ae	0.8464459
46	0x3e95465b	0.2915524
47	0x3eaa8f1a	0.33312303
48	0x3e55b5fd	0.20870204
49	0x3ecd1b38	0.4005983
50	0x3e1bc811	0.15213038
51	0x3e454a0e	0.19266531
52	0x3eaafe5b	0.33397183
53	0xbe7db198	-0.24774778
54	0xbe92b1f4	-0.28651392
55	0x3c941aef	0.01807925
56	0x3e55b29d	0.20868917
57	0xbe5ad34f	-0.2136967
58	0x3ecf2aa8	0.40462232
59	0xbe755a4f	-0.23960231
60	0x3ec7092a	0.3887418
61	0x3e0bf0bc	0.13666052
62	0x3ebf5dbf	0.3737621
63	0x3e581172	0.21100405
64	0xbe034924	-0.1282087
65	0x3ce2464a	0.027621407
66	0xbf0b89fc	-0.5450742
67	0x3d9ba505	0.07599834
68	0x3dc0d784	0.09416106
69	0x3bf76430	0.007549785
70	0xbd9395c5	-0.07206301
71	0xbf08b6e0	-0.53404045
72	0x3cf5a2c9	0.029984849
73	0x3e18fb29	0.1493956
74	0xbdccc5f9	-0.09998698
75	0xbf0917a9	-0.5355173
76	0xbefe934c	-0.49721754
77	0xbcb6aba4	-0.022298642
78	0x3e85ce4a	0.2613395
79	0xbf027070	-0.50952816
80	0xbda56c31	-0.080772765
81	0x3d9f399c	0.0777466
82	0xbeff4f4f	-0.49865195
83	0x3f69c82a	0.9132105
84	0x3e4babc4	0.19889742
85	0xbeca7da7	-0.3954899
86	0x3f6f22af	0.934123
87	0x3d97e557	0.0741679
88	0xbc21b6dd	-0.009870258
89	0xbe075e6e	-0.13219616
90	0xbef011d7	-0.4688861
91	0xbca1f48a	-0.019769926
92	0x3e4a49cc	0.19754714
93	0x3dcbaa91	0.09944642
94	0xbe9383d4	-0.28811514
95	0xbf10cffb	-0.56567353
96	0xbe8f4507	-0.2798235
97	0xbef96078	-0.48706412
98	0x3e4b3fbd	0.19848533
99	0xbec58a73	-0.3858219
100	0xbf100495	-0.5625699
101	0xbccc5229	-0.02494152
102	0xbdf394b4	-0.11893597
103	0x3d5f277d	0.05448102
104	0x3e9ece5c	0.31016815
105	0xbe3a295d	-0.18179841
106	0x3e7424f2	0.23842219
107	0xbe908892	-0.28229195
108	0xbd72ef9d	-0.059310544
109	0xbd580a56	-0.052744232
110	0x3e24ac85	0.16081436
111	0xbefd7b11	-0.49507955
112	0xbe60a077	-0.21936212
113	0xbe17f91b	-0.1484112
114	0x3dfbeb6c	0.123007625
115	0xbebbedeb	-0.36704955
116	0xbf00c1b6	-0.5029558
117	0x3e8256fa	0.25456983
118	0x3e854ab3	0.26033553
119	0xbcee56f6	-0.0290942
120	0xbeaad1c8	-0.33363175
121	0x3daa2c23	0.083092
122	0x3ddef89e	0.10887264
123	0x3daa6079	0.08319182
124	0xbf17cebb	-0.5929982
125	0x3e7e1b56	0.24815115
126	0xbf0d1da1	-0.55123335
127	0xbf028e83	-0.50998706
128	0xbe5aaa8d	-0.21354122
129	0x3f29b018	0.6628432
130	0x3e485824	0.19564873
131	0x3cb25550	0.021769196
132	0x3e2cc3e8	0.16871607
133	0x3eabd7bb	0.33563027
134	0xbe58bf51	-0.21166731
135	0x3deaa7c7	0.11457782
136	0x3d6cb907	0.057793643
137	0x3e70bf48	0.23510468
138	0x3ef62938	0.48078322
139	0x3e577def	0.21044134
140	0x3d4f9897	0.05068263
141	0x3f008753	0.5020649
142	0x3e600c41	0.21879674
143	0x3dbf825d	0.09351037
144	0xbe4fb76d	-0.20284815
145	0x3d4006f1	0.04688162
146	0x3e151ae9	0.14561047
147	0xbe4a9675	-0.19783957
148	0x3c5ed20a	0.013599882
149	0x3e15ca39	0.14627923
150	0xbfbbb8c6	-1.4665763
151	0x3db95d40	0.09050989
152	0x3ee9076a	0.4551347
153	0x3e697938	0.22800148
154	0x3d404488	0.046940356
155	0xbd84ceb2	-0.064847365
156	0xbcb96e5d	-0.022635633
157	0xbd362e39	-0.044477675
158	0xbd770c64	-0.06031455
159	0xbeaf644a	-0.34256202
160	0x3e88db2a	0.2672971
161	0x3e7ae653	0.24501924
162	0x3d134e83	0.035963546
163	0xbfce2060	-1.610363
164	0x3e459f20	0.19298983
165	0x3dc145ef	0.09437167
166	0x3cb684e2	0.02228016
167	0x3d4f2dbb	0.05058072
168	0xbf4a863d	-0.7911108
169	0xbe9c41e4	-0.3051902
170	0x3dc9c74d	0.09852467
171	0xbe69c172	-0.228277
172	0x3da89c93	0.08232989
173	0xbf26a279	-0.65091664
174	0xbf295fd2	-0.66161835
175	0xbd093801	-0.033500675
176	0x3da809f2	0.08205022
177	0xbf03a2af	-0.5142011
178	0xbe006ac8	-0.12540734
179	0x3e6901f0	0.22754645
180	0xbe56b0c7	-0.20965873
181	0x3e13facb	0.14451139
182	0x3e0b1914	0.13583785
183	0xbdc4c284	-0.096074134
184	0x3e493557	0.19649254
185	0x3e29bfad	0.16577025
186	0xbf095c16	-0.53656137
187	0x3e698921	0.22806217
188	0xbe75e5e3	-0.24013476
189	0xbeb51e7e	-0.35374826
190	0xbd5a6524	-0.05331911
191	0x3d89154c	0.06693515

trial_output.2.bias f4 [3]
0	0x3de6e993	0.112750195
1	0xbd0a8bb0	-0.033824623
2	0x3ca1f36f	0.019769398

rnn.weight_ih_l0 f4 [192, 4]
0	0xbddd616c	-0.108095974
1	0x3dc58fa1	0.09646536
2	0xbdf3ded2	-0.11907734
3	0x3d47e308	0.0488005
4	0x3ab485d1	0.001377279
5	0x3dc0579c	0.0939171
6	0x3e27f3b9	0.16401567
7	0x3e84fe87	0.2597544
8	0xbd98843f	-0.07447099
9	0x3d592384	0.053012386
10	0x3d9a0a28	0.075214684
11	0xbb591352	-0.0033123088
12	0xbf0095f1	-0.5022879
13	0x3cf0fa5c	0.029416256
14	0xbe9b266b	-0.30302748
15	0xbe4b20ef	-0.19836782
16	0xbd12737e	-0.035754673
17	0x3dceb884	0.10093787
18	0xbe4a9e60	-0.19786978
19	0xbcba9bd4	-0.022779383
20	0x3e7d23a5	0.24720629
21	0xbd737a44	-0.059442773
22	0x3d8668b8	0.06562942
23	0x3dfd25a1	0.12360693
24	0xbe8fc1e6	-0.2807762
25	0xbc45fbc0	-0.012083948
26	0xbe836b92	-0.25668007
27	0xbd964cf1	-0.07338894
28	0x3d77eded	0.060529638
29	0x3b2eddee	0.0026682573
30	0xbd6fe990	-0.058572352
31	0xbec456ca	-0.38347465
32	0xbe69f935	-0.22848971
33	0xbda263b7	-0.07929175
34	0xbc02ebc2	-0.007990779
35	0xbe5c1f82	-0.21496394
36	0xbd60d0b3	-0.05488653
37	0xbe52bf25	-0.20580728
38	0xbe1cedbc	-0.15325063
39	0x3e382e46	0.17986402
40	0xbc997796	-0.01873378
41	0x3e310757	0.17287956
42	0x3ca2354a	0.0198008
43	0xbdb880f0	-0.09008968
44	0x3d48dc98	0.0490385
45	0xbe00671f	-0.12539338
46	0xbe2e6d0a	-0.17033783
47	0x3e79fb61	0.244123
48	0x3dcbe530	0.099558234
49	0xbe9821cb	-0.29713282
50	0xbde58960	-0.11207843
51	0x3c509cfd	0.012732741
52	0xbd99ed97	-0.0751602
53	0xbcd33ad2	-0.025784884
54	0xbe2307ba	-0.15920916
55	0x3b1c9ac9	0.002389597
56	0x3d031ae6	0.032008074
57	0xbc010e71	-0.007876978
58	0x3c939433	0.018015003
59	0x3df087fc	0.11744687
60	0x3d7d569a	0.061850168
61	0xbd4cb85b	-0.049980503
62	0xbcc97acc	-0.024594687
63	0xbe82098a	-0.25397903
64	0x3ec6b095	0.38806596
65	0x3eed4b02	0.4634629
66	0xbea096fc	-0.31365192
67	0x3e1adbb2	0.1512287
68	0xbc5f3b0f	-0.0136249205
69	0xbde47f69	-0.11157114
70	0x3d4d5694	0.050131395
71	0x3d75ebbe	0.060039274
72	0x3f05a5de	0.5220622
73	0xbf52a1be	-0.8227805
74	0xbe9e9d4a	-0.30979377
75	0xbe8d2b98	-0.27572322
76	0x3e20e808	0.15713513
77	0xbccbeb8c	-0.024892591
78	0x3d5521a7	0.052034047
79	0x3e3e2a95	0.18570931
80	0xbdf407af	-0.11915528
81	0x3dab4af9	0.08363909
82	0xbd89104b	-0.06692561
83	0x3d0844c1	0.033268694
84	0x3d844b08	0.064596236
85	0x3cb7957a	0.022410143
86	0xbd876b38	-0.06612247
87	0x3cdfc993	0.027317798
88	0xbe0e00b4	-0.13867456
89	0x3e098554	0.13429767
90	0x3e5c033c	0.21485609
91	0xbebbe436	-0.3669755
92	0xbd2c3d6f	-0.042050775
93	0xbd2be912	-0.04197032
94	0x3dd215e0	0.102580786
95	0x3e17901d	0.14801069
96	0xbd8373bb	-0.06418558
97	0xbe2ad583	-0.16683011
98	0xbdedc4a3	-0.11609771
99	0x3d2acb15	0.04169758
100	0x3f57f5db	0.8435952
101	0xbd6c54da	-0.05769811
102	0x3efe5aba	0.49678594
103	0xbe1c67b7	-0.15273939
104	0xbe0df5c6	-0.13863286
105	0xbe010289	-0.12598623
106	0x3d6f59d3	0.058435272
107	0x3da12df2	0.078700915
108	0x3e9c4bd7	0.3052661
109	0xbe03098d	-0.12796612
110	0x3ec01fcd	0.37524262
111	0xbd0071b6	-0.031358443
112	0x3d1f639d	0.038913358
113	0xbe478d6e	-0.19487545
114	0xb7854071	-1.5884843e-05
115	0x3da01886	0.078171775
116	0x3d833c3b	0.064079724
117	0xbe05fd01	-0.13084795
118	0x3d464533	0.048405837
119	0xbd33a46a	-0.04385797
120	0xbd229def	-0.0397014
121	0xbe50c12f	-0.20386194
122	0xbe152e98	-0.14568555
123	0x3dc2d4a3	0.095132135
124	0xbd913bf5	-0.07091514
125	0x3d28bc5b	0.041195255
126	0xbe10294f	-0.14078258
127	0xbd17b443	-0.037037145
128	0xbd75bf36	-0.059996806
129	0x3df420e8	0.11920339
130	0x3db2c3c6	0.08728747
131	0x3d97cc23	0.07411983
132	0xbe626793	-0.22109823
133	0xbc1a0e1f	-0.009402781
134	0xbb1efa33	-0.0024258017
135	0xbc9edfb9	-0.019393789
136	0xbe89b40a	-0.2689517
137	0x3df2920c	0.118442625
138	0xbe0a4376	-0.13502297
139	0xbea1ca72	-0.31599766
140	0x3dcee2a0	0.10101819
141	0x3d972b2f	0.073812835
142	0x3cb1557f	0.021647213
143	0xbe78fab6	-0.24314389
144	0x3d2595b8	0.040425986
145	0xbe02dd35	-0.12779696
146	0xbd6885f4	-0.056768373
147	0x3e205a21	0.15659381
148	0xbd9bc7a0	-0.07606435
149	0xbdb104da	-0.086435035
150	0x3df0bc4f	0.11754667
151	0x3eb79cfa	0.3586195
152	0x3e48baed	0.19602557
153	0x3d9cf849	0.07664544
154	0x3e130c8d	0.14360256
155	0x3ebfd793	0.37469158
156	0xbe3282ec	-0.17432755
157	0xbe360971	-0.17777039
158	0x3e9eb387	0.30996343
159	0xbd8481fc	-0.06470105
160	0x3e06489f	0.1311364
161	0xbd4cfba3	-0.050044667
162	0x3d30ad9c	0.043134317
163	0xbe8feb9d	-0.28109446
164	0x3d680282	0.056643017
165	0xbe28ee98	-0.16497266
166	0xbdf5ea94	-0.12007633
167	0xbe3a4eae	-0.18194076
168	0xbe82d046	-0.25549525
169	0x3c9dedb4	0.019278385
170	0xbdae8bf1	-0.085227855
171	0xbcf17a50	-0.029477268
172	0xbcc317d3	-0.023815071
173	0x3de2189c	0.1103985
174	0xbdca4fa4	-0.098784715
175	0xbd988c38	-0.074486196
176	0x3bc8de7f	0.006130039
177	0x3deded2e	0.11617504
178	0xbda89fcc	-0.08233604
179	0xbe4f6a91	-0.20255496
180	0x3d11d97e	0.035607807
181	0x3dceb5a3	0.10093238
182	0xbe2ddb91	-0.16978289
183	0xbda5e58d	-0.08100424
184	0xbec0047d	-0.37503424
185	0x3b9f9480	0.0048699975
186	0xbed040ee	-0.40674537
187	0xbd496205	-0.049165744
188	0x3e3dc6cd	0.18532868
189	0x3c8f64fa	0.017504204
190	0xbdc89afa	-0.097951844
191	0x3e2d009a	0.1689476
192	0xbb8fce94	-0.0043886397
193	0x3dbe5eca	0.09295423
194	0xbe191830	-0.14950633
195	0x3c8cfec9	0.017211335
196	0xbecb1ad4	-0.39668906
197	0x3d57d530	0.052693546
198	0xbe7c6fde	-0.24652049
199	0xbd469719	-0.04848394
200	0xbe6463fd	-0.22303768
201	0xbd464a39	-0.048410628
202	0xbc0a35aa	-0.008435646
203	0xbebcb8b8	-0.3685968
204	0x3d5ba53b	0.053624373
205	0xbd1601d1	-0.036622826
206	0xbe0002f7	-0.12501131
207	0xbe0c80d0	-0.13721013
208	0xbe0bd31e	-0.13654754
209	0xbe389ccb	-0.18028562
210	0xbd9028aa	-0.07039006
211	0xbeae2d56	-0.34018964
212	0x3e3be5f4	0.18349439
213	0xbe0baaef	-0.13639425
214	0x3e0d16df	0.13778256
215	0xbcbdbfd6	-0.023162764
216	0x3e5d36b9	0.21602906
217	0xbe646d8d	-0.22307415
218	0x3c58c4cb	0.013230513
219	0x3db6e3eb	0.08930191
220	0x3f026335	0.5093263
221	0xbe864054	-0.26220953
222	0xbe263ee3	-0.16234927
223	0xbe00b068	-0.12567294
224	0xbd4d944e	-0.050190262
225	0xbd1ec1a2	-0.03875888
226	0xbd752630	-0.05985087
227	0x3d55ccfd	0.052197445
228	0xbe1258d7	-0.14291702
229	0xbdcde351	-0.10053123
230	0xbdf00055	-0.11718813
231	0x3db99f7a	0.09063621
232	0xbdd03500	-0.10166359
233	0x3d88698c	0.066607565
234	0xbcbc9795	-0.023021499
235	0xbe20fbc1	-0.15721036
236	0x3d6c00de	0.057618015
237	0x3fafc374	1.3731523
238	0xbf826a36	-1.0188663
239	0xbd8ed120	-0.06973481
240	0x3d5328fd	0.05155276
241	0xbe614001	-0.21997072
242	0xbd92985c	-0.071579665
243	0x3d9b9a75	0.0759782
244	0x3c11571b	0.008870865
245	0xbe805029	-0.25061157
246	0x3d5c61fa	0.053804375
247	0xbe86147a	-0.26187497
248	0xbd09f2e0	-0.03367889
249	0xbdd8ed36	-0.105921194
250	0xbd58a138	-0.052888125
251	0x3e1703b9	0.14747514
252	0x3db0fb9f	0.08641743
253	0x3db706c5	0.08936838
254	0x3d63fb24	0.05565943
255	0xbe60f0e0	-0.21966887

rnn.weight_hh_l0 f4 [192, 64]
0	0xbe0b5a7a	-0.13608733
1	0xbe68a780	-0.22720146
2	0x3dbcff48	0.092283785
3	0xbda50dc1	-0.08059264
4	0xbe724d32	-0.2366226
5	0xbe48d245	-0.19611461
6	0xbcd6853d	-0.02618658
7	0x3e044acd	0.12919159
8	0xbdd5cbf5	-0.10439292
9	0xbe50aa92	-0.20377567
10	0x3d3b584d	0.045738507
11	0xbe8ff15b	-0.28113827
12	0x3e920440	0.28518867
13	0x3ee0db2f	0.43917224
14	0xbeb3b363	-0.350978
15	0x3d8a2de0	0.06747031
16	0x3c24bb6d	0.010054451
17	0xbe4d8a6c	-0.20072335
18	0x3dd4ad8a	0.103846624
19	0x3d679b40	0.056544542
20	0x3d7e3eee	0.062071733
21	0x3e25efc6	0.16204748
22	0x3e8356ef	0.25652263
23	0x3e115483	0.14192395
24	0xbe2a741d	-0.16645856
25	0xbc8368f2	-0.016041253
26	0x3e5f21af	0.21790193
27	0x3dd70b0a	0.105001524
28	0xbe683428	-0.22676146
29	0x3e58d7ea	0.21176115
30	0x3ea4496b	0.32087263
31	0xbd93fe18	-0.07226199
32	0x3e90e444	0.28299153
33	0xbe3beef0	-0.18352866
34	0xbc9156c0	-0.017741561
35	0x3dad2006	0.084533736
36	0x3e4fb690	0.20284486
37	0xbe3ff427	-0.1874548
38	0xbe89866c	-0.26860368
39	0x3e02fc13	0.12791471
40	0x3e6bc63a	0.23024836
41	0x3d97d136	0.07412951
42	0x3e083206	0.13300332
43	0xbd875635	-0.066082396
44	0x3e14859d	0.14504094
45	0x3e98b8fa	0.29828626
46	0x3e21ad74	0.15788823
47	0x3e340a3d	0.1758203
48	0x3d9c6a99	0.076375194
49	0x3d81036e	0.06299482
50	0xbd806598	-0.062693775
51	0xbd948009	-0.07250983
52	0x3d224c19	0.039623354
53	0xbe5416b9	-0.20711793
54	0x3e266043	0.16247658
55	0x3e1256dc	0.14290947
56	0xbec65fc7	-0.38744947
57	0xbec0102a	-0.37512332
58	0xbe1f8824	-0.15579277
59	0x3e5e3965	0.21701582
60	0xbe2ab5e7	-0.16670953
61	0xbe1cad06	-0.15300378
62	0x3ec15b50	0.37764978
63	0xbc83bf38	-0.016082391
64	0xbc7cd593	-0.015431779
65	0x3d4a05ac	0.049321815
66	0xbdb55668	-0.08854371
67	0xbe28af85	-0.16473205
68	0x3b9402de	0.0045169434
69	0x3dd6c4b5	0.10486738
70	0xbdb8faeb	-0.09032234
71	0x3d37b5ec	0.04485123
72	0xbd2d33e2	-0.042285807
73	0xbd27b8d7	-0.04094776
74	0xbd2e6439	-0.04257605
75	0xbd93d8bc	-0.07219073
76	0x3ce00c3c	0.027349584
77	0x3e3e2d85	0.18572052
78	0x3e11ee88	0.14251149
79	0xbdca9523	-0.09891727
80	0x3e202c28	0.15641844
81	0xbc65ff4f	-0.014037921
82	0xbe5c5bc4	-0.21519381
83	0x3c226258	0.009911142
84	0xbbefb27a	-0.0073149772
85	0xbcd4d177	-0.025978787
86	0x3dfbc407	0.122932486
87	0xbd56f8dd	-0.05248343
88	0x3dce70d2	0.100801125
89	0xbd46d148	-0.04853943
90	0x3d94858d	0.07252035
91	0xbe3bfdb6	-0.18358502
92	0x3d01c0ab	0.031677883
93	0xbbeb4a18	-0.0071804635
94	0xbda32b19	-0.079672046
95	0x3c5577fa	0.013029093
96	0xbd8a521b	-0.067539416
97	0xbc9d78be	-0.019222613
98	0xbe3d5c92	-0.18492344
99	0xbd0c2b2b	-0.034220856
100	0x3ce87be1	0.028379383
101	0x3d04323e	0.032274477
102	0x3db93ef4	0.090452105
103	0x3d84708e	0.064667806
104	0xbdb75508	-0.08951765
105	0x3d3825f1	0.04495806
106	0x3dc643f5	0.096809305
107	0x3dac6540	0.084177494
108	0x3d3023b7	0.04300281
109	0xbc185cb0	-0.009299442
110	0x3e5e0ad2	0.21683815
111	0x3da88ca4	0.0822995
112	0x3db79fdf	0.0896604
113	0x3e40c84d	0.18826409
114	0x3e0c2833	0.1368721
115	0xbd6e8299	-0.058230016
116	0xbe3c82d9	-0.1840929
117	0x3d9a6a03	0.075397514
118	0xbc0f224b	-0.008736203
119	0x3cb6da90	0.022321016
120	0x3defa80d	0.11701975
121	0xbe1f2774	-0.15542394
122	0xbd94619f	-0.07245182
123	0xbdc42583	-0.09577467
124	0xbcb22ef0	-0.021750897
125	0x3d980451	0.07422698
126	0xba95bfae	-0.0011424923
127	0x3db7c77f	0.08973598
128	0xbe49abbc	-0.19694418
129	0x3d77159b	0.06032334
130	0xbdcbc6ff	-0.09950065
131	0xbd98c866	-0.07460098
132	0xbb97305d	-0.0046139196
133	0xbd1828b8	-0.037148207
134	0x3df130fb	0.117769204
135	0xbe170c35	-0.1475075
136	0xbe03e7a5	-0.12881334
137	0x3c155758	0.009115063
138	0xbe529635	-0.20565112
139	0x3c06bcc3	0.008223715
140	0x3cebf63c	0.028803937
141	0x3e7cdb76	0.24693093
142	0x3bd05b73	0.006358558
143	0xbc6f26d9	-0.014596664
144	0xbd9a2629	-0.0752681
145	0x3b16be41	0.0023001584
146	0xbd8f5820	-0.069992304
147	0x3e14290d	0.14468785
148	0xbdba6c3e	-0.09102677
149	0xbcd1c43e	-0.02560627
150	0xbe10b58b	-0.14131753
151	0xbe4b9bb4	-0.19883615
152	0x3ce072b4	0.027398445
153	0xbdb461ca	-0.08807714
154	0xbd4184a6	-0.047245644
155	0x3d965491	0.073403485
156	0x3e5ba50b	0.21449678
157	0xbdddcf39	-0.1083054
158	0x3dcf59ac	0.101245254
159	0x3da5f8e4	0.08104113
160	0xbdafcfd4	-0.08584562
161	0xbe0c1079	-0.13678159
162	0xbdeacc55	-0.114647545
163	0xbce7242b	-0.028215488
164	0x3da6a311	0.08136571
165	0x3d83112a	0.06399758
166	0x3de12fde	0.10995458
167	0x3dd30545	0.103037395
168	0x3daba30c	0.08380708
169	0xbd3af42d	-0.04564302
170	0x3e85979d	0.26092234
171	0xbbf87845	-0.0075826966
172	0xbd51ad50	-0.051190674
173	0x3d0ef88c	0.034905
174	0x3db94f05	0.09048275
175	0xbd209def	-0.039213117
176	0x3db9bde1	0.0906942
177	0x3e111a0a	0.1417009
178	0x3dc67786	0.09690766
179	0xbdac27c5	-0.08406023
180	0x3c1fc6bd	0.009751973
181	0x3c80061b	0.015627911
182	0xbe0ddddb	-0.13854162
183	0x3ca58d40	0.020208955
184	0xbe20cd4c	-0.15703315
185	0xbdfeeffa	-0.12448116
186	0x3cfee1b8	0.03111349
187	0x3c92556d	0.017863
188	0x3cdb0331	0.02673492
189	0x3ce5fa3c	0.028073423
190	0x3d82a90d	0.063799
191	0x3bc20ed0	0.005922176
192	0xbce7a57b	-0.02827715
193	0x3da837a2	0.08213736
194	0xbe00c151	-0.12573744
195	0xbe4bb48e	-0.19893095
196	0xbe4306e4	-0.19045597
197	0x3e21a5c0	0.15785885
198	0x3e36fe8a	0.17870536
199	0xbd33c755	-0.04389127
200	0xbea6f2da	-0.32607156
201	0xbd93c342	-0.07214977
202	0xbe7f264b	-0.24916951
203	0xbd31fcc8	-0.04345396
204	0xbc9d44a1	-0.019197764
205	0x3d1edb15	0.03878315
206	0xbddc6ca5	-0.1076291
207	0xbd3be2df	-0.045870658
208	0xbda0b438	-0.07846874
209	0xbe1ec1e1	-0.15503646
210	0xbea8402a	-0.32861453
211	0x3dc74752	0.097304
212	0xbd04bce1	-0.03240669
213	0xbd0e1f13	-0.034697603
214	0xbdad1df3	-0.08452978
215	0x3d26a56a	0.040685095
216	0xbe8c004e	-0.27343982
217	0x3e0261d6	0.12732634
218	0x3d13ccef	0.03608411
219	0xbd8109b3	-0.06300678
220	0x3dd41efe	0.10357474
221	0x3ddb7f2e	0.10717617
222	0x3d434a60	0.04767835
223	0x3deb2342	0.11481334
224	0xbdc4b69d	-0.09605143
225	0x3c827bc0	0.01592815
226	0xbc5d5af8	-0.013510458
227	0x3de993d7	0.11405151
228	0x3d9e4f9b	0.07730027
229	0x3d7b2e7f	0.06132364
230	0x3dcefe2a	0.10107072
231	0x3e21bb10	0.15794015
232	0x3daaa5e9	0.08332426
233	0x3dd9fe3c	0.106441945
234	0x3eac0eb6	0.33604974
235	0x3e5e1cd7	0.21690689
236	0xbe433a37	-0.19065176
237	0x3e199567	0.14998399
238	0x3e3d77ef	0.18502782
239	0x3ce98413	0.02850536
240	0xbcfcdc53	-0.030866778
241	0x3eb44174	0.35206187
242	0x3d90467b	0.07044693
243	0xbe3e8f49	-0.18609346
244	0x3b3a7a4d	0.0028454245
245	0x3db23dc9	0.08703191
246	0x3d0ec449	0.03485516
247	0x3e2d0a69	0.16898502
248	0xbdbdbc94	-0.09264484
249	0xbe37ab95	-0.17936547
250	0xbe685d65	-0.22691877
251	0x3e2897b8	0.16464126
252	0xbb499818	-0.003076082
253	0x3bf05658	0.0073345117
254	0x3e2ac9b8	0.16678512
255	0xbcc6944c	-0.024240635

rnn.bias_ih_l0 f4 [192]
0	0x3d161b6b	0.03664724
1	0x3db5c98b	0.08876332
2	0x3df2dec1	0.11858893
3	0xbd5f9943	-0.05458952
4	0x3d938309	0.07202727
5	0xbc7f707b	-0.015590782
6	0x3d063267	0.03276291
7	0x3d6cf801	0.057853702
8	0x3df34965	0.11879233
9	0xbd7f016f	-0.062257227
10	0x3e424666	0.18972167
11	0x3dad2bf1	0.08455647
12	0xbd8d7747	-0.06907516
13	0x3de1ac0d	0.11019144
14	0xbcc5890d	-0.024113202
15	0xbd639576	-0.05556246
16	0x3b9e06b4	0.0048225764
17	0xbd586950	-0.05283481
18	0x3ccf847e	0.025331732
19	0xbdbf50b3	-0.09341564
20	0x3daa2b5c	0.083090514
21	0x3d8f52a0	0.06998181
22	0x3b3018ff	0.0026870368
23	0x3e60149a	0.21882859
24	0xbdb4ffca	-0.088378504
25	0x3d210561	0.03931177
26	0xbd32f78b	-0.043693107
27	0x3df7c1d1	0.120975144
28	0xbd9a9c21	-0.075493105
29	0xbe03944a	-0.12849537
30	0x3d9c6be7	0.07637768
31	0xbc3b5564	-0.011433933
32	0x3de10522	0.10987307
33	0x3da9ec0f	0.08296978
34	0xbd0eeb58	-0.03489241
35	0x3d194e5e	0.037428252
36	0x3b5afa27	0.0033413263
37	0x3d4a2ff8	0.049362153
38	0x3dc8ac13	0.097984456
39	0xbd9cfa74	-0.07664958
40	0xbd29c139	-0.041444037
41	0xbd27006c	-0.040771887
42	0x3e0a7315	0.13520463
43	0x3d78e392	0.060763903
44	0xbced8879	-0.02899574
45	0xbc07de3b	-0.00829273
46	0xb9561fd3	-0.00020420486
47	0x3d5c2cf2	0.0537538
48	0xbcf42c57	-0.0298063
49	0xba98fc30	-0.0011671837
50	0xbd06ac68	-0.032879263
51	0x3da47c22	0.08031489
52	0x3d82f27b	0.06393906
53	0xbc548e15	-0.012973328
54	0xbc4a170f	-0.012334599
55	0xbcd99dd3	-0.026564514
56	0xbc15d4d2	-0.009144979
57	0x3d1aa02f	0.03775042
58	0x3c6507e4	0.013978932
59	0x3e452d7a	0.19255629
60	0x3e5fdd49	0.21861757
61	0xbb8fead4	-0.0043920074
62	0x3daa9f14	0.08331123
63	0x3d999c86	0.075005576
64	0xbc736fb3	-0.014858174
65	0xbe250c6c	-0.1611802
66	0xbe770c02	-0.24125674
67	0xbe005425	-0.12532099
68	0x3d66f4b1	0.0563857
69	0xbd5b8cdb	-0.053601127
70	0xbd6aa356	-0.057284676
71	0xbd85e923	-0.06538608
72	0x3cb8d0aa	0.022560436
73	0xbddf6f17	-0.109098606
74	0xbb135bce	-0.002248514
75	0xbba736ae	-0.005102954
76	0xbac9c519	-0.0015393823
77	0xbe1b40d6	-0.15161452
78	0xbdfce381	-0.123480804
79	0xbdc1ea99	-0.09468574
80	0xbc9e9bee	-0.019361462
81	0xbe2a8d5b	-0.16655485
82	0xbe14db68	-0.14536822
83	0xbe29fc30	-0.16600108
84	0xbad10c36	-0.0015949074
85	0xbe280a17	-0.16410099
86	0xbe1c6397	-0.15272366
87	0xbdd58cb2	-0.10427226
88	0xbe26cc41	-0.16288854
89	0xbd9eaf7e	-0.07748316
90	0xbdae15fa	-0.085002854
91	0xbdeee775	-0.11665241
92	0xbc7c0006	-0.015380865
93	0xbc607376	-0.013699403
94	0x3d04e42b	0.03244416
95	0xbc3b115a	-0.011417711
96	0x3dfb80fd	0.12280462
97	0x3c4fb452	0.012677269
98	0xbe6652b1	-0.22492482
99	0xbe08328b	-0.1330053
100	0xbdbd85d1	-0.09254039
101	0x3d4cd894	0.050011232
102	0xbd8e61eb	-0.0695227
103	0xbe2982c8	-0.16553795
104	0xbe4c4ada	-0.19950429
105	0xbe69ffa6	-0.22851428
106	0xbe1de911	-0.15420939
107	0x3d5b9ab0	0.05361432
108	0xbe00ed93	-0.12590627
109	0x3d88e6aa	0.06684621
110	0x3cba21ba	0.02272116
111	0x3e328396	0.17433009
112	0x3c0ad712	0.008474128
113	0xbde764cb	-0.112985216
114	0xbe1d0f18	-0.15337789
115	0xbd1497c0	-0.036277533
116	0xbce6f892	-0.0281947
117	0xbe0345c4	-0.12819582
118	0xbc1e276b	-0.009652953
119	0x3d3cf82b	0.04613511
120	0xbe2df510	-0.16988015
121	0xbd81fef5	-0.06347457
122	0xbe30ba55	-0.1725858
123	0x3d9bbb53	0.07604089
124	0x3d993df9	0.074825235
125	0xbe6a618e	-0.22888777
126	0xbd1be6fb	-0.038062077
127	0x3d0a95e1	0.033834342
128	0xbdfa09b2	-0.122088805
129	0x3d30c401	0.043155674
130	0x3cfdbe59	0.030974554
131	0x3d62c268	0.05536118
132	0x3e0e7e4d	0.13915367
133	0x3d9c46f4	0.07630721
134	0xbdc4c63d	-0.096081235
135	0xbc92f481	-0.017938854
136	0xbd501de4	-0.050809756
137	0x3d35f016	0.044418417
138	0xbdb6a7c1	-0.08918715
139	0xbe077bea	-0.13230863
140	0x3e22dcd4	0.15904552
141	0x3d9282f1	0.07153881
142	0xbba225ad	-0.004948339
143	0xbb61f272	-0.0034476784
144	0x3e039b57	0.12852226
145	0xbb69d548	-0.0035680104
146	0xbd340c02	-0.043956764
147	0xbd69f327	-0.057116654
148	0x3d9e1825	0.07719449
149	0xbdcd09c0	-0.10011625
150	0x3e3fcae2	0.18729737
151	0x3d7dc3e2	0.061954387
152	0x3dd279db	0.10277148
153	0x3d24fc4a	0.040279664
154	0x3cf4f1ea	0.02990051
155	0xbdfe44dd	-0.124154784
156	0xbdd114e4	-0.10209063
157	0xbdf61fb3	-0.12017765
158	0xbd3e056b	-0.046391886
159	0xbcbfc44b	-0.02340903
160	0x3d1b3c82	0.0378995
161	0xbcd56a59	-0.026051687
162	0xbd4587dd	-0.048225272
163	0xbda6a726	-0.0813735
164	0x3d67ee5d	0.056623805
165	0xbc834137	-0.016022308
166	0xbe0f5297	-0.1399635
167	0x3e138e2e	0.14409706
168	0xbdc0b9cc	-0.09410438
169	0xbd82110d	-0.063509084
170	0x3d80d8d3	0.06291356
171	0xbe10b485	-0.14131363
172	0x3dc526a3	0.0962651
173	0xbcfb175a	-0.030650783
174	0xbd344812	-0.044014044
175	0x3db4b369	0.08823282
176	0xbe173cb7	-0.14769255
177	0xbcaea6a0	-0.021319687
178	0x3cedc72b	0.029025635
179	0x3e239f1a	0.15978661
180	0xbdc44686	-0.09583764
181	0x3d406e4a	0.04698018
182	0x3e2a457f	0.16628073
183	0x3cfa55f8	0.030558571
184	0x3e36fc10	0.17869592
185	0xbd03b48c	-0.032154605
186	0x3d3d04aa	0.046147026
187	0x3dcbb710	0.09947026
188	0xbe132557	-0.14369713
189	0xbc5b63d4	-0.0133905
190	0x3d80d0b0	0.06289804
191	0xbdf76d5d	-0.12081406

rnn.bias_hh_l0 f4 [192]
0	0x3cd64a62	0.026158515
1	0xbd3d23ab	-0.046176594
2	0xbd2593c5	-0.040424127
3	0x3c88f4d4	0.016718306
4	0x3d8e4efb	0.06948658
5	0xbdb81d11	-0.08989919
6	0x3dd8b147	0.10580688
7	0xbd594496	-0.053043924
8	0x3d856780	0.06513882
9	0xbc620dfa	-0.013797278
10	0x3e19954b	0.14998357
11	0x3d8168de	0.0631883
12	0xbdd6a369	-0.10480387
13	0xbda5d7ae	-0.08097778
14	0x3db71f43	0.089415096
15	0x3d729fea	0.059234537
16	0xbe139db2	-0.14415625
17	0x3ca477a0	0.020076573
18	0x3da90c57	0.08254307
19	0x3b69e7ff	0.003569126
20	0xbcef1a09	-0.02918722
21	0xbd30a926	-0.043130063
22	0x3de457b7	0.11149543
23	0x3cfe35eb	0.03103157
24	0x3d506aae	0.050882988
25	0xbdd2f7fb	-0.10301205
26	0x3d6ca759	0.057776783
27	0xbd79f1cf	-0.061021622
28	0x3de56cb3	0.11202373
29	0xbdff0a3d	-0.12453125
30	0xbccd7603	-0.025080686
31	0x3d626754	0.055274323
32	0x3d5aa1f6	0.053377114
33	0xbdd41643	-0.103558086
34	0xbe62a131	-0.22131802
35	0x3d118755	0.035529453
36	0xbd485ea0	-0.048918366
37	0x3e3dd3c4	0.18537813
38	0x3e764562	0.24049905
39	0x3c9e901c	0.019355826
40	0x3e0e5b0c	0.13901919
41	0x3d600673	0.05469365
42	0xbda06139	-0.07831044
43	0x3e225235	0.15851672
44	0x3d3d741b	0.046253305
45	0x3b14e1d2	0.0022717607
46	0x3d1de58f	0.038549002
47	0x3d277eb6	0.040892325
48	0xbdd3c1fe	-0.103397354
49	0x3db1e518	0.08686274
50	0xbc9ebb8d	-0.01937654
51	0x3bdb0951	0.00668446
52	0x3dabf6f4	0.08396712
53	0x3c4e8365	0.012604569
54	0x3e28ff84	0.16503721
55	0xbca0a1c5	-0.019608388
56	0x3dbd496f	0.09242522
57	0x3d3b5879	0.04573867
58	0x3c27e931	0.010248468
59	0x3d2a6c8a	0.041607417
60	0x3d269730	0.040671527
61	0x3d1f151c	0.03883849
62	0xbdd129da	-0.10213061
63	0x3e2d1967	0.16904221
64	0x3ca3657c	0.019945852
65	0xbcf7e36b	-0.030259809
66	0xbdf14d84	-0.11782363
67	0xbcc4b6c0	-0.024012923
68	0xbd14e0a7	-0.036347058
69	0xbdcb4686	-0.09925561
70	0xbe13423e	-0.14380738
71	0xbe208480	-0.15675545
72	0xbd4062d1	-0.04696924
73	0xb92eba38	-0.00016663305
74	0xbd0ea3e1	-0.034824256
75	0x3b5901d9	0.0033112674
76	0xbdc54481	-0.09632207
77	0x3d1447c9	0.036201272
78	0xbd34c292	-0.04413087
79	0xbe33aaa1	-0.17545559
80	0x3e545802	0.20736697
81	0xbdea7ea1	-0.11449934
82	0xbe223516	-0.15840563
83	0xbdf15031	-0.117828734
84	0xbc130fcf	-0.008975937
85	0xbe306ca4	-0.17228943
86	0xbcdbc514	-0.026827373
87	0xbe187b2b	-0.14890735
88	0xbdd9a3cf	-0.10626947
89	0xbde4eea8	-0.111783326
90	0xbdccad5f	-0.099940054
91	0xbd3aad86	-0.04557564
92	0x3d46e1f2	0.048555322
93	0xbe2973ad	-0.16548033
94	0xbda7c9c3	-0.0819278
95	0xbe1302d0	-0.14356542
96	0x3e887470	0.26651335
97	0xbc8a73fe	-0.016901013
98	0xbe14d2d4	-0.1453355
99	0xbd5876cf	-0.05284768
100	0x3cce2696	0.025164884
101	0xbe219b71	-0.15781952
102	0xbd67d0f5	-0.05659576
103	0xbc39f4eb	-0.011349897
104	0xbe071020	-0.13189745
105	0xbebdc043	-0.37060747
106	0xbc4fe7e9	-0.012689569
107	0xbe08eaa6	-0.13370761
108	0xbda5ffa7	-0.081054024
109	0x3d7d15e3	0.06178845
110	0xbe49363a	-0.19649592
111	0x3e5922a9	0.21204628
112	0xbd92f7a2	-0.071761385
113	0xbd25c62b	-0.04047219
114	0xbdf44ab1	-0.11928309
115	0x3d4649ec	0.04841034
116	0x3cf4852d	0.02984866
117	0xbd7f2683	-0.062292587
118	0x3cd6e39c	0.02623158
119	0x3d238ce1	0.039929274
120	0x3c850b30	0.016240686
121	0x3cbb87e7	0.022891952
122	0xbdca9c76	-0.09893124
123	0x3dc6432e	0.09680782
124	0x3e499aab	0.19687907
125	0xbe38c871	-0.18045212
126	0x3d41e1cb	0.047334474
127	0xbde39e2c	-0.11114153
128	0xbc9d946b	-0.01923581
129	0xbe29910c	-0.16559237
130	0x3d8c46cc	0.06849441
131	0xbd5bdaa3	-0.053675305
132	0x3d5ada8d	0.053431083
133	0xbded2b4a	-0.11580522
134	0x3d8b47c1	0.06800795
135	0x3e3cb28c	0.18427485
136	0xbcc5845e	-0.02411097
137	0x3bb4f205	0.005522015
138	0xbd69dc47	-0.05709484
139	0x3c332d7e	0.010936139
140	0x3c09efac	0.008418959
141	0xbdbd9de4	-0.09258631
142	0x3e0e47da	0.13894597
143	0xbe491aae	-0.19639084
144	0x3cd081fa	0.025452603
145	0x3e0d22f2	0.13782862
146	0x3d0d7af0	0.03454107
147	0x3db240f0	0.08703792
148	0x3e3cd1cd	0.18439408
149	0xbdd4ebfa	-0.103965715
150	0x3b485dbb	0.0030573446
151	0x3d18269f	0.037146207
152	0xbdb9c3a1	-0.090705164
153	0x3e0d52b6	0.13801083
154	0xbdd3873b	-0.103285275
155	0x3d3692d1	0.04457361
156	0xbe1ece7e	-0.15508458
157	0xbd94ac6f	-0.072594516
158	0xbe02867d	-0.12746616
159	0x3db7c4f3	0.08973112
160	0x3d6363e7	0.055515196
161	0xbda3a897	-0.0799114
162	0xbd9a9732	-0.075483695
163	0xbd35327b	-0.044237595
164	0x3da97c2a	0.082756355
165	0xbde8c310	-0.1136533
166	0xbc48ee91	-0.01226391
167	0x3de80b0e	0.113302335
168	0x3d1647f4	0.036689714
169	0x3cf38312	0.029725585
170	0xbd71170d	-0.058859874
171	0xbd96feca	-0.07372816
172	0x3d8054c3	0.06266167
173	0x3d33d642	0.043905504
174	0xbd899d5a	-0.067194656
175	0x3db7c020	0.08972192
176	0xbe143e30	-0.14476848
177	0x3d980729	0.07423241
178	0x3dd47812	0.10374464
179	0x3dd23589	0.10264117
180	0xbdb8e0a9	-0.090272255
181	0x3d5c3c87	0.05376866
182	0x3e02c0c4	0.12768847
183	0x3e115e2a	0.14196077
184	0x3d4ae64a	0.049536027
185	0xbde07c26	-0.109611794
186	0x3d647ed9	0.055785034
187	0x3e2ba915	0.16763718
188	0xbe0d85e8	-0.13820612
189	0x3dcd2b54	0.1001803
190	0xbe02d44d	-0.12776299
191	0xbe2edda3	-0.17076735

exp_avg f4 [1, 64]
0	0xb9a1c262	-0.0003085314
1	0xbb3bd121	-0.0028658586
2	0x3b06b304	0.002055348
3	0x3afa1b79	0.0019081674
4	0x3a0ac7cb	0.00052940537
5	0xbb18fd96	-0.0023344508
6	0xb894c4ba	-7.093833e-05
7	0x3b3fe988	0.0029283483
8	0xb91aa3f7	-0.00014747666
9	0xb94db1ba	-0.00019616532
10	0x3a13ed94	0.0005643007
11	0xba8f584b	-0.0010936348
12	0x3adf5331	0.0017038343
13	0x3ac42b08	0.0014966438
14	0xbada7225	-0.0016666098
15	0x3aa6cbe2	0.0012725557
16	0x3b174033	0.0023079037
17	0x3932d491	0.0001705459
18	0x3b346b5b	0.002752981
19	0x3ae5fad5	0.0017546067
20	0x3b58842b	0.0033037763
21	0x3bd33ec7	0.0064466926
22	0x3ba14e76	0.0049226834
23	0x3a9da886	0.0012028373
24	0xba213078	-0.0006148885
25	0xbac6bfbf	-0.0015163346
26	0xb9d587cc	-0.00040727702
27	0x3b1df2c3	0.0024100996
28	0xbaec7a19	-0.0018041759
29	0x3bbefc6a	0.00582843
30	0x3940e356	0.00018395236
31	0xbab36041	-0.0013685302
32	0x3a23e49e	0.0006252023
33	0xbaab69ab	-0.0013077756
34	0x3b80e404	0.0039334316
35	0x3bae4120	0.005317822
36	0x3aa54404	0.0012608771
37	0xbb812d0c	-0.0039421376
38	0xbafa4034	-0.001909262
39	0xbb2279e8	-0.00247919
40	0x3ba76650	0.005108632
41	0xbba7a66c	-0.0051162746
42	0x390be673	0.00013341922
43	0xbb16fd59	-0.002303919
44	0x3b31f8c2	0.0027156328
45	0x3a0bf20b	0.00053384964
46	0xbb31ae00	-0.0027111769
47	0x389a7d7c	7.3666655e-05
48	0xbad7a8fe	-0.0016453562
49	0xb98f19be	-0.00027294265
50	0xbb885a92	-0.0041611874
51	0x3b0ad991	0.0021186809
52	0x3b10428c	0.0022012321
53	0xbb1fb88b	-0.002437147
54	0x3ae65e56	0.0017575722
55	0xb9c38f1b	-0.0003729992
56	0x3acaa850	0.0015461538
57	0xb96fce97	-0.00022869777
58	0x3aa87ae4	0.0012854007
59	0x3c286fe3	0.010280582
60	0xbb64e120	-0.0034924224
61	0xbb8b2143	-0.0042459085
62	0x3add0769	0.001686317
63	0x3ba4f488	0.005034033

exp_avg_sq f4 [1, 64]
0	0x370ac59c	8.2714505e-06
1	0x3765bf42	1.3693994e-05
2	0x374da0f2	1.2256425e-05
3	0x388f63f2	6.8373876e-05
4	0x378ff7f7	1.7162396e-05
5	0x37a79afd	1.9980123e-05
6	0x36953593	4.446783e-06
7	0x37e86554	2.770374e-05
8	0x37fb0989	2.9925972e-05
9	0x36608f53	3.3462027e-06
10	0x35ec7bc3	1.761939e-06
11	0x36b2a1c7	5.3236467e-06
12	0x36fab5dd	7.4717523e-06
13	0x36f13be3	7.1893314e-06
14	0x36b12972	5.279836e-06
15	0x368b8f7a	4.1592257e-06
16	0x36e0ad42	6.69589e-06
17	0x3586ebbc	1.0052386e-06
18	0x385c98c6	5.259437e-05
19	0x36c6faa8	5.93004e-06
20	0x3778a6df	1.4820805e-05
21	0x38983fdd	7.25982e-05
22	0x38709ea8	5.736822e-05
23	0x3763f34d	1.3586902e-05
24	0x363174bf	2.644301e-06
25	0x393c697b	0.00017968372
26	0x35865bbc	1.0010476e-06
27	0x3771066f	1.4366217e-05
28	0x36bf23c7	5.6964086e-06
29	0x384ab133	4.8325583e-05
30	0x370d6d4d	8.4297035e-06
31	0x379da7c1	1.8793975e-05
32	0x355c5de9	8.2093044e-07
33	0x36862365	3.9976317e-06
34	0x38033804	3.1285002e-05
35	0x389c7aae	7.4615105e-05
36	0x36502af9	3.1019429e-06
37	0x379607cb	1.7885022e-05
38	0x369004b0	4.29208e-06
39	0x3838df79	4.4077144e-05
40	0x3825f149	3.956378e-05
41	0x383f9c7d	4.568369e-05
42	0x37825c48	1.554018e-05
43	0x3761fb9b	1.34696265e-05
44	0x37f3ed04	2.9078226e-05
45	0x359f88a0	1.1886186e-06
46	0x380d4916	3.3685086e-05
47	0x3619ef8c	2.2938211e-06
48	0x36f80750	7.3918272e-06
49	0x380b500f	3.3214743e-05
50	0x385c1054	5.2467294e-05
51	0x37c2849b	2.3188351e-05
52	0x37ec7700	2.8188806e-05
53	0x3714ffbf	8.881033e-06
54	0x36e413f5	6.797253e-06
55	0x37d8423a	2.5780046e-05
56	0x374cfcbf	1.2218195e-05
57	0x365adfa2	3.2614703e-06
58	0x382b732c	4.087684e-05
59	0x39043f22	0.0001261202
60	0x376949ec	1.39050935e-05
61	0x37d276b5	2.5089228e-05
62	0x36b1384d	5.2815653e-06
63	0x38d8f058	0.0001034445

exp_avg f4 [64, 64]
0	0x3b636fb0	0.0034704022
1	0xbbbed1de	-0.005823358
2	0x3aacb6ea	0.0013177071
3	0xbaf595fe	-0.0018736718
4	0x3b2a5fbc	0.0025997004
5	0xbb1461a2	-0.0022641202
6	0xbbcdfb3a	-0.006286052
7	0x3bab2b1d	0.0052236454
8	0xb9b91e7b	-0.0003530866
9	0x391f4bf6	0.0001519172
10	0x3be9bfc5	0.0071334564
11	0xbbd46106	-0.0064812927
12	0x3bb9de06	0.005672219
13	0xba0d6a0d	-0.0005394526
14	0x3b287ac0	0.002570793
15	0xbbfebc64	-0.0077739228
16	0x3c064e44	0.008197371
17	0x3b8580c6	0.004074189
18	0xbbe932f2	-0.007116669
19	0xbb2d5f80	-0.0026454628
20	0x3c7362cb	0.014855097
21	0xbba887d1	-0.0051431437
22	0x3c0bdd28	0.0085366145
23	0x3c83e28a	0.016099233
24	0x3bcbaca6	0.0062156497
25	0x3c18ee98	0.009334229
26	0x3941e6fd	0.00018491964
27	0xbc030191	-0.007995979
28	0xbbf209ec	-0.0073864367
29	0xbbabf9d7	-0.005248289
30	0xbadb4733	-0.0016729593
31	0x3a0b4339	0.0005312446
32	0x3c84dedd	0.01621955
33	0xbb95f250	-0.004576005
34	0xb8a700f0	-7.963355e-05
35	0xbc1c924e	-0.009556366
36	0x3b9b4a44	0.0047390778
37	0xbbc0517d	-0.005869089
38	0xbc9694b6	-0.018381458
39	0x3bf94f1c	0.0076083075
40	0xbc346383	-0.011010054
41	0xb939d21f	-0.00017721251
42	0x3a71a277	0.00092176296
43	0xbc489834	-0.012243319
44	0x3c1bf05b	0.009517754
45	0xbc0fe14c	-0.008781742
46	0x3b026bb6	0.0019900627
47	0x3c667366	0.014065599
48	0xbbd2aba9	-0.006429155
49	0x39d46e4a	0.00040517963
50	0x3bc0df6a	0.005886008
51	0x3c1d3a8f	0.009596481
52	0xba2464f6	-0.0006271148
53	0x3bd363b2	0.0064510936
54	0x3c3c5596	0.011495015
55	0x3c1428c3	0.0090429215
56	0x3ba97164	0.005170988
57	0xba87b61d	-0.0010353957
58	0xb6c3e260	-5.8378064e-06
59	0x3ca440d2	0.02005044
60	0xbbbbcfa3	-0.0057315393
61	0x3b48cb82	0.0030638878
62	0xbb56bb17	-0.0032765323
63	0xbc8f149e	-0.017465886
64	0x3b2975a7	0.002585748
65	0x3a3c62ba	0.0007186342
66	0xbba6076c	-0.0050668027
67	0x3cb78471	0.02240202
68	0x3c23a3f5	0.009987821
69	0x39ab2fff	0.00032651421
70	0x3a21f42f	0.0006178049
71	0x3bcca710	0.0062455013
72	0x3c9eef09	0.01940109
73	0x3b85fd1d	0.0040890113
74	0x3b783769	0.0037874824
75	0x3cbee880	0.023304224
76	0xbc57c893	-0.013170379
77	0xbb34f07c	-0.002760916
78	0xbb82b62c	-0.0039890017
79	0x3c921095	0.017830173
80	0xbc7fa784	-0.015603904
81	0xbc294f87	-0.010333902
82	0x3c986752	0.018603954
83	0x3b055238	0.0020343196
84	0xbc75287c	-0.0149632655
85	0x3c7535a8	0.014966406
86	0xbbd69507	-0.006548527
87	0xbcbe2da9	-0.023215132
88	0xbc0541a9	-0.00813333
89	0xbca9fcff	-0.02075052
90	0xbbb72d80	-0.005590141
91	0x3c93578f	0.017986087
92	0x3c34df2c	0.011039536
93	0x3c33e5c1	0.010980071
94	0xba6a14e6	-0.0008929506
95	0xbc8c5994	-0.017132558
96	0xbcb59f6e	-0.022170749
97	0x3c8ef171	0.017449113
98	0x3be1733d	0.0068801926
99	0x3c9b7ae5	0.0189795
100	0xbc29e6f0	-0.010370001
101	0x3b6a87ba	0.0035786466
102	0x3cfe0c10	0.031011611
103	0xbd0a8265	-0.03381576
104	0x3ca6d8b4	0.020367004
105	0x3b89be42	0.0042035887
106	0xbc850edb	-0.016242435
107	0x3c1f44e2	0.009721013
108	0xbb8f8247	-0.004379544
109	0x3bf9a759	0.0076188263
110	0xbc93663a	-0.017993081
111	0xbcdac5cc	-0.026705645
112	0x3c0a1446	0.008427685
113	0xbc95170c	-0.018199466
114	0xbc71a43d	-0.01474863
115	0xbc0cb0c6	-0.008587068
116	0x3bd15d3b	0.0063892878
117	0xbc6a848d	-0.014313829
118	0xbc84ea4f	-0.016225008
119	0xbcb62354	-0.022233643
120	0xbace57ff	-0.0015742778
121	0x3bcbfcfc	0.0062252264
122	0x3c9278d8	0.017879888
123	0xbcc8301c	-0.024437003
124	0x3c20b4e7	0.0098087555
125	0xbc316652	-0.010827618
126	0x3bb1a464	0.005421208
127	0x3cf0ad39	0.029379474
128	0xba19a0da	-0.00058604556
129	0x3a95b48e	0.0011421607
130	0xb7fc47e2	-3.0074214e-05
131	0x39f014c3	0.00045791836
132	0xba29ca2a	-0.0006476963
133	0x3a3e2725	0.0007253758
134	0x3aa24c91	0.0012382438
135	0xba8cc323	-0.0010739308
136	0x38775f3d	5.8978087e-05
137	0x393d76f7	0.00018068762
138	0xbad43b2f	-0.0016191954
139	0x3ad094f5	0.0015913533
140	0xba890a7a	-0.0010455393
141	0xb8117798	-3.4682074e-05
142	0xb9a34f92	-0.00031149067
143	0x3a9cbce3	0.0011958148
144	0xbac585e4	-0.001506981
145	0xba06417e	-0.00051214534
146	0x3abcd5f9	0.001440703
147	0x39cfa17b	0.0003960243
148	0xbb4166bb	-0.0029510695
149	0x3a4cf5ab	0.000781859
150	0xbae70c5b	-0.0017627584
151	0xbb57be25	-0.0032919731
152	0xba96e07b	-0.0011510992
153	0xbaf5c6a7	-0.001875122
154	0xb9919773	-0.00027769394
155	0x3ab1c43e	0.0013562513
156	0x3ac65e57	0.0015134317
157	0x3a647a95	0.0008715776
158	0x397d47d9	0.00024154726
159	0x3897cead	7.2387375e-05
160	0xbb663a57	-0.0035129988
161	0x3a5cc8c6	0.00084222516
162	0xb9afa2bb	-0.00033499845
163	0x3ae48cb6	0.0017436955
164	0xba8efa62	-0.001090836
165	0x3a961ef6	0.0011453319
166	0x3b6bdb39	0.0035988821
167	0xba8e9e29	-0.0010880876
168	0x3b036252	0.0020047617
169	0xb98bc32c	-0.0002665756
170	0xb967787f	-0.00022074765
171	0x3b21a7ae	0.0024666595
172	0xbaf7ac93	-0.0018896036
173	0x3af89182	0.0018964263
174	0xb9a1d0c9	-0.0003086387
175	0xbb45ea28	-0.0030199382
176	0x3a915da7	0.0011090533
177	0xb8862beb	-6.397798e-05
178	0xba60f9e4	-0.00085821585
179	0xbaeb90b9	-0.0017972208
180	0xb8abeaf3	-8.197678e-05
181	0xba7d390d	-0.00096596853
182	0xbb12b556	-0.0022385917
183	0xbacaca29	-0.0015471625
184	0xba5e7645	-0.00084862515
185	0x39c81658	0.0003816362
186	0x391b3d96	0.00014804894
187	0xbb91afbe	-0.004445999
188	0x3a4c3605	0.0007790032
189	0xb9906b7b	-0.000275459
190	0x39e1be1c	0.00043056987
191	0x3b5a0435	0.0033266668
192	0x80000004	-6e-45
193	0x80000004	-6e-45
194	0x00000004	6e-45
195	0x80000004	-6e-45
196	0x00000004	6e-45
197	0x00000004	6e-45
198	0x80000004	-6e-45
199	0x80000004	-6e-45
200	0x80000004	-6e-45
201	0x00000004	6e-45
202	0x80000004	-6e-45
203	0x80000004	-6e-45
204	0x80000004	-6e-45
205	0x00000004	6e-45
206	0x00000004	6e-45
207	0x80000004	-6e-45
208	0x00000004	6e-45
209	0x00000004	6e-45
210	0x80000004	-6e-45
211	0x80000004	-6e-45
212	0x00000004	6e-45
213	0x80000004	-6e-45
214	0x80000004	-6e-45
215	0x00000004	6e-45
216	0x00000004	6e-45
217	0x00000004	6e-45
218	0x80000004	-6e-45
219	0x80000004	-6e-45
220	0x80000004	-6e-45
221	0x80000004	-6e-45
222	0x00000004	6e-45
223	0x00000004	6e-45
224	0x00000004	6e-45
225	0x80000004	-6e-45
226	0x80000004	-6e-45
227	0x80000004	-6e-45
228	0x00000004	6e-45
229	0x80000004	-6e-45
230	0x80000004	-6e-45
231	0x00000004	6e-45
232	0x80000004	-6e-45
233	0x80000004	-6e-45
234	0x00000004	6e-45
235	0x00000004	6e-45
236	0x80000004	-6e-45
237	0x80000004	-6e-45
238	0x00000004	6e-45
239	0x00000004	6e-45
240	0x80000004	-6e-45
241	0x00000004	6e-45
242	0x00000004	6e-45
243	0x00000004	6e-45
244	0x80000004	-6e-45
245	0x00000004	6e-45
246	0x00000004	6e-45
247	0x00000004	6e-45
248	0x00000004	6e-45
249	0x80000004	-6e-45
250	0x80000004	-6e-45
251	0x00000004	6e-45
252	0x80000004	-6e-45
253	0x00000004	6e-45
254	0x00000004	6e-45
255	0x80000004	-6e-45
