saved_models/discretised/checkpoint305.pth (torch, 224977 bytes, 27 tensors)

h0 f4 [1, 64]
-0.39177346 -0.5944592 0.49227554 1.0989692 -1.1761416 0.30570695 -1.128664 -0.35272732
0.22054112 1.2603767 -0.74440217 1.1427109 -0.1518984 1.9675918 0.46823424 -0.37332833
-0.60099524 -0.71167487 -0.35612887 0.31230837 0.42817158 -0.7157578 -0.40390497 1.7045268
-1.2801731 0.15871245 0.43888757 1.4834056 0.54256654 0.49177915 0.9027062 -0.0931337
0.81243956 -1.0403727 0.072900146 0.59937763 0.39933214 -0.10440765 1.2074614 -0.12667762
0.7896478 0.36781135 -0.5662787 1.0300206 -0.49564356 2.0248291 -1.6399586 -0.60450125
0.89071774 1.8263807 -0.36798486 1.4573758 1.5846233 0.64472216 -1.5506358 -0.5084022
-0.8956002 0.12976208 0.8090876 -0.40847826 -2.0999517 -0.6658747 -1.5815469 -1.5356299
00000000: 8896 c8be 7a2e 18bf 8a0b fc3e 06ab 8c3f
00000010: cf8b 96bf 9f85 9c3e 1078 90bf ad98 b4be
00000020: 88d5 613e 0654 a13f 2491 3ebf 5a44 923f
00000030: 418b 1bbe 0cda fb3f 66bc ef3e e424 bfbe
00000040: d3da 19bf 5330 36bf 8656 b6be e2e6 9f3e
00000050: 4e39 db3e e73b 37bf a2cc cebe ef2d da3f
00000060: b6dc a3bf 8485 223e dfb5 e03e 3ce0 bd3f
00000070: a4e5 0a3f 7aca fb3e c117 673f e2bc bebd
00000080: 0afc 4f3f ef2a 85bf ac4c 953d d070 193f
00000090: 4375 cc3e aed3 d5bd 188e 9a3f c7b7 01be
000000a0: 5c26 4a3f c551 bc3e a4f7 10bf b7d7 833f
000000b0: fec4 fdbe cd96 0140 2aea d1bf 98c0 1abf
000000c0: 1406 643f d8c6 e93f 8368 bcbe 4a8b ba3f
000000d0: f0d4 ca3f 830c 253f 3c7b c6bf a626 02bf
000000e0: 0e46 65bf 5ae0 043e 5d20 4f3f 1024 d1be
000000f0: 9c65 06c0 c476 2abf 2170 cabf 858f c4bf

trial_output.0.weight f4 [64, 64]
-0.3646183 -0.0015754125 -0.18095054 0.3849614 -0.34519446 -0.11177396 -0.17966004 0.26936564
0.4768649 0.22970834 -0.098852426 -0.16472106 0.0556846 -0.33451173 0.16935039 -0.10518927
-0.32152185 -0.13967603 -0.023960264 -0.06310959 0.18738778 -0.11759023 -0.12640099 0.09280819
-0.07122343 0.021278707 -0.08817294 0.23450018 -0.2713075 0.2911393 -0.05853361 0.033336926
-0.2374651 0.024353683 0.007051152 -0.17508814 -0.23653771 -0.092864126 -0.24947214 0.11164563
-0.07379974 -0.11209045 0.23679231 -0.14721344 0.06921992 0.24441428 -0.12757625 -0.12425261
-0.27432725 0.1399283 0.19132411 0.16305658 0.19168806 0.123846196 -0.2225994 0.15551677
0.33045965 0.16044565 -0.009292266 -0.079757534 0.3526465 0.03405303 0.20800257 0.09111019
0.12410964 -0.035869483 -0.12736596 -0.0039746743 0.014460257 0.042624142 0.062982194 -0.0037713419
-0.049112197 0.14516975 -0.19950017 0.10409676 0.0030368525 -0.25706017 -0.1118139 -0.102110386
-0.15460747 0.06497848 -0.19774857 0.21569684 0.1152154 0.048304293 0.08972543 0.012647511
-0.10014419 0.11412906 0.06499531 0.4260573 -0.060883917 -0.068381555 -0.13763696 -0.016620593
-0.12346537 -0.04219214 -0.055787064 -0.082991846 0.06909635 -0.07226299 0.10668883 0.06689583
-0.048290133 0.056299016 0.2918343 -0.13717613 -0.08296486 -0.05610855 -0.011260813 -0.104833044
-0.23256184 0.13572663 0.08066908 -0.045609485 -0.020672433 -0.09527053 0.110471666 0.28017053
-0.023129957 0.010227953 0.11015853 -0.12610075 -0.00033528527 0.028128376 0.10199362 0.12321984
-0.13681996 -0.020516915 -0.08844414 0.023180481 -0.13843758 0.0027742286 0.039967883 0.09803582
0.11528153 0.15926565 -0.020444851 -0.14582713 -0.123202 -0.016439993 -0.024436308 -0.025987651
0.07664775 -0.10323762 -0.013790903 0.022086784 0.105757825 0.015708622 -0.023162792 0.0006553864
0.19786115 0.15692751 -0.007006951 -0.07305506 -0.035300907 0.07877797 -0.0035040136 0.02792147
-0.016434126 0.082685016 0.011143208 -0.15077862 -0.046805874 0.08466332 0.05369209 0.045427565
0.12578294 -0.02129378 0.10006527 -0.08908365 -0.098847054 0.1518875 0.107893445 -0.032094482
-0.13189156 0.021156961 0.07963966 0.06240594 0.11867125 0.015079266 -0.0755194 0.116291635
-0.053971797 0.010573449 0.023154946 0.00094770023 0.0007162573 -0.011673529 0.12324055 0.22069634
-0.03472049 -0.0060526687 0.0034866692 0.03251157 -0.093414865 0.08020122 -0.083091214 0.045695044
0.018891478 0.015194517 -0.0048970426 0.041953254 0.07560368 0.007467342 0.043238234 -0.091996126
0.054300327 -0.02407352 0.09775549 -0.020636527 0.0783058 -0.047845818 -0.0012525267 0.13909511
0.052949127 0.04336214 0.0695448 0.029168332 0.03319082 -0.09565807 0.09080488 0.027903857
-0.007072849 -0.055529222 0.09767518 0.027997551 0.02593143 -0.021875612 0.037435286 -0.03803072
-0.1428299 0.107532315 -0.039259143 0.054083075 0.14073278 -0.066009335 0.07262415 0.05982918
0.08877989 0.036334384 -0.12768857 0.021802101 -0.086086705 -0.03987668 0.13670184 0.061357927
0.092665985 -0.0021318365 -0.03571375 -0.05223528 -0.031853214 0.13683817 -0.013262249 0.004317103
00000000: 40af babe 127e ceba 194b 39be a919 c53e
00000010: 54bd b0be bfe9 e4bd cdf8 37be 4bea 893e
00000020: a327 f43e aa38 6b3e 2473 cabd a3ac 28be
00000030: 8915 643d 1f45 abbe 306a 2d3e 796d d7bd
00000040: 839e a4be 3c07 0fbe 5148 c4bc 9a3f 81bd
00000050: 95e2 3f3e 26d3 f0bd 436f 01be 3812 be3d
00000060: 97dd 91bd af50 ae3c 0494 b4bd d120 703e
00000070: d1e8 8abe 3610 953e f0c0 6fbd 4d8c 083d
00000080: 0d2a 73be 6081 c73c 5a0d e73b 4e4a 33be
00000090: f136 72be 8c2f bebd a075 7fbe 77a6 e43d
000000a0: 5124 97bd ae8f e5bd af79 723e 1fbf 16be
000000b0: 2cc3 8d3d bd47 7a3e 59a3 02be 2778 febd
000000c0: 9f74 8cbe 5d49 0f3e 78ea 433e 4ef8 263e
000000d0: e049 443e 13a3 fd3d 19f1 63be ca3f 1f3e
000000e0: 0232 a93e dd4b 243e 973e 18bc eb57 a3bd
000000f0: 158e b43e 317b 0b3d a0fe 543e fb97 ba3d
00000100: 322d fe3d e1eb 12bd 396c 02be fc3d 82bb
00000110: b7ea 6c3c a796 2e3d cffc 803d 9e28 77bb
00000120: df29 49bd 61a7 143e c649 4cbe af30 d53d
00000130: ee05 473b 649d 83be b0fe e4bd 401f d1bd
00000140: 6c51 1ebe 7013 853d 9a7e 4abe a2df 5c3e
00000150: 0df6 eb3d b9da 453d f7c1 b73d 8237 4f3c
00000160: 6618 cdbd 7fbc e93d 431c 853d 2f24 da3e
00000170: 6a61 79bd a10b 8cbd b4f0 0cbe e927 88bc
00000180: 69db fcbd aad1 2cbd fa80 64bd a1f7 a9bd
00000190: 6382 8d3d 9efe 93bd ac7f da3d ae00 893d
000001a0: e0cb 45bd cc99 663d 4e6b 953e e677 0cbe
000001b0: 7be9 a9bd 14d2 65bd 467f 38bc b5b2 d6bd
000001c0: b124 6ebe ecfb 0a3e d535 a53d 03d1 3abd
000001d0: 3c59 a9bc 321d c3bd f83e e23d 8372 8f3e
000001e0: 097b bdbc 2593 273c cc9a e13d 8e20 01be
000001f0: 3ac9 afb9 7b6d e63c 08e2 d03d af5a fc3d
00000200: 881a 0cbe 1713 a8bc 3422 b5bd fee4 bd3c
00000210: 95c2 0dbe d5cf 353b 5db5 233d 01c7 c83d
00000220: b918 ec3d 8916 233e f67b a7bc b553 15be
00000230: 5551 fcbd 2aad 86bc a72e c8bc 0ee4 d4bc
00000240: 7ff9 9c3d 3f6e d3bd 3df3 61bc 58ef b43c
00000250: 8f97 d83d 5eaf 803c e5bf bdbc 3dce 2b3a
00000260: 1d9c 4a3e 9bb1 203e 919a e5bb e49d 95bd
00000270: af97 10bd 5856 a13d 98a3 65bb 91bb e43c
00000280: dca0 86bc c356 a93d 0092 363c b665 1abe
00000290: 84b7 3fbd f663 ad3d 3dec 5b3d 4112 3a3d
000002a0: 3ecd 003e 4b70 aebc 05ef cc3d 7d71 b6bd
000002b0: 5370 cabd 6688 1b3e 3df7 dc3d 8175 03bd
000002c0: 950e 07be 5d51 ad3c 1e1a a33d 5f9d 7f3d
000002d0: ea09 f33d 070f 773c eaa9 9abd 4f2a ee3d
000002e0: 8811 5dbd 423c 2d3c 71af bd3c 166f 783a
000002f0: 37c3 3b3a 5442 3fbc 8b65 fc3d 39fe 613e
00000300: 1337 0ebd 7755 c6bb 9a80 643b da2a 053d
00000310: 4b50 bfbd 8a40 a43d ba2b aabd ba2a 3b3d
00000320: 4dc2 9a3c 6cf2 783c 5f77 a0bb 2dd7 2b3d
00000330: 1ad6 9a3d 9bb0 f43b 931a 313d 7768 bcbd
00000340: 056a 5e3d d535 c5bc 0834 c83d ef0d a9bc
00000350: cb5e a03d faf9 43bd d22b a4ba f36e 0e3e
00000360: 2fe1 583d 809c 313d 816d 8e3d 6df2 ee3c
00000370: 19f3 073d 61e8 c3bd e9f7 b93d a196 e43c
00000380: 5cc3 e7bb 9c72 63bd ed09 c83d 1f5b e53c
00000390: 266e d43c 7c34 b3bc be55 193d 1ac6 1bbd
000003a0: 0042 12be e739 dc3d 32ce 20bd 3786 5d3d
000003b0: 411c 103e e72f 87bd f8bb 943d 710f 753d
000003c0: 3bd2 b53d 5dd3 143d cbc0 02be 529a b23c
000003d0: 3a4e b0bd bb55 23bd 91fb 0b3e 7352 7b3d
000003e0: aac7 bd3d 48b6 0bbb 9548 12bd a9f4 55bd
000003f0: 8478 02bd 4e1f 0c3e e749 59bc 7c76 8d3b

trial_output.0.bias f4 [64]
-0.04045822 0.059016496 0.11426816 0.07444258 0.06473877 0.15123439 0.025229424 -0.048486065
0.044516645 0.0930588 0.10264108 0.04253218 0.056381933 0.017252518 -0.013651094 -0.0054763993
-0.14649358 0.0014134975 -0.05815251 -0.1477845 -0.06784261 0.005518154 -0.06480599 -0.06659475
0.05022843 0.023650695 -0.096715696 0.03638463 -0.050674107 -0.10103737 -0.00084326766 -0.07622538
-0.026965866 -0.014022778 -0.14429656 -0.033421535 0.09945292 0.12781039 0.030201962 0.10060563
0.012749554 0.08982342 0.073648185 -0.0015024762 0.09110663 -0.19819827 0.004073549 -0.042143576
-0.06271461 0.09875018 0.064903826 0.036803078 0.14317325 -0.011710237 -0.02799273 0.12403545
-0.04911742 -0.08468093 0.027116299 0.055372175 -0.029035065 0.036594775 -0.12475839 0.062080983
00000000: 85b7 25bd 48bb 713d 6d05 ea3d 5a75 983d
00000010: c395 843d 30dd 1a3e f0ad ce3c 5399 46bd
00000020: 1657 363d 9d95 be3d 7d35 d23d 3936 2e3d
00000030: bef0 663d 2755 8d3c d7a8 5fbc 5e73 b3bb
00000040: 6a02 16be 1b45 b93a 5431 6ebd d254 17be
00000050: 11f1 8abd a1d1 b43b 01b9 84bd d462 88bd
00000060: 54bc 4d3d 1abf c13c e112 c6bd 0d08 153d
00000070: a78f 4fbd aeec cebd bc0e 5dba 0d1c 9cbd
00000080: 85e7 dcbc cbbf 65bc 7ac2 13be 05e5 08bd
00000090: f9ad cb3d bae0 023e 1b6a f73c 530a ce3d
000000a0: 81e3 503c 57f5 b73d dcd4 963d bcee c4ba
000000b0: 1d96 ba3d 7df4 4abe 687b 853b be9e 2cbd
000000c0: 8470 80bd 893d ca3d 4cec 843d d3be 163d
000000d0: 029c 123e 4bdc 3fbc 0251 e5bc 4c06 fe3d
000000e0: 592f 49bd 326d adbd 0023 de3c efcd 623d
000000f0: f2da edbc 67e4 153d 5481 ffbd a148 7e3d

trial_output.2.weight f4 [3, 64]
0.30475637 -0.12920898 0.074588895 -0.06351551 0.16282661 0.123785995 0.065347545 -0.038613766
0.16250224 0.028772738 0.27739275 0.037619527 -0.06554269 -0.2795462 -0.10972139 0.15891394
0.047120538 0.21819556 -0.5425979 0.2606696 -0.26786697 -0.045196015 -1.2481606 0.80322117
-0.20856482 0.007910308 0.04926676 0.08314999 -0.06612336 0.065897815 0.16465262 -0.11676275
0.06843025 -0.033945408 -0.060714472 0.35921198 -0.062183253 -0.022468846 0.025982581 -0.04616239
-0.106648766 0.09432176 0.06774682 0.08498772 0.105043225 -0.10472531 -0.022437759 -0.08552286
0.10858827 -0.19253688 -0.08307232 0.36366323 -0.023094097 -0.08805391 0.0010746458 0.04636999
0.62313795 -0.03676557 0.5475839 0.1120851 0.110831454 0.038783696 -0.04151313 0.32642177
-0.59386873 -0.16056693 0.05189952 -0.14982946 -0.15663995 -0.058764808 -0.15610854 0.009130614
-0.006496634 -0.015478035 -0.031506147 -0.12796535 0.049815595 0.18532036 0.06723807 -0.15578179
-0.019527296 -0.30492955 0.19303665 -0.0121516995 0.05372825 -0.039766725 0.7065849 -1.0711459
0.902872 0.0692189 0.09032076 0.10360397 -0.11926912 0.595134 -0.0102679655 -0.694503
0.02691262 -0.027170928 -0.007860076 -0.53848255 -0.14791827 -0.03635142 0.08253273 -0.054856926
0.016318023 0.022662325 -0.018202642 0.016172912 -0.19303755 0.5106985 0.047378246 0.088609055
0.2612406 0.049651388 0.0893735 -1.1861349 -0.14521904 0.05906849 -0.052633736 -0.09052421
-0.25916794 -0.063581854 -0.5859073 -0.091279246 -0.14355227 -0.17663497 0.10596616 0.13136251
0.13537364 0.31472862 -0.14327013 0.052488286 0.09906502 -0.13767031 -0.012829447 0.06694268
-0.16104013 -0.14062501 -0.2780269 -0.026706548 0.011017098 0.2508445 -0.11031486 -0.051124953
0.09114793 0.09435295 0.95990026 -0.43335804 0.26433328 0.0028245102 0.7361108 -0.26939937
-0.4379805 -0.048469704 0.036962103 -0.16020304 -0.04826884 -0.634628 -0.08015937 0.4549394
0.1396574 -0.09159826 -0.020915896 -0.4330147 0.035959594 -0.17655987 0.001309356 -0.009178837
-0.11234235 -0.029823132 -0.074123025 -0.09653115 0.15147768 -0.3558754 0.18720359 -0.0757489
-0.4600013 0.2916845 -0.075465135 0.15240133 -0.109645225 0.027545843 0.09160471 -0.008962873
-0.7056484 -0.0607367 -0.10694061 -0.06646473 0.03800452 0.0710261 -0.0033723684 -0.4720119
00000000: 0709 9c3e 5c4f 04be 10c2 983d 6b14 82bd
00000010: 05bc 263e 8383 fd3d efd4 853d 7829 1ebd
00000020: fd66 263e ceb4 eb3c 6c06 8e3e ef16 1a3d
00000030: 3f3b 86bd ae20 8fbe 9cb5 e0bd 56ba 223e
00000040: 7701 413d a86e 5f3e b2e7 0abf 7c76 853e
00000050: dc25 89be 751f 39bd bac3 9fbf e79f 4d3f
00000060: 0492 55be 3d9a 013c f1cb 493d 8b4a aa3d
00000070: af6b 87bd 6ff5 863d b29a 283e 4f21 efbd
00000080: 2925 8c3d 570a 0bbd bdaf 78bd a2ea b73e
00000090: deb3 7ebd 9610 b8bc 6cd9 d43c c614 3dbd
000000a0: ab6a dabd c42b c13d d8be 8a3d 0b0e ae3d
000000b0: e720 d73d 397a d6bd 64cf b7bc 9c26 afbd
000000c0: 8763 de3d 6328 45be d221 aabd 1132 ba3e
000000d0: d52f bdbc 9c55 b4bd 21db 8c3a 75ee 3d3d
000000e0: f885 1f3f 7f97 16bd 752e 0c3f df8c e53d
000000f0: 9afb e23d a7db 1e3d ac09 2abd c120 a73e
00000100: c807 18bf a86b 24be 9794 543d e56c 19be
00000110: 3966 20be 5eb3 70bd ebda 1fbe 9298 153c
00000120: b7e1 d4bb 9697 7dbc 970c 01bd 5909 03be
00000130: 700b 4c3d 9fc4 3d3e 1db4 893d 4385 1fbe
00000140: b5f7 9fbc ba1f 9cbe 66ab 453e ec17 47bc
00000150: 2712 5c3d 6fe2 22bd bfe2 343f 4f1b 89bf
00000160: 9f22 673f a3c2 8d3d 17fa b83d 512e d43d
00000170: 5e43 f4bd b45a 183f f83a 28bc f3ca 31bf
00000180: db77 dc3c 9195 debc 8cc7 00bc fed9 09bf
00000190: e377 17be 3ae5 14bd ec06 a93d a8b1 60bd
000001a0: 60ad 853c 57a6 b93c b51d 95bc 0e7d 843c
000001b0: a3ab 45be 23bd 023f b10f 423d aa78 b53d
000001c0: 54c1 853e 415f 4b3d 7409 b73d 45d3 97bf
000001d0: 4db4 14be cdf1 713d 7996 57bd c264 b9bd
000001e0: a9b1 84be 3437 82bd 05fe 15bf 9df0 babd
000001f0: 5eff 12be ccdf 34be c904 d93d e583 063e
00000200: 639f 0a3e 1c24 a13e 68b5 12be f5fd 563d
00000210: 9ae2 ca3d 72f9 0cbe 9a32 52bc 3e19 893d
00000220: b4e7 24be 0100 10be 8b59 8ebe b1c7 dabc
00000230: 0f81 343c b16e 803e c2ec e1bd 6668 51bd
00000240: c4ab ba3d 1f3c c13d 06bc 753f 1be1 ddbe
00000250: b156 873e 6b1b 393b c271 3c3f b7ee 89be
00000260: fb3e e0be 2b88 46bd 9365 173d 440c 24be
00000270: 8cb5 45bd fb76 22bf 992a a4bd d1ed e83e
00000280: 5902 0f3e de97 bbbd d057 abbc 1ab4 ddbe
00000290: 5e4a 133d 1ccc 34be b29e ab3a d562 16bc
000002a0: bf13 e6bd a44f f4bc d0cd 97bd 20b2 c5bd
000002b0: f71c 1b3e 4d35 b6be 4cb2 3f3e 3d22 9bbd
000002c0: 4a85 ebbe ac57 953e 778d 9abd 180f 1c3e
000002d0: ad8d e0bd d2a7 e13c 409b bb3d 04d9 12bc
000002e0: 60a5 34bf 0cc7 78bd ae03 dbbd a91e 88bd
000002f0: a1aa 1b3d 2276 913d f402 5dbb 8bab f1be

trial_output.2.bias f4 [3]
0.018192567 -0.019858722 -0.035979062
00000000: 9408 953c c2ae a2bc c85e 13bd

rnn.weight_ih_l0 f4 [192, 4]
-0.043334138 -0.23736168 0.26656514 0.28043944 -0.04151436 -0.77438676 -0.51374286 -0.25908986
0.059346694 -0.0012475741 -0.063557394 0.18536176 -0.070043124 0.24555247 -0.1601356 -0.08061193
-0.017435761 0.16800633 0.070932604 0.055146772 0.036179636 -0.22639026 -0.020900225 0.13349366
-0.041070282 0.18283294 -0.09053776 -0.013442926 0.15324315 0.3171913 0.053520583 0.1289889
-0.17672712 0.13803434 -0.018468942 0.16185284 0.097031996 0.21112593 0.25239882 0.3025881
-0.16364339 0.0951641 -0.013266433 0.030862622 -0.09816193 0.1937456 0.12605622 0.26195776
0.1318042 0.07652699 0.1908171 0.023258895 -0.100385025 -0.30631414 0.037623435 0.085355155
-0.33110315 -0.19660774 0.019670675 -0.041569036 0.058990642 0.15907463 0.21783496 0.121566765
0.013563598 -0.008527825 0.068779394 0.05862758 0.14552712 -0.19529909 -0.12350624 0.18033315
-0.03507381 0.03314629 0.03418247 0.022341378 0.25289494 0.14150044 0.0022830046 0.09896407
0.04867093 -0.0008651343 0.23831873 0.21861862 0.085490115 0.04576826 0.07649472 0.0083044
0.09890902 0.49591097 0.26655528 0.43663725 -0.62882334 -0.044235528 -0.39700618 -0.3186491
0.4979573 -0.46162504 1.0593038 -0.06558211 -0.17456508 -0.07843807 0.032980777 0.30692232
0.061793886 0.11692365 0.33447453 -0.01813763 0.23741557 -0.26873615 -0.20129465 -0.04891142
0.102478825 0.3586653 -0.13602334 0.1336184 0.13512416 0.09358772 0.14438695 0.28378883
0.48696306 0.018107286 -0.12801549 0.12988548 -0.058796935 0.4712747 0.07950912 -0.1462274
0.20333752 0.0928951 0.20544216 0.07736382 0.08622968 0.07218933 0.047843724 0.08096723
-0.12144321 -0.68302375 -0.43762484 -0.46874148 -0.03860842 0.22267145 0.14196709 0.26381606
0.006353113 0.20381731 0.016530469 -0.073646 0.0912576 -0.13961013 -0.034043573 0.0264871
0.10077477 0.66937125 0.45293912 0.056397274 -0.009590503 0.3031126 0.1640511 0.23288268
0.049220014 -0.25448668 0.13581523 0.12111282 0.040220387 0.21663897 0.0715705 0.18967226
-0.25936776 -0.61223483 -0.49184233 -0.14687377 0.07643929 0.1642114 0.29184064 0.17920722
-0.040979728 0.0207644 0.1823615 0.3166562 0.05289989 0.014535707 0.042466734 0.26218185
-0.1351736 0.033674974 0.057000898 0.04309108 -0.038794734 -0.19256432 0.25879347 -0.044234376
-0.00047084372 0.1948945 0.11857549 0.08895896 -0.024265734 0.44035667 0.40693307 0.26095203
0.005817909 0.013319029 0.028175358 0.022044666 -0.031031845 0.050346598 0.034810603 0.017815968
0.11702906 0.20998515 0.10660408 0.18596664 0.14763126 0.31957924 0.3364748 0.08896597
0.14917828 0.22126728 0.0730922 0.26623505 0.27319053 -0.0187629 -0.116003916 0.117804535
-0.22628306 -0.66123015 -0.011891137 -0.32321486 0.21166159 -0.4656846 -0.037020374 0.08263331
-0.14406227 0.19056451 0.0036036181 0.21435311 0.08078588 -0.008250085 0.061164357 0.0036632104
0.097392395 0.15919761 0.22120981 0.19589752 0.07527422 -0.09731802 -0.10635094 0.20641586
0.028640237 0.12744154 0.21090627 0.056186464 0.06582169 0.42312086 0.08363872 0.29010105
00000000: 237f 31bd f10e 73be 3a7b 883e c295 8f3e
00000010: f60a 2abd 363e 46bf a784 03bf 6da7 84be
00000020: 8515 733d a485 a3ba 612a 82bd 79cf 3d3e
00000030: c572 8fbd 1b72 7b3e 96fa 23be de17 a5bd
00000040: 71d5 8ebc da09 2c3e 1d45 913d 95e1 613d
00000050: 1931 143d d9d2 67be f336 abbc 90b2 083e
00000060: 5039 28bd 8f38 3b3e dc6b b9bd b83f 5cbc
00000070: c6eb 1c3e e666 a23e 6638 5b3d ab15 043e
00000080: f4f7 34be e058 0d3e 2e4c 97bc c0bc 253e
00000090: b6b8 c63d 6531 583e 6b3a 813e d4ec 9a3e
000000a0: 2292 27be 65e5 c23d 745b 59bc 9cd3 fc3c
000000b0: 1f09 c9bd 3f65 463e e214 013e 541f 863e
000000c0: aef7 063e 2fba 9c3d 8f65 433e 7089 be3c
000000d0: aa96 cdbd 35d5 9cbe 081b 1a3d afce ae3d
000000e0: 5a86 a9be 8a53 49be 6524 a13c 4b44 2abd
000000f0: 2ca0 713d 76e4 223e 2110 5f3e fff7 f83d
00000100: da39 5e3c 4ab8 0bbc 36dc 8c3d 7923 703d
00000110: 1005 153e 7cfc 47be d7f0 fcbd 41a9 383e
00000120: 8ea9 0fbd 67c4 073d eb02 0c3d 4405 b73c
00000130: 727b 813e 7ee5 103e 769e 153b adad ca3d
00000140: 2b5b 473d 2eca 62ba d309 743e 8fdd 5f3e
00000150: 7115 af3d 8077 3b3d 44a9 9c3d 2e0f 083c
00000160: d090 ca3d 0be8 fd3e ef79 883e eb8e df3e
00000170: 91fa 20bf 5030 35bd 6544 cbbe fa25 a3be
00000180: 42f4 fe3e 1e5a ecbe 4497 873f ea4f 86bd
00000190: 30c1 32be 24a4 a0bd da16 073d ec24 9d3e
000001a0: 961b 7d3d ab75 ef3d 3f40 ab3e 5e95 94bc
000001b0: 111d 733e c997 89be 2f20 4ebe 5757 48bd
000001c0: 6be0 d13d faa2 b73e b449 0bbe 43d3 083e
000001d0: fd5d 0a3e ebaa bf3d 2cda 133e c54c 913e
000001e0: 3953 f93e bb55 943c 7e16 03be b300 053e
000001f0: 0ed5 70bd eb4a f13e add5 a23d a3bc 15be
00000200: b637 503e c93f be3d 6e5f 523e ec70 9e3d
00000210: 3099 b03d 00d8 933d c8f7 433d 26d2 a53d
00000220: 38b7 f8bd a5da 2ebf 5d10 e0be e2fe efbe
00000230: dd23 1ebd fc03 643e d25f 113e e612 873e
00000240: c62d d03b 7cb5 503e e86a 873c b7d3 96bd
00000250: 44e5 ba3d f5f5 0ebe 4671 0bbd 7afb d83c
00000260: 0163 ce3d ea5b 2b3f a3e7 e73e d400 673d
00000270: 7c21 1dbc 9331 9b3e 03fd 273e cc78 6e3e
00000280: ed9a 493d 144c 82be 2613 0b3e 000a f83d
00000290: 22be 243d 9bd6 5d3e 8e93 923d 7239 423e
000002a0: dacb 84be 6cbb 1cbf c2d2 fbbe 1466 16be
000002b0: 348c 9c3d 0927 283e 236c 953e 1982 373e
000002c0: 5cda 27bd 1a1a aa3c f9bc 3a3e c320 a23e
000002d0: 8ead 583d 2d27 6e3c 99f1 2d3d b33c 863e
000002e0: f36a 0abe c5ee 093d c679 693d 4680 303d
000002f0: 3ae7 1ebd 952f 45be 9480 843e 1b2f 35bd
00000300: 93db f6b9 6c92 473e b5d7 f23d 1d30 b63d
00000310: efc8 c6bc 6e76 e13e 8859 d03e 819b 853e
00000320: 28a4 be3b 0e38 5a3c 02d0 e63c 0497 b43c
00000330: 7f36 febc 3c38 4e3d 9095 0e3d cbf2 913c
00000340: efac ef3d 5906 573e 3d53 da3d 0a6e 3e3e
00000350: a62c 173e e49f a33e 6d46 ac3e ca33 b63d
00000360: 31c2 183e e493 623e 5db1 953d f64f 883e
00000370: a1df 8b3e a7b4 99bc 7693 edbd 8143 f13d
00000380: bfb6 67be 6146 29bf 0bd3 42bc 6b7c a5be
00000390: d1bd 583e 366e eebe ada2 17bd a73b a93d
000003a0: 0f85 13be 5823 433e ae2a 6c3b 627f 5b3e
000003b0: 1173 a53d 5d2b 07bc 7a87 7a3d 7912 703b
000003c0: aa75 c73d b304 233e d384 623e 5c99 483e
000003d0: 5f29 9a3d ac4e c7bd 86ce d9bd ae5e 533e
000003e0: ee9e ea3c 0980 023e d0f7 573e c723 663d
000003f0: 86cd 863d 4ca3 d83e c74a ab3d 2088 943e

rnn.weight_hh_l0 f4 [192, 64]
0.040726516 -0.24208061 0.06965884 0.08786167 0.00041479984 -0.011239751 0.048801955 -0.10192155
-0.12304859 -0.16789015 0.07282596 0.09850646 0.075102285 0.3171289 -0.34030873 -0.02743675
0.19445916 -0.065211594 -0.076213814 -0.1492346 -0.044348765 0.10061572 0.19727693 -0.28011453
0.2516975 0.024484297 0.16356643 -0.13676633 0.07416556 -0.16786793 -0.16820619 -0.017146574
0.2129233 0.057976067 -0.19685864 -0.0326996 0.017529402 0.024782347 -0.13384645 0.018016018
0.06621118 0.034077942 0.05442231 0.16375169 0.14290996 0.020158984 0.18011512 -0.02529337
0.23214023 -0.027868913 -0.2234891 0.046146683 0.023661667 -0.16822992 0.09112838 0.02748685
-0.09338859 -0.09039659 -0.045455664 0.05615609 0.014599936 0.027122088 0.015153879 -0.04305808
-0.02010658 -0.20137152 -0.018516 0.06335775 0.13408458 -0.113806315 -0.04373338 -0.12106832
-0.13545501 -0.10161878 -0.022781596 0.16144581 -0.11134224 -0.0031466049 -0.17865588 0.0018413501
0.024239503 0.032982536 -0.050312176 -0.07714062 0.03725262 -0.033939175 0.23665963 -0.2420273
-0.017768959 -0.09894854 -0.04770111 -0.2978058 0.13189204 0.035581067 -0.17893197 0.39982945
0.062189724 0.044132724 -0.2786297 0.005086499 -0.0861731 -0.06706379 -0.15223785 -0.13920692
-0.019114492 0.14652033 -0.26203924 0.18069893 -0.060687914 0.05805529 0.17357498 -0.11678931
0.22953863 -0.22412333 -0.08495726 0.07212269 -0.105028436 0.029440071 0.0763322 -0.12294292
-0.051942527 -0.048103582 -0.053536244 0.14427517 -0.03582049 -0.038058016 0.055590518 -0.10896778
-0.1256348 0.15514706 -0.058778718 0.011504512 -0.06863187 -0.092829406 -0.0976886 0.039519716
-0.0064964606 -0.04472711 -0.002989988 -0.09903524 -0.015749592 0.02198456 0.19601798 -0.10356488
-0.012947788 -0.09574052 -0.08844136 -0.014359823 0.12390291 -0.108496785 -0.17831632 -0.07673301
0.09925659 0.109920524 0.046009257 -0.10799814 0.028629558 -0.010668947 -0.03031111 0.028457975
-0.00812521 -0.046460833 0.16634165 -0.030116001 -0.05992511 -0.109768175 -0.006160342 -0.024567865
0.15500247 -0.08170991 0.06406578 -0.09954771 -0.0056249443 -0.046413846 0.07175713 0.025654623
-0.0029905722 0.14581633 -0.123060875 0.025665121 -0.020708729 0.07538548 -0.10949493 -0.07690059
-0.019201115 0.061646722 0.010211668 -0.057200573 0.065670416 -0.12799728 0.06796052 0.20741057
0.04587668 -0.15601358 -0.08639214 -0.035137177 -0.057962295 -0.056340665 -0.02746089 -0.18666124
-0.2545808 -0.05754189 0.19079787 0.18961066 0.0122453775 0.16076072 -0.34039658 -0.049461935
0.120656654 -0.049352754 0.005357437 -0.05820502 -0.17176358 0.08071467 -0.01576616 -0.1812931
0.21581589 -0.07010017 0.08172378 -0.21500874 -0.02390069 -0.06380883 0.20730421 0.119319275
0.19968447 0.053240895 -0.24410497 0.10732056 0.07906047 0.032932937 0.2714937 -0.03336265
0.21677987 -0.06442514 -0.06339308 0.12654735 0.029106937 -0.13236271 0.050782055 0.07781375
0.09487498 -0.1480672 -0.20480263 0.055340286 -0.152418 -0.20801431 0.011199034 -0.2320078
-0.43602538 -0.12966032 0.004355054 0.07153107 -0.11707382 0.10599285 -0.053308252 0.022659846
00000000: d9d0 263d fbe3 77be 4ba9 8e3d d2f0 b33d
00000010: 7e79 d939 ef26 38bc 8fe4 473d 3fbc d0bd
00000020: e600 fcbd 65eb 2bbe c725 953d c1bd c93d
00000030: 3acf 993d b85e a23e f23c aebe 09c3 e0bc
00000040: 4d20 473e a88d 85bd fd15 9cbd f4d0 18be
00000050: 0da7 35bd 9d0f ce3d f702 4a3e 2c6b 8fbe
00000060: 7fde 803e 4b93 c83c f57d 273e 790c 0cbe
00000070: 1de4 973d 92e5 2bbe 3e3e 2cbe f976 8cbc
00000080: 9108 5a3e 5078 6d3d 5095 49be 04f0 05bd
00000090: d299 8f3c 5904 cb3c 0b0f 09be 5496 933c
000000a0: ba99 873d 5095 0b3d eee9 5e3d 86ae 273e
000000b0: fd56 123e 7424 a53c 1970 383e 0b34 cfbc
000000c0: 2bb6 6d3e 594d e4bc 54da 64be 4e04 3d3d
000000d0: 1dd6 c13c 7744 2cbe 84a1 ba3d 1a2c e13c
000000e0: 8442 bfbd d921 b9bd b82f 3abd ee03 663d
000000f0: 9234 6f3c 242f de3c fa47 783c ab5d 30bd
00000100: 8eb6 a4bc 5634 4ebe deae 97bc b5c1 813d
00000110: 784d 093e 4913 e9bd c621 33bd abf2 f7bd
00000120: b8b4 0abe 821d d0bd 78a0 babc 0d52 253e
00000130: 6607 e4bd 4537 4ebb 91f1 36be 7559 f13a
00000140: ec91 c63c b218 073d 2414 4ebd e7fb 9dbd
00000150: 3496 183d ce03 0bbd e756 723e 01d6 77be
00000160: 3590 91bc 88a5 cabd 3d62 43bd 007a 98be
00000170: b50e 073e 74bd 113d f139 37be 72b6 cc3e
00000180: a7ba 7e3d 84c4 343d 8da8 8ebe a5ac a63b
00000190: 867b b0bd be58 89bd 3de4 1bbe 428c 0ebe
000001a0: ff95 9cbc 6d09 163e 022a 86be 2409 393e
000001b0: e493 78bd 62cb 6d3d a4bd 313e 3c2f efbd
000001c0: 2d0c 6b3e 9680 65be 12fe adbd 10b5 933d
000001d0: 2619 d7bd 4e2c f13c 0e54 9c3d 7fc9 fbbd
000001e0: b0c1 54bd 4308 45bd d248 5bbd dfbc 133e
000001f0: 82b8 12bd b9e2 1bbd e2b2 633d 802a dfbd
00000200: 69a6 00be dfde 1e3e f4c1 70bd 6c7d 3c3c
00000210: de8e 8cbd 581d bebd f610 c8bd 6ddf 213d
00000220: 43e0 d4bb c633 37bd adf3 43bb fdd2 cabd
00000230: 4a05 81bc f718 b43c f0b8 483e d319 d4bd
00000240: f622 54bc 9b13 c4bd be20 b5bd 7745 6bbc
00000250: cfc0 fd3d 9033 debd 8e98 36be 3226 9dbd
00000260: 0a47 cb3d 031e e13d 3474 3c3d 212e ddbd
00000270: 8988 ea3c cfcc 2ebc 014f f8bc b320 e93c
00000280: 9a1f 05bc b74d 3ebd 7755 2a3e d5b5 f6bc
00000290: 0874 75bd 23ce e0bd b2dc c9bb 8c42 c9bc
000002a0: f8b8 1e3e 8657 a7bd eb34 833d abdf cbbd
000002b0: 7451 b8bb 721c 3ebd 67f5 923d a529 d23c
000002c0: 7afd 43bb e050 153e 5707 fcbd a93f d23c
000002d0: 5aa5 a9bc b463 9a3d e13e e0bd 0e7e 9dbd
000002e0: a84b 9dbc 4681 7c3d d74e 273c 264b 6abd
000002f0: 367e 863d b811 03be e32e 8b3d 7063 543e
00000300: 30e9 3b3d 06c2 1fbe 5dee b0bd 00ec 0fbd
00000310: df69 6dbd 78c5 66bd a9f5 e0bc 2024 3fbe
00000320: 6a58 82be 0bb1 6bbd 8460 433e 4c29 423e
00000330: d6a0 483c 759e 243e 7648 aebe 9998 4abd
00000340: d61a f73d 1d26 4abd 708d af3b 6368 6ebd
00000350: cbe2 2fbe bc4d a53d 0928 81bc e6a4 39be
00000360: d7fe 5c3e ae90 8fbd cc5e a73d 402b 5cbe
00000370: 61cb c3bc 34ae 82bd 8e47 543e aa5d f43d
00000380: 167a 4c3e 2013 5a3d a7f6 79be e2ca db3d
00000390: 75ea a13d b0e4 063d 3901 8b3e 46a7 08bd
000003a0: 8bfb 5d3e 54f1 83bd 3bd4 81bd a195 013e
000003b0: ac71 ee3c 178a 07be d800 503d d15c 9f3d
000003c0: d04d c23d ee9e 17be c8b7 51be 7fac 623d
000003d0: 7713 1cbe b401 55be 277c 373c 7493 6dbe
000003e0: b83e dfbe adc5 04be d7b4 8e3b e27e 923d
000003f0: 66c4 efbd c812 d93d c159 5abd 24a1 b93c

rnn.bias_ih_l0 f4 [192]
-0.019419441 -0.09593147 0.05093157 -0.10136163 -0.08167409 -0.033536673 0.10476396 0.06392926
0.012244948 0.052186716 -0.027136954 0.15363891 0.12039069 0.17598599 0.25861156 0.0009703494
-0.0045410497 0.058042735 -0.07582632 -0.031963494 0.023939021 0.09653199 -0.006864539 0.1840236
0.03711892 0.010615472 0.07521722 0.019362675 -0.04904305 -0.13681206 0.14201859 -0.008280285
0.06328659 -0.06089168 -0.02126128 0.06225062 0.17861995 -0.0090765655 0.013092218 0.07683708
0.13367248 -0.13689849 -0.07661988 -0.053324673 -0.08280413 -0.06728467 0.24340379 -0.039364643
0.032010805 0.12088382 0.046070278 -0.13869447 -0.12099783 -0.021660091 -0.022066329 0.120695665
0.065004915 0.090820305 0.10948136 0.0032849708 -0.044695303 0.1394619 0.21623933 0.12304161
-0.31951976 -0.41868317 -0.1780658 -0.28515506 -0.3376946 -0.13281195 -0.1263523 -0.45423707
0.032981083 -0.0113183195 -0.075865716 -0.18481296 0.1073205 -0.2035749 -0.18228361 -0.3054325
-0.20337173 -0.26680782 -0.20140931 -0.16881043 -0.17561255 0.11090001 -0.3938093 -0.37168038
-0.1295399 -0.14238764 -0.110923305 -0.07562413 -0.20188147 -0.05131017 -0.18905927 -0.23773928
-0.24873652 -0.34038374 -0.1590574 -0.12786488 -0.2729975 0.069626436 -0.08319025 -0.056237202
0.13808592 -0.006620116 -0.27926296 -0.08923094 -0.35577583 -0.16239554 -0.3802704 -0.07220608
-0.26887515 -0.18958628 -0.31224295 -0.19219014 -0.24489662 -0.13478386 -0.036993224 -0.08769128
-0.20025599 -0.09027914 -0.060347904 -0.12848839 -0.20274946 -0.067910425 -0.14839244 -0.33848363
-0.069345236 -0.09299764 -0.12740214 0.1104904 -0.07730352 0.08159243 -0.11890751 0.08929706
0.13146591 0.09946851 -0.033623163 -0.06891801 -0.14697313 0.08456565 -0.091650434 -0.04894157
0.08148887 -0.080081664 -0.0770688 -0.034867648 0.11506862 -0.14962097 -0.01492164 -0.034767836
0.0479097 -0.08825344 -0.11065862 -0.03082773 -0.12675042 -0.0148973605 0.10075517 -0.007219268
-0.022337953 -0.13963857 0.12273925 -0.06884474 -0.11165379 -0.04393949 0.049759593 -0.011722185
0.047886778 -0.110550284 0.13057779 0.022266455 0.024067834 0.1451357 0.015089932 -0.014087292
-0.14428802 -0.0013628817 0.14413482 0.14855374 0.08553767 0.11381881 -0.055532202 -0.022564603
0.04081279 -0.069694564 0.09757522 0.10583856 0.095697 -0.09214761 0.12100656 -0.033297706
00000000: 8515 9fbc b877 c4bd 9f9d 503d b096 cfbd
00000010: bf44 a7bd c05d 09bd 7d8e d63d 58ed 823d
00000020: 099f 483c bdc1 553d 514e debc 8553 1d3e
00000030: 658f f63d ac35 343e bc68 843e 0c5f 7e3a
00000040: 16cd 94bb 38be 6d3d d44a 9bbd 27ec 02bd
00000050: c41b c43c 90b2 c53d edef e0bb af70 3c3e
00000060: 020a 183d 84ec 2d3c 7c0b 9a3d 799e 9e3c
00000070: 5de1 48bd 7618 0cbe 526d 113e 08aa 07bc
00000080: 669c 813d 8e69 79bd 232c aebc 82fa 7e3d
00000090: 26e8 363e e0b5 14bc be80 563c c25c 9d3d
000000a0: 70e1 083e 1e2f 0cbe e2ea 9cbd f96a 5abd
000000b0: 3695 a9bd 8ccc 89bd d83e 793e d23c 21bd
000000c0: c31d 033d f091 f73d 30b4 3c3d ec05 0ebe
000000d0: b6cd f7bd 8170 b1bc 72c4 b4bc 4a2f f73d
000000e0: 4c21 853d ffff b93d c337 e03d aa48 573b
000000f0: 6c12 37bd 1acf 0e3e d86d 5d3e 3dfd fb3d
00000100: 1898 a3be a45d d6be e256 36be d8ff 91be
00000110: 4ee6 acbe dbff 07be 7f62 01be c391 e8be
00000120: 2c17 073d 7970 39bc 7c5f 9bbd 9c3f 3dbe
00000130: daca db3d f075 50be 8ea8 3abe a661 9cbe
00000140: ae40 50be 099b 88be 3e3e 4ebe a4dc 2cbe
00000150: c7d3 33be 8b1f e33d 5fa1 c9be e44c bebe
00000160: 1ca6 04be 11ce 11be c22b e3bd d3e0 9abd
00000170: 04ba 4ebe 9d2a 52bd c198 41be ed71 73be
00000180: c9b4 7ebe c746 aebe f1df 22be 03ef 02be
00000190: 54c6 8bbe 4e98 8e3d a65f aabd fb58 66bd
000001a0: 6566 0d3e 8fed d8bb 8efb 8ebe b6be b6bd
000001b0: 4028 b6be 044b 26be cdb2 c2be c8e0 93bd
000001c0: 01aa 89be e822 42be 4fde 9fbe 7ecd 44be
000001d0: 2ec6 7abe c804 0abe 3586 17bd 7c97 b3bd
000001e0: e80f 4dbe 45e4 b8bd 5d2f 77bd 7692 03be
000001f0: 8e9d 4fbe 9f14 8bbd 30f4 17be ba4d adbe
00000200: e004 8ebd 8c75 bebd b575 02be ca48 e23d
00000210: 4f51 9ebd ef19 a73d c885 f3bd 61e1 b63d
00000220: 009f 063e 25b6 cb3d 71b8 09bd e324 8dbd
00000230: 2080 16be c130 ad3d 39b3 bbbd f576 48bd
00000240: a3e3 a63d db01 a4bd 3fd6 9dbd 61d1 0ebd
00000250: 19a9 eb3d 3d36 19be e579 74bc b868 0ebd
00000260: f63c 443d 38be b4bd fda0 e2bd 708a fcbc
00000270: ddca 01be 0f14 74bc ba58 ce3d 9c8f ecbb
00000280: 15fe b6bc 6afd 0ebe b75e fb3d 79fe 8cbd
00000290: beaa e4bd e5f9 33bd b7d0 4b3d 680e 40bc
000002a0: ed24 443d 3068 e2bd 2fb6 053e 2468 b63c
000002b0: e829 c53c 749e 143e c33b 773c 63ce 66bc
000002c0: 3dc0 13be b9a2 b2ba 1498 133e 791e 183e
000002d0: 602e af3d d619 e93d bc75 63bd 67d9 b8bc
000002e0: 502b 273d 06bc 8ebd 84d5 c73d e3c1 d83d
000002f0: cafc c33d e3b7 bcbd 4ad2 f73d 2d63 08bd

rnn.bias_hh_l0 f4 [192]
0.033592016 0.11134926 0.019235749 -0.09493297 0.06625167 0.09502865 -0.02904533 -0.11920274
0.051873006 0.088592835 0.19455332 0.01998467 0.083461285 0.09800033 0.08371666 0.20599161
0.11159473 0.027533568 0.121897444 0.13291535 -0.13743088 0.16678818 0.08775087 0.072981544
-0.003933305 -0.07857612 -0.04537214 -0.002298254 0.04145448 -0.14142285 -0.0023560482 0.104166836
0.20170596 0.056975376 -0.107433155 0.07600244 0.12671734 -0.04575807 0.1920357 -0.079994865
0.068885624 -0.12938234 -0.21592663 0.14269108 -0.029113151 0.11561358 0.25601286 0.11379684
0.19777241 0.039395947 0.1927001 -0.07284141 0.06469114 0.04105078 0.065172724 0.087256685
-0.05214996 0.113430336 -0.080745555 -0.0031243772 0.15228963 0.060190134 0.12516716 0.18502282
-0.15458593 -0.23441656 -0.20822944 -0.32171574 -0.30595237 0.022351818 -0.18907905 -0.33781955
-0.006229266 0.013332504 -0.056340266 -0.09283495 0.20988801 -0.067200065 -0.15104124 -0.30436248
-0.24033134 -0.30228844 -0.1663291 0.027323985 -0.16738023 -0.11495408 -0.24921125 -0.40284243
-0.15211509 0.03291118 -0.08568533 -0.009915196 -0.0023876382 0.022750812 -0.25498867 -0.05301437
-0.31533593 -0.325082 -0.17618792 -0.27487782 -0.14673986 0.14924373 0.033497874 -0.09948406
0.08093453 -0.1656261 -0.28193235 -0.059399664 -0.22605915 -0.24272491 -0.33288354 -0.0071934885
-0.31807148 -0.27758786 -0.20700198 -0.27049232 -0.29260713 -0.31937206 -0.21072844 -0.22648379
-0.19699892 -0.09831682 0.024632137 0.08062269 -0.12353185 -0.123923086 0.021807894 -0.4357106
-0.028199464 -0.032307807 -0.09790962 0.03433047 -0.043220397 -0.13913459 -0.14945087 -0.064626984
0.011474268 -0.00058158423 -0.031030003 -0.14767018 -0.14937857 -0.1190189 0.0051386417 0.011569154
-0.12333273 -0.13339987 -0.05995428 0.023246506 -0.09764776 -0.1373535 -0.14137939 -0.003785941
-0.036960702 -0.0272817 -0.13171336 0.13621922 0.040836304 -0.042755086 0.090980716 -0.107798025
-0.10754002 -0.06881879 0.079288915 0.026399387 -0.069929734 -0.12133358 -0.056561496 0.13329318
0.027734054 0.00810248 -0.04095843 0.0066856816 0.02225865 -0.026438966 -0.11888237 -0.09086693
0.046351623 -0.021988304 0.10697803 -0.044651855 -0.058931805 0.010353382 -0.019314473 -0.0458434
0.09509022 -0.07722686 -0.09731438 -0.13275382 0.1373807 -0.07058116 0.058034975 0.12068312
00000000: c897 093d 150b e43d 4a94 9d3c 386c c2bd
00000010: f5ae 873d 619e c23d 79f0 edbc 9120 f4bd
00000020: ca78 543d 2970 b53d fc38 473e e4b6 a33c
00000030: c0ed aa3d 66b4 c83d a473 ab3d 77ef 523e
00000040: c78b e43d 148e e13c 5ea5 f93d f61a 083e
00000050: aeba 0cbe 85ca 2a3e bab6 b33d 5977 953d
00000060: f4e2 80bb 84ec a0bd 23d8 39bd 4e9e 16bb
00000070: 2ccc 293d 27d1 10be ee67 1abb 6c55 d53d
00000080: 028c 4e3e 035f 693d ea05 dcbd 2ba7 9b3d
00000090: 31c2 013e d06c 3bbd 02a5 443e 59d4 a3bd
000000a0: e813 8d3d ce7c 04be df1b 5dbe 9c1d 123e
000000b0: b47e eebc d0c6 ec3d 1e14 833e 510e e93d
000000c0: da84 4a3e a55d 213d 2d53 453e e12d 95bd
000000d0: ca7c 843d dd24 283d 4779 853d a2b3 b23d
000000e0: 329b 55bd 2a4e e83d ed5d a5bd 5ac2 4cbb
000000f0: d0f1 1b3e ee89 763d d22b 003e 9f76 3d3e
00000100: c64b 1ebe e50a 70be 193a 55be edb7 a4be
00000110: caa5 9cbe 291b b73c f09d 41be aff6 acbe
00000120: df1e ccbb 9370 5a3c 0dc5 66bd 4020 bebd
00000130: e2ec 563e 30a0 89bd 8eaa 1abe 66d5 9bbe
00000140: 6b19 76be 8dc5 9abe 2d52 2abe 8dd6 df3c
00000150: b965 2bbe 0b6d ebbd 3c31 7fbe 5d41 cebe
00000160: 0fc4 1bbe e0cd 063d ca7b afbd 5973 22bc
00000170: ec79 1cbb e95f ba3c e08d 82be 9925 59bd
00000180: b673 a1be 2671 a6be 9b6a 34be c9bc 8cbe
00000190: f942 16be 59d3 183e 1135 093d 4dbe cbbd
000001a0: 01c1 a53d e399 29be 7059 90be 104d 73bd
000001b0: 0d7c 67be e18c 78be b66f aabe 5bb7 ebbb
000001c0: 44da a2be ff1f 8ebe 54f8 53be f87d 8abe
000001d0: 9ad0 95be bc84 a3be 32c9 57be 5eeb 67be
000001e0: 16ba 49be 545a c9bd 56c9 c93c 821d a53d
000001f0: 44fe fcbd 63cb fdbd 78a6 b23c 7615 dfbe
00000200: 9002 e7bc 3155 04bd d784 c8bd 1b9e 0c3d
00000210: df07 31bd 4c79 0ebe a609 19be 275b 84bd
00000220: 91fe 3b3c 7575 18ba a232 febc da36 17be
00000230: b2f6 18be 2ec0 f3bd 0d62 a83b 8d8c 3d3c
00000240: df95 fcbd fa99 08be 9e92 75bd 756f be3c
00000250: 8cfb c7bd 65a6 0cbe c2c5 10be 8d1d 78bb
00000260: 1b64 17bd df7d dfbc dedf 06be 0d7d 0b3e
00000270: f843 273d f51f 2fbd 1954 ba3d 36c5 dcbd
00000280: f13d dcbd def0 8cbd 3a62 a23d 8743 d83c
00000290: 5237 8fbd bd7d f8bd 07ad 67bd 027e 083e
000002a0: 8732 e33c 44c0 043c 07c4 27bd 9013 db3b
000002b0: c657 b63c 8896 d8bc 9a78 f3bd 7118 babd
000002c0: 33db 3d3d d120 b4bc 4c17 db3d dde4 36bd
000002d0: 7a62 71bd 3ba1 293c 6339 9ebc 4ac6 3bbd
000002e0: a9be c23d 1e29 9ebd c34c c7bd 9ef0 07be
000002f0: 87ad 0c3e db8c 90bd 15b6 6d3d b628 f73d

exp_avg f4 [1, 64]
2.8456736e-07 -4.6351367e-08 -9.190294e-07 6.595041e-07 -5.5047065e-07 -2.1286375e-07 -8.2827233e-07 -4.6433098e-07
2.4273814e-07 4.93359e-07 -5.7094206e-07 5.944117e-07 -8.718663e-08 1.668389e-07 -7.6448725e-07 5.3228234e-07
-4.5261398e-08 -1.3176172e-07 -7.4522035e-07 1.5470896e-07 -6.998544e-07 1.1672394e-06 -1.7242905e-07 -1.5612974e-07
2.7828844e-06 -9.805932e-07 -2.4258205e-07 5.7468737e-06 -8.597555e-07 2.4048032e-07 -2.3773917e-07 -1.4742741e-06
4.1674556e-07 -2.299979e-07 -3.4467374e-07 7.7649634e-07 -3.630042e-07 1.1938095e-06 2.494801e-06 7.434367e-07
5.327515e-06 -3.7090533e-07 2.1514159e-06 4.734706e-07 -6.817608e-07 3.8202856e-07 -2.1010404e-08 3.0534088e-06
-4.1906382e-08 1.6451244e-07 1.6384125e-07 2.0311298e-07 2.5752647e-07 -5.9998507e-07 -9.0496904e-08 1.9303607e-07
-8.652585e-07 3.1484624e-06 2.5171158e-07 -4.959442e-07 1.6652622e-07 -5.7170496e-07 3.5316035e-07 -3.3082475e-08
00000000: a4c6 9834 de13 47b3 38b3 76b5 c708 3135
00000010: 0ec4 13b5 8b8f 64b4 7156 5eb5 2a49 f9b4
00000020: ad51 8234 5f6f 0435 d742 19b5 a98f 1f35
00000030: 5b3b bbb3 5424 3334 2a37 4db5 2ae2 0e35
00000040: 6f65 42b3 637a 0db4 270b 48b5 131e 2634
00000050: a1dd 3bb5 0aaa 9c35 f024 39b4 9ea4 27b4
00000060: 97c1 3a36 ed9c 83b5 393c 82b4 45d5 c036
00000070: f3c9 66b5 5d1b 8134 3f45 7fb4 acdf c5b5
00000080: 13bd df34 57f5 76b4 990b b9b4 6c70 5035
00000090: ebe2 c2b4 fb3a a035 5b6c 2736 9590 4735
000000a0: 01c3 b236 d720 c7b4 0b61 1036 4e31 fe34
000000b0: 3f02 37b5 9b19 cd34 5e7a b4b2 2ae9 4c36
000000c0: 8efc 33b3 d6a4 3034 57ec 2f34 4517 5a34
000000d0: 2b42 8a34 a90e 21b5 3357 c2b3 5a45 4f34
000000e0: 1d44 68b5 2c4a 5336 fa22 8734 0721 05b5
000000f0: 61ce 3234 4477 19b5 fd99 bd34 9116 0eb3

exp_avg_sq f4 [1, 64]
8.519107e-12 5.310154e-12 5.5100256e-12 1.8804144e-12 1.299359e-12 6.3314688e-12 5.277593e-12 4.1026687e-12
2.6144631e-12 3.428286e-12 1.676694e-12 1.4138492e-11 2.1656262e-11 1.5972477e-11 9.359703e-12 5.1123025e-12
1.0236842e-12 1.9399796e-12 6.0979455e-12 3.3676566e-12 1.4212631e-11 4.4311332e-11 7.504665e-13 2.4843881e-12
1.7459888e-11 1.0588847e-11 1.2457739e-12 7.0358874e-10 2.4249695e-12 2.0365352e-12 6.562284e-12 1.1913784e-10
2.5058577e-12 1.6608379e-12 9.638688e-12 8.57245e-12 7.95394e-13 1.203454e-10 3.6822257e-11 1.8637023e-12
7.601742e-11 6.9963187e-13 2.0646039e-10 6.424121e-12 1.1483962e-12 3.1246923e-12 4.286483e-12 7.835495e-11
3.1163195e-12 1.0261941e-12 1.0923707e-12 1.1295858e-12 1.1332709e-12 7.15328e-12 1.4918735e-12 3.7384826e-12
2.0861953e-11 1.176895e-10 8.5033976e-13 3.5886042e-12 1.5181732e-12 1.1098638e-12 1.0901526e-12 7.678049e-12
00000000: a6de 152d 9dd5 ba2c e6dd c12c 8952 042c
00000010: 57de b62b cdc4 de2c 55b0 b92c 8e59 902c
00000020: fbf9 372c 833e 712c 45f9 eb2b 1bba 782d
00000030: 917d be2d d27e 8c2d 5ba8 242d 87df b32c
00000040: 1c12 902b 9183 082c 698d d62c 4ffa 6c2c
00000050: 0008 7a2d 20e2 422e cf3c 532b c2d2 2e2c
00000060: 2c94 992d ed47 3a2d bc53 af2b a866 4130
00000070: 5ea4 2a2c f54e 0f2c cde3 e62c 52fe 022f
00000080: 8555 302c febd e92b cb90 292d e2ce 162d
00000090: 2ee2 5f2b 3852 042f 2df2 212e 7a25 032c
000000a0: 012a a72e caed 442b 6f01 632f 5607 e22c
000000b0: 559f a12b 74e1 5b2c 35d1 962c ea4d ac2e
000000c0: 9f4a 5b2c 8a6c 902b cdbc 992b 9ef9 9e2b
000000d0: 637e 9f2b 05af fb2c 68f6 d12b 4289 832c
000000e0: f180 b72d a666 012f 7059 6f2b 8c86 7c2c
000000f0: f4a9 d52b 0f33 9c2b e36c 992b dc12 072d

exp_avg f4 [64, 64]
3.3925953e-06 2.2921125e-05 1.9870584e-05 -5.676529e-06 5.3208923e-06 1.4711875e-05 3.620043e-05 -5.645936e-06
2.232502e-06 -1.2985333e-05 1.9437233e-05 1.6771386e-05 3.7093287e-05 3.3743723e-05 -3.7445348e-06 -1.09744515e-05
5.8186583e-06 1.17685795e-05 9.995971e-06 -1.3626774e-05 -5.932203e-06 3.325038e-05 3.149683e-06 2.8744975e-05
2.5082269e-05 -7.4749446e-06 5.912451e-06 9.6470085e-06 7.2050484e-06 1.230524e-06 -1.675531e-05 7.850078e-06
-1.6183814e-05 1.7469369e-05 9.23114e-06 -2.261276e-06 -5.213996e-06 1.4534111e-05 -3.3606895e-05 -3.7997304e-06
-1.668135e-05 4.8853794e-06 8.517726e-06 3.484175e-07 7.836289e-06 -1.7301249e-05 -1.6668962e-05 1.4160407e-05
7.392444e-06 1.5520234e-06 -2.9994651e-05 -6.7969822e-06 -5.3277295e-06 -5.8666956e-06 3.928808e-06 -4.508129e-06
3.4446832e-06 1.9761272e-05 -1.6260157e-05 1.5041405e-05 -3.088136e-05 2.6767442e-05 -1.2854169e-05 4.8288503e-06
2.0693674e-06 1.2821035e-05 7.0618753e-06 -3.1556692e-06 2.4279589e-06 1.07236865e-05 1.7411232e-05 -2.4383876e-06
-5.4078396e-06 -7.498262e-06 6.6276566e-06 2.5561699e-06 1.7931856e-05 1.4313718e-05 -2.7759322e-06 -7.345526e-06
1.8877873e-06 5.3819062e-06 3.1654527e-06 -8.3736984e-07 -4.179611e-06 1.8456454e-05 3.7153616e-06 1.2021404e-05
1.11268655e-05 1.7743653e-06 4.2445545e-06 3.5116552e-06 4.0946666e-06 5.7271546e-07 -4.248613e-06 3.617807e-06
-5.8820074e-06 6.589795e-06 1.3969342e-06 -2.191353e-06 -2.714131e-07 8.597561e-06 -7.123367e-06 -5.76865e-06
9.247074e-06 2.3296943e-06 5.0686945e-06 -4.0349682e-06 8.72939e-06 -1.0096909e-05 -1.2462001e-05 1.2830191e-05
2.1217329e-07 -1.2220652e-06 -1.28418305e-05 -3.1359198e-06 -1.8387726e-06 -4.0574114e-06 3.4518423e-06 3.640166e-07
-1.6337765e-06 2.960047e-07 -5.04297e-06 5.3027316e-06 -1.3637436e-05 1.3076017e-05 -3.2167097e-06 1.7825785e-06
-5.5919645e-07 -7.808857e-06 -3.940698e-06 1.2241968e-06 -9.1275575e-07 -7.0289093e-06 -9.813418e-06 9.149059e-07
3.3847464e-06 3.7050395e-06 -3.169745e-06 1.2156168e-07 -8.628637e-06 -5.3082035e-06 -3.5690489e-06 6.0125362e-06
6.7043345e-07 -3.2520443e-06 -1.4057714e-06 -2.0519344e-06 2.1557503e-06 -1.0484161e-05 -7.56778e-07 -9.337084e-06
-6.71676e-06 -9.3514996e-07 -2.5834815e-06 -2.8832224e-06 -1.7716461e-06 -7.3311554e-08 1.4300308e-06 -1.6083798e-06
1.362693e-06 -4.0313535e-06 -2.6422629e-06 1.2273591e-06 -1.9464119e-06 -3.565187e-06 9.5704e-07 2.9093935e-06
-6.440867e-06 -1.5924743e-06 -4.4630983e-06 2.3661275e-06 -4.2990737e-06 4.757986e-06 6.7777482e-06 -7.27007e-06
1.0189145e-06 -3.754529e-07 6.181872e-06 1.7981245e-06 9.1840684e-07 1.8444699e-06 -2.3536418e-06 -9.542067e-07
-1.9807679e-07 9.717664e-07 2.7389397e-06 -3.1181735e-06 6.473572e-06 -7.37935e-06 3.642051e-07 -2.291354e-06
-1.4189237e-07 -4.729647e-07 -7.940305e-08 7.247545e-08 -8.2422176e-08 -1.9718131e-07 -4.5079867e-07 -1.1367162e-09
2.2098784e-07 1.5219506e-07 -1.2401538e-10 1.6849313e-07 -4.070414e-07 -5.1035144e-08 1.1063663e-07 2.0048543e-07
7.478112e-08 -2.6637366e-07 -1.4863973e-09 -3.222692e-07 1.1748394e-07 -4.5728567e-07 -1.702337e-07 -1.664515e-07
-4.6931248e-08 -2.6227062e-07 -1.1907333e-07 4.841896e-08 -1.8698951e-07 -2.5262759e-08 -2.871441e-07 -5.9506494e-08
8.242248e-08 -8.692272e-08 3.260912e-08 7.9873296e-08 -1.06921995e-07 -1.15679775e-07 -3.859958e-08 1.415802e-07
-5.2741933e-07 -8.7687596e-08 1.356594e-07 2.7684425e-07 -1.5390631e-07 3.5983848e-07 3.1396968e-07 -4.347805e-07
2.4438881e-07 1.6196915e-07 3.1142477e-08 5.734747e-08 6.206225e-08 3.001336e-08 -9.4164704e-08 -3.103839e-07
2.3249976e-07 1.2747282e-07 1.8101746e-08 4.0038394e-08 2.126344e-07 -3.921249e-07 -1.569968e-07 -1.14400205e-08
00000000: 58ac 6336 be46 c037 c1af a637 0379 beb6
00000010: 1e8a b236 06d3 7637 ead5 1738 3972 bdb6
00000020: 18d2 1536 95db 59b7 240d a337 47b0 8c37
00000030: 9d94 1b38 0c88 0d38 9e4a 7bb6 e91e 38b7
00000040: e53d c336 aa71 4537 5eb4 2737 8c9e 64b7
00000050: 3c0d c7b6 5376 0b38 245f 5336 5d21 f137
00000060: c367 d237 49d1 fab6 9163 c636 96d9 2137
00000070: e5c2 f136 7c28 a535 c18d 8cb7 d4b3 0337
00000080: 7ac2 87b7 2f8b 9237 72df 1a37 6dc0 17b6
00000090: e2f3 aeb6 88d7 7337 21f5 0cb8 dffe 7eb6
000000a0: edee 8bb7 17ed a336 5be7 0e37 230e bb34
000000b0: 9b78 0337 2622 91b7 53d4 8bb7 7c92 6d37
000000c0: 9c0c f836 1e4f d035 069d fbb7 a211 e4b6
000000d0: d9c4 b2b6 88da c4b6 34d4 8336 8944 97b6
000000e0: 352b 6736 02c5 a537 6c66 88b7 585a 7c37
000000f0: 9c86 01b8 a58a e037 3ca8 57b7 8207 a236
00000100: 76df 0a36 ed19 5737 0cf5 ec36 fcc5 53b6
00000110: 04f0 2236 e2e9 3337 560e 9237 2ea3 23b6
00000120: fd74 b5b6 9599 fbb6 2363 de36 aa8a 2b36
00000130: 5e6c 9637 f324 7037 274a 3ab6 9679 f6b6
00000140: e15f fd35 3996 b436 106e 5436 9ec7 60b5
00000150: 963e 8cb6 efd2 9a37 6d55 7936 89af 4937
00000160: 86ad 3a37 ba26 ee35 726c 8e36 c7a9 6b36
00000170: eb64 8936 b5bc 1935 4f8f 8eb6 73c9 7236
00000180: 0f5e c5b6 e81d dd36 4b7e bb35 280f 13b6
00000190: bcb6 91b4 3e3e 1037 4205 efb6 5490 c1b6
000001a0: e123 1b37 d857 1c36 c113 aa36 1d64 87b6
000001b0: 7274 1237 e565 29b7 e313 51b7 4041 5737
000001c0: c0d1 6334 d705 a4b5 3e73 57b7 b172 52b6
000001d0: bfcb f6b5 e624 88b6 33a6 6736 106e c334
000001e0: 2248 dbb5 94ea 9e34 c836 a9b6 1eee b136
000001f0: 57cc 64b7 1161 5b37 a7de 57b6 ee40 ef35
00000200: b01b 16b5 c902 03b7 573a 84b6 154f a435
00000210: 1904 75b5 dfd9 ebb6 4fa4 24b7 db97 7535
00000220: 8025 6336 18a4 7836 ceb7 54b6 9f86 0234
00000230: b7c3 10b7 1f1d b2b6 cb83 6fb6 4bbf c936
00000240: d6f7 3335 b23d 5ab6 f0ad bcb5 f7b3 09b6
00000250: 82ab 1036 21e5 2fb7 6325 4bb5 78a6 1cb7
00000260: 8760 e1b6 0407 7bb5 e05f 2db6 627d 41b6
00000270: 4cc9 edb5 746f 9db3 7cef bf35 82df d7b5
00000280: c6e5 b635 1045 87b6 bb51 31b6 bdbb a435
00000290: 1a9f 02b6 7241 6fb6 a573 8035 003f 4336
000002a0: a01e d8b6 00bd d5b5 b9c1 95b6 c3c9 1e36
000002b0: c340 90b6 caa6 9f36 6a6c e336 6df1 f3b6
000002c0: a3c1 8835 db91 c9b4 e06d cf36 1657 f135
000002d0: 7088 7635 818f f735 42f3 1db6 4b12 80b5
000002e0: efae 54b4 a46d 8235 a0ce 3736 d041 51b6
000002f0: 8f37 d936 229c f7b6 f887 c334 29c5 19b6
00000300: 145b 18b4 c6eb fdb4 4a84 aab3 cda3 9b33
00000310: 1200 b1b3 c9b8 53b4 4c05 f2b4 a53a 9cb0
00000320: ad48 6d34 0f6b 2334 3a5b 08af 0aeb 3434
00000330: 5887 dab4 bc31 5bb3 2197 ed33 0445 5734
00000340: 5b97 a033 1e02 8fb4 f549 ccb0 5704 adb4
00000350: 7b4b fc33 dd80 f5b4 7cc9 36b4 d7b9 32b4
00000360: 7491 49b3 33ce 8cb4 41b5 ffb3 36f5 4f33
00000370: 49c7 48b4 6501 d9b2 c928 9ab4 1594 7fb3
00000380: 3d00 b133 45aa bab3 1b0e 0c33 cf86 ab33
00000390: fd9c e5b3 a16b f8b3 b0c8 25b3 4505 1834
000003a0: fb93 0db5 c44e bcb3 c6a9 1134 2fa1 9434
000003b0: 7241 25b4 d32f c134 aa8f a834 c76b e9b4
000003c0: 8b34 8334 bee9 2d34 84c1 0533 364e 7633
000003d0: 1547 8533 0ae8 0033 9837 cab3 d7a2 a6b4
000003e0: 0ca5 7934 76df 0834 297e 9b32 aef6 2b33
000003f0: 8050 6434 3c85 d2b4 f492 28b4 be89 44b2
