saved_models/discretised/checkpoint444.pth (torch, 224977 bytes, 27 tensors)

h0 f4 [1, 64]
-1.0232354 1.1433492 -0.5060559 -0.79811317 0.12386866 -0.9307378 0.66902494 0.40008134
-1.0398669 -1.2826352 0.4522253 0.63746077 0.9393537 -0.59449404 -0.5203753 0.26613444
-0.695407 0.8680907 -0.535775 -1.6954192 2.0836072 0.55857843 0.20182388 0.22359918
-1.3651596 -0.41040686 1.8194137 0.9129099 -1.2198548 -1.1111805 -0.36899248 1.3555385
-1.3724505 0.6765385 -0.22637086 -2.2905192 -0.117617585 -0.016753089 -0.5537343 -1.5380882
-0.8519416 -1.147964 -1.0337125 0.10346205 0.31529886 -0.54546636 -0.5250518 1.7441878
0.15976529 1.0144581 1.0954663 -0.44362247 0.80400664 1.3547423 -1.1955868 0.66061974
-0.6440297 0.76462084 -0.9510308 1.4145551 -1.0508931 0.5355923 1.548656 -1.1807379
00000000: 61f9 82bf 4459 923f e18c 01bf 2551 4cbf
00000010: daae fd3d d544 6ebf 3845 2b3f 76d7 cc3e
00000020: 5c1a 85bf 642d a4bf 138a e73e a130 233f
00000030: 7c79 703f c330 18bf 5137 05bf c642 883e
00000040: 3106 32bf 313b 5e3f 8d28 09bf 7f03 d9bf
00000050: d259 0540 fffe 0e3f ebaa 4e3e 2ff7 643e
00000060: 8dbd aebf d920 d2be 8ce2 e83f 77b4 693f
00000070: 3424 9cbf 2a3b 8ebf 95ec bcbe 4982 ad3f
00000080: 75ac afbf a131 2d3f c3cd 67be de97 12c0
00000090: 7de1 f0bd c63d 89bc 88c1 0dbf 13e0 c4bf
000000a0: d818 5abf 7cf0 92bf b150 84bf e9e3 d33d
000000b0: da6e a13e afa3 0bbf cb69 06bf 8c41 df3f
000000c0: 8399 233e c3d9 813f 3d38 8c3f 7c22 e3be
000000d0: 61d3 4d3f 3268 ad3f fd08 99bf 601e 293f
000000e0: 21df 24bf 31be 433f c176 73bf 2410 b53f
000000f0: aa83 86bf 941c 093f 5c3a c63f 6b22 97bf

trial_output.0.weight f4 [64, 64]
0.0069049713 -0.25209004 -0.042482764 0.10609077 -0.0027400232 -0.2914642 -0.07206632 0.11336391
0.014976184 -0.09977054 0.008122928 -0.47470558 0.120552644 -0.14680785 -0.1840141 -0.07018968
0.1453871 0.02019508 -0.18537112 0.11295646 0.16712978 -0.060608894 0.19064775 0.15084483
0.0072653 -0.080726914 0.027053317 -0.018989805 -0.13243683 0.030025695 0.0064847763 0.06655839
0.12506025 -0.044577036 -0.11576283 -0.13513257 0.33102033 -0.18896914 -0.044752404 -0.40880314
0.046455115 -0.08648055 -0.2001486 -0.23364045 -0.00017457182 0.008806338 0.08375934 0.27790603
-0.13964304 0.0045395964 -0.4106561 0.19936928 -0.03763823 -0.15744776 0.15423793 -0.08700961
-0.114573084 0.029484533 0.06331005 0.1394591 0.07352636 -0.2304756 0.03417436 -0.05290586
0.14786431 -0.19259527 -0.14497815 -0.18275055 -0.112031884 -0.58361393 0.2994608 -0.09942107
0.16484886 -0.7576508 0.015367952 -0.043727446 0.09604238 0.5347205 -0.2560986 0.49289277
-0.027615093 -0.34455857 -0.47713855 0.37282485 0.06670027 0.08339891 -0.20548728 -0.0814467
0.008599277 -0.02739531 0.45099026 0.42301401 -0.20870143 0.16013677 0.28225827 -0.012620553
0.11846192 -0.09236972 -0.002092726 -0.05049197 0.52961344 -0.114311844 -0.20989497 0.78103167
0.31775922 0.32722118 0.2710902 -0.0845907 0.055753123 -0.034486175 0.1871551 0.079293005
0.19534229 -0.053174008 -0.272835 0.023398476 0.30184007 -0.34945732 0.05595658 -0.21255223
-0.15924424 -0.7002729 -0.12693319 0.12982564 0.0082453415 -0.20856473 0.46348983 0.046254598
-0.2022201 -0.3165123 0.18025069 0.18336074 0.063942656 -0.09241368 -0.38117984 0.2337571
0.06025699 0.022139575 -0.014694554 -0.2122654 0.12056164 0.04814251 -0.07471213 0.02932765
0.00042029546 -0.00064106076 0.0676869 0.054789964 0.17686936 0.06373311 0.35394904 0.15016454
0.22894385 0.10264955 -0.08454741 -0.14852013 -0.19420794 0.0015939104 0.21932462 -0.18245426
0.3157904 0.067042574 0.0014891993 0.040067967 0.19644895 -0.1979674 -0.1582018 0.19064929
-0.029709278 -0.115164086 -0.149771 -0.3660185 0.18155204 -0.12966916 -0.108052395 0.17239636
-0.21370392 -0.28551197 0.05184159 0.18745236 0.10597713 0.06379911 0.20405854 0.032397877
0.10782664 -0.19920857 0.12519807 0.068760574 -0.25145784 0.10072351 0.10049177 0.019375896
0.05178552 0.12029928 -0.12884738 0.004525515 0.099724494 -0.11484988 -0.036183964 0.14444596
0.034893636 0.14087358 -0.061473705 -0.015526523 -0.033614334 0.03806614 -0.051249176 0.1626339
0.061255664 -0.0017415434 0.03147917 -0.006379039 -0.13658059 0.041080475 -0.07748154 -0.10444193
-0.08435883 0.038975783 0.04257536 0.16065633 0.1459606 0.08209804 -0.052318092 0.044010095
-0.043013055 0.027061526 -0.021639127 0.027309414 -0.001345483 -0.039694525 0.037836444 -0.050599724
0.0591908 0.16594759 -0.01739277 0.010946004 0.03180445 0.02117754 0.027195245 -0.009615961
0.09230752 -0.102175124 0.041287985 0.044058785 0.10890189 -0.11965076 -0.035498116 0.06310671
-0.014045472 0.10246459 -0.01102232 -0.03994794 0.110347606 0.06346917 -0.08597028 -0.036699492
00000000: 1943 e23b f211 81be 6802 2ebd 1e46 d93d
00000010: f691 33bb cc3a 95be 8297 93bd 562b e83d
00000020: ab5e 753c 7f54 ccbd 0816 053c 9c0c f3be
00000030: 4ee4 f63d cc54 16be 316e 3cbe 9bbf 8fbd
00000040: 5be0 143e 2770 a53c edd1 3dbe b755 e73d
00000050: 1224 2b3e 0841 78bd 2a39 433e 1177 1a3e
00000060: c111 ee3b 2754 a5bd eb9e dd3c 8290 9bbc
00000070: 859d 07be 72f8 f53c 3f7e d43b c44f 883d
00000080: cb0f 003e 6996 36bd 1015 edbd 3160 0abe
00000090: 7f7b a93e 2081 41be 4c4e 37bd a54e d1be
000000a0: b847 3e3d b71c b1bd c1f3 4cbe 713f 6fbe
000000b0: 440d 37b9 7548 103c 048a ab3d b349 8e3e
000000c0: 96fe 0ebe e5c0 943b 8441 d2be 7627 4c3e
000000d0: 8b2a 1abd fc39 21be 8cf0 1d3e 1832 b2bd
000000e0: 4ba5 eabd 8c89 f13c b3a8 813d 5ece 0e3e
000000f0: fd94 963d cc01 6cbe 6afa 0b3d d1b3 58bd
00000100: be69 173e b237 45be 2775 14be f622 3bbe
00000110: f970 e5bd b967 15bf ed52 993e 469d cbbd
00000120: 24ce 283e 67f5 41bf ddc9 7b3c 8d1b 33bd
00000130: deb1 c43d 71e3 083f 5b1f 83be 715c fc3e
00000140: 0c39 e2bc fb69 b0be 814b f4be e6e2 be3e
00000150: 279a 883d 0ccd aa3d 426b 52be 87cd a6bd
00000160: fbe3 0c3c 216c e0bc 32e8 e63e 4b95 d83e
00000170: d4b5 55be e5fa 233e 2884 903e 70c6 4ebc
00000180: 2a9c f23d 562c bdbd 1e26 09bb abd0 4ebd
00000190: bf94 073f 541c eabd b5ee 56be b1f1 473f
000001a0: 56b1 a23e 8989 a73e 56cc 8a3e e43d adbd
000001b0: 635d 643d 6041 0dbd 96a5 3f3e 5f64 a23d
000001c0: cf07 483e fdcc 59bd 07b1 8bbe 29ae bf3c
000001d0: c88a 9a3e 12ec b2be ba32 653d 4ba7 59be
000001e0: ec10 23be 1645 33bf c6fa 01be 03f1 043e
000001f0: 7817 073c fe91 55be 8a4e ed3e 7675 3d3d
00000200: c912 4fbe e60d a2be a393 383e ebc2 3b3e
00000210: 5ef4 823d 6243 bdbd 012a c3be 055e 6f3e
00000220: 09d0 763d 0e5e b53c 6dc1 70bc 1a5c 59be
00000230: 05e9 f63d 1531 453d ac02 99bd 8a40 f03c
00000240: 1a5b dc39 dc0c 28ba 6e9f 8a3d 716b 603d
00000250: 3e1d 353e 8186 823d cf38 b53e bcc4 193e
00000260: 4270 6a3e ed39 d23d 3127 adbd a915 18be
00000270: 72de 46be c2ea d03a a296 603e 4ad5 3abe
00000280: 48af a13e 9e4d 893d 3d31 c33a 4f1e 243d
00000290: ea29 493e f7b7 4abe a7ff 21be 9139 433e
000002a0: df60 f3bc 26db ebbd 925d 19be c766 bbbe
000002b0: c7e8 393e fec7 04be 934a ddbd ac88 303e
000002c0: 33d5 5abe a02e 92be d957 543d 83f3 3f3e
000002d0: 8a0a d93d 1ca9 823d b9f4 503e a3b3 043d
000002e0: 37d4 dc3d 55fd 4bbe ec33 003e 58d2 8c3d
000002f0: 15bf 80be 2148 ce3d a1ce cd3d 33ba 9e3c
00000300: 0e1d 543d 785f f63d 91f0 03be c54a 943b
00000310: 5b3c cc3d 6a36 ebbd a335 14bd a4e9 133e
00000320: a1ec 0e3d 2a41 103e dacb 7bbd f562 7ebc
00000330: 2faf 09bd 3eeb 1b3d a8ea 51bd 8089 263e
00000340: 38e7 7a3d 8044 e4ba 4df0 003d 4207 d1bb
00000350: c8db 0bbe 0044 283d a4ae 9ebd a7e5 d5bd
00000360: 52c4 acbd 12a5 1f3d 8063 2e3d 1883 243e
00000370: b276 153e 0423 a83d 7f4b 56bd ee43 343d
00000380: 752e 30bd 22b0 dd3c 8a44 b1bc feb7 df3c
00000390: eb5a b0ba ba96 22bd 63fa 1a3d a841 4fbd
000003a0: 0d72 723d 2aee 293e 487b 8ebc de56 333c
000003b0: 6245 023d 857c ad3c 90c8 de3c 448c 1dbc
000003c0: ba0b bd3d 3141 d1bd 971d 293d fc76 343d
000003d0: f407 df3d 750b f5bd 7966 11bd 173e 813d
000003e0: fb1e 66bc f4d8 d13d f696 34bc 73a0 23bd
000003f0: edfd e13d 20fc 813d 3011 b0bd 3552 16bd

trial_output.0.bias f4 [64]
0.19044536 -0.06572397 0.1368864 -0.15279923 0.029976947 0.00017731807 0.110605165 0.08671024
-0.14436823 -0.009742876 -0.024151346 0.088756226 0.1710296 -0.005067477 0.08883278 0.13613877
0.052824482 0.05828568 0.11887105 -0.019737784 0.07412016 0.22675629 -0.23509815 -0.14740714
0.04390383 0.07648751 -0.061196346 -0.17992626 -0.027661622 -0.012265808 0.24864818 -0.12122987
0.20982458 0.23495556 0.008263213 -0.0042714835 0.07927234 0.032832388 -0.0022873022 -0.019253915
-0.13920665 0.16816865 -0.027277362 0.2217489 -0.041689496 -0.015418721 0.014195911 0.08516303
-0.033227287 0.09352122 -0.056972772 -0.0068671727 0.1092961 0.06795421 0.09481214 0.20519729
0.0874046 0.055236008 -0.17374736 0.013331591 0.14667813 -0.004963236 0.09786215 -0.009724125
00000000: 1c04 433e 4a9a 86bd f32b 0c3e 6777 1cbe
00000010: 3792 f53c 75ee 3939 f684 e23d 2395 b13d
00000020: 44d5 13be 95a0 1fbc 0bd9 c5bc d3c5 b53d
00000030: 6222 2f3e 140d a6bb f6ed b53d f667 0b3e
00000040: 7c5e 583d f7bc 6e3d aa72 f33d 22b1 a1bc
00000050: 4fcc 973d cd32 683e 92bd 70be e6f1 16be
00000060: 81d4 333d 7ca5 9c3d 05a9 7abd 973e 38be
00000070: a09a e2bc 87f6 48bc a19d 7e3e 5e47 f8bd
00000080: 41dc 563e 3198 703e 6d62 073c cdf7 8bbb
00000090: 8959 a23d 417b 063d 90e6 15bb 63ba 9dbc
000000a0: 308c 0ebe 6734 2c3e c674 dfbc 2512 633e
000000b0: 9bc2 2abd ce9e 7cbc f795 683c f469 ae3d
000000c0: 5619 08bd 0e88 bf3d 485c 69bd 0506 e1bb
000000d0: a2d6 df3d 942b 8b3d de2c c23d 3d1f 523e
000000e0: 2f01 b33d 273f 623d d4ea 31be bf6c 5a3c
000000f0: cb32 163e a4a2 a2bb f36b c83d f051 1fbc

trial_output.2.weight f4 [3, 64]
0.22145623 -0.6178537 0.10251197 -0.043475438 -0.24987616 -0.24290441 0.287739 0.086921275
0.015186366 -0.24533293 -0.40746313 0.1344696 0.12075432 -0.5663923 -0.29666263 0.22803491
0.19170964 -0.31334534 0.14175504 -0.0586495 -0.24123487 0.17499371 1.3221902 -0.106053255
-0.45068148 -0.15677229 0.16405872 -0.08994894 -0.24020244 -0.30334085 0.34140942 0.16520932
0.23044202 0.16505328 -0.24054608 1.6195661 0.13666886 -0.15848564 -0.06439776 -0.12131864
0.43404004 0.24075632 -0.1552638 0.2891894 -0.11495865 0.8635645 0.29622504 0.33267063
0.21376854 0.40038514 0.15213054 0.19210468 0.33393276 -0.24903473 -0.28806272 0.017714158
0.21063071 -0.22103934 0.42857185 -0.24577901 0.38875023 0.14023122 0.37342212 0.21466754
-0.12872933 0.058141995 -0.55123097 0.07599834 0.09025921 0.01066097 -0.07322999 -0.54159844
0.029987767 0.14381509 -0.099994585 -0.54170233 -0.50048614 -0.014654976 0.2640038 -0.5114538
-0.08121605 0.07990929 -0.50510514 1.1900737 0.19794643 -0.384343 0.7583859 0.0741679
-0.009944798 -0.12710789 -0.47301054 -0.015218029 0.19746791 0.0993009 -0.26778543 -0.57125735
-0.28493237 -0.49371755 0.19759318 -0.70901674 -0.5682917 0.04511658 -0.11888308 0.046026114
0.2938606 -0.15512586 0.23863298 -0.2609361 -0.05655771 -0.078510374 0.15591155 -0.4756632
-0.21999983 -0.118491806 0.12298157 -0.3737228 -0.48558974 0.25739506 0.26133308 -0.01567782
-0.33797643 0.08384435 0.08717717 0.08388874 -0.5732251 0.24611023 -0.53343874 -0.51183575
-0.21837914 0.66067225 0.19603518 0.021769196 0.17185387 0.342318 -0.21622805 0.11518539
0.057793643 0.23823404 0.4753138 0.21086206 0.04853451 0.49932352 0.21866335 0.09130396
-0.20611246 0.047250863 0.14526099 -0.24707535 0.014862959 0.14349277 -1.5562321 0.09050989
0.4513274 0.22735006 0.044998653 -0.064848185 -0.021643456 -0.042715505 -0.064267255 -0.34317166
0.2689078 0.24727002 0.03806619 -1.6400678 0.1930063 0.092544325 0.02225296 0.0554099
-0.7969106 -0.30991694 0.099138804 -0.23267566 0.082300805 -0.65871555 -0.6628883 -0.03688237
0.077010855 -0.5193824 -0.12541023 0.22830488 -0.21360843 0.14463443 0.13714321 -0.10052513
0.19469805 0.1731802 -0.5448023 0.2343866 -0.24434046 -0.3574241 -0.056750603 0.06333766
00000000: 6cc5 623e a92b 1ebf ccf1 d13d 4d13 32bd
00000010: 89df 7fbe efbb 78be 8752 933e c803 b23d
00000020: 3cd0 783c 8e38 7bbe 029f d0be 66b2 093e
00000030: 0a4e f73d 16ff 10bf 2ae4 97be fc81 693e
00000040: 884f 443e cd6e a0be 3c28 113e 753a 70bd
00000050: 4606 77be 8d31 333e 873d a93f 7332 d9bd
00000060: b9bf e6be ea88 20be 02ff 273e 2637 b8bd
00000070: a1f7 75be 7e4f 9bbe 37cd ae3e a22c 293e
00000080: fef8 6b3e ba03 293e b651 76be f14d cf3f
00000090: ecf2 0b3e 0f4a 22be f9e2 83bd e875 f8bd
000000a0: 7f3a de3e d388 763e 79fd 1ebe a210 943e
000000b0: 716f ebbd 9012 5d3f cfaa 973e ce53 aa3e
000000c0: 24e6 5a3e 48ff cc3e 1cc8 1b3e 17b7 443e
000000d0: 3cf9 aa3e f602 7fbe f57c 93be 481d 913c
000000e0: 94af 573e 2358 62be c56d db3e 7ead 7bbe
000000f0: 450a c73e c698 0f3e 2f31 bf3e cfd1 5b3e
00000100: 9fd1 03be 4d26 6e3d 791d 0dbf 05a5 9b3d
00000110: d2d9 b83d 59ab 2e3c 9bf9 95bd 32a6 0abf
00000120: e8a8 f53c 4344 133e f6c9 ccbd 01ad 0abf
00000130: dc1f 00bf 6d1b 70bc 822b 873e a3ee 02bf
00000140: 9a54 a6bd 7ba7 a33d 924e 01bf 5654 983f
00000150: 78b2 4a3e 9bc8 c4be 9425 423f 57e5 973d
00000160: 82ef 22bc 9228 02be 702e f2be 0a55 79bc
00000170: 0735 4a3e 455e cb3d 2c1b 89be ec3d 12bf
00000180: a8e2 91be 8cc8 fcbe de55 4a3e 1f82 35bf
00000190: 917b 11bf 2acc 383d f978 f3bd e185 3c3d
000001a0: e674 963e 50d9 1ebe 345c 743e 6b99 85be
000001b0: 0fa9 67bd 0cca a0bd 47a7 1f3e 208a f3be
000001c0: a347 61be d5ab f2bd c3dd fb3d 9858 bfbe
000001d0: 389f f8be 49c9 833e 73cd 853e c66e 80bc
000001e0: 3f0b adbe 96b6 ab3d f289 b23d dccd ab3d
000001f0: e1be 12bf 5204 7c3e 718f 08bf ab07 03bf
00000200: c89e 5fbe d121 293f 72bd 483e 5055 b23c
00000210: 76fa 2f3e 4e44 af3e e36a 5dbe 51e6 eb3d
00000220: 07b9 6c3d a0f3 733e 555c f33e 39ec 573e
00000230: 1fcc 463d 55a7 ff3e 49e9 5f3e 92fd ba3d
00000240: 250f 53be 1f8a 413d 4cbf 143e 5201 7dbe
00000250: c583 733c c5ef 123e 9d32 c7bf 405d b93d
00000260: 6314 e73e 74ce 683e 8250 383d 20cf 84bd
00000270: 9e4d b1bc 74f6 2ebd 8d9e 83bd 32b4 afbe
00000280: 48ae 893e 5a34 7d3e 4beb 1b3d beed d1bf
00000290: 72a3 453e e187 bd3d d74b b63c 7ef5 623d
000002a0: 5502 4cbf 6fad 9ebe 4909 cb3d 8742 6ebe
000002b0: 538d a83d 95a1 28bf 0cb3 29bf f811 17bd
000002c0: deb7 9d3d 3ff6 04bf 8a6b 00be c1c8 693e
000002d0: 2bbc 5abe 0c1b 143e 456f 0c3e 1fe0 cdbd
000002e0: ed5e 473e 2656 313e 2a78 0bbf 0a03 703e
000002f0: 6334 7abe 4b00 b7be 5273 68bd 2db7 813d

trial_output.2.bias f4 [3]
0.10202609 -0.028621657 0.02934728
00000000: 0ef3 d03d f777 eabc b569 f03c

rnn.weight_ih_l0 f4 [192, 4]
-0.10400534 0.09557489 -0.1179523 0.04673651 0.0017112185 0.092469595 0.16253778 0.25894815
-0.08150711 0.048654757 0.08168832 -0.0036294865 -0.49767694 0.030212792 -0.30608946 -0.19897847
-0.032592148 0.105101645 -0.18564953 -0.022981953 0.24909 -0.05779747 0.06457546 0.12352629
-0.27327213 -0.010913461 -0.2504606 -0.07562827 0.05780772 0.0025312097 -0.07027908 -0.38889542
-0.22764991 -0.07697528 -0.007638301 -0.21639143 -0.05356852 -0.20607656 -0.15110195 0.17966026
-0.014633425 0.17309137 0.021980548 -0.08918651 0.044601407 -0.12564623 -0.16484062 0.2400973
0.094179384 -0.29817402 -0.11779598 0.013199197 -0.07281988 -0.025612934 -0.15392861 0.0022898794
0.0363234 -0.0062615476 0.024588479 0.11768128 0.064740606 -0.046860896 -0.01805509 -0.25608504
0.3630829 0.45760742 -0.31106547 0.15608627 -0.014262703 -0.10988243 0.052872743 0.059746634
0.51080865 -0.8344406 -0.31437385 -0.27684858 0.1633147 -0.023402374 0.057871882 0.18637075
-0.121400826 0.08142841 -0.074691705 0.033804026 0.065171264 0.02320529 -0.06424704 0.024950666
-0.12893012 0.14038895 0.2109903 -0.3697256 -0.029881863 -0.047725834 0.10584906 0.14823444
-0.066921785 -0.16308244 -0.10939965 0.042309664 0.84400326 -0.061177123 0.49435306 -0.1536561
-0.13628577 -0.12615791 0.06097114 0.07830839 0.30160168 -0.12764078 0.3720618 -0.032264475
0.04407413 -0.1960315 0.0002341871 0.077420406 0.06676893 -0.12974644 0.052262973 -0.045367043
-0.036940843 -0.20456207 -0.14154005 0.09444641 -0.070041195 0.04503169 -0.14309552 -0.036634687
-0.05055769 0.11665994 0.09232419 0.07267558 -0.21549949 -0.011816384 0.0021166864 -0.020379866
-0.2721794 0.11800976 -0.13729565 -0.32836774 0.11821846 0.07663403 0.028747898 -0.24657209
0.041903734 -0.12851867 -0.055918995 0.15646708 -0.06742781 -0.08826518 0.10921866 0.36338824
0.19749238 0.07531967 0.15465271 0.38077173 -0.1795047 -0.17889524 0.3066503 -0.06535445
0.12889358 -0.045522373 0.04472593 -0.28575504 0.059166916 -0.16502428 -0.117745705 -0.18614818
-0.25342578 0.022160297 -0.08335541 -0.029621473 -0.02439599 0.111246035 -0.10112242 -0.0742187
0.009505824 0.121971354 -0.08911563 -0.20041399 0.03827641 0.104327396 -0.16039604 -0.08015756
-0.3698449 0.0070034186 -0.40842357 -0.04941744 0.18392949 0.016052188 -0.094547175 0.17298071
0.0069431276 0.08914321 -0.14314379 0.016778681 -0.39395007 0.055559773 -0.23965627 -0.048769277
-0.23806761 -0.0474597 -0.019031754 -0.37231132 0.056382425 -0.031283576 -0.13302954 -0.13489145
-0.14507085 -0.18108417 -0.076903544 -0.3477717 0.18436718 -0.13439685 0.14009158 -0.023933299
0.20197926 -0.22188254 -0.008092248 0.09384914 0.5107636 -0.26393458 -0.16448939 -0.12613437
-0.048676815 -0.03850611 -0.05416933 0.051863957 -0.13978453 -0.10108008 -0.11566621 0.09063018
-0.09413592 0.068517186 -0.024533525 -0.1581579 0.07056628 1.4134696 -1.0258031 -0.069755964
0.053347744 -0.21747626 -0.06583697 0.07946319 0.008881413 -0.24979159 0.05440222 -0.2670799
-0.027729642 -0.1084483 -0.0485354 0.1461436 0.09143548 0.09001429 0.05988027 -0.22210044
00000000: c000 d5bd c5bc c33d fa90 f1bd c86e 3f3d
00000010: f74a e03a b360 bd3d 4e70 263e da94 843e
00000020: 33ed a6bd 364a 473d 354c a73d aedc 6dbb
00000030: 83cf febe d180 f73c c2b7 9cbe 03c1 4bbe
00000040: 587f 05bd 883f d73d e91a 3ebe a644 bcbc
00000050: 7311 7f3e 0abd 6cbd 2440 843d 5afb fc3d
00000060: 53ea 8bbe 60ce 32bc 5f3c 80be ffe2 9abd
00000070: cac7 6c3d a7e2 253b 7aee 8fbd 4d1d c7be
00000080: 0f1d 69be 37a5 9dbd b64a fabb b795 5dbe
00000090: aa6a 5bbd bc05 53be 78ba 1abe dcf8 373e
000000a0: 08c1 6fbc dd3e 313e 8d10 b43c 6ba7 b6bd
000000b0: f7af 363d 68a9 00be fbcb 28be 11dc 753e
000000c0: 1fe1 c03d 44aa 98be 053f f1bd 7241 583c
000000d0: 9722 95bd 37d2 d1bc 769f 1dbe cd11 163b
000000e0: d8c7 143d ab2d cdbb c76d c93c e202 f13d
000000f0: b996 843d 36f1 3fbd 45e8 93bc 941d 83be
00000100: 00e6 b93e 854b ea3e f943 9fbe 14d5 1f3e
00000110: 1dae 69bc 0a0a e1bd 1791 583d e3b8 743d
00000120: 5bc4 023f e69d 55bf 9cf5 a0be 19bf 8dbe
00000130: f83b 273e 56b6 bfbc 110b 6d3d f9d7 3e3e
00000140: ffa0 f8bd f0c3 a63d f7f7 98bd 1776 0a3d
00000150: 8378 853d 0519 be3c f493 83bd 5765 cc3c
00000160: 4206 04be 1fc2 0f3e d70d 583e ad4c bdbe
00000170: cfca f4bc 2a7c 43bd 64c7 d83d c5ca 173e
00000180: 4a0e 89bd 15ff 26be ec0c e0bd e64c 2d3d
00000190: 9910 583f dd94 7abd d81b fd3e 0658 1dbe
000001a0: 7f8e 0bbe 8a2f 01be e0bc 793d 2660 a03d
000001b0: 896b 9a3e 44b4 02be e27e be3e c127 04bd
000001c0: 1387 343d 7bbc 48be 1f90 7539 978e 9e3d
000001d0: 26be 883d 40dc 04be b311 563d cbd2 39bd
000001e0: 484f 17bd b878 51be e0ef 10be 1f6d c13d
000001f0: c271 8fbd 2673 383d a287 12be 410e 16bd
00000200: 9515 4fbd 68eb ee3d 7714 bd3d efd6 943d
00000210: e6ab 5cbe 8299 41bc 1bb8 0a3b adf3 a6bc
00000220: 195b 8bbe 1aaf f13d 3b97 0cbe d11f a8be
00000230: 851c f23d 4df2 9c3d b680 eb3c 657d 7cbe
00000240: 40a3 2b3d 669a 03be 510b 65bd e838 203e
00000250: 9717 8abd 60c4 b4bd 08ae df3d 060e ba3e
00000260: 713b 4a3e 3341 9a3d 485d 1e3e 83f4 c23e
00000270: 14d0 37be 5030 37be 4501 9d3e 8ed8 85bd
00000280: aefc 033e ab75 3abd 8932 373d 7c4e 92be
00000290: 0259 723d 20fc 28be a924 f1bd a19d 3ebe
000002a0: 06c1 81be 8389 b53c 3eb6 aabd bba8 f2bc
000002b0: 19da c7bc f6d4 e33d 4519 cfbd f9ff 97bd
000002c0: 51be 1b3c 1ecc f93d 4182 b6bd 5339 4dbe
000002d0: bac7 1c3d 9aa9 d53d dc3e 24be a629 a4bd
000002e0: 505c bdbe ef7c e53b e51c d1be f169 4abd
000002f0: 0358 3c3e e17f 833c f3a1 c1bd db21 313e
00000300: 2d83 e33b b790 b63d 4994 12be 7273 893c
00000310: d3b3 c9be a592 633d 7468 75be 4bc2 47bd
00000320: ffc7 73be 1a65 42bd 7be8 9bbc 979f bebe
00000330: 42f1 663d 3523 00bd e538 08be fc20 0abe
00000340: 748d 14be 216e 39be 9b7f 9dbd 220f b2be
00000350: c0ca 3c3e 549f 09be 2b74 0f3e c40f c4bc
00000360: a7d3 4e3e 2d35 63be 5995 04bc fa33 c03d
00000370: 67c1 023f 6f22 87be e86f 28be 5e29 01be
00000380: 5761 47bd 95b8 1dbd a9e0 5dbd 4d6f 543d
00000390: ad23 0fbe 1303 cfbd 68e2 ecbd 519c b93d
000003a0: 55ca c0bd bd52 8c3d 88fa c8bc 25f4 21be
000003b0: 0e85 903d 92ec b43f 844d 83bf 37dc 8ebd
000003c0: 2a83 5a3d 19b2 5ebe 89d5 86bd 99bd a23d
000003d0: 5983 113c 5ec9 7fbe ddd4 5e3d b2be 88be
000003e0: 4629 e3bc 241a debd 0ecd 46bd aba6 153e
000003f0: 8642 bb3d 6959 b83d 0445 753d 4c6e 63be

rnn.weight_hh_l0 f4 [192, 64]
-0.1353516 -0.24387671 0.111549154 -0.07743206 -0.21735024 -0.18597293 -0.056430463 0.1256484
-0.093278274 -0.19971235 0.05857155 -0.31816742 0.28842548 0.4384177 -0.34165022 0.05810072
0.014135357 -0.19213043 0.09678375 0.049140308 0.07372199 0.15712112 0.2767741 0.16392191
-0.15351264 -0.0042750095 0.21484552 0.09301128 -0.23154742 0.20666821 0.32237202 -0.07199949
0.3087433 -0.1841625 -0.011685461 0.078523844 0.20184587 -0.20793796 -0.28607124 0.13225384
0.2237265 0.05950657 0.10888017 -0.07961019 0.15949523 0.28299588 0.15627044 0.19326563
0.061052594 0.041883122 -0.05272858 -0.075628445 0.032518398 -0.19893777 0.16861105 0.15219381
-0.38573322 -0.38058937 -0.15712692 0.23086376 -0.1741977 -0.14751934 0.38067207 -0.025808983
-0.01608247 0.048213683 -0.08838277 -0.16465335 0.0041001416 0.10340798 -0.090989724 0.045928575
-0.04168823 -0.04135044 -0.04261987 -0.076237865 0.029927144 0.18622324 0.14247392 -0.09874207
0.15610754 -0.01432082 -0.2143559 0.011013274 -0.006583385 -0.025131159 0.12381754 -0.0524914
0.100243405 -0.04950774 0.07291671 -0.18325037 0.030788805 -0.0065512992 -0.078155264 0.012332894
-0.06757332 -0.021026632 -0.18402871 -0.034719616 0.030340917 0.032311518 0.08984414 0.06825583
-0.08902057 0.043217 0.095954955 0.08391504 0.04352649 -0.008740339 0.21755794 0.08380035
0.089480504 0.18803866 0.13362478 -0.05767002 -0.18459609 0.07582097 -0.008106149 0.023195097
0.116496086 -0.15649037 -0.074461706 -0.097331114 -0.025877364 0.07322649 0.0010300076 0.0893655
-0.20047899 0.054787006 -0.09245957 -0.07160834 -0.009916643 -0.038315706 0.11547321 -0.14568712
-0.13061793 0.007029549 -0.20647663 0.0057710307 0.032548368 0.2511444 0.006646009 -0.017949274
-0.06970336 0.0053619538 -0.07131971 0.14540498 -0.08623278 -0.026602613 -0.13415022 -0.19211414
0.027703224 -0.08364124 -0.045961536 0.06938129 0.21148281 -0.1096951 0.104609 0.08337008
-0.08229134 -0.1450757 -0.10730067 -0.03092118 0.08466792 0.06002 0.10425624 0.10374467
0.08122683 -0.05112612 0.2625326 -0.01251897 -0.044641934 0.03741813 0.08995354 -0.03661903
0.08539081 0.14899872 0.09654801 -0.08119237 0.010613162 0.018081296 -0.13456413 0.022922365
-0.15894662 -0.12952042 0.035453644 0.019931538 0.020551603 0.030040877 0.06655725 0.0009341024
-0.027779974 0.08260781 -0.12442461 -0.20173022 -0.19209498 0.15888156 0.17953598 -0.046282146
-0.33362702 -0.07216343 -0.25397998 -0.0438292 -0.018777143 0.038800433 -0.10762179 -0.047674574
-0.07835366 -0.15413167 -0.33288494 0.09728733 -0.033094887 -0.03518724 -0.0852793 0.040404275
-0.2750072 0.12942865 0.035529613 -0.06516608 0.10383512 0.1066328 0.04744857 0.11687322
-0.09613713 0.0154400375 -0.014064603 0.11432214 0.076946035 0.060732413 0.101149626 0.15842624
0.08263492 0.10646315 0.34087622 0.2179591 -0.19201845 0.15070097 0.1897669 0.028862547
-0.030495454 0.3551617 0.07266871 -0.18712199 0.0016895037 0.08794229 0.034690663 0.17076366
-0.09284273 -0.17908405 -0.23081468 0.1645532 -0.0028094284 0.008041326 0.1665089 -0.02339452
00000000: 9c99 0abe d1ba 79be e273 e43d b394 9ebd
00000010: 1091 5ebe b06f 3ebe a123 67bd f9a9 003e
00000020: ae08 bfbd 6581 4cbe b9e8 6f3d d7e6 a2be
00000030: 81ac 933e 4978 e03e c7ec aebe 05fb 6d3d
00000040: fc97 673c d7bd 44be 8f36 c63d 5947 493d
00000050: 8efb 963d 5ce4 203e 56b5 8d3e 25db 273e
00000060: 6b32 1dbe 6115 8cbb 7700 5c3e b37c be3d
00000070: c41a 6dbe d5a0 533e f20d a53e 7874 93bd
00000080: 9a13 9e3e 1895 3cbe 6074 3fbc 1cd1 a03d
00000090: afb0 4e3e b0ed 54be ee77 92be 8d6d 073e
000000a0: 8f18 653e 29bd 733d 91fc de3d ab0a a3bd
000000b0: b852 233e d6e4 903e 5c05 203e 6de7 453e
000000c0: 4912 7a3d a38d 2b3d ecf9 57bd 16e3 9abd
000000d0: 0332 053d 58b6 4bbe 60a8 2c3e b2d8 1b3e
000000e0: d37e c5be 9cdc c2be e1e5 20be 8d67 6c3e
000000f0: e260 32be 4f0f 17be 73e7 c23e 5c6d d3bc
00000100: 62bf 83bc b67b 453d 0702 b5bd e39a 28be
00000110: 7b5a 863b 90c7 d33d d258 babd 9a1f 3c3d
00000120: 47c1 2abd 145f 29bd 2c92 2ebd 9922 9cbd
00000130: c529 f53c 4eb1 3e3e afe4 113e 4839 cabd
00000140: a8da 1f3e dfa1 6abc 1d80 5bbe 0571 343c
00000150: 70b9 d7bb dcdf cdbc 0d94 fd3d 3901 57bd
00000160: 6a4c cd3d a1c8 4abd 5b55 953d fca5 3bbe
00000170: ce38 fc3c 48ac d6bb de0f a0bd e80f 4a3c
00000180: e163 8abd 0b40 acbc 0672 3cbe 2836 0ebd
00000190: 848d f83c 1559 043d 3400 b83d b6c9 8b3d
000001a0: 6b50 b6bd 4f04 313d 0884 c43d a6db ab3d
000001b0: d548 323d a433 0fbc 82c7 5e3e 859f ab3d
000001c0: 8e41 b73d 358d 403e efd4 083e 6637 6cbd
000001d0: c206 3dbe 0648 9b3d a7cf 04bc a503 be3c
000001e0: 8095 ee3d 033f 20be 617f 98bd 8955 c7bd
000001f0: c4fc d3bc c5f7 953d 5201 873a 4205 b73d
00000200: 5d4a 4dbe 5768 603d 715b bdbd 65a7 92bd
00000210: 6a79 22bc eef0 1cbd 387d ec3d 012f 15be
00000220: b5c0 05be 2258 e63b 9c6e 53be ea1a bd3b
00000230: 7051 053d 0096 803e c4c6 d93b 5b0a 93bc
00000240: a3c0 8ebd 54b3 af3b 1110 92bd 0be5 143e
00000250: d09a b0bd b9ed d9bc ad5e 09be 92b9 44be
00000260: dff1 e23c 194c abbd 2a42 3cbd c717 8e3d
00000270: f38e 583e d3a7 e0bd 3e3d d63d efbd aa3d
00000280: 5d88 a8bd b98e 14be 74c0 dbbd 6a4e fdbc
00000290: 6066 ad3d 88d7 753d 4c84 d53d 1678 d43d
000002a0: 415a a63d 9f69 51bd ac6a 863e 5e1c 4dbc
000002b0: 76da 36bd c143 193d 9039 b83d d6fd 15bd
000002c0: 61e1 ae3d 1f93 183e f7ba c53d 2f48 a6bd
000002d0: d4e2 2d3c 3a1f 943c 2ecb 09be afc7 bb3c
000002e0: e7c2 22be 00a1 04be d737 113d 7747 a33c
000002f0: d65b a83c 4918 f63c 2b4f 883d 8dde 743a
00000300: d492 e3bc 492e a93d 54d2 febd 5e92 4ebe
00000310: 8cb4 44be d9b1 223e 48d8 373e 5992 3dbd
00000320: 29d1 aabe 6cca 93bd aa09 82be 3f86 33bd
00000330: 86d2 99bc 34ed 1e3d d068 dcbd 6a46 43bd
00000340: e277 a0bd b1d4 1dbe e56f aabe 943e c73d
00000350: 818e 07bd 7f20 10bd eaa6 aebd f47e 253d
00000360: becd 8cbe f288 043e 8087 113d cb75 85bd
00000370: 82a7 d43d 4c62 da3d 6f59 423d 3a5b ef3d
00000380: 8be3 c4bd 36f8 7c3c 386f 66bc ba21 ea3d
00000390: e295 9d3d 8dc2 783d 8927 cf3d 7d3a 223e
000003a0: 7f3c a93d 5a09 da3d 5487 ae3e ac30 5f3e
000003b0: 7ca0 44be 5b51 1a3e 4152 423e 2671 ec3c
000003c0: 9ad1 f9bc c1d7 b53e 55d3 943d e89c 3fbe
000003d0: 5672 dd3a 161b b43d cc17 0e3d abdc 2e3e
000003e0: 5424 bebd cf61 37be af5a 6cbe a280 283e
000003f0: 631e 38bb c4bf 033c 4f81 2a3e dda5 bfbc

rnn.bias_ih_l0 f4 [192]
0.04344749 0.089783855 0.12344379 -0.05446983 0.07212635 -0.012669018 0.03277428 0.056460727
0.118068896 -0.06314883 0.19079146 0.07947477 -0.06871677 0.10867049 -0.027524162 -0.054871906
0.0058747157 -0.053862207 0.024814818 -0.09390525 0.08155783 0.06923036 0.0021719718 0.22811024
-0.08825577 0.038456395 -0.04558737 0.11939806 -0.0748564 -0.12991567 0.074740574 -0.011370865
0.1115641 0.08284758 -0.037649333 0.03986569 0.00047638733 0.0544595 0.10243744 -0.07630627
-0.042841975 -0.03831958 0.13509412 0.059680644 -0.029780384 -0.008449047 -0.00018000297 0.061736148
-0.030630581 -0.00051329396 -0.03136811 0.08344839 0.06321506 -0.014333133 -0.008020727 -0.027187353
-0.009906383 0.037725016 0.01672004 0.19305721 0.21896195 -0.0036303792 0.0797718 0.075555086
-0.015473158 -0.16544032 -0.2512206 -0.1259985 0.055656802 -0.053423215 -0.058150943 -0.058749355
0.02184589 -0.109116144 -0.003256013 -0.0037477924 -0.0014502533 -0.15241396 -0.12435229 -0.09549795
-0.019150322 -0.16713199 -0.14487399 -0.16607046 -0.00019119994 -0.16477232 -0.15100399 -0.10245034
-0.16383895 -0.07671272 -0.084759556 -0.11497424 -0.0152895795 -0.013735962 0.032196555 -0.011863993
0.120637305 0.012616478 -0.23281227 -0.1327081 -0.09256255 0.05177211 -0.07180275 -0.16656564
-0.19881764 -0.23238635 -0.15572846 0.053020515 -0.12676948 0.06795323 0.023358565 0.17185776
0.0063096783 -0.1135493 -0.14818273 -0.03378972 -0.029480703 -0.1283093 -0.008853315 0.046072684
-0.16999324 -0.06388837 -0.17357749 0.07533709 0.07777105 -0.23416544 -0.038380407 0.034339074
-0.12563573 0.045274686 0.025435334 0.055600855 0.13930313 0.07594849 -0.096024565 -0.018287085
-0.0508208 0.044074014 -0.0893007 -0.1329434 0.15756273 0.073145166 -0.0048227343 -0.0031184482
0.12837648 -0.0037404299 -0.043280106 -0.056698583 0.07620812 -0.0981127 0.18718557 0.062422346
0.10287636 0.04114186 0.030933812 -0.12312303 -0.10341705 -0.12044443 -0.046236604 -0.023622135
0.03744303 -0.025100175 -0.04685276 -0.07967792 0.05416139 -0.014981651 -0.13961111 0.14377844
-0.09281138 -0.05980365 0.062972926 -0.14117141 0.09561659 -0.030820904 -0.044483136 0.08785601
-0.14749211 -0.02149785 0.03006032 0.15925066 -0.09549566 0.04697566 0.16399704 0.030214712
0.17864867 -0.03332966 0.046075784 0.09909942 -0.14484663 -0.00987406 0.0633295 -0.119836554
00000000: fff5 313d 99e0 b73d 19d0 fc3d c21b 5fbd
00000010: fbb6 933d b691 4fbc 533e 063d 5d43 673d
00000020: 1bce f13d 2c54 81bd d65e 433e abc3 a23d
00000030: 61bb 8cbd a28e de3d 5a7a e1bc 5dc1 60bd
00000040: b080 c03b 9e9e 5cbd 7248 cb3c 6551 c0bd
00000050: cb07 a73d a6c8 8d3d a457 0e3b bb95 693e
00000060: 71bf b4bd 7484 1d3d d2b9 3abd f886 f43d
00000070: 504e 99bd 9d08 05be 9611 993d dd4c 3abc
00000080: b87b e43d feab a93d 3036 1abd 354a 233d
00000090: a0c3 f939 ed10 5f3d b8ca d13d 7646 9cbd
000000a0: 117b 2fbd fef4 1cbd 1d56 0a3e b173 743d
000000b0: fef5 f3bc df6d 0abc 2ebf 3cb9 0bdf 7c3d
000000c0: fcec fabc 938e 06ba d97b 00bd fde6 aa3d
000000d0: e676 813d 84d5 6abc 5e69 03bc 03b8 debc
000000e0: 624e 22bc 8c85 1a3d 77f8 883c cab0 453e
000000f0: 9037 603e a8eb 6dbb 665f a33d a0bc 9a3d
00000100: 2183 7dbc 3069 29be fd9f 80be c005 01be
00000110: 63f8 633d 4dd2 5abd af2f 6ebd 2aa3 70bd
00000120: 27f6 b23c 4978 dfbd d562 55bb 869d 75bb
00000130: 6d16 beba 6812 1cbe 6aac febd 6e94 c3bd
00000140: 23e1 9cbc a624 2bbe d959 14be 600e 2abe
00000150: d87c 48b9 13ba 28be caa0 1abe 7cd1 d1bd
00000160: 66c5 27be 8f1b 9dbd 6b96 adbd 9d77 ebbd
00000170: 2581 7abc cd0c 61bc 89e0 033d 3161 42bc
00000180: b110 f73d 58b5 4e3c 5766 6ebe a2e4 07be
00000190: 6f91 bdbd fe0e 543d 520d 93bd 2f90 2abe
000001a0: da96 4bbe b0f6 6dbe 4877 1fbe 0a2c 593d
000001b0: dccf 01be 102b 8b3d 765a bf3c 7bfb 2f3e
000001c0: 6bc1 ce3b 898c e8bd 37bd 17be 1767 0abd
000001d0: 8481 f1bc 8363 03be 7f0d 11bc b6b6 3c3d
000001e0: b512 2ebe e8d7 82bd 4cbe 31be 554a 9a3d
000001f0: 6e46 9f3d 11c9 6fbe c634 1dbd 21a7 0c3d
00000200: a7a6 00be f371 393d c35d d03c b9bd 633d
00000210: 7ba5 0e3e e28a 9b3d 87a8 c4bd ccce 95bc
00000220: 7929 50bd f486 343d 49e3 b6bd 5122 08be
00000230: 2058 213e 22cd 953d 0708 9ebb e15e 4cbb
00000240: 2075 033e 0022 75bb 7b46 31bd c63c 68bd
00000250: 0113 9c3d 50ef c8bd 93ad 3f3e 93ae 7f3d
00000260: d7b0 d23d 5e84 283d e868 fd3c ed27 fcbd
00000270: 51cc d3bd 92ab f6bd 9862 3dbd 3583 c1bc
00000280: dd5d 193d e29e cdbc aee8 3fbd 2d2e a3bd
00000290: 55d8 5d3d 9975 75bc 37f6 0ebe a83a 133e
000002a0: e513 bebd acf4 74bd f3f7 803d 3d8f 10be
000002b0: a1d2 c33d 1f7c fcbc f333 36bd daed b33d
000002c0: 2c08 17be 421c b0bc 0f41 f63c 9b12 233e
000002d0: 3b93 c3bd 8d69 403d d7ee 273e d884 f73c
000002e0: adef 363e ae84 08bd f6b9 3c3d a3f4 ca3d
000002f0: ad52 14be cfc6 21bc e6b2 813d de6c f5bd

rnn.bias_hh_l0 f4 [192]
0.032958753 -0.045156 -0.035569284 0.016838029 0.06958566 -0.086977445 0.10581831 -0.0544369
0.06441538 -0.014688907 0.15105335 0.05810651 -0.10444548 -0.08249874 0.08600407 0.05992509
-0.14310412 0.019049207 0.082026154 0.0030795268 -0.030719938 -0.043881442 0.11098029 0.04031315
0.05100564 -0.10386732 0.05588252 -0.06259859 0.11266044 -0.1259515 -0.02671772 0.055337384
0.0550682 -0.10368028 -0.22407496 0.037966892 -0.05178329 0.19047548 0.24495184 0.019699067
0.13762107 0.057145957 -0.078420885 0.1574335 0.045468614 0.0021154487 0.03857321 0.048874673
-0.10422166 0.087516606 -0.017865375 0.009818017 0.083243124 0.011244765 0.16935115 -0.020231226
0.091663815 0.04571327 0.012989565 0.042108383 0.041015923 0.03960013 -0.105670035 0.16959181
0.019330852 -0.03452009 -0.12778762 -0.024690336 -0.037075955 -0.09907766 -0.14467393 -0.15011874
-0.047683753 -0.00018417121 -0.035831768 0.004666431 -0.09623289 0.035401966 -0.045002367 -0.1762677
0.20757802 -0.11507626 -0.1579114 -0.11789814 -0.007572227 -0.17296076 -0.025107771 -0.14708547
-0.10721994 -0.11101288 -0.099696755 -0.0438975 0.048646558 -0.16551712 -0.08217547 -0.1440116
0.26434615 -0.016961806 -0.15322295 -0.052550487 0.025142733 -0.15605877 -0.05887572 -0.012377451
-0.1312108 -0.3744794 -0.014208536 -0.1343016 -0.08191719 0.06289547 -0.19585843 0.20957395
-0.07392587 -0.041036338 -0.11408797 0.050898153 0.028562656 -0.06240592 0.027031217 0.03986685
0.016127579 0.022478083 -0.09992273 0.096104026 0.19982478 -0.1857298 0.047016144 -0.11063677
-0.019440848 -0.16446757 0.06856967 -0.052849077 0.05358004 -0.11671375 0.068124935 0.18407279
-0.023850426 0.0043340954 -0.05716775 0.010007491 0.005232735 -0.091957904 0.13987358 -0.19747424
0.025273118 0.13837019 0.034514926 0.087725215 0.18378569 -0.10301845 0.0032736592 0.037727334
-0.09054789 0.1397297 -0.10276147 0.045150526 -0.1565207 -0.073597424 -0.12824875 0.08946164
0.055033267 -0.07870593 -0.074543916 -0.042178363 0.08070018 -0.1129532 -0.012018322 0.112181686
0.040890645 0.032773744 -0.059691433 -0.074284665 0.06459484 0.044086736 -0.0676956 0.08990186
-0.1452448 0.07300682 0.10587862 0.102186516 -0.09012713 0.05387817 0.12599656 0.14155559
0.049548067 -0.113128126 0.056987062 0.16865152 -0.1394181 0.1013843 -0.12961367 -0.17048192
00000000: c2ff 063d 7ff5 38bd 19b1 11bd e8ef 893c
00000010: ed82 8e3d 3b21 b2bd 45b7 d83d 3af9 5ebd
00000020: 36ec 833d bea9 70bc bbad 1a3e 1801 6e3d
00000030: 83e7 d5bd 19f5 a8bd e722 b03d 0374 753d
00000040: e389 12be 150d 9c3c 54fd a73d e3d1 493b
00000050: 61a8 fbbc 07bd 33bd a249 e33d 671f 253d
00000060: 4aeb 503d 64b8 d4bd 12e5 643d b133 80bd
00000070: 84ba e63d 6ef9 00be 1fdf dabc 74a9 623d
00000080: 318f 613d 5456 d4bd e873 65be 2c83 1b3d
00000090: b71a 54bd 010c 433e a8d4 7a3e f05f a13c
000000a0: 8aec 0c3e e111 6a3d 219b a0bd 3f36 213e
000000b0: 4c3d 3a3d 57a3 0a3b f1fe 1d3d cf30 483d
000000c0: 2a72 d5bd e83b b33d 685a 92bc bfdb 203c
000000d0: 5f7b aa3d f63b 383c 636a 2d3e f5bb a5bc
000000e0: 3dba bb3d d63d 3b3d 2fd2 543c d779 2c3d
000000f0: 5000 283d bf33 223d 8869 d8bd 7aa9 2d3e
00000100: bc5b 9e3c f064 0dbd c2da 02be 6343 cabc
00000110: f5dc 17bd 3ae9 cabd 6725 14be bab8 19be
00000120: 0a50 43bd 151e 41b9 55c4 12bd dce8 983b
00000130: c015 c5bd a701 113d 6754 38bd 857f 34be
00000140: 558f 543e 1aad ebbd 87b3 21be 9474 f1bd
00000150: 7220 f8bb a01c 31be d0ae cdbc 939d 16be
00000160: 2196 dbbd b95a e3bd d02d ccbd ddcd 33bd
00000170: 9d41 473d 527d 29be 9d4b a8bd c777 13be
00000180: 6158 873e 7cf3 8abc 7ae6 1cbe 2e3f 57bd
00000190: 22f8 cd3c dfcd 1fbe ab27 71bd cbca 4abc
000001a0: 205c 06be c4bb bfbe ebca 68bc 5c86 09be
000001b0: 33c4 a7bd 57cf 803d 1d8f 48be 8e9a 563e
000001c0: 7266 97bd b815 28bd f4a6 e9bd 957a 503d
000001d0: 3bfc e93c 5a9d 7fbd 9270 dd3c 6c4b 233d
000001e0: fc1d 843c f523 b83c 4aa4 ccbd 30d2 c43d
000001f0: de9e 4c3e f42f 3ebe 0094 403d 8895 e2bd
00000200: 6a42 9fbc 306a 28be 416e 8c3d 4678 58bd
00000210: be76 5b3d 9e07 efbd 1685 8b3d 947d 3c3e
00000220: f861 c3bc 0705 8e3b bb28 6abd 76f6 233c
00000230: 5d77 ab3b 6d54 bcbd 053b 0f3e b036 4abe
00000240: 9209 cf3c eab0 0d3e 865f 0d3d 47a9 b33d
00000250: 5132 3c3e 56fb d2bd e38a 563b fa87 1a3d
00000260: 2c71 b9bd 4d15 0f3e 9b74 d2bd c2ef 383d
00000270: f646 20be 3fba 96bd a453 03be aa37 b73d
00000280: 906a 613d 9330 a1bd 7baa 98bd 38c3 2cbd
00000290: 2346 a53d 0254 e7bd 7fe8 44bc 83bf e53d
000002a0: f37c 273d c33d 063d 017f 74bd 8f22 98bd
000002b0: 4d4a 843d 4b94 343d fea3 8abd 771e b83d
000002c0: 0ebb 14be 9a84 953d e4d6 d83d 2a47 d13d
000002d0: 9394 b8bd 5baf 5c3d 3e05 013e f3f3 103e
000002e0: eaf2 4a3d b8af e7bd 446b 693d fcb2 2c3e
000002f0: 9ec3 0ebe 92a2 cf3d 72b9 04be d092 2ebe

exp_avg f4 [1, 64]
-0.00048041673 -0.0020192242 0.0013631334 0.000582664 0.00015436416 -0.0016812688 0.00018421328 0.002023397
-0.0008887344 -0.00018865288 0.00047983677 -0.00013217225 0.0014602927 0.0013893397 -0.001267864 0.0006937618
0.0019663915 0.000533909 0.0014787726 0.0009789984 0.0031365897 0.0046501253 0.0033334438 0.00044789357
-0.00031222482 0.00027081024 -0.00037464857 0.0017222901 -0.001610299 0.004277172 0.00030724783 -0.00067293213
0.0004611054 -0.0010241098 0.0026570943 0.0033654345 0.0010585295 -0.002913445 -0.0018244182 -0.0012690148
0.0035136356 -0.0037138008 0.0006768439 -0.0018607129 0.0019338827 0.00020626895 -0.0018858187 7.104428e-05
-0.0011910655 0.00063667935 -0.0026256435 0.0016988158 0.001351994 -0.0019355518 0.0012694183 0.00014534785
0.0012053583 -0.00015120438 0.000607221 0.010093863 -0.0035357303 -0.0032709818 0.0012186383 0.0027114062
00000000: 71e0 fbb9 f654 04bb 2bab b23a ebbd 183a
00000010: d0dc 2139 055e dcba 6029 4139 f89a 043b
00000020: f5f9 68ba 1fd1 45b9 9a92 fb39 b897 0ab9
00000030: 4b67 bf3a 811a b63a 752e a6ba 91dd 353a
00000040: 93de 003b 07f6 0b3a 60d3 c13a bc51 803a
00000050: 3e8f 4d3b 1460 983b e875 5a3b 42d3 ea39
00000060: 1bb2 a3b9 89fb 8d39 7b6c c4b9 77be e13a
00000070: ab10 d3ba 8527 8c3b 1b16 a139 b667 30ba
00000080: 85c0 f139 6c3b 86ba a522 2e3b 9f8e 5c3b
00000090: 5bbe 8a3a 7fef 3ebb 5121 efba 1255 a6ba
000000a0: 0645 663b 3d63 73bb 3a6e 313a 2ae3 f3ba
000000b0: 567a fd3a e649 5839 932d f7ba 9bfd 9438
000000c0: 871d 9cba d4e6 263a fd12 2cbb cdaa de3a
000000d0: 6435 b13a 57b2 fdba 9c62 a63a 8468 1839
000000e0: 1dfd 9d3a 9e8c 1eb9 e92d 1f3a bb60 253c
000000f0: b6b7 67bb f85d 56bb b7ba 9f3a d9b1 313b

exp_avg_sq f4 [1, 64]
4.8803918e-06 1.14191835e-05 9.212663e-06 4.1794967e-05 1.04619685e-05 1.4041271e-05 2.649061e-06 2.0434227e-05
1.7592596e-05 1.9692895e-06 1.3353254e-06 3.6495499e-06 6.0315238e-06 4.9179557e-06 4.173119e-06 2.8668262e-06
6.548713e-06 6.956093e-07 3.3791614e-05 4.5557294e-06 1.593471e-05 6.058433e-05 4.5278553e-05 8.55854e-06
1.6313685e-06 0.000106003055 8.141705e-07 1.1152987e-05 5.0854724e-06 4.3171553e-05 4.9610658e-06 1.1862615e-05
6.63885e-07 2.8811546e-06 2.4964616e-05 5.5638782e-05 2.3648972e-06 1.7314569e-05 4.0422624e-06 2.7413065e-05
3.412637e-05 3.9674593e-05 9.247626e-06 1.0930327e-05 2.0881178e-05 8.208228e-07 2.3361643e-05 1.330004e-06
5.513329e-06 1.974515e-05 3.8738577e-05 1.630054e-05 1.8618206e-05 7.693089e-06 5.513141e-06 1.4768616e-05
8.758358e-06 1.8962204e-06 2.4872877e-05 0.00012274593 1.7156874e-05 2.2984143e-05 4.1814505e-06 7.208566e-05
00000000: 3fc2 a336 0595 3f37 1690 1a37 014d 2f38
00000010: d085 2f37 cd92 6b37 85c6 3136 2b6a ab37
00000020: d093 9337 2328 0436 6e39 b335 caea 7436
00000030: 6562 ca36 eb04 a536 d206 8c36 b363 4036
00000040: 04bd db36 e8b9 3a35 78bb 0d38 6bdd 9836
00000050: 87ab 8537 ee1b 7e38 7ae9 3d38 a696 0f37
00000060: 65f5 da35 f54d de38 5f8d 5a35 b71d 3b37
00000070: e0a3 aa36 1a13 3538 3b77 a636 8b05 4737
00000080: d435 3235 dc59 4136 1b6b d137 b05d 6938
00000090: a0b4 1e36 c13e 9137 c5a2 8736 1cf5 e537
000000a0: e922 0f38 4568 2638 4026 1b37 6661 3737
000000b0: fd29 af37 8356 5c35 bff8 c337 9782 b235
000000c0: 23ff b836 63a2 a537 3b7b 2238 25bd 8837
000000d0: 4b2e 9c37 9111 0137 85fd b836 b9c6 7737
000000e0: dcf0 1237 a381 fe35 19a6 d037 5cb5 0039
000000f0: 1bec 8f37 12ce c037 634e 8c36 b22c 9738

exp_avg f4 [64, 64]
-0.00029198488 0.002041434 0.0032803745 -0.004807901 -0.00081760547 0.0026507226 -0.0025724713 -0.0049831825
-0.0037830316 0.0011583967 -0.0035973687 0.0050434987 0.0022580693 -0.00043935722 0.0034394274 -0.0072445166
0.0036277238 0.0048676906 -0.0029467423 -0.0017208295 0.002401797 -0.0039652847 -0.0008324749 0.0022367798
0.0029545147 0.0048967465 -0.0006845583 -0.005532181 -0.0009012054 -0.003050033 -0.0013873735 0.0039632437
0.001969283 -0.0016024801 -0.00014726134 -0.0010029831 6.183966e-05 -0.0019342585 -0.002198379 0.001836888
-0.004033821 -0.003078492 -0.001231637 -0.0009782506 -3.9848295e-05 -0.00047886005 0.0037438206 0.00035403477
-0.0021071762 0.0020794834 0.0061318516 0.00043332024 -0.0026928831 0.005358409 0.00056018436 0.0049999133
0.0017823366 0.00012040058 -0.0022886244 0.0031563465 -0.0078248065 0.006122882 -0.0044282447 -0.0037362687
0.011456616 -0.014921954 -0.003566433 0.018846218 0.013581849 -0.009732067 -0.007543552 0.01904653
0.0225329 0.0036415134 0.021662144 -0.008235498 -0.0016004905 -0.004356923 -8.742197e-05 0.0065289848
0.00042536552 -0.0032793197 0.0061832843 -0.002248063 0.012783503 0.0034071067 0.010339112 0.009984253
0.0028550052 -0.005554752 -0.004997319 0.004052125 -0.0044440334 0.00021022608 -0.004333706 -0.015292499
0.009930951 0.007154862 0.0027673463 -0.00584185 8.553876e-05 -0.0037866211 -0.0089077605 0.0022859052
-0.0009028424 0.0015594551 -0.009864808 -0.0148305595 0.016078245 -0.009212809 -0.013297658 0.0058801766
-0.004061029 -0.01563793 -0.010599423 0.012901938 0.0071563865 -0.0022712795 0.010060604 -0.0065778363
0.007815195 0.005550642 0.018314105 0.0065001952 0.002455347 -0.009989816 0.0012151046 -0.008082077
-2.4823476e-06 -0.00044641108 -0.0007258948 0.0010871016 8.131153e-05 -0.0006093338 0.0005815686 0.0011763189
0.00083246693 -0.00024923965 0.0007520674 -0.0010640268 -0.0004321376 0.00014249998 -0.00072749925 0.0014890902
-0.00069344015 -0.0010061829 0.0006664223 0.00036671158 -0.00047654117 0.0008043557 0.00022280721 -0.00044709377
-0.0006363825 -0.001044172 0.00016198216 0.0011506256 0.00018204712 0.00061317754 0.0003170161 -0.0008596334
-0.00048058323 0.00027961616 3.7501355e-05 0.00015612866 2.7447346e-05 0.00051807746 0.00041180986 -0.00035071885
0.00080074795 0.00064731675 0.00030182907 0.00017037053 8.567988e-05 0.00014963593 -0.00086453755 -5.850151e-05
0.00041845595 -0.00038244473 -0.0013105414 1.1453556e-05 0.0005885308 -0.0010932566 -6.1699124e-05 -0.0010433518
-0.00036178765 -7.4969306e-05 0.0005728919 -0.00075747014 0.0015580164 -0.0012760815 0.00090504135 0.00073421735
-6e-45 -6e-45 6e-45 -6e-45 6e-45 6e-45 -6e-45 -6e-45
-6e-45 6e-45 -6e-45 -6e-45 -6e-45 6e-45 6e-45 -6e-45
6e-45 6e-45 -6e-45 -6e-45 6e-45 -6e-45 -6e-45 6e-45
6e-45 6e-45 -6e-45 -6e-45 -6e-45 -6e-45 6e-45 6e-45
6e-45 -6e-45 -6e-45 -6e-45 6e-45 -6e-45 -6e-45 6e-45
-6e-45 -6e-45 6e-45 6e-45 -6e-45 -6e-45 6e-45 6e-45
-6e-45 6e-45 6e-45 6e-45 -6e-45 6e-45 6e-45 6e-45
6e-45 -6e-45 -6e-45 6e-45 -6e-45 6e-45 6e-45 -6e-45
00000000: 8c15 99b9 94c9 053b 8dfb 563b 998b 9dbb
00000010: 9354 56ba bfb7 2d3b e896 28bb f749 a3bb
00000020: bdec 77bb 58d5 973a d5c1 6bbb ef43 a53b
00000030: 1efc 133b 8759 e6b9 0468 613b 6963 edbb
00000040: 1bbf 6d3b 2681 9f3b 221e 41bb 758d e1ba
00000050: 7867 1d3b 38ef 81bb 723a 5aba f096 123b
00000060: 88a0 413b e374 a03b ee73 33ba 4c47 b5bb
00000070: df3e 6cba 10e3 47bb 88d8 b5ba 19de 813b
00000080: 160f 013b 4f0a d2ba 2a6a 1ab9 8776 83ba
00000090: eaaf 8138 f286 fdba ae12 10bb bcc3 f03a
000000a0: 252e 84bb 86c0 49bb e16e a1ba a538 80ba
000000b0: c822 27b8 820f fbb9 e35a 753b be9d b939
000000c0: 8d18 0abb f147 083b b3ed c83b 422f e339
000000d0: 157b 30bb 9895 af3b 56d9 123a 50d6 a33b
000000e0: 4b9d e93a 927f fc38 bffc 15bb b5da 4e3b
000000f0: 9e33 00bc 75a2 c83b cf1a 91bb 30dc 74bb
00000100: 88b4 3b3c 367b 74bc d1ba 69bb 6263 9a3c
00000110: 6786 5e3c 3f73 1fbc e72f f7bb 7807 9c3c
00000120: eb96 b83c 75a6 6e3b cf74 b13c 2fee 06bc
00000130: 8dc7 d1ba 85c4 8ebb 5056 b7b8 18f1 d53b
00000140: 9803 df39 dbe9 56bb 269d ca3b 3d54 13bb
00000150: e671 513c c449 5f3b 6165 293c fe94 233c
00000160: 0a1b 3b3b a304 b6bb 8dc0 a3bb b0c7 843b
00000170: 419f 91bb 2270 5c39 c301 8ebb 648d 7abc
00000180: 6db5 223c 5573 ea3b 5e5c 353b fd6c bfbb
00000190: 4663 b338 f628 78bb dbf1 11bc 20cf 153b
000001a0: baac 6cba a166 cc3a 01a0 21bc e0fb 72bc
000001b0: 86b6 833c 52f1 16bc 6cde 59bc 7fae c03b
000001c0: 6112 85bb 1e1b 80bc 34a9 2dbc a662 533c
000001d0: 1f80 ea3b bfd9 14bb 3bd5 243c e48a d7bb
000001e0: 4e0b 003c 29e2 b53b 7607 963c 97ff d43b
000001f0: e3e9 203b 53ac 23bc 2544 9f3a b06a 04bc
00000200: 6896 26b6 480c eab9 fa49 3eba 147d 8e3a
00000210: cc85 aa38 b3bb 1fba 6874 183a b62e 9a3a
00000220: e939 5a3a 61ac 82b9 6426 453a d176 8bba
00000230: 8790 e2b9 0c6c 1539 a6b5 3eba 932d c33a
00000240: fbc7 35ba e5e1 83ba d8b2 2e3a 3243 c039
00000250: 46d8 f9b9 66db 523a 5ba1 6939 e967 eab9
00000260: e8d2 26ba 99dc 88ba c1d9 2939 97d0 963a
00000270: e7e3 3e39 a6bd 203a 2e35 a639 0559 61ba
00000280: caf6 fbb9 7299 9239 c64a 1d38 78b6 2339
00000290: ba3e e637 97cf 073a 2fe8 d739 b0e0 b7b9
000002a0: 49e9 513a b1b0 293a d03e 9e39 7ea5 3239
000002b0: 09af b338 97e7 1c39 22a2 62ba 855f 75b8
000002c0: 3564 db39 dd82 c8b9 79c6 abba a628 4037
000002d0: a247 1a3a 9b4b 8fba 7764 81b8 14c1 88ba
000002e0: 51ae bdb9 d738 9db8 202e 163a f690 46ba
000002f0: 5b36 cc3a 3142 a7ba 4c40 6d3a 7e78 403a
00000300: 0400 0080 0400 0080 0400 0000 0400 0080
00000310: 0400 0000 0400 0000 0400 0080 0400 0080
00000320: 0400 0080 0400 0000 0400 0080 0400 0080
00000330: 0400 0080 0400 0000 0400 0000 0400 0080
00000340: 0400 0000 0400 0000 0400 0080 0400 0080
00000350: 0400 0000 0400 0080 0400 0080 0400 0000
00000360: 0400 0000 0400 0000 0400 0080 0400 0080
00000370: 0400 0080 0400 0080 0400 0000 0400 0000
00000380: 0400 0000 0400 0080 0400 0080 0400 0080
00000390: 0400 0000 0400 0080 0400 0080 0400 0000
000003a0: 0400 0080 0400 0080 0400 0000 0400 0000
000003b0: 0400 0080 0400 0080 0400 0000 0400 0000
000003c0: 0400 0080 0400 0000 0400 0000 0400 0000
000003d0: 0400 0080 0400 0000 0400 0000 0400 0000
000003e0: 0400 0000 0400 0080 0400 0080 0400 0000
000003f0: 0400 0080 0400 0000 0400 0000 0400 0080
