saved_models/discretised/checkpoint379.pth (torch, 224977 bytes, 27 tensors)

h0 f4 [1, 64]
00000000: 7e84 81bf 89cc 923f 76f1 00bf 1d73 4abf
00000010: d532 093e b60c 6ebf b729 283f 028f cd3e
00000020: d88f 83bf 45d3 a2bf 70bf ee3e 52ef 213f
00000030: 99b6 6e3f d8b5 1abf f115 03bf 0f8e 853e
00000040: 66d6 34bf 467c 5e3f 519d 08bf 5043 d9bf
00000050: 66da 0440 be69 0e3f 91f1 4d3e b76a 6b3e
00000060: e11f adbf cfc4 d4be c9a3 e73f edf5 683f
00000070: d987 9bbf d9a7 8ebf c100 c3be b711 ad3f
00000080: 89ac aebf 8f6a 2e3f 0a07 69be 1c81 12c0
00000090: ea51 09be 768b 49bc 4bd7 0abf e51f c5bf
000000a0: 25e6 5abf 87df 92bf 6624 86bf f9f8 d33d
000000b0: 1383 a23e 4112 10bf 251d 07bf 5d74 e03f
000000c0: e838 243e c552 803f a6f8 8b3f cab1 e2be
000000d0: 30b5 4e3f f24c ae3f a64c 99bf e1e7 273f
000000e0: e279 23bf ab52 463f 4a06 72bf 9ca0 b33f
000000f0: 02a5 85bf 7d7a 0a3f f6e2 c43f 8fe8 96bf
-1.0118558 1.1468669 -0.5036844 -0.790819 0.13398297 -0.92988145 0.6568865 0.4014817
-1.0278273 -1.2720724 0.4663043 0.632558 0.9324737 -0.6043372 -0.51205355 0.26084945
-0.70639646 0.86908376 -0.53365046 -1.6973667 2.07583 0.556301 0.20111682 0.22989927
-1.3525354 -0.41556403 1.8096858 0.9100025 -1.2150832 -1.1144973 -0.38086513 1.3521031
-1.3646404 0.68131346 -0.22756591 -2.2891302 -0.13410154 -0.0123013165 -0.5423476 -1.5400358
-0.8550742 -1.1474465 -1.0479858 0.10350222 0.31740627 -0.56277853 -0.52778846 1.7535511
0.16037333 1.0025259 1.0935256 -0.44276267 0.8074522 1.3617232 -1.1976516 0.65588194
-0.63857853 0.7746989 -0.94540846 1.4033389 -1.0440981 0.5409315 1.5381763 -1.1789721

trial_output.0.weight f4 [64, 64]
00000000: 4d2c 1dba b53a 81be b340 22bd 27be ea3d
00000010: ee4d 953b b300 8dbe 0786 a4bd 0231 e63d
00000020: e7ec 913c 9dcf c7bd 6267 1f3c a5ee dbbe
00000030: f524 f63d f495 16be 5c19 3bbe 7c46 92bd
00000040: 4e26 133e e1b1 af3c 3ca6 2cbe 9e6a e53d
00000050: 9ee6 343e 08bd 66bd d566 433e 6575 193e
00000060: ef8d 3a3c 447f acbd f72f cc3c 5084 93bc
00000070: 23f7 0bbe 3f4e 033d 78a4 2139 ed35 613d
00000080: 9fbb f43d f8dc dfbc fcbe e6bd 94c7 00be
00000090: 6691 ac3e 9d66 49be 68ef 23bd 9770 dbbe
000000a0: e0d9 473d 52d0 a8bd 419c 51be 7f95 75be
000000b0: 0ef3 c03a 584f 4e3c 9aae 9a3d 26df 813e
000000c0: dc16 17be 1f8c 99bb d047 c3be 768e 543e
000000d0: 2776 35bd c4c2 22be 7995 203e 7cfb bdbd
000000e0: cec9 dbbd 2ef9 093d b74b 9a3d 7fc3 0a3e
000000f0: c4eb 863d 4dbf 65be 7f7d d93c 6286 57bd
00000100: 8090 1b3e a362 47be 0737 19be 481d 38be
00000110: 372c d8bd d79d 16bf 9996 963e 54a2 c6bd
00000120: 46b2 2c3e fa54 41bf fc9e 983c ed46 35bd
00000130: 615f bf3d 893d 083f ff9d 84be 6864 ff3e
00000140: cfcd edbc c12b b4be e7b3 f2be 12fc bd3e
00000150: 9563 8b3d 985e b53d 8e81 50be 2896 a7bd
00000160: e4de 0c3c e226 fabc 9fcc e73e ec1e da3e
00000170: f89a 55be 88f3 283e b6b7 903e 366e 93bc
00000180: 2f4a f63d d6a7 b3bd 1cd5 b83b 3d61 44bd
00000190: c75f 073f 2ac5 f4bd bc83 55be c89c 463f
000001a0: 5665 a43e 4a21 a83e eb63 873e 5177 b1bd
000001b0: b003 6d3d 53c3 1cbd 008f 3b3e 20e0 a33d
000001c0: eb58 483e 269a 6ebd 0a31 8ebe b1ad b73c
000001d0: 7ce0 9b3e 2407 b5be f9f3 5c3d cfc0 5cbe
000001e0: 4a8d 23be ba2f 33bf 48e2 ffbd 4e31 043e
000001f0: 8881 633c 0917 5bbe 9757 f03e 474c 443d
00000200: 4eec 48be 7140 a2be dee9 323e 3c44 363e
00000210: 68c3 5e3d ba9b d8bd 670c bebe 137c 733e
00000220: d4d3 703d 010c 9b3c 3d08 85bc 2159 81be
00000230: d377 fe3d 68c5 4f3d a18d 9dbd 84cc f83c
00000240: ff16 3a3b e07a 17bb a589 7b3d 0095 663d
00000250: 472f 2c3e 6046 7a3d efd5 b53e 0505 1a3e
00000260: bb58 653e b0e0 d23d ff58 a6bd c248 18be
00000270: 6b3b 43be c600 a7b8 306b 683e 77c3 33be
00000280: 9f28 a33e e04b 633d 9e48 773a bb98 013d
00000290: 4424 473e 381d 40be 0c27 27be f493 523e
000002a0: f88c 01bd edec efbd cebd 13be e1a4 b8be
000002b0: 4307 3a3e b023 06be 1c9b d3bd 8d2d 423e
000002c0: 1860 53be 6102 8dbe 97d0 ff3c 0860 3b3e
000002d0: 1e54 e13d 7ebe 843d a955 503e 0304 133d
000002e0: a965 cf3d 5f23 52be ddb3 f03d a7ff 8d3d
000002f0: eb0e 7dbe 1224 c43d 2429 db3d 50ac 993c
00000300: 0e1d 543d 785f f63d 91f0 03be c54a 943b
00000310: 5b3c cc3d 6a36 ebbd a335 14bd a4e9 133e
00000320: a1ec 0e3d 2a41 103e dacb 7bbd f562 7ebc
00000330: 2faf 09bd 3eeb 1b3d a8ea 51bd 8089 263e
00000340: 38e7 7a3d 8044 e4ba 4df0 003d 4207 d1bb
00000350: c8db 0bbe 0044 283d a4ae 9ebd a7e5 d5bd
00000360: 52c4 acbd 12a5 1f3d 8063 2e3d 1883 243e
00000370: b276 153e 0423 a83d 7f4b 56bd ee43 343d
00000380: 752e 30bd 22b0 dd3c 8a44 b1bc feb7 df3c
00000390: eb5a b0ba ba96 22bd 63fa 1a3d a841 4fbd
000003a0: 0d72 723d 2aee 293e 487b 8ebc de56 333c
000003b0: 6245 023d 857c ad3c 90c8 de3c 448c 1dbc
000003c0: ba0b bd3d 3141 d1bd 971d 293d fc76 343d
000003d0: f407 df3d 750b f5bd 7966 11bd 173e 813d
000003e0: fb1e 66bc f4d8 d13d f696 34bc 73a0 23bd
000003f0: edfd e13d 20fc 813d 3011 b0bd 3552 16bd
-0.0005995676 -0.25240102 -0.039612483 0.1146205 0.004556409 -0.27539596 -0.08033376 0.11239816
0.01781316 -0.09756396 0.009729238 -0.4295551 0.12018768 -0.1470564 -0.18271393 -0.0714235
0.14370081 0.021447124 -0.16860288 0.11201976 0.17666098 -0.056332618 0.19082196 0.14986189
0.011386379 -0.084227115 0.024925215 -0.018007427 -0.13668494 0.032057043 0.00015415426 0.05498307
0.119498484 -0.027327046 -0.11266896 -0.12576133 0.3370468 -0.1966805 -0.040023237 -0.42859337
0.048791766 -0.08242859 -0.20469762 -0.2398281 0.0014720873 0.012592159 0.07552834 0.2536556
-0.14754814 -0.004685893 -0.38140726 0.2075747 -0.044302132 -0.1589461 0.1568202 -0.092764825
-0.107318506 0.033684902 0.07533973 0.13551138 0.065879375 -0.22436257 0.026549099 -0.05261839
0.15191841 -0.1947122 -0.14962398 -0.1797992 -0.10555308 -0.58834594 0.29411772 -0.096989304
0.16864881 -0.7552029 0.018630497 -0.044257093 0.09344364 0.53218895 -0.2590179 0.4988129
-0.029028801 -0.35189632 -0.4740288 0.37106377 0.06806103 0.08855933 -0.20361921 -0.08182937
0.008598063 -0.030536119 0.452733 0.42601717 -0.20859897 0.1649915 0.2826516 -0.017996889
0.12025868 -0.087722465 0.005640639 -0.047944296 0.5288052 -0.119516686 -0.20851034 0.7758298
0.32108563 0.32837898 0.2644342 -0.08665336 0.057864845 -0.038272213 0.18316269 0.08001733
0.1956517 -0.058252476 -0.2777179 0.02242169 0.30444705 -0.3535701 0.053943608 -0.21557926
-0.15971866 -0.699947 -0.124943316 0.12909433 0.013885863 -0.21395506 0.46941826 0.047924306
-0.19621393 -0.3168979 0.17472026 0.17799467 0.054385573 -0.105765775 -0.37118837 0.237778
0.058795765 0.018926622 -0.01623928 -0.25263312 0.124251984 0.05072537 -0.07693029 0.030370958
0.0028395054 -0.002311401 0.061410565 0.05629444 0.1681491 0.06110227 0.3551478 0.15040977
0.22397129 0.10296762 -0.081224434 -0.14871505 -0.19065635 -7.9633246e-05 0.22697139 -0.17555033
0.3186693 0.055492282 0.0009433123 0.031639796 0.19447428 -0.18761146 -0.16323489 0.20564252
-0.03162858 -0.11715112 -0.14427873 -0.36063293 0.18166833 -0.13099551 -0.10332319 0.18962689
-0.20642126 -0.27540877 0.031227393 0.18298352 0.11002372 0.06481646 0.20345177 0.035892498
0.10126812 -0.20521306 0.11753056 0.069335274 -0.24712722 0.09577192 0.10701206 0.018758923
0.05178552 0.12029928 -0.12884738 0.004525515 0.099724494 -0.11484988 -0.036183964 0.14444596
0.034893636 0.14087358 -0.061473705 -0.015526523 -0.033614334 0.03806614 -0.051249176 0.1626339
0.061255664 -0.0017415434 0.03147917 -0.006379039 -0.13658059 0.041080475 -0.07748154 -0.10444193
-0.08435883 0.038975783 0.04257536 0.16065633 0.1459606 0.08209804 -0.052318092 0.044010095
-0.043013055 0.027061526 -0.021639127 0.027309414 -0.001345483 -0.039694525 0.037836444 -0.050599724
0.0591908 0.16594759 -0.01739277 0.010946004 0.03180445 0.02117754 0.027195245 -0.009615961
0.09230752 -0.102175124 0.041287985 0.044058785 0.10890189 -0.11965076 -0.035498116 0.06310671
-0.014045472 0.10246459 -0.01102232 -0.03994794 0.110347606 0.06346917 -0.08597028 -0.036699492

trial_output.0.bias f4 [64]
00000000: 92e8 4c3e b0a2 8abd 8d31 053e 6777 1cbe
00000010: 35dd 153d 9d82 ef3b 1495 f43d bf4c a83d
00000020: e2da 13be ffeb 57bb 4c3b a6bc f6f2 a93d
00000030: 4fab 363e 292e 02bc 4640 ba3d 1ca4 143e
00000040: c0df 823d f4d4 763d 0d6a f33d 5e40 0cbd
00000050: 3179 983d d915 733e 2b1f 6dbe e6f1 16be
00000060: 6da2 353d c495 873d d217 53bd 2ad1 38be
00000070: 62f7 e3bc 600f 38bc a10a 7e3e d8eb e4bd
00000080: 1733 523e 3a92 683e 4fc0 163c 6722 eebb
00000090: 273a 993d 3312 183d 5ee1 8fba 3fab 7bbc
000000a0: 42aa 09be cce9 293e 2ae2 d5bc db4d 613e
000000b0: 2f28 2abd 11f7 43bc 1edc 383c ed1f b03d
000000c0: 9a74 a7bc 35a6 b93d 505e 69bd f277 4ebc
000000d0: 81c6 dc3d 90fc 8d3d a657 c53d 206e 4f3e
000000e0: f1c9 b93d 35c1 6c3d 0778 27be 72be bf3c
000000f0: 855f 143e 7557 11bc 17e1 c93d a8f2 5e38
0.20010594 -0.067693114 0.13007183 -0.15279923 0.036587913 0.0073092715 0.11942497 0.08217763
-0.14438966 -0.003294706 -0.020291947 0.08298294 0.17838787 -0.007945576 0.090942904 0.14515728
0.06390333 0.06026168 0.11885462 -0.034241073 0.074449904 0.23738803 -0.23156421 -0.14740714
0.044344354 0.066203624 -0.05153639 -0.1804854 -0.027827922 -0.011234134 0.24808742 -0.11177796
0.20527302 0.22712031 0.009201123 -0.0072672847 0.07481795 0.03712673 -0.0010977199 -0.0153606525
-0.13443854 0.16593093 -0.02610882 0.22002356 -0.04154223 -0.011960761 0.011282949 0.08599839
-0.020441342 0.090649046 -0.05697471 -0.012601839 0.10780049 0.06932938 0.09635858 0.20256853
0.090717204 0.057801444 -0.1635438 0.023406241 0.14489563 -0.008870949 0.098573856 5.3154916e-05

trial_output.2.weight f4 [3, 64]
00000000: 98f0 5d3e aacb 1ebf 82ed d23d 4d13 32bd
00000010: 101f 7fbe 9333 71be f90c 913e b56d b33d
00000020: baf6 783c 787e 7bbe 86b4 d3be cf38 0a3e
00000030: 5111 f33d 1acc 11bf ee92 97be b95e 673e
00000040: d227 413e e002 a0be 93e2 103e c961 98bd
00000050: 232b 77be 52dc 313e dac3 9c3f 7332 d9bd
00000060: 39f0 e8be 03fd 1fbe 281a 263e 7a50 b4bd
00000070: a8c3 75be abe5 9abe bfd4 ae3e d9c1 283e
00000080: 32c0 6d3e fb74 2b3e d1a7 75be b05e cb3f
00000090: 8211 0c3e 5a0b f0bd 70dc 83bd c266 f3bd
000000a0: a162 d43e 22ac 763e c3c5 1ebe 81e9 933e
000000b0: 0a97 e8bd 0024 583f f0d3 943e 0d77 aa3e
000000c0: d5d2 553e 7cf0 cc3e 11c8 1b3e cb90 453e
000000d0: 03d6 aa3e 5214 7ebe 6de5 92be 0a12 913c
000000e0: 77e9 553e 45d1 5abe daa6 ce3e b747 75be
000000f0: 36e2 c63e 43e4 0a3e 2440 bf3e f939 583e
00000100: b847 03be f771 dd3c 9b81 0bbf 05a5 9b3d
00000110: ddd7 c13d 36a6 013c 438d 93bd a8ac 08bf
00000120: c9a2 f53c 0d82 193e f2c5 ccbd 410f 09bf
00000130: 7f8a febe 3ef8 b7bc 9300 863e da6d 02bf
00000140: 9366 a5bd 3012 a03d d93d ffbe 5344 683f
00000150: dd26 4c3e 766d cabe 0326 6e3f 57e5 973d
00000160: 92b2 21bc a80b 07be 5707 f0be a2a5 a2bc
00000170: 92bc 4a3e 609e cc3d 9996 93be aecc 10bf
00000180: 0238 8fbe d54e f9be bcb9 4b3e ea98 c1be
00000190: 09fd 0fbf 9c69 d2bc 6095 f3bd f51e 613d
000001a0: 9b24 9f3e 467e 3abe a795 743e 2895 90be
000001b0: 0728 73bd e41b 53bd 6c33 253e 3891 fdbe
000001c0: 0a9c 60be 5761 18be beeb fb3d a3db bbbe
000001d0: 54c2 00bf 3988 823e ef84 853e d784 eebc
000001e0: ffc5 aabe 0b12 ab3d 4fba e03d 373d ab3d
000001f0: 8ad5 17bf 7699 7e3e a122 0dbf d68b 02bf
00000200: f4cd 5abe cfc4 293f 7b12 483e 5055 b23c
00000210: 10ee 2c3e 2bc1 ab3e a0e6 58be e211 ea3d
00000220: 07b9 6c3d 3b01 713e 8772 f63e ef35 573e
00000230: f4c7 4e3d 20a3 003f c64c 603e cd1d bf3d
00000240: 7bea 4fbe ee25 413d c7d8 143e d116 46be
00000250: 4948 653c 38b6 153e 322e bbbf 405d b93d
00000260: e244 e93e 7267 693e 1a58 3f3d b2ce 84bd
00000270: 6455 b6bc fbd6 34bd 29c8 75bd 1d83 afbe
00000280: f1b0 883e d890 7a3e df81 143d 7afe cdbf
00000290: 5d56 453e 1446 c13d 5786 b63c e075 4e3d
000002a0: 236f 4abf 0412 9cbe 9451 ca3d f95e 69be
000002b0: cd9c a83d 7f3b 26bf 2e25 29bf da49 08bd
000002c0: bccf a73d f887 03bf c86a 00be f7b9 683e
000002d0: 6e58 56be c741 143e 6859 0b3e d6e0 c3bd
000002e0: 8ffd 483e ea98 293e fa40 09bf 104d 693e
000002f0: a58c 75be d194 b4be f955 59bd 67c3 883d
0.2167381 -0.62029517 0.10299207 -0.043475438 -0.24914193 -0.2355483 0.2833021 0.08761159
0.015195543 -0.24559963 -0.41348666 0.13498233 0.11868537 -0.5695206 -0.29604286 0.22594728
0.18862846 -0.31252193 0.14148931 -0.07440526 -0.24137549 0.17369202 1.2247269 -0.106053255
-0.45495775 -0.1562386 0.16220915 -0.08804412 -0.24000418 -0.30253348 0.34146687 0.16480197
0.23217848 0.16743843 -0.23989798 1.5888271 0.13678554 -0.11720915 -0.064385295 -0.11884834
0.41481498 0.24089101 -0.15505128 0.28889087 -0.113569334 0.8442993 0.29067945 0.33293954
0.20881207 0.40027225 0.15213038 0.19293515 0.33366403 -0.24812439 -0.28690663 0.017708797
0.20889841 -0.21368892 0.40361673 -0.23953138 0.3884446 0.13563637 0.37353623 0.21115865
-0.12820327 0.027031882 -0.5449464 0.07599834 0.09465001 0.007913163 -0.07204678 -0.5338845
0.029984849 0.14991017 -0.099986926 -0.535389 -0.4971504 -0.022457238 0.26172313 -0.5094887
-0.08076205 0.07815969 -0.49851874 0.90729254 0.199367 -0.39536637 0.9302675 0.0741679
-0.009869235 -0.1318804 -0.468806 -0.01985437 0.19798496 0.09991145 -0.28825834 -0.56562316
-0.27972418 -0.48692957 0.19895071 -0.37811977 -0.56245476 -0.025685124 -0.118937254 0.054961164
0.31082615 -0.18212232 0.23885213 -0.28238797 -0.059364345 -0.05154027 0.16132897 -0.49524856
-0.21934524 -0.14880882 0.12300824 -0.36691007 -0.5029652 0.25494555 0.26077983 -0.029116077
-0.33354184 0.08353051 0.109730355 0.08361285 -0.5931021 0.24863228 -0.55130965 -0.5099462
-0.21367627 0.6631593 0.195383 0.021769196 0.16887689 0.33545813 -0.21181726 0.11429192
0.057793643 0.23535626 0.48134252 0.21016668 0.05048366 0.5024891 0.21904287 0.09331856
-0.20304291 0.047155313 0.14535819 -0.19344641 0.013994285 0.14620292 -1.4623473 0.09050989
0.45560366 0.22793368 0.04671488 -0.064847365 -0.022257514 -0.044150334 -0.06000534 -0.3427972
0.26697496 0.24469316 0.036256667 -1.6093285 0.19271226 0.094371945 0.022280855 0.050405383
-0.7907583 -0.30482495 0.09878841 -0.22790135 0.082330324 -0.64934534 -0.66072357 -0.033273555
0.08193919 -0.51379347 -0.12540734 0.2272719 -0.20932171 0.14478217 0.13608325 -0.095643684
0.19627975 0.16562238 -0.5361477 0.22783303 -0.23979433 -0.35269788 -0.053060506 0.06677895

trial_output.2.bias f4 [3]
00000000: 70a9 e73d e7fa 09bd ff9a 9e3c
0.113116145 -0.033686545 0.019361017

rnn.weight_ih_l0 f4 [192, 4]
00000000: 0b50 ddbd 7c1e c63d 6b4c f3bd a414 483d
00000010: 4c56 af3a 0294 c03d cdef 273e 35f3 843e
00000020: d1f9 99bd 7e2a 573d fc74 973d 5cd0 43bb
00000030: afb0 00bf 24e1 ee3c 4dfe 9abe 9406 4bbe
00000040: d6ab 13bd 8f5c ce3d d8ac 4abe 37f0 b9bc
00000050: 4964 7d3e 4e33 73bd 5617 873d a87d fc3d
00000060: dd08 90be 7ffc 48bc 6196 83be 41f9 95bd
00000070: 9243 783d 5998 1f3b 1f62 6ebd 7558 c4be
00000080: 3cfd 69be 29c9 a2bd af71 00bc bcf0 5bbe
00000090: 8fba 60bd 3694 52be a0e0 1cbe 6f3b 383e
000000a0: eb42 9dbc 03c6 303e 523c 9f3c d0d6 b8bd
000000b0: c345 483d 8c33 00be b75e 2ebe 7780 793e
000000c0: 6003 cc3d a828 98be 2532 e5bd 95c8 4c3c
000000d0: c245 9abd 5d9b d2bc ae2e 23be 0c14 243b
000000e0: 84e3 023d cf04 febb f25b 933c c788 f03d
000000f0: 7289 7c3d 80b0 4cbd 0628 ccbc e61d 82be
00000100: abeb c63e c97f ed3e c9ec a0be cf2e 1b3e
00000110: 963a 5cbc 8f01 e4bd d09b 4e3d c258 763d
00000120: 8bcb 053f b05b 52bf 99cf 9ebe db18 8dbe
00000130: c8d9 203e 67d6 cabc 490c 553d 6836 3e3e
00000140: 2269 f4bd 5fe0 aa3d aa6d 89bd 4d58 083d
00000150: 648a 843d 65fb b83c 3823 87bd 84ec df3c
00000160: fd81 0ebe f935 093e 785c 5c3e 46ed bbbe
00000170: 011e 2fbd b7ed 2bbd 02cc d03d cf91 173e
00000180: 560d 83bd 638e 2abe d68f ecbd a759 2b3d
00000190: 7d1f 583f f1cb 69bd fc93 fe3e 141b 1cbe
000001a0: d3fd 0dbe 32d7 00be a805 6f3d ca66 a13d
000001b0: 1293 9c3e b989 02be 4b81 c03e 3b73 febc
000001c0: c18b 1f3d 3259 47be f786 df38 8954 a03d
000001d0: 3146 833d 0ddf 05be 3542 463d 1bb1 33bd
000001e0: c02e 23bd eea6 50be 905f 15be cc18 c33d
000001f0: 9737 91bd e55c 273d 541c 10be 9a86 18bd
00000200: 4084 78bd 27b4 f33d 5369 b13d eef7 973d
00000210: 33ba 62be c385 18bc 3ee0 33bb 91fe 9dbc
00000220: 0583 89be 05d9 f23d f8d3 09be c500 a2be
00000230: 33b3 cd3d 19ad 963d 9d88 af3c 34ad 78be
00000240: 4ceb 253d b09a 02be ced1 67bd d989 203e
00000250: ff70 9cbd a406 b1bd c4cc f03d 3c83 b73e
00000260: c29b 483e 1bb0 9d3d 89be 123e 90b6 bf3e
00000270: 5f55 32be 0ef3 35be 1cd1 9e3e 7945 84bd
00000280: 68ee 063e 34bf 4bbd 25d2 343d 41c6 8fbe
00000290: 13e6 653d 2678 29be e50e f8bd fef5 39be
000002a0: 22eb 82be ec6e 9c3c 1254 aebd 655c f0bc
000002b0: 40a2 c3bc b0b0 e13d fa45 cabd 5a99 98bd
000002c0: 4be7 c93b ed1c ed3d 28e2 a7bd bacc 4fbe
000002d0: 9c3b 123d c7c2 ce3d 7396 2dbe b5c8 a5bd
000002e0: ce2f c0be b0b0 943b d024 d0be 49fe 48bd
000002f0: d1ce 3d3e f814 933c e8c4 c8bd 29f4 2c3e
00000300: b2d1 a4bb 0119 bf3d ff8c 19be b0ff 8d3c
00000310: 5562 cbbe 61bb 563d e8b2 7cbe 592a 46bd
00000320: d4f5 63be b4d4 46bd dbcd ffbb c5f2 bcbe
00000330: a5d3 5b3d 4378 17bd 24b5 ffbd f4e9 0cbe
00000340: 4394 0bbe 29ac 38be 9e9b 8fbd 5e67 aebe
00000350: 7a0a 3c3e 5f82 0bbe ae50 0d3e 26d9 bdbc
00000360: 6cb0 5d3e 2691 64be 84d2 673c 29ba b63d
00000370: ae8e 023f 47f3 85be 1d00 26be 3c7e 00be
00000380: 6498 4dbd aa1b 1ebd 9ea7 75bd feeb 553d
00000390: fa53 12be 9c8c cdbd 68dd efbd a3d2 b93d
000003a0: 9513 d0bd 0edf 873d bfed bdbc 6ae5 20be
000003b0: 1b9f 693d 589e af3f 6f7b 82bf 2b0b 8fbd
000003c0: 1b3e 543d 0d8f 61be 88cb 92bd 9faa 9b3d
000003d0: 022f 123c 8445 80be 5966 5c3d 9b1b 86be
000003e0: c63e 0bbd f8a1 d8bd 2238 5abd be0e 173e
000003f0: a048 b03d 98e6 b63d 704a 633d baa0 60be
-0.108062826 0.09673783 -0.1187981 0.04884781 0.0013377159 0.0940323 0.1640007 0.25966802
-0.07518352 0.052530758 0.0739536 -0.002987883 -0.502696 0.02916009 -0.3027214 -0.19826728
-0.036052547 0.10076248 -0.19792497 -0.022697551 0.24745287 -0.0593751 0.06596248 0.123286545
-0.28131762 -0.012267231 -0.25700668 -0.07322932 0.060611315 0.002435228 -0.058199044 -0.38348737
-0.22850507 -0.079485245 -0.007839604 -0.21478552 -0.054865416 -0.2056435 -0.15320063 0.17991422
-0.019196948 0.17263035 0.019437943 -0.09025347 0.048894655 -0.12519664 -0.17028318 0.24365412
0.09961581 -0.29718518 -0.11191205 0.012498994 -0.075328365 -0.025708849 -0.15935776 0.0025036363
0.031955257 -0.007752038 0.017988179 0.11744838 0.061654516 -0.04997301 -0.024921428 -0.25413436
0.38851675 0.46386555 -0.31430653 0.15154575 -0.013441702 -0.1113311 0.050441563 0.06014324
0.52263707 -0.82171154 -0.3101776 -0.27558026 0.15708077 -0.024760438 0.05201367 0.18575442
-0.11934115 0.08343577 -0.0671037 0.033287335 0.064717084 0.022580812 -0.06598514 0.02733446
-0.13916774 0.13399495 0.21519649 -0.36704463 -0.042753223 -0.04197475 0.101951614 0.14801715
-0.06399028 -0.16655879 -0.11550872 0.041833546 0.8442305 -0.05707926 0.49722278 -0.15244704
-0.13866358 -0.1258209 0.058355004 0.078809336 0.30580956 -0.1274785 0.37598643 -0.031060806
0.03895164 -0.19467619 0.00010658608 0.07828624 0.06409872 -0.13073368 0.048402984 -0.043870073
-0.039839506 -0.20376179 -0.14587235 0.09526214 -0.07090681 0.040860076 -0.14073306 -0.03723774
-0.060673 0.11899596 0.08662667 0.07420336 -0.22141342 -0.009309235 -0.0027446891 -0.019286426
-0.26857772 0.118577994 -0.13459766 -0.31641212 0.10043945 0.073572345 0.021427447 -0.24284822
0.0405076 -0.12754321 -0.05659657 0.15677585 -0.0763874 -0.08643845 0.11757806 0.3584231
0.19590667 0.07699605 0.14330496 0.37443972 -0.17415379 -0.177685 0.31018913 -0.06458563
0.13176882 -0.049742892 0.044145722 -0.28080943 0.05612762 -0.16549739 -0.12112216 -0.18160245
-0.25570017 0.01909586 -0.08512129 -0.029340932 -0.023881078 0.110200286 -0.09876628 -0.074511245
0.0061616055 0.11577783 -0.08197433 -0.2029294 0.03570138 0.100957446 -0.16951923 -0.080949225
-0.37536472 0.0045376644 -0.40653086 -0.04907063 0.18535925 0.017954335 -0.09803182 0.16890015
-0.0050298804 0.09330941 -0.14995192 0.017333835 -0.3972346 0.052424792 -0.24677622 -0.04838023
-0.22261745 -0.048542693 -0.0078065223 -0.36903968 0.053668637 -0.036979925 -0.12485722 -0.13761121
-0.13630776 -0.18034424 -0.070121035 -0.34063238 0.18363371 -0.13623951 0.13800308 -0.023174834
0.21649331 -0.22320995 0.014149312 0.08922226 0.5099896 -0.26162168 -0.1621098 -0.12548155
-0.05019416 -0.0386006 -0.059974305 0.052227013 -0.14289847 -0.10036585 -0.11712152 0.09073379
-0.10159985 0.06634341 -0.023184655 -0.15712515 0.0570365 1.3720198 -1.0193919 -0.06984552
0.05181704 -0.22027226 -0.07167727 0.07600903 0.00892234 -0.25053036 0.053808544 -0.26192936
-0.033995412 -0.10577768 -0.05327619 0.14751717 0.08607602 0.08930701 0.05549091 -0.21936312

rnn.weight_hh_l0 f4 [192, 64]
00000000: fa42 0bbe 2be8 68be ab54 bb3d e384 a2bd
00000010: 87d4 71be d58c 49be 3a4e d7bc 9256 053e
00000020: 081e d4bd 41a0 50be 264c 3e3d 62e2 8fbe
00000030: 3aa0 913e 9dfa e03e c4d0 b3be c660 8b3d
00000040: 63f2 253c 3127 4ebe b457 d63d 485c 693d
00000050: 79bb 7c3d 9060 263e 4286 833e 6b2a 113e
00000060: 4e2e 2abe 6bc1 86bc 4921 5f3e d6ec d73d
00000070: 2ee6 67be 1248 593e 3045 a43e 0a53 96bd
00000080: 94e2 903e 4a46 3bbe 418d 8bbc f6d2 ae3d
00000090: b4d6 4f3e 033f 3fbe bb59 89be 7798 023e
000000a0: 1c2e 6c3e 6500 9a3d b756 083e f116 88bd
000000b0: 62f7 143e 57c3 983e 8fd9 203e 9f34 333e
000000c0: a8d5 9c3d 53d2 7f3d 9533 82bd 8d82 93bd
000000d0: 858d 243d 9bc8 54be c79f 263e 1895 113e
000000e0: f45a c6be 8826 c0be ab44 1ebe ddd1 5d3e
000000f0: df24 2abe 1071 1dbe 8d67 c13e 35c5 7dbc
00000100: 4886 7ebc bd73 4a3d 6347 b5bd c1ce 28be
00000110: 098e 923b 20f5 d73d 3cf6 b8bd e64c 373d
00000120: 72a1 2dbd 1e8a 27bd 0f9f 2ebd ab68 93bd
00000130: 3373 df3c 7521 3e3e fcfc 113e 5dda cabd
00000140: e33b 203e 5fc9 63bc e49a 5cbe 2c37 203c
00000150: d442 f0bb d477 d6bc aca1 fb3d 040b 57bd
00000160: e071 ce3d cf25 46bd f56f 943d 7817 3cbe
00000170: a802 023d 8c80 f1bb 5549 a3bd 4659 5b3c
00000180: d18c 8abd b35e 9ebc 3da7 3dbe 297d 0cbd
00000190: ceab e63c 8eff 033d 6e45 b93d 180e 843d
000001a0: bf95 b7bd d06d 383d 4c5c c63d 9c79 ac3d
000001b0: 01ea 2f3d fe5b 18bc 891a 5e3e d12d a83d
000001c0: 678a b73d 02e2 403e fec6 0c3e e8de 6ebd
000001d0: c9fe 3cbe c6a5 9a3d fa32 10bc 04ce b73c
000001e0: 04b9 ef3d c41c 1fbe 779f 94bd 9634 c4bd
000001f0: da8a b1bc 570b 993d 6171 a6ba 62ba b73d
00000200: f4d4 49be 63fe 763d 2181 ccbd 4ea9 98bd
00000210: b61b 9abb 4d67 19bd 7701 f23d 310c 17be
00000220: 4bee 03be 0a83 123c 06db 52be 057c 0e3c
00000230: d54a ec3c b8f2 7c3e 4cad c73b b8fb 69bc
00000240: bafd 99bd 8900 033b 5b2c 8fbd ac63 143e
00000250: e874 babd d2f1 cebc 83cc 10be 3de2 4bbe
00000260: 1851 dd3c 08ec b4bd 7eb9 40bd 6726 973d
00000270: ee73 5b3e af29 ddbd 26ac cf3d ab49 a53d
00000280: 0e64 b0bd 6dd9 0bbe 90f1 eabd 67db e5bc
00000290: 370a a73d 5bf9 833d 3252 e13d 446e d33d
000002a0: 7e5d ac3d 79f4 3bbd e0a0 853e 8d3f f2bb
000002b0: 56ca 52bd fdeb 0f3d 8c53 b93d 91d1 20bd
000002c0: ba19 ba3d ee19 113e b6fb c53d adae abbd
000002d0: 93ef 223c a56e 7b3c 4eea 0dbe e329 a43c
000002e0: 22e5 20be 191c ffbd e22a ff3c 91ba 923c
000002f0: 8385 d73c c76f e33c 0c0b 833d 6fa1 ca3b
00000300: 21ab e8bc f60a a83d acd7 00be c980 4bbe
00000310: e211 43be e085 213e 6fde 363e a657 33bd
00000320: fedd a6be 34f1 93bd f6e4 7ebe 0cef 31bd
00000330: f12c 9dbc d921 1f3d f799 dcbd 4d11 3bbd
00000340: 8d74 a0bd 0bea 1ebe fe2f a8be f082 c73d
00000350: 2f64 04bd cf9a 0dbd efe6 acbd c0ef 263d
00000360: 8bfd 8bbe 5a73 023e 3747 143d aba0 80bd
00000370: 55fc d33d 02bd db3d 32b9 433d a5c3 ea3d
00000380: 679a c4bd 79fa 813c 3e9b 5abc abf9 e93d
00000390: 8789 9e3d b938 7b3d f6d1 ce3d 80cc 213e
000003a0: 71fe aa3d 6de2 d93d bb1b ac3e 49ff 5d3e
000003b0: 2a21 43be a6a0 193e 6d35 3d3e b885 e93c
000003c0: ef8a fdbc d23b b43e 12fc 8f3d 2475 3ebe
000003d0: 2964 413b a1e4 b13d 06fe 0e3d 73e0 2c3e
000003e0: 66e6 bdbd 87cb 37be 4833 68be 17b0 283e
000003f0: 33c4 48bb f1f0 ea3b 5fe2 2a3e 1024 c7bc
-0.13599768 -0.22744815 0.091470085 -0.079355024 -0.23616229 -0.1968263 -0.026282419 0.13021305
-0.103572905 -0.20373632 0.04645934 -0.28102404 0.28442556 0.43941203 -0.35120213 0.068055674
0.01012859 -0.20132138 0.10465947 0.056972772 0.061702225 0.16247773 0.25688368 0.14176337
-0.16619226 -0.01644965 0.21790041 0.1054322 -0.226464 0.21218899 0.32084036 -0.07340057
0.28297865 -0.18288532 -0.017035129 0.08536331 0.20296746 -0.18676381 -0.2682627 0.12753473
0.23064464 0.075196065 0.13314329 -0.06645001 0.14547494 0.29836532 0.15707992 0.17500542
0.07657939 0.06245644 -0.06357495 -0.07202635 0.040174026 -0.2077965 0.16271888 0.14217031
-0.38741267 -0.37529397 -0.15455882 0.21662088 -0.16615628 -0.15375161 0.37774315 -0.015488912
-0.015534945 0.049426783 -0.088515066 -0.1648512 0.0044724983 0.10544801 -0.090313405 0.04475107
-0.042390294 -0.040903203 -0.04263216 -0.07197698 0.027276611 0.1856745 0.14256662 -0.09904931
0.15647845 -0.013902991 -0.21543461 0.009778779 -0.0073321853 -0.026180185 0.12286696 -0.05250074
0.10080314 -0.0483759 0.072479166 -0.18368328 0.031740814 -0.0073700603 -0.07972971 0.013387984
-0.0676514 -0.019332265 -0.18520828 -0.03429905 0.028158095 0.032226138 0.09046446 0.06448001
-0.08964109 0.0450266 0.09685573 0.08421633 0.042947773 -0.009299276 0.2168981 0.08211864
0.08961945 0.18836215 0.13747784 -0.05831805 -0.18456568 0.0755115 -0.008801216 0.022437103
0.11705211 -0.15538317 -0.07256978 -0.095803425 -0.021672655 0.07472866 -0.0012698584 0.089710966
-0.19710141 0.060301196 -0.09985567 -0.07454167 -0.0047030104 -0.03745203 0.11816686 -0.14750744
-0.1288387 0.008942375 -0.20591363 0.008696561 0.028844276 0.24701965 0.0060936566 -0.014281206
-0.075190976 0.0019989333 -0.06990882 0.14491147 -0.09104329 -0.025261793 -0.14140515 -0.19910522
0.027016208 -0.08834082 -0.0470519 0.073803715 0.21430942 -0.10798966 0.101402566 0.08070692
-0.08612834 -0.1365716 -0.11471856 -0.02805872 0.08156245 0.06444045 0.11002006 0.10323766
0.0841627 -0.045887444 0.260993 -0.0073928297 -0.051462494 0.035137165 0.090491384 -0.039262358
0.09086938 0.14170048 0.09667151 -0.08382926 0.009944814 0.015346204 -0.13858911 0.020039504
-0.15712407 -0.12456531 0.031148378 0.017911227 0.02630878 0.02776326 0.063985914 0.006183795
-0.028401913 0.08205216 -0.12582272 -0.19873346 -0.1904979 0.15773726 0.17858289 -0.04378476
-0.32591242 -0.0722374 -0.24892029 -0.043440863 -0.019186469 0.03885064 -0.10771554 -0.045670796
-0.0783473 -0.15518968 -0.32849115 0.09741771 -0.032322105 -0.034571465 -0.084424846 0.040755987
-0.27341875 0.12739316 0.03620073 -0.06280645 0.10350863 0.1072941 0.047784038 0.114630975
-0.095997624 0.015866505 -0.013342677 0.114245735 0.07741075 0.06133339 0.100986406 0.15800667
0.08349312 0.106388904 0.33614907 0.21679415 -0.1905562 0.15002689 0.18477412 0.028506145
-0.030950038 0.3520189 0.070305005 -0.18599373 0.0029509163 0.08686186 0.034910224 0.16882496
-0.09272461 -0.17948733 -0.22675812 0.16473423 -0.0030634522 0.0071698357 0.16687916 -0.024309188

rnn.bias_ih_l0 f4 [192]
00000000: 6155 143d a6cc b53d 15ee f23d 5150 5fbd
00000010: 5e27 933d eabc 7ebc 958a 053d 7f76 6d3d
00000020: 769c f33d f2da 7ebd 5c0d 423e 3c88 ad3d
00000030: e6cb 8dbd bce1 e13d d62d c6bc 2d74 64bd
00000040: 1b2c a73b a22c 58bd ee45 d13c 8a48 bfbd
00000050: 9691 aa3d 9e66 8f3d 90e1 323b 3a06 603e
00000060: f3cc b4bd b87f 223d a46e 32bd 6234 f83d
00000070: a13c 9abd e57d 03be 97a0 9c3d c826 3cbc
00000080: 91b8 e03d 97c0 a93d ae83 0fbd 06cb 1a3d
00000090: 73fd 603b acdf 493d 8cc2 c73d fea4 9cbd
000000a0: 3a23 28bd 050e 26bd d17b 0a3e 5cfc 783d
000000b0: 681a edbc 545d 08bc 5f86 d0b8 dfcd 5b3d
000000c0: e4cb f2bc ce97 94ba e614 07bd a8dc a33d
000000d0: 0de5 823d 6f15 55bc 6e45 48bc ec98 d7bc
000000e0: e538 17bc 639e 1a3d 3e61 623c 8c35 453e
000000f0: 1cf9 5f3e 9871 90bb e17c aa3d c35e 993d
00000100: 76a1 74bc 3c3b 25be 28e2 76be f56d 00be
00000110: 1ff4 663d 1d06 5cbd 7bfb 6abd 64bc 86bd
00000120: 865f b83c d095 dfbd 748c 14bb bacc b6bb
00000130: 1b40 a0ba 0b62 1bbe 920f fdbd de03 c2bd
00000140: 6c1b a5bc 7ea1 2abe eee1 14be 7f27 2abe
00000150: 12c3 d0ba 4820 28be 92b5 1cbe 71e7 d5bd
00000160: 35d7 26be 2e05 9fbd fd31 aebd f45b efbd
00000170: fd28 7dbc b300 64bc 4f49 043d b3fb 38bc
00000180: 156c fc3d 0230 4f3c fd79 66be 636c 08be
00000190: 9aca bdbd 738b 4a3d b309 8fbd b585 29be
000001a0: 378a 4cbe 9f03 6abe 8af8 1dbe 1964 5b3d
000001b0: 99f8 00be 16a3 883d d9ea b83c 5060 323e
000001c0: ca96 083c b093 e7bd 00d2 1cbe 9128 15bd
000001d0: 6520 e7bc 0261 03be 04ba 20bc acbf 3c3d
000001e0: 4408 2ebe 8e2e 82bd bdc5 30be 3a02 9d3d
000001f0: 82f6 983d 116c 6abe 9923 1cbd 9b95 093d
00000200: da04 fabd 5b7a 313d 715b fa3c 3c52 623d
00000210: 7070 0e3e af23 9c3d ccb9 c4bd 0fc7 93bc
00000220: 9593 50bd 99c5 353d c9d3 b6bd 0790 07be
00000230: 28e4 223e 73b5 923d 8434 a2bb 9543 62bb
00000240: 3f89 033e eb79 6abb a100 35bd f3eb 69bd
00000250: e2c0 9d3d 82ef cdbd 44d5 3f3e e947 7d3d
00000260: e46e d23d d258 253d 9e2e f53c fa79 febd
00000270: 31fd d0bd 79c6 f6bd cfd6 3dbd ea74 bfbc
00000280: 8bdd 1a3d b25d d6bc 2f77 46bd c904 a7bd
00000290: b853 683d 4935 82bc 8e0b 0fbe 0ea4 133e
000002a0: 6c57 c1bd 1b4b 81bd af1e 813d b7b4 10be
000002b0: 0141 c53d 61fe fabc 6db0 33bd 7780 b43d
000002c0: 3d0b 17be 17cc adbc d695 ee3c 23a3 233e
000002d0: da6c c4bd 1dbd 403d bf3a 2a3e 8113 fc3c
000002e0: 57f9 363e 9c2e 04bd ffaa 3c3d 7d59 cb3d
000002f0: 2343 13be c324 59bc 2209 813d 416c f7bd
0.036214236 0.08876924 0.11861817 -0.054519955 0.07185243 -0.01554797 0.032602865 0.057974335
0.11895077 -0.06222052 0.18950409 0.0847325 -0.06923656 0.110293835 -0.024191778 -0.055774856
0.0051016933 -0.05277694 0.02554604 -0.093400076 0.083285496 0.070019946 0.002729509 0.21877375
-0.088281535 0.039672583 -0.043562546 0.12119366 -0.07531095 -0.12840994 0.076478176 -0.011483856
0.10972703 0.08288687 -0.03503769 0.037791274 0.0034330755 0.049285576 0.09753904 -0.07648657
-0.04104922 -0.040540714 0.13523795 0.060787544 -0.028943256 -0.008323032 -9.9432415e-05 0.05366313
-0.029638238 -0.0011336745 -0.032978915 0.08001071 0.06391344 -0.013005598 -0.012223585 -0.026318036
-0.009229873 0.037748706 0.01381713 0.19258708 0.21872371 -0.0044080727 0.083246 0.074887775
-0.014931073 -0.16135877 -0.2410971 -0.12541945 0.056385156 -0.053716768 -0.057368737 -0.065789014
0.022506487 -0.10917246 -0.0022666724 -0.0055786045 -0.0012226136 -0.15174119 -0.123564854 -0.09473394
-0.020154677 -0.16663167 -0.1453931 -0.16616629 -0.0015927276 -0.16418564 -0.15303639 -0.104445346
-0.16293032 -0.0776466 -0.08505628 -0.116874605 -0.015451667 -0.013916182 0.032296475 -0.0112904785
0.123253025 0.012645723 -0.22507472 -0.13322596 -0.09267159 0.049449395 -0.06984272 -0.16554911
-0.199746 -0.22852944 -0.15426841 0.053562257 -0.12594832 0.06671731 0.022572922 0.17419553
0.008336732 -0.11307466 -0.15314484 -0.03641564 -0.02821369 -0.12829974 -0.009809975 0.04608123
-0.1699534 -0.06356536 -0.17262931 0.0766644 0.07468893 -0.22892787 -0.038119886 0.03358994
-0.122079566 0.043329578 0.03056118 0.055254206 0.13910079 0.076239936 -0.096057504 -0.018039254
-0.050921995 0.044377897 -0.089271136 -0.13238536 0.15907347 0.07163515 -0.004950108 -0.0034525145
0.12845324 -0.0035778235 -0.044190053 -0.057109784 0.07702805 -0.10055448 0.18733698 0.061836157
0.10275057 0.04036791 0.029929455 -0.12425609 -0.102045424 -0.120495744 -0.046347436 -0.023371179
0.037808936 -0.026167724 -0.048453506 -0.081552096 0.056720465 -0.015894549 -0.13969252 0.1441805
-0.094405025 -0.06313153 0.063046806 -0.14131437 0.09631539 -0.030638875 -0.043869425 0.08813565
-0.14750381 -0.021215482 0.029124182 0.159802 -0.09591074 0.047055352 0.16623972 0.030771019
0.17868553 -0.032271013 0.046061512 0.09929178 -0.1438108 -0.013253394 0.0630057 -0.12081195

rnn.bias_hh_l0 f4 [192]
00000000: 4fbe d23c 6f1d 3dbd 1d75 25bd b286 893c
00000010: 50f3 8d3d 9f06 b8bd 5b5d d83d 18c6 58bd
00000020: 91ba 853d 0f74 61bc 415c 193e 29c5 813d
00000030: 08f8 d6bd ffa1 a5bd 12f6 b63d 33c1 713d
00000040: 8754 13be fbf0 a43c b37c a93d 47ed 6a3b
00000050: 1e81 edbc 2981 30bd fd6d e43d e2c2 fd3c
00000060: 59d0 503d ce3a d2bd 4030 6d3d ae0c 79bd
00000070: 33cc e53d 75dd febd 39a3 ccbc fd32 623d
00000080: d408 5a3d bb41 d4bd 47c7 62be fd03 133d
00000090: 6afe 47bd afbf 3d3e 9fd0 753e fde5 9f3c
000000a0: 8dc2 0e3e daf8 603d be4f a0bd 6758 223e
000000b0: 24ab 3d3d 6be5 123b 6b53 1e3d a31f 273d
000000c0: e369 d3bd a9f6 b13d 898c 9fbc 9f11 d13b
000000d0: 86e9 ab3d 0bfc 4d3c a01c 293e de9c 9ebc
000000e0: ec1c bd3d ad56 3b3d 8b42 253c d18c 2a3d
000000f0: 7606 273d 4304 1f3d 0d4c d1bd 86fa 2c3e
00000100: 9acc a23c f159 f9bc ccf9 f0bd 4185 c5bc
00000110: 39e1 14bd 2683 cbbd 4958 13be 20ee 20be
00000120: 619b 40bd 4c2e 7cb9 e9b6 0ebd c7d5 393b
00000130: 6d9e c4bd fbc2 133d b21a 35bd 41b7 33be
00000140: 1288 533e e6a6 eabd 9c3b 22be d0a6 f1bd
00000150: a806 13bc d582 30be e854 debc 8ca8 18be
00000160: b8b9 d9bd 5844 e5bd 62c9 ccbd 8696 3bbd
00000170: b397 463d 82ac 29be 3117 a8bd 76e1 12be
00000180: 37af 883e 25b6 8abc 20fa 14be 315e 59bd
00000190: 7213 cd3c b92e 22be 8120 69bd ba23 3abc
000001a0: 7d4f 07be 43c2 bdbe 79df 50bc 4ef8 08be
000001b0: b915 a6bd bd8e 7c3d 165d 49be 63ff 583e
000001c0: ab3f 93bd f223 26bd 7cd0 f3bd 1bb9 453d
000001d0: 5a5d f43c 7c93 7fbd 4e9a d53c 6254 233d
000001e0: 8671 843c 82c9 ba3c 46b3 cabd 158a c73d
000001f0: ef76 493e f4d2 38be 2da5 413d 4e1e e4bd
00000200: e4a7 9dbc 8173 29be 8253 8b3d ae4d 5cbd
00000210: 8714 5b3d 4c63 edbd eb0f 8b3d 84b5 3c3e
00000220: b617 c6bc 32d2 b73b 4c19 6abd 6c3b 323c
00000230: 9086 053c d670 bdbd 1286 0e3e 51ed 48be
00000240: 57ce cf3c 3f22 0d3e d13d 0d3d a4fd b13d
00000250: 50b5 3c3e c464 d5bd 78e7 593b 1fb7 173d
00000260: be89 b9bd e641 0d3e 01c5 d3bd 6774 363d
00000270: c0c0 1ebe 5264 95bd cbd1 02be 5bca b73d
00000280: 5214 633d c58c a3bd 9e42 9abd d122 36bd
00000290: ac49 a93d 9f70 e8bd f72a 44bc baff e73d
000002a0: cc0a 153d 212d f63c 8da7 70bd 7e08 97bd
000002b0: cec6 803d ed5b 333d 3c57 89bd d06f b73d
000002c0: aa09 14be 8f1c 983d d53b d43d 4f63 d23d
000002d0: 69c8 b8bd 9a39 5c3d 41b7 023e ec88 113e
000002e0: 1263 4b3d 1795 e0bd 6652 643d 7776 2b3e
000002f0: 88a8 0dbe be7f cc3d d7c7 02be 6fe4 2ebe
0.025725512 -0.04617065 -0.04039489 0.01678786 0.06931174 -0.08985638 0.10564681 -0.052923292
0.06529725 -0.013760581 0.14976598 0.063364334 -0.10496527 -0.08087539 0.08933653 0.05902214
-0.14387713 0.02013444 0.082757376 0.0035846995 -0.028992232 -0.043091927 0.11153791 0.030976716
0.050979946 -0.10265122 0.057907343 -0.060803108 0.112205885 -0.12444583 -0.024980174 0.055224407
0.053231075 -0.103640996 -0.22146331 0.035892475 -0.048826613 0.18530153 0.24005364 0.019518847
0.13941403 0.054924823 -0.078277096 0.15854035 0.04630579 0.0022414576 0.038653772 0.040801656
-0.10322931 0.08689625 -0.019476192 0.0063802744 0.083941504 0.012572299 0.16514826 -0.01936191
0.09234032 0.045736957 0.010086666 0.0416382 0.040777646 0.038822424 -0.10219584 0.16892442
0.019872952 -0.030438395 -0.11766395 -0.024111392 -0.0363476 -0.09937124 -0.14389147 -0.15715837
-0.04702318 -0.0002404984 -0.034842405 0.002835618 -0.0960053 0.03607462 -0.04421491 -0.17550375
0.20657375 -0.114576146 -0.15843052 -0.11799395 -0.008973755 -0.17237408 -0.027140096 -0.14908046
-0.10631126 -0.11194676 -0.09999348 -0.045797847 0.048484515 -0.16569713 -0.082075484 -0.14343819
0.26696178 -0.016932556 -0.1454854 -0.053068344 0.025033686 -0.15838136 -0.056915764 -0.011361057
-0.13213916 -0.37062272 -0.0127485925 -0.1337597 -0.08109612 0.061659563 -0.19664416 0.21191172
-0.07189878 -0.040561624 -0.119049996 0.048272233 0.02982967 -0.06239651 0.026074555 0.039875396
0.016167413 0.022801165 -0.09897475 0.09743134 0.19674276 -0.18049222 0.047276665 -0.11138593
-0.019245096 -0.16547967 0.06803037 -0.05378502 0.053486373 -0.11591205 0.067901455 0.18428618
-0.024181228 0.005609774 -0.05715303 0.010878425 0.008149758 -0.09250037 0.13918331 -0.19621779
0.025366945 0.13782595 0.03448278 0.08690956 0.1842854 -0.1041961 0.0033249538 0.037039872
-0.09059475 0.1379467 -0.1034031 0.044544604 -0.15503216 -0.07294525 -0.12775342 0.08974143
0.0554393 -0.07985834 -0.075322375 -0.044466797 0.08266005 -0.11349606 -0.011973134 0.11328073
0.03638725 0.030050816 -0.05875354 -0.07374667 0.06287919 0.04378884 -0.06706092 0.089568734
-0.14456812 0.07427322 0.103629746 0.10272848 -0.090226 0.05376587 0.12765218 0.14212388
0.049655028 -0.10965937 0.055742644 0.1674441 -0.13833821 0.099853024 -0.12771545 -0.17079328

exp_avg f4 [1, 64]
00000000: 7ba0 0a39 8cd6 8d37 cc15 9938 349c 8d39
00000010: 7987 2c39 1d38 2ab8 dfaf 3eb7 7c17 0439
00000020: bd71 2039 3ad6 bb38 25dc 7ab7 ec27 beb9
00000030: 789b 4e39 e33a beb9 ff53 e8b4 6ce7 8f37
00000040: 7458 e637 0cbe 74b8 9591 5b39 001f 4537
00000050: 67a3 b039 b369 51b7 176d 7439 e50e 2e39
00000060: 4abc c4b8 28bc 81ba 9551 49b8 7862 fa38
00000070: 03b9 4238 a09a 8eb8 a869 3ab9 7b94 41b9
00000080: 56fb 03b9 d876 3639 c57f ba38 b396 0fb8
00000090: 4d86 d4b8 780c a038 92a0 be39 76c1 ed37
000000a0: db9b a737 a902 18b9 1f54 d5b7 c0a7 85b8
000000b0: 0aad b038 96fa 4239 a7b5 c4b8 dc76 3fb9
000000c0: 6abd 8a37 7d48 83b9 f225 3bb9 de52 2139
000000d0: 17ad 9c38 351c cd38 37a2 d538 10ee c0b8
000000e0: 26e6 22b7 5721 7038 3251 3f39 bdea b9ba
000000f0: 19c7 93b9 f0d5 c0b6 8320 8338 4583 e139
0.00013220489 1.6908416e-05 7.2996685e-05 0.00027009996 0.00016453666 -4.0583418e-05 -1.1365831e-05 0.0001259725
0.0001530116 8.956758e-05 -1.4952418e-05 -0.00036269368 0.00019703608 -0.00036283498 -4.3274483e-07 1.7154693e-05
2.7459326e-05 -5.835113e-05 0.00020939701 1.1749333e-05 0.0003369108 -1.2481981e-05 0.00023310292 0.00016599482
-9.38108e-05 -0.0009897994 -4.7998114e-05 0.0001193927 4.642551e-05 -6.799889e-05 -0.00017777702 -0.00018461228
-0.00012586763 0.00017401145 8.89297e-05 -3.4234206e-05 -0.00010133963 7.631717e-05 0.00036359258 2.8342689e-05
1.9980527e-05 -0.0001449684 -2.543075e-05 -6.37318e-05 8.424565e-05 0.00018594632 -9.379844e-05 -0.00018259458
1.6539085e-05 -0.00025040275 -0.00017847845 0.00015385027 7.4709e-05 9.780416e-05 0.00010186846 -9.199616e-05
-9.709538e-06 5.725151e-05 0.00018245427 -0.0014184337 -0.00028186364 -5.7469515e-06 6.2526226e-05 0.00043013148

exp_avg_sq f4 [1, 64]
00000000: fb1f 0d37 d9f7 5e37 db23 4b37 7607 9138
00000010: 9911 9237 7ce2 a637 7d9e 9736 5c64 e637
00000020: bc52 ff37 1a61 6436 4ff3 eb35 f5cb b136
00000030: cc9f f736 dd75 f036 665e ad36 08c4 8936
00000040: b6b9 d736 9f14 8935 49ab 5d38 fe32 c236
00000050: 17dc 6e37 61ef 9338 5a78 6c38 2a7d 6537
00000060: 88f0 3236 ac63 3f39 344c 8635 807b 6d37
00000070: 6600 ba36 8afa 4238 06dd 0f37 1cf7 9e37
00000080: e1d7 5635 5d4d 8436 f83a 0038 3f35 9a38
00000090: 17d7 4c36 0f7b 8e37 f3f3 8936 bfeb 3938
000000a0: d715 2038 eae3 3938 e789 8437 e19e 5e37
000000b0: 59dc f237 21bf 9f35 5410 0d38 6aaf 1c36
000000c0: 890c f536 4588 0d38 9da8 5938 21c5 c237
000000d0: 18f9 ec37 bd2b 1037 c1de df36 3ff5 db37
000000e0: eef2 4c37 9b9a 5e36 a0b0 2d38 e325 fd38
000000f0: 5066 5d37 3c70 ca37 855b ad36 df14 d838
8.411701e-06 1.3289938e-05 1.2108091e-05 6.9155285e-05 1.741275e-05 1.9894207e-05 4.518601e-06 2.746487e-05
3.0436895e-05 3.4031168e-06 1.7579677e-06 5.298755e-06 7.3797764e-06 7.1662785e-06 5.166791e-06 4.105739e-06
6.429119e-06 1.0213297e-06 5.2850028e-05 5.787587e-06 1.4237149e-05 7.054094e-05 5.637887e-05 1.3678606e-05
2.6664075e-06 0.0001825231 1.0005956e-06 1.4155055e-05 5.5432783e-06 4.6486537e-05 8.574925e-06 1.8950137e-05
8.003536e-07 3.942913e-06 3.0572497e-05 7.35321e-05 3.0523568e-06 1.6985023e-05 4.1113176e-06 4.4326993e-05
3.8167313e-05 4.43197e-05 1.5799842e-05 1.3269223e-05 2.8951255e-05 1.1902049e-06 3.3632226e-05 2.3347916e-06
7.3030283e-06 3.374393e-05 5.1893865e-05 2.3218397e-05 2.8249386e-05 8.5932525e-06 6.67185e-06 2.6221036e-05
1.2215909e-05 3.317057e-06 4.141091e-05 0.00012071037 1.3196448e-05 2.413254e-05 5.166456e-06 0.0001030357

exp_avg f4 [64, 64]
00000000: 7653 963b 07bc ecbb 24c8 0fba c5c7 bfba
00000010: b967 6a3b 9ec2 d3bb 3bd8 90bb 64e2 d13b
00000020: f571 203b cee8 56ba 6d21 223c 5ced 37bc
00000030: 33f5 ab3b 042f 51ba 88e9 2e3a 36da 56bb
00000040: a07e d83b 460f c13a 6bc0 babb fa3b b1ba
00000050: ac77 6d3c f63d 74bb 5d60 033c 3765 813c
00000060: bc67 a93b 965f e33b 6227 ad3a 1663 acbb
00000070: 2928 01bc 3a43 85bb 828a fdba 111b 87ba
00000080: 9ef1 893c 28a1 67bb 0d96 84b9 1fd3 1dbc
00000090: 235f b83b 2027 74bb c502 90bc 4180 483c
000000a0: de69 13bc f228 be3a 5b62 283b beb8 4fbc
000000b0: 4b4e 273c 314c 16bc 6637 e73a 3ab9 803c
000000c0: b0d7 a2bb a03e 30b8 b71d 3239 35a4 2c3c
000000d0: ba29 d83a 96fc 773b 4370 473c 31a7 bf3b
000000e0: abcc 9a3b a548 a9b9 a325 5839 3195 983c
000000f0: 7f4f 12bb b7fa 94ba bbad 17bb 1de5 87bc
00000100: a08f 4bbc 347c 9d3c 99c9 50bb b7e6 f13b
00000110: ef97 97bb 7524 803c d173 303c 5d48 7ebc
00000120: 9849 7dbb 4f45 8ab9 f1ac bbbc 8040 323d
00000130: 775c 88bc 3189 403b 42f8 c6bb 7f9a 823c
00000140: be17 b0bc f446 29bc b838 8d3c 60f7 bb3b
00000150: 3696 19bd ed64 843c 316f b0bc 80a1 37bd
00000160: 385a 7dbc c577 adbc ac0c 7bba 2363 9f3c
00000170: b4a6 ae3c 3247 6d3c 7b69 b73b 0cc3 59bb
00000180: a937 36bd f730 693c 3913 b73b 298f 033d
00000190: 3d0c 61bc bb4d 103c bd9f 573d e7d1 38bd
000001a0: 34bd ec3c 77fb 703b 5348 03bc 5060 073d
000001b0: 6a97 e0bc 5625 c03c 1774 fbbb 9e33 41bd
000001c0: 36fc 7f3c fa74 98bb 5d73 fdba 5510 e9bc
000001d0: f1ed f7ba 475f 88bc 8ded 0cbd c0a0 b1bc
000001e0: 6d84 55bc e79e 9c3a aa8e 513b 097f 35bd
000001f0: e901 213c e7ce 61bb f8a1 fd3b 46ba 4a3d
00000200: 986e 58ba 17f6 c53a 994a cb39 7209 0639
00000210: df28 7dba ffc7 d63a a25e 703a 59ee bcba
00000220: 9470 41ba 62d2 b439 83dc 16bb ba34 273b
00000230: 5519 64ba 775b 4b38 4f8d c538 9c71 e438
00000240: 52ad 8bba 7cb2 d338 f5e4 7e3a 474b 0839
00000250: ba61 3abb d65e c539 2031 ddba 5d86 4cbb
00000260: 808e 6dba 905c 9dba 5e56 fdb9 54f2 2d3a
00000270: 83f7 cb3a f4e5 0f3a 9c11 9b39 c150 133a
00000280: 9875 67bb 287a fd39 d53f c9b9 af24 d83a
00000290: b2c8 a1ba e6f6 353a 721f 553b 2bdf f7ba
000002a0: 5551 bc3a 0817 22ba f4bd c9b9 88eb 283b
000002b0: 043d 0abb 1f41 fe3a 2350 aeb8 87b1 4dbb
000002c0: 15aa 4e3a 1c90 6c39 ec69 ee39 aafc 02bb
000002d0: 0e5d 20ba fed7 9fb9 40cb 17bb 02d9 3dba
000002e0: bdb4 45ba 1161 5939 3974 0ab9 f597 81bb
000002f0: 4ead 4bb7 43f5 393a b19e 2539 392b 423b
00000300: 0400 0080 0400 0080 0400 0000 0400 0080
00000310: 0400 0000 0400 0000 0400 0080 0400 0080
00000320: 0400 0080 0400 0000 0400 0080 0400 0080
00000330: 0400 0080 0400 0000 0400 0000 0400 0080
00000340: 0400 0000 0400 0000 0400 0080 0400 0080
00000350: 0400 0000 0400 0080 0400 0080 0400 0000
00000360: 0400 0000 0400 0000 0400 0080 0400 0080
00000370: 0400 0080 0400 0080 0400 0000 0400 0000
00000380: 0400 0000 0400 0080 0400 0080 0400 0080
00000390: 0400 0000 0400 0080 0400 0080 0400 0000
000003a0: 0400 0080 0400 0080 0400 0000 0400 0000
000003b0: 0400 0080 0400 0080 0400 0000 0400 0000
000003c0: 0400 0080 0400 0000 0400 0000 0400 0000
000003d0: 0400 0080 0400 0000 0400 0000 0400 0000
000003e0: 0400 0000 0400 0080 0400 0080 0400 0000
000003f0: 0400 0080 0400 0000 0400 0000 0400 0080
0.004587586 -0.007224563 -0.00054848404 -0.001463168 0.003576739 -0.006462409 -0.004420308 0.0064051617
0.0024481986 -0.0008198143 0.009895665 -0.0112260245 0.005247736 -0.0007979723 0.0006672372 -0.0032783872
0.0066068918 0.0014729283 -0.0056992075 -0.0013521903 0.014493864 -0.0037268377 0.00801858 0.015795333
0.005169837 0.006938885 0.001321059 -0.0052608354 -0.00788311 -0.004066852 -0.0019343647 -0.0010307749
0.016838845 -0.003534386 -0.00025288798 -0.009632855 0.0056265756 -0.0037254766 -0.017579446 0.012237609
-0.008997409 0.0014508052 0.002569339 -0.012678323 0.010211538 -0.009173439 0.0017640411 0.015713323
-0.0049695596 -4.2019994e-05 0.00016986472 0.010537197 0.0016491928 0.0037839762 0.012172761 0.005848788
0.0047241054 -0.00032288316 0.00020613386 0.018625828 -0.0022325215 -0.0011366223 -0.0023144323 -0.016588742
-0.01242438 0.019224264 -0.0031858443 0.0073822397 -0.004626266 0.015642384 0.0107698 -0.015520182
-0.0038648602 -0.0002637305 -0.022909613 0.043518543 -0.016645653 0.0029378647 -0.006072075 0.01594281
-0.021495696 -0.010331858 0.01723896 0.0057362765 -0.037496768 0.016161406 -0.021537395 -0.044831753
-0.015463404 -0.021175275 -0.00095767784 0.019456452 0.021319725 0.014482306 0.005597291 -0.003322783
-0.044486675 0.014232866 0.0055870083 0.03211895 -0.013735828 0.008807595 0.052642573 -0.045122053
0.028898813 0.0036770978 -0.008012849 0.033050835 -0.02741595 0.023455303 -0.007673751 -0.047168367
0.015624097 -0.0046526166 -0.0019336749 -0.02845017 -0.0018915517 -0.016646994 -0.034406234 -0.021683097
-0.013032061 0.0011949212 0.0031975904 -0.044310603 0.009827116 -0.0034455599 0.0077402554 0.04949405
-0.0008256226 0.0015103248 0.00038774757 0.00012782754 -0.00096572743 0.0016386508 0.0009169375 -0.0014414295
-0.0007379141 0.00034489023 -0.0023019619 0.0025513605 -0.00087012845 4.8484155e-05 9.420013e-05 0.000108930486
-0.0010656512 0.00010094509 0.00097234483 0.00012998014 -0.0028439597 0.00037645426 -0.0016875602 -0.0031208016
-0.00090620667 -0.0012005735 -0.0004832027 0.0006635536 0.0015561435 0.0005489283 0.00029577024 0.0005619638
-0.0035317894 0.00048346934 -0.00038385266 0.0016490425 -0.0012343137 0.0006941393 0.0032519964 -0.0018911114
0.00143675 -0.00061832415 -0.00038479234 0.0025775153 -0.0021093497 0.001939807 -8.311893e-05 -0.0031386332
0.00078836206 0.00022560399 0.00045473815 -0.0019987025 -0.0006117382 -0.0003048777 -0.0023161918 -0.00072421145
-0.0007541886 0.00020730893 -0.00013204002 -0.0039548823 -1.21400935e-05 0.0007093737 0.00015794743 0.0029627813
-6e-45 -6e-45 6e-45 -6e-45 6e-45 6e-45 -6e-45 -6e-45
-6e-45 6e-45 -6e-45 -6e-45 -6e-45 6e-45 6e-45 -6e-45
6e-45 6e-45 -6e-45 -6e-45 6e-45 -6e-45 -6e-45 6e-45
6e-45 6e-45 -6e-45 -6e-45 -6e-45 -6e-45 6e-45 6e-45
6e-45 -6e-45 -6e-45 -6e-45 6e-45 -6e-45 -6e-45 6e-45
-6e-45 -6e-45 6e-45 6e-45 -6e-45 -6e-45 6e-45 6e-45
-6e-45 6e-45 6e-45 6e-45 -6e-45 6e-45 6e-45 6e-45
6e-45 -6e-45 -6e-45 6e-45 -6e-45 6e-45 6e-45 -6e-45
