saved_models/discretised/checkpoint276.pth (torch, 224977 bytes, 27 tensors)

h0 f4 [1, 64]
00000000: daf7 cbbe e1dd 1bbf f905 fd3e 53f7 8d3f
00000010: e188 97bf 48bc 913e 359c 90bf 18e2 b1be
00000020: ac7f 6a3e 54aa a13f 6705 3bbf 32d9 913f
00000030: 3ab4 38be 159e fb3f 5d0a eb3e 1126 bbbe
00000040: 692c 16bf e068 34bf 9a7c b3be 35f8 9a3e
00000050: ba49 de3e c5b3 38bf ba25 cabe 32cc d73f
00000060: b7c0 a1bf 4e72 203e d386 da3e 1638 bd3f
00000070: 26fa 093f de68 ff3e 0be8 633f bc9c b8bd
00000080: 41d4 503f 0ccb 84bf 1267 993d ad18 1a3f
00000090: 2554 d13e d971 f4bd a6e0 9a3f ea8d d5bd
000000a0: dd32 493f de02 b63e c955 12bf 06ad 833f
000000b0: 15af 03bf 35f7 0040 7f96 d1bf 4535 20bf
000000c0: b1b5 653f 0b8e e83f eba5 c6be f380 ba3f
000000d0: 6886 cb3f 584a 253f 8611 c7bf 0c65 04bf
000000e0: f46e 64bf 7289 fc3d 2287 4f3f 04b6 cdbe
000000f0: d801 06c0 efc4 2abf bedb c9bf aae3 c3bf
-0.39837533 -0.60885435 0.4941862 1.1091102 -1.1838647 0.2846396 -1.1297671 -0.34742808
0.22900265 1.2630105 -0.7305512 1.1394408 -0.18037501 1.9657618 0.45906344 -0.3655248
-0.58661515 -0.70472527 -0.35056 0.30267492 0.43415624 -0.72149307 -0.39481908 1.685919
-1.2636937 0.15668604 0.42680988 1.4782741 0.5389732 0.49884695 0.89025944 -0.0901427
0.81573874 -1.0374465 0.07490362 0.601939 0.4088451 -0.11935777 1.2099807 -0.104274586
0.78593236 0.35549062 -0.5716215 1.0287178 -0.5143903 2.0150883 -1.6374053 -0.6258128
0.89730364 1.8168348 -0.3879846 1.4570602 1.5900393 0.64566565 -1.5552223 -0.51716685
-0.892318 0.12330903 0.8106557 -0.4017793 -2.0938625 -0.66706747 -1.5770185 -1.5303853

trial_output.0.weight f4 [64, 64]
00000000: e795 b9be de34 bf3a acf7 38be 5c34 c43e
00000010: 16af afbe 5d06 e5bd 9c87 35be 666e 893e
00000020: 6024 f23e bf73 6a3e bc3c c5bd 64a4 29be
00000030: 9aea 6f3d be84 aabe 684a 2f3e 121b e7bd
00000040: 394e a3be 3b46 0dbe 1219 c3bc 0578 7abd
00000050: 1c93 3d3e b113 ecbd 9742 00be 6e56 c53d
00000060: 18e3 8bbd cc93 b43c 7722 b2bd a05d 723e
00000070: 0164 8abe 2356 963e 4be5 7abd 2077 103d
00000080: 1393 73be d806 d73c 9c08 083c b10b 38be
00000090: cbad 71be 2438 c2bd 0ca6 80be 3d0a e33d
000000a0: a261 8ebd 6a46 ddbd af50 783e 6c02 1cbe
000000b0: 27cc 8e3d 6c93 783e 2331 08be 0cce f7bd
000000c0: 4296 8cbe 2331 173e 49c5 423e 058c 243e
000000d0: afd8 433e 7ec7 fd3d 5f32 62be ad45 203e
000000e0: 9c3f a93e b00f 233e b2cb 27bc 1b81 a1bd
000000f0: 0a96 b33e b137 143d d4a2 553e b59c cb3d
00000100: 0011 0b3e 1669 15bd 0319 02be c7da 4fbc
00000110: a13a c13c cd81 403d 0b2c 813d 2cd9 aabb
00000120: bd99 8cbd 10be 123e d7e0 58be 1168 bf3d
00000130: fa19 883b e8a1 83be 8c86 d4bd 700c c7bd
00000140: b5bd 0cbe abd2 793d 6328 41be 3803 643e
00000150: 7c73 e73d 74f1 4e3d a763 c13d cdce e33b
00000160: f8bc e3bd 81a6 f93d 3aca 893d 57b3 cb3e
00000170: 45de 60bd 9424 77bd de51 06be 709b 60bc
00000180: 23b1 eebd 020a 1bbd 0dd5 88bd 491e 8abd
00000190: 3722 8b3d 7b84 83bd b197 e33d 7e05 5c3d
000001a0: 063c 16bd d1aa 5f3d 4f4a 8c3e ba1b 0fbe
000001b0: a76a 97bd 5b37 7cbd 7748 81bc e456 ccbd
000001c0: 4fe4 5abe 41a6 bf3d e3a7 a83d 24e1 38bd
000001d0: 7671 2cbc cab0 c9bd 72d9 e63d fe85 8f3e
000001e0: 7623 14bd 3c38 823c 03ae de3d 33d7 00be
000001f0: bd59 d1ba 868e dd3c 3acb d23d 442d d83d
00000200: 9667 09be 0a1f 8bbc 600f b5bd f4a3 b33c
00000210: ce5d 0bbe 755e 653b a689 293d 4fe0 c93d
00000220: 23e5 ec3d 9ce2 223e 8038 a2bc 87d6 15be
00000230: 6385 f8bd 7741 9cbc bd10 e7bc 98f9 dbbc
00000240: 5d09 983d 79dc cdbd 8d83 71bc 5d0a cf3c
00000250: dfe2 d73d a5e2 863c 9269 b6bc bc3b 293b
00000260: 0fe8 4d3e 7471 213e e2ec dabb 76f7 94bd
00000270: 08af 0dbd ab5a a03d c2bd 10bb f1b7 d83c
00000280: 3d4f 92bc daee a83d 2c6d 493c 7654 1bbe
00000290: c131 3ebd cb63 af3d 62d1 5c3d 9bae 3c3d
000002a0: 4bc9 013e efee a2bc fe2a ca3d b9fe b8bd
000002b0: 7f0e cbbd e703 1b3e 8fc7 dc3d b26a fdbc
000002c0: 92ab 09be d4df b03c 8287 a43d a523 7e3d
000002d0: 89e6 f03d bbe8 7b3c dcd2 99bd 577f f43d
000002e0: fcd6 60bd b543 123c abc1 c23c da51 473a
000002f0: 82c7 0a3a f491 25bc de78 fe3d b974 623e
00000300: d132 0ebd bbd6 febb b398 533b 54fc 033d
00000310: 0a6e bebd 47e5 a03d 86e2 aabd 5ebc 3c3d
00000320: adb3 983c 208f 7b3c f69f 62bb f00d 2b3d
00000330: dbb8 9a3d 7b4d ce3a 437b 323d 9658 bcbd
00000340: 0362 643d 8332 cbbc b0de c83d f1ce 99bc
00000350: d3af a03d 2891 45bd 372b 9fba 4e91 0c3e
00000360: bcb8 5f3d bad0 303d 3f28 8e3d 83fe df3c
00000370: d2f6 073d a5dd c3bd 41c5 ba3d bab7 eb3c
00000380: f3e2 cbbb 6e7f 64bd 23da c73d 227b e73c
00000390: 7df2 d83c a2cb aebc 25fc 143d fccb 1abd
000003a0: 2875 12be bddf db3d 5e75 22bd 8115 5d3d
000003b0: 0857 0e3e 5f03 87bd b2e7 963d bd76 6e3d
000003c0: e011 b63d 656d 0d3d 70ba 02be 5406 b23c
000003d0: 3a84 b0bd 877e 22bd 97cc 0b3e 1513 7c3d
000003e0: 299e bd3d d678 4cbb 9a30 10bd 4134 5abd
000003f0: 9067 00bd 7f9a 0b3e 0ced 4ebc f270 a13b
-0.3624718 0.0014587899 -0.1806323 0.38321197 -0.34313267 -0.11182854 -0.17727512 0.2684204
0.47293377 0.22895716 -0.09630725 -0.16566616 0.058573343 -0.333044 0.17118227 -0.1128446
-0.31895617 -0.13796322 -0.023815665 -0.061149616 0.18513149 -0.11527193 -0.12525402 0.09635626
-0.06830424 0.022043131 -0.0869798 0.23668528 -0.27029422 0.29362592 -0.061253827 0.035269856
-0.23786573 0.02624838 0.008302834 -0.1797321 -0.23601453 -0.09483364 -0.25126684 0.11085937
-0.06952216 -0.10804446 0.24249528 -0.15235299 0.06972533 0.24274987 -0.13299994 -0.12099847
-0.27458388 0.14764838 0.19020571 0.16069038 0.19125627 0.12391566 -0.22089528 0.15651579
0.33056343 0.15923953 -0.010241436 -0.07885953 0.35075408 0.036185924 0.20862895 0.09941999
0.13580704 -0.03647717 -0.12704854 -0.012686438 0.023587527 0.046998788 0.06307229 -0.005213877
-0.06865261 0.14330316 -0.2117952 0.09346021 0.0041534873 -0.25709462 -0.10377225 -0.09719169
-0.13744242 0.060991924 -0.18863063 0.22266853 0.11301324 0.050523236 0.09442835 0.006952143
-0.11120027 0.12189961 0.06728025 0.39785263 -0.054899473 -0.060337618 -0.13117167 -0.013708934
-0.1165488 -0.03785134 -0.06681261 -0.06744058 0.06793635 -0.06421753 0.11112917 0.053716175
-0.036678337 0.054606263 0.27400443 -0.1397542 -0.07393389 -0.06157623 -0.015781624 -0.099775106
-0.21376155 0.09357882 0.08235147 -0.045136586 -0.010525098 -0.09848173 0.11271943 0.28031915
-0.03616663 0.015895955 0.10873034 -0.12582092 -0.0015972179 0.0270455 0.10292669 0.10555509
-0.13418421 -0.016982574 -0.08840823 0.021928765 -0.13610002 0.0034998928 0.041391037 0.098572366
0.11567142 0.15906757 -0.019802332 -0.14632617 -0.121348165 -0.019074185 -0.028206224 -0.026852414
0.07423661 -0.100518174 -0.014740837 0.025273496 0.10541319 0.016465494 -0.022267137 0.0025822958
0.20108055 0.15765935 -0.0066810707 -0.07273762 -0.03459075 0.078297935 -0.002208576 0.026454898
-0.01786005 0.08248682 0.012294095 -0.15168938 -0.046434168 0.08563956 0.05391062 0.046064954
0.12674443 -0.019889323 0.09871481 -0.090329595 -0.09914874 0.15138207 0.1078025 -0.030934665
-0.13444355 0.021591105 0.080336586 0.062045712 0.11762721 0.0153753115 -0.07510921 0.11938351
-0.054892525 0.008927275 0.023773989 0.00076034444 0.0005294011 -0.010105599 0.12425397 0.22114839
-0.03471643 -0.0077770627 0.003228706 0.03222306 -0.09298332 0.07856231 -0.08343987 0.04607808
0.018640364 0.015353948 -0.0034580207 0.04176134 0.0755479 0.0015739644 0.043574583 -0.09196584
0.055757534 -0.02480436 0.09808099 -0.018775435 0.07846036 -0.048234135 -0.0012143616 0.13727304
0.054619536 0.043167807 0.0694127 0.02734304 0.03319437 -0.0956376 0.091196544 0.028774131
-0.006222123 -0.05578559 0.09758403 0.028256956 0.026482815 -0.021337334 0.036373276 -0.03779219
-0.14302504 0.10736034 -0.03966271 0.053975586 0.13900387 -0.0659244 0.07368411 0.058218706
0.08890128 0.034528155 -0.12766433 0.021731533 -0.0861897 -0.039671447 0.13652264 0.061541636
0.09258682 -0.0031199954 -0.0352026 -0.05327249 -0.031348765 0.13633154 -0.012629759 0.004926794

trial_output.0.bias f4 [64]
00000000: 1c28 30bd 455f 6d3d f224 e93d c4a6 983d
00000010: 83c0 833d dca1 1a3e 842b ca3c 5399 46bd
00000020: 7078 353d 2622 bd3d c31d cf3d 063c 2c3d
00000030: d710 673d 31cc 9c3c cca8 5fbc 2238 bfbb
00000040: 2a02 16be ea71 9b39 5381 65bd a9c8 17be
00000050: 97bb 8abd eee8 b43b dbd2 82bd d69e 87bd
00000060: 7d59 553d 8d53 c73c 14ab c6bd 6378 113d
00000070: 8e41 4fbd ce6a cfbd 2af8 34ba a105 9ebd
00000080: 1f9f bbbc 719a e5bc 7ac2 13be 05a9 12bd
00000090: 6d59 cc3d f31b 023e 1b6a f73c 0c55 ce3d
000000a0: faf7 503c b6bd b63d 587f 963d f77f faba
000000b0: a39e ba3d 9a71 4bbe 29cd 883b be9e 2cbd
000000c0: 2c2f 82bd 5b13 cb3d 4cec 843d 5dab 333d
000000d0: 5550 123e cf84 3abc f8e5 e4bc 2153 fd3d
000000e0: aca0 42bd e99f adbd 4de2 d83c d963 653d
000000f0: ec01 f5bc 191c 143d 5481 ffbd adfb 733d
-0.043007 0.057952184 0.11384 0.07453683 0.06433203 0.15100807 0.024678953 -0.048486065
0.04430431 0.09235029 0.101130985 0.04204943 0.056412544 0.019140335 -0.013651084 -0.005835549
-0.14649263 0.00029648776 -0.056031536 -0.1482264 -0.06774061 0.0055209314 -0.06387874 -0.066220924
0.052087296 0.024331832 -0.09700599 0.0355152 -0.050599627 -0.10127793 -0.00069034344 -0.077159174
-0.022903023 -0.028027745 -0.14429656 -0.03580572 0.09977994 0.12705974 0.030201962 0.10074815
0.012754435 0.08922903 0.07348508 -0.0019111623 0.09112289 -0.19867554 0.0041748476 -0.042143576
-0.063566536 0.09915801 0.064903826 0.043864597 0.14288457 -0.011384203 -0.027941689 0.12369371
-0.04751651 -0.08477766 0.026475096 0.056003425 -0.029908143 0.03615961 -0.12475839 0.05956619

trial_output.2.weight f4 [3, 64]
00000000: 9f3d 9c3e bad7 02be 0940 993d b8ea 81bd
00000010: ec19 273e 3bc9 fd3d 8ede 863d 7829 1ebd
00000020: e781 263e 220d ed3c 1aad 893e 01ee 193d
00000030: 1f3c 86bd 2989 8fbe 9eb5 e0bd e23c 233e
00000040: 7201 413d 0ba1 5f3e 9e46 0bbf 763e 853e
00000050: 2d68 85be 2429 39bd f367 9fbf 44ab 4c3f
00000060: 2a1e 57be 8efe dd3b 7b59 473d 5800 ab3d
00000070: ed74 87bd 168b 623d 93e2 263e bae3 f1bd
00000080: 5bd7 973d eb72 06bd bdaf 78bd 817c b83e
00000090: 8b5c 7fbd 3330 b6bc 6cd9 d43c fd4b 3cbd
000000a0: a98a dabd 4550 c23d ef06 8b3d d683 ae3d
000000b0: 45a1 d23d d22b d9bd 485f a2bc 9c26 afbd
000000c0: 81e8 e03d 34f2 46be d221 aabd 381e b93e
000000d0: c8b5 bbbc 1e7d b1bd 2fe6 8c3a 00cf 3e3d
000000e0: 03e1 1d3f a7f0 17bd 23cf 083f 00f3 e53d
000000f0: f3c5 e23d fb26 1e3d ac09 2abd 93ba a23e
00000100: c406 18bf 64ec 23be b74f 543d 9970 19be
00000110: 96ae 20be af46 71bd a9b0 20be 9298 153c
00000120: 73b3 d0bb 5d4e 82bc b877 03bd 8fc4 02be
00000130: 400e 4c3d f108 403e 1db4 893d 5100 20be
00000140: b5f7 9fbc 0cc0 9bbe c7d2 493e 4d1f abbb
00000150: a497 143d d6f1 22bd 8526 303f e816 83bf
00000160: 8e5d 653f 6171 913d 4a04 b93d 74fe d43d
00000170: 2342 f4bd 6b13 1a3f c1ee 0abc 4d1e 33bf
00000180: 41a2 f73c 6bb3 c1ba 8cc7 00bc 0762 0abf
00000190: 3aad 17be 8ae0 14bd ec06 a93d 858a 5cbd
000001a0: 54b1 853c 954b b53c 81a5 92bc 2909 813c
000001b0: 161e 43be fbd1 023f 284a 413d aa78 b53d
000001c0: b788 853e 961f 403d 7409 b73d d023 8ebf
000001d0: 0e2d 15be 6182 773d 2a97 57bd 964f b9bd
000001e0: cda5 89be 8526 80bd a97b 17bf 3653 bbbd
000001f0: 3ef6 12be 218e 34be c904 d93d aa99 fa3d
00000200: ede5 093e 6920 9f3e cf25 13be d963 563d
00000210: d5ff c93d eb19 0dbe e579 54bc 3e19 893d
00000220: f645 25be 0adc 0fbe 25c1 86be 7a78 dcbc
00000230: c283 343c 85bf 7f3e 93ec e1bd 798f 53bd
00000240: c4ab ba3d 792a bf3d ea33 753f 03bc e0be
00000250: 92df 853e f054 3b3b f8c0 3d3f 2a47 8ebe
00000260: d9c1 dcbe 7bb4 47bd fc1b 1c3d 5654 25be
00000270: 2f93 45bd fcce 1fbf abfd a0bd 42e1 ea3e
00000280: 78c1 043e 7fba bdbd d057 abbc dd41 ddbe
00000290: 687a 153d e64a 35be b29e ab3a afd1 2dbc
000002a0: 25d4 e5bd 8c2d f8bc cc14 99bd 7494 c5bd
000002b0: 74b0 1c3e 8d05 b4be c717 3b3e 3d22 9bbd
000002c0: 017b ecbe d24f 973e 778d 9abd 6646 0d3e
000002d0: db48 e0bd 2c58 bf3c 409b bb3d add8 1abc
000002e0: 06f9 2fbf 7588 7abd 56b3 b5bd a887 88bd
000002f0: c264 1c3d 397f 913d f402 5dbb bad3 e0be
0.30515763 -0.12777606 0.07482917 -0.06343597 0.16318482 0.12391897 0.06585418 -0.038613766
0.16260491 0.028936926 0.2688988 0.037580494 -0.06554436 -0.28034332 -0.10972141 0.15941194
0.04712052 0.21838777 -0.5440463 0.26024216 -0.26056042 -0.04520525 -1.2453598 0.7994883
-0.210076 0.00677473 0.04866932 0.08349675 -0.06614099 0.055308424 0.16297369 -0.118110135
0.07414123 -0.032824438 -0.060714472 0.3603249 -0.062344115 -0.02223978 0.025982581 -0.045970906
-0.106709786 0.094879664 0.06788432 0.085212395 0.10284666 -0.10604061 -0.019820824 -0.08552286
0.109818466 -0.1942833 -0.08307232 0.36155868 -0.022913828 -0.08666442 0.0010749752 0.04658413
0.61671466 -0.03709474 0.53441066 0.11227989 0.11072912 0.038611393 -0.04151313 0.3178297
-0.59385324 -0.16008145 0.051833834 -0.14984359 -0.15691599 -0.0589053 -0.1569239 0.009130614
-0.0063690483 -0.015906507 -0.032096595 -0.12770294 0.049818277 0.18753411 0.06723807 -0.1562512
-0.019527296 -0.30419958 0.19709311 -0.005222237 0.03627743 -0.039781414 0.68808776 -1.0241365
0.8959588 0.071017034 0.09034021 0.104000956 -0.11926677 0.6018588 -0.008479775 -0.6996811
0.030228736 -0.0014778202 -0.007860076 -0.5405583 -0.14812174 -0.03634695 0.08253273 -0.05384304
0.016319908 0.022130767 -0.017901184 0.015751438 -0.19054446 0.51101655 0.04718986 0.088609055
0.26080868 0.046905123 0.0893735 -1.1104679 -0.14567968 0.060427073 -0.052634396 -0.09048383
-0.26884308 -0.06257347 -0.59173065 -0.091467306 -0.14351746 -0.17632343 0.10596616 0.1223634
0.13466616 0.31079414 -0.14369892 0.052341316 0.09863249 -0.13779418 -0.012968515 0.06694268
-0.16139969 -0.14048782 -0.26319233 -0.026912916 0.011017742 0.24975403 -0.11031451 -0.051650498
0.09114793 0.09334273 0.9578234 -0.43893442 0.26147133 0.0028584562 0.7412257 -0.2778867
-0.43116644 -0.048756104 0.038112625 -0.16145453 -0.04823607 -0.6242521 -0.07860883 0.45874983
0.12964427 -0.09264087 -0.020915896 -0.43214312 0.03649369 -0.17704353 0.001309356 -0.0106090745
-0.11222104 -0.030295156 -0.0747467 -0.09647456 0.15301687 -0.35160485 0.18270789 -0.0757489
-0.46187595 0.29553086 -0.075465135 0.13796386 -0.10951396 0.023357473 0.09160471 -0.009451074
-0.68739355 -0.06116529 -0.08872096 -0.066664994 0.038182028 0.07104344 -0.0033723684 -0.43911535

trial_output.2.bias f4 [3]
00000000: 2ac0 933c c372 a0bc 4e3c 13bd
0.018035967 -0.019585973 -0.035946183

rnn.weight_ih_l0 f4 [192, 4]
00000000: 0b65 20bd 0b8a 7abe f732 893e 190d 8c3e
00000010: 0d7f 23bd 62c9 44bf 3d3e 03bf 28a7 83be
00000020: ecff 853d 2f6d 083a 48bd 80bd ed4a 3f3e
00000030: cc53 9dbd 2402 813e ca99 24be 5432 a4bd
00000040: db77 8dbc 2962 283e 13fc 903d 7b34 553d
00000050: 6b22 283d b291 64be d531 debb e66e 083e
00000060: 5bbe 2dbd 6852 3e3e 268f c7bd 95d0 68bc
00000070: 6c80 253e 3670 9f3e 534e 5a3d cb14 0a3e
00000080: 1bf3 2bbe a908 0f3e 9519 3bbc ccb3 273e
00000090: a1f8 c53d bcde 543e 056e 7f3e 8280 993e
000000a0: 1395 1bbe 29dd c63d 6d97 93bb 521d 0c3d
000000b0: c034 bbbd 25f6 4a3e 53da fb3d 7b9f 853e
000000c0: f9d3 033e f91d 9d3d f774 423e 634d bd3c
000000d0: 3bc4 b8bd 5036 98be 3a32 fd3b bdea a83d
000000e0: ba22 94be 1c57 41be efbb ec3c 5f5c 16bd
000000f0: 2fce 923d 9aca 243e 35bb 5b3e 3175 f73d
00000100: ad8e a43c aac3 073a 975d 933d 17ce 783d
00000110: caca 1a3e 8f6d 46be 9464 fdbd 2e0d 393e
00000120: e3c7 04bd 7572 0d3d 6583 003d f142 bd3c
00000130: a7e0 763e 5c08 173e 117a ffba 94aa c93d
00000140: 2fc7 413d 9382 1fbb 2334 7a3e 4441 5f3e
00000150: 5c75 a53d cd7b 583d b046 8d3d 4235 1d3c
00000160: b2aa b93d 5a16 fd3e 49cc 883e a222 e03e
00000170: 48cf 1fbf ba92 1bbd 7633 cbbe d914 a2be
00000180: cd7d 003f d11c ecbe b97e 873f 3184 81bd
00000190: 82bf 15be 39b8 8fbd 0b22 083d 9607 9d3e
000001a0: 985d 693d 8058 f03d 769d aa3e f2a4 94bc
000001b0: 8af0 773e c87d 90be 8b1b 4ebe 6190 2fbd
000001c0: a963 b73d b0b7 b73e ccf3 0abe bb97 063e
000001d0: 2e9f 073e 5b1b c13d 9d6b 123e 9a54 903e
000001e0: e26c e43e 0b0d 7b3c 672d 05be d98a fc3d
000001f0: 2a11 6ebd 51c7 ee3e 7777 a73d 22fa 18be
00000200: 9408 483e 1b34 c63d 97cc 4e3e 5727 a03d
00000210: b6cd c43d 05b5 943d 6add 623d c1a3 aa3d
00000220: 9ac0 f4bd 60ed 2cbf 6446 dfbe 5c5d edbe
00000230: 0886 0abd ffff 643e f10a 103e a2df 863e
00000240: 6b3a f33b aaea 4a3e 2c66 de3c d128 92bd
00000250: c396 bc3d f6fb febd 9398 14bd e6b0 f73c
00000260: 6bf9 db3d 61ab 263f 7385 e83e 95fe 663d
00000270: b2d6 2cbc 32fa 993e 13d9 233e b330 6d3e
00000280: 25b7 5b3d 3a8d 7abe e646 0e3e bf74 fd3d
00000290: 15f5 c43c f5d3 623e d422 993d 0e26 3b3e
000002a0: 9799 80be 5f00 1cbf 02ce f9be 63c3 14be
000002b0: 23ca 9a3d f6b7 2b3e daa5 8c3e 02ff 343e
000002c0: 7eca 15bd 9afe 9f3c 7c38 393e e3d1 a03e
000002d0: f0a4 623d d488 9b3c 8e83 243d 2d77 853e
000002e0: 505c 00be b326 323d 0e01 563d ca77 303d
000002f0: fe9f 3dbd ab19 3abe 3097 783e b9fe 19bd
00000300: 9150 1cbc ed00 483e 2ccc d33d 8d24 a43d
00000310: 9c01 abbc 3e92 e03e 4d2e d03e 1af7 843e
00000320: 5796 f73b ba27 4f3c 6456 fb3c faa4 ba3c
00000330: b7ec 09bd 701d 563d 4559 f93c 3928 893c
00000340: 7b3f e13d 5180 523e 4af1 ce3d 8184 3c3e
00000350: 5046 133e 0041 a23e 50b5 a93e 7643 b33d
00000360: c909 163e a668 5e3e 2058 993d f457 873e
00000370: 67cf 873e a840 b1bc 5ea2 f6bd f57b ed3d
00000380: e1e7 68be d31b 24bf 496f 62bb 28f8 a0be
00000390: 85b7 593e 34b5 eebe 0613 18bd b9b7 a53d
000003a0: b0d6 08be d4df 473e b702 7f3b 6cb4 5c3e
000003b0: e3b4 b93d 79ae f4bb b0b1 773d 2f2c aa3b
000003c0: c045 c33d 6383 213e 989f 603e f335 483e
000003d0: 5c6d a43d ec07 c2bd 3e5e dfbd c484 533e
000003e0: e4c7 e73c 542d 053e 7453 513e 4428 643d
000003f0: 67b5 483d f690 d63e 4774 9e3d 9c4c 913e
-0.039158862 -0.24466722 0.26796696 0.27353743 -0.039916087 -0.76869786 -0.51266843 -0.25713468
0.06542954 0.0005204258 -0.062861025 0.18680926 -0.076819986 0.25196946 -0.16074291 -0.08017412
-0.017269066 0.16443695 0.07079329 0.052052002 0.04104845 -0.22321203 -0.006780843 0.13323554
-0.042417865 0.18586123 -0.097441 -0.014209886 0.1616227 0.31140298 0.053297352 0.13484494
-0.16791956 0.13968147 -0.011419673 0.16377181 0.09666563 0.20788091 0.24944313 0.29980856
-0.15193586 0.09710152 -0.0045041353 0.03420765 -0.09140921 0.19820459 0.122975014 0.26098236
0.1287383 0.076717325 0.18989931 0.02310819 -0.09021803 -0.29728937 0.0077269347 0.08247898
-0.28932744 -0.18880886 0.028898207 -0.036709186 0.07168233 0.16092911 0.21458133 0.12082899
0.020087564 0.00051789975 0.07195585 0.060743418 0.1511642 -0.19377731 -0.123726994 0.18071434
-0.03241719 0.034532983 0.031375308 0.02310321 0.24109136 0.14749283 -0.0019491335 0.09846988
0.047309097 -0.0024339303 0.24433951 0.2180224 0.08079025 0.05285244 0.06898248 0.009595217
0.09065761 0.49431115 0.26718357 0.43776423 -0.6242566 -0.037981726 -0.396877 -0.3165653
0.50191957 -0.46115735 1.0585548 -0.06324042 -0.14623836 -0.070175596 0.03323559 0.3066985
0.056974024 0.1173563 0.33323258 -0.018145058 0.24212852 -0.28220963 -0.20127694 -0.0428623
0.089545555 0.3588233 -0.13569564 0.13143818 0.13244316 0.09429046 0.14298864 0.28189546
0.4461432 0.015322934 -0.13005601 0.123311706 -0.058121838 0.4663644 0.08177083 -0.14939168
0.19534522 0.09677907 0.20195232 0.078200035 0.09609549 0.07261089 0.05538694 0.08332015
-0.11950798 -0.67549706 -0.4360839 -0.4636029 -0.03381923 0.2236328 0.14066674 0.26342493
0.0074227354 0.1981608 0.027148329 -0.07136691 0.09208443 -0.124504015 -0.03627832 0.030235719
0.10740932 0.65105253 0.45414314 0.056395132 -0.010549234 0.30073696 0.16000776 0.23163109
0.053641457 -0.24467936 0.13894233 0.12375783 0.024042645 0.22151168 0.07477346 0.18276235
-0.2511718 -0.60938066 -0.48789984 -0.14527659 0.07558086 0.16769394 0.27470285 0.17675403
-0.036570065 0.019530583 0.18087953 0.3141013 0.055333078 0.018986143 0.040164523 0.26067486
-0.12535214 0.043493938 0.0522471 0.04308299 -0.04629516 -0.18173854 0.24276423 -0.037596438
-0.009540693 0.19531603 0.10341677 0.08014784 -0.02087479 0.43861574 0.40660325 0.25969774
0.0075557637 0.012643749 0.030680843 0.022783745 -0.033673014 0.052274168 0.030438075 0.016742812
0.10998436 0.20556761 0.10104616 0.18409921 0.14382291 0.31690216 0.33146143 0.087531015
0.1465217 0.21719608 0.07487512 0.2643429 0.26525423 -0.021637276 -0.12042688 0.115959086
-0.22744705 -0.64104956 -0.0034551194 -0.31439328 0.21261413 -0.46622622 -0.037127517 0.08091683
-0.13363147 0.19518977 0.003891153 0.215532 0.090677045 -0.007467088 0.06047219 0.0051932554
0.09534788 0.15772776 0.2193588 0.1955183 0.08028671 -0.09474167 -0.10906647 0.20656115
0.028293557 0.13005573 0.20441991 0.055702463 0.049001124 0.4190747 0.07737022 0.2837876

rnn.weight_hh_l0 f4 [192, 64]
00000000: f10c 363d e2c0 74be 0072 8d3d fb30 ad3d
00000010: 2319 733b 9bff 14bc 6a7a 423d 5c4c cebd
00000020: b67a f8bd ee7b 26be 6eb9 8c3d 7112 c33d
00000030: 4641 933d 1f01 a23e 6913 acbe 8fea b7bc
00000040: b1fc 403e 16b3 74bd 1778 98bd 5a6b 16be
00000050: fc28 2abd 67e2 cc3d 49c3 403e a93c 8fbe
00000060: c5d5 643e 82ea cb3c 2b46 263e 38ae 0cbe
00000070: 339c 923d 48dc 2cbe 8b0c 28be 0eb9 dbbc
00000080: a8ff 593e 6de9 763d b6d9 44be ecc2 04bd
00000090: 440f 6a3c 3db8 cd3c ffe5 03be c2fa ca3c
000000a0: b342 5c3d 57c4 103d d222 783d 05dc 273e
000000b0: ec42 0e3e fd20 b73c c54c 3a3e 92a9 f8bc
000000c0: 641a 6c3e 4c7f c5bc 6adc 61be 7e7c 413d
000000d0: 4350 e13c 9dcb 28be eb2e b83d d086 ef3c
000000e0: fa7c b1bd 92ca abbd f709 41bd d159 693d
000000f0: 50f7 7f3c 6e98 d73c 8dc0 663c e429 2fbd
00000100: 3543 aabc f41e 4cbe dfe4 9cbc 6526 843d
00000110: 312b 083e 8b2b e9bd 667d 34bd 09d6 f7bd
00000120: 902d 0bbe 439b cfbd 7cd6 c2bc 595d 243e
00000130: 1418 e7bd d0ee 5abb 0408 36be b1fe 803a
00000140: 7316 b83c a29d 063d c2fc 52bd 78f5 99bd
00000150: a51e 193d b314 0cbd 212e 723e ce55 75be
00000160: 65aa 87bc 0489 c7bd f725 44bd e9ee 97be
00000170: ecba 063e e4b4 143d ae6e 33be d104 cc3e
00000180: 136c 7d3d c706 323d 9a5b 8ebe 690c 913b
00000190: b174 b0bd 5dce 90bd d67b 18be 0f48 0ebe
000001a0: ff7b 3abc 8551 153e 69fe 85be 37f3 373e
000001b0: b627 78bd e8f2 6d3d e4b3 303e 4066 eabd
000001c0: dcc0 693e 9ae0 63be 64e2 acbd dced 943d
000001d0: f6c2 d5bd 2958 f13c 0de3 9b3d 1f72 f9bd
000001e0: 7381 59bd 7c01 51bd 58f0 58bd 5cfc 123e
000001f0: 204b 10bd 941b 1cbd 5e76 653d aac0 ddbd
00000200: cd84 fcbd ae24 1e3e 21db 78bd b9ae 3f3c
00000210: 2212 8bbd 69e3 c0bd 11e9 cbbd 2585 1b3d
00000220: d9a2 78bb 96df 2fbd 6ffd fabb ca3d cdbd
00000230: 3ba8 92bc 6f46 ab3c e4f3 443e 81ce d6bd
00000240: 7de5 82bc 5876 c3bd 3481 b9bd fe2e 76bc
00000250: da20 fe3d c29d e1bd ebd5 35be 6c4f a3bd
00000260: e4ba c23d 9fcf e23d b095 383d 0682 d3bd
00000270: 6398 de3c 6dd6 39bc 8a44 01bd 8674 c53c
00000280: 62c0 4fbc aca4 42bd b046 283e 4e19 02bd
00000290: d8c0 82bd be62 e2bd a42e 0dbb 3bb1 c5bc
000002a0: 8540 1e3e 6f99 a6bd 13ac 8e3d ecdc cdbd
000002b0: fb83 92bb 828c 37bd 5ae6 8c3d 879b b03c
000002c0: b731 bcbb d903 153e 653a f7bd 9a61 d63c
000002d0: ef74 a4bc e0a2 9d3d 626e e1bd 07e2 9dbd
000002e0: 9765 9abc 30af 6e3d 068e 413c 71df 70bd
000002f0: 651e 8a3d e07a 04be 8af8 8a3d 3e6a 4d3e
00000300: 9917 3d3d f8d9 21be 3840 b4bd 3af6 11bd
00000310: ed68 6dbd 75a9 73bd 17a7 f9bc a279 3abe
00000320: 52a3 7ebe 4c2e 5bbd 7ea4 3e3e d221 3e3e
00000330: cdf8 273c ae0f 213e 5ad2 acbe 0df3 28bd
00000340: 3603 ee3d f163 4abd ccdc 953b 77a9 66bd
00000350: 3004 2dbe b705 a03d 34f4 a0bc 6c2f 3dbe
00000360: 6236 4c3e 14a5 8fbd b2f3 a33d e72e 5abe
00000370: 3a8b d6bc c4df 7cbd 9977 533e a80a eb3d
00000380: 5a42 4d3e 9e37 593d a0d0 7bbe 064d df3d
00000390: cde1 9f3d 15ca ed3c 1aed 8a3e 9088 f4bc
000003a0: 9c37 5a3e 85b5 86bd fe07 80bd 7b22 013e
000003b0: 9cb3 d73c 29f6 04be dd63 563d 27cc 9b3d
000003c0: f0da c13d 4ebf 14be d050 4dbe 3f82 6d3d
000003d0: 9c1d 17be c7e3 52be 73cc 173c 0b32 6cbe
000003e0: 3dc3 d8be a6cb ffbd f8f8 8d3b b9a7 8f3d
000003f0: e65c eabd 509a d43d ffcf 51bd 5270 9a3c
0.044445936 -0.23901704 0.069065094 0.08456608 0.003709384 -0.009094144 0.047480024 -0.10073158
-0.1213278 -0.16258213 0.068713054 0.09525002 0.07190184 0.3164148 -0.3360856 -0.022450713
0.18846394 -0.059741102 -0.0744478 -0.14689389 -0.041542992 0.1000412 0.18824495 -0.27975968
0.22347172 0.024892095 0.16237704 -0.13738334 0.07158699 -0.16880906 -0.16411035 -0.02682164
0.21288931 0.060281206 -0.19223675 -0.032412454 0.014285866 0.025112266 -0.12880705 0.024777774
0.053774547 0.035343494 0.060580082 0.16392525 0.13892716 0.022354597 0.18193348 -0.030354295
0.23056942 -0.024108551 -0.22056738 0.047237866 0.027504092 -0.16483922 0.08993324 0.029239088
-0.086664155 -0.083882466 -0.047128644 0.05697042 0.015622929 0.026317801 0.014083994 -0.04276456
-0.020784 -0.19933683 -0.019152103 0.06452636 0.13297726 -0.11385258 -0.0440649 -0.12101371
-0.135916 -0.10137036 -0.023783915 0.16051234 -0.112838894 -0.0033406503 -0.17776495 0.0009841529
0.022471642 0.032865174 -0.05151058 -0.075175226 0.03738274 -0.034199428 0.2365041 -0.23958513
-0.016560743 -0.097429305 -0.04788777 -0.2967446 0.13157243 0.036305323 -0.1752269 0.39847425
0.061870646 0.043463495 -0.2780426 0.0044265282 -0.08616007 -0.07070611 -0.1489099 -0.13894676
-0.011382102 0.14581878 -0.26170662 0.17963873 -0.060584746 0.05809298 0.17256123 -0.11445284
0.22827476 -0.22253647 -0.08441618 0.072719306 -0.104375765 0.029460983 0.07611666 -0.1217997
-0.053101968 -0.051026806 -0.052963585 0.1435408 -0.035227895 -0.038112238 0.056021087 -0.108277634
-0.12330017 0.1544368 -0.060755853 0.011699372 -0.06790568 -0.09418375 -0.09956563 0.037968773
-0.0037938862 -0.042937838 -0.007659606 -0.10021551 -0.017902484 0.020907609 0.19233662 -0.10488606
-0.01597857 -0.09544057 -0.09057847 -0.015025852 0.1240861 -0.11016418 -0.17757384 -0.07974133
0.09508303 0.11074757 0.045064628 -0.103275344 0.027172273 -0.011342627 -0.031559505 0.024103414
-0.012680145 -0.047520325 0.16433215 -0.031762414 -0.06384438 -0.1105399 -0.0021542693 -0.024132362
0.154543 -0.08134734 0.06966414 -0.10051903 -0.0044712997 -0.044811733 0.068798736 0.021558536
-0.005743231 0.14552249 -0.12071685 0.026169587 -0.02007529 0.076970816 -0.11007382 -0.07709127
-0.01884727 0.05827254 0.011813646 -0.05880684 0.067440785 -0.12937498 0.06785686 0.2006006
0.046165083 -0.15805805 -0.08801311 -0.03563521 -0.057961393 -0.05948778 -0.030475182 -0.18210462
-0.2486699 -0.05351095 0.18617436 0.18567589 0.01025219 0.15728638 -0.33754236 -0.041247416
0.11621706 -0.049411718 0.00457344 -0.056313958 -0.16896129 0.0781359 -0.019647695 -0.18475121
0.1994262 -0.07013908 0.080054656 -0.21306954 -0.026189435 -0.061736837 0.20651092 0.11476642
0.20044842 0.053031556 -0.24591303 0.10903363 0.0780674 0.029027024 0.2713402 -0.029850274
0.21310276 -0.06577591 -0.062515244 0.1261081 0.026330762 -0.12984528 0.05234133 0.07607298
0.09465587 -0.14526102 -0.20050359 0.05798554 -0.14757389 -0.20594703 0.009265053 -0.23065965
-0.42336455 -0.12490015 0.004332658 0.070144124 -0.114435 0.10380995 -0.05122375 0.018852387

rnn.bias_ih_l0 f4 [192]
00000000: 9a79 96bc b417 c4bd 0ceb 543d 16a8 cbbd
00000010: 1c01 a0bd d8cd 05bd c2d6 d33d 0251 853d
00000020: fecb 463c fb7b 553d 449b d4bc 31f6 1c3e
00000030: 46bd f23d 4929 323e 8131 853e 8d12 1dba
00000040: 08d4 d8bb b08e 6d3d c269 9bbd 7cdc e7bc
00000050: b5ab d83c fdbe c53d fa13 91bb 48e7 3c3e
00000060: 0cfb 313d ad43 493c 00e3 9d3d e23b 913c
00000070: af7f 36bd fe28 0abe 0c33 133e efb7 d3bb
00000080: 8420 803d 7f4d 76bd 2576 a8bc 9b09 823d
00000090: e651 353e ee54 ffbb 50ec 613c 72c1 9f3d
000000a0: 3d5e 093e 9dd1 0cbe a858 9bbd d910 62bd
000000b0: 55b9 a6bd ac20 87bd c534 7c3e 860e 1cbd
000000c0: 1954 033d 2eba 003e 2522 413d 892d 0bbe
000000d0: 4aec f2bd 5d92 b0bc 66cf a7bc 5911 f43d
000000e0: 0299 863d 7ee9 b83d 104a e43d c17b 503b
000000f0: 19a5 3bbd fbc8 0f3e 2b79 5a3e ca13 003e
00000100: 12e9 a0be b3d3 d7be a65d 3abe 3906 91be
00000110: 546b abbe 830f 06be 9c72 03be 300f e7be
00000120: c053 d23c f2dd 51bc 29c8 a9bd 8523 3ebe
00000130: 6661 c43d 069f 4abe 5c18 37be 3956 a1be
00000140: 3f82 53be 42c0 88be 154d 4cbe b5ca 2bbe
00000150: b600 2dbe ee93 df3d cc15 c8be 4f9f bdbe
00000160: 922a 06be 6b87 13be 8250 e6bd 3fd6 99bd
00000170: e6ca 50be 81d9 60bd d397 3fbe a111 71be
00000180: 098e 80be d2e5 abbe 7764 1fbe bece 06be
00000190: 9422 8ebe 89f0 563d 3ce6 a8bd 14f7 74bd
000001a0: 5c4f 0e3e aa70 40bb 18bb 8ebe e087 babd
000001b0: 6ecc b5be 1853 23be 055e c0be 40af 98bd
000001c0: 8f58 8dbe e3c6 42be 8c72 9ebe 2b56 45be
000001d0: 03f9 7cbe a6bd 0cbe 3fab 13bd 654a aabd
000001e0: 2434 46be 9ba7 c3bd 518a 86bd 4aa1 06be
000001f0: c69b 4fbe ea38 81bd 558d 20be d3a1 aabe
00000200: 06ef 8ebd a8c7 bebd 6b16 02be 8076 e23d
00000210: a3bc 9dbd 4e0e a43d 3751 f2bd cf85 b73d
00000220: a498 063e f429 cc3d e182 03bd fb28 8dbd
00000230: 0d6e 16be d926 ae3d fe74 bfbd 8046 46bd
00000240: 5949 a43d d15c a4bd 6607 9fbd a492 0abd
00000250: b230 ec3d d918 19be 6a7a 70bc d83f 13bd
00000260: c838 483d 4409 b4bd e6e6 e4bd 3c9b fcbc
00000270: 8bd7 01be 7af6 77bc 89f0 ce3d 9610 f3bb
00000280: c277 b6bc 7a63 0fbe d97c f93d c511 8cbd
00000290: 8e15 e4bd 9fb3 37bd a048 483d b801 30bc
000002a0: 2f10 453d c4fc e4bd 2529 053e f9db b83c
000002b0: 020e bb3c 040f 143e 33d4 6c3c 5b44 7cbc
000002c0: 2399 13be f2a9 bfba ad2d 133e 61db 173e
000002d0: eb3a af3d ae12 e93d a457 64bd f67b b4bc
000002e0: 32db 273d 3fff 8dbd cbca c73d a2ab d73d
000002f0: bd87 c13d 255a bdbd e656 f83d ef8f 08bd
-0.018368531 -0.095748335 0.05198197 -0.09944169 -0.078127116 -0.03266701 0.10343696 0.06509592
0.012133596 0.05212019 -0.025952943 0.1532829 0.11852507 0.17398562 0.2601433 -0.0005991839
-0.006617073 0.057997406 -0.07588531 -0.028303377 0.026449064 0.09655569 -0.00442743 0.18447602
0.043452308 0.012284202 0.077093124 0.01772875 -0.044555362 -0.134922 0.14374942 -0.0064611356
0.06256202 -0.0601325 -0.020564148 0.06349488 0.17707023 -0.007792107 0.013789251 0.07800569
0.13414855 -0.13751836 -0.07585269 -0.05519185 -0.08140818 -0.065980285 0.24629505 -0.038099788
0.032062624 0.12571022 0.047151703 -0.13591589 -0.11861475 -0.021554166 -0.020484637 0.11917371
0.06572153 0.0902891 0.11146939 0.0031812044 -0.045811746 0.14041512 0.21335284 0.12507549
-0.3142782 -0.421537 -0.18199787 -0.2832506 -0.33480322 -0.13091855 -0.12836689 -0.45128775
0.0256747 -0.012809264 -0.08290131 -0.18568237 0.0958889 -0.19787225 -0.17880386 -0.31511095
-0.20655154 -0.2670918 -0.1995128 -0.16776545 -0.16894802 0.10916887 -0.3907913 -0.37035605
-0.13102177 -0.14407127 -0.112458244 -0.07511567 -0.203899 -0.054894928 -0.1871026 -0.23541881
-0.25108364 -0.33573776 -0.15565668 -0.13164803 -0.27760756 0.052475486 -0.08247039 -0.059805945
0.1389746 -0.0029364028 -0.27877116 -0.09107947 -0.3550753 -0.15949667 -0.3757173 -0.07455301
-0.27606627 -0.19021182 -0.30946767 -0.19271152 -0.24704365 -0.1374422 -0.036051985 -0.08314971
-0.19355828 -0.095534526 -0.065693505 -0.13147464 -0.20274267 -0.063096836 -0.15678914 -0.33326587
-0.06979184 -0.09315425 -0.12703864 0.11057758 -0.07701995 0.08010541 -0.11831897 0.08961069
0.13144165 0.099689394 -0.032107238 -0.06892582 -0.14690419 0.08503503 -0.09348486 -0.048407078
0.080218025 -0.08025516 -0.07765083 -0.033831254 0.115327254 -0.14950885 -0.014677623 -0.035949558
0.048882276 -0.0879083 -0.11176853 -0.03083574 -0.1267988 -0.015134448 0.10104472 -0.0074177487
-0.022273902 -0.14002791 0.12182016 -0.06839327 -0.11136924 -0.044849034 0.048897386 -0.010742597
0.048111137 -0.11181024 0.13003977 0.022565829 0.022833828 0.14458853 0.014454889 -0.015397157
-0.14413886 -0.0014622791 0.14372893 0.1482978 0.085561596 0.11380516 -0.055747643 -0.022031765
0.040980525 -0.0693345 0.097554766 0.10530783 0.09449718 -0.09245709 0.121259496 -0.03334039

rnn.bias_hh_l0 f4 [192]
00000000: b7e5 0d3d 196b e43d 262f a63c 9e7d bebd
00000010: 98f2 8e3d 5466 c43d 7dcf f8bc e7bc f1bd
00000020: 0604 543d 4a4d b53d 546f 483e 7fcc a03c
00000030: a11b a73d bf9b c43d b996 ae3d 0354 513e
00000040: 534b e03d f62e e13c 7086 f93d 73da 0b3e
00000050: b328 0abe b5d0 2a3e 7eb4 b83d 7f64 963d
00000060: 654a 1d3b 9c81 9dbd 2429 32bd 67d9 80bb
00000070: da2d 3c3d afe1 0ebe 84e3 23ba 2b0f d93d
00000080: 10ce 4d3e 127b 6c3d 6498 dabd 8933 9e3d
00000090: f32b 003e f929 36bd b75b 453e a96f a1bd
000000a0: 980d 8e3d 4d1f 05be c652 5cbe 2334 103e
000000b0: 1d0f e3bc b072 ef3d 0c8f 843e 75a5 eb3d
000000c0: 6892 4a3e 6722 353d b06e 463e 127d 8fbd
000000d0: 365e 893d f393 283d 8db6 883d b195 af3d
000000e0: bdab 52bd a937 e73d a04b a1bd 3c8f 53bb
000000f0: 28cd 1a3e 8371 7a3d 506e fa3d cc8b 3f3e
00000100: baed 18be 01f7 72be dd40 59be 4ebe a3be
00000110: d02a 9bbe 1a9e c63c 0dae 43be 1c74 abbe
00000120: 9cc4 5dbc 1a03 423c 35cb 81bd 03e8 bfbd
00000130: 2738 4b3e b8e4 7bbd 5c1a 17be f9c9 a0be
00000140: fc5a 79be c6ea 9abe 0461 28be 4266 e83c
00000150: a892 24be a8f8 eebd 171a 7cbe c893 cdbe
00000160: 8548 1dbe a0d0 ff3c 8aa0 b2bd 781e 1abc
00000170: 605a 90bb 2a02 9d3c 578d 81be 6fa4 4fbd
00000180: 58a7 a2be 3110 a4be 21ef 30be 99ac 8ebe
00000190: 7ffb 1abe 4f43 073e f327 0c3d 530d d3bd
000001a0: f192 a73d 40d4 25be fa18 90be 5adf 7abd
000001b0: 66c4 66be f594 75be ee1a a8be 964f 1cbc
000001c0: d288 a6be fe71 8ebe da20 51be 4cc2 8abe
000001d0: 0aea 96be 1ce1 a4be 74d2 56be d744 63be
000001e0: 52de 42be aa1d d4bd d1fe 9d3c d6ff 9e3d
000001f0: b8fa fcbd abef f3bd 83ba 5b3c 8f69 dcbe
00000200: eb19 eabc e1a0 fcbc 9803 c8bd 2103 0b3d
00000210: e9c8 30bd b630 10be 0671 18be 4da2 82bd
00000220: ac89 3b3c 4627 2bba bc27 f3bc e1e9 16be
00000230: f375 18be ee70 f3bd e63d 593b 6456 463c
00000240: 0666 ffbd ebb7 08be ce0e 77bd 72cc c53c
00000250: bbd0 c7bd a69c 0cbe a2ee 10be d7d7 8abb
00000260: c354 14bd 2dc4 ddbc 9cce 07be 1486 0c3e
00000270: f468 273d ef33 31bd f796 ba3d db5e dcbd
00000280: 2993 dcbd b4a5 8dbd a1e1 a13d a8c2 dc3c
00000290: d9b0 8dbd c583 fabd 9ebe 6bbd bdc2 083e
000002a0: cf9b e33c 0e55 093c bddb 27bd fe5a fa3b
000002b0: 647d af3c 913c d8bc 921b f5bd a437 bbbd
000002c0: b78d 3e3d d949 b5bc aa06 da3d 8f7c 37bd
000002d0: bcf4 70bd 0134 223c 02f9 9fbc 1c81 3abd
000002e0: 31e3 c33d 9800 9dbd 236f c7bd e97c 08be
000002f0: 1c90 0b3e 53b4 91bd 600d 703d e120 f83d
0.0346429 0.1115324 0.020286154 -0.09301303 0.06979865 0.0958983 -0.030372376 -0.118036084
0.05176165 0.08852632 0.19573718 0.019628761 0.08159567 0.09600019 0.08524842 0.20442204
0.10951867 0.027488213 0.12183845 0.1365755 -0.13492088 0.16681178 0.09018801 0.07343387
0.0024000641 -0.07690737 -0.043496266 -0.0039321664 0.045942165 -0.13953279 -0.0006251859 0.10598596
0.20098138 0.057734556 -0.106735975 0.07724673 0.12516765 -0.044473622 0.19273268 -0.078826256
0.069361866 -0.13000222 -0.2151595 0.14082389 -0.027717168 0.11691797 0.25890386 0.11506168
0.19782412 0.04422226 0.19378161 -0.07006277 0.067074224 0.04115672 0.06675444 0.08573473
-0.051433314 0.11289913 -0.078757524 -0.003228142 0.15117323 0.06114341 0.12228072 0.18705672
-0.14934435 -0.23727037 -0.2121615 -0.31981128 -0.303061 0.02424531 -0.19109364 -0.33487022
-0.013535645 0.01184156 -0.06337587 -0.093704246 0.19845639 -0.06149742 -0.14756149 -0.31404093
-0.24351114 -0.30257243 -0.16443259 0.028369073 -0.1607157 -0.11668521 -0.24619327 -0.4015181
-0.15359695 0.03122741 -0.08722027 -0.009406678 -0.004405305 0.019166071 -0.25303146 -0.050693925
-0.31768298 -0.32043603 -0.1727872 -0.27866057 -0.15135 0.1320927 0.034217786 -0.10305276
0.08182324 -0.16194248 -0.28144056 -0.06124816 -0.22535858 -0.23982604 -0.32833046 -0.009540459
-0.3252626 -0.27821344 -0.20422688 -0.27101362 -0.29475433 -0.32202995 -0.20978719 -0.22194229
-0.19030121 -0.103572205 0.019286545 0.077636406 -0.12352508 -0.119109474 0.013411167 -0.43049285
-0.028576812 -0.030838432 -0.097663105 0.03393853 -0.043160353 -0.14081082 -0.14886865 -0.06378613
0.011446398 -0.00065289845 -0.029682033 -0.14737655 -0.14888744 -0.11886774 0.0033148467 0.012105558
-0.12470631 -0.13351409 -0.060316853 0.024145339 -0.09756609 -0.13731632 -0.14153531 -0.004237156
-0.036213648 -0.027071083 -0.13262409 0.13723022 0.040871575 -0.04326242 0.091108255 -0.1076028
-0.10770256 -0.06916371 0.079043634 0.026948288 -0.06918497 -0.12232164 -0.057554834 0.13355537
0.027784256 0.008382095 -0.040981043 0.0076402416 0.021422096 -0.026396068 -0.11968149 -0.09141472
0.04652187 -0.02212994 0.10645802 -0.044796523 -0.058827147 0.009900094 -0.019527916 -0.045533285
0.09564818 -0.07666129 -0.097379945 -0.133289 0.13629192 -0.07114472 0.058606505 0.12115646

exp_avg f4 [1, 64]
00000000: 2ab5 2035 1bb0 5c34 2883 1034 b371 d2b4
00000010: 261c eeb3 83c8 5435 6d5a 4fb3 61c8 2cb4
00000020: f717 03b5 3188 cbb4 648a 8632 7629 ac35
00000030: 4997 95b4 d57d c535 dc38 c5b4 501d 9b34
00000040: 4a4e 0135 157a 03b5 e1c8 fab4 8825 1eb5
00000050: 5454 5ab5 2f63 ef34 1fad 2b34 1054 ed33
00000060: 1c78 c6b2 f69c 7db5 d033 f034 c919 dc36
00000070: 3997 2834 3644 98b4 479f f734 9fd2 e3b5
00000080: 052c 1f35 7ec7 0cb4 e16e 12b5 eb24 4c35
00000090: 5c81 8134 93b8 5336 050e 2eb5 e888 03b5
000000a0: 9f85 c0b5 1d4c 6734 8cff 4a36 915e 3535
000000b0: 7543 7334 548e a934 a03f 4035 933d 5d35
000000c0: e4c5 f934 14c9 4333 e0d4 8fb4 4c25 59b4
000000d0: e408 40b3 dd1e 13b5 f9a2 2934 f0df 3434
000000e0: 15aa 44b5 08f3 1636 7a12 11b4 9b38 7eb4
000000f0: 21a5 0bb5 4ab8 a7b1 8440 ebb4 1718 44b5
5.9868273e-07 2.0553163e-07 1.345876e-07 -3.9198275e-07 -1.1087859e-07 7.926794e-07 -4.8278185e-08 -1.6091646e-07
-4.8836176e-07 -3.791079e-07 1.5662586e-08 1.2827065e-06 -2.7863487e-07 1.4714266e-06 -3.673548e-07 2.8892327e-07
4.817017e-07 -4.8978956e-07 -4.6712287e-07 -5.89142e-07 -8.133404e-07 4.4589385e-07 1.5988597e-07 1.10514634e-07
-2.3104853e-08 -9.447825e-07 4.4741182e-07 6.5595127e-06 1.5701234e-07 -2.8361836e-07 4.6123225e-07 -1.6974117e-06
5.929617e-07 -1.3111091e-07 -5.455059e-07 7.6049645e-07 2.4122244e-07 3.1548886e-06 -6.484045e-07 -4.900053e-07
-1.4344004e-06 2.1541241e-07 3.0249093e-06 6.7565367e-07 2.2655679e-07 3.158226e-07 7.161816e-07 8.241852e-07
4.652385e-07 4.5584855e-08 -2.6790713e-07 -2.0223268e-07 -4.471157e-08 -5.480668e-07 1.579864e-07 1.6845274e-07
-7.326319e-07 2.2493205e-06 -1.3510899e-07 -2.3676186e-07 -5.202183e-07 -4.881291e-09 -4.3819102e-07 -7.3050745e-07

exp_avg_sq f4 [1, 64]
00000000: 3ee3 292d 4763 ce2c 10db cf2c 953e 152c
00000010: 889f be2b d4a1 c52c 886d db2c b802 8c2c
00000020: 4cdb 5c2c 825b 912c 394c f12b 6778 812d
00000030: cfb1 d02d a113 9c2d d6ec 312d 3e74 c22c
00000040: 5b26 a52b a120 232c 082b e32c 22a7 8b2c
00000050: e4f9 882d 8b78 4a2e 5803 762b 6d5d 462c
00000060: cabb 852d 7c96 372d 2af9 cd2b 2d63 4a30
00000070: 8d0d 242c 7272 312c 7f54 022d a04b 132f
00000080: 0833 442c af37 0d2c 7e4e 4e2d df65 1a2d
00000090: fe07 722b 3219 102f 6b53 362e 5b8f 062c
000000a0: 860f 9d2e 9fb2 622b 8ed8 7f2f 510d fc2c
000000b0: 5a09 a72b db8b 722c 7c3b aa2c 89f6 bc2e
000000c0: c219 802c 16bb 9e2b 54e1 ae2b 05e0 c82b
000000d0: 3be6 b12b a58f 082d 891a 072c d9b7 942c
000000e0: 3508 ca2d b625 ee2e 95bf 942b e7b6 8b2c
000000f0: c4ef ee2b 6cb1 b52b 48cf ab2b c770 1b2d
9.656996e-12 5.865894e-12 5.9076147e-12 2.1208914e-12 1.3544591e-12 5.6170433e-12 6.2365148e-12 3.979341e-12
3.1385615e-12 4.1313073e-12 1.7145236e-12 1.4719071e-11 2.3725825e-11 1.7743864e-11 1.0113873e-11 5.526717e-12
1.1734601e-12 2.3181806e-12 6.4565055e-12 3.969173e-12 1.5572384e-11 4.6036546e-11 8.7401397e-13 2.8189354e-12
1.5203745e-11 1.043576e-11 1.4635283e-12 7.362811e-10 2.3313324e-12 2.5216743e-12 7.408406e-12 1.339644e-10
2.7881603e-12 2.0068216e-12 1.1727173e-11 8.776506e-12 8.598676e-13 1.3105675e-10 4.14561e-11 1.9122124e-12
7.142291e-11 8.0539216e-13 2.326905e-10 7.163749e-12 1.1868659e-12 3.4467904e-12 4.8382947e-12 8.5930436e-11
3.6408385e-12 1.1278502e-12 1.2425985e-12 1.4273033e-12 1.2640508e-12 7.7626005e-12 1.9199384e-12 4.226824e-12
2.2968386e-11 1.0829686e-10 1.0569207e-12 3.970924e-12 1.6977465e-12 1.2910068e-12 1.2207813e-12 8.8357715e-12

exp_avg f4 [64, 64]
00000000: 72a7 8b36 655b c7b6 f6f7 ceb7 8b0e 35b6
00000010: 8f06 6036 965d 7db7 1d50 c5b7 056b e936
00000020: 8ae9 83b7 991a 9437 e467 0cb8 50fd ddb7
00000030: 1f3d cdb7 916f 0bb8 ea94 c636 3721 4737
00000040: 03e6 e7b6 cf0d c0b6 3c7f 25b7 a73a 2f38
00000050: 2cec ac36 d398 b1b7 eff6 21b6 7a4e b7b7
00000060: b835 3fb7 a039 cd37 e0bd c7b6 544f 40b7
00000070: 6084 8cb6 4b08 8635 82cb b437 4f7c 1bb7
00000080: fa48 da36 1234 95b7 c75f c1b6 9723 afb5
00000090: ad0e b634 f3b4 85b7 5737 fa37 efa5 1137
000000a0: e1ab a937 c42d 32b6 3f27 37b7 63bc 89b7
000000b0: f1b9 7cb7 7465 1b37 325d 8636 da7c 06b7
000000c0: 98fc b9b7 03d8 d8b3 8113 1738 bba7 b336
000000d0: 20d6 6a36 f036 3d37 364b acb6 692b 3e38
000000e0: aa56 10b7 e6fd 2cb7 3772 9b37 f2bb a4b7
000000f0: 880b e837 d7c2 93b7 23d6 aa37 6d59 d634
00000100: 336d 7eb6 94e0 a3b7 4b75 59b7 5dd6 ac36
00000110: 70a8 98b6 99ac 76b7 47ed eab7 25ce 6936
00000120: f8af b636 2f3e 3c37 d178 87b7 0902 c5b6
00000130: 9182 dbb7 cc91 b7b7 5602 fab5 f79c 5f37
00000140: 2bf1 37b6 65a9 24b7 3622 97b6 1199 0d36
00000150: a853 ca36 1aff dfb7 743a 84b6 166e bcb7
00000160: 3cfa cab7 177f ae35 c165 c6b6 8f41 0fb6
00000170: 5ea7 c2b6 8e64 8234 1c04 3837 59bd dcb6
00000180: bee2 7636 f7d5 19b7 8a40 ccb6 a2eb 6e36
00000190: da5e d2b6 4aa0 4ab7 47cf 4737 0773 b136
000001a0: 93ab 4ab7 a0c2 94b6 f7f2 abb5 8976 9936
000001b0: c07d 1fb7 ed67 6e37 6e92 6837 398e 8cb7
000001c0: 07f9 09b6 4cc2 9a34 49d9 b137 96e2 b236
000001d0: ef27 8736 6448 9f36 d32c b6b6 da37 1036
000001e0: cdf7 8db4 1e1f c335 2fe2 1237 f318 2bb7
000001f0: f99d ae37 fd69 b4b7 1be6 3436 ba8c 75b6
00000200: 1062 6d36 806d 8837 450e fd36 b05d 98b6
00000210: b139 8a36 6f5e 3d37 b39b a837 0eba 07b6
00000220: 8d69 88b6 4ad7 c6b6 4bac a236 fc02 9a35
00000230: 4c2c a337 cbc4 2f37 d06d 8736 8f57 1bb7
00000240: 0ed1 e634 e5b3 0137 5656 6c36 be9d 7736
00000250: 1736 73b6 8cdd 9f37 97b3 e635 4a91 9337
00000260: 8e55 8b37 7a6e a435 e58b 7836 1efb ff35
00000270: 127a 8136 2f27 cb34 6347 bcb6 1665 7736
00000280: 0ed5 eeb6 0d7f dd36 9648 e536 8b70 45b6
00000290: 4745 5335 6012 1a37 4edd 34b7 49bf 1db6
000002a0: 2725 0cb3 9ad5 6936 2f2a 8735 3e31 bfb6
000002b0: 9fc1 9d36 4170 2ab7 575c 4eb7 65d0 2137
000002c0: 9aa5 6cb6 273a 9335 44b0 2eb7 576f 73b6
000002d0: 18c5 37b6 6799 aeb5 49a2 4d36 5963 e336
000002e0: a0a0 4435 0ac6 be36 ff3a beb6 18a0 c236
000002f0: 152a 52b7 249d 8137 0bca 8934 33be 9036
00000300: 5508 2134 63d9 ec34 1714 f532 85d3 80b3
00000310: f3a1 a633 51ff 2134 e720 fa34 be92 1f33
00000320: f2ae a0b4 b9e4 44b4 446d 2933 5e40 90b4
00000330: e089 1235 4ec3 93b4 496e 6334 ec20 92b4
00000340: df86 5832 4025 4734 871c 06b3 4766 0235
00000350: 6b35 fbb3 c06b e534 2638 7134 8e92 b633
00000360: dce0 3b34 8622 b334 29f7 1534 d222 e3b3
00000370: 2557 8c34 5aed 1833 103c ea34 17e7 1434
00000380: 8310 2a34 84e6 a032 98a1 89b3 a058 97b3
00000390: e883 9b34 0e14 4434 8762 e133 3d36 29b4
000003a0: e431 3d35 1274 e933 9ba9 11b4 30a4 e8b4
000003b0: 814a c833 9a22 d8b4 2896 8eb4 7173 1335
000003c0: ed5e 92b4 0daf 91b4 236c 8ab3 60f4 b9b3
000003d0: 6ae4 ecb3 c47a 79b2 8c43 df33 9431 c134
000003e0: 593c c5b4 513d cbb4 b077 dc33 bcda 35b4
000003f0: 750a d9b3 9b70 dd34 0ae5 cc34 7168 b033
4.162016e-06 -5.941302e-06 -2.467258e-05 -2.6979567e-06 3.3382419e-06 -1.5101765e-05 -2.3521536e-05 6.9564e-06
-1.5725167e-05 1.765536e-05 -3.3475357e-05 -2.646321e-05 -2.4466366e-05 -3.3244087e-05 5.9181957e-06 1.1869058e-05
-6.9111134e-06 -5.7236534e-06 -9.86439e-06 4.1777876e-05 5.1534935e-06 -2.1171209e-05 -2.4134604e-06 -2.1851843e-05
-1.13969945e-05 2.4464738e-05 -5.9527665e-06 -1.1462562e-05 -4.1877356e-06 9.986192e-07 2.1552438e-05 -9.267663e-06
6.505402e-06 -1.7786431e-05 -5.762998e-06 -1.3048874e-06 3.391082e-07 -1.5939097e-05 2.9828092e-05 8.681308e-06
2.0226407e-05 -2.6550706e-06 -1.0916788e-05 -1.6419397e-05 -1.5063663e-05 9.262341e-06 4.0043606e-06 -8.016092e-06
-2.2171342e-05 -1.0097576e-07 3.601937e-05 5.354142e-06 3.4993354e-06 1.1278069e-05 -5.134755e-06 4.533996e-05
-8.603247e-06 -1.0311114e-05 1.8530625e-05 -1.9637842e-05 2.7661925e-05 -1.7614495e-05 2.0365294e-05 3.9925672e-07
-3.7912512e-06 -1.9535692e-05 -1.2961517e-05 5.1509546e-06 -4.5495617e-06 -1.4702929e-05 -2.8005465e-05 3.4839697e-06
5.444508e-06 1.12201515e-05 -1.6149514e-05 -5.8712944e-06 -2.6167634e-05 -2.1883192e-05 -1.8627131e-06 1.3328382e-05
-2.7409503e-06 -9.814602e-06 -4.5041334e-06 2.1099734e-06 6.029808e-06 -2.6702462e-05 -3.9407114e-06 -2.246261e-05
-2.4196801e-05 1.3000998e-06 -5.9127055e-06 -2.134682e-06 -5.8011346e-06 2.428755e-07 1.0968211e-05 -6.578554e-06
3.6788838e-06 -9.169328e-06 -6.087187e-06 3.560192e-06 -6.26953e-06 -1.2077458e-05 1.1909585e-05 5.288402e-06
-1.2080086e-05 -4.433401e-06 -1.2811205e-06 4.5735546e-06 -9.506417e-06 1.4210103e-05 1.3862371e-05 -1.6755528e-05
-2.0559544e-06 2.8826105e-07 2.1201226e-05 5.3311915e-06 4.0279624e-06 4.7469966e-06 -5.429241e-06 2.1490182e-06
-2.6443595e-07 1.4537688e-06 8.754941e-06 -1.0198203e-05 2.0815978e-05 -2.1507027e-05 2.695603e-06 -3.6589759e-06
3.5372832e-06 1.6263453e-05 7.5416488e-06 -4.5408597e-06 4.1194367e-06 1.1287265e-05 2.0099664e-05 -2.0224866e-06
-4.0654036e-06 -5.925923e-06 4.8480338e-06 1.1474763e-06 1.9451742e-05 1.0476632e-05 4.0360974e-06 -9.259106e-06
4.2992946e-07 7.730884e-06 3.5216995e-06 3.6897686e-06 -3.6241306e-06 1.9057443e-05 1.7188603e-06 1.7591421e-05
1.660993e-05 1.2251105e-06 3.703631e-06 1.9072065e-06 3.8587104e-06 3.7840206e-07 -5.611147e-06 3.6864708e-06
-7.1177556e-06 6.601104e-06 6.833182e-06 -2.9420796e-06 7.8704437e-07 9.183394e-06 -1.0780363e-05 -2.3506166e-06
-3.263008e-08 3.4844038e-06 1.0070561e-06 -5.697976e-06 4.701505e-06 -1.0158926e-05 -1.2300056e-05 9.644868e-06
-3.5263133e-06 1.0969278e-06 -1.0412248e-05 -3.627463e-06 -2.7383849e-06 -1.3008656e-06 3.0641843e-06 6.7766928e-06
7.324943e-07 5.685496e-06 -5.6693093e-06 5.800288e-06 -1.2526773e-05 1.5451173e-05 2.5665244e-07 4.3136765e-06
1.4997325e-07 4.4116595e-07 2.853089e-08 -5.99894e-08 7.759436e-08 1.5087177e-07 4.6590068e-07 3.7153534e-08
-2.9929612e-07 -1.8337131e-07 3.9447755e-08 -2.6868923e-07 5.4589873e-07 -2.7522987e-07 2.1181144e-07 -2.7218573e-07
1.2603521e-08 1.854687e-07 -3.122525e-08 4.8577607e-07 -1.1697815e-07 4.2732972e-07 2.2465301e-07 8.5016936e-08
1.7497536e-07 3.3366467e-07 1.3966623e-07 -1.0576845e-07 2.6140438e-07 3.5606128e-08 4.3629598e-07 1.3867644e-07
1.583849e-07 1.8731278e-08 -6.4089534e-08 -7.047606e-08 2.8966974e-07 1.8261218e-07 1.0495301e-07 -1.5759083e-07
7.0480587e-07 1.0871021e-07 -1.356588e-07 -4.333283e-07 9.326778e-08 -4.025831e-07 -2.6558814e-07 5.4929757e-07
-2.7263687e-07 -2.713572e-07 -6.445796e-08 -8.6591854e-08 -1.1031155e-07 -1.4521621e-08 1.03965334e-07 3.5985124e-07
-3.6738018e-07 -3.785631e-07 1.0266319e-07 -1.6936514e-07 -1.0106752e-07 4.124639e-07 3.816461e-07 8.2146364e-08
