saved_models/discretised/checkpoint169.pth (torch, 643117 bytes, 18 tensors)

trial_output.weight f4 [3, 128]
0.13713452 0.1148398 -0.06580355 0.038281962 -0.101826094 -0.15465014 0.03227478 0.15594769
0.07150804 0.1134028 -0.11421785 0.16584468 0.05498205 -0.09712402 -0.08895993 0.069871515
0.014440407 0.17271048 0.0010268613 0.12636498 0.10455912 0.037918285 -0.07570553 0.05426992
-0.026169613 0.08830734 0.19414726 -0.077060245 -0.101655394 0.026990812 -0.10949882 0.11024562
-0.14721866 -0.07994282 0.010919473 0.15645596 0.1368427 0.038680255 0.08005472 0.08065347
-0.007344713 0.027572239 -0.099865176 -0.14715244 -0.17911196 0.025277069 -0.077311076 -0.039784513
-0.14865173 0.08141223 -0.13727474 -0.14999291 -0.11793513 0.091081 -0.23893856 -0.0892937
-0.08090416 0.009385619 -0.0009551701 -0.08124944 0.04834268 0.0043196306 -0.0059616207 -0.07999622
-0.07377708 -0.22083797 0.15654267 -0.022554528 0.075598724 -0.08155554 -0.09561006 -0.3186715
-0.037229717 -0.014175032 -0.08117987 -0.14797416 0.060870502 -0.15859689 -0.05684639 0.10684291
0.015808443 0.04776445 0.039658055 -0.09466284 -0.06626104 -0.13478273 -0.09046962 0.10315988
0.12130118 0.1361984 0.021829868 0.14937915 -0.05346265 -0.14191027 -0.18405814 0.045373894
-0.18906218 0.14862198 -0.17364515 0.022775892 -0.010974835 -0.106208935 -0.115506105 0.05292401
0.041047662 0.012817258 0.037048057 0.098247975 0.1222997 0.18049625 0.0076701883 0.123797335
-0.08536411 0.04361151 -0.12499115 -0.08328656 -0.1044091 0.12679403 -0.026693223 -0.11699629
-0.0835828 -0.053287704 0.32007766 -0.14893524 0.090510905 0.015130043 0.02186822 -0.08437391
-0.10749383 -0.16054247 -0.011932303 -0.07984522 -0.091726705 0.13370356 -0.046197474 -0.1313187
-0.06476441 -0.15213098 0.24845873 -0.14454877 0.0006837943 0.07826319 0.033618797 -0.08940694
0.011386967 -0.0790317 -0.08990146 0.082504 -0.13844335 0.30467004 0.09640197 -0.09079826
0.030098636 -0.21557787 0.00621448 -0.018568773 0.079154655 -0.13583204 -0.00089793344 -0.12378356
-0.0057723536 0.005856785 -0.0025856367 -0.21167782 -0.09907908 8.0815886e-07 -0.10023384 -0.16646056
-0.1527434 -0.008601119 -0.05332717 -0.06307534 0.23488127 0.08766179 0.27933267 0.031567
0.032838173 -0.18839295 0.07692079 0.09771989 -0.03507828 -0.14061444 -0.014651007 -0.06661622
0.2192682 0.16352704 0.101096764 0.15315764 -0.0025373902 0.08958711 -0.11911617 0.078054145
0.19353016 0.023702431 -0.1906373 0.22844091 -0.0822508 0.111800335 0.12418046 0.2114945
-0.028827935 0.09916537 0.009662419 -0.033163372 0.035823684 0.1631652 -0.021261847 -0.1720385
-0.109400146 -0.029302614 -0.07716801 0.1048989 0.12544389 0.21835719 0.05496816 -0.20722933
0.068519056 -0.1438871 -0.06884181 -0.06435363 -0.04020676 0.12643036 0.075047374 -0.05610399
0.122107506 -0.18419254 0.029834306 -0.28654996 -0.055058002 0.16497873 -0.048029058 -0.13627154
-0.028556112 -0.02989193 -0.13527447 -0.246164 -0.31335583 -0.1648479 0.10448907 -0.09745512
-0.20170775 -0.036121458 0.019729516 0.078947105 0.05297535 0.06328429 -0.030493814 0.03462886
0.05975691 0.11850609 -0.24586731 0.23737952 -0.11034848 0.05164714 -0.07519385 0.032711152
00000000: fe6c 0c3e 2131 eb3d 03c4 86bd 8ccd 1c3d
00000010: 338a d0bd 9b5c 1ebe 8f32 043d c0b0 1f3e
00000020: cf72 923d ba3f e83d 0ceb e9bd 30d3 293e
00000030: dc34 613d f5e8 c6bd a030 b6bd cc18 8f3d
00000040: 7597 6c3c 04db 303e bf97 863a d265 013e
00000050: 1823 d63d 3450 1b3d 800b 9bbd 234a 5e3d
00000060: a861 d6bc 7bda b43d 8ace 463e c3d1 9dbd
00000070: b430 d0bd d61b dd3c eb40 e0bd 75c8 e13d
00000080: 7dc0 16be 10b9 a3bd 97e7 323c fe35 203e
00000090: 7e20 0c3e 306f 1e3d bbf3 a33d a52d a53d
000000a0: ebab f0bb 2ddf e13c 1d86 ccbd 21af 16be
000000b0: 2069 37be db11 cf3c 4555 9ebd 16f5 22bd
000000c0: 2938 18be 75bb a63d c091 0cbe be97 19be
000000d0: f987 f1bd ad88 ba3d 4fac 74be 9edf b6bd
000000e0: 15b1 a5bd 24c6 193c 6164 7aba 1b66 a6bd
000000f0: f902 463d b08b 8d3b b359 c3bb 0fd5 a3bd
00000100: 7018 97bd 5923 62be b94c 203e 46c4 b8bc
00000110: 81d3 9a3d 9706 a7bd 35cf c3bd e928 a3be
00000120: 307e 18bd 653e 68bc a241 a6bd 8a86 17be
00000130: 5953 793d 3967 22be c3d7 68bd 75d0 da3d
00000140: b580 813c a8a4 433d 7c70 223d 97de c1bd
00000150: deb3 87bd 7c04 0abe 2348 b9bd 7d45 d33d
00000160: c16c f83d 9877 0b3e 8dd4 b23c d9f6 183e
00000170: a7fb 5abd ed50 11be bd79 3cbe fad9 393d
00000180: 8499 41be 5c30 183e 09d0 31be 8294 ba3c
00000190: cbcf 33bc 1284 d9bd 778e ecbd d9c6 583d
000001a0: 9821 283d 7aff 513c b4bf 173d 3c36 c93d
000001b0: 4478 fa3d 02d4 383e 3456 fb3b 7589 fd3d
000001c0: 61d3 aebd fca1 323d 5cfb ffbd 2592 aabd
000001d0: 70d4 d5bd 4bd6 013e bfab dabc c09b efbd
000001e0: 762d abbd 3544 5abd 38e1 a33e 7b82 18be
000001f0: c85d b93d 00e4 773c fb24 b33c 3bcc acbd
00000200: ba25 dcbd 3f65 24be b57f 43bc e485 a3bd
00000210: 36db bbbd 96e9 083e 9039 3dbd 6978 06be
00000220: 34a3 84bd 39c8 1bbe f76b 7e3e 9804 14be
00000230: a940 333a 7448 a03d ddb3 093d fc1a b7bd
00000240: 6790 3a3c 5fdb a1bd 421e b8bd dbf7 a83d
00000250: 18c4 0dbe b6fd 9b3e 656e c53d 70f4 b9bd
00000260: 6a91 f63c 72c0 5cbe d6a2 cb3b 8a1d 98bc
00000270: d61b a23d 8e17 0bbe 4b63 6bba 3c82 fdbd
00000280: 0326 bdbb 46ea bf3b c973 29bb 12c2 58be
00000290: f9e9 cabd 41f0 5835 6647 cdbd a374 2abe
000002a0: c468 1cbe b5eb 0cbc 976d 5abd a52d 81bd
000002b0: b784 703e 0688 b33d b104 8f3e 664c 013d
000002c0: 5281 063d 15ea 40be a688 9d3d 5e21 c83d
000002d0: 3eae 0fbd 3bfd 0fbe c70a 70bc 166e 88bd
000002e0: d887 603e a273 273e d20b cf3d 5bd5 1c3e
000002f0: 584a 26bb 7279 b73d 2ef3 f3bd dada 9f3d
00000300: c52c 463e 9a2b c23c 6d36 43be 6aec 693e
00000310: 1c73 a8bd 93f7 e43d 5352 fe3d 0492 583e
00000320: 9028 ecbc 3717 cb3d 1f4f 1e3c 51d6 07bd
00000330: dbbb 123d c714 273e 532d aebc dc2a 30be
00000340: 2f0d e0bd 090c f0bc 430a 9ebd 3cd5 d63d
00000350: 5d74 003e 0799 5f3e 4b26 613d ed33 54be
00000360: b853 8c3d 2457 13be effc 8cbd d6cb 83bd
00000370: d8af 24bd f676 013e 70b2 993d 4ccd 65bd
00000380: 8013 fa3d f89c 3cbe 1367 f43c adb6 92be
00000390: 8084 61bd 2ff0 283e 1eba 44bd c48a 0bbe
000003a0: 82ee e9bc ecdf f4bc 6485 0abe 6a12 7cbe
000003b0: 2d70 a0be e3cd 28be 5efe d53d 8d96 c7bd
000003c0: 7a8c 4ebe 18f4 13bd cb9f a13c 05af a13d
000003d0: aefc 583d 329b 813d 2ace f9bc fed6 0d3d
000003e0: a9c3 743d 52b3 f23d a4c4 7bbe 9e13 733e
000003f0: 62fe e1bd f48b 533d 3cff 99bd 21fc 053d

trial_output.bias f4 [3]
-0.0016095096 -0.09901912 -0.10540861
00000000: 2ef6 d2ba 89ca cabd 78e0 d7bd

rnn.weight_ih_l0 f4 [384, 7]
0.08623006 0.16803585 0.1802624 0.1734493 0.16762464 0.10992945 0.12625028 0.11261711
0.17833483 0.17417441 0.08258207 0.032801762 0.27898315 0.117690645 0.114968866 0.1459004
-0.046224814 0.11699006 0.07757773 0.17515972 0.11458641 0.041814826 0.04111611 0.2613736
-0.20688173 -0.11432976 -0.0028916197 -0.043417647 -0.15860136 -0.097124964 0.2178708 -0.22520013
-0.15594868 0.15099932 -0.050823282 0.12565707 0.22945155 0.16079071 0.17864928 0.1791424
0.2232313 0.25152975 -0.039518636 0.016863655 0.22333355 -0.1266416 0.049342755 -0.09460945
-0.067873076 -0.01720277 -0.08756069 0.08906797 0.028971903 -0.19139904 0.2951179 0.061928023
-0.002392945 0.0063402634 0.12085531 0.053076904 0.106474355 0.040011972 -0.05165939 0.20025428
0.12554517 0.1895946 0.0717412 0.1930039 0.20128441 0.12579717 0.16254793 0.096887976
0.05207431 0.18878852 0.07854021 0.06744963 0.1198076 0.21039476 0.24977559 0.2553616
0.13625093 0.3025911 0.14883047 0.24595927 -0.023525761 -0.06578182 0.15756778 0.00012931797
-0.12554382 0.098201744 0.20063436 0.16126065 0.17627323 0.12782924 -0.010643557 0.080938086
0.13455252 0.027443914 -0.0070382105 0.2142196 0.104660586 0.08258662 0.20821857 0.18209846
-0.017548352 -0.1072486 -0.06599228 -0.15749112 0.0015047451 -0.13051344 -0.07146021 -0.07079898
-0.053478144 -0.18190154 0.035219133 -0.104210235 -0.17691037 0.0010349012 -0.20648174 0.034721266
-0.048894912 0.031855326 0.02086517 -0.08426727 0.02807592 -0.20637554 -0.15950269 0.026168408
0.015770433 -0.27255172 -0.1546453 -0.20586677 -0.4556107 0.13915734 0.078045405 -0.19029832
0.19928934 0.36866483 -0.11425626 -0.10693989 0.07111829 0.20186813 0.20134647 0.08687086
0.117993906 0.117854245 0.24806176 0.47989464 0.13314351 0.09412036 0.3733528 0.41825894
0.25559148 -0.05503722 -0.01209242 0.13472424 0.1158509 -0.030717717 -0.02629709 0.15492159
0.14950228 0.10512368 0.16911492 0.07766685 0.13757528 0.022072027 0.08201472 0.16115034
0.063741855 -0.03682415 -0.107490204 0.25242004 0.05983716 -0.022640435 0.042952046 -0.05751188
-0.15898906 -0.076985575 0.035691503 0.02736716 -0.12977447 -0.022791395 0.07462277 0.05314382
0.12877813 -0.02302146 -0.11280094 0.09803312 0.23359248 0.072982095 0.23220094 -0.029306887
0.21298254 0.2279438 -0.057843152 0.026073795 0.07232169 0.1754731 0.18715592 0.16289365
0.075384274 0.10913959 0.101701215 -0.5498554 -0.094811805 0.0020418346 -0.7396828 -0.6043587
-0.10457817 0.017696526 -0.05563747 -0.09385384 0.03627569 0.022792166 -0.02408917 0.012733166
0.16274755 0.0047750357 0.08173455 0.0540591 0.016358772 -0.014294569 0.117522664 -0.1756289
0.1618983 0.07307183 -0.028275054 0.30440068 0.12530644 0.16394404 0.114639364 0.1398929
0.20349196 0.07957946 0.12282434 0.062270205 0.12007172 0.15409417 -0.07219029 -0.025160085
-0.26648858 0.013449647 -0.26895645 0.030576704 -0.3224419 -0.2619542 -0.18068759 -0.20996423
-0.13658038 -0.1468764 -0.20307907 -0.163949 -0.0962352 0.05786129 -0.19244882 0.10362002
00000000: 6399 b03d 9711 2c3e b596 383e b19c 313e
00000010: cba5 2b3e b122 e13d c147 013e cda3 e63d
00000020: 689d 363e c75a 323e ca20 a93d 245b 063d
00000030: e1d6 8e3e cb07 f13d cc74 eb3d ea66 153e
00000040: 3b56 3dbd 7c98 ef3d 13e1 9e3d 125d 333e
00000050: 48ac ea3d 0646 2b3d 5e69 283d c3d2 853e
00000060: ced8 53be b925 eabd 5481 3dbb b4d6 31bd
00000070: 6568 22be 74e9 c6bd 8619 5f3e dd9a 66be
00000080: 03b1 1fbe 919f 1a3e 132c 50bd 3fac 003e
00000090: 59f5 6a3e 52a6 243e d6ef 363e 1b71 373e
000000a0: bf96 643e 82c8 803e 4bde 21bd a625 8a3c
000000b0: 8db1 643e 56ae 01be a11b 4a3d 99c2 c1bd
000000c0: 0a01 8bbd d3ec 8cbc 0553 b3bd 4569 b63d
000000d0: 7c56 ed3c 1cfe 43be b219 973e 3da8 7d3d
000000e0: f5d2 1cbb fcc1 cf3b fd82 f73d 2b67 593d
000000f0: 3a0f da3d 98e3 233d cc98 53bd 750f 4d3e
00000100: ea8e 003e 1625 423e 0ded 923d d0a2 453e
00000110: 801d 4e3e f9d0 003e f772 263e 346d c63d
00000120: df4b 553d c751 413e b1d9 a03d 0823 8a3d
00000130: b05d f53d b971 573e 2cc5 7f3e c1be 823e
00000140: 5d85 0b3e 38ed 9a3e 0467 183e bfdc 7b3e
00000150: 19b9 c0bc 9eb8 86bd 7359 213e 8799 0739
00000160: 8f8e 00be ff1d c93d 1873 4d3e 8321 253e
00000170: f880 343e abe5 023e 5062 2ebc dec2 a53d
00000180: 23c8 093e 0fd2 e03c caa0 e6bb 625c 5b3e
00000190: 4a58 d63d 2c23 a93d 4037 553e 0578 3a3e
000001a0: 90c1 8fbc 27a5 dbbd f626 87bd 5a45 21be
000001b0: de3a c53a 51a5 05be bb59 92bd 0eff 90bd
000001c0: e60b 5bbd 6644 3abe f041 103d 2d6c d5bd
000001d0: fe27 35be 86a5 873a f36f 53be e337 0e3d
000001e0: 0846 48bd bb7a 023d 6fed aa3c 5294 acbd
000001f0: 79ff e53c 1c54 53be ac54 23be 215f d63c
00000200: ff30 813c e68b 8bbe 565b 1ebe bdce 52be
00000210: ce45 e9be 437f 0e3e 45d6 9f3d 90dd 42be
00000220: 8112 4c3e a3c1 bc3e 30ff e9bd 4d03 dbbd
00000230: 77a6 913d 85b6 4e3e c52d 4e3e 59e9 b13d
00000240: caa6 f13d 915d f13d e703 7e3e c0b4 f53e
00000250: c656 083e 2dc2 c03d 1928 bf3e 0926 d63e
00000260: e3dc 823e b56e 61bd 491f 46bc 27f5 093e
00000270: 3d43 ed3d b9a3 fbbc ff6c d7bc c4a3 1e3e
00000280: 2017 193e 154b d73d 762c 2d3e cc0f 9f3d
00000290: 89e0 0c3e 65d0 b43c 55f7 a73d 9804 253e
000002a0: 178b 823d ebd4 16bd d323 dcbd 333d 813e
000002b0: cf17 753d 6f78 b9bc 7cee 2f3d 9491 6bbd
000002c0: 07ce 22be 9daa 9dbd 4131 123d 1831 e03c
000002d0: 99e3 04be 05b5 babc d3d3 983d 56ad 593d
000002e0: 6ade 033e 8097 bcbc 2e04 e7bd 97c5 c83d
000002f0: de32 6f3e a377 953d 15c6 6d3e ff14 f0bc
00000300: 1818 5a3e 196a 693e f1ec 6cbd b698 d53c
00000310: 651d 943d 38af 333e cda5 3f3e 98cd 263e
00000320: 1263 9a3d 9484 df3d ba48 d03d 53c3 0cbf
00000330: b12c c2bd 4dd0 053b da5b 3dbf 40b7 1abf
00000340: 142d d6bd 4ef8 903c 1ee4 63bd 7136 c0bd
00000350: d195 143d a3b6 ba3c a756 c5bc c59e 503c
00000360: 4ba7 263e e777 9c3b 7264 a73d 136d 5d3d
00000370: d502 863c c533 6abc b9af f03d 10d8 33be
00000380: abc8 253e afa6 953d 16a1 e7bc 68da 9b3e
00000390: 5550 003e f2e0 273e 0bc8 ea3d 1640 0f3e
000003a0: 3260 503e 8efa a23d 548b fb3d 0b0f 7f3d
000003b0: 29e8 f53d ddca 1d3e 81d8 93bd 861c cebc
000003c0: 3171 88be e95b 5c3c a9b4 89be ff7b fa3c
000003d0: 1b17 a5be dc1e 86be 2b06 39be dd00 57be
000003e0: badb 0bbe c466 16be f6f3 4fbe 3fe2 27be
000003f0: f616 c5bd f6ff 6c3d 4e11 45be bc36 d43d

rnn.weight_hh_l0 f4 [384, 128]
0.010701553 -0.033285048 0.07159522 0.063668385 0.07310329 -0.048212368 0.081307285 -0.0020286427
0.088046156 0.001062048 -0.030604754 0.055268634 -0.070082694 -0.0322354 0.011190553 -0.18528257
-0.009942423 -0.071134344 -0.06724274 -0.044363216 -0.07944417 0.016187968 -0.009681472 -0.06124977
0.008782021 -0.038928226 -0.13665324 -0.013062977 0.015860341 0.037716094 0.15897208 0.10593116
0.09712859 -0.071655974 -0.025060115 0.054591324 -0.065250516 0.07002336 -0.045919392 -0.09448785
-0.029846651 -0.048573084 0.108108826 0.012050287 0.16777341 -0.15037043 -0.12962238 0.030177763
0.03125574 0.00871763 0.06403469 -0.034383766 0.14413916 0.090932846 -0.08851811 0.10083849
-0.07584163 -0.0057260324 -0.15331519 0.03410765 -0.0054921233 -0.03350632 -0.05595034 -0.10454983
-0.06226689 0.020407813 0.20117825 -0.072505556 2.2198376e-05 0.018558512 0.034099128 -0.082529955
-0.19210431 -0.034067046 0.022972627 0.091749005 0.101482235 -0.009307864 0.16041403 0.096830964
0.020729192 -0.02788818 -0.010068737 0.043525185 -0.0014401922 -0.04141031 0.061396305 0.10276601
-0.11138289 -0.0803818 -0.07276049 0.038945366 -0.015911682 -0.0019483188 0.07129094 -0.063429005
-0.06335209 -0.049291372 0.16578801 -0.025613818 0.012992744 -0.12320628 -0.0141812805 0.10384714
0.021135569 -0.04869463 0.008032307 -0.15151007 0.16033347 0.015342599 -0.07748029 0.046903215
-0.09908781 0.13917789 0.058923014 -0.0013749516 -0.10160084 -0.033449683 -0.21979946 0.001252363
-0.01959916 -0.083155245 0.10844738 0.12547919 0.076125965 -0.1226003 -0.023317879 -0.023417298
-0.022773158 -0.0018160753 -0.060856953 0.05175559 0.051503506 0.06115413 -0.01913709 0.03430196
0.02878576 0.06741665 -0.028332602 -0.059183728 0.029156921 0.10184046 0.05560837 -0.042302206
0.11543014 -0.005970848 -0.14366657 0.057785925 -0.07305074 -0.077397585 0.030629504 -0.003936171
-0.10101898 0.03817277 0.006762052 0.09840938 -0.016511483 0.068734586 0.10864963 -0.080077715
0.11873278 -0.0016890072 -0.022317989 -0.095895216 -0.1043932 0.0501415 -0.09821332 0.04386387
0.02957644 -0.043307196 0.068962984 -0.05492609 0.00088134984 -0.0071148714 -0.12914439 0.030457763
-0.0606872 -0.056368627 -0.046970747 0.0040100254 0.1344925 0.052087322 0.020636357 -0.024206147
-0.056129888 -0.044155065 -0.06230557 0.05481566 -0.023621822 -0.06679154 -0.023325535 0.09871819
0.0018181279 0.03459813 0.17389998 0.039557546 -0.09931293 0.035613727 -0.036608957 0.056191813
0.063525334 -0.12853076 -0.0018834646 0.011784958 0.043773524 0.04359497 0.06486325 0.003909093
-0.019661134 -0.15033677 0.015865535 0.07234073 0.062279668 -0.07254777 0.07730909 0.1196697
0.045344777 -0.057389364 0.09685981 -0.07584828 -0.036857706 -0.03886943 0.028183924 -0.00026122836
0.0608183 -0.10998121 0.08784134 0.040359087 0.08852284 0.024263062 0.018133005 0.034237217
-0.10483216 0.025593184 0.0151411975 0.09959798 0.03510455 -0.078300536 -0.04449399 -0.09130052
0.040514607 -0.038880702 0.07508133 -0.05897636 0.054355018 -0.07249544 0.008183301 0.08320137
-0.0132917855 0.047093183 0.09099995 -0.0077634137 -0.06675801 0.04506686 0.05802933 -0.022792563
00000000: 9155 2f3c e755 08bd 84a0 923d 9264 823d
00000010: 2db7 953d 557a 45bd 6f84 a63d faf2 04bb
00000020: 8b51 b43d 6b34 8b3a d2b6 fabc 5d61 623d
00000030: 8487 8fbd 4409 04bd 9558 373c b7ba 3dbe
00000040: 8be5 22bc e2ae 91bd 90b6 89bd 34b6 35bd
00000050: a0b3 a2bd a19c 843c 099f 1ebc 0ae1 7abd
00000060: 77e2 0f3c 3473 1fbd d4ee 0bbe 1906 56bc
00000070: 8ced 813c 317c 1a3d 94c9 223e 70f2 d83d
00000080: 5beb c63d 5ec0 92bd df4a cdbc 279b 5f3d
00000090: 10a2 85bd 6868 8f3d f915 3cbd d982 c1bd
000000a0: f780 f4bc 92f4 46bd 2968 dd3d 916e 453c
000000b0: cbcc 2b3e b5fa 19be bbbb 04be 5b37 f73c
000000c0: 0506 003d 64d4 0e3c 9f24 833d fed5 0cbd
000000d0: 3799 133e 003b ba3d fc48 b5bd 6984 ce3d
000000e0: db52 9bbd 71a1 bbbb a8fe 1cbe 77b4 0b3d
000000f0: 45f7 b3bb ec3d 09bd 2f2c 65bd 391e d6bd
00000100: 910b 7fbd 492e a73c ac01 4e3e cb7d 94bd
00000110: a636 ba37 0508 983c 87ab 0b3d 7705 a9bd
00000120: feb6 44be e389 0bbd 1731 bc3c e7e6 bb3d
00000130: ebd5 cf3d 0380 18bc 9343 243e 504f c63d
00000140: 44d0 a93c c175 e4bc 58f7 24bc 7747 323d
00000150: d5c4 bcba db9d 29bd b17a 7b3d fc76 d23d
00000160: b61c e4bd 379f a4bd 7403 95bd 2d85 1f3d
00000170: 3759 82bc bb5e ffba fc00 923d 11e7 81bd
00000180: bebe 81bd c0e5 49bd 55c4 293e 12d4 d1bc
00000190: 85df 543c 9353 fcbd 9a58 68bc cfad d43d
000001a0: 8024 ad3c 0574 47bd f099 033c 7525 1bbe
000001b0: 752e 243e 865f 7b3c fcad 9ebd 961d 403d
000001c0: 8dee cabd a684 0e3e 4259 713d b837 b4ba
000001d0: 1a14 d0bd 8902 09bd 1c13 61be 5426 a43a
000001e0: 6b8e a0bc 4c4d aabd a919 de3d 9e7d 003e
000001f0: eee7 9b3d de15 fbbd 2305 bfbc a2d5 bfbc
00000200: c68e babc 6009 eeba 2445 79bd abfd 533d
00000210: 57f5 523d c17c 7a3d 63c5 9cbc 3680 0c3d
00000220: 1dd0 eb3c be11 8a3d c619 e8bc a36a 72bd
00000230: 7fda ee3c bb91 d03d 9ac5 633d 1445 2dbd
00000240: a366 ec3d 1aa7 c3bb 541d 13be efb0 6c3d
00000250: a09b 95bd a082 9ebd baea fa3c fffa 80bb
00000260: 0ae3 cebd 0d5b 1c3d 3494 dd3b db8a c93d
00000270: 1743 87bc b8c4 8c3d b283 de3d c9ff a3bd
00000280: 2c2a f33d ad61 ddba 37d4 b6bc b664 c4bd
00000290: 1acc d5bd 2c61 4d3d 1124 c9bd 9aaa 333d
000002a0: 4a4a f23c e362 31bd 773c 8d3d 2efa 60bd
000002b0: 630a 673a de23 e9bb 6d3e 04be 8f82 f93c
000002c0: 2493 78bd cae2 66bd 6664 40bd 8866 833b
000002d0: 67b8 093e 8459 553d 940d a93c f84b c6bc
000002e0: 74e8 65bd f1db 34bd 2034 7fbd 6386 603d
000002f0: 8d82 c1bc 01ca 88bd 3115 bfbc c32c ca3d
00000300: 404e ee3a c5b6 0d3d d612 323e 1807 223d
00000310: 9464 cbbd b3df 113d 46f3 15bd 6329 663d
00000320: 9219 823d 919d 03be 96de f6ba b215 413c
00000330: de4b 333d a490 323d 06d7 843d d917 803b
00000340: 6310 a1bc e2f1 19be 70f8 813c 6027 943d
00000350: f718 7f3d ed93 94bd 3a54 9e3d 6315 f53d
00000360: 72bb 393d 1c11 6bbd 705e c63d 5856 9bbd
00000370: 1bf8 16bd 8d35 1fbd f9e1 e63c 7af5 88b9
00000380: 9c1c 793d d43d e1bd 29e6 b33d 924f 253d
00000390: 764b b53d 54c3 c63c ab8b 943c 533c 0c3d
000003a0: 3eb2 d6bd cca8 d13c c912 783c 07fa cb3d
000003b0: cac9 0f3d 085c a0bd 543f 36bd c4fb babd
000003c0: a5f2 253d 5f41 1fbd 3ec4 993d 3291 71bd
000003d0: 5ea3 5e3d 7d78 94bd 4113 063c 7b65 aa3d
000003e0: cac5 59bc c8e4 403d 2f5e ba3d 3c64 febb
000003f0: 6cb8 88bd 0798 383d 2ab0 6d3d 78b7 babc

rnn.bias_ih_l0 f4 [384]
-0.0016998706 -0.0668514 -0.06895925 -0.036007397 0.026774028 -0.07137113 0.09744753 -0.04691322
0.08124311 0.07409628 0.051686525 -0.001532371 0.099945135 0.049068924 -0.059575718 0.045516286
0.04510451 -0.045901693 -0.048336852 0.008036931 -0.050546505 -0.031781275 0.07285185 -0.016614452
0.04966264 0.018292721 -0.018918581 -0.0890948 0.086652234 0.10785572 0.027035717 0.026019873
-0.055551413 0.09271305 -0.03011036 0.003578755 0.072945885 0.088661365 -0.0014862703 0.043261167
0.07741896 -0.02172191 -0.0061493013 -0.025024723 -0.0953899 0.07186113 -0.009288833 0.062017668
-0.073462434 0.07140062 0.062112667 -0.014183142 -0.014691754 -0.0363498 -0.0328729 0.05395578
-0.10221536 -0.04652431 0.0069902465 -0.019273408 -0.06551727 0.008983259 0.060510155 0.056398697
0.04186154 0.009853719 -0.22201693 0.14843623 -0.052303057 0.0437881 0.053112686 0.033303395
0.051690765 -0.0698956 0.014760907 -0.011474385 0.024689123 0.008862137 -0.022265777 -0.08625991
-0.007679572 -0.08940896 0.050036173 0.06091244 0.052745663 0.1102984 0.00647139 -0.016316157
0.019912353 -0.065363504 0.12344087 -0.028551396 -0.04674455 -0.030304318 -0.10689445 0.13565257
-0.028786877 -0.102888346 -0.13835777 -0.10874655 -0.008001581 -0.013444007 0.03902953 0.07585031
0.046931293 -0.06712229 0.014325441 0.106339104 0.051304694 0.04821907 -0.03520111 0.08339004
-0.11508624 0.055300348 -0.052247245 -0.07816906 0.08310493 -0.097297184 -0.062805556 0.014852568
-0.039082196 -0.017692247 0.0808571 -0.07525622 -0.00280925 0.10573345 0.039826684 0.068560705
-0.22721004 -0.2209958 -0.07781582 -0.5038118 -0.18176234 -0.14774929 -0.11102949 -0.4723306
-0.04149001 -0.16860567 0.054065254 -0.09718248 -0.12750815 -0.20342055 -0.17138444 -0.055578135
0.00086500985 -0.2087923 0.017841514 0.0058222455 -0.15736562 0.12360519 -0.01215373 0.015109802
-0.108699456 -0.023273183 0.11985287 -0.12271644 -0.046871975 0.034868293 -0.1303546 -0.23099992
-0.05711007 -0.10837405 -0.26874822 -0.3114456 0.019978752 -0.044791333 -0.095724136 -0.15355618
-0.09172927 -0.14552405 -0.22204375 -0.117884845 -0.053576812 -0.041986898 -0.052011345 0.027039945
-0.10525479 -0.01984591 -0.110501856 -0.20180929 -0.03175561 -0.33688214 -0.17877793 -0.06845607
-0.5690728 0.058262404 -0.16087107 -0.0645879 0.007122689 -0.008695074 0.07861532 -0.124218486
-0.16711046 -0.38740617 -0.036296085 0.102011606 -0.14110915 -0.19609572 -0.13075352 -0.287519
-0.30243424 -0.172707 -0.12715079 -0.2655328 -0.15458259 0.075148635 -0.082254425 -0.29360983
-0.0011398997 -0.026882093 0.004289848 -0.07337036 -0.23470245 0.074079506 -0.20972607 -0.18392473
-0.10221486 -0.402223 -0.008959719 -0.44795197 -0.0267988 -0.0776953 -0.3400018 -0.06600138
-0.30222777 -0.3016971 -0.101405464 -0.044638615 -0.05570255 -0.0982056 -0.09571734 -0.03812322
0.0025304598 -0.08727169 -0.03850106 0.027176792 0.003296825 -0.06939093 -0.04074897 -0.13575841
0.25171474 0.007366008 -0.22175021 -0.03316041 -0.18848756 -0.17647673 0.04870362 -0.27393532
-0.18008599 -0.08392042 -0.32327163 -0.061258934 -0.11063165 -0.04261476 -0.051186875 -0.28820944
00000000: 31ce deba 63e9 88bd 823a 8dbd 7e7c 13bd
00000010: 3555 db3c 072b 92bd 9292 c73d 1428 40bd
00000020: ca62 a63d cabf 973d 40b5 533d d7d9 c8ba
00000030: 09b0 cc3d 7ffc 483d ab05 74bd 496f 3a3d
00000040: 82bf 383d 6a03 3cbd ddfc 45bd 55ad 033c
00000050: da09 4fbd 152d 02bd 5a33 953d 081b 88bc
00000060: 0d6b 4b3d 9eda 953c 24fb 9abc 5677 b6bd
00000070: ba76 b13d 76e3 dc3d 027a dd3c a127 d53c
00000080: e189 63bd 57e0 bd3d 00aa f6bc 8c89 6a3b
00000090: a764 953d 1794 b53d f5ce c2ba 9f32 313d
000000a0: d58d 9e3d 26f2 b1bc 1480 c9bb a600 cdbc
000000b0: c85b c3bd ee2b 933d 3030 18bc 3d06 7e3d
000000c0: 7973 96bd 7d3a 923d da69 7e3d 6960 68bc
000000d0: afb5 70bc 87e3 14bd bca5 06bd bc00 5d3d
000000e0: 4956 d1bd 4690 3ebd 700e e53b 44e3 9dbc
000000f0: eb2d 86bd 852e 133c 7fd9 773d 5202 673d
00000100: 0277 2b3d 7e71 213c 6858 63be abff 173e
00000110: bb3b 56bd 275b 333d b08c 593d 2469 083d
00000120: b2b9 533d 6d25 8fbd bbd7 713c 0fff 3bbc
00000130: d840 ca3c 7f32 113c b866 b6bc 09a9 b0bd
00000140: eba4 fbbb 0b1c b7bd bbf2 4c3d 537f 793d
00000150: d60b 583d 21e4 e13d f40d d43b 76a9 85bc
00000160: 3b1f a33c 4ddd 85bd 91ce fc3d 9ee4 e9bc
00000170: 3777 3fbd c340 f8bc 7aeb dabd 82e8 0a3e
00000180: 75d2 ebbc 20b7 d2bd a9ad 0dbe 83b6 debd
00000190: 1019 03bc 4144 5cbc 6edd 1f3d 6857 9b3d
000001a0: 073b 403d 6977 89bd 41b5 6a3c 51c8 d93d
000001b0: df24 523d 5c81 453d 0a2f 10bd 66c8 aa3d
000001c0: 56b2 ebbd 9e82 623d 3501 56bd 1a17 a0bd
000001d0: eb32 aa3d bf43 c7bd 33a0 80bd 2f58 733c
000001e0: a714 20bd 55ef 90bc 6898 a53d ef1f 9abd
000001f0: 651b 38bb c78a d83d 4e21 233d 8e69 8c3d
00000200: c0a9 68be b94c 62be e75d 9fbd cff9 00bf
00000210: e81f 3abe 974b 17be 6e63 e3bd 51d5 f1be
00000220: 6ef1 29bd f7a6 2cbe 8773 5d3d 9c07 c7bd
00000230: 7f91 02be 7a4d 50be 677f 2fbe e6a5 63bd
00000240: d4c1 623a a6cd 55be 5e28 923c 89c8 be3b
00000250: 7424 21be b824 fd3d 7020 47bc 1a8f 773c
00000260: d29d debd 67a7 bebc 6c75 f53d c252 fbbd
00000270: d4fc 3fbd 0ed2 0e3d ad7b 05be 3e8b 6cbe
00000280: 40ec 69bd 37f3 ddbd 5e99 89be cc75 9fbe
00000290: 7baa a33c 1e77 37bd 040b c4bd d53d 1dbe
000002a0: 8edc bbbd 4204 15be 705f 63be 9c6d f1bd
000002b0: 5c73 5bbd 74fa 2bbd d909 55bd e082 dd3c
000002c0: d38f d7bd e493 a2bc cc4e e2bd 18a7 4ebe
000002d0: 2c12 02bd d17b acbe 9011 37be b232 8cbd
000002e0: c1ae 11bf 8fa4 6e3d 63bb 24be a946 84bd
000002f0: 7265 e93b c975 0ebc 1201 a13d 4366 febd
00000300: 011f 2bbe 1a5a c6be 34ab 14bd 76eb d03d
00000310: eb7e 10be 51cd 48be 40e4 05be b135 93be
00000320: a9d8 9abe 1bda 30be d133 02be eaf3 87be
00000330: e64a 1ebe 87e7 993d 0275 a8bd 0754 96be
00000340: b068 95ba d637 dcbc da91 8c3b 3343 96bd
00000350: d755 70be ffb6 973d 6ec2 56be c456 3cbe
00000360: 0656 d1bd 2cf0 cdbe c9cb 12bc f659 e5be
00000370: 2889 dbbc b71e 9fbd b714 aebe bb2b 87bd
00000380: 99bd 9abe 0b78 9abe abad cfbd fbd6 36bd
00000390: 5b28 64bd 0520 c9bd 7407 c4bd 1827 1cbd
000003a0: 12d6 253b 80bb b2bd 4ab3 1dbd dda1 de3c
000003b0: 8c0f 583b d51c 8ebd 64e8 26bd 4104 0bbe
000003c0: c1e0 803e 8e5e f13b 7d12 63be 36d3 07bd
000003d0: e202 41be 51b6 34be 727d 473d 4041 8cbe
000003e0: 7668 38be 78de abbd dc83 a5be a6ea 7abd
000003f0: d992 e2bd d18c 2ebd 54a9 51bd 3090 93be

rnn.bias_hh_l0 f4 [384]
0.06717571 0.011767796 -0.056896538 -0.08486486 0.04745154 0.017882945 0.08799927 0.014127851
0.066155426 0.059392255 -0.017386913 0.05468786 0.09073587 0.059807204 0.011930895 0.044583865
0.021493535 0.050989654 -0.09307039 -0.03188522 -0.038714897 -0.08383509 -0.010888396 -0.034712754
-0.039879598 0.042688057 -0.012736447 -0.0985674 0.08022292 0.12828605 0.029025665 0.013425062
-0.016485121 0.076911226 -0.026788708 -0.023813969 -0.039356884 -0.028082173 0.06813793 0.019185506
-0.07918249 -0.052551396 0.025685027 0.06869147 0.01000108 -0.007016401 -0.087723985 -0.016328212
0.015498547 0.051440075 -0.03217216 -0.08317583 0.05508892 -0.073206455 -0.038615298 -0.010042402
-0.08144864 0.06765011 0.03491852 0.037147745 0.066096805 0.039156582 -0.05962598 -0.019733606
-0.070293255 0.040917505 -0.17462504 0.039908674 -0.120630294 0.042383168 0.02799756 -0.040374566
0.014266892 -0.13490856 -0.04714036 0.08370124 -0.062034905 0.042173453 -0.055247217 0.062688686
-0.09421985 -0.02425726 -0.078173764 -0.08338546 0.030499697 0.015868822 0.058996513 0.04879688
0.03047807 -0.0092396485 0.027367683 -0.007937462 0.06907071 0.08447914 -0.020764561 0.103594005
-0.123025276 -0.028393198 0.01780266 -0.12720253 0.008010035 0.0749269 -0.044935606 0.10061733
0.0021484997 -0.06873803 -0.007696759 -0.023355667 -0.019330157 -0.057761475 -0.0047014668 0.07658678
-0.090208836 -0.025149599 -0.090214625 0.029362906 -0.06354965 -0.03739655 0.07751396 -0.07562638
-0.04451334 -0.06372731 0.037511505 -0.06805378 0.054544806 0.08945487 -0.070197724 -0.013934423
-0.25020936 -0.2923123 -0.09298735 -0.49906835 -0.26630938 -0.19181275 0.0055619692 -0.49900788
-0.010043052 -0.17221978 -0.09595705 -0.079981826 -0.16728067 -0.1197842 -0.14567016 -0.14092311
0.06416447 -0.33062488 0.04646728 -0.012827873 -0.22517842 0.27035734 -0.076795556 -0.09599327
-0.07882556 0.007658437 0.055765063 -0.19016527 -0.192293 0.050012946 -0.015588727 -0.23021385
0.01011946 -0.019175326 -0.289334 -0.37540653 0.009428369 0.05415943 -0.20058075 -0.24377233
-0.061568286 -0.14299949 -0.23280196 -0.041469738 -0.0730339 0.020233398 -0.021104358 -0.0501125
-0.032534014 -0.092692465 -0.12457618 -0.21857509 -0.078729406 -0.43332964 -0.18832351 -0.11812479
-0.6181385 0.09141781 -0.05632415 -0.040693182 0.008880953 -0.031965982 -0.0068891384 -0.086826935
-0.16875678 -0.46096474 -0.12055225 -0.04672362 -0.15791139 -0.15410814 -0.12691888 -0.36833438
-0.24512519 -0.020677008 -0.02058999 -0.21512286 -0.07113682 0.117362104 -0.027556939 -0.23228705
-0.027103385 0.038671177 -0.093862176 -0.10744791 -0.24738494 0.022692896 -0.18574597 -0.1575208
0.0074292975 -0.29958975 -0.108966105 -0.42424518 -0.03727045 -0.022560926 -0.24779429 0.047393784
-0.28751957 -0.42912382 -0.09506506 -0.06260104 -0.088989496 -0.028617928 -0.23189136 -0.0553744
0.051338244 -0.02454528 -0.1580965 -0.06323066 -0.02452528 0.040420417 -0.0796432 -0.088530906
0.2895025 -0.13536678 -0.16139705 -0.14180088 -0.22886986 -0.18750174 0.061466184 -0.24884625
-0.050637074 -0.074910015 -0.4954617 -0.0014828114 -0.20588395 -0.14244461 -0.056316853 -0.29184678
00000000: 6b93 893d b7cd 403c 580c 69bd a1cd adbd
00000010: 8c5c 423d 417f 923c f638 b43d 8178 673c
00000020: 7f7c 873d 4b45 733d 006f 8ebc 6100 603d
00000030: bad3 b93d 66f8 743d cd79 433c 929d 363d
00000040: 3613 b03c 87da 503d b09b bebd 149a 02bd
00000050: 8393 1ebd bbb1 abbd 3e65 32bc f62e 0ebd
00000060: ca58 23bd acd9 2e3d 88ac 50bc b4dd c9bd
00000070: ea4b a43d 6b5d 033e 3bc7 ed3c cbf4 5b3c
00000080: ce0b 87bc a283 9d3d fe73 dbbc 8315 c3bc
00000090: af34 21bd 960c e6bc e68b 8b3d ec2a 9d3c
000000a0: 6e2a a2bd 2240 57bd 6869 d23c 1dae 8c3d
000000b0: 92db 233c d6e9 e5bb a2a8 b3bd bec2 85bc
000000c0: 9eed 7d3c d4b2 523d f4c6 03bd 1758 aabd
000000d0: eba4 613d 44ed 95bd 132b 1ebd e388 24bc
000000e0: 8bce a6bd 248c 8a3d b906 0f3d 3c28 183d
000000f0: c35d 873d a762 203d 5f3a 74bd 5fa8 a1bc
00000100: e9f5 8fbd 1d99 273d e8d0 32be 4777 233d
00000110: 040d f7bd f999 2d3d 245b e53c cd5f 25bd
00000120: afbf 693c 7825 0abe 4016 41bd 8e6b ab3d
00000130: 5018 7ebd 12be 2c3d e84a 62bd ed62 803d
00000140: 56f6 c0bd 29b7 c6bc 9119 a0bd ffc5 aabd
00000150: 80da f93c 55ff 813c 54a6 713d 3ddf 473d
00000160: 25ad f93c e561 17bc 3132 e03c 210c 02bc
00000170: f274 8d3d 6603 ad3d 711a aabc 1829 d43d
00000180: adf4 fbbd da98 e8bc e2d6 913c 6141 02be
00000190: 863c 033c 4673 993d 660e 38bd 7510 ce3d
000001a0: d8cd 0c3b 86c6 8cbd 1835 fcbb 6254 bfbc
000001b0: 475a 9ebc 4c97 6cbd c30e 9abb 88d9 9c3d
000001c0: 69bf b8bd 8806 cebc 72c2 b8bd 7a8a f03c
000001d0: 5226 82bd 202d 19bd a4bf 9e3d 01e2 9abd
000001e0: 9f53 36bd 7783 82bd aaa5 193d c85f 8bbd
000001f0: 606a 5f3d 1d34 b73d d3c3 8fbd 354d 64bc
00000200: 711b 80be f5a9 95be 2770 bebd e385 ffbe
00000210: b459 88be 906a 44be 2e41 b63b f67d ffbe
00000220: 9d8b 24bc 625a 30be 2185 c4bd 83cd a3bd
00000230: a04b 2bbe 6b51 f5bd 8f2a 15be 264e 10be
00000240: a968 833d aa47 a9be 7954 3e3d 002c 52bc
00000250: 2c95 66be 476c 8a3e fd46 9dbd 1f98 c4bd
00000260: 4c6f a1bd a0f3 fa3b e869 643d afba 42be
00000270: 75e8 44be 60da 4c3d dc67 7fbc 2ebd 6bbe
00000280: 17cc 253c 9315 9dbc 9623 94be 4935 c0be
00000290: 7279 1a3c 47d6 5d3d 0a65 4dbe 749f 79be
000002a0: 072f 7cbd 756e 12be a363 6ebe 2cdc 29bd
000002b0: cc92 95bd 83c0 a53c 0ce3 acbc c442 4dbd
000002c0: 6342 05bd 8cd5 bdbd cc21 ffbd 26d2 5fbe
000002d0: e23c a1bd 62dd ddbe e1d7 40be 69eb f1bd
000002e0: 533e 1ebf 4339 bb3d 27b4 66bd e5ad 26bd
000002f0: 6b81 113c c3ee 02bd 48be e1bb 52d2 b1bd
00000300: 94ce 2cbe 9203 ecbe 19e4 f6bd 4461 3fbd
00000310: 86b3 21be 86ce 1dbe 06f7 01be 5396 bcbe
00000320: 1902 7bbe d462 a9bc 57ac a8bc 2b49 5cbe
00000330: 2eb0 91bd 8b5b f03d 17bf e1bc a8dc 6dbe
00000340: eb07 debc ab65 1e3d d03a c0bd a60d dcbd
00000350: 7a52 7dbe 74e6 b93c 3134 3ebe 224d 21be
00000360: 7771 f33b d463 99be 9f29 dfbd aa36 d9be
00000370: e6a8 18bd b1d1 b8bc c9bd 7dbe fc1f 423d
00000380: c435 93be 1eb6 dbbe 78b1 c2bd f934 80bd
00000390: 2040 b6bd 2570 eabc ee74 6dbe 44d0 62bd
000003a0: 0d48 523d 2f13 c9bc 0de4 21be 147f 81bd
000003b0: 3de9 c8bc e18f 253d f91b a3bd b14f b5bd
000003c0: ac39 943e 979d 0abe 4545 25be 4034 11be
000003d0: dc5c 6abe 7500 40be f7c3 7b3d 8dd1 7ebe
000003e0: d268 4fbd 6c6a 99bd 28ad fdbe e55a c2ba
000003f0: 3ed3 52be 00dd 11be 80ac 66bd f16c 95be

exp_avg f4 [3, 128]
-0.00033511702 -0.00031052498 1.1544422e-05 7.4541334e-05 -0.00032923892 0.00015245072 0.00012677882 3.8749196e-05
-0.00034497344 -0.00024474994 0.00034856738 -8.5978805e-05 -1.3725066e-05 0.00017437359 3.795515e-05 0.0002993293
-0.00038642323 -0.00019543832 -0.00029480795 -0.0002604981 -0.00014600514 -0.00012616624 -0.00045987 -1.962855e-05
0.00016714286 0.0002855428 -0.00010789906 -0.00020030203 0.00019443363 -0.00041343473 -0.00065699767 -0.00022239577
-4.3351585e-05 4.0286253e-05 -0.00021444044 -0.00014673288 0.00025331634 -0.00019773202 0.00055841485 -0.00017677565
-0.00024434982 0.00019779374 -0.00012767977 -0.00022128645 -0.00036201233 0.00012694497 0.00028041124 -3.9171766e-05
-0.0003505467 -0.00031955287 8.023983e-05 -0.00013400112 -0.0006213664 -0.00012094149 4.888099e-06 -0.0007907847
0.00043547372 0.00031887792 0.0005105678 0.00017689372 -8.919297e-05 -6.372916e-05 -7.1249015e-05 2.392237e-05
-0.0002370101 7.3748764e-05 -0.000293218 0.00025751346 0.00010056732 -2.032079e-05 0.0001156617 0.0001014674
-1.17923155e-05 -9.3502865e-07 0.00025367583 0.0003742476 8.315957e-05 0.00041873447 -9.212881e-05 -0.00019118705
-9.765502e-05 0.000628991 -0.0001599725 0.000105796724 0.00019731838 0.00045554148 4.9776732e-05 -0.00012284637
0.0003104303 -1.4783215e-05 -0.00057914265 3.5549667e-05 5.566159e-05 -1.0575931e-05 2.4854482e-05 -0.00051361514
6.222849e-05 -0.00025082365 -0.0008707067 0.00019838412 -7.3855444e-05 0.0004464052 0.00010112358 -0.00021205601
0.00084298314 -1.21228295e-05 -0.00017501175 -0.0002705717 -0.0003677975 -0.00044049328 3.9792612e-05 -0.0003581373
-0.00021030472 -7.847571e-05 0.00017337788 6.0757997e-05 0.0002787168 7.7489065e-05 7.7446835e-05 0.00014729325
-4.634841e-05 0.00027661826 -0.0003775722 0.00023842033 -0.00011433603 0.00018500368 -9.3476985e-05 0.00032158924
-3.3468325e-05 1.1408765e-05 0.00010856273 -6.415315e-05 -2.212566e-05 8.87051e-06 -5.4873963e-05 -6.8535555e-05
1.5794674e-05 -2.6809825e-05 -0.000120541205 -7.744773e-05 -8.91783e-05 6.568118e-05 8.506404e-05 9.220461e-06
6.8160676e-05 -7.370047e-06 4.4729957e-05 -0.00011937536 -5.4223874e-05 1.3639493e-06 0.00015909194 -5.1846673e-05
-7.413469e-05 -5.0898266e-06 2.5659283e-05 0.00011827503 -7.897287e-06 0.000110615096 6.0533148e-05 2.4189349e-05
7.76073e-05 8.9015615e-05 5.9754457e-05 1.7287617e-05 4.5873294e-05 -2.4047456e-06 -0.00016587756 0.00022681082
-2.2351434e-05 -0.00013343671 0.00019439512 8.6156084e-05 -5.7658026e-06 -1.1408995e-06 -5.4480497e-05 0.00012108841
6.83262e-05 8.557247e-05 4.091165e-05 0.00014635069 6.6136556e-05 -4.192943e-05 0.00019690776 0.00010927942
1.6243894e-05 -0.00011271086 -0.000108219676 5.014201e-05 -3.5088095e-05 3.1738087e-05 -3.9776478e-05 5.733031e-05
9.150021e-05 6.6886846e-06 -3.694067e-06 -0.000158346 -8.9189096e-05 7.260981e-05 8.575963e-05 9.319242e-06
0.00012341868 5.8563284e-05 -0.00014435206 -1.6064982e-05 -8.0909325e-05 -8.460514e-05 -1.0922244e-05 -3.971912e-05
-5.5019966e-05 -4.3580058e-05 -2.226772e-05 7.998206e-05 8.2050305e-05 -0.00015645503 8.6952525e-05 3.2882115e-05
-0.00019100313 -4.727933e-05 0.00021884267 -0.0001042269 7.753089e-05 4.240219e-05 3.714991e-05 0.00018770082
4.9536175e-05 7.871464e-05 0.000133711 -0.00013991148 8.324357e-06 -9.7425855e-06 8.191204e-05 -2.8136148e-05
-3.5460645e-05 -1.9381558e-05 -4.022063e-05 0.00016716956 -2.3543224e-05 0.000104140934 1.122401e-05 4.530364e-06
2.1806656e-05 -4.9160164e-05 4.1653122e-05 5.978898e-05 5.4834498e-05 -4.3658994e-05 6.1560754e-06 1.6994712e-05
5.1234456e-05 4.680154e-05 -2.3589988e-05 -2.90225e-05 -9.008958e-06 4.5330136e-05 -3.5768786e-05 -0.00014618508
00000000: a5b2 afb9 f5cd a2b9 eaae 4137 1353 9c38
00000010: b39d acb9 2edb 1f39 eeef 0439 a286 2238
00000020: 8ddd b4b9 c851 80b9 ecbf b639 854f b4b8
00000030: b644 66b7 0ed8 3639 0832 1f38 4cef 9c39
00000040: d998 cab9 93ee 4cb9 7490 9ab9 7793 88b9
00000050: f518 19b9 7e4b 04b9 b51a f1b9 fda7 a4b7
00000060: 1243 2f39 e8b4 9539 de47 e2b8 2b08 52b9
00000070: e1e0 4b39 45c2 d8b9 5e3a 2cba e932 69b9
00000080: 69d4 35b8 09f9 2838 6bdb 60b9 4fdc 19b9
00000090: 8bcf 8439 4956 4fb9 9662 123a da5c 39b9
000000a0: 141c 80b9 da66 4f39 c7e1 05b9 2109 68b9
000000b0: 79cc bdb9 881c 0539 2904 9339 5d4c 24b8
000000c0: 95c9 b7b9 a989 a7b9 6e46 a838 a782 0cb9
000000d0: 31e3 22ba f8a1 fdb8 7304 a436 aa4c 4fba
000000e0: 4b50 e439 122f a739 a0d7 053a 8c7c 3939
000000f0: 1c0d bbb8 55a6 85b8 866b 95b8 e6ac c837
00000100: ea85 78b9 91a9 9a38 0ebb 99b9 df02 8739
00000110: abe7 d238 9076 aab7 678f f238 e5ca d438
00000120: 9cd7 45b7 aefe 7ab5 cbff 8439 aa36 c439
00000130: f465 ae38 9789 db39 4735 c1b8 6279 48b9
00000140: 24cc ccb8 dfe2 243a 4abe 27b9 2fdf dd38
00000150: 40e7 4e39 bed5 ee39 5cc7 5038 52d0 00b9
00000160: 40c1 a239 6d05 78b7 9bd1 17ba 2a1b 1538
00000170: 2d76 6938 476f 31b7 987e d037 21a4 06ba
00000180: ab80 8238 fb80 83b9 2340 64ba 5505 5039
00000190: d7e2 9ab8 7e0b ea39 4f12 d438 5a5b 5eb9
000001a0: a4fb 5c3a 2863 4bb7 5c83 37b9 85db 8db9
000001b0: f2d4 c0b9 02f2 e6b9 fee6 2638 60c4 bbb9
000001c0: 3e85 5cb9 5393 a4b8 c5cc 3539 67d6 7e38
000001d0: bc20 9239 a081 a238 f46a a238 bb72 1a39
000001e0: 3a66 42b8 1307 9139 e2f4 c5b9 7800 7a39
000001f0: b0c7 efb8 8cfd 4139 1309 c4b8 fa9a a839
00000200: 5760 0cb8 4668 3f37 2cac e338 f689 86b8
00000210: 7e9a b9b7 8dd2 1437 7828 66b8 bfba 8fb8
00000220: ce7e 8437 a9e5 e0b7 11cb fcb8 6f6b a2b8
00000230: 3c05 bbb8 51be 8938 6964 b238 94b1 1a37
00000240: 7cf1 8e38 394c f7b6 6d9c 3b38 2959 fab8
00000250: 716e 63b8 f110 b735 ebd1 2639 f175 59b8
00000260: c278 9bb8 47c9 aab6 e43e d737 6c0a f838
00000270: 977e 04b7 07fa e738 f9e4 7d38 3bea ca37
00000280: 1ac1 a238 e5ad ba38 dca0 7a38 e004 9137
00000290: 1368 4038 3761 21b6 6bef 2db9 11d4 6d39
000002a0: 577f bbb7 25eb 0bb9 8bd6 4b39 b2ae b438
000002b0: de77 c1b6 0221 99b5 fd81 64b8 d8f0 fd38
000002c0: 594a 8f38 5f75 b338 8d98 2b38 b775 1939
000002d0: cbb2 8a38 62dd 2fb8 0679 4e39 f12c e538
000002e0: 7f43 8837 2f5f ecb8 fff3 e2b8 934f 5238
000002f0: 8e2b 13b8 831e 0538 abd5 26b8 f475 7038
00000300: cde3 bf38 5d6f e036 96e7 77b6 ae09 26b9
00000310: 080b bbb8 1846 9838 dad9 b338 d759 1c37
00000320: f369 0139 d9a1 7538 365d 17b9 49c3 86b7
00000330: ddad a9b8 0a6e b1b8 ae3e 37b7 1598 26b8
00000340: 3dc5 66b8 bbc9 36b8 91cb bab7 0bbc a738
00000350: 6c12 ac38 140e 24b9 485a b638 e7ea 0938
00000360: 0348 48b9 cb4d 46b8 2279 6539 6494 dab8
00000370: 1498 a238 01d9 3138 6ad1 1b38 8ed1 4439
00000380: 10c5 4f38 9a13 a538 c634 0c39 34b5 12b9
00000390: d7a8 0b37 1674 23b7 31c8 ab38 eb05 ecb7
000003a0: 94bb 14b8 9495 a2b7 93b2 28b8 3d4a 2f39
000003b0: b07e c5b7 3d66 da38 c24e 3c37 8803 9836
000003c0: 70ed b637 5331 4eb8 b3b4 2e38 eec5 7a38
000003d0: 18fe 6538 7d1e 37b8 4990 ce36 de8f 8e37
000003e0: 94e4 5638 c54c 4438 1de3 c5b7 5875 f3b7
000003f0: 2e25 17b7 dd20 3e38 7106 16b8 4249 19b9

exp_avg_sq f4 [3, 128]
1.0700641e-05 5.6137405e-06 6.8978243e-06 6.5304066e-06 3.3429676e-06 5.594299e-06 3.6580043e-06 2.9920984e-06
1.5953628e-05 1.2354684e-05 7.934282e-06 7.2764324e-06 5.514773e-06 1.5370504e-05 8.552115e-06 7.4614436e-06
3.4334278e-06 3.271506e-06 1.4955583e-06 6.4070637e-06 9.482544e-06 4.7049098e-06 5.134751e-06 1.1790374e-05
8.6705395e-06 7.36794e-06 7.1961967e-06 8.769501e-06 8.682361e-06 5.8116057e-06 4.338906e-06 4.188141e-06
5.6154227e-06 1.2849814e-05 3.6159174e-06 2.1747246e-06 7.3969e-06 1.5276966e-05 5.80988e-06 2.0516413e-06
1.9601655e-05 5.2317264e-06 9.684179e-06 3.9865663e-06 4.97263e-06 3.826293e-06 2.1872531e-06 1.1812763e-05
8.758335e-06 6.6510593e-06 6.1483593e-06 1.4157271e-05 5.5202286e-06 5.3845533e-06 2.06049e-06 3.5113758e-06
3.2620962e-06 4.8397333e-06 1.3950116e-06 9.903469e-06 7.245815e-06 3.3472268e-06 7.1597256e-06 4.9698024e-06
7.196009e-07 1.6829873e-06 1.0032472e-06 1.5263055e-05 6.848517e-06 5.0350186e-06 1.5499265e-05 1.1164718e-06
4.1098224e-06 9.481205e-07 6.9483567e-06 1.984356e-06 8.464873e-06 1.8343972e-05 2.3718221e-06 1.0139746e-05
1.4517495e-05 4.966344e-06 2.6996197e-06 1.3008515e-05 1.526189e-05 8.532337e-06 8.635183e-06 1.4778155e-06
1.1607336e-05 6.3628854e-06 5.5519877e-06 9.2492255e-06 6.2371173e-06 1.8055583e-05 6.2614604e-06 5.702641e-06
3.6730705e-06 1.090281e-06 4.403629e-06 1.7259244e-06 4.697745e-06 2.282161e-06 1.5409243e-05 9.113066e-06
7.2086955e-06 2.2460838e-06 1.1448161e-05 2.630438e-06 4.394606e-06 1.5607355e-05 7.3840847e-06 8.663056e-06
3.7561517e-06 5.0283993e-06 1.0755266e-05 8.657324e-06 1.4365638e-05 6.4859187e-06 1.7324361e-06 6.687818e-06
2.3932485e-06 6.133765e-06 2.6496134e-06 4.607701e-06 3.350021e-06 1.0139958e-05 1.0686165e-05 3.1047005e-06
2.7227484e-06 1.3976363e-06 1.9475935e-06 1.8317533e-06 1.1547858e-06 1.4366292e-06 9.640081e-07 8.9308367e-07
4.194947e-06 3.026799e-06 1.7692175e-06 2.3887583e-06 1.4189569e-06 4.1716976e-06 2.4010772e-06 2.5794054e-06
8.882045e-07 8.934166e-07 2.9749643e-07 2.2412253e-06 2.4883416e-06 2.1874569e-06 1.4802655e-06 3.163617e-06
2.3392038e-06 3.6074246e-06 3.9883844e-06 2.8204909e-06 2.2300044e-06 1.8521833e-06 1.7219514e-06 1.1338429e-06
2.2840304e-06 4.1115313e-06 1.048591e-06 6.464278e-07 2.954982e-06 4.322689e-06 1.5784952e-06 5.9098124e-07
5.114378e-06 1.4265419e-06 3.3544954e-06 9.1071195e-07 2.0018308e-06 1.2706698e-06 4.5895274e-07 3.1744123e-06
4.0385767e-06 2.0596242e-06 1.6137641e-06 4.241444e-06 2.6686594e-06 1.3877793e-06 4.2052437e-07 1.1804566e-06
1.5077476e-06 1.459346e-06 5.189459e-07 2.299803e-06 1.8907074e-06 9.494551e-07 1.8552398e-06 1.3300928e-06
3.3237646e-07 7.491488e-07 1.7927613e-07 4.2426814e-06 1.933726e-06 1.3550452e-06 4.0915797e-06 3.9551497e-07
8.889391e-07 4.5618395e-07 1.8947812e-06 5.1053524e-07 2.2409206e-06 5.226799e-06 9.628817e-07 2.5907075e-06
3.650804e-06 1.798622e-06 6.6850606e-07 3.2817723e-06 4.075329e-06 1.8713237e-06 2.3226198e-06 4.4668877e-07
4.7302988e-06 1.7709681e-06 1.2822667e-06 2.4934359e-06 1.6803035e-06 5.9312288e-06 1.8291211e-06 1.1724036e-06
1.077297e-06 4.6641603e-07 1.671496e-06 5.819175e-07 1.2342922e-06 4.1156525e-07 4.1333665e-06 2.2944855e-06
2.5978395e-06 4.9865884e-07 2.9296777e-06 9.3765686e-07 2.9981375e-06 4.4954086e-06 2.0572684e-06 2.1754718e-06
1.0477426e-06 1.3779277e-06 2.8779448e-06 2.271198e-06 3.7447692e-06 1.7397447e-06 5.2668554e-07 1.7243423e-06
7.1299814e-07 1.5330093e-06 1.1645079e-06 9.51408e-07 8.6124857e-07 2.614518e-06 2.8050372e-06 8.509639e-07
00000000: e786 3337 aa5d bc36 dc73 e736 c41f db36
00000010: bf57 6036 aab6 bb36 097c 7536 dccb 4836
00000020: 28d4 8537 f746 4f37 7b1d 0537 1428 f436
00000030: 8a0b b936 e8ef 8037 0e7b 0f37 505d fa36
00000040: d769 6636 0c8c 5b36 feba c835 42fc d636
00000050: 3717 1f37 dede 9d36 2d4b ac36 45cf 4537
00000060: af77 1137 1f3a f736 dc76 f136 b820 1337
00000070: 75aa 1137 5001 c336 eb96 9136 db87 8c36
00000080: 1d6c bc36 8895 5737 fda8 7236 7cf1 1136
00000090: e332 f836 0927 8037 7df2 c236 eeae 0936
000000a0: 3c6e a437 308c af36 3b79 2237 58c4 8536
000000b0: 91da a636 9b63 8036 b9c8 1236 6e2f 4637
000000c0: c3f0 1237 2a2c df36 014e ce36 0485 6d37
000000d0: 673a b936 f6ac b436 f346 0a36 faa4 6b36
000000e0: 63ea 5a36 fe64 a236 3c3c bb35 1327 2637
000000f0: 1421 f336 eba0 6036 933d f036 47c2 a636
00000100: 992a 4135 01e3 e135 50a7 8635 2909 8037
00000110: 50cc e536 7bf2 a836 6b04 8237 aed9 9535
00000120: 1be7 8936 5882 7e35 ee25 e936 fa2a 0536
00000130: 5a04 0e37 61e1 9937 982b 1f36 e11d 2a37
00000140: 2b90 7337 92a4 a636 1d2b 3536 263f 5a37
00000150: a906 8037 1c26 0f37 d4df 1037 5b59 c635
00000160: 21bd 4237 c580 d536 364b ba36 1f2d 1b37
00000170: 6e48 d136 1276 9737 8919 d236 5059 bf36
00000180: df7e 7636 c555 9235 e3c2 9336 50a6 e735
00000190: 53a1 9d36 3a27 1936 1943 8137 52e4 1837
000001a0: 39e2 f136 6dbb 1636 7a11 4037 9586 3036
000001b0: 6175 9336 8aec 8237 cec4 f736 8b57 1137
000001c0: 3212 7c36 9fb9 a836 8471 3437 ec3e 1137
000001d0: f203 7137 9ea1 d936 0d86 e835 eb67 e036
000001e0: b29b 2036 a4d0 cd36 03d0 3136 da9b 9a36
000001f0: ecd0 6036 ca1e 2a37 bb48 3337 595a 5036
00000200: 76b8 3636 6b96 bb35 67b3 0236 90da f535
00000210: 23fe 9a35 34d2 c035 1163 8135 3ebc 6f35
00000220: 52c2 8c36 0320 4b36 da75 ed35 8e4e 2036
00000230: fd72 be35 9cfa 8b36 3122 2136 d919 2d36
00000240: f36c 6e35 1fd3 6f35 99b7 9f34 f567 1636
00000250: 62fd 2636 39cc 1236 89ad c635 874e 5436
00000260: 37fb 1c36 1517 7236 f6d3 8536 aa47 3d36
00000270: 2fa7 1536 8998 f835 cd1d e735 8c2e 9835
00000280: 5847 1936 c9f5 8936 50bd 8c35 2e86 2d35
00000290: 344e 4636 9e0b 9136 afdc d335 eca3 1e35
000002a0: 2c9c ab36 9b77 bf35 cb1d 6136 a677 7435
000002b0: 3157 0636 e28b aa35 fc65 f634 fd07 5536
000002c0: 1c83 8736 1338 0a36 8398 d835 ba51 8e36
000002d0: 3817 3336 bc43 ba35 6ec4 e134 2e70 9e35
000002e0: d05d ca35 bfde c335 b14d 0b35 5156 1a36
000002f0: 36c4 fd35 0fde 7e35 8e01 f935 a485 b235
00000300: 7971 b234 1d19 4935 0c7f 4034 5b5c 8e36
00000310: 29c5 0136 00df b535 674a 8936 2a57 d434
00000320: 6e9f 6e35 72e9 f434 3050 fe35 b70b 0935
00000330: b962 1636 dd61 af36 5d3c 8135 04dc 2d36
00000340: 5600 7536 2e68 f135 6373 3335 6b3c 5c36
00000350: cfbe 8836 312a fb35 4ede 1b36 70d0 ef34
00000360: f5b8 9e36 00b2 ed35 591a ac35 e754 2736
00000370: ca86 e135 de04 c736 1f80 f535 7b5b 9d35
00000380: a597 9035 bb67 fa34 2a58 e035 1135 1c35
00000390: f5a9 a535 19f5 dc34 59b1 8a36 f6fa 1936
000003a0: 8b56 2e36 93db 0535 7b9b 4436 4ab3 7b35
000003b0: 9c33 4936 44d7 9636 9a0f 0a36 52fe 1136
000003c0: 29a0 8c35 3cf1 b835 b722 4136 e26a 1836
000003d0: a54e 7b36 2c81 e935 8e61 0d35 f36f e735
000003e0: dc64 3f35 ccc1 cd35 304c 9c35 4364 7f35
000003f0: 8d30 6735 1475 2f36 2c3e 3c36 cb6d 6435

exp_avg f4 [3]
-0.00013848516 -0.00018328168 0.000321775
00000000: 5436 11b9 4d2f 40b9 e9b3 a839

exp_avg_sq f4 [3]
0.00017389099 4.782589e-05 4.6782356e-05
00000000: 8256 3639 a998 4838 2c38 4438
