saved_models/discretised/checkpoint38.pth (torch, 643092 bytes, 18 tensors)

trial_output.weight f4 [3, 128]
0	0x3de11478	0.10990232
1	0x3d913951	0.0709101
2	0xbd674125	-0.05645861
3	0xbba660b3	-0.0050774454
4	0xbd8ce49a	-0.0687954
5	0xbdf62e3f	-0.120205395
6	0x3d0bf103	0.034165394
7	0x3dc4ef17	0.09615915
8	0x3d86732c	0.06564936
9	0x3db8f636	0.09031336
10	0xbdb554eb	-0.088540874
11	0x3df50d21	0.11965395
12	0x3d8262fc	0.06366536
13	0xbdb0f699	-0.08640785
14	0xbd919add	-0.07109616
15	0x3d8df77c	0.069319695
16	0x3ce2a76c	0.027667724
17	0x3df7955b	0.12089034
18	0xbceb6ece	-0.02873936
19	0x3ddbe1f3	0.10736456
20	0x3db84d64	0.08999136
21	0x3c2b459c	0.010453608
22	0xbd8d7b0b	-0.06908234
23	0x3d3de116	0.046357237
24	0xbca2cf4d	-0.01987424
25	0x3d233af4	0.039851144
26	0x3dbcb19b	0.09213563
27	0xbd5f13f6	-0.054462396
28	0xbdc21b6b	-0.09477886
29	0x3c8f1793	0.017467296
30	0xbdb0a326	-0.08624868
31	0x3da62c2e	0.08113895
32	0xbdd6d082	-0.104889885
33	0xbd737b7f	-0.059443947
34	0x3d2aec5f	0.041729327
35	0x3daf33c5	0.08554796
36	0x3dbd231b	0.092352115
37	0x3d42f600	0.047597885
38	0x3dac1134	0.08401719
39	0x3d1cbb07	0.0382643
40	0xbce10ac3	-0.027470952
41	0x3ca61da2	0.020277802
42	0xbdb96835	-0.09053079
43	0xbe04ef2a	-0.12981859
44	0xbdf37472	-0.118874446
45	0x3ca26179	0.01982187
46	0xbd456fdd	-0.048202384
47	0xbd20398a	-0.039117374
48	0xbde9fcf2	-0.114251986
49	0x3d91187a	0.07084747
50	0xbde9cc84	-0.114159614
51	0xbe02b8d2	-0.12765816
52	0xbda3c3a7	-0.07996302
53	0x3d87d61f	0.06632637
54	0xbe355b09	-0.17710508
55	0xbdc9b3ce	-0.09848748
56	0xbb56d071	-0.003277805
57	0x3c1e62a7	0.009667075
58	0x3d4068fb	0.046975117
59	0xbd820ba9	-0.0634988
60	0x3d2062fd	0.039156903
61	0x3ac462f3	0.0014983102
62	0xbc46e2b9	-0.012139016
63	0xbd4410c2	-0.047867544
64	0xbd34ab57	-0.044108715
65	0xbdb019af	-0.08598649
66	0x3db35620	0.087566614
67	0xbc19121f	-0.009342699
68	0x3d57fecc	0.052733228
69	0xbd8c83cf	-0.06861078
70	0xbdae5a39	-0.08513302
71	0xbe278763	-0.1636024
72	0xbc333a05	-0.010939126
73	0xbcdcec32	-0.026968095
74	0xbd8cfcf7	-0.06884187
75	0xbdd792c3	-0.105260395
76	0x3d4082ee	0.046999864
77	0xbe01378e	-0.12618849
78	0xbd0435c8	-0.032277852
79	0x3d9b2240	0.07574892
80	0x3b9f6c6b	0.0048652194
81	0x3d1e38c2	0.038628347
82	0x3d0cc06f	0.034363206
83	0xbda10ef2	-0.07864179
84	0xbd4dd564	-0.050252333
85	0xbdc8d3ee	-0.098060474
86	0xbdade281	-0.08490468
87	0x3d977c5e	0.07396768
88	0x3dd6f79b	0.10496446
89	0x3dc2870a	0.09498413
90	0xbb709678	-0.003671078
91	0x3df260ec	0.11834893
92	0xbd536ec3	-0.051619302
93	0xbdfbc7ef	-0.12293994
94	0xbe07f271	-0.13276078
95	0x3c88fc18	0.01672177
96	0xbe0dd324	-0.13850075
97	0x3d3e6c51	0.046490017
98	0xbdf44d16	-0.119287655
99	0x3d59be01	0.053159717
100	0xbc59f9f9	-0.013304227
101	0xbd9d2730	-0.0767349
102	0xbdd98a8c	-0.10622129
103	0x3d40e1f7	0.047090497
104	0x3ca2ef84	0.0198896
105	0x3d49494f	0.04914218
106	0x3ccfd1c8	0.025368586
107	0x3d3ecf37	0.046584334
108	0x3dce4aff	0.10072898
109	0x3e08711b	0.13324396
110	0x3bc92511	0.006138452
111	0x3dcfb148	0.101412356
112	0xbdabaca6	-0.083825395
113	0x3d0bd221	0.03413594
114	0xbdc509a7	-0.09620982
115	0xbd99834f	-0.07495748
116	0xbdaff4f0	-0.0859164
117	0x3ddb60f8	0.10711855
118	0xbd05e635	-0.032690246
119	0xbdc522af	-0.09625756
120	0xbd49e727	-0.04929271
121	0xbcbe92a4	-0.023263283
122	0x3e584135	0.21118625
123	0xbdd217c9	-0.10258443
124	0x3d8ee456	0.069771454
125	0x3ce94f65	0.028480241
126	0x3b431706	0.0029768362
127	0xbd214d9d	-0.03938066
128	0xbda0ae3e	-0.07845734
129	0xbde9af96	-0.114104435
130	0xbbedc322	-0.0072559277
131	0xbd2e9079	-0.04261825
132	0xbdb0d6fc	-0.08634755
133	0x3dc2ae0e	0.095058545
134	0xbccf28fc	-0.025288098
135	0xbda15e33	-0.07879295
136	0xbd4727c3	-0.048621904
137	0xbde2ac15	-0.11067978
138	0x3e2a61c6	0.1663886
139	0xbdd56b88	-0.104209006
140	0xbc8dd771	-0.017314645
141	0x3d905305	0.07047085
142	0x3cfb8538	0.030703172
143	0xbda948c1	-0.0826583
144	0x3b45b185	0.0030165624
145	0xbd1bcb7d	-0.03803586
146	0xbd9ae792	-0.075637
147	0x3d6549d7	0.055978622
148	0xbdf1800c	-0.11792001
149	0x3e75c16c	0.23999566
150	0x3db16a43	0.08662846
151	0xbdae6736	-0.0851578
152	0x3c4f0489	0.012635359
153	0xbe2c8520	-0.16847658
154	0x3d53f05f	0.051742908
155	0xbc4658d3	-0.012106138
156	0x3d6dafd6	0.05802902
157	0xbdaa49a6	-0.083148286
158	0xbc475f15	-0.012168665
159	0xbdaff4ff	-0.08591651
160	0xbcecf10a	-0.02892353
161	0xbbb58785	-0.005539837
162	0xbb49f8cf	-0.0030818467
163	0xbe04a4bb	-0.12953465
164	0xbd7df2dd	-0.06199919
165	0x3ba6aa4f	0.0050862203
166	0xbdc2e906	-0.09517102
167	0xbd8c5a4b	-0.068531595
168	0xbe0027c8	-0.12515175
169	0xbc13f147	-0.009029693
170	0xbca8d06c	-0.020607196
171	0xbd7f84df	-0.062382575
172	0x3e1a9b73	0.15098362
173	0x3da60056	0.08105533
174	0x3e1fffce	0.15624925
175	0x3d48810b	0.04895119
176	0x3c79935f	0.01523289
177	0xbe1c9c74	-0.15294057
178	0x3d694c97	0.056957807
179	0x3db77372	0.08957566
180	0xbd8ea5a9	-0.06965191
181	0xbdef2393	-0.11676707
182	0x3c952380	0.018205404
183	0xbd79e4df	-0.061009284
184	0x3dca7598	0.098857105
185	0x3ddea563	0.10871389
186	0x3d3f31d9	0.046678398
187	0x3de33ea0	0.11095929
188	0x3a737eda	0.0009288617
189	0x3dba05fd	0.090831734
190	0xbdd216ce	-0.10258256
191	0x3d45554b	0.048177045
192	0x3dc9d58e	0.098551854
193	0xbcbdad3b	-0.023153892
194	0xbe10d608	-0.14144146
195	0x3e1ed38d	0.15510388
196	0xbd77f303	-0.06053449
197	0x3dd7449a	0.105111316
198	0x3de5144c	0.11185512
199	0x3d9774d6	0.073953316
200	0xbc477ca1	-0.01217571
201	0x3db5c366	0.0887516
202	0xbc070b19	-0.008242392
203	0xbd364d9d	-0.04450761
204	0x3d363d05	0.044491787
205	0x3e004567	0.12526475
206	0xbbe4645b	-0.006969971
207	0xbe09ae21	-0.13445331
208	0xbda3f00f	-0.08004772
209	0x3c6ecc1d	0.014575032
210	0xbd91afe2	-0.07113625
211	0x3d982968	0.074297726
212	0x3de3bff8	0.111205995
213	0x3e1a1d9f	0.15050362
214	0x3d81d531	0.06339491
215	0xbe074d1b	-0.13213007
216	0x3d696488	0.05698064
217	0xbdd96e17	-0.10616701
218	0xbce9747e	-0.02849793
219	0xbd1fbdc6	-0.03899934
220	0xbd186112	-0.03720195
221	0x3de4cd01	0.11171914
222	0x3d005f9b	0.031341176
223	0x3b998866	0.0046854494
224	0x3da06b93	0.07833018
225	0xbd9b9637	-0.075970106
226	0x3c6475bb	0.013944085
227	0xbe9736e8	-0.29534078
228	0xbd6cfea7	-0.057860043
229	0x3dfde17e	0.12396525
230	0xbd4a5833	-0.04940052
231	0xbdfc437a	-0.12317558
232	0x3c69dd01	0.014273883
233	0xbc11fce7	-0.008910394
234	0xbdf4d7d8	-0.119552314
235	0xbe01852f	-0.12648462
236	0xbe622ec6	-0.22088155
237	0xbde20304	-0.110357314
238	0x3dbf42d3	0.093389176
239	0xbd62ade8	-0.05534163
240	0xbe6d1346	-0.23151883
241	0xbcc8c89c	-0.02450972
242	0xbb9fb1d4	-0.0048734937
243	0x3d8bce01	0.068264015
244	0x3d212b50	0.039347947
245	0x3d881a97	0.066456966
246	0xbcba74a1	-0.022760691
247	0x3c54b955	0.01298364
248	0x3d0f31dc	0.03495966
249	0x3db01a61	0.085987814
250	0xbe2b77e7	-0.16744958
251	0x3e0b2141	0.13586904
252	0xbdb33493	-0.08750262
253	0x3d41b988	0.047296077
254	0xbd81bad6	-0.06334464
255	0x3a93be95	0.0011272008

trial_output.bias f4 [3]
0	0xbcbf67df	-0.02336496
1	0xbd9e3fcf	-0.07727014
2	0xbdad2517	-0.0845434

rnn.weight_ih_l0 f4 [384, 7]
0	0x3da27e8f	0.079342954
1	0x3e1f1be9	0.1553799
2	0x3e37ebe0	0.17961073
3	0x3e20f3fb	0.15718071
4	0x3e32af44	0.17449671
5	0x3dae56a4	0.08512619
6	0x3dfe724f	0.124241464
7	0x3df46307	0.119329505
8	0x3e229dda	0.15880528
9	0x3e05e6b9	0.13076295
10	0x3dd3d825	0.10343961
11	0x3d97114a	0.073763445
12	0x3e585da1	0.21129467
13	0x3dbb9fac	0.09161314
14	0x3dcef43d	0.101051785
15	0x3e09da66	0.13462219
16	0xbce21173	-0.027596211
17	0x3d98af6c	0.07455334
18	0x3daa2cd5	0.08309332
19	0x3e18e759	0.14932002
20	0x3dbe6e77	0.09298413
21	0x3d960e79	0.07326979
22	0x3dcd3bf8	0.10021204
23	0x3e8f76f2	0.28020436
24	0xbe209c8b	-0.15684716
25	0xbd81058d	-0.06299887
26	0x3c3bc077	0.011459461
27	0x3c334d47	0.010943717
28	0xbdce553f	-0.10074853
29	0xbd549615	-0.051900942
30	0xbd67fbb9	-0.056636546
31	0xbd04d434	-0.032428935
32	0xbd47779e	-0.04869806
33	0x3d60df05	0.054900188
34	0xbd9ad8a3	-0.075608514
35	0x3d9cc52a	0.076547936
36	0x3e4ea8fd	0.20181651
37	0x3e0cfe39	0.13768853
38	0x3e070d76	0.13188729
39	0x3e1538ae	0.14572403
40	0x3e3bc1d9	0.18335666
41	0x3e51fabf	0.20505808
42	0x3d5585ae	0.05212944
43	0xbc2e4d45	-0.01063854
44	0x3dca98e1	0.098924406
45	0xbcd509f8	-0.02600573
46	0x3de680a5	0.11255006
47	0xbdb1fd23	-0.0869086
48	0xbd2426b6	-0.04007598
49	0x3c45d97d	0.012075779
50	0x3cd4a084	0.025955446
51	0x3e179212	0.14801815
52	0x3db2acf8	0.087243974
53	0xbdea5c2a	-0.1144336
54	0x3e95c7b3	0.2925392
55	0x3e18a58d	0.14906903
56	0x3c64de70	0.013969049
57	0x3b996060	0.0046806782
58	0x3e1fe290	0.1561377
59	0x3d298b3d	0.041392554
60	0x3e060d9b	0.13091128
61	0x3d025983	0.031823646
62	0x3a323385	0.0006797838
63	0x3e2d96ed	0.16952105
64	0x3dbd130e	0.0923215
65	0x3e26841a	0.1626133
66	0x3d188cff	0.03724384
67	0x3e32098b	0.17386453
68	0x3e269417	0.1626743
69	0x3de9f5e9	0.11423857
70	0x3e1fdf5c	0.15612549
71	0x3d8f1aec	0.06987557
72	0x3d056ae4	0.032572642
73	0x3e32558b	0.17415445
74	0x3d936a9c	0.071980685
75	0x3d27798c	0.0408874
76	0x3ddfa8fd	0.10920904
77	0x3e3443f0	0.17604041
78	0x3e44b667	0.19210206
79	0x3e441c80	0.19151497
80	0x3dca5613	0.098796986
81	0x3e886f74	0.26647532
82	0x3dc25acb	0.09489974
83	0x3e48d63c	0.19612974
84	0xbcc452c1	-0.023965241
85	0x3c4a557a	0.012349481
86	0x3e3be11c	0.18347591
87	0x3cf2ed85	0.029654274
88	0xbdc3f2df	-0.09567808
89	0x3df6671b	0.120313846
90	0x3e3d4eb0	0.18487048
91	0x3e073902	0.1320534
92	0x3e17003e	0.14746186
93	0x3dbf6736	0.09345858
94	0xbd0f0523	-0.034917008
95	0x3d9cbe86	0.07653527
96	0x3da80da2	0.08205725
97	0xba2989e9	-0.00064673886
98	0x3cce51a5	0.025185416
99	0x3e028df3	0.12749462
100	0x3dc0ea25	0.094196595
101	0x3d432232	0.047640033
102	0x3e458996	0.19290766
103	0x3e166b1f	0.14689301
104	0x3c8b33ac	0.016992413
105	0xbdc21063	-0.09475782
106	0xbd70ad0c	-0.05875878
107	0xbe24cc3e	-0.16093537
108	0x3cc7b288	0.024377123
109	0xbdf87f92	-0.12133707
110	0xbd7f3ad4	-0.062311962
111	0xbce475bc	-0.027888171
112	0xbdd7cb2d	-0.105367996
113	0xbdd94af0	-0.10609996
114	0xbc95d0de	-0.018288072
115	0xbdab769e	-0.08372234
116	0xbe360fb9	-0.17779435
117	0xbc4dbd93	-0.012557405
118	0xbde09a2d	-0.10966907
119	0x3d901f4a	0.07037218
120	0x3cfd9a12	0.030957256
121	0x3de39ed7	0.11114281
122	0x3d7f772e	0.062369518
123	0xbce50fe5	-0.02796168
124	0x3dae3475	0.08506099
125	0xbd3a5e2a	-0.045499958
126	0xbdb1de88	-0.086850226
127	0xbd0827cd	-0.033241082
128	0xbd481394	-0.048846796
129	0xbe528bae	-0.20561096
130	0xbe2667b8	-0.16250503
131	0xbe02d16c	-0.127752
132	0xbe047ccb	-0.1293823
133	0x3df03cc1	0.11730338
134	0x3d67c6ce	0.05658608
135	0xbd429db3	-0.047513675
136	0x3de5c3db	0.11218997
137	0x3e94a3c7	0.29031202
138	0xbda00c1e	-0.07814811
139	0xbd78d383	-0.06074859
140	0x3d65aea0	0.05607474
141	0x3e4738a1	0.19455196
142	0x3e4fec57	0.20305
143	0x3d875e35	0.066097654
144	0x3de58901	0.11207772
145	0x3dd2b39d	0.10288165
146	0x3e56ab92	0.20963886
147	0x3ecc5ee4	0.39916146
148	0x3dd81d7b	0.10552498
149	0x3cfe3caf	0.031034796
150	0x3ea634fb	0.32462296
151	0x3ec2d695	0.38054338
152	0x3e4e6c3d	0.20158477
153	0x3cb999ae	0.022656288
154	0xbd0c5749	-0.03426293
155	0x3e1b1295	0.15143807
156	0x3da2f75f	0.079573385
157	0xbcc634ea	-0.024195153
158	0xbd15fb24	-0.03661646
159	0x3e211ff8	0.15734851
160	0x3e0d95a2	0.13826612
161	0x3dcdf97d	0.10057352
162	0x3e23ab2e	0.15983269
163	0x3dc17842	0.094467655
164	0x3ddfdd50	0.10930884
165	0x3cd3fb7b	0.025876751
166	0x3d889ce4	0.066705495
167	0x3e1911b9	0.14948167
168	0x3dda4651	0.10657943
169	0x3bd786b8	0.006577339
170	0xbcdef3b6	-0.02721582
171	0x3e891ca3	0.2677966
172	0x3d81783f	0.06321763
173	0x3d61c7d1	0.0551222
174	0x3c9a824e	0.018860962
175	0xbe193914	-0.1496318
176	0xbdd8ea64	-0.105915815
177	0xbd71bb3d	-0.059016455
178	0x3d4dc3fb	0.05023573
179	0xbd86387c	-0.06553742
180	0xbd89bc9d	-0.06725428
181	0x3d5d2c40	0.05399728
182	0x3c977f39	0.018493282
183	0x3d87e149	0.066347666
184	0x3de238ac	0.110459656
185	0xbd3f282e	-0.046669178
186	0xbe034956	-0.12820944
187	0x3d82922e	0.06375538
188	0x3e5328d0	0.20621037
189	0x3d95fe28	0.07323867
190	0x3e683213	0.22675352
191	0x3c3f560d	0.011678231
192	0x3e3cc439	0.18434228
193	0x3e4d0a1b	0.20023386
194	0xbd07dc97	-0.033169355
195	0x3c010df5	0.007876863
196	0x3d96aa4c	0.073567
197	0x3e132c64	0.14372402
198	0x3e18681e	0.14883468
199	0x3e212b6f	0.15739225
200	0x3d96c2ab	0.07361349
201	0x3da9e249	0.082951136
202	0x3dd42876	0.1035928
203	0xbe79f75c	-0.24410766
204	0xbb2a6bf5	-0.0026004289
205	0xbd6d5b77	-0.057948556
206	0xbe858227	-0.2607586
207	0xbeb45ff6	-0.35229462
208	0x3c8dff0c	0.01733353
209	0x3c2942ac	0.010330837
210	0xbd39ae55	-0.04533227
211	0xbdc9f0be	-0.09860371
212	0x3c9e64d9	0.019335197
213	0x3d1472bc	0.03624223
214	0x3c5a0d81	0.013308884
215	0xbcbb3540	-0.02285254
216	0x3e2e1a0a	0.1700212
217	0x3d00f694	0.031485155
218	0x3dbeccd8	0.093164146
219	0x3d7f87bb	0.062385302
220	0x3d3f7244	0.04673983
221	0x3c1eddf7	0.009696475
222	0x3e05da37	0.13071524
223	0xbc7ff8d4	-0.01562329
224	0x3debe9bb	0.1151919
225	0x3d7e50ea	0.062088884
226	0x3d1315c9	0.035909448
227	0x3e3cc373	0.18433933
228	0x3d49e5eb	0.049291532
229	0x3e3c66f6	0.18398651
230	0x3dd5d42c	0.10440859
231	0x3dfd81ac	0.123782486
232	0x3e1bd1c4	0.15216738
233	0x3cfddc3c	0.030988805
234	0x3dc53c44	0.096306354
235	0x3d321091	0.04347283
236	0x3d9f06f8	0.07765001
237	0x3e10474f	0.14089702
238	0xbe31f275	-0.17377646
239	0x3d589af7	0.05288216
240	0xbe2eff63	-0.1708961
241	0xbcf5bdd4	-0.029997744
242	0xbe5c247f	-0.21498297
243	0x3d3cacb9	0.04606316
244	0xbdcc9701	-0.09989739
245	0xbe12736e	-0.14301845
246	0xbdb42011	-0.08795179
247	0xbd3c7085	-0.046005744
248	0xbd1dda32	-0.038538165
249	0xbd338328	-0.043826252
250	0xbd962cfc	-0.07332799
251	0xbcb34d73	-0.021887517
252	0xbdc423b6	-0.09577124
253	0x3d3db765	0.046317477
254	0xbe3d358c	-0.18477458
255	0x3daf97e6	0.08573894

rnn.weight_hh_l0 f4 [384, 128]
0	0x3c83436b	0.016023358
1	0xbc998f48	-0.01874508
2	0x3d7b20c8	0.06131056
3	0x3dc587fb	0.09645077
4	0x3be2b48d	0.006918496
5	0xbd6daf8d	-0.058028746
6	0x3da8f650	0.082501054
7	0x3c465387	0.012104875
8	0x3d9bce46	0.07607703
9	0x3c1130d5	0.00886174
10	0xbd5c1dc7	-0.053739335
11	0x3da418a8	0.08012515
12	0xbd7088a9	-0.05872408
13	0xbd3a9e6c	-0.04556124
14	0xbb5359b9	-0.0032249524
15	0xbe0bf8c5	-0.13669117
16	0xbd8ed456	-0.069740936
17	0xbd54e03d	-0.051971663
18	0xbdac5725	-0.08415059
19	0xbd16dd2b	-0.036832016
20	0xbd88c182	-0.06677534
21	0x3d54b9b8	0.051934928
22	0xbcfa325b	-0.03054159
23	0xbd4bd5df	-0.04976451
24	0x3c422525	0.011849676
25	0x3bd0789d	0.0063620345
26	0xbd77e057	-0.06051668
27	0xbd16d364	-0.03682269
28	0x3c4dd091	0.012561933
29	0xbcc0d077	-0.023536904
30	0x3dd3fea7	0.103513055
31	0x3de9591d	0.1139395
32	0x3d93a729	0.07209618
33	0xbdc2ef63	-0.09518316
34	0x3d4998f6	0.04921814
35	0x3d930263	0.071781896
36	0xbc293abd	-0.010328946
37	0x3d47df4c	0.048796937
38	0x3be1bfdc	0.0068893265
39	0xbd43d475	-0.047810037
40	0xbc97cdc6	-0.018530738
41	0xbd5db7b9	-0.05413029
42	0x3da6cf80	0.08145046
43	0x3bc200f5	0.0059205242
44	0x3e0788b9	0.1323575
45	0xbdded02f	-0.108795516
46	0xbd27cfec	-0.040969774
47	0x3c86c08e	0.01644924
48	0xbbcc915c	-0.006242914
49	0x3c4dfdbc	0.012572702
50	0x3d4ea429	0.050449524
51	0xbd7ae52f	-0.061253723
52	0x3dd9f511	0.10642446
53	0x3db84f8f	0.089995496
54	0xbde8bcf4	-0.11364165
55	0x3ce0c03b	0.027435413
56	0x3b165375	0.0022937928
57	0xbd1b3d02	-0.03789998
58	0xbd5b2f91	-0.05351216
59	0x3cc226cf	0.023700146
60	0xbbf5dcad	-0.0075031132
61	0xbca6573a	-0.020305265
62	0xbd7d98bf	-0.06191325
63	0xbdc318fc	-0.0952625
64	0xbcb2d8fc	-0.021831982
65	0xbd40d9b7	-0.04708263
66	0x3dea806c	0.11450276
67	0xbd86e524	-0.06586674
68	0x3cd74a43	0.026280528
69	0x3c48e6a2	0.012262018
70	0x3cb3e729	0.021960812
71	0xbdebf8cc	-0.115220636
72	0xbdd749bc	-0.105121106
73	0x3c7c1e76	0.015388122
74	0xbc4b87d6	-0.0124225225
75	0x3d93082a	0.071792915
76	0x3dda9af8	0.10674089
77	0xbd38f0e7	-0.045151617
78	0x3dab0c6c	0.08351979
79	0x3dcf5c38	0.10125011
80	0x3cd5a235	0.026078323
81	0x3c6cc7a7	0.014451898
82	0xbcd01c47	-0.025404109
83	0x3d120891	0.0356527
84	0xbc00b0d7	-0.007854662
85	0xbd975783	-0.073897384
86	0x3d4ee71d	0.050513376
87	0x3d28ef63	0.041243922
88	0xbd9f26a3	-0.07771041
89	0xbd69240d	-0.056919146
90	0xbd90e9f3	-0.07075872
91	0x3d117703	0.03551389
92	0xbc1b3a08	-0.009474285
93	0xbcebc67e	-0.028781172
94	0x3d21c4a6	0.03949418
95	0xbd80fe45	-0.06298498
96	0xbdabc48c	-0.08387098
97	0xbc8957b4	-0.016765453
98	0x3dee1923	0.11625888
99	0x3ada83b4	0.0016671331
100	0x3baf5203	0.0053503527
101	0xbdc808ff	-0.09767341
102	0xbcb83503	-0.022486215
103	0x3db58320	0.08862901
104	0x3d201564	0.0390829
105	0xbd9f9571	-0.077921756
106	0x3c0e4532	0.00868349
107	0xbde1cabe	-0.11024998
108	0x3d881b9d	0.06645892
109	0x3d6b3bc9	0.057430062
110	0xbd72fcbb	-0.059323054
111	0x3d2d989b	0.042381864
112	0xbdc72a07	-0.09724813
113	0x3dec976d	0.1155232
114	0x3d613b1f	0.054988023
115	0xba820fc2	-0.0009922909
116	0xbdd8d662	-0.10587765
117	0xbb9af88e	-0.004729337
118	0xbe187d9c	-0.14891666
119	0x3b451b2d	0.0030076012
120	0xbcf24800	-0.029575348
121	0xbda5e7b1	-0.08100832
122	0x3dd92bfe	0.10604094
123	0x3dc3f44c	0.0956808
124	0x3d7c7d13	0.061642718
125	0xbdf13b97	-0.11778944
126	0xbc924945	-0.017857203
127	0xbd5efed3	-0.054442238
128	0xbc9ca716	-0.019122642
129	0x3ba39228	0.0049917884
130	0xbd931c79	-0.07183165
131	0x3d86c00e	0.065796
132	0x3d27aa33	0.0409338
133	0x3d5a8108	0.05334571
134	0xbca125bf	-0.019671319
135	0x3d323d42	0.04351545
136	0x3c98d008	0.018653885
137	0x3d9546eb	0.07288917
138	0xbce2d495	-0.027689258
139	0xbd2ab675	-0.04167791
140	0x3d0ce49c	0.034397706
141	0x3dc117ab	0.094283424
142	0x3d307d2f	0.043088134
143	0xbc9a9c46	-0.018873345
144	0x3dad71e1	0.08468986
145	0x3bc29c2d	0.0059390278
146	0xbdb83259	-0.08993978
147	0x3d97449f	0.07386135
148	0xbd8855a1	-0.066569574
149	0xbd53d05d	-0.051712383
150	0x3c9fb14b	0.01949372
151	0x3b21de21	0.002469905
152	0xbdb3202c	-0.08746371
153	0x3d84aa25	0.06477765
154	0x3d396b6e	0.04526847
155	0x3da15452	0.07877411
156	0xbc976ae2	-0.018483583
157	0x3d62bf76	0.055358373
158	0x3da96695	0.08271519
159	0xbd9bbc92	-0.07604326
160	0x3dcb4c3b	0.09926649
161	0xbc872a4b	-0.016499659
162	0x3cbf6d42	0.023367528
163	0xbda843d9	-0.08216066
164	0xbda594a0	-0.080849886
165	0x3d0f3794	0.034965113
166	0xbdb6d352	-0.08927025
167	0x3d736a51	0.059427563
168	0x3d0d5f52	0.034514733
169	0xbd05aa22	-0.032632954
170	0x3d54deea	0.0519704
171	0xbd97cff0	-0.07412708
172	0xbca69c58	-0.020338222
173	0x3b779b90	0.0037781931
174	0xbdcdc168	-0.10046655
175	0x3cce517e	0.025185343
176	0xbda88252	-0.082279816
177	0xbd6eaa25	-0.05826773
178	0xbd60c733	-0.05487747
179	0xbc1de4f0	-0.0096371025
180	0x3dcb0a0d	0.099140264
181	0x3d5e7277	0.05430838
182	0x3b1876ba	0.0023264126
183	0xbd536086	-0.051605724
184	0xbd811ded	-0.06304536
185	0xbd6187e0	-0.05506122
186	0xbcf9bb0b	-0.030484697
187	0x3d50aeca	0.05094794
188	0xbcaaa26b	-0.0208294
189	0xbd9096a8	-0.070599854
190	0xbcd59582	-0.026072267
191	0x3dbaf512	0.09128775
192	0x3d49daf2	0.04928107
193	0xbce14019	-0.027496384
194	0x3dec4db8	0.11538261
195	0x3d441028	0.04786697
196	0xbdb9f289	-0.09079463
197	0x3d1cf61a	0.03832064
198	0xbd31459d	-0.04327928
199	0x3c717561	0.014737458
200	0x3d75097b	0.059823494
201	0xbd985f18	-0.07440013
202	0xba885fbb	-0.0010404506
203	0x3c31c674	0.010850538
204	0x3d67af04	0.056563392
205	0x3d053fdd	0.032531608
206	0x3cb8758b	0.022516986
207	0x3c2fc13c	0.010727223
208	0xbca34819	-0.01993184
209	0xbdfc139c	-0.12308428
210	0x3c5738fd	0.013136146
211	0x3d887981	0.066638
212	0x3d74cab7	0.059763636
213	0xbd964560	-0.07337451
214	0x3d8f9092	0.070099965
215	0x3dc2241c	0.094795436
216	0x3d808a39	0.06276364
217	0xbd364b37	-0.044505324
218	0x3d9e39c7	0.07725864
219	0xbd8d48d5	-0.06898657
220	0xbcfc24fa	-0.03077935
221	0xbd549cb9	-0.051907275
222	0x3bba59fd	0.005686997
223	0xbc91d27a	-0.017800558
224	0x3d2d598a	0.04232172
225	0xbda793e9	-0.081825085
226	0x3d5c8908	0.05384162
227	0x3d367efe	0.044554703
228	0x3da14027	0.07873564
229	0x3ce39a5d	0.027783567
230	0x3c566eaa	0.013087908
231	0x3cfc6b68	0.030812934
232	0xbdc50a7c	-0.0962114
233	0xbc974197	-0.018463893
234	0x3c5f3ce7	0.01362536
235	0x3d9fd6e6	0.078046605
236	0x3bf03998	0.0073310845
237	0xbd884769	-0.066542454
238	0xbd2140d1	-0.039368454
239	0xbdbc3fcc	-0.09191856
240	0x3b7f47f6	0.0038952804
241	0xbd154863	-0.036445986
242	0x3d909e16	0.070614025
243	0xbd6dd410	-0.058063567
244	0x3d672991	0.056436125
245	0xbd5e433a	-0.05426333
246	0x3cd4123b	0.0258876
247	0x3da798e5	0.08183459
248	0xbcc9aa68	-0.024617389
249	0x3d435839	0.047691558
250	0x3df2d0f6	0.118562624
251	0x3c242c86	0.010020381
252	0xbd830c7e	-0.06398867
253	0x3d394ead	0.045241047
254	0x3d811bde	0.06304143
255	0xbc89c32a	-0.016816694

rnn.bias_ih_l0 f4 [384]
0	0x3caf2702	0.021380905
1	0xbd4622d1	-0.048373047
2	0xbd773264	-0.06035079
3	0xbca6fdf5	-0.020384768
4	0xbce62c39	-0.028097259
5	0xbd09e565	-0.033666033
6	0x3d983091	0.07431138
7	0xbd257404	-0.040393844
8	0x3da4530b	0.08023652
9	0x3db6796c	0.08909878
10	0x3d722c89	0.059124503
11	0x3b640485	0.0034792733
12	0x3daf8dc0	0.085719585
13	0x3d8444b6	0.06458418
14	0xbd19a68d	-0.03751235
15	0x3d83caed	0.064351894
16	0x3d3298c9	0.04360274
17	0xbcc1f56c	-0.023676597
18	0xbdbf5d2c	-0.09343943
19	0x3cc535f7	0.024073584
20	0xbc7a2f96	-0.015270134
21	0xb7e31f68	-2.7075133e-05
22	0x3cce960a	0.025218029
23	0x3bb5a198	0.005542945
24	0x3d46321a	0.048387624
25	0x3d39cf59	0.045363758
26	0x3d851851	0.064987786
27	0xbd3b248b	-0.045689147
28	0x3db8a17f	0.09015178
29	0x3dc0f7e8	0.09422284
30	0x3cbc4282	0.022980932
31	0x3d2c5d4b	0.04208116
32	0xbd0b5ef6	-0.03402611
33	0x3dd89c6f	0.10576712
34	0xbb01cb6b	-0.0019805084
35	0x3cad3aaa	0.021146137
36	0x3db3ea78	0.08784956
37	0x3d96718f	0.07345878
38	0xbc727ba2	-0.014799984
39	0x3c642350	0.013924435
40	0x3dc4a018	0.09600848
41	0xbd28571e	-0.041098706
42	0x3b9f27db	0.004857046
43	0xbcd057dc	-0.02543252
44	0xbd5ac1a8	-0.05340734
45	0x3d7c9228	0.061662823
46	0xbb98094e	-0.004639781
47	0x3d9983fe	0.07495879
48	0xbd879ccc	-0.066217035
49	0x3d8f82d9	0.07007379
50	0x3dc03056	0.09384219
51	0x3c7f9d5d	0.015601483
52	0x3c53521f	0.012897997
53	0xbca44dcf	-0.020056633
54	0x3c39880e	0.011323942
55	0x3d12075d	0.035651553
56	0xbd6a178b	-0.05715136
57	0xbcd93f21	-0.02651936
58	0x3be75c3b	0.0070605553
59	0xbc1ad070	-0.009449109
60	0xbd362a18	-0.044473737
61	0x3c97dba7	0.018537356
62	0x3d43c0b3	0.047791194
63	0x3caf5770	0.021403998
64	0x3c1e6cd8	0.009669505
65	0x3c191dd5	0.009345491
66	0xbdd22d72	-0.10262574
67	0x3e1d93e8	0.15388453
68	0xbca8613f	-0.020554183
69	0x3d51c00c	0.05120854
70	0x3da1c482	0.07898809
71	0x3d66dc41	0.056362394
72	0x3d801610	0.06254208
73	0xbd358f46	-0.04432609
74	0xbc47624f	-0.012169435
75	0xbd77fe22	-0.060545094
76	0x3c741ff6	0.014900198
77	0x3d17cdd4	0.037061527
78	0xbd333691	-0.04375321
79	0xbd870728	-0.06593162
80	0x3c426f5b	0.0118673695
81	0xbd89ceaf	-0.06728875
82	0x3d802c12	0.06258406
83	0x3da93d65	0.08263663
84	0x3d8fe165	0.070254125
85	0x3df86660	0.121289015
86	0x3cb910ff	0.022591112
87	0x3b01d0ac	0.0019808216
88	0x3d18a60e	0.037267737
89	0xbd181cc1	-0.037136797
90	0x3d612d94	0.054975107
91	0xba902218	-0.0010996489
92	0xbd84a273	-0.06476297
93	0xbd01e6be	-0.031714194
94	0xbdb2a2ac	-0.087224334
95	0x3db279b6	0.08714621
96	0xbb2b91a9	-0.002617935
97	0xbdb391d8	-0.08768052
98	0xbe00171f	-0.1250882
99	0xbda8a7c5	-0.082351245
100	0xbbab5fff	-0.0052299495
101	0xbc7b6f46	-0.015346354
102	0x3d6a3ff2	0.05718989
103	0x3d98b084	0.07455543
104	0x3d346a44	0.044046655
105	0xbd66e398	-0.056369394
106	0x3d5d4780	0.054023266
107	0x3d976aca	0.07393415
108	0x3dc4ff7b	0.096190415
109	0x3da3aefc	0.0799236
110	0xbd3046c7	-0.04303625
111	0x3da6a8f4	0.08137694
112	0xbcd9c243	-0.026581889
113	0x3d00a384	0.03140594
114	0xbcfad7a2	-0.0306204
115	0xbd69ba5a	-0.057062484
116	0x3dd3dfd1	0.10345424
117	0xbd9a6697	-0.07539099
118	0xbd8133f5	-0.06308738
119	0x3cd80c8c	0.02637317
120	0xbc6394f8	-0.013890497
121	0x3c099e74	0.008399595
122	0x3d9046be	0.07044743
123	0xbd2a2e73	-0.041548204
124	0x3c4c8255	0.012482245
125	0x3ddcb613	0.107769154
126	0x3d83b107	0.0643025
127	0x3d6d69ef	0.057962354
128	0xbe3a4713	-0.18191175
129	0xbdc01e36	-0.09380762
130	0xbd64f92c	-0.05590169
131	0xbe85610c	-0.26050603
132	0xbde599cb	-0.11210974
133	0xbdb26b28	-0.08711845
134	0xbde69010	-0.112579465
135	0xbe685046	-0.22686872
136	0xbe152066	-0.1456314
137	0xbe26d1c0	-0.16290951
138	0x3d7e8ab3	0.062143993
139	0xbd6829fa	-0.056680657
140	0xbe1b8d46	-0.1519061
141	0xbe3c1ad0	-0.18369603
142	0xbe4b4833	-0.1985176
143	0xbd05de06	-0.03268244
144	0xbde349e1	-0.11098076
145	0xbe260c6f	-0.1621568
146	0x3da9c47d	0.0828943
147	0xbcd9ba32	-0.026578043
148	0xbdfda703	-0.123853706
149	0x3dbf59f1	0.09343327
150	0xbdbcfd0a	-0.09227951
151	0xbd49e272	-0.04928822
152	0xbd924bba	-0.0714335
153	0xbc21c11d	-0.009872702
154	0x3e079439	0.13240136
155	0xbdadaee9	-0.08480627
156	0xbdcabecb	-0.09899672
157	0xbd2c61fa	-0.042085625
158	0xbdf20c0c	-0.11818704
159	0xbe4f31aa	-0.20233789
160	0xbd9d4c42	-0.07680561
161	0xbe4cc769	-0.19997944
162	0xbd3e17cd	-0.046409417
163	0xbe6b8b29	-0.23002304
164	0x3d25cffa	0.040481545
165	0xbe17296e	-0.14761898
166	0xbdb6033a	-0.08887334
167	0xbdc5b605	-0.09653858
168	0xbdb9f7df	-0.09080481
169	0xbe4c2d13	-0.1993907
170	0xbe3d1efb	-0.1846885
171	0xbe1c36d3	-0.15255289
172	0xbd08d22a	-0.033403553
173	0xbddc58a7	-0.107590966
174	0xbdf61112	-0.12014975
175	0xbd3583d0	-0.04431516
176	0xbe1e75d0	-0.1547463
177	0xbde6eb19	-0.1127531
178	0xbd899b66	-0.06719093
179	0xbe034024	-0.12817436
180	0xbc2f5fc3	-0.010703984
181	0xbe153431	-0.1457069
182	0xbe3a7f2a	-0.18212572
183	0xbd42461a	-0.047430135
184	0xbea1735f	-0.31533334
185	0x3dcce706	0.10005002
186	0xbe1d582a	-0.15365663
187	0xbd6f799b	-0.05846558
188	0xbae642c1	-0.0017567502
189	0x3ccc5a34	0.024945356
190	0xbd1a2361	-0.037631396
191	0xbdda1620	-0.10648751
192	0xbda7e592	-0.08198084
193	0xbe7d8dfc	-0.24761194
194	0xbcc65cb2	-0.024214122
195	0xbc21278f	-0.009836092
196	0xbe231f62	-0.1592994
197	0xbe34df3f	-0.17663287
198	0xbdbd207d	-0.09234712
199	0xbe0a2bbf	-0.1349325
200	0xbe8a3f04	-0.27001202
201	0xbe186742	-0.1488314
202	0xbdcdf8fb	-0.10057255
203	0xbe30e190	-0.17273545
204	0xbe47fe83	-0.19530682
205	0x3b3b5ceb	0.002858932
206	0xbd4c2a57	-0.049845066
207	0xbe27de6b	-0.1639344
208	0xbb396740	-0.0028290302
209	0xbc5a51e6	-0.01332519
210	0x3cd74d33	0.026281929
211	0xbdc6c5ec	-0.09705719
212	0xbe2ce1eb	-0.16883056
213	0x3d8e96b2	0.069623366
214	0xbe49010a	-0.19629303
215	0xbe1e6ab9	-0.15470399
216	0xbdd1335d	-0.10214875
217	0xbe53ef5b	-0.20696776
218	0xbd96128c	-0.07327756
219	0xbe7a5a2d	-0.24448462
220	0xbde30c65	-0.110863484
221	0xbe2dd27f	-0.16974829
222	0xbe446ed4	-0.19182903
223	0xbdc43b23	-0.09581592
224	0xbe4383f5	-0.19093306
225	0xbe32f095	-0.17474587
226	0xbd81c8bb	-0.063371144
227	0xbdae8c75	-0.08522884
228	0xbd59e021	-0.05319226
229	0xbdf9a749	-0.1219011
230	0xbdb6581d	-0.08903525
231	0xbc37b288	-0.011211999
232	0x3ccacd68	0.024756148
233	0xbd921aff	-0.07134055
234	0xbd776493	-0.06039865
235	0xbd629bf9	-0.05532453
236	0xbd347324	-0.04405512
237	0xbdc4c35f	-0.096075766
238	0xbde03bca	-0.10948904
239	0xbe815280	-0.25258255
240	0x3e7eae14	0.24871093
241	0xbd4e2537	-0.05032846
242	0xbe5af76a	-0.21383443
243	0xbd8e5a35	-0.069507994
244	0xbe43e928	-0.19131911
245	0xbe28912c	-0.16461629
246	0x3d638199	0.055543516
247	0xbdd52be5	-0.10408763
248	0xbe29cd0c	-0.16582125
249	0xbda51724	-0.08061054
250	0xbe1e0af8	-0.15433872
251	0xbd313af2	-0.043269105
252	0xbdf87fa3	-0.1213372
253	0xbe2b1a69	-0.16709293
254	0xbd7d5f0d	-0.061858226
255	0xbe0d1b65	-0.13779981

rnn.bias_hh_l0 f4 [384]
0	0x3db8d866	0.0902565
1	0x3cf7c696	0.03024606
2	0xbd45c9a8	-0.048288018
3	0xbd8dcef0	-0.06924236
4	0xbbf321b4	-0.007419789
5	0x3d63b043	0.05558802
6	0x3d84d6f5	0.06486312
7	0x3ca9247b	0.020647278
8	0x3d856cbd	0.06514881
9	0x3d985c41	0.07439471
10	0xbc23013c	-0.009949025
11	0x3d748785	0.059699554
12	0x3d9cb171	0.07651032
13	0x3d9a42a1	0.0753224
14	0x3d0b3d9a	0.033994295
15	0x3d81e219	0.06341953
16	0x3ca3c5a2	0.0199917
17	0x3d95f19d	0.07321475
18	0xbe0d7d3e	-0.13817307
19	0xbc81d4d6	-0.015848558
20	0xbb6158e5	-0.003438526
21	0xbd5552c0	-0.05208087
22	0xbd6fb4f2	-0.058522172
23	0xbc4db518	-0.012555383
24	0xbd2891bd	-0.04115461
25	0x3d8eddd9	0.06975908
26	0x3d91c181	0.07116986
27	0xbd61f13e	-0.055161707
28	0x3dab76af	0.083722465
29	0x3deacfa2	0.11465384
30	0x3ccc8fbf	0.024970887
31	0x3cf18d3e	0.029486295
32	0x3ba5273c	0.0050400775
33	0x3db83fba	0.0899653
34	0x3aafc942	0.001341142
35	0xbbccafcd	-0.006246543
36	0xbcc851d9	-0.02445309
37	0xbd314b5d	-0.043284763
38	0x3d608f52	0.05482418
39	0xbc265117	-0.010151169
40	0xbd78304e	-0.060592942
41	0xbd934f1e	-0.07192825
42	0x3d164995	0.036691267
43	0x3d8bd847	0.06828361
44	0x3d54ecb9	0.05198357
45	0xbc8d0623	-0.01721484
46	0xbdaa2322	-0.08307482
47	0xbb5df9b9	-0.003387077
48	0x3cba51b0	0.02274403
49	0x3d4d4372	0.05011315
50	0xb9e822c0	-0.0004427638
51	0xbd5ab0d3	-0.05339129
52	0x3da9536c	0.082678646
53	0xbd691ddb	-0.056913238
54	0x3bb6e5b6	0.005581583
55	0xbce8370b	-0.028346559
56	0xbd150822	-0.03638471
57	0x3db3849b	0.08765527
58	0x3d0f5075	0.03498884
59	0x3d4065c3	0.046972048
60	0x3db276b0	0.08714044
61	0x3d4784e5	0.048710722
62	0xbd94299a	-0.07234497
63	0xbd602abd	-0.05472826
64	0xbdd1e3c7	-0.10248523
65	0x3d258429	0.04040924
66	0xbd623d1b	-0.055234056
67	0x3d39c80e	0.045356803
68	0xbdb60771	-0.08888138
69	0x3d4bfede	0.049803607
70	0x3d5ca9be	0.053872816
71	0xbc8dd983	-0.017315632
72	0x3ccdc49f	0.02511817
73	0xbddfed0c	-0.10933885
74	0xbd97b268	-0.07407075
75	0x3d0dd8a8	0.034630448
76	0xbd931855	-0.07182375
77	0x3d901f9d	0.0703728
78	0xbd9d270a	-0.07673462
79	0x3daa04ce	0.08301698
80	0xbd98ee16	-0.07467286
81	0xbb0c0e11	-0.002137069
82	0xbd8666df	-0.0656259
83	0xbd7c908a	-0.06166128
84	0x3d44a424	0.0480081
85	0x3cdc0825	0.026859352
86	0x3d99d682	0.07511617
87	0x3d896895	0.067094006
88	0x3d43ed06	0.047833465
89	0x3c9b8aad	0.018987024
90	0xbd2856ad	-0.041098285
91	0x3c9fdc7b	0.019514313
92	0x3d511c33	0.051052283
93	0x3daa204f	0.083069436
94	0xba8f79a2	-0.0010946284
95	0x3d61a352	0.055087395
96	0xbdc65ca3	-0.09685638
97	0xbc5806ab	-0.0131851835
98	0x3cfe8a62	0.031071845
99	0xbdce73fb	-0.10080715
100	0x3c30a58f	0.01078166
101	0x3d958de1	0.07302452
102	0xbcdb57b1	-0.026775213
103	0x3dcb6991	0.099322446
104	0xba40f9bd	-0.00073614327
105	0xbd6d81d2	-0.057985134
106	0x3d031394	0.032001093
107	0xbd64652c	-0.055760548
108	0x3cd159fa	0.0255556
109	0xbcd5752d	-0.02605685
110	0xbc4d663b	-0.012536581
111	0x3d98ba16	0.07457368
112	0xbadf6971	-0.0017044974
113	0xbd48e273	-0.049044084
114	0xbd8c77b0	-0.06858766
115	0x3d4eb8e0	0.05046928
116	0xbd30f31d	-0.0432006
117	0xbc7dcbde	-0.0154905
118	0x3d9e2beb	0.077232204
119	0xbd8349d2	-0.064105645
120	0xbc9e4877	-0.019321663
121	0xbd1a27af	-0.0376355
122	0x3cde046b	0.027101716
123	0xbd0cae3f	-0.03434586
124	0x3d8f0646	0.069836184
125	0x3dbb5f69	0.091490574
126	0xbd3b46ef	-0.045721944
127	0xbcc8f8e4	-0.024532743
128	0xbe51d430	-0.204911
129	0xbe291674	-0.16512471
130	0xbd918ed7	-0.07107323
131	0xbe82f34f	-0.25576255
132	0xbe496071	-0.19665696
133	0xbe065498	-0.13118207
134	0x3b837679	0.004011926
135	0xbe81d0d0	-0.25354624
136	0xbde9d98d	-0.11418448
137	0xbe2a852b	-0.16652362
138	0xbdb3f999	-0.08787841
139	0xbd21b5de	-0.039480083
140	0xbe44475a	-0.19167843
141	0xbdccec34	-0.1000599
142	0xbe30f35b	-0.17280333
143	0xbdf1b82e	-0.118027076
144	0xbd434d6e	-0.047681265
145	0xbe9166fa	-0.28398877
146	0x3de464b5	0.11152021
147	0xbd394121	-0.045228127
148	0xbe444422	-0.19166616
149	0x3e75f340	0.24018574
150	0xbe20aff5	-0.15692122
151	0xbe243da9	-0.16039146
152	0xbd2a3a66	-0.0415596
153	0x3cac83b2	0.021058891
154	0x3d8be800	0.0683136
155	0xbe1be8d0	-0.1522553
156	0xbe7a48ab	-0.24441783
157	0xbcdcb342	-0.026940946
158	0xbb603562	-0.0034211506
159	0xbe4e639a	-0.20155182
160	0xbc1ce4ef	-0.009576066
161	0xbde2e0ec	-0.11078057
162	0xbd893487	-0.06699472
163	0xbe96851a	-0.29398423
164	0x3cf53240	0.029931188
165	0xbd47585e	-0.048668258
166	0xbe466120	-0.19372988
167	0xbe3f3ca8	-0.18675482
168	0xbd78658f	-0.06064373
169	0xbe499746	-0.19686612
170	0xbe48232b	-0.19544666
171	0xbd9bee1f	-0.07613777
172	0xbd588485	-0.052860755
173	0xbd39d67d	-0.045370568
174	0xbdb6c4ea	-0.08924277
175	0xbdf8c406	-0.121467635
176	0xbda7fd04	-0.08202556
177	0xbe3e0dd3	-0.18559961
178	0xbda66e65	-0.08126525
179	0xbe146b32	-0.14494017
180	0xbd6c3f99	-0.05767784
181	0xbe77f747	-0.24215423
182	0xbe44457b	-0.1916713
183	0xbdc6dbb7	-0.09709876
184	0xbeba928a	-0.36439925
185	0x3e0866ff	0.1332054
186	0xbd492764	-0.04910983
187	0xbd0d9a17	-0.03457078
188	0x35cd2a22	1.5285952e-06
189	0x3adb79fa	0.0016744726
190	0xbdfc2ea5	-0.12313584
191	0xbd8d8226	-0.069095895
192	0xbdab44bc	-0.083627194
193	0xbea47073	-0.32117042
194	0xbdde25b7	-0.10847037
195	0xbe226082	-0.15857127
196	0xbe345404	-0.17610174
197	0xbe09e074	-0.13464528
198	0xbdb5460b	-0.0885125
199	0xbe5cecf4	-0.21574765
200	0xbe59ceb4	-0.21270257
201	0x3b51a71b	0.0031990472
202	0x3bc437c4	0.005988093
203	0xbdfa85d0	-0.12232554
204	0xbde517a1	-0.111861475
205	0x3d389dee	0.04507249
206	0x3b9f00ab	0.0048523745
207	0xbdd2261a	-0.102611735
208	0xbcebde3a	-0.02879249
209	0x3d55ed14	0.05222805
210	0xbd9330a9	-0.071870156
211	0xbe06482d	-0.1311347
212	0xbe39de8e	-0.18151304
213	0x3c95659f	0.018236933
214	0xbe3072cd	-0.17231293
215	0xbe036117	-0.12830006
216	0x3bf59c66	0.007495451
217	0xbdd5ad63	-0.104334615
218	0xbe317154	-0.17328387
219	0xbe621396	-0.22077784
220	0xbdf87e8c	-0.12133512
221	0xbdeabace	-0.114614114
222	0xbdcc05d9	-0.09962053
223	0x3c900213	0.017579114
224	0xbe34744a	-0.17622486
225	0xbe9ab652	-0.30217224
226	0xbd69991b	-0.05703078
227	0xbdd355ea	-0.10319121
228	0xbdb11bf9	-0.086479135
229	0xbd564684	-0.052313343
230	0xbe669d5e	-0.22520968
231	0xbce92bb0	-0.028463215
232	0x3d96a8b2	0.07356395
233	0xbc0d219d	-0.008613971
234	0xbe38505c	-0.17999405
235	0xbe153ace	-0.14573213
236	0xbd933469	-0.07187731
237	0x3c610ba4	0.0137356855
238	0xbe17f1cb	-0.1483833
239	0xbe524888	-0.20535481
240	0x3e92afeb	0.2864984
241	0xbe45b1df	-0.19306134
242	0xbe1d2a32	-0.15348127
243	0xbe366c70	-0.17814803
244	0xbe6d4322	-0.2317014
245	0xbe33db50	-0.1756413
246	0x3d8be417	0.06830614
247	0xbda1c9f1	-0.078998454
248	0xbd14fb1c	-0.03637229
249	0xbd92a311	-0.07160009
250	0xbea72eb6	-0.32652825
251	0x3c8739e1	0.016507091
252	0xbe5dc995	-0.21658929
253	0xbe88aa1d	-0.26692286
254	0xbd893128	-0.06698829
255	0xbe10d4e9	-0.14143719

exp_avg f4 [3, 128]
0	0xba0a99cf	-0.00052872015
1	0xb962ab28	-0.000216168
2	0x3784f800	1.585111e-05
3	0xb9682321	-0.0002213833
4	0xb777df7d	-1.4774382e-05
5	0x3987a405	0.0002587141
6	0x3755c822	1.2742386e-05
7	0xb9d66719	-0.00040894074
8	0xba19ed37	-0.00058718346
9	0xb8e49f2e	-0.00010901537
10	0x3936b78b	0.00017425248
11	0x3806f32d	3.2174565e-05
12	0xb98843e2	-0.00025990518
13	0x37f71722	2.9455467e-05
14	0x393f0a23	0.00018218956
15	0x3a519693	0.00079951546
16	0xb838af94	-4.403254e-05
17	0xb9c6f2a1	-0.00037946276
18	0xb96e746b	-0.00022740818
19	0x355d8b66	8.2531767e-07
20	0xb89251a4	-6.977029e-05
21	0x3818af5b	3.6402937e-05
22	0x38925871	6.978296e-05
23	0xb937f96e	-0.0001754516
24	0xb7fc3d4d	-3.0069286e-05
25	0x3a8913d3	0.0010458179
26	0x396e866a	0.00022747522
27	0xb92394c3	-0.0001560031
28	0x39bd8647	0.00036148934
29	0xb97e5761	-0.00024255879
30	0xb9de8647	-0.00042443184
31	0xba00ea1d	-0.0004917698
32	0xb88d422e	-6.735731e-05
33	0x385e2edb	5.2972562e-05
34	0x379cd86b	1.8697427e-05
35	0xb9f82caa	-0.00047335523
36	0x3a1d053f	0.00059898564
37	0xba2e77c5	-0.00066554203
38	0x39b6d086	0.00034869107
39	0xb9789fdf	-0.0002371068
40	0xb9144b01	-0.00014142321
41	0xb9565d09	-0.00020443289
42	0xb978def8	-0.00023734185
43	0x393c5af3	0.00017962958
44	0xba2b093b	-0.0006524508
45	0x39b34e67	0.00034199955
46	0x390ac07f	0.00013232416
47	0x39831ef2	0.00025009323
48	0xb920cba0	-0.00015334645
49	0xb9da130f	-0.000415944
50	0x397a60d4	0.00023877929
51	0x389b2c9d	7.399286e-05
52	0xba8145b3	-0.0009862691
53	0xb9bcdae1	-0.00036021232
54	0x388f3ebe	6.830458e-05
55	0xba22b81f	-0.0006207246
56	0x39c48940	0.00037486292
57	0x392a86d7	0.00016262695
58	0x3938f2f6	0.00017638117
59	0x37e0beb9	2.6791693e-05
60	0xb8c1e872	-9.2462535e-05
61	0x38d80617	0.00010300817
62	0xb9a851aa	-0.00032104301
63	0x39bdf084	0.00036228087
64	0x397b3b8b	0.00023959407
65	0x39b7dfce	0.00035071227
66	0xb98e35db	-0.00027124476
67	0x397ca2c0	0.00024093222
68	0xb8aa2e6f	-8.1148806e-05
69	0x383c0e94	4.483627e-05
70	0x3913c252	0.00014091402
71	0x39e5c9a5	0.0004382852
72	0x3929fade	0.00016210551
73	0x397caf8e	0.00024097992
74	0xb6a06d1f	-4.781075e-06
75	0x3967b9d8	0.00022099109
76	0xb98992b9	-0.00026239993
77	0x385d590a	5.277343e-05
78	0xb9faa343	-0.00047805355
79	0xb97d4c29	-0.00024156332
80	0xb90fc89c	-0.00013712276
81	0x3a6a3308	0.0008933996
82	0xb888a5b3	-6.515849e-05
83	0x390adb26	0.00013242345
84	0x399b8122	0.00029660115
85	0x388115ed	6.155283e-05
86	0x391e58a3	0.00015101074
87	0xb972f478	-0.0002316999
88	0x3991c78c	0.0002780523
89	0xb9831895	-0.00025004582
90	0x390caf3d	0.00013416722
91	0xb99eb6c6	-0.00030272285
92	0x39a84d5e	0.000321011
93	0x381adbea	3.6921272e-05
94	0x39be07c2	0.00036245404
95	0x37d77503	2.5684485e-05
96	0x383793c0	4.3768203e-05
97	0xba3203bd	-0.0006790718
98	0xba49e8e6	-0.0007702246
99	0xb9c58a82	-0.00037677964
100	0xb986957c	-0.00025669846
101	0x39108fc0	0.00013786461
102	0x39670eea	0.00022035433
103	0xb93b9516	-0.00017889249
104	0x3a602ca6	0.0008551575
105	0x38fd260e	0.00012071068
106	0xb9830c67	-0.00024995508
107	0xb97ffeba	-0.00024413588
108	0xba1e3da7	-0.00060364086
109	0xb8eb9060	-0.00011232565
110	0x39c0ba7b	0.00036760033
111	0xb9dab083	-0.00041711712
112	0xb89b3262	-7.4003605e-05
113	0xb9d53557	-0.00040666267
114	0x39bb23e0	0.00035694148
115	0x39d515c1	0.00040642734
116	0x3a1898e1	0.00058211206
117	0xb931ab51	-0.00016943856
118	0x39993e21	0.00029228724
119	0x397bc192	0.00024009336
120	0x395005d8	0.00019838603
121	0x39a49513	0.00031391587
122	0xba596c7d	-0.0008294059
123	0x39be50b9	0.00036299767
124	0xb9923d07	-0.0002789276
125	0x3a1abbdc	0.0005902627
126	0xb9c15cee	-0.00036881067
127	0x39a78ccf	0.00031957633
128	0x391729c1	0.00014416037
129	0xb81dce56	-3.7623882e-05
130	0x39b34786	0.0003419483
131	0xb8cb6f97	-9.7005795e-05
132	0x384eb35e	4.9281276e-05
133	0x38424a1e	4.632223e-05
134	0xb6f34074	-7.2494677e-06
135	0x396c1eef	0.00022518238
136	0x39bcf0fa	0.00036037696
137	0xb8eb3de8	-0.00011217204
138	0xb997b168	-0.00028933142
139	0xb9d541fe	-0.00040675694
140	0x380c28e9	3.34167e-05
141	0x39d1ee0d	0.00040040948
142	0x39a32970	0.00031120656
143	0xba290f32	-0.00064491027
144	0x398ea9df	0.00027210914
145	0x386a07cd	5.5797213e-05
146	0x3903670a	0.00012531519
147	0xb9d334d3	-0.00040284413
148	0xb972f9f2	-0.0002317203
149	0xba2cc18a	-0.0006590119
150	0x38bd6cfe	9.032524e-05
151	0xb952dee7	-0.00020110198
152	0xb9777c32	-0.00023602022
153	0xba850e36	-0.001015133
154	0xba8c9a92	-0.0010727218
155	0x3a21ebf7	0.0006176824
156	0xb915de80	-0.00014292635
157	0x39f239ed	0.00046200995
158	0x3a0f47b8	0.0005465704
159	0x39ce2e1a	0.0003932573
160	0x39ff76dd	0.0004872595
161	0x39fd1165	0.0004826888
162	0xb7d42580	-2.5289832e-05
163	0x39ed8fbd	0.00045311256
164	0xba2834d0	-0.0006416561
165	0x3a238d67	0.0006239027
166	0xb963f9e0	-0.00021741493
167	0x397a1869	0.00023850951
168	0xb98d24d6	-0.0002692106
169	0xb79593af	-1.7830955e-05
170	0x3a4dc32f	0.0007849214
171	0x3902e524	0.00012483128
172	0x3a02ab8b	0.00049846683
173	0xb9b75adc	-0.00034972175
174	0xb9c10e71	-0.00036822588
175	0x39527dc6	0.00020074015
176	0x3a0b4857	0.00053132087
177	0x3a08773c	0.00052057556
178	0x38fec5bc	0.00012148495
179	0x39e54a7b	0.00043733776
180	0x3a944124	0.0011310917
181	0x38c127e7	9.2103895e-05
182	0x392b9c6c	0.00016366102
183	0x3a2aa78f	0.00065099535
184	0xb9f580d3	-0.00046826023
185	0xb9352db9	-0.00017278538
186	0xb98555f8	-0.00025431789
187	0x391722c9	0.0001441344
188	0xb90a6deb	-0.00013201653
189	0xb98fcb8c	-0.0002742674
190	0x39252e3e	0.00015752853
191	0xb9772ddb	-0.00023572838
192	0xb96f11de	-0.00022799472
193	0x38e5683f	0.00010938988
194	0x38ceac01	9.854884e-05
195	0xb9e9142c	-0.00044456252
196	0xb928e330	-0.00016106362
197	0x3916bd35	0.000143756
198	0x394e4356	0.00019670776
199	0xb8ef6bdc	-0.000114164985
200	0x38dfd11b	0.000106724176
201	0xb9ce221e	-0.000393168
202	0x38f60dc3	0.000117327574
203	0x38303a7c	4.2016138e-05
204	0xb788608f	-1.6257427e-05
205	0x392487e2	0.00015690879
206	0x39e62af5	0.00043901024
207	0xb8356097	-4.324372e-05
208	0xb5e68f0b	-1.7177966e-06
209	0xba58dba0	-0.0008272473
210	0xb78510a3	-1.5862583e-05
211	0x391940ba	0.0001461533
212	0x3934f182	0.00017256106
213	0xb8c8daf8	-9.577529e-05
214	0x394f3d2b	0.00019763845
215	0x39c93400	0.0003837645
216	0xba75dca1	-0.00093788846
217	0xb8436261	-4.6583245e-05
218	0xb726b6b6	-9.936912e-06
219	0xb890cc58	-6.904517e-05
220	0xb8dcb30f	-0.0001052377
221	0x39e78ebd	0.00044166102
222	0xb7e8ed88	-2.7767164e-05
223	0x396c7ea8	0.00022553897
224	0x39722853	0.0002309394
225	0x3a1ee99f	0.0006062034
226	0x3a49b563	0.000769457
227	0x39a30611	0.00031094303
228	0x38c4aed3	9.378572e-05
229	0xb8c930ed	-9.59354e-05
230	0x397aa1ef	0.00023902183
231	0x378aaf7f	1.6532604e-05
232	0xba6a2429	-0.000893178
233	0x39230f50	0.00015550596
234	0xb850dc08	-4.9795985e-05
235	0x3a09a41b	0.0005250589
236	0x3a890ae2	0.0010455514
237	0xb8f08a40	-0.00011469843
238	0xb9925c4a	-0.0002791605
239	0x396a062d	0.0002231828
240	0x39dd1182	0.0004216545
241	0x397f1207	0.00024325411
242	0x3849f798	4.8152724e-05
243	0xb907a6c8	-0.00012936734
244	0xb9220fb6	-0.00015455377
245	0xb942b371	-0.00018568129
246	0xb9852639	-0.00025396215
247	0xb7fd6810	-3.0208408e-05
248	0xb7863db4	-1.6002778e-05
249	0xb8d0f3cc	-9.9636236e-05
250	0x3a0c9639	0.0005362961
251	0xba1f4f40	-0.0006077178
252	0x382824c7	4.0088573e-05
253	0xb914a5d5	-0.00014176157
254	0xb8723d5c	-5.775444e-05
255	0xb90c8aef	-0.00013403197

exp_avg_sq f4 [3, 128]
0	0x38c812e9	9.5402655e-05
1	0x3843e5b9	4.670557e-05
2	0x387e5b46	6.0643324e-05
3	0x387454a4	5.825296e-05
4	0x379e262d	1.8852845e-05
5	0x38530972	5.0315117e-05
6	0x38066ff5	3.2052358e-05
7	0x37d85102	2.5786929e-05
8	0x39133be5	0.00014041325
9	0x38d812c0	0.00010303175
10	0x381f1a14	3.793284e-05
11	0x385312c3	5.0323793e-05
12	0x38519b93	4.9974373e-05
13	0x390e1fc3	0.00013554007
14	0x389deeaf	7.530802e-05
15	0x38221b71	3.8649367e-05
16	0x37d02fa2	2.4817713e-05
17	0x37f273bd	2.8902543e-05
18	0x36eee342	7.119409e-06
19	0x3854405f	5.060469e-05
20	0x38af2dd4	8.3531864e-05
21	0x3780e0b8	1.5363432e-05
22	0x382ff807	4.1954245e-05
23	0x38e09aef	0.00010710011
24	0x38a08ce8	7.6556404e-05
25	0x378ccf1d	1.6785745e-05
26	0x37f45640	2.912723e-05
27	0x3896dea7	7.1940296e-05
28	0x38a05c3f	7.646577e-05
29	0x380472c2	3.157813e-05
30	0x379fd8b4	1.9055187e-05
31	0x38174415	3.606461e-05
32	0x382f72dd	4.1830226e-05
33	0x38e0ece9	0.0001072528
34	0x3795cc52	1.7857328e-05
35	0x37946d6a	1.7693925e-05
36	0x3801c064	3.0935174e-05
37	0x390d1124	0.00013453193
38	0x38380061	4.386937e-05
39	0x378e10fe	1.6935632e-05
40	0x393439bb	0.00017187644
41	0x3842cc21	4.6443314e-05
42	0x389fa8f9	7.6131844e-05
43	0x37efafdd	2.8572913e-05
44	0x3770e462	1.4358289e-05
45	0x380298fc	3.1136893e-05
46	0x36f57a90	7.315837e-06
47	0x38dd475b	0.00010551392
48	0x38538c14	5.0436778e-05
49	0x3858e25c	5.1709227e-05
50	0x3868f111	5.553762e-05
51	0x39002e54	0.0001222429
52	0x3780dfd7	1.5363023e-05
53	0x384c7c8a	4.8753376e-05
54	0x36d9264d	6.4715628e-06
55	0x377a05a4	1.49024745e-05
56	0x3754dac9	1.2687125e-05
57	0x37ea0ff4	2.7902403e-05
58	0x3671bc39	3.6021358e-06
59	0x38a03923	7.640037e-05
60	0x388b1b85	6.6331624e-05
61	0x37f8f9c7	2.9680215e-05
62	0x3887e6ae	6.480269e-05
63	0x383c8c3d	4.49533e-05
64	0x365b9941	3.2722749e-06
65	0x36a8a572	5.0260505e-06
66	0x36bddd7f	5.6584245e-06
67	0x38d68363	0.00010228788
68	0x387a433b	5.9667258e-05
69	0x383c9879	4.4964694e-05
70	0x3910bcf9	0.00013803308
71	0x370bde92	8.336867e-06
72	0x378f0071	1.7047134e-05
73	0x36b113be	5.2773094e-06
74	0x3855dfda	5.0991635e-05
75	0x3785b42b	1.5938733e-05
76	0x38a160b7	7.695093e-05
77	0x390d7414	0.0001349005
78	0x3732572b	1.0629922e-05
79	0x38bd651e	9.031057e-05
80	0x3906fa82	0.00012872557
81	0x37d2e61c	2.5141104e-05
82	0x37c2493f	2.316071e-05
83	0x38ec2663	0.00011260507
84	0x390e093a	0.00013545612
85	0x383a4772	4.4412394e-05
86	0x38a43d14	7.831506e-05
87	0x37317c11	1.0578909e-05
88	0x38a2b645	7.758712e-05
89	0x386d874a	5.66312e-05
90	0x381836cf	3.629067e-05
91	0x38b0979a	8.420572e-05
92	0x386ae9d8	5.600773e-05
93	0x391681a1	0.00014353405
94	0x38666925	5.4934197e-05
95	0x3816cf19	3.595566e-05
96	0x37f542f4	2.9237453e-05
97	0x36d40c1f	6.3195034e-06
98	0x3711c16e	8.68771e-06
99	0x37249629	9.810124e-06
100	0x3833a41b	4.282976e-05
101	0x374d2544	1.2227629e-05
102	0x39127275	0.00013966284
103	0x38a47429	7.841766e-05
104	0x38144f7f	3.5359986e-05
105	0x3757acc1	1.2855221e-05
106	0x38d93cdb	0.000103587015
107	0x371d6817	9.3821645e-06
108	0x36f76899	7.3733504e-06
109	0x38e2d979	0.00010817027
110	0x388b802b	6.65191e-05
111	0x389c9ce5	7.4678836e-05
112	0x36bb1c22	5.5763094e-06
113	0x383ac1f9	4.4526507e-05
114	0x38cb2c4e	9.688047e-05
115	0x38a60f1b	7.9183104e-05
116	0x390810f1	0.00012976282
117	0x386876ce	5.5423756e-05
118	0x3740b894	1.1487067e-05
119	0x3880a941	6.1350416e-05
120	0x37ad3188	2.0646272e-05
121	0x386392ec	5.425785e-05
122	0x36c207e4	5.782569e-06
123	0x37d23bd1	2.5061805e-05
124	0x37fd0e69	3.016666e-05
125	0x38be2945	9.067593e-05
126	0x38cd7d44	9.798494e-05
127	0x37d63f88	2.5540372e-05
128	0x37cebdca	2.4645491e-05
129	0x374c8a18	1.21915e-05
130	0x3785bdc5	1.5943204e-05
131	0x377cf07c	1.5076363e-05
132	0x36a499ef	4.905501e-06
133	0x375baf8c	1.309429e-05
134	0x370b87fd	8.316708e-06
135	0x36df8efa	6.6625626e-06
136	0x38191ee7	3.6506823e-05
137	0x37e260b4	2.698633e-05
138	0x372f3caf	1.0444942e-05
139	0x37621c6e	1.3477269e-05
140	0x3758cf1d	1.2922826e-05
141	0x3814a990	3.5443867e-05
142	0x37a45609	1.9590387e-05
143	0x3737a161	1.0945224e-05
144	0x36d5d79e	6.372996e-06
145	0x36faf1be	7.478723e-06
146	0x3602710c	1.9437311e-06
147	0x3760c4c7	1.3397256e-05
148	0x37b6f02e	2.1807933e-05
149	0x37062dca	7.9976835e-06
150	0x37364797	1.0864714e-05
151	0x37eab659	2.7979886e-05
152	0x37a7094c	1.991228e-05
153	0x36d048d6	6.2073623e-06
154	0x37161002	8.944424e-06
155	0x37a1830a	1.9253715e-05
156	0x37a66538	1.9835876e-05
157	0x37123908	8.715557e-06
158	0x36b3a1b2	5.3534395e-06
159	0x371ed05f	9.466049e-06
160	0x373c7867	1.1233707e-05
161	0x37ed3638	2.827785e-05
162	0x36a1b333	4.8190354e-06
163	0x36a28734	4.843716e-06
164	0x37136f47	8.787792e-06
165	0x3812bcc4	3.4984914e-05
166	0x373e8592	1.1355982e-05
167	0x3695aa50	4.460373e-06
168	0x383d0a16	4.5070505e-05
169	0x37498405	1.2011272e-05
170	0x37ac5df2	2.0547744e-05
171	0x36f8dc88	7.416649e-06
172	0x3693d992	4.40627e-06
173	0x37096558	8.189432e-06
174	0x3607c8c3	2.0233426e-06
175	0x37e4d236	2.7277605e-05
176	0x3760d591	1.3401165e-05
177	0x376d63e6	1.414956e-05
178	0x37711697	1.4369979e-05
179	0x3806008d	3.1948603e-05
180	0x36b56317	5.405756e-06
181	0x3752e7c1	1.2570935e-05
182	0x35dc9bd0	1.6436625e-06
183	0x36937839	4.394937e-06
184	0x3661db56	3.3655283e-06
185	0x3703e1e2	7.860801e-06
186	0x3581255e	9.622124e-07
187	0x37a7c328	1.9998828e-05
188	0x37900c69	1.7171917e-05
189	0x370701a4	8.047009e-06
190	0x378ca089	1.6764056e-05
191	0x3744400a	1.1697421e-05
192	0x3581f57a	9.682692e-07
193	0x35bb1298	1.3937997e-06
194	0x35d27588	1.5680425e-06
195	0x37e66ad1	2.7467877e-05
196	0x37826be7	1.5547454e-05
197	0x3743b4b6	1.1664981e-05
198	0x3816c4e1	3.5946145e-05
199	0x36122d7b	2.1782168e-06
200	0x36962188	4.474252e-06
201	0x35d55b6e	1.5896346e-06
202	0x375c2ebf	1.3123906e-05
203	0x368bdc92	4.1682006e-06
204	0x37a70569	1.991047e-05
205	0x38137cc8	3.5163743e-05
206	0x364db83b	3.0654617e-06
207	0x37c54080	2.3514265e-05
208	0x380d03ae	3.3620447e-05
209	0x36f91d92	7.4242207e-06
210	0x36cc0294	6.079974e-06
211	0x37f711ac	2.9452924e-05
212	0x38144b10	3.5355857e-05
213	0x374daec8	1.2259647e-05
214	0x37ab067d	2.038781e-05
215	0x364be9a5	3.0385356e-06
216	0x37b0a2ce	2.1056647e-05
217	0x3776d1d7	1.47116e-05
218	0x371be591	9.29217e-06
219	0x37b72012	2.1830234e-05
220	0x377134dd	1.4377028e-05
221	0x381dfc12	3.7666476e-05
222	0x376f7bef	1.4274366e-05
223	0x371b8b9d	9.271226e-06
224	0x37029485	7.783184e-06
225	0x36039572	1.960751e-06
226	0x363ddfe0	2.8293507e-06
227	0x365fb013	3.3332078e-06
228	0x3737352c	1.092003e-05
229	0x365a749e	3.2552412e-06
230	0x38190886	3.648598e-05
231	0x37ab1f3c	2.0399333e-05
232	0x372c8d6b	1.0284925e-05
233	0x366151ee	3.3575302e-06
234	0x37e0c435	2.6794247e-05
235	0x366234e6	3.3707415e-06
236	0x3685aaa0	3.9835722e-06
237	0x37eea89a	2.8450322e-05
238	0x37901098	1.7173865e-05
239	0x37a1e2eb	1.9298363e-05
240	0x3648ea57	2.9938726e-06
241	0x3740e48f	1.1497307e-05
242	0x37d2283f	2.5052692e-05
243	0x37ab1d0e	2.0398318e-05
244	0x380c364e	3.3429176e-05
245	0x37712ccb	1.4375149e-05
246	0x36506698	3.1054133e-06
247	0x37850954	1.585918e-05
248	0x36b3e4ca	5.3612503e-06
249	0x376d8470	1.4157136e-05
250	0x35dd6b41	1.6496998e-06
251	0x36f5e8fb	7.3286915e-06
252	0x370373f1	7.835203e-06
253	0x37c30820	2.3249595e-05
254	0x37d53879	2.5417876e-05
255	0x36ddf2a4	6.6145603e-06

exp_avg f4 [3]
0	0x398e173e	0.00027101667
1	0xbaa5aa98	-0.0012639342
2	0x3a822514	0.0009929263

exp_avg_sq f4 [3]
0	0x3ac93895	0.0015351946
1	0x39cfda03	0.00039644548
2	0x39c8eb3f	0.00038322245
