saved_models/discretised/checkpoint36.pth (torch, 643092 bytes, 18 tensors)

trial_output.weight f4 [3, 128]
000000 da a5 de 3d 32 5b 8e 3d d7 1f 63 bd 64 24 c2 bb
       0.108714774 0.06950988 -0.055450287 -0.0059247483
000010 4a 68 8d bd 47 0b f3 bd 7c b0 0a 3d f5 a9 c2 3d
       -0.06904657 -0.11867385 0.033859715 0.09505073
000020 82 98 84 3d 4c b9 b6 3d 04 bd b1 bd 57 8c f1 3d
       0.06474401 0.08922061 -0.0867863 0.11794346
000030 99 6e 80 3d ae ec ae bd f1 a1 8f bd 20 e1 8c 3d
       0.06271095 -0.08541237 -0.0701331 0.06878877
000040 ad 03 e0 3c a1 d5 f4 3d 43 5c f3 bc f0 fa d9 3d
       0.027345503 0.11954809 -0.02970708 0.10643566
000050 b6 e6 b5 3d 46 32 23 3c 28 fb 8a bd c9 ca 39 3d
       0.08881895 0.009960717 -0.067861855 0.045359407
000060 8f 46 a5 bc 22 28 20 3d ad a8 b8 3d 08 86 5a bd
       -0.020175247 0.039100774 0.09016547 -0.05335048
000070 55 1a c0 bd 60 86 8b 3c ba e2 ad bd 77 67 a4 3d
       -0.093800224 0.017031848 -0.0849051 0.08027547
000080 98 ab d4 bd 72 6a 6f bd 3b c9 2d 3d 3d 1b ac 3d
       -0.103842914 -0.058451124 0.042428236 0.08403633
000090 7c de b9 3d 9e 80 40 3d b6 17 aa 3d 7f 75 1b 3d
       0.09075639 0.04699766 0.08305304 0.03795385
0000a0 6d c3 e9 bc aa 7a a1 3c c9 58 b7 bd b5 82 04 be
       -0.02853557 0.019711811 -0.08952481 -0.12940486
0000b0 89 11 f0 bd 6f 5e a4 3c 90 43 3e bd dc c9 1c bd
       -0.117220946 0.02006456 -0.04645115 -0.038278446
0000c0 c3 8d e7 bd 64 4f 8f 3d 80 f7 e6 bd 9b a0 01 be
       -0.11306336 0.069975644 -0.11277676 -0.12658922
0000d0 a4 60 a3 bd 4a 94 85 3d 78 8f 32 be 3e cb c7 bd
       -0.07977417 0.065224245 -0.17437541 -0.09755562
0000e0 aa 9f 1a bb 37 cb 16 3c 52 22 43 3d 2a 71 7f bd
       -0.0023593702 0.009203724 0.047640152 -0.06236378
0000f0 3e 48 1e 3d a8 f4 d6 3a 61 d9 56 bc cf 1e 41 bd
       0.038643114 0.0016399818 -0.013113351 -0.047148522
000100 28 a0 2a bd 5a da ac bd 67 3f ac 3d 14 ef 08 bc
       -0.041656643 -0.08440085 0.084105305 -0.008357782
000110 4e 9e 52 3d f0 96 8a bd f7 62 ac bd 33 b1 24 be
       0.051420502 -0.0676707 -0.084173135 -0.16083221
000120 58 01 35 bc e3 49 d5 bc b9 47 8c bd d6 89 d4 bd
       -0.011047684 -0.026036208 -0.068496175 -0.103778526
000130 8b c9 3d 3d 6e 06 00 be 86 7b f9 bc 03 6b 98 3d
       0.046334784 -0.12502453 -0.030454408 0.07442286
000140 d0 8c 82 3b 3d 31 1e 3d 57 80 09 3d 96 e7 9e bd
       0.0039840713 0.038621176 0.03356966 -0.07759015
000150 01 ac 49 bd 78 57 c5 bd cb 76 ab bd 7f 62 96 3d
       -0.0492363 -0.09635824 -0.08372267 0.073430054
000160 57 a7 d4 3d f4 d4 bf 3d 9d 2f 78 bb 6c 2a f0 3d
       0.1038348 0.093667895 -0.0037870177 0.11726841
000170 a2 27 51 bd c0 8a f9 bd bd cb 06 be 3c be 87 3c
       -0.051063187 -0.121846676 -0.13163657 0.016570203
000180 6f 0f 0c be 10 2b 37 3d c6 97 f1 bd 9b 7c 4a 3d
       -0.13677762 0.044718802 -0.117965266 0.04943524
000190 36 99 5f bc 01 3f 9b bd 14 a7 d7 bd 4b d2 3d 3d
       -0.013647368 -0.075803764 -0.105299145 0.04634313
0001a0 3f ed a0 3c f7 99 48 3d 84 b7 c8 3c 77 a9 3c 3d
       0.019644378 0.048974957 0.02450157 0.04606005
0001b0 63 50 cc 3d fe cf 06 3e 6a 58 e2 3b 99 68 cd 3d
       0.0997627 0.1316528 0.0069075124 0.10029716
0001c0 0e 88 ae bd 29 eb 08 3d aa f6 c2 bd 25 0c 97 bd
       -0.08522044 0.03342739 -0.09519704 -0.07375363
0001d0 94 b7 ad bd e9 1e da 3d 1e 82 08 bd 19 0c c3 bd
       -0.084822804 0.10650427 -0.033327214 -0.09523792
0001e0 68 6a 46 bd 16 ac b4 bc 76 73 55 3e ff 34 cf bd
       -0.04844132 -0.022054713 0.20844826 -0.1011753
0001f0 7c c6 8c 3d 43 02 f0 3c ad 7c ea 3a 8d 4e 1d bd
       0.068737954 0.029297953 0.001788994 -0.03840499
000200 ba b9 9e bd b5 14 e7 bd 88 39 f4 bb 86 3e 2e bd
       -0.07750268 -0.112832464 -0.0074531473 -0.042540096
000210 94 29 ae bd 46 0e c0 3d e1 0c cb bc b8 9a 9f bd
       -0.08504024 0.093777224 -0.024786415 -0.07793182
000220 5f a8 42 bd 74 3e e0 bd 44 7d 26 3e 5d 69 d3 bd
       -0.047523852 -0.10949412 0.16258723 -0.10322831
000230 00 26 89 bc 77 5b 8f 3d ff 05 fc 3c 1c 34 a6 bd
       -0.016741753 0.069998674 0.030764578 -0.08115408
000240 8b 38 a4 3b 94 58 19 bd b5 b8 98 bd 46 94 64 3d
       0.0050116233 -0.03743799 -0.07457105 0.055805467
000250 e9 d7 ef bd d7 49 73 3e 10 75 af 3d 1d 5e ad bd
       -0.117111035 0.23758636 0.0856725 -0.08465216
000260 25 0f 48 3c fa 1f 2b be 02 aa 48 3d a5 61 43 bc
       0.012210642 -0.16711417 0.048990257 -0.011925136
000270 c3 37 69 3d 06 6a a5 bd 44 e4 47 bc af 16 ad bd
       0.056937944 -0.08076863 -0.012200419 -0.08451592
000280 67 c7 e9 bc e8 45 ba bb 7e 89 8a bb 91 df 01 be
       -0.028537465 -0.005684603 -0.004227816 -0.1268294
000290 9d 3c 77 bd d4 ef cb 3b 4d 52 c0 bd c9 54 8a bd
       -0.06036054 0.006223658 -0.09390698 -0.06754453
0002a0 7a b6 fe bd ef ce 13 bc 82 2c a2 bc b2 9a 7a bd
       -0.124371484 -0.009021505 -0.019796614 -0.061182685
0002b0 54 88 17 3e 06 6d a4 3d 13 9c 1a 3e d4 8a 48 3d
       0.14798099 0.08028607 0.150986 0.04896052
0002c0 a0 5d 79 3c 55 5d 1a be ed 74 66 3d 9e 33 b7 3d
       0.015220076 -0.15074666 0.056263853 0.08945392
0002d0 76 fb 8a bd f0 84 ed bd b0 25 90 3c 1a 33 78 bd
       -0.067862436 -0.115976214 0.017596096 -0.06059561
0002e0 a9 a1 c3 3d 6a 35 df 3d 39 ca 32 3d 2a 91 e0 3d
       0.095523186 0.1089886 0.043649886 0.10965188
0002f0 83 14 87 3a 76 74 b9 3d 76 e5 cf bd 6b e9 41 3d
       0.0010305796 0.09055416 -0.10151188 0.047341745
000300 ce 77 c6 3d ca a4 a4 bc fd 3e 0d be e8 32 1c 3e
       0.0969082 -0.020098109 -0.1379356 0.15253794
000310 09 58 74 bd b0 5f d6 3d 57 b1 e3 3d 7a 0f 94 3d
       -0.05965427 0.1046747 0.11117809 0.072295144
000320 08 d3 2a bc 34 8d af 3d 5e 08 0b bc 08 c8 39 bd
       -0.01042629 0.08571854 -0.008485882 -0.04535678
000330 47 01 37 3d 73 af fd 3d 7a 4d 0e bc 0d 5c 08 be
       0.044678953 0.1238698 -0.008685464 -0.13316365
000340 fe 04 a2 bd 8d e3 69 3c 68 bf 8f bd 93 4e 96 3d
       -0.079111084 0.014275444 -0.0701893 0.073392056
000350 22 99 e2 3d 96 c7 16 3e f0 72 80 3d 42 b4 04 be
       0.11064364 0.14724573 0.062719226 -0.12959388
000360 5c a1 66 3d d2 70 d7 bd f3 ce e1 bc fa 29 1d bd
       0.056306228 -0.10519566 -0.027564501 -0.03837011
000370 92 5b 18 bd 1f a8 e3 3d ec ad fc 3c 54 89 c9 3b
       -0.037196703 0.11116051 0.030844651 0.006150404
000380 5b 33 9e 3d 7a 4f 95 bd ab 2e 6c 3c 4a b8 94 be
       0.07724639 -0.072905496 0.014415423 -0.2904685
000390 a7 3a 6d bd 6b 10 fa 3d d6 bb 4b bd dd 59 fa bd
       -0.057917263 0.12210163 -0.04973968 -0.12224171
0003a0 14 7b 63 3c f6 77 ec bb 9b 86 f3 bd 81 48 fa bd
       0.013884325 -0.007216449 -0.11890908 -0.1222086
0003b0 e3 8e 5d be 12 7a dd bd e1 08 bd 3d 3a 5a 5d bd
       -0.21636538 -0.10814299 0.09230209 -0.054041125
0003c0 c6 57 68 be 54 12 c3 bc e5 76 b1 bb da cb 89 3d
       -0.22689733 -0.02381245 -0.0054157847 0.06728335
0003d0 aa 90 1e 3d f6 f6 86 3d cb 11 b6 bc 2d db 47 3c
       0.03871218 0.06590073 -0.022225281 0.012198252
0003e0 41 02 0f 3d 46 b2 ad 3d bc 29 29 be 2c 34 07 3e
       0.03491426 0.084812686 -0.16519827 0.13203496
0003f0 12 cc b1 bd 07 c7 40 3d 63 6d 80 bd e9 82 b0 39
       -0.086815014 0.047064807 -0.06270864 0.00033666872

trial_output.bias f4 [3]
000000 40 73 c3 bc 8a ed 9d bd ae 72 ab bd
       -0.023858666 -0.077113226 -0.08371483

rnn.weight_ih_l0 f4 [384, 7]
000000 d4 9c a0 3d 33 4d 1e 3e 28 92 36 3e f8 71 20 3e
       0.078424126 0.15459137 0.17829192 0.15668476
000010 2e a9 31 3e 5c ed ac 3d eb c7 ff 3d 6c 40 f0 3d
       0.17349693 0.0844371 0.12489303 0.117310375
000020 45 fd 22 3e fb a8 01 3e 28 ae d6 3d 75 f2 98 3d
       0.15916927 0.12662117 0.104824364 0.0746812
000030 bf 04 55 3e a9 2a be 3d b7 a7 ca 3d cf 05 0a 3e
       0.20802592 0.092854805 0.0989527 0.13478778
000040 ae 2e e6 bc 7c 0d 96 3d ae e8 a8 3d 93 b7 17 3e
       -0.02809843 0.07326791 0.08247505 0.14816122
000050 e8 27 bf 3d 5b 05 9c 3d 40 60 d3 3d 80 9e 8d 3e
       0.093337834 0.07618209 0.103210926 0.27659988
000060 54 01 1b be 38 c3 69 bd 44 e8 10 3c b5 42 5f 3c
       -0.15137225 -0.05707094 0.008844439 0.013626744
000070 0a ca ba bd ae 76 53 bd b4 0d 6d bd 51 cf b7 bc
       -0.09120567 -0.051626854 -0.057874396 -0.022437723
000080 f0 e1 0d bd 32 1c 30 3d 17 20 94 bd b5 6d 99 3d
       -0.0346393 0.04299564 -0.07232683 0.07491628
000090 7f 0c 4d 3e 98 ab 0b 3e 6e 38 05 3e 30 4e 13 3e
       0.20024298 0.13639677 0.13009807 0.14385295
0000a0 93 6f 3a 3e b3 aa 51 3e b1 06 64 3d 97 4a 3e bc
       0.18206625 0.20475273 0.055670444 -0.011614463
0000b0 0d af bd 3d 17 f0 b0 bc e3 0f e6 3d 18 f0 af bd
       0.09261904 -0.021598859 0.11233499 -0.08590716
0000c0 2c 5c 20 bd f7 65 39 3c b8 ed 05 3d 15 dd 16 3e
       -0.039150402 0.011315814 0.03269741 0.14732774
0000d0 5b 02 b8 3d f4 74 e0 bd 53 e3 92 3e 11 d6 1b 3e
       0.08984824 -0.10959807 0.2868906 0.15218379
0000e0 39 dd 56 3c 7a ec 7e 3b 19 d1 1f 3e db 43 24 3d
       0.013114267 0.0038898275 0.15607108 0.040103775
0000f0 77 da 03 3e f0 cc 03 3d ea e4 6c 3b 2d 98 2d 3e
       0.12876306 0.032177866 0.0036147186 0.16952582
000100 3d e7 b8 3d 9b 36 25 3e d1 6c 14 3d b1 60 31 3e
       0.0902848 0.16134112 0.036236588 0.17322041
000110 04 1c 25 3e f6 18 ea 3d a6 ab 1f 3e 90 62 8e 3d
       0.16123968 0.11430542 0.15592822 0.06952393
000120 3c d7 0a 3d 5e cd 30 3e ce bd 92 3d 75 84 26 3d
       0.03389667 0.17265841 0.071651086 0.040653665
000130 b2 e5 df 3d c9 a3 34 3e 98 45 41 3e c1 b5 40 3e
       0.10932483 0.17640604 0.18874204 0.18819334
000140 63 c6 c8 3d 0a 0d 88 3e 5f 4f bd 3d 4e 76 48 3e
       0.09803464 0.26572448 0.092436545 0.1957638
000150 ef e0 d4 bc 81 ef 86 3c 7d 79 39 3e 19 8c 00 3d
       -0.025986163 0.016471626 0.1811275 0.031383608
000160 2e 4d c0 bd d5 c6 f1 3d 7f c0 3d 3e ed 68 06 3e
       -0.09389721 0.11805502 0.18530463 0.13125964
000170 69 62 15 3e c0 00 b9 3d 1a 5f 0d bd fa 19 9c 3d
       0.14588322 0.09033346 -0.034514524 0.07622142
000180 e1 f8 a3 3d 38 c9 3b ba 34 40 e0 3c db 55 ff 3d
       0.08006454 -0.0007163468 0.027374364 0.124675475
000190 76 4b c0 3d 20 43 42 3d 43 89 45 3e 83 e7 15 3e
       0.09389393 0.047427297 0.19290642 0.14639096
0001a0 70 41 93 3c 9d c4 be bd c0 1c 72 bd b9 a7 26 be
       0.017975539 -0.09314845 -0.05910945 -0.16274919
0001b0 1d 4c db 3c a0 75 f5 bd 1f 3b 80 bd a2 ca e0 bc
       0.026769692 -0.11985326 -0.062612765 -0.027440373
0001c0 df 39 df bd 99 f0 ce bd be e4 b9 bc 7f da a8 bd
       -0.1089971 -0.10104484 -0.02269208 -0.082448
0001d0 b5 5e 34 be 28 1f 92 bc 82 20 e2 bd 6c dd 8f 3d
       -0.17614253 -0.017837122 -0.110413566 0.07024655
0001e0 af 4b 08 3d 5b c9 e7 3d 43 ab 80 3d 20 6f d3 bc
       0.033275302 0.113177024 0.062826656 -0.025809824
0001f0 b5 44 ae 3d 32 e6 26 bd e5 b6 a5 bd d8 f1 2d bd
       0.085091986 -0.040746875 -0.08091525 -0.04246697
000200 8f cf 33 bd b3 c5 52 be 3a 49 24 be 48 b5 03 be
       -0.043899115 -0.20583229 -0.16043559 -0.12862122
000210 8d b3 ff bd 70 0b f1 3d 95 5a 57 3d b4 7c 29 bd
       -0.124854185 0.1176976 0.05257662 -0.04137869
000220 7a 00 d9 3d 18 71 92 3e ec e2 9e bd 9c 59 79 bd
       0.10595794 0.2860191 -0.07758126 -0.060876474
000230 61 30 63 3d 4e d9 45 3e 28 b0 4e 3e 0d b1 85 3d
       0.05546606 0.19321176 0.20184386 0.065279104
000240 60 46 e3 3d f6 e7 d0 3d 20 1a 56 3e d0 f0 c4 3e
       0.11097407 0.10200493 0.20908403 0.38464975
000250 3f 8f d6 3d a9 40 f5 3c 14 6b a0 3e 09 42 c0 3e
       0.10476541 0.029938059 0.31331694 0.3755038
000260 c7 ea 46 3e cd 3e 97 3c 8d 48 14 bd be bb 1c 3e
       0.19425498 0.018462563 -0.036202002 0.15305993
000270 3d 07 9a 3d 83 ee ba bc 7b 5b 12 bd f4 0c 1e 3e
       0.07520912 -0.02281881 -0.035731774 0.15434629
000280 6e 23 0b 3e ff cb cd 3d e6 f5 21 3e 6d 25 c1 3d
       0.13587734 0.10048675 0.15816459 0.094309665
000290 2c 52 dc 3d 83 50 cf 3c da f4 85 3d b5 bd 19 3e
       0.107578605 0.025306946 0.06540842 0.15013774
0002a0 7b 35 cd 3d 15 9c 05 3c 04 71 ed bc b8 8c 87 3e
       0.10019966 0.008154889 -0.028984554 0.26474547
0002b0 55 4b 5f 3d b0 6d 73 3d 3a 0a 96 3c f4 53 13 be
       0.0545152 0.059430778 0.018315423 -0.14387494
0002c0 9d 1e cf bd 90 36 70 bd c3 db 73 3d 47 f4 74 bd
       -0.10113261 -0.058645785 0.059535753 -0.059803274
0002d0 b8 6c 80 bd a0 3e 7a 3d 79 e6 54 3c d9 66 93 3d
       -0.062707365 0.06109488 0.012994402 0.07197351
0002e0 9e 81 e0 3d 07 f2 3d bd 93 27 01 be a6 8e 76 3d
       0.109622225 -0.046373393 -0.12612753 0.060194634
0002f0 d1 a1 51 3e 4d f1 9e 3d 2c ad 63 3e 13 d2 7c 3c
       0.20471884 0.07760868 0.22234029 0.015430945
000300 bf 20 3b 3e e9 52 4c 3e 6a 3e 01 bd 48 d9 f5 3b
       0.1827421 0.19953503 -0.031553663 0.0075027086
000310 9e e0 96 3d eb c2 11 3e 2d af 15 3e c8 a5 21 3e
       0.07367061 0.14234512 0.14617606 0.15785897
000320 d5 17 95 3d 2e cd a8 3d 6b 70 d6 3d 96 cd 5f be
       0.07279936 0.0824226 0.10470661 -0.21855769
000330 86 f1 fa bb 83 1f 64 bd c1 95 76 be b9 f3 a6 be
       -0.0076581864 -0.055694114 -0.24080564 -0.3260782
000340 85 f5 06 3c f5 72 23 3c 19 45 3f bd c0 18 c9 bd
       0.008237247 0.009976138 -0.046696756 -0.09819174
000350 4a ea 95 3c b8 75 13 3d 07 ba 78 3c 5c 31 d5 bc
       0.018300194 0.036000937 0.015181071 -0.026024513
000360 08 92 2c 3e ee 7c f2 3c 70 6e c0 3d 30 10 7c 3d
       0.16852582 0.029600587 0.09396064 0.061538875
000370 21 73 3c 3d 47 0b 18 3c 50 90 04 3e 05 44 42 bc
       0.046008233 0.0092800325 0.12945676 -0.011857037
000380 ed 5c e5 3d d7 4e 82 3d c2 a8 1b 3d 60 21 39 3e
       0.11199365 0.06362694 0.038002737 0.18079138
000390 c5 73 3e 3d ff 1a 3d 3e 8e 14 d5 3d 04 ec fe 3d
       0.046497125 0.1846733 0.10404311 0.1244736
0003a0 e5 10 19 3e 83 3d ee 3c f0 e9 c3 3d c2 f3 30 3d
       0.14947851 0.029082065 0.095661044 0.043201216
0003b0 dc 4d 9b 3d 8b b8 10 3e 04 96 37 be b9 9f 5b 3d
       0.0758321 0.14132898 -0.1792832 0.05361912
0003c0 2d 0e 2b be 29 6e 18 bd 7a 63 5f be 46 54 3c 3d
       -0.16704626 -0.037214432 -0.21815291 0.045978807
0003d0 0f b8 c9 bd 33 8e 0b be fe f3 b1 bd 6b 47 1d bd
       -0.098495595 -0.13628463 -0.08689116 -0.038398188
0003e0 d2 78 0c bd 7f 3c 22 bd 50 b4 87 bd 02 9b 8e bc
       -0.03429491 -0.039608475 -0.06626189 -0.017407898
0003f0 d2 7d c2 bd 0f c0 3c 3d d2 78 3c be 98 4a af 3d
       -0.094966546 0.0460816 -0.18405464 0.085591495

rnn.weight_hh_l0 f4 [384, 128]
000000 5e 7f 86 3c bc af 8f bc ba f8 76 3d 81 17 c8 3d
       0.016418155 -0.017539851 0.060295798 0.09770108
000010 9c 04 bd 3b 61 ee 73 bd 17 e1 aa 3d 10 a3 4b 3c
       0.0057683717 -0.059553508 0.08343714 0.012429014
000020 d5 d3 9b 3d 0a c9 23 3c 1e 24 65 bd b9 fc a7 3d
       0.07608763 0.009996662 -0.055942647 0.082025
000030 6b ed 6c bd 9c ae 3e bd 17 65 88 bb e8 73 06 be
       -0.057843607 -0.04655324 -0.0041624415 -0.13130152
000040 57 4e 93 bd b8 c6 54 bd 68 08 aa bd c4 7b 15 bd
       -0.071926765 -0.051947325 -0.083023846 -0.036494985
000050 fe a6 86 bd 86 2b 59 3d 21 3d 05 bd 7f a9 48 bd
       -0.0657482 0.053020023 -0.032529 -0.04898977
000060 94 73 39 3c cc 58 46 3c a4 c7 64 bd b0 8c 1c bd
       0.01131906 0.012106132 -0.055854455 -0.038220108
000070 7b fa 3f 3c 03 bb c0 bc cf af cc 3d 40 5b e9 3d
       0.011717434 -0.023526674 0.0999447 0.11394358
000080 d1 a6 90 3d 63 20 c5 bd 45 ff 56 3d 70 98 95 3d
       0.07063068 -0.09625318 0.052489538 0.07304466
000090 e7 c8 b2 bb 69 c2 43 3d c5 06 1d 3c 74 b4 3b bd
       -0.0054560783 0.047792826 0.0095841335 -0.04582639
0000a0 5d f1 90 bc 59 41 5c bd 50 02 a4 3d d6 b8 b0 3b
       -0.017693216 -0.053773258 0.080082536 0.005393128
0000b0 b6 5e 03 3e 16 43 dc bd da 16 2c bd b5 1f 84 3c
       0.12829098 -0.10754983 -0.04201398 0.0161284
0000c0 b6 4e 00 bc 4f df 5e 3c 88 27 4a 3d 56 8c 7f bd
       -0.007831266 0.013603046 0.049354106 -0.062389694
0000d0 f2 62 d2 3d 01 d7 b8 3d 9a 87 ec bd 96 0a b6 3c
       0.102727786 0.09025384 -0.115493014 0.022221845
0000e0 22 ed 05 3b a1 c0 28 bd 82 0e 43 bd d3 88 b8 3c
       0.0020435532 -0.04119933 -0.047621258 0.02252618
0000f0 9c 6a f7 bb 90 11 94 bc 52 67 7c bd ed 6c c3 bd
       -0.0075505506 -0.01807478 -0.06162197 -0.0954226
000100 12 72 6d bc f0 c0 4a bd c7 45 e6 3d cf 09 89 bd
       -0.0144925285 -0.049500406 0.11243778 -0.06691324
000110 2b 95 e2 3c d5 f0 41 3c 63 85 ad 3c 70 b5 ef bd
       0.02765902 0.011837204 0.021181768 -0.11704528
000120 e0 d9 d1 bd 59 ad 8d 3c 86 1f 4b bc 90 6a 8f 3d
       -0.102466345 0.017294573 -0.0123976525 0.07002747
000130 d6 9d db 3d 7e 9a 3d bd 03 31 a0 3d e5 41 d1 3d
       0.10723464 -0.046289913 0.07821848 0.102176465
000140 13 4f dc 3c 73 ba 96 3c 28 f1 cf bc f9 1f 0e 3d
       0.026893174 0.018399453 -0.025383547 0.03469846
000150 15 cc 09 bc 0f fe 9b bd 34 4a 4b 3d d6 0f 2a 3d
       -0.008410473 -0.07616817 0.049631312 0.04151901
000160 13 8b 9b bd 22 39 64 bd e0 ea 8f bd e0 14 12 3d
       -0.07594886 -0.05571855 -0.07027221 0.03566444
000170 8b aa 0e bc e9 42 f4 bc e3 28 1e 3d f3 3d 80 bd
       -0.008707653 -0.029817061 0.03861321 -0.06261816
000180 d2 f6 af bd 3d 1c 92 bc d2 05 e5 3d a6 0c 4f 3b
       -0.08591999 -0.01783573 0.11182751 0.0031593232
000190 39 74 86 3b c1 76 c7 bd 95 45 bc bc 80 e6 b6 3d
       0.0041032103 -0.097394474 -0.022982398 0.08930683
0001a0 3f 90 2a 3d d0 b4 9a bd c2 b2 19 3c 69 92 dd bd
       0.04164147 -0.075540185 0.009380998 -0.10818941
0001b0 bd af 82 3d 70 c0 72 3d 60 21 74 bd d6 26 30 3d
       0.06381176 0.059265554 -0.05960214 0.043005787
0001c0 8f ac bf bd df 72 eb 3d fe 0a 60 3d 94 e6 a2 ba
       -0.09359085 0.11496519 0.054697983 -0.0012428337
0001d0 e4 15 d9 bd e9 e5 8b bb 75 88 12 be 14 6a 28 3b
       -0.105998784 -0.004269351 -0.14309867 0.0025697993
0001e0 bd b9 f2 bc 5c 17 a8 bd d4 47 d7 3d 20 ae bf 3d
       -0.029629583 -0.082075804 0.10511747 0.093593836
0001f0 17 30 7c 3d 73 e7 ee bd 3e 8f 8e bc 6d f5 66 bd
       0.0615693 -0.11665239 -0.017402288 -0.0563864
000200 62 fb 9a bc 72 7b ab 3b f9 6e 94 bd 75 35 88 3d
       -0.018918697 0.0052332217 -0.07247729 0.06650821
000210 b7 c4 22 3d 8f d7 57 3d 79 ce a0 bc c7 c7 33 3d
       0.039738383 0.052695807 -0.019629704 0.043891694
000220 13 ba 96 3c 03 ba 95 3d 0a 40 e3 bc f9 11 28 bd
       0.018399274 0.073108695 -0.027740497 -0.041032765
000230 ac 3d 0f 3d e4 73 c0 3d ee 79 2d 3d c0 d6 85 bc
       0.034970924 0.093971044 0.04235261 -0.016337752
000240 60 1f a9 3d 78 41 c5 3b ba 7f b8 bd e6 d1 97 3d
       0.082579374 0.0060197674 -0.09008737 0.07413082
000250 54 ca 87 bd 76 d3 4a bd 7e 3c 98 3c ec 32 3b 3b
       -0.06630388 -0.04951807 0.018583532 0.0028564287
000260 67 a6 b2 bd 66 ed 89 3d 64 d4 41 3d ac 87 9f 3d
       -0.08723145 0.06734733 0.047321692 0.07789549
000270 71 08 9a bc 18 cf 5d 3d 79 6a a5 3d b4 b1 9b bd
       -0.018802853 0.054152578 0.08076949 -0.076022536
000280 55 5e c9 3d 0c 6e 8b bc ac d6 c2 3c e4 33 a7 bd
       0.098324455 -0.017020248 0.023784004 -0.08164194
000290 78 f7 a1 bd 43 a8 0c 3d 21 34 b4 bd ce 3b 75 3d
       -0.07908529 0.034340154 -0.08799005 0.059871487
0002a0 1d b8 0d 3d 11 de 02 bd 96 03 51 3d 99 2d 9b bd
       0.034599412 -0.03195006 0.05102881 -0.075770564
0002b0 c7 d6 b7 bc cc cd 87 3b f2 2a cb bd a4 79 cb 3c
       -0.022441281 0.004144406 -0.099203005 0.024838276
0002c0 66 69 aa bd 7d 00 6e bd 08 74 63 bd 84 2a 27 bc
       -0.083208844 -0.058105934 -0.055530578 -0.010203008
0002d0 65 fd c5 3d eb c6 5f 3d 51 2e 14 3a 4a 44 5e bd
       0.09667472 0.054633062 0.00056526536 -0.054264344
0002e0 9e 42 81 bd 47 9a 68 bd 2b 91 d7 bc 8e 64 50 3d
       -0.06311534 -0.056787755 -0.026314339 0.050877146
0002f0 2e c2 aa bc bf 62 8d bd b3 30 d4 bc b5 29 ba 3d
       -0.020844545 -0.069036 -0.025902128 0.09089986
000300 a7 ed 63 3d aa 8b 01 bd f2 b6 e4 3d ca 00 45 3d
       0.055646565 -0.031627335 0.111677065 0.048096456
000310 f7 f8 b8 bd 37 c1 1c 3d 8c 1e 32 bd e9 8c 52 3c
       -0.09031861 0.0382702 -0.043486163 0.012850978
000320 64 1a 6f 3d 8b 5e 92 bd 04 2d 8a b9 c0 3b 27 3c
       0.058374777 -0.07146939 -0.0002635495 0.010207117
000330 a6 9e 6a 3d e1 7a 05 3d 04 7b a8 3c ee ed 34 3c
       0.057280205 0.03258789 0.02056647 0.011043055
000340 ff 57 a2 bc ce 6a f7 bd 02 8f 4f 3c 8c 62 88 3d
       -0.01981735 -0.12080918 0.012668373 0.06659421
000350 95 50 74 3d 86 a4 96 bd 2a ae 8e 3d 20 cc c0 3d
       0.05964716 -0.07355599 0.06966813 0.09413934
000360 ef 69 82 3d 1a db 33 bd 3a 4c 9c 3d 2b ac 8c bd
       0.063678615 -0.043910123 0.076317266 -0.06868776
000370 ee a3 f9 bc 1b d5 55 bd 6f a1 a7 3b 7f dc 98 bc
       -0.030473676 -0.052205186 0.00511568 -0.018659828
000380 37 f0 29 3d 92 54 a6 bd be 6f 50 3d e5 30 39 3d
       0.041488852 -0.08121599 0.050887816 0.045212645
000390 4d 3c a0 3d db ab ec 3c d3 c5 52 3c 89 b7 fc 3c
       0.078240015 0.02889054 0.012864548 0.030849235
0003a0 c2 af c2 bd 3d 1b b0 bc a7 d7 61 3c ca bf 9e 3d
       -0.095061794 -0.021497363 0.013784326 0.077514246
0003b0 e7 78 c4 3b 4d cb 87 bd 1e 06 22 bd 1e ee bb bd
       0.005995858 -0.066305734 -0.039556615 -0.091762766
0003c0 45 ad 95 3b 90 d2 14 bd d6 47 90 3d 32 bd 6e bd
       0.0045677745 -0.03633362 0.070449516 -0.0582859
0003d0 6f 8d 66 3d 7d 5c 5b bd 3c ad de 3c 75 44 a7 3d
       0.056287225 -0.053555 0.027182214 0.08167354
0003e0 cb 29 cd bc 22 8d 42 3d 27 23 f7 3d 0a 3c 2d 3c
       -0.025044343 0.047497876 0.12067252 0.010573396
0003f0 11 15 83 bd 1c 33 3a 3d 0f c3 81 3d 14 b7 8c bc
       -0.064005025 0.045458898 0.063360326 -0.017177142

rnn.bias_ih_l0 f4 [384]
000000 b5 ed bc 3c 2f 6e 43 bd 7d b3 78 bd 13 21 95 bc
       0.023062566 -0.0477125 -0.06071805 -0.018204248
000010 ff 74 ff bc 11 f5 04 bd c7 e1 98 3d 8e 6c 1f bd
       -0.031183718 -0.032460276 0.074649386 -0.038921885
000020 85 4e a6 3d 27 b8 b8 3d fe 59 6c 3d 41 a2 71 3b
       0.08120445 0.09019499 0.05770301 0.0036870393
000030 a3 33 b2 3d c0 18 87 3d 63 d4 17 bd 91 a7 80 3d
       0.08701255 0.065965176 -0.037067782 0.06281961
000040 bb 84 1e 3d 58 e8 c6 bc 22 02 bc bd d9 4e c1 3c
       0.0387008 -0.024280712 -0.09180094 0.023597168
000050 c4 80 66 bc 23 21 aa bb eb d4 d1 3c cf 43 d6 3b
       -0.014068786 -0.0051919385 0.025614223 0.006538845
000060 f5 cf 3c 3d af 70 32 3d 2b 6f 86 3d 48 96 37 bd
       0.04609676 0.043564495 0.06564172 -0.044821054
000070 d3 df ba 3d 3d 41 bb 3d b6 a6 b4 3c 06 42 2f 3d
       0.09124722 0.091433026 0.02205215 0.042787574
000080 96 86 0a bd 86 f0 da 3d 0e 58 df bb 0a 93 a1 3c
       -0.033819757 0.106904075 -0.006815917 0.019723434
000090 c8 a1 b0 3d a0 a0 96 3d 6b ee 54 bc 4e 40 59 3c
       0.08624607 0.073548555 -0.012996296 0.01325996
0000a0 b6 ce c8 3d 11 2c 2a bd 54 cb ae 3b 82 e3 d7 bc
       0.09805052 -0.04154593 0.005334297 -0.026353601
0000b0 c3 fd 60 bd 3c f8 79 3d 46 95 ae bb 9d bf 9d 3d
       -0.054929506 0.06102775 -0.0053278534 0.07702563
0000c0 30 51 88 bd 4e d7 8c 3d d7 85 c1 3d 62 b7 8a 3c
       -0.0665611 0.068770036 0.09449356 0.016933147
0000d0 9a 64 4a 3c 38 f5 9e bc ce 44 98 3c 45 83 0a 3d
       0.012353087 -0.019404039 0.018587496 0.033816595
0000e0 3a 67 54 bd 0d f4 f4 bc 3f f1 d3 3b 62 5f 07 bc
       -0.051856257 -0.029901529 0.0064679678 -0.008262487
0000f0 d0 58 34 bd cf c3 97 3c b4 1d 46 3d 99 95 b2 3c
       -0.04403001 0.018525986 0.04836817 0.02179985
000100 1f 6e 87 3b 10 bd 0e 3c ad e6 d0 bd 57 f0 1b 3e
       0.0041330005 0.008712068 -0.10200248 0.15228401
000110 20 f0 98 bc de 40 55 3d b2 79 a4 3d 99 f7 6a 3d
       -0.018669188 0.052063815 0.08031024 0.057365034
000120 b1 82 85 3d d7 24 38 bd 5b de 45 bc 79 4a 6f bd
       0.06519068 -0.04495701 -0.012076939 -0.058420632
000130 d8 ad 6b 3c 08 b6 1f 3d 4d 57 3b bd 25 77 86 bd
       0.014384709 0.038991958 -0.045737553 -0.06565694
000140 73 71 52 3c 5d 20 8b bd c3 2d 7b 3d d3 10 ac 3d
       0.012844431 -0.06793282 0.06132294 0.084016465
000150 58 4f 93 3d bd 8d f7 3d fa 7a bf 3c d4 be be 3a
       0.07192868 0.12087581 0.02337407 0.0014552721
000160 71 2d 16 3d 02 3e 17 bd 69 fc 5a 3d e9 07 1a ba
       0.03666443 -0.03692437 0.053463373 -0.00058758125
000170 63 44 81 bd 92 e1 f9 bc db 3c b2 bd 59 54 ad 3d
       -0.06311872 -0.030503068 -0.087030135 0.08463354
000180 a0 56 16 bb c8 aa b3 bd 1d 59 02 be c2 e6 a1 bd
       -0.0022939816 -0.08772808 -0.12729307 -0.07905342
000190 ff f5 8d bb 2b b9 8d bc 1b 70 71 3d 53 cc 99 3d
       -0.0043323035 -0.017300209 0.058944803 0.07509675
0001a0 30 f7 30 3d b0 a9 69 bd 8d 39 63 3d 7c 83 95 3d
       0.043204486 -0.057046592 0.055474807 0.07300469
0001b0 44 fd c1 3d d6 c7 a5 3d b4 06 30 bd bb da a7 3d
       0.09472135 0.08094756 -0.042975143 0.081960164
0001c0 49 d4 88 bc 14 f5 f8 3c bc e8 f4 bc 9a ce 63 bd
       -0.016702788 0.0303903 -0.029896133 -0.055616952
0001d0 05 a2 d6 3d 40 e8 9a bd fa 93 81 bd 73 ed df 3c
       0.104801215 -0.075638294 -0.063270524 0.027334904
0001e0 74 ee 63 bc bc 75 21 3c 6f 43 8e 3d 37 c3 25 bd
       -0.013911832 0.00985473 0.06946456 -0.040469375
0001f0 77 43 42 3c 47 ed df 3d 6f 68 86 3d 88 88 6f 3d
       0.011856905 0.10933929 0.06562888 0.058479816
000200 9f e1 39 be 41 86 bc bd 07 79 64 bd d1 ee 82 be
       -0.18152474 -0.092052944 -0.055779483 -0.25572827
000210 f8 e4 e1 bd 42 0f ad bd cc 60 e2 bd 6c 17 63 be
       -0.110300004 -0.08450176 -0.11053619 -0.22176903
000220 f9 a7 17 be 23 ba 26 be d7 60 78 3d a4 3f 71 bd
       -0.1481017 -0.16281943 0.06063923 -0.058898583
000230 cc 33 1a be 37 37 3c be 26 e9 4b be a4 15 f8 bc
       -0.15058821 -0.18380438 -0.19913158 -0.030283757
000240 01 ba ed bd a6 83 23 be ec 24 aa 3d ab ef c9 bc
       -0.11607743 -0.15968189 0.083078235 -0.024650415
000250 69 c5 ff bd a6 7e c2 3d c3 ea bf bd 88 ce 4c bd
       -0.12488825 0.094968125 -0.09370949 -0.05000165
000260 fa 75 8e bd 93 b5 a7 bb 95 c1 fb 3d cf 9a ae bd
       -0.06956096 -0.005118081 0.12292782 -0.08525621
000270 46 6e cc bd 25 19 3f bd 72 f7 f3 bd 7d b2 4d be
       -0.099819705 -0.04665484 -0.11912431 -0.20087619
000280 d5 77 a3 bd 62 0e 4e be 59 c8 50 bd dc 3b 68 be
       -0.079818405 -0.20122674 -0.050972316 -0.22679085
000290 5b b7 2a 3d 44 87 1a be 7e 95 b8 bd 31 af bb bd
       0.041678768 -0.15090662 -0.09012888 -0.091642745
0002a0 6b ad ba bd 71 f5 4b be 1b df 37 be 43 e1 1d be
       -0.09115108 -0.19917847 -0.17956202 -0.15417962
0002b0 3a 89 03 bd 47 67 e1 bd 81 a0 00 be 9a 64 3c bd
       -0.03211329 -0.11006027 -0.12561227 -0.04599438
0002c0 e1 20 23 be ef 43 ea bd 29 e2 88 bd 7a 25 02 be
       -0.15930511 -0.114387386 -0.066837616 -0.12709609
0002d0 ae c1 f1 bb f8 1a 12 be af 04 3b be 4a 7d 40 bd
       -0.0073778247 -0.142681 -0.18263505 -0.046994485
0002e0 22 94 a0 be 99 a0 ba 3d c3 44 1d be 77 58 73 bd
       -0.31363016 0.09112663 -0.15358262 -0.05941054
0002f0 65 a0 cb ba 62 52 ce 3c b4 0a 19 bd cc 41 db bd
       -0.0015535472 0.025185768 -0.037363723 -0.10705909
000300 d6 8f a1 bd d7 fa 7a be 1e 9a c5 bc ee c7 87 bc
       -0.07888763 -0.2450975 -0.02412134 -0.016574826
000310 44 6b 23 be 00 05 33 be 16 ab be bd 03 59 07 be
       -0.15958887 -0.17482376 -0.09309976 -0.13217549
000320 79 c9 8a be 07 67 10 be 4a c5 b5 bd f0 a3 25 be
       -0.27106836 -0.14101802 -0.088755205 -0.16175818
000330 22 53 4a be 12 25 04 bb 6d 01 42 bd 57 25 25 be
       -0.19758275 -0.0020163697 -0.04736464 -0.16127525
000340 80 dc b7 bb 52 ff 1d bc e8 68 e1 3c 95 ca c9 bd
       -0.0056110024 -0.009643393 0.027515844 -0.098530926
000350 47 7f 2c be 87 32 8a 3d 5e 39 4a be 75 7e 1c be
       -0.16845427 0.067479186 -0.19748446 -0.15282615
000360 e2 14 d7 bd 5d 6c 50 be 6c 03 a4 bd a1 cb 76 be
       -0.1050203 -0.20353837 -0.08008465 -0.24101116
000370 98 a8 e9 bd 92 76 2e be 6f 62 41 be 32 5a cb bd
       -0.1140911 -0.17037418 -0.18885206 -0.09929313
000380 24 1a 40 be 2e b7 30 be 1d c1 7c bd d3 62 ad bd
       -0.18759972 -0.17257378 -0.061707605 -0.08466115
000390 26 e6 4f bd d9 04 f6 bd e8 1e b5 bd d4 b8 22 bc
       -0.050756596 -0.12012643 -0.088437855 -0.009931762
0003a0 74 8c e4 3c e6 2c 95 bd 2d d5 7a bd 3c c8 65 bd
       0.027899005 -0.07283954 -0.061238457 -0.05609916
0003b0 26 f5 27 bd e2 13 cf bd b0 0f e0 bd 52 01 81 be
       -0.041005276 -0.10111214 -0.10940492 -0.2519632
0003c0 8f 70 82 3e ae db 55 bd a3 a4 5b be 16 ab 8d bd
       0.254765 -0.052211456 -0.21449523 -0.06917398
0003d0 57 78 43 be 83 51 28 be 5b 20 6a 3d 9f b6 d0 bd
       -0.19088875 -0.16437344 0.057159763 -0.10191082
0003e0 04 a2 28 be fc fd 9d bd a1 92 1b be a9 7e 31 bd
       -0.16468054 -0.07714459 -0.15192653 -0.043333683
0003f0 9c 76 fc bd c5 06 2f be 80 17 7b bd 3a e9 07 be
       -0.123273104 -0.17092426 -0.06130171 -0.13272563

rnn.bias_hh_l0 f4 [384]
000000 12 4a bc 3d d7 2f fd 3c c1 4a 47 bd b4 57 89 bd
       0.09193815 0.0309066 -0.048655275 -0.06706181
000010 63 22 2c bc 97 a0 68 3d 2b 88 85 3d 65 33 b5 3c
       -0.010506245 0.056793775 0.065201126 0.022119233
000020 37 68 87 3d fc 9a 9a 3d 60 4b 3a bc 63 61 75 3d
       0.06611674 0.07549092 -0.01137051 0.05990733
000030 54 57 9f 3d ab 16 9d 3d c4 0f 0d 3d 78 7d 7d 3d
       0.077803284 0.07670339 0.034438863 0.061887234
000040 11 3b 77 3c e3 b4 94 3d b9 cf 0b be f4 bb 85 bc
       0.015089766 0.07261064 -0.13653459 -0.016324975
000050 a0 9d 12 bb 80 7a 6a bd 82 15 6e bd 00 64 3d bc
       -0.0022371784 -0.05724573 -0.05812598 -0.011559486
000060 e2 f3 31 bd 86 2e 8b 3d 5b 18 93 3d fb 62 5e bd
       -0.043445475 0.06795983 0.0718238 -0.054293614
000070 03 b5 ad 3d f7 18 e5 3d f3 f3 c4 3c ba 56 f7 3c
       0.08481791 0.11186402 0.024042105 0.030192722
000080 34 ea ab 3b d1 93 ba 3d 0d 00 65 bb 5d 4e fb bb
       0.005246425 0.09110225 -0.0034942657 -0.0076692537
000090 a2 74 d5 bc 3b ed 30 bd 9e f2 67 3d 19 34 31 bc
       -0.026056591 -0.04319499 0.056627862 -0.010815644
0000a0 13 d3 6f bd 97 39 94 bd 02 3e 18 3d 5f f5 89 3d
       -0.058550905 -0.07237547 0.03716851 0.06736254
0000b0 9e b0 4e 3d fc 39 92 bc e0 8b ab bd 5c 0b ad ba
       0.050461404 -0.017849915 -0.083762884 -0.0013202238
0000c0 26 80 b7 3c 5a ec 47 3d e3 ba 5a 39 79 3c 55 bd
       0.022399973 0.048809387 0.00020859721 -0.052059624
0000d0 b9 35 a8 3d 93 71 66 bd 67 74 52 3c 3c 3f f7 bc
       0.08213372 -0.056260657 0.012845135 -0.03018152
0000e0 a2 af fe bc 60 97 ac 3d 1b e3 0c 3d 07 42 45 3d
       -0.031089608 0.0842731 0.034396272 0.04815867
0000f0 55 5f b3 3d fa 78 47 3d 1a fb 92 bd a7 8b 5e bd
       0.087584175 0.048699357 -0.071768 -0.0543324
000100 81 3a dd bd f9 eb 22 3d 93 af 5f bd c6 39 33 3d
       -0.10802174 0.039775822 -0.0546108 0.04375627
000110 28 2b b2 bd b0 7f 4f 3d 1f 14 62 3d d3 a2 85 bc
       -0.08699638 0.05065888 0.05519497 -0.016312992
000120 25 77 e3 3c d4 37 e1 bd e9 81 97 bd 51 8c 16 3d
       0.027766773 -0.109969765 -0.07397825 0.03675491
000130 98 26 94 bd b6 13 94 3d 68 37 a1 bd d1 94 aa 3d
       -0.07233924 0.07230322 -0.07871896 0.08329166
000140 d4 ed 96 bd 05 44 36 bb 10 fc 88 bd ad e9 76 bd
       -0.07369581 -0.002781154 -0.06688702 -0.060281444
000150 0e 80 4b 3d a3 a5 d8 3c 02 71 9b 3d 0b 55 88 3d
       0.04968267 0.02644617 0.07589914 0.06656846
000160 69 74 41 3d 2a 48 9d 3c d8 87 2e bd 5b 0e a4 3c
       0.047230158 0.01919945 -0.04261002 0.020026376
000170 4f d8 57 3d 4c 9b ac 3d 3b 0a 6c ba 9b 58 57 3d
       0.052696522 0.08428058 -0.000900421 0.052574735
000180 c9 b2 c5 bd 23 ce 58 bc 66 7a ec 3c f8 b2 c7 bd
       -0.09653241 -0.013232741 0.028866958 -0.097509325
000190 92 5a 3f 3c 7f 8d 91 3d 59 f7 cc bc 60 85 cc 3d
       0.0116793085 0.07107066 -0.025020288 0.09986377
0001a0 a2 df ce ba ea 47 70 bd a1 05 09 3d cf 33 68 bd
       -0.00157832 -0.058662333 0.033452634 -0.056690034
0001b0 1c 51 c5 3c c3 11 cd bc f3 65 4c bc dd eb 99 3d
       0.024086528 -0.025032884 -0.012475478 0.075156905
0001c0 c5 ee 05 3c 6d 0b 4d bd f7 fb 8a bd a0 a4 54 3d
       0.008174603 -0.050059725 -0.0678634 0.05191481
0001d0 b2 6e 2b bd 8b ec 80 bc e5 cb 9d 3d 9a 51 81 bd
       -0.041853614 -0.015737792 0.077049054 -0.063143924
0001e0 33 75 9e bc e0 31 14 bd 2b f7 d5 3c 03 43 08 bd
       -0.019342994 -0.036180377 0.026118835 -0.033267032
0001f0 6b be 8d 3d 9d 96 be 3d 1f d8 35 bd ad bb c4 bc
       0.06921085 0.09306071 -0.044395562 -0.024015272
000200 bc 6e 51 be 7c 4a 27 be c6 4e 91 bd 14 81 80 be
       -0.20452398 -0.16337007 -0.07095103 -0.2509848
000210 06 86 47 be a7 a6 03 be 73 6a c6 3b cc 68 7e be
       -0.1948472 -0.12856542 0.00605517 -0.24844664
000220 ba e8 ee bd 8e 6d 2a be 89 0e b7 bd 88 cb 2a bd
       -0.11665483 -0.16643354 -0.08938319 -0.04169801
000230 e0 ed 42 be 01 25 cd bd 4e 94 31 be 92 ce ec bd
       -0.19036055 -0.100168236 -0.1734173 -0.11562838
000240 a4 2d 58 bd 94 22 90 be 24 c5 e4 3d dc 5b 31 bd
       -0.0527779 -0.2815138 0.11170414 -0.043300495
000250 57 53 45 be 99 85 77 3e d0 26 22 be ae f8 24 be
       -0.19270073 0.24172057 -0.15835118 -0.16110489
000260 e6 8e 22 bd de 76 d3 3c 3b 02 71 3d c4 5e 1c be
       -0.03968706 0.025813516 0.058840018 -0.15270525
000270 69 20 7b be ca 10 01 bd 0c d1 8e bb 6d e4 4c be
       -0.24524082 -0.031510152 -0.0043584164 -0.20009013
000280 98 41 4e bc de 6e e5 bd ca 8c 92 bd 75 dd 94 be
       -0.012588881 -0.11202787 -0.0715576 -0.29075208
000290 04 01 ff 3c bf cf 54 bd 40 aa 47 be 3f 39 3a be
       0.031128414 -0.051955935 -0.19498539 -0.181859
0002a0 a8 d0 79 bd a4 5f 49 be 4b e3 42 be fe 42 9f bd
       -0.060990006 -0.1966539 -0.19032018 -0.077764496
0002b0 95 3b 53 bd bc f3 43 bd d9 f4 c1 bd 6a 34 fc bd
       -0.051570494 -0.047839865 -0.09470529 -0.12314685
0002c0 20 53 b1 bd 3e ba 3f be 28 b5 a5 bd 88 50 13 be
       -0.08658433 -0.1872339 -0.080911934 -0.14386189
0002d0 dd 9f 5e bd 0e de 74 be 00 cb 44 be 54 f7 c5 bd
       -0.054351676 -0.23912832 -0.19218063 -0.09666315
0002e0 4d b3 b9 be 92 87 fe 3d cc d9 48 bd f3 78 11 bd
       -0.36269608 0.12428202 -0.049035832 -0.035515737
0002f0 4b ad 56 39 d3 fc fa 3a 49 a2 fb bd d2 ad 8e bd
       0.00020473187 0.0019148834 -0.12286813 -0.06966747
000300 00 ef a4 bd e4 26 a3 be 12 f5 dd bd 04 47 29 be
       -0.08053398 -0.3186561 -0.10837759 -0.16530997
000310 e6 9f 34 be 35 06 08 be a4 d0 b6 bd 38 1a 5a be
       -0.17639121 -0.13283618 -0.08926514 -0.21299064
000320 9a e3 5a be 93 6d 34 3c b9 dc 91 3c 91 0a e4 bd
       -0.21375886 0.011012453 0.017805444 -0.11134828
000330 dd c0 e9 bd cc a5 24 3d 09 48 f0 3b f6 b3 cc bd
       -0.11413739 0.04019718 0.007332806 -0.09995262
000340 3a 54 01 bd bb 01 65 3d b9 a9 90 bd 85 ca 07 be
       -0.031574465 0.055909853 -0.07063622 -0.13260849
000350 ea 7b 39 be e9 d4 83 3c 21 ab 31 be d3 74 01 be
       -0.18113676 0.016092734 -0.17350437 -0.12642221
000360 1b 84 97 3b 69 a7 ce bd c4 69 38 be 0a 85 5e be
       0.0046239025 -0.10090525 -0.18009096 -0.21730438
000370 bf 1a ff bd f0 02 ec bd 0e ed c5 bd b8 0b 67 3c
       -0.12456273 -0.11523998 -0.09664355 0.014101915
000380 79 0a 31 be 9d 99 99 be c2 c8 62 bd 48 2c d2 bd
       -0.17289151 -0.3000001 -0.05536724 -0.10262352
000390 fc 1e ac bd a2 01 4f bd c3 00 66 be d8 ae de bc
       -0.08404347 -0.050538667 -0.22461228 -0.027182981
0003a0 74 18 9d 3d e0 b0 25 bc 85 2c 39 be e2 05 16 be
       0.0767068 -0.010112971 -0.18083389 -0.14650682
0003b0 67 f5 8c bd 90 87 0e 3c bd db 17 be 2b a6 51 be
       -0.06882744 0.008699313 -0.14829917 -0.20473544
0003c0 72 c9 95 3e 7b 9f 47 be 6b d7 1d be e5 14 36 be
       0.29255253 -0.1949443 -0.15414207 -0.17781408
0003d0 51 d2 6c be a7 9b 33 be 77 33 8f 3d ab 54 9d bd
       -0.23127104 -0.17539845 0.06992238 -0.07682165
0003e0 f9 4e 10 bd e9 89 8b bd 8a f2 a5 be 73 b2 86 3c
       -0.035231564 -0.06813414 -0.32411605 0.016442513
0003f0 11 c5 5f be 4c a0 8a be 5e 0d 88 bd be a2 0b be
       -0.21852519 -0.27075422 -0.066431746 -0.136363

exp_avg f4 [3, 128]
000000 ee 92 33 ba ef 2f 75 ba fa 11 6e 3a 31 1f b4 b9
       -0.00068502023 -0.0009353151 0.0009081658 -0.00034355515
000010 fd 32 be b8 32 1d 83 3a 65 f5 97 b9 f8 dd 19 37
       -9.069403e-05 0.0010003208 -0.00028983798 9.171192e-06
000020 83 32 12 ba 8d 9d b2 ba 63 fc cf 3a 28 af cb ba
       -0.0005576985 -0.0013627276 0.0015868064 -0.0015539872
000030 78 fe 15 ba b0 9c bd 3a 3a 26 4e 3a 1d 90 05 bb
       -0.0005721818 0.0014466252 0.00078639726 -0.0020380088
000040 28 ce 19 39 0a 9b 7f b9 57 0c 94 b9 46 7a 28 ba
       0.00014668016 -0.00024376452 -0.00028237954 -0.00064269116
000050 61 08 ac ba 20 cd 12 ba 05 1b 5d 3a b4 31 84 ba
       -0.0013125056 -0.0005600024 0.0008434507 -0.0010085613
000060 08 9c e2 b8 4c b0 25 bb 03 4e ba ba 78 d9 a8 3a
       -0.00010805583 -0.0025282083 -0.0014213923 0.0012882194
000070 41 1b 32 3a e4 6f 8b b9 ff 47 a5 3a 85 80 2e b8
       0.0006794222 -0.0002659551 0.0012609957 -4.1604526e-05
000080 09 b1 3d 3a f7 79 9a 3a e1 7c b8 b9 06 ba 00 b9
       0.0007236158 0.0011785616 -0.00035188257 -0.0001227633
000090 5f bc 00 bb a8 b8 ed b8 82 bf 94 ba b5 07 11 38
       -0.0019643528 -0.000113354356 -0.0011348578 3.457787e-05
0000a0 67 7f cd ba d8 a5 b8 b8 2c 8c aa 3a 8c d2 a2 b7
       -0.0015678228 -8.8046945e-05 0.0013011745 -1.9409948e-05
0000b0 a0 29 04 3b c6 d5 60 b9 3f 72 5a 39 36 92 5b 3a
       0.0020166412 -0.00021441941 0.0002083266 0.0008375974
0000c0 e8 ba a5 3a 75 cd 09 ba b3 29 79 3a d4 99 9c 3a
       0.0012644203 -0.0005256751 0.000950481 0.00119477
0000d0 e6 28 eb 3a 4a ff ed b9 6c 94 28 3a de fa a9 3a
       0.0017941266 -0.00045394368 0.0006430808 0.0012968441
0000e0 42 0d 24 ba 31 5f 95 39 1a 96 70 b9 8f 5f af 3a
       -0.0006258079 0.00028490418 -0.00022944101 0.0013379919
0000f0 f6 d1 d3 b9 9e f7 ae b9 85 c6 21 ba e7 04 9c 38
       -0.0004040149 -0.00033372355 -0.00061712443 7.439573e-05
000100 47 92 43 b9 b5 d0 bf b8 52 07 da b9 54 8c cc 3a
       -0.00018651142 -9.1464644e-05 -0.00041585654 0.0015605786
000110 b1 33 82 ba d5 69 2d 3a 1a c3 a5 3a a8 bd 4e 39
       -0.0009933618 0.00066151965 0.0012646646 0.00019716343
000120 e0 72 18 ba f6 8a 3b b9 2a 40 05 3a 70 5c d5 39
       -0.00058154576 -0.00017885477 0.00050831086 0.00040695397
000130 f3 66 50 b9 a0 b7 d5 3a 83 3a ac 3a 51 8d 91 ba
       -0.00019874777 0.0016305335 0.0013139996 -0.0011104738
000140 3f 27 7b ba 29 5a a6 ba a8 a1 f2 b9 7a c2 a0 3a
       -0.0009580738 -0.0012691665 -0.0004627828 0.001226499
000150 a1 3a 87 3a 7e fd eb 3a bc 54 80 3a 2f 16 7b 38
       0.0010317155 0.0018004624 0.0009790878 5.9863723e-05
000160 06 e8 de ba 5b 25 52 ba 90 5e b5 b9 82 d6 13 ba
       -0.0017006404 -0.00080164307 -0.00034593465 -0.0005639569
000170 ab b6 29 38 9d ab d1 3a 38 e0 c6 39 f4 54 38 b9
       4.0462863e-05 0.0015996579 0.0003793256 -0.00017579255
000180 fb c9 8b 3a 80 90 f4 39 1e 74 dd 3a 71 e3 7a ba
       0.0010665053 0.00046646968 0.0016895568 -0.00095706346
000190 ec 7e b7 37 c9 59 a2 39 a3 41 8b 3a 42 6b 5c ba
       2.1874403e-05 0.00030965943 0.001062442 -0.00084083166
0001a0 3f 53 a9 ba 46 26 2c b9 bd d9 73 ba 41 18 5f b9
       -0.0012918486 -0.00016417456 -0.000930216 -0.00021275973
0001b0 10 7c 92 39 bb 8c fa ba 28 45 9a 39 09 b0 11 ba
       0.00027939724 -0.0019115427 0.00029424694 -0.00055575423
0001c0 7a 5a 83 ba cc 5e 79 38 b6 b6 30 3a 02 7a 33 3a
       -0.0010021471 5.9454513e-05 0.0006741093 0.00068464887
0001d0 c7 82 15 3a 60 e5 85 b9 8f 0e 34 ba 69 4f 27 3a
       0.0005703386 -0.00025538635 -0.00068686245 0.00063823775
0001e0 74 57 e2 38 cd 1e 0a 3a bf de db 39 e7 33 ff 39
       0.00010792809 0.0005268872 0.00041936894 0.0004867606
0001f0 56 28 98 b9 ed a7 17 38 e6 88 59 ba ff 0c 7f 39
       -0.00029021752 3.61576e-05 -0.00082982925 0.00024323536
000200 e2 e2 0d b9 10 6b 80 39 10 72 70 38 0e f0 82 b9
       -0.00013531328 0.0002449383 5.7326688e-05 -0.00024974387
000210 c2 8a 74 39 59 24 3b b9 dd 71 16 39 0a 9c 33 b9
       0.00023321345 -0.0001784725 0.00014347532 -0.000171289
000220 1d 54 c7 b5 d6 32 c3 39 47 cf 50 ba e5 cb 80 39
       -1.4851136e-06 0.00037231174 -0.0007965457 0.00024565976
000230 b8 35 b5 b6 31 3a 65 38 dd 04 81 39 c0 e0 8a 3a
       -5.400474e-06 5.465205e-05 0.0002460842 0.0010595545
000240 39 7e d0 39 ea bb 24 b9 56 84 d5 38 50 2b 13 b9
       0.00039766895 -0.00015710262 0.00010181281 -0.00014035148
000250 25 58 c3 38 9e 5d a1 b7 b0 27 70 b9 e8 79 96 b8
       9.314743e-05 -1.923629e-05 -0.00022902968 -7.175264e-05
000260 eb 5a d7 b9 69 2d 70 3a 41 7e 4a ba ba d1 06 39
       -0.00041075735 0.000916204 -0.0007724502 0.00012857365
000270 54 86 8e b7 bb a8 bb 39 a6 22 88 b9 35 f0 e1 b8
       -1.699027e-05 0.00035793133 -0.00025965757 -0.00010773578
000280 93 15 6f 39 6c d1 5f 39 6f 67 10 3a b1 44 db 38
       0.00022800853 0.00021344953 0.0005508577 0.000104555285
000290 62 4b 55 3a 51 17 39 b8 a8 5d 02 3a dd ec 2e 38
       0.0008136538 -4.4129152e-05 0.00049730623 4.170543e-05
0002a0 cd b5 0d 39 02 17 58 b9 be b7 ae 39 ad 14 df 39
       0.00013514534 -0.00020607936 0.00033324765 0.0004254928
0002b0 21 45 6b ba 35 2e b3 38 40 96 0c ba 60 74 b4 39
       -0.00089748396 8.543992e-05 -0.0005362965 0.00034418982
0002c0 99 d6 0e 38 49 08 ab 39 a0 16 87 38 a1 03 74 39
       3.4055298e-05 0.00032621835 6.441516e-05 0.00023271005
0002d0 73 50 85 38 d6 2e bc b8 09 f8 c1 38 dc 9f b3 b9
       6.356919e-05 -8.9732624e-05 9.249157e-05 -0.00034260645
0002e0 3a 6e 59 b9 55 dd 18 ba ca 43 1f b9 54 4e 94 b9
       -0.00020735795 -0.0005831321 -0.00015188675 -0.0002828712
0002f0 3b f8 1f b9 4d ff d5 b8 31 95 5a 38 0d 36 f1 38
       -0.00015255895 -0.00010204185 5.2114196e-05 0.00011501843
000300 69 76 32 38 7e 3e ff 39 cb d5 98 39 2f 58 47 ba
       4.2548785e-05 0.0004868395 0.00029150987 -0.0007604388
000310 f0 7c 5a 38 64 0d 09 38 21 ab a6 b7 15 ba 45 39
       5.2091607e-05 3.2675816e-05 -1.986843e-05 0.00018856705
000320 c6 f8 b6 39 d7 3f ef b7 17 9e 17 b9 38 e6 be b7
       0.00034899096 -2.8520748e-05 -0.00014459375 -2.2756969e-05
000330 67 c9 93 b9 cb 1b a5 b9 bf e8 3f ba 03 30 4c 39
       -0.0002818808 -0.0003149196 -0.00073207536 0.00019472842
000340 68 aa 7e 39 cb 56 4b 38 ac e5 e4 38 f2 37 f7 b8
       0.00024286809 4.8479804e-05 0.00010914667 -0.000117882984
000350 c2 09 32 39 1e 14 6b ba 11 25 74 37 a4 33 51 39
       0.00016979038 -0.0008967536 1.45521635e-05 0.00019951031
000360 57 ca 89 b9 6c 23 5a 38 00 59 cb 39 eb f5 49 b9
       -0.0002628143 5.200824e-05 0.00038785487 -0.00019260465
000370 62 23 93 39 28 c3 d3 36 bd b1 5d 39 85 99 fe 39
       0.00028064387 6.311009e-06 0.00021142415 0.00048561036
000380 1e 42 2d b9 01 4d 24 b9 37 3d cf b9 b2 d6 b0 38
       -0.00016523196 -0.00015668945 -0.00039527725 8.432324e-05
000390 29 bb 3a b9 d6 b1 83 b9 c5 55 33 39 6f ae 0d 39
       -0.00017808065 -0.00025118765 0.00017102722 0.0001351179
0003a0 cc da cc b8 67 f4 9d 39 81 c9 e5 37 93 2f 0e 3a
       -9.768232e-05 0.00030127467 2.739276e-05 0.0005423959
0003b0 f9 82 ec 39 1b 8d 2b 3a 62 28 2a b7 42 e1 5c 39
       0.0004511101 0.00065441587 -1.0142192e-05 0.0002106475
0003c0 ed a4 4b 3a 0d 14 66 b9 19 47 e9 38 c4 8d a9 38
       0.00077684113 -0.00021941979 0.00011123549 8.084954e-05
0003d0 73 29 6c 39 c6 01 bb b9 cd 0f 9b 39 8a 2e 8d b8
       0.00022522155 -0.0003566874 0.00029575676 -6.7320725e-05
0003e0 7b 69 54 39 02 e1 ef b8 59 ca a9 b9 a8 3f 00 ba
       0.0002025719 -0.00011438319 -0.00032384953 -0.0004892298
0003f0 3a 36 52 b8 68 46 e2 39 27 0d 92 b8 ec ea dd b8
       -5.0118404e-05 0.00043158536 -6.964272e-05 -0.00010581859
