saved_models/MB0_GRU_HS=8_N=1_ZP0/checkpoint499.pth (torch, 11440 bytes, 18 tensors)

trial_output.weight f4 [2, 8]
0.7956636 0.6640686 -0.8375545 0.46569437 -0.8723925 0.6375858 0.68806523 0.19123356
0.08243823 0.25035912 -0.14438942 0.02267241 -0.11094892 -0.540027 -0.09017644 -0.5216457
00000000: 9cb0 4b3f 6600 2a3f f969 56bf 7e6f ee3e
00000010: 1d55 5fbf d338 233f 0b25 303f bbd2 433e
00000020: 60d5 a83d 122f 803e d2da 13be 7dbb b93c
00000030: 3039 e3bd 363f 0abf 6dae b8bd 938a 05bf

trial_output.bias f4 [2]
-0.1570952 -0.56329054
00000000: 90dd 20be cf33 10bf

rnn.weight_ih_l0 f4 [24, 4]
0.14406572 -0.108679 0.09317135 0.60890937 -0.92241913 0.5256509 0.7590645 -0.39965725
0.42793426 -0.12612341 0.01474643 0.27268404 -0.36436754 0.9051385 0.5638604 0.23902012
0.56190133 -0.5826625 0.8154325 -0.5384593 -0.5879836 0.723059 0.53977233 -0.10269894
0.6948872 0.13217111 0.052951198 0.2634419 -0.5981789 0.052422445 0.12636517 -0.022987327
-0.63905746 0.42179665 0.98202205 -0.37461138 -0.862006 1.2048492 0.69293433 -0.7036485
0.7507683 -0.7692119 0.93438387 -1.0529307 -0.59999335 0.17876892 0.39664716 -0.9225185
0.19712594 -0.35458693 0.5551824 -0.2825923 -0.90724105 0.32582626 0.7980124 -0.5193076
0.15818948 -1.2763972 0.83215624 -0.3715085 0.2928306 0.7573112 0.5345696 0.14789088
-0.51711905 0.18647555 0.47425988 -0.20093793 -0.59603244 0.65313303 1.0041267 -0.80864733
0.2991675 -0.5262919 0.54657936 -0.51236004 -0.74524724 0.8245325 0.98367083 -0.5257391
0.5503506 -0.5477284 0.7533136 -0.49013835 -0.6582678 0.5885779 0.6310055 -0.5290131
-0.42548534 0.020213915 -0.81617004 0.27820835 0.2727665 -0.16706593 0.24701819 0.53201425
00000000: f785 133e 1893 debd 9fd0 be3d 7ce1 1b3f
00000010: a923 6cbf 0f91 063f 0d52 423f e09f ccbe
00000020: 331a db3e 7f26 01be 039b 713c 3e9d 8b3e
00000030: 628e babe 28b7 673f 2859 103f b1c1 743e
00000040: c4d8 0f3f 5f29 15bf 2fc0 503f 78d8 09bf
00000050: 1886 16bf 651a 393f 852e 0a3f d253 d2bd
00000060: 21e4 313f dd57 073e 5be3 583d dbe1 863e
00000070: 4122 19bf ebb8 563d df65 013e eb4f bcbc
00000080: 4599 23bf bbf5 d73e cc65 7b3f 10cd bfbe
00000090: 6dac 5cbf 8038 9a3f 2564 313f 4f22 34bf
000000a0: 5a32 403f 12eb 44bf c833 6f3f 6fc6 86bf
000000b0: 2a99 19bf 330f 373e 5615 cb3e 2c2a 6cbf
000000c0: 62db 493e 6b8c b5be 6f20 0e3f f0af 90be
000000d0: f340 68bf b3d2 a63e 8a4a 4c3f 58f1 04bf
000000e0: 6cfc 213e fc60 a3bf 3108 553f 5d36 bebe
000000f0: e4ed 953e 26df 413f 8ed9 083f b570 173e
00000100: ea61 04bf 72f3 3e3e 31d2 f23e acc2 4dbe
00000110: 9595 18bf ba33 273f 3987 803f 8303 4fbf
00000120: 7c2c 993e 11bb 06bf a0ec 0b3f 072a 03bf
00000130: 86c8 3ebf 9014 533f dad1 7b3f d696 06bf
00000140: c7e3 0c3f ee37 0cbf 29d9 403f 6af3 fabe
00000150: 3d84 28bf 0bad 163f 9489 213f 676d 07bf
00000160: 37d9 d9be a797 a53c 85f0 50bf 5371 8e3e
00000170: 0da8 8b3e 5513 2bbe 56f2 7c3e 1632 083f

rnn.weight_hh_l0 f4 [24, 8]
0.24725835 -0.12735964 -0.7373053 -0.5444237 -0.26946512 0.10364449 0.17969975 0.5464607
0.032138493 -0.074713804 -0.02153248 0.16272274 -0.20948538 -0.1466025 -0.011056491 0.51201063
0.18686903 -0.24174687 -0.29871583 0.17824656 -0.009396084 -0.14969292 -0.22451517 0.1849947
-0.415376 -0.25222024 -0.11267606 -0.21591662 -0.45669535 -0.40934485 -0.37453625 0.30732068
0.29937974 -0.19499426 -0.038744975 -0.1900751 0.48657706 -0.32118443 -0.18641122 0.30943304
-0.038790684 -0.34748432 -0.48837817 -0.31805715 -0.17942719 0.048075758 -0.21767777 0.16431503
-0.4283832 -0.48198748 -0.39163756 -0.13337706 -0.6764486 0.52288973 0.1852604 0.64032793
0.5952755 0.5668006 -0.2858401 0.08257439 -0.056789137 0.57323074 0.36345923 0.4836879
0.33228478 -0.06097569 0.12058394 -0.3314162 -0.027708186 -0.50359905 -0.44184354 -0.2058659
0.048290797 0.104047194 0.11041353 -0.12030091 0.37292528 -0.12880786 -0.0683299 -0.0483991
-0.15413411 -0.2903845 -0.17735021 0.26521248 0.07216168 -0.079093926 0.2901641 0.050018482
-0.2910303 -0.25350222 -0.38846508 0.14826414 -0.06112786 -0.37123397 -0.014432429 -0.12761255
0.28539068 -0.43770567 -0.5663624 -0.32084975 -0.3874916 0.042162426 0.18723331 -0.51454556
0.053801704 -0.5364914 0.18691348 -0.07354018 0.24752754 0.36732417 -0.2593051 -0.34745225
-0.12777622 0.7119266 0.07741452 0.07942882 -0.2340934 -0.2716285 -0.040243395 0.06593776
-0.6068024 -0.30533382 0.72671735 -0.46552306 0.110917 -0.0308802 -0.5556074 -0.23659876
0.18007697 0.46631223 -0.117905505 0.18765907 -0.36925223 0.28478518 0.3228203 0.14061958
0.2886246 0.16103028 -0.071329094 0.28973126 -0.45463815 0.10876081 -0.010844439 0.68897057
-0.32104617 -0.27493462 0.13433516 0.04436979 0.21167436 0.036878955 -0.7767758 0.17875275
0.3408825 0.5051219 0.040073235 0.4653544 0.18785428 0.056578085 0.05451495 -0.3182835
0.14555284 -0.07323394 0.41230905 0.025348524 0.23523529 0.18688382 -0.46061516 0.7352682
0.05612284 0.39168733 -0.033951104 -0.013839719 -0.28350955 0.6181048 0.09550446 0.07702887
0.08475421 0.5241254 -0.4298174 0.52080536 -0.60706854 0.08916712 0.11293635 -0.65647584
0.4362757 0.31388715 -0.2132962 -0.06184384 -0.21119131 0.45563218 0.18407309 0.26177022
00000000: 4b31 7d3e 916a 02be 0ac0 3cbf 5a5f 0bbf
00000010: 55f7 89be 9043 d43d 3603 383e d9e4 0b3f
00000020: a7a3 033d 8d03 99bd e264 b0bc caa0 263e
00000030: 5683 56be f71e 16be 4926 35bc 2113 033f
00000040: 985a 3f3e 7e8c 77be 48f1 98be 4486 363e
00000050: 08f2 19bc 1a49 19be 4ee7 65be 406f 3d3e
00000060: 2aac d4be 0323 81be b5c2 e6bd 3f19 5dbe
00000070: f9d3 e9be a695 d1be 37c3 bfbe 2359 9d3e
00000080: 4d48 993e 93ac 47be 0db3 1ebd 0ca3 42be
00000090: a120 f93e 4972 a4be 95e2 3ebe 026e 9e3e
000000a0: fbe2 1ebd 77e9 b1be b40c fabe 63d8 a2be
000000b0: c3bb 37be 16eb 443d ece6 5ebe 3342 283e
000000c0: 0b55 dbbe 10c7 f6be b884 c8be ff93 08be
000000d0: bc2b 2dbf 1adc 053f e7b4 3d3e 88ec 233f
000000e0: fa63 183f d819 113f a259 92be c31c a93d
000000f0: ba9b 68bd 40bf 123f 5417 ba3e f1a5 f73e
00000100: 3b21 aa3e a5c1 79bd b6f4 f63d 62af a9be
00000110: 47fc e2bc deeb 00bf 5139 e2be 83ce 52be
00000120: 92cc 453d b216 d53d 7d20 e23d 5360 f6bd
00000130: 10f0 be3e 35e6 03be 8cf0 8bbd 223e 46bd
00000140: 55d5 1dbe 47ad 94be 4b9b 35be eec9 873e
00000150: 81c9 933d fffb a1bd 6490 943e 2ee0 4c3d
00000160: ec01 95be 0bcb 81be e5e4 c6be 8ed2 173e
00000170: 3561 7abd 6112 bebe ff75 6cbc ddac 02be
00000180: ba1e 923e f51a e0be 20fd 10bf 6b46 a4be
00000190: 4d65 c6be 82b2 2c3d 17ba 3f3e 42b9 03bf
000001a0: 2d5f 5c3d 8057 09bf 3f66 3f3e 3c9c 96bd
000001b0: dc77 7d3e ea11 bc3e a3c3 84be 43e5 b1be
000001c0: c5d7 02be d240 363f 818b 9e3d 94ab a23d
000001d0: 2eb6 6fbe e412 8bbe 42d6 24bd 600a 873d
000001e0: 6757 1bbf b754 9cbe 260a 3a3f 0a59 eebe
000001f0: 7428 e33d 79f8 fcbc 493c 0ebf f246 72be
00000200: 1966 383e 7ac0 ee3e 7178 f1bd b329 403e
00000210: a10e bdbe 5dcf 913e b448 a53e 94fe 0f3e
00000220: 9bc6 933e 1fe5 243e fd14 92bd a857 943e
00000230: 55c6 e8be fdbd de3d e0ac 31bc 6060 303f
00000240: 2a60 a4be 3bc4 8cbe 288f 093e 19bd 353d
00000250: 2ac1 583e 630e 173d c7da 46bf f60a 373e
00000260: 2788 ae3e ab4f 013f d523 243d ef42 ee3e
00000270: df5c 403e 6cbe 673d 114b 5f3d 0ef6 a2be
00000280: ce0b 153e adfb 95bd 2c1a d33e b5a7 cf3c
00000290: 85e1 703e 795e 3f3e c0d5 ebbe 893a 3c3f
000002a0: 10e1 653d 3e8b c83e 5010 0bbd fdbf 62bc
000002b0: 2a28 91be 1e3c 1e3f d897 c33d 50c1 9d3d
000002c0: 9e93 ad3d 152d 063f 0711 dcbe 8053 053f
000002d0: d868 1bbf 409d b63d 2c4b e73d cd0e 28bf
000002e0: 875f df3e d1b5 a03e 526a 5abe f74f 7dbd
000002f0: 8942 58be 9f48 e93e a87d 3c3e bf06 863e

rnn.bias_ih_l0 f4 [24]
0.07790358 0.27189934 0.2881256 0.17071736 -0.12740944 0.16620402 0.28734824 0.014013931
-0.36831677 -0.80411994 -0.39206922 -0.34745368 -0.7321388 -0.34491023 -0.3998915 0.38418505
0.3377044 0.10320648 0.2844907 0.37103808 -0.13570681 0.6426497 0.08397983 0.4432394
00000000: ea8b 9f3d 6436 8b3e 3385 933e 88d0 2e3e
00000010: 9f77 02be 6331 2a3e 4f1f 933e b09a 653c
00000020: 0494 bcbe ceda 4dbf 4cbd c8be 73e5 b1be
00000030: 736d 3bbf 1398 b0be 94be ccbe e7b3 c43e
00000040: 97e7 ac3e eb5d d33d c4a8 913e b4f8 bd3e
00000050: baf6 0abe b184 243f 9efd ab3d 46f0 e23e

rnn.bias_hh_l0 f4 [24]
0.15266667 -0.07833352 0.08776516 0.11272828 0.16310832 0.23396143 -0.05424511 -0.31515214
-0.18299012 -0.4773181 -0.08472164 -0.34749997 -0.4740453 -0.4175579 -0.46642208 0.1252343
-0.12755957 0.7746649 0.4005808 0.5925802 0.723415 0.33265403 -0.12553272 0.18937951
00000000: a754 1c3e 536d a0bd 38be b33d 16de e63d
00000010: de05 273e 9693 6f3e 1f30 5ebd 9f5b a1be
00000020: c361 3bbe 0a63 f4be 8a82 adbd 84eb b1be
00000030: 11b6 f2be 26ca d5be e0ce eebe 6c3d 003e
00000040: fa9e 02be 7050 463f ed18 cd3e 56b3 173f
00000050: ba31 393f a151 aa3e a68b 00be b4ec 413e

exp_avg f4 [2, 8]
-0.005547126 -0.01117043 0.008770403 -0.0091457255 0.010179595 -0.008110508 -0.008455937 -0.00045189052
-0.00036006465 -0.0005583313 -0.0003601948 -0.000602547 -0.00077001116 -0.000112021415 0.000449974 0.0034864536
00000000: aac4 b5bb 2e04 37bc bdb1 0f3c f4d7 15bc
00000010: 51c8 263c f0e1 04bc c58a 0abc b8eb ecb9
00000020: 0fc7 bcb9 fb5c 12ba 87d8 bcb9 3ff4 1dba
00000030: 93da 49ba 0aed eab8 7dea eb39 fc7c 643b

exp_avg_sq f4 [2, 8]
0.00061465194 0.0012916838 0.000272577 0.002716417 0.0006616215 0.00045552905 0.0009908758 0.00019280057
2.8066675e-06 1.3875685e-06 7.646823e-07 2.099802e-06 4.5825354e-06 5.845185e-06 1.02033e-06 6.4438325e-05
00000000: 9820 213a b74d a93a aae8 8e39 ea05 323b
00000010: ab70 2d3a 13d4 ee39 46e0 813a 822a 4a39
00000020: 2e5a 3c36 7e3c ba35 9144 4d35 53ea 0c36
00000030: aec3 9936 c221 c436 46f2 8835 1023 8738

exp_avg f4 [2]
0.0006671899 0.0039154966
00000000: 5be6 2e3a 914d 803b

exp_avg_sq f4 [2]
0.00022502821 0.00015405765
00000000: 8df5 6b39 898a 2139

exp_avg f4 [24, 4]
-3.37454e-05 -9.5131916e-05 9.4355986e-05 -0.0002232333 0.0002555253 -0.0003115452 -0.00036947028 0.00031345032
-0.0002571285 -3.8224705e-05 -0.00042884867 0.0001334955 0.00017139781 -0.00017581228 -0.00022978215 0.00022536766
-0.00064244785 0.0006284606 -0.00085039024 0.00083640305 0.00013791343 -0.00019387949 -0.00016360995 0.0001076439
-0.00020325059 5.4587323e-05 -3.4664616e-05 -0.00011399866 1.1703539e-05 -1.646375e-05 2.6211633e-06 -7.381372e-06
0.00043129903 -0.00060395536 -0.00053782784 0.0003651716 0.0006385907 -0.00080937566 -0.00042075236 0.00024996742
-0.00084160897 0.00071155594 -0.0003647842 0.00023473112 0.00033768872 -0.00039076922 -0.00022479842 0.00017171791
-0.0004277718 0.000453195 -0.00029897408 0.0003243973 0.0005029244 -0.00051764667 -0.00034543592 0.0003307137
-0.00092218275 0.00066278165 -0.0003668117 0.00010741075 -1.5882244e-05 -6.41155e-06 -1.3169802e-05 -9.123988e-06
0.00020450086 -0.0010896745 -0.001847727 0.0009625532 0.0012966126 -0.00095509266 -0.0012872159 0.0016287358
-0.0014207715 0.0012338321 -0.0025799691 0.0023930294 0.00059988064 -0.0006551918 -0.0013867385 0.0013314274
-0.00163083 0.002608973 -0.0018875393 0.0028656821 0.000919419 -0.0008617969 -0.0016394701 0.0016970922
0.00083413534 -0.00035001535 0.0022317972 -0.0017476771 -0.0003816357 -0.0002059124 -0.00017564643 -0.00041190165
00000000: d989 0db8 8f81 c7b8 fce0 c538 bc13 6ab9
00000010: 06f8 8539 e456 a3b9 76b5 c1b9 9756 a439
00000020: 34cf 86b9 7753 20b8 18d7 e0b9 edfa 0b39
00000030: 40b9 3339 405a 38b9 adf1 70b9 ac50 6c39
00000040: f269 28ba 47bf 243a b9ec 5eba 0f42 5b3a
00000050: db9c 1039 214c 4bb9 b68e 2bb9 e1be e138
00000060: aa1f 55b9 b1f4 6438 d964 11b8 9112 efb8
00000070: 515a 4437 a21b 8ab7 3ee7 2f36 81ad f7b6
00000080: fa1f e239 c252 1eba 04fd 0cba 8174 bf39
00000090: 1967 273a 482c 54ba 6d98 dcb9 0f0e 8339
000000a0: 6c9f 5cba b687 3a3a 8240 bfb9 2822 7639
000000b0: d00b b139 28e0 ccb9 deb7 6bb9 2d0f 3439
000000c0: 8f46 e0b9 ce9a ed39 9fbf 9cb9 de13 aa39
000000d0: afd6 033a aeb2 07ba a01b b5b9 a463 ad39
000000e0: a3be 71ba 86be 2d3a a250 c0b9 b541 e138
000000f0: dc3a 85b7 cc22 d7b6 def3 5cb7 3b13 19b7
00000100: 486f 5639 69d3 8eba 6e2f f2ba da53 7c3a
00000110: 19f3 a93a 2f5f 7aba ccb7 a8ba 4e7b d53a
00000120: 2e39 baba 89b8 a13a b314 29bb 5fd4 1c3b
00000130: 4f41 1d3a 2dc1 2bba 39c3 b5ba 4a83 ae3a
00000140: 93c1 d5ba 4efb 2a3b 4f67 f7ba 2bce 3b3b
00000150: 2a05 713a 36ea 61ba 7de3 d6ba f770 de3a
00000160: e0a9 5a3a 4482 b7b9 5843 123b 5012 e5ba
00000170: 4716 c8b9 30ea 57b9 bb2d 38b9 81f4 d7b9

exp_avg_sq f4 [24, 4]
5.167512e-07 1.2373475e-06 1.9514704e-07 1.689682e-06 1.3965383e-06 1.9213678e-06 2.3199429e-07 6.6746605e-07
1.5205198e-07 4.6065182e-07 1.2761964e-07 4.9732733e-07 6.8239524e-07 1.728559e-07 1.316403e-07 5.242624e-07
1.1304794e-06 9.928059e-07 1.3326859e-06 1.046044e-06 2.200983e-07 1.572776e-07 2.7703663e-08 1.3485678e-07
6.6894853e-07 1.6777983e-06 2.764591e-07 2.5553377e-06 9.193395e-09 2.0043473e-07 1.2593998e-08 9.0848395e-08
5.738804e-07 2.2554424e-07 5.087235e-07 1.3090539e-06 1.444159e-06 1.0930764e-06 7.8580035e-07 1.1189584e-06
5.133805e-07 3.6662206e-07 4.6126354e-07 2.6597007e-07 5.38252e-07 2.5678673e-07 5.071516e-07 1.3641619e-06
2.4100444e-07 5.5335374e-07 6.0136307e-07 1.7179688e-06 2.9655337e-07 2.648276e-07 3.801697e-07 7.803541e-07
3.984673e-07 2.3059121e-07 1.5937445e-07 2.1354403e-07 5.8103982e-08 1.5781161e-08 6.289921e-08 3.3120976e-08
9.922131e-05 0.00020834112 5.2118694e-06 1.5750766e-05 7.22004e-05 6.890304e-05 1.2764164e-05 9.0753e-06
8.0822996e-05 0.00016705533 1.6000366e-05 1.8319288e-05 2.3913202e-05 2.0393381e-05 6.2317367e-06 4.0946475e-06
0.00026136433 0.00026200057 3.0289835e-05 2.1527168e-05 1.1810194e-05 1.3784346e-05 5.3031054e-06 4.929344e-06
8.952759e-05 0.000102962025 1.1172961e-05 5.3489407e-06 1.4253059e-05 7.617587e-05 2.116233e-06 1.598292e-05
00000000: dfb6 0a35 f012 a635 9c89 5134 08c9 e235
00000010: b170 bb35 d9f0 0036 1b1a 7934 eb2b 3335
00000020: bb43 2334 814f f734 d207 0934 1380 0535
00000030: d82d 3735 459a 3934 0359 0d34 0abb 0c35
00000040: faba 9735 8d40 8535 bdde b235 cc65 8c35
00000050: 2954 6c34 23e0 2834 00f9 ed32 26cd 1034
00000060: cb91 3335 b630 e135 406c 9434 5e7c 2b36
00000070: fbf0 1d32 1437 5734 fd5c 5832 6f18 c333
00000080: c30c 1a35 212d 7234 368f 0835 c0b2 af35
00000090: edd4 c135 d2b5 9235 caef 5235 1e2f 9635
000000a0: 3dcf 0935 27d4 c434 94a3 f734 a6ca 8e34
000000b0: 657c 1035 80dc 8934 3123 0835 3f18 b735
000000c0: 6663 8134 2e8a 1435 5b6d 2135 f594 e635
000000d0: fc35 9f34 a12d 8e34 201a cc34 8779 5135
000000e0: eeec d534 6e98 7734 8420 2b34 894a 6534
000000f0: 018e 7933 248f 8732 3513 8733 e640 0e33
00000100: 0915 d038 2576 5a39 9ee1 ae36 8320 8437
00000110: 4b6a 9738 0a80 9038 ab25 5637 1e42 1837
00000120: 847f a938 932b 2f39 8638 8637 5fac 9937
00000130: 3699 c837 7412 ab37 361a d136 c164 8936
00000140: ba07 8939 1f5d 8939 ed16 fe37 3e95 b437
00000150: 6624 4637 5143 6737 54f1 b136 be66 a536
00000160: c2c0 bb38 51ed d738 8173 3b37 0d7b b336
00000170: 6c20 6f37 9cc0 9f38 9b04 0e36 0f13 8637

exp_avg f4 [24, 8]
7.1539184e-06 5.8232843e-05 -1.355456e-05 4.814144e-05 -3.78276e-05 3.5734443e-05 2.7233595e-05 -0.00012674485
0.00019257312 4.7004783e-06 -7.738836e-05 2.872373e-06 -1.9124664e-05 5.1447532e-05 7.056485e-05 -5.6783865e-05
-0.00017773305 -8.931366e-05 0.00011694367 -0.00029610613 0.00013863605 -0.00021650895 -9.147032e-05 -0.00038455593
1.3887006e-05 2.2192103e-06 0.0001517418 6.87892e-06 0.00012521147 -9.266004e-07 -0.00012887586 -4.641758e-05
-0.000106837135 0.00024567076 2.0386394e-06 3.2843986e-05 5.532024e-05 4.3878274e-05 -5.2129795e-05 -4.6379188e-05
7.8229226e-05 2.3526422e-05 3.8348888e-05 1.2177898e-05 7.3846626e-05 1.3657952e-06 -5.756315e-06 -3.8173457e-05
-7.7218116e-05 -3.285187e-05 1.5915704e-05 -7.146816e-05 7.473225e-05 -0.00011591615 -6.883146e-05 -0.00024843554
-2.2871316e-05 -1.972708e-05 1.9455281e-05 -2.4210689e-05 1.8648612e-05 -2.491897e-05 -1.548121e-05 -1.7286735e-06
0.0001332429 -0.00012499766 4.3515774e-06 -0.0002709632 4.0452127e-05 -9.064987e-05 7.0600267e-06 -0.0001239727
-0.00018671257 -4.559106e-05 0.00015948924 -0.00017556154 0.00015701499 -0.00016603802 -0.00012534679 -8.166051e-05
0.00011351704 5.2401312e-05 -0.00039122035 0.000119924414 -0.00023494357 -0.000109322 0.00010282367 -0.00012181649
-0.00012658373 -1.2756637e-05 8.764986e-05 6.60676e-05 7.2480565e-05 1.8741386e-05 -0.00012366063 -5.4269076e-05
0.00010003263 1.2764232e-05 2.839354e-05 -2.9264336e-05 -9.861458e-05 -4.365137e-05 -0.00011569113 -0.00013971706
-7.728837e-05 -1.8203336e-05 0.00018049731 -6.440012e-05 0.00017324388 4.28056e-05 -0.00015511751 1.6292548e-05
-5.6012716e-05 -0.0001568424 -5.3495137e-06 -0.00014568106 -0.0001427907 -5.9628233e-05 0.00013290737 -0.00027956298
3.4953817e-05 3.224486e-05 -2.7646418e-05 2.4664516e-05 1.4330851e-06 5.5124065e-06 2.4434401e-05 -8.296234e-05
0.00012862627 -0.00048755316 6.553839e-05 -0.00021702494 -8.85978e-06 -0.00040931356 0.000104223946 -0.00048334882
0.00015959279 -0.0002573383 -0.00029623476 -0.00019888321 -0.000437072 -0.00031649903 0.0003418769 -0.0006299508
-0.00026870947 0.00032292394 -0.00042495073 7.021843e-05 -0.0006137874 0.00028008362 0.0005763138 5.261792e-06
9.364241e-05 -9.900136e-05 3.4511962e-05 -6.4685732e-06 3.41826e-05 -0.00016019556 2.6996753e-05 -0.00042987996
-0.0004297165 -0.00019010276 -0.00020201971 -0.0003521548 -0.0005408223 -0.00018995478 0.00026149096 -0.0007095911
0.00018538815 -0.000175859 -0.00019513728 -4.9899e-05 -0.00024146496 -0.000215312 0.00025631773 -0.00065556593
0.00010819508 -0.00019785673 0.00057968596 8.756759e-05 0.0006602178 -8.6591215e-05 -0.00057752663 9.529733e-05
-3.195023e-05 -6.800294e-05 -5.483672e-05 -6.0479848e-05 -6.444238e-05 -9.394066e-05 8.1170605e-05 -0.00012679817
00000000: b10b f036 0a3f 7438 6468 63b7 7aeb 4938
00000010: 14a9 1eb8 91e1 1538 b373 e437 d0e6 04b9
00000020: 74ed 4939 cdb8 9d36 8f4b a2b8 fec2 4036
00000030: e76d a0b7 5ec9 5738 37fc 9338 362b 6eb8
00000040: da5d 3ab9 e84d bbb8 a83f f538 b13e 9bb9
00000050: d55e 1139 ae06 63b9 c1d3 bfb8 399e c9b9
00000060: 3dfc 6837 beed 1436 e11c 1f39 79d1 e636
00000070: 334b 0339 7fbb 78b5 da22 07b9 7fb0 42b8
00000080: c00d e0b8 5fcd 8039 8fcf 0836 f6c1 0938
00000090: a807 6838 f009 3838 f1a5 5ab8 4687 42b8
000000a0: ff0e a438 9b5a c537 ced8 2038 ac4f 4c37
000000b0: 1bde 9a38 5e50 b735 5f26 c1b6 701c 20b8
000000c0: 29f0 a1b8 6dca 09b8 b782 8537 2de1 95b8
000000d0: 92b9 9c38 0218 f3b8 9c59 90b8 7440 82b9
000000e0: c7db bfb7 957b a5b7 e633 a337 0f18 cbb7
000000f0: 976f 9c37 1509 d1b7 a5dd 81b7 c504 e8b5
00000100: 1eb7 0b39 ce11 03b9 c403 9236 1110 8eb9
00000110: 24ab 2938 471b beb8 2be5 ec36 abfe 01b9
00000120: 46c8 43b9 0739 3fb8 913c 2739 f116 38b9
00000130: 64a4 2439 7e1a 2eb9 866f 03b9 2741 abb8
00000140: ff0f ee38 7bc9 5b38 b51c cdb9 ee7f fb38
00000150: 2f5b 76b9 cd43 e5b8 0aa3 d738 bb77 ffb8
00000160: 90bb 04b9 5705 56b7 a9d0 b738 c68d 8a38
00000170: b500 9838 d236 9d37 e6aa 01b9 fa9e 63b8
00000180: 9cc8 d138 f625 5637 aa2e ee37 af7c f5b7
00000190: 4dcf ceb8 4d16 37b8 349f f2b8 0381 12b9
000001a0: e115 a2b8 5eb3 98b7 e143 3d39 8d0e 87b8
000001b0: cda8 3539 2a8a 3338 0aa7 22b9 fbab 8837
000001c0: 32ef 6ab8 1076 24b9 f97f b3b6 f6c1 18b9
000001d0: 16ba 15b9 5419 7ab8 0d5d 0b39 4f92 92b9
000001e0: 609b 1238 a83e 0738 3bea e7b7 a5e6 ce37
000001f0: 6e58 c035 36f7 b836 7af8 cc37 11fc adb8
00000200: dadf 0639 479e ffb9 a871 8938 3091 63b9
00000210: 77a4 14b7 2399 d6b9 ce92 da38 fb69 fdb9
00000220: 5d58 2739 5deb 86b9 f54f 9bb9 4e8b 50b9
00000230: d026 e5b9 c8ef a5b9 f13d b339 4823 25ba
00000240: 93e1 8cb9 1e4e a939 eccb deb9 3c42 9338
00000250: 93e6 20ba 30d8 9239 c413 173a 738e b036
00000260: e361 c438 f39e cfb8 f0c0 1038 9f0c d9b6
00000270: 4a5f 0f38 2bfa 27b9 1677 e237 8361 e1b9
00000280: 934b e1b9 5256 47b9 41d5 53b9 6ba1 b8b9
00000290: f8c5 0dba 992e 47b9 b918 8939 da03 3aba
000002a0: c164 4239 ca66 38b9 c49d 4cb9 a54a 51b8
000002b0: c231 7db9 60c5 61b9 6262 8639 49da 2bba
000002c0: cbe6 e238 c377 4fb9 11f6 173a 7ea4 b738
000002d0: 7712 2d3a 4e98 b5b8 2865 17ba 5dda c738
000002e0: 4c02 06b8 cd9c 8eb8 7b00 66b8 beab 7db8
000002f0: 3d25 87b8 0202 c5b8 233a aa38 20f5 04b9

exp_avg_sq f4 [24, 8]
1.0478955e-07 1.552729e-07 9.751772e-08 2.3687241e-07 3.1113765e-07 6.0170623e-07 1.6902975e-07 7.928495e-07
4.2126433e-07 4.758331e-07 9.934162e-08 7.25612e-07 2.5702207e-07 4.9714066e-07 5.359026e-07 2.330489e-07
1.5746616e-07 9.630038e-08 9.86349e-08 2.4383527e-07 1.6380696e-07 1.250085e-07 1.1929646e-07 3.402453e-07
1.5076327e-07 1.5809755e-07 4.3100794e-08 1.674369e-07 7.38631e-08 1.6385059e-07 1.0440304e-07 2.8079637e-07
7.556027e-07 7.066083e-07 2.0233165e-07 1.1875825e-06 3.8928968e-07 5.5139276e-07 5.582769e-07 7.320232e-07
4.5145775e-08 4.1390003e-08 4.444756e-08 4.9296624e-08 6.780252e-08 4.5692833e-08 5.6137168e-08 9.731038e-08
1.8708859e-07 1.7912049e-07 7.571624e-08 3.3118178e-07 4.7285843e-07 7.332863e-07 2.1830427e-07 9.811345e-07
5.525554e-08 3.545387e-08 2.9848827e-08 1.1458484e-07 3.9680984e-08 3.6499607e-08 4.5788603e-08 1.027216e-08
2.1580153e-07 8.472263e-08 8.4767905e-08 9.996927e-08 1.12970845e-07 1.5063097e-07 1.14332614e-07 2.3542168e-07
2.274771e-07 5.2013456e-07 2.3237918e-07 2.8069024e-07 2.788158e-07 2.0893297e-07 2.7818422e-07 3.120737e-07
1.5681401e-07 1.5421438e-07 3.2961128e-07 1.7042956e-07 1.128459e-07 1.7880365e-07 1.2875253e-07 2.3828422e-07
9.445809e-08 8.372694e-08 8.469979e-08 1.093999e-07 1.2503398e-07 9.895136e-08 1.3057108e-07 1.1901464e-07
1.4051622e-07 1.4077831e-07 1.3148168e-07 1.3188128e-07 3.2982476e-07 1.5782216e-07 1.5298012e-07 2.2877185e-07
6.5252664e-08 4.4384066e-08 7.943626e-08 5.6643312e-08 1.11383265e-07 8.199196e-08 1.0021638e-07 9.464642e-08
8.449395e-08 8.805126e-08 6.2267304e-08 8.7736744e-08 6.263719e-08 1.0401832e-07 1.3220603e-07 1.5125848e-07
3.3424133e-08 3.7126952e-08 2.965965e-08 3.93274e-08 3.955467e-08 2.9338096e-08 2.8793359e-08 1.0914286e-07
1.2908877e-05 2.442883e-05 2.761107e-06 5.0837192e-05 8.079935e-06 4.5686916e-06 2.2252621e-05 5.1848597e-06
3.2829637e-06 7.0921456e-06 9.689536e-07 1.5436271e-05 3.698176e-06 2.708343e-06 7.781553e-06 2.0928405e-06
5.060339e-06 7.978281e-06 2.2064883e-06 1.9485897e-05 4.6485097e-06 2.5228148e-06 6.9626803e-06 4.588745e-06
2.4349276e-06 3.5799615e-06 8.5606786e-07 9.285858e-06 1.9330496e-06 8.548559e-07 4.259386e-06 1.998869e-06
4.0834225e-06 5.628766e-06 1.2485042e-06 1.2325651e-05 2.9554594e-06 1.9874756e-06 4.9979876e-06 4.5610914e-06
1.5733376e-06 2.035437e-06 5.828725e-07 3.38431e-06 1.0332496e-06 7.7343094e-07 2.3377759e-06 9.916191e-07
1.3385033e-05 2.4408208e-05 2.9507885e-06 5.4394823e-05 8.5910515e-06 4.344523e-06 2.1007549e-05 8.578506e-06
4.0950724e-07 4.7126318e-07 3.8790478e-07 4.3634227e-06 1.1057082e-06 5.8165995e-07 5.243124e-07 6.730554e-07
00000000: aa08 e133 17b9 2634 ef6a d133 fe56 7e34
00000010: 6f0a a734 f084 2135 8b7e 3534 34d4 5435
00000020: 212a e234 0176 ff34 a255 d533 adc7 4235
00000030: d8fc 8934 3f73 0535 f2da 0f35 fe3b 7a34
00000040: f813 2934 b2cd ce33 1cd1 d333 77e8 8234
00000050: eae2 2f34 133a 0634 f617 0034 f5aa b634
00000060: 7ee1 2134 86c1 2934 d31d 3933 b4c8 3334
00000070: ab9e 9e33 e8ee 2f34 2e34 e033 5cc0 9634
00000080: 9fd4 4a35 c1ad 3d35 8040 5934 0665 9f35
00000090: 91ff d034 6c03 1435 7fdc 1535 4080 4435
000000a0: 4ee6 4133 cac4 3133 9ce6 3e33 36ba 5333
000000b0: d49a 9133 cd3f 4433 781b 7133 f2f8 d033
000000c0: 85e2 4834 4454 4034 7199 a233 47cd b134
000000d0: 2bdd fd34 0dd7 4435 0567 6a34 86af 8335
000000e0: 1c52 6d33 f145 1833 2233 0033 af11 f633
000000f0: b46d 2a33 bec3 1c33 1aa9 4433 7079 3032
00000100: 13b7 6734 c2f0 b533 a609 b633 b0ae d633
00000110: 619a f233 20bd 2134 0587 f533 38c8 7c34
00000120: 6e40 7434 609f 0b35 e783 7934 c6b1 9634
00000130: 27b0 9534 0f57 6034 5959 9534 158b a734
00000140: b560 2834 2096 2534 6ef5 b034 52ff 3634
00000150: b155 f233 2cfd 3f34 3a3f 0a34 11db 7f34
00000160: e2d8 ca33 5fcd b333 34e4 b533 3bef ea33
00000170: 1441 0634 167f d433 1b33 0c34 fe94 ff33
00000180: cee0 1634 d928 1734 692d 0d34 409b 0d34
00000190: c512 b134 d375 2934 db42 2434 54a4 7534
000001a0: 0821 8c33 cca0 3e33 8c96 aa33 fb47 7333
000001b0: 9931 ef33 8f13 b033 8a36 d733 6b40 cb33
000001c0: 0a73 b533 b116 bd33 d0b7 8533 c969 bc33
000001d0: 2983 8633 ad60 df33 84f4 0d34 9d69 2234
000001e0: 398e 0f33 8475 1f33 43c6 fe32 efe8 2833
000001f0: d2e2 2933 2803 fc32 4455 f732 ec61 ea33
00000200: 3493 5837 83ec cc37 754b 3936 053a 5538
00000210: 0e8f 0737 c34c 9936 24ab ba37 9bf9 ad36
00000220: e350 5c36 11f9 ed36 fe0c 8235 247d 8137
00000230: 2e2e 7836 fac0 3536 848d 0237 ba72 0c36
00000240: fbcb a936 75da 0537 2e13 1436 a575 a337
00000250: 65fa 9b36 a14d 2936 f8a0 e936 05f9 9936
00000260: bd67 2336 453f 7036 89cc 6535 75ca 1b37
00000270: 8ab9 0136 4079 6535 d9eb 8e36 4f24 0636
00000280: 5504 8936 bbde bc36 4792 a735 45ca 4e37
00000290: 6856 4636 9260 0536 63b4 a736 7a0b 9936
000002a0: 782b d335 8b98 0836 b176 1c35 011e 6336
000002b0: 30ae 8a35 c59d 4f35 afe2 1c36 c617 8535
000002c0: 4790 6037 3ac0 cc37 2906 4636 ff25 6438
000002d0: 4922 1037 2bc7 9136 5e39 b037 67ec 0f37
000002e0: 3fda db34 eb01 fd34 3a41 d034 8469 9236
000002f0: d867 9435 5e23 1c35 79be 0c35 04ac 3435

exp_avg f4 [24]
-3.6481684e-05 7.2369103e-06 -0.00018685071 5.2843603e-05 1.7861883e-05 -4.749234e-06 6.761083e-06 7.258749e-07
-7.752849e-05 -2.9647434e-05 0.00010887919 -2.1996648e-05 0.00018841888 -3.9475442e-05 -0.0002853727 2.6578757e-05
-0.0006676833 0.00030730056 -0.0009787322 -2.7337463e-05 0.00032093853 0.00017374184 0.0008145989 -0.0005283834
00000000: e903 19b8 96d4 f236 5bed 43b9 63a4 5d38
00000010: 1ad6 9537 9c5b 9fb6 43dd e236 bed9 4235
00000020: cb96 a2b8 61b3 f8b7 1256 e438 7185 b8b7
00000030: 4f92 4539 6f92 25b8 139e 95b9 72f5 de37
00000040: 7807 2fba 2f1d a139 ce48 80ba c152 e5b7
00000050: a443 a839 782e 3639 cf8a 553a 3683 0aba

exp_avg_sq f4 [24]
2.5111474e-06 8.342847e-07 8.2648324e-07 7.955548e-07 1.347195e-06 2.2121286e-07 4.043515e-06 1.6795585e-07
6.028731e-07 5.2144213e-07 2.4926703e-07 4.4728029e-07 7.4795577e-07 2.8821478e-07 2.668674e-07 1.2587186e-07
2.9560657e-05 9.251464e-06 2.9477305e-05 3.9340916e-06 1.8688872e-05 4.480462e-06 1.2743967e-05 2.806063e-05
00000000: 2f85 2836 9cf3 5f35 7fdb 5d35 1c8e 5535
00000010: 45d1 b435 8786 6d34 88ad 8736 5a57 3434
00000020: 20d5 2135 3bf9 0b35 00d3 8534 bc21 f034
00000030: 21c7 4835 f0bb 9a34 fa45 8f34 6527 0734
00000040: 07f9 f737 bc36 1b37 0846 f737 9701 8436
00000050: 0cc6 9c37 e056 9636 ecce 5537 be63 eb37

exp_avg f4 [24]
-3.6481684e-05 7.2369103e-06 -0.00018685071 5.2843603e-05 1.7861883e-05 -4.749234e-06 6.761083e-06 7.258749e-07
-7.752849e-05 -2.9647434e-05 0.00010887919 -2.1996648e-05 0.00018841888 -3.9475442e-05 -0.0002853727 2.6578757e-05
-0.00021552094 -0.0006096441 -0.00062327716 -0.00039559422 -0.0012137305 -0.00051506865 0.00034421575 -0.00016757849
00000000: e903 19b8 96d4 f236 5bed 43b9 63a4 5d38
00000010: 1ad6 9537 9c5b 9fb6 43dd e236 bed9 4235
00000020: cb96 a2b8 61b3 f8b7 1256 e438 7185 b8b7
00000030: 4f92 4539 6f92 25b8 139e 95b9 72f5 de37
00000040: 76fd 61b9 86d0 1fba 6c63 23ba c267 cfb9
00000050: 0a16 9fba ac05 07ba db77 b439 02b8 2fb9

exp_avg_sq f4 [24]
2.5111474e-06 8.342847e-07 8.2648324e-07 7.955548e-07 1.347195e-06 2.2121286e-07 4.043515e-06 1.6795585e-07
6.028731e-07 5.2144213e-07 2.4926703e-07 4.4728029e-07 7.4795577e-07 2.8821478e-07 2.668674e-07 1.2587186e-07
2.3292268e-06 7.1552363e-06 5.144307e-06 2.9809755e-06 5.8850646e-06 2.1846947e-06 5.1217976e-06 3.6216982e-06
00000000: 2f85 2836 9cf3 5f35 7fdb 5d35 1c8e 5535
00000010: 45d1 b435 8786 6d34 88ad 8736 5a57 3434
00000020: 20d5 2135 3bf9 0b35 00d3 8534 bc21 f034
00000030: 21c7 4835 f0bb 9a34 fa45 8f34 6527 0734
00000040: d04f 1c36 0317 f036 439d ac36 c50c 4836
00000050: 5278 c536 c59c 1236 e8db ab36 4d0c 7336
